IO_DynaPlex/DeepControlledLearning/PolicyWeights/perishable_systems_m4_l1_cvr1.000000_f0.500000_DCL0/cl_gen.pth (torch, 292422 bytes, 10 tensors)

weight f4 [256, 4]
000000 2b f3 82 bc d9 cf db be 96 f9 30 3e 7f f4 c8 3d
       -0.015985092 -0.42932013 0.1728271 0.09812259
000010 f3 6e b2 3e 06 6f 3f bd f4 ee 19 3a c0 c0 92 be
       0.34850273 -0.04673674 0.00058720936 -0.28662682
000020 c2 ca d0 be 4c b1 ce 3e 4c 6b bf 3e 8c 11 ed 3d
       -0.40779692 0.40369642 0.3738655 0.115756124
000030 6c a8 c5 be ba e6 b2 bd 76 4a c8 3e e5 8a 9d bd
       -0.38605058 -0.08735414 0.3911931 -0.07692508
000040 92 c8 dc 3e d6 b9 5f be af f1 c4 be 8f 1d 94 bd
       0.43121773 -0.21848235 -0.3846564 -0.072322
000050 1f 27 78 be 36 b5 e4 3e eb 31 b2 bd ca a6 d2 be
       -0.24233674 0.44669503 -0.08700927 -0.41142875
000060 72 59 9c bb 52 52 83 3e ae a6 e6 3e cf 6e ca 3d
       -0.004771405 0.25648743 0.45049042 0.09884416
000070 53 d3 63 be 7e f2 95 be 14 aa 6b be 4f e4 e1 3e
       -0.22248583 -0.2928657 -0.23014098 0.44119498
000080 a5 b7 91 3e c9 0b e4 3e 50 19 75 3e 2e 7a 04 3e
       0.28460422 0.4454024 0.23935437 0.12937233
000090 ee ff e4 bd b9 66 a7 3d 42 c4 20 be bc c2 e3 be
       -0.11181627 0.0817389 -0.15699866 -0.44484508
0000a0 cc 70 f0 be 54 2f 59 be 28 27 fa bd 00 37 3f bd
       -0.46961057 -0.2120946 -0.122145 -0.04668331
0000b0 7c 41 28 3e ff 5d 1c 3c 20 9c 2c be e6 b5 5a be
       0.1643123 0.009543895 -0.16856432 -0.21358451
0000c0 49 8b bd 3d c5 b2 ab bc 1a cc 36 bc ba cd 8b bc
       0.09255082 -0.020959267 -0.01115706 -0.017065872
0000d0 b8 2e f6 bd a8 39 9b bd f4 ba 10 be 4c 79 03 be
       -0.1202063 -0.075793564 -0.14133817 -0.1283924
0000e0 67 1b 8a 3e 92 08 89 be 75 de 02 3e d5 08 23 3e
       0.2697403 -0.2676435 0.12780173 0.15921338
0000f0 86 7a a2 3e a0 ff 8b 3e e3 57 67 be b8 b1 94 be
       0.31734103 0.27343464 -0.2259212 -0.2904184
000100 c2 a7 ea 3e b6 f0 a0 3e f0 f1 39 3e c7 3f c1 3d
       0.45831114 0.31433648 0.18158698 0.09435993
000110 ad 91 79 3d 6d 43 8b be 7c e2 32 3d 43 33 06 3e
       0.060929943 -0.2719988 0.043673024 0.13105492
000120 31 57 83 be cb 53 b4 be 06 d3 a5 bd 83 9d aa 3e
       -0.2565246 -0.3522018 -0.0809689 0.33323297
000130 7f fd 8a 3e 9b 74 bb 3d 88 d3 aa 3d 57 d4 75 3e
       0.27146527 0.091531 0.08341128 0.24006782
000140 05 72 9d be e2 b0 82 3e 80 73 47 bd f5 90 a8 3e
       -0.30751052 0.25525576 -0.048694134 0.32923093
000150 4f b4 01 bf 55 41 20 bf f2 75 69 be b8 d6 a2 3e
       -0.50665754 -0.6259969 -0.22798899 0.31804442
000160 12 e7 f6 be 09 ab 38 be ee c9 e6 be e7 38 10 be
       -0.48223168 -0.18033995 -0.45075935 -0.14084207
000170 b5 51 23 be c8 37 d7 bc 40 f5 14 3e 9f 4a 5d 3e
       -0.15949138 -0.026271716 0.1454668 0.21610497
000180 fa 39 43 be 11 6b 73 3e 57 77 ac 3e 13 ec 06 bf
       -0.19065085 0.23771311 0.336848 -0.5270397
000190 93 d5 ad 3e 51 9c 7c 3e 7b 3c 52 3d bf 9a df 3d
       0.33952007 0.24669005 0.05132721 0.10918187
0001a0 dd b6 8d 3d 09 db 77 be ea fa 2e bd 2a 78 25 3e
       0.06919644 -0.24204649 -0.04271976 0.1615912
0001b0 05 dd 03 3e 41 f8 71 3e bc fc 13 3e 3c 46 b0 3e
       0.12877281 0.23629858 0.1445188 0.34428585
0001c0 29 5f 95 3e a5 96 f5 3d 21 7f 0f 3e 0c ca bb 3c
       0.29174164 0.11991624 0.1401334 0.022923492
0001d0 c9 b7 aa 3e 40 6b 70 be af 50 8f be ef 2c f9 3d
       0.33343342 -0.23478413 -0.27991244 0.121667735
0001e0 ae 04 ff be ff 0e b7 be 92 2a d2 bd 8a 65 0d 3e
       -0.49808258 -0.3575363 -0.10262026 0.13808265
0001f0 4c f2 a2 be e5 59 26 be 3f 50 5c bd 39 f6 00 3e
       -0.31825483 -0.1624523 -0.053787466 0.12593926
000200 97 d5 d6 bd 27 18 81 3e 2f ed 0f bd f3 f4 27 3e
       -0.10489958 0.2521374 -0.035138305 0.16402034
000210 5e 55 8d be db e6 06 bf b0 78 ad bd 67 39 19 3e
       -0.27604192 -0.5269601 -0.08470285 0.14963304
000220 f0 91 4a bd 41 86 90 bd 4b 2d 7e 3e 50 02 08 bd
       -0.049455583 -0.07056857 0.24821965 -0.03320533
000230 16 41 e2 3e f5 23 ce 3e 7b 62 85 be bc f2 ba be
       0.44190282 0.40261808 -0.26051697 -0.36513317
000240 ab 09 f4 3e 02 70 94 be e3 e9 d3 be 81 a9 64 be
       0.47663626 -0.28991705 -0.4138938 -0.22330286
000250 85 e7 62 bb 13 7a 23 3e e3 d1 73 be 4a df db 3e
       -0.003462286 0.15964536 -0.23810534 0.42943794
000260 0a a9 1b 3d 2d c1 98 be 65 c8 85 be b9 88 cf 3e
       0.038003005 -0.2983488 -0.2612945 0.40534
000270 60 8c 32 be 70 0c 32 3e fb 10 a5 3e 57 42 0d 3e
       -0.17436361 0.17387557 0.32239518 0.13794838
000280 07 14 c9 3c 19 b8 61 be e8 ad a6 3e b8 2f dc 3e
       0.024545683 -0.22042884 0.32554555 0.43005157
000290 d5 71 c6 be 16 6e 9f 3e c9 21 5c be a3 4a e2 3e
       -0.38758722 0.31138676 -0.21497263 0.44197568
0002a0 8f 9f b1 be c5 80 70 3e 97 38 82 3c 2d c4 94 3e
       -0.34692046 0.23486622 0.015896125 0.2905592
0002b0 f3 0f 9c 3e 2a e3 c1 be 9f fb d6 be bd 8e d1 be
       0.30480918 -0.37868625 -0.41988847 -0.40929213
0002c0 fc df f1 3e 7c 1d e3 be 57 58 e1 3e cc 11 74 be
       0.472412 -0.44358432 0.4401271 -0.23834914
0002d0 41 80 27 be 27 36 21 3e ee 3c c3 3e 2b b1 d4 be
       -0.16357519 0.15743314 0.38132423 -0.41541418
0002e0 88 44 c4 3e b5 18 16 3d b2 8e 3e 3e e8 1e 81 3d
       0.38333535 0.036644656 0.18609121 0.06304723
0002f0 29 0d 98 3d 14 3a d8 be 69 86 0b bf be e5 e6 3c
       0.07424385 -0.4223181 -0.5450197 0.028185721
000300 48 9d 7c 3d bc c0 03 3e d4 bd e4 be 80 24 34 bd
       0.061673433 0.12866491 -0.44676077 -0.04398012
000310 32 3e c5 be 7e 9b c4 be 18 61 b1 bd f6 51 8f be
       -0.38524014 -0.3839988 -0.08661097 -0.2799222
000320 26 12 2b be 90 b0 81 3e 3c 22 0d 3e f0 1c 88 3e
       -0.16706142 0.2533002 0.1378259 0.26584578
000330 ff 0b ed 3d 2c d0 ec be 13 cb 0a be 91 7d 45 be
       0.11574554 -0.46252573 -0.13554029 -0.19286181
000340 b7 cb 88 3e b9 08 7e be d8 98 b2 bd b9 a3 9e 3d
       0.26717922 -0.24808015 -0.08720559 0.07746071
000350 75 fa 23 3e 1f 11 63 3e 53 f7 12 3e 16 8e 67 3d
       0.1601351 0.221745 0.14352159 0.056531988
000360 7b 69 39 3d 1b 93 2b 3e b1 f7 00 3e c9 50 a9 3d
       0.04526661 0.16755335 0.12594487 0.08267362
000370 f8 96 e7 3e f4 c3 ee be 8b e3 aa 3e 10 bc b6 3e
       0.45232368 -0.46633875 0.33376727 0.35690355
000380 ec 29 96 be 0d bf 92 bd 2f fc 93 3d b0 d5 bd be
       -0.2932886 -0.07165346 0.072258346 -0.37077093
000390 f9 d3 a2 be eb 91 e3 bb f0 15 46 3e 5d 83 15 3d
       -0.31802347 -0.006944885 0.19344306 0.03650223
0003a0 aa e0 25 3d 39 e8 05 bd e7 ea cc be a6 01 24 bd
       0.04049746 -0.032692168 -0.40022966 -0.040040635
0003b0 9b 90 6d be 5f fc 20 3d 45 43 da be e5 11 8d be
       -0.23199694 0.03930318 -0.42629448 -0.27552715
0003c0 f8 ac 79 be 34 97 6a 3e 71 3f 75 3c 50 83 0c 3d
       -0.24382389 0.22909242 0.014968739 0.034304917
0003d0 b2 ce 9a be cb eb de be c2 0c b3 3e 4b c0 a4 3e
       -0.3023582 -0.4353927 0.3497067 0.32177958
0003e0 aa 71 03 3f c9 cf 83 3e 23 98 57 3c b1 aa 07 3e
       0.5134531 0.25744465 0.013158831 0.13248707
0003f0 8b 4a d8 be aa 50 b0 3e d0 fb 0a be 80 10 c7 3e
       -0.42244372 0.34436542 -0.13572621 0.38879776

bias f4 [256]
000000 8d 83 00 3f e8 1e e4 be 5c ab dd be 44 a5 c5 3e
       0.5020073 -0.4455483 -0.432948 0.3860265
000010 44 0f f2 3e f0 f3 c4 3e 9a 6f 85 3e f3 18 cc be
       0.47277272 0.3846736 0.26061708 -0.39862785
000020 a9 70 1f bf 29 a4 b1 3e de 01 ee be 48 a3 ec 3e
       -0.6228128 0.34695557 -0.464858 0.46218324
000030 a7 70 6f 3e ac 9d 51 be cc 65 1f 3f ae ba 69 3d
       0.23382817 -0.20470303 0.62264705 0.057062797
000040 32 96 87 3e 25 8c c2 be f4 93 42 be da f2 03 be
       0.26481777 -0.37997547 -0.19001752 -0.1288561
000050 17 f9 ab 3e 65 40 93 be dd 2a c8 3e 20 58 32 3e
       0.33588478 -0.28760067 0.39095202 0.1741643
000060 04 6d 93 3d 13 42 48 3e fd 0e 75 be a7 af 27 3c
       0.071985275 0.19556455 -0.23931499 0.01023475
000070 4e 6b 1a be de f3 8d be 09 2c 33 bd 3b 01 09 3f
       -0.15079996 -0.27725118 -0.043743167 0.535175
000080 c6 0f 35 3e 02 d2 c3 3e 25 6a 0d 3f c8 d8 dd 3d
       0.17681798 0.3824616 0.5524009 0.10832363
000090 92 79 13 3f c8 fd d9 be 52 79 30 be ef 4b 52 be
       0.57607377 -0.42576432 -0.1723378 -0.20536779
0000a0 ca e0 47 be 62 5d 0c 3f 0f 79 c3 3e 48 c5 03 3e
       -0.19519344 0.5482999 0.38178298 0.12868226
0000b0 25 1b cd be fa 2d 11 bf 18 88 3f be 64 62 ff 3d
       -0.40059772 -0.5671078 -0.1870426 0.124699384
0000c0 3c 84 f1 bd 30 61 da be 74 d7 20 bf 5e 23 68 bb
       -0.117928 -0.42652273 -0.62828755 -0.003542147
0000d0 17 aa c4 3e 4e 52 09 bf da 06 f1 3e 2c d0 03 3f
       0.38411018 -0.5364121 0.4707554 0.5148952
0000e0 1b 9c 42 3e 83 57 60 be 0e 9a d4 3e 92 e1 d0 3e
       0.19004862 -0.21908383 0.41523784 0.40797096
0000f0 92 2b 16 be 09 61 0a 3f 8b e7 9b be 46 14 c4 3e
       -0.14665058 0.54054314 -0.3045009 0.38296717
000100 3e f4 86 be c0 80 df be d2 17 02 3c 52 48 12 3f
       -0.26358217 -0.43652916 0.0079402495 0.571416
000110 8e cf 1e 3f 92 cf 90 be 45 8c 13 bf 36 d3 90 3c
       0.62035453 -0.28283364 -0.5763591 0.017678838
000120 ce c1 49 be 11 3f 30 be 37 5c cb be f9 49 09 3f
       -0.19702837 -0.17211558 -0.39718792 0.536285
000130 d8 c6 18 3f 67 e3 89 3e b1 c6 9a 3e 1a 16 2b be
       0.5967841 0.26931307 0.30229715 -0.1670765
000140 60 d2 24 bc 55 76 b4 be a6 2b f0 3c f0 d2 7f be
       -0.010059923 -0.3524653 0.029317688 -0.2498281
000150 4b 85 02 3f af ca 10 3f d8 5d de bc 3b 62 ec 3d
       0.5098464 0.5655927 -0.027144358 0.115421735
000160 c5 f7 5d 3e 97 9f 8a 3c 91 e9 d4 be ca 7a 46 be
       0.21676548 0.016921801 -0.41584447 -0.19382778
000170 04 49 06 bf 6c a7 fa be 27 fa 18 be 30 73 bb be
       -0.52455163 -0.48955858 -0.14939176 -0.3661132
000180 e9 55 20 3f 91 cf 06 bf 28 65 9a 3c 71 e5 9c be
       0.6263109 -0.5266047 0.018847063 -0.306438
000190 3e 2f 0a 3f d2 2a 95 be 6a 37 f1 be 3b d3 06 bf
       0.53978336 -0.29134232 -0.4711259 -0.5266606
0001a0 00 18 fc be fb cc 03 3f 27 da 26 3e 27 e8 08 bf
       -0.4923706 0.5148465 0.16294156 -0.53479236
0001b0 4d 39 16 3f 2f d0 0b bf 45 20 06 3f f6 5d 14 3f
       0.58681184 -0.5461454 0.5239299 0.57955873
0001c0 6f 0e 9a be 80 c5 51 bc 8f 1c 39 3e 52 96 b6 be
       -0.30089137 -0.012803435 0.180773 -0.3566156
0001d0 5c 0b ce be e2 7f 74 be 48 33 ab bd 8c 87 e9 3e
       -0.40243042 -0.23876908 -0.083593905 0.45611227
0001e0 88 bc b7 3e 0f 8f 87 bd 4c 82 ce be 3d c4 27 be
       0.35886025 -0.06619083 -0.40333784 -0.16383453
0001f0 35 27 d3 3e 1b a8 35 3d 68 e5 8d be 49 82 13 3f
       0.4124085 0.04434977 -0.27714086 0.57620674
000200 f3 39 a0 3e 66 6f c1 be 25 b8 9d 3e a3 dc 8c be
       0.31294212 -0.37780303 0.30804554 -0.27512082
000210 b6 2c fd 3e 90 6f 9e 3e 00 ad 53 be 77 30 90 3e
       0.49448174 0.3094449 -0.20671463 0.28161976
000220 27 43 8b 3e fc 56 e7 3e c1 ce a9 3d 64 82 c0 be
       0.2719967 0.4518355 0.08291388 -0.3759948
000230 ab 6d 10 3e b4 4a 46 3e e9 a1 07 bd 85 eb ac be
       0.14104335 0.19364434 -0.033113394 -0.33773437
000240 e9 d5 0c 3f 52 4a 3c be 1f d0 f0 3e 64 b6 db be
       0.550139 -0.18387726 0.47033784 -0.4291259
000250 17 df 0d 3f 72 1f b8 3e 6d 07 17 3f 67 06 a6 3e
       0.55418533 0.3596149 0.58995706 0.3242676
000260 e1 e0 4a be 2a bb 83 3e 6e 8f 8e 3e 8b ea 23 3f
       -0.19812347 0.25728732 0.27843803 0.6402976
000270 b9 13 64 be da fd 80 be 52 87 a9 be 4a 68 0f bf
       -0.22273149 -0.25193673 -0.33111054 -0.5601851
000280 b9 1f b9 3e 26 9c 1e 3e d3 e9 fd 3e b7 3c 2c 3f
       0.36157015 0.15489253 0.49592456 0.67280143
000290 30 28 bd be 14 27 91 3e f9 bf 05 3f 3a b7 08 be
       -0.36944723 0.28350127 0.5224605 -0.13351145
0002a0 39 dc 00 3f 3d 0e 94 be da 2b 8b be dc 40 02 3f
       0.50336033 -0.28917113 -0.27181894 0.5088022
0002b0 ac a6 bb be 81 e5 e5 ba 56 68 cf be ce ad 93 be
       -0.36650598 -0.0017539711 -0.4050929 -0.2884354
0002c0 91 4d e2 be bf 94 7e be 37 d7 da bd f8 3a 9c bd
       -0.44199803 -0.2486143 -0.1068558 -0.07628435
0002d0 e6 be 9c be c2 02 95 3e 87 55 e1 be 8a ea c6 be
       -0.30614394 0.29103667 -0.44010565 -0.38850814
0002e0 bb ad 78 3d e2 d9 40 3d d8 1b 6a 3d 18 79 e3 be
       0.060712557 0.04708279 0.05715546 -0.44428325
0002f0 38 eb e8 3e 04 85 97 3d cf 41 33 be 27 b1 80 be
       0.45491958 0.073984176 -0.17505573 -0.25135157
000300 e3 ea f0 be 99 56 02 bf 18 8f a3 bd 20 87 12 3f
       -0.47054204 -0.5091339 -0.07986277 0.57237434
000310 28 7c f6 be a0 ac 1e 3f 37 f4 ac be 18 a0 02 3c
       -0.481416 0.61982155 -0.3378007 0.00797274
000320 67 75 73 3d a9 62 10 3f de 2a 86 be b0 97 de 37
       0.059438135 0.56400543 -0.2620458 2.6535097e-05
000330 de af bf 3e ba 52 12 bf 2c 08 03 3e af ec b8 be
       0.37438864 -0.5715748 0.12796086 -0.36118075
000340 53 09 bb be 99 f4 7f 3e 8f 59 1d 3e 79 df 0e 3f
       -0.3653055 0.2499565 0.15366195 0.5580974
000350 17 f5 92 3e b7 7d 0c 3f e2 57 55 be 98 f2 6c 3e
       0.28702614 0.54879326 -0.20834306 0.23139417
000360 09 51 61 be 8a 45 7f be c3 ea 16 be 39 e9 50 be
       -0.22003569 -0.24928871 -0.14737992 -0.20401467
000370 3f 8e 94 be 98 e0 94 be 0a 85 86 be 06 5c df 3e
       -0.29014775 -0.290776 -0.26273376 0.43624896
000380 75 10 93 be 06 e5 ae 3e 86 60 ad 3e 28 62 00 3e
       -0.28723493 0.34159106 0.33862704 0.12537444
000390 50 c7 c4 be c7 97 1e 3f fa 5c ef be 68 8c d2 be
       -0.38433313 0.61950344 -0.46750623 -0.41122746
0003a0 6a c6 88 3c 21 46 e5 be b5 e9 21 3f 77 53 03 bd
       0.016696174 -0.44780067 0.63247234 -0.03206202
0003b0 15 c6 c2 be 7f 59 cd 3e db f8 a2 be 2b fb f9 be
       -0.3804175 0.40107343 -0.31830487 -0.48824438
0003c0 d2 b5 56 be 9e 68 28 bd 12 90 ea be 2b 84 44 bd
       -0.20967796 -0.041115396 -0.45813042 -0.047977608
0003d0 f7 e9 ee be d7 36 c2 3d 9d 84 f0 be 49 a0 b4 3e
       -0.46662876 0.09483116 -0.46976176 0.35278538
0003e0 58 07 cc be 45 42 af 3e 4c da 13 3f 3f d0 7b be
       -0.39849353 0.34230247 0.5775497 -0.24591158
0003f0 84 29 c9 3e a8 af 40 be 90 a9 96 be d3 60 de be
       0.39289486 -0.18817008 -0.2942624 -0.43433246

weight f4 [128, 256]
000000 80 9a c2 ba 38 89 d7 bc fa ad 15 3d 3e 47 6d bd
       -0.001484707 -0.026310548 0.03654287 -0.05792927
000010 e0 b6 cc 3c d0 21 ff 3b a4 a2 a5 bc 76 be 2a 3d
       0.024989545 0.007786013 -0.020219155 0.041685544
000020 f8 66 5c bc c0 09 eb ba 30 4b 7c 3c ac 6a fd 3c
       -0.013452284 -0.0017931983 0.0153987855 0.030934654
000030 c0 59 cb bb 7a a7 3c 3d 92 2b 41 3d 54 1f 8f 3c
       -0.0062057674 0.046058156 0.047160693 0.017470993
000040 52 af 1b bd 14 6c 9f 3c 10 df 85 3c 04 bc ba bc
       -0.038008995 0.019460715 0.016341716 -0.022794731
000050 2e e2 64 3d e8 f3 1b 3c c2 1d 2a bd 00 24 32 3a
       0.055879764 0.009518601 -0.041532286 0.00067955256
000060 62 a0 16 3d 3c b6 c5 3c f4 84 23 3d 28 eb 6d bd
       0.036774047 0.024134748 0.039921716 -0.05808559
000070 90 ab e3 bb fa e1 60 3d b6 4b 58 3d 4c 4f ac bc
       -0.006947942 0.054903008 0.05280658 -0.021033905
000080 88 fe 5f 3d a0 fd d0 3b e4 21 4d bd 52 7e 44 bd
       0.0546861 0.0063778907 -0.05008115 -0.04797203
000090 88 ec 56 3d c0 70 8c 3b 80 a3 92 bc 58 ca e9 bc
       0.052471668 0.004285902 -0.017900229 -0.028538868
0000a0 12 98 4a 3d 00 d3 6d ba b0 9b 48 bc 4e ce 44 3d
       0.04946143 -0.0009072274 -0.01224415 0.04804831
0000b0 74 8c 41 bd d2 ac 0d bd a0 13 22 bc dc 84 8f bc
       -0.047253087 -0.034588642 -0.009892374 -0.017519407
0000c0 8c b9 9d bc 0a 63 78 bd d8 50 5a bd 20 32 f1 3c
       -0.019253515 -0.060641326 -0.053299755 0.029442847
0000d0 d2 50 51 3d 20 cf 4b 3b 1a 1f 5e bd 20 70 40 3c
       0.051102467 0.0031098798 -0.05422888 0.011745483
0000e0 04 ac 84 3c 58 61 3c 3d 48 57 e9 3c e6 92 0f 3d
       0.016195305 0.04599127 0.028484002 0.035052203
0000f0 a8 60 a4 3c 86 55 40 bd 30 c6 5e 3c 60 76 d2 3c
       0.02006562 -0.04695656 0.013597056 0.025691211
000100 92 f9 23 3d 76 2f 34 bd 76 c6 08 3d 80 42 a6 bc
       0.04003293 -0.043990575 0.033392392 -0.020295382
000110 bc 21 3b bd 90 67 db bc 2c fa b6 bc 80 4f 83 3c
       -0.04568647 -0.02678278 -0.022336088 0.01602912
000120 00 13 dc 3b d8 93 73 bc fa 4c 0b 3d 80 22 f8 3b
       0.006716132 -0.014866792 0.034008957 0.007572472
000130 26 7d 38 bd 44 d6 fa bc 9c c6 38 bd dc fd bd bc
       -0.045041226 -0.030619748 -0.045111284 -0.023192339
000140 a8 10 c2 bc 5c 77 78 3d 2c f4 d7 bc 60 b9 e2 3c
       -0.023689583 0.060660705 -0.026361547 0.027676284
000150 00 87 fc b9 14 ad a8 bc 80 93 86 3a 50 8e 99 bc
       -0.00048165768 -0.020590343 0.0010267347 -0.018744618
000160 e0 4e b0 bc 1a 62 6f bd 20 ae a3 bc fc 71 17 3d
       -0.021521986 -0.058443166 -0.01998049 0.03697394
000170 08 2e 08 bd 5c ff 42 bd ea 78 1f 3d 1a 6e 6a 3d
       -0.033247024 -0.04760681 0.038933672 0.057233907
000180 b0 2a 00 bd 88 0a 21 3d 80 35 92 bb 34 71 fa bc
       -0.03129071 0.039316684 -0.004461944 -0.030571558
000190 00 57 9a bc d8 c5 92 bc 32 07 5a bd 30 09 29 bd
       -0.018840313 -0.017916605 -0.05322952 -0.041268528
0001a0 ea f2 38 bd 00 19 30 3a 50 34 ac bc 7c 37 16 bd
       -0.045153536 0.00067175925 -0.021021038 -0.036674008
0001b0 1c 71 6a 3d 36 c8 68 bd 66 05 1f bd 5a da 3f bd
       0.057236776 -0.05683156 -0.038823508 -0.046839096
0001c0 c2 dd 4a 3d 2c 9f b2 3c c8 af 40 3d 0c d4 09 3d
       0.04952789 0.021804415 0.047042638 0.03364949
0001d0 a0 d6 1a 3d e8 03 33 bc e0 15 2f bc 80 5c 35 bb
       0.03780234 -0.010926224 -0.010686368 -0.0027673542
0001e0 60 35 73 bc 80 72 9f bc c0 66 6a 3c d0 7c 87 3c
       -0.014844269 -0.019463778 0.014306724 0.016539007
0001f0 24 66 87 3c f0 27 f9 3b c0 4c 03 3d 6c b1 1c 3d
       0.016528197 0.007603638 0.032055616 0.03825514
000200 b4 38 b0 bc 82 bb 1a bd 9c cb 50 bd 02 10 32 bd
       -0.021511413 -0.037776478 -0.050975427 -0.043472297
000210 52 d3 6a bd c4 3c 10 bd 00 48 f5 3a b6 fd 37 3d
       -0.057330437 -0.0352142 0.0018713474 0.044919692
000220 bc 35 33 3d e8 3d 3f 3d 48 f1 4c bd f4 0b 6e bd
       0.043752417 0.046689898 -0.05003479 -0.05811687
000230 a0 98 54 bd a0 71 ec bc 18 8b 28 bc 5c d4 c3 3c
       -0.051903367 -0.028862774 -0.010287069 0.023904972
000240 c8 9e eb bc 40 d8 93 3b 76 e4 4e 3d e0 b5 8d bc
       -0.028762236 0.004511863 0.050510846 -0.017298639
000250 0c 7f 3b 3d 1e ab 41 3d 20 e1 c2 3c de 38 31 3d
       0.04577546 0.04728233 0.023788989 0.043267123
000260 c8 9d 7b 3c 8c 65 9d bc 9c 20 db bc c4 fd b1 3c
       0.015357442 -0.01921346 -0.026748948 0.02172745
000270 20 d4 13 3d 48 0a 7d 3d 40 a4 50 bb c8 4b b6 3c
       0.03609097 0.061777383 -0.0031836182 0.022252932
000280 e8 8c 4e 3c 80 1e fb bb cc 66 a0 3c 90 2d ba 3b
       0.012606837 -0.007663548 0.019580267 0.005681701
000290 62 a6 48 bd 10 05 13 bd 18 df 52 3c e4 09 af 3c
       -0.0489868 -0.0358935 0.0128705725 0.02136702
0002a0 96 e6 64 bd 70 84 1f bc 00 72 bd 39 10 a7 9c bc
       -0.055883966 -0.009736165 0.00036133826 -0.01912263
0002b0 00 27 0b 3a 28 02 70 bd c0 e0 9d 3c c0 ea d7 bb
       0.00053082407 -0.058595806 0.019272208 -0.0065892637
0002c0 00 e8 17 bb c4 7c d9 3c 68 ba 91 bc f6 eb 3f 3d
       -0.0023179054 0.02654875 -0.01778908 0.04685589
0002d0 a4 28 71 3d 5a 40 0b 3d b0 aa d4 3c 64 e7 ad 3c
       0.05887665 0.033996917 0.025960296 0.0212285
0002e0 16 c7 48 bd f4 88 78 3d 70 46 50 bc d0 c3 f0 bc
       -0.04901799 0.060677484 -0.012712106 -0.029390246
0002f0 22 4a 14 bd 50 ca 48 3c dc 64 70 bd 44 b7 a8 3c
       -0.03620351 0.012255266 -0.058689937 0.0205952
000300 62 7e 04 3d 10 75 e9 3b e2 88 71 bd f4 57 c0 3c
       0.03234709 0.0071245506 -0.058968432 0.02347944
000310 44 63 21 3d 96 09 05 bd 04 03 aa 3c ce 30 1c 3d
       0.039401308 -0.032479845 0.020753391 0.03813248
000320 f0 3e 28 3d 80 0f 6a 3b 88 6f fb bc 80 be 9c 3a
       0.041075647 0.0035714805 -0.03069283 0.0011958629
000330 50 4e 8c bb 80 7d 24 ba e0 f5 4c bc 6c 48 e8 bc
       -0.0042817965 -0.00062748045 -0.012509793 -0.028354846
000340 b6 b9 3b 3d 7a c6 10 3d 6c 92 3d bd bc fd bb 3c
       0.045831405 0.035345532 -0.046282217 0.022948138
000350 8c 6c 69 3d 0c 49 7f 3d e0 5f d4 bb 90 67 65 3c
       0.056988284 0.062325522 -0.0064811558 0.014001742
000360 a8 9f 0b 3d d0 92 c5 3b 9a 84 74 bd 7c d7 20 3d
       0.034087807 0.0060294643 -0.05969677 0.039268002
000370 0c 4d 89 3c 70 6c b0 3b 04 0c ef 3c 6c e5 5c bd
       0.016760372 0.0053840205 0.029180534 -0.05392973
000380 84 7a be bc a8 19 97 bc 50 f3 ab bb c8 48 2e 3d
       -0.02325178 -0.018444851 -0.005247511 0.04254988
000390 44 91 cf bc 34 79 12 bd ce ad 0b 3d c4 ef f2 3c
       -0.025337823 -0.03576012 0.0341013 0.029655345
0003a0 b0 6a 3f 3d 68 2a ff 3c b8 01 cf bc fc b0 9b 3c
       0.046732605 0.03114815 -0.025269374 0.019005291
0003b0 c8 aa 20 3c 78 82 30 3d 48 e7 17 bc 98 c4 92 bc
       0.009806342 0.043093175 -0.00927145 -0.017916009
0003c0 6c d9 69 bd 9a ed 21 bd 20 a1 84 3c f4 bc 1d bd
       -0.057092115 -0.039533235 0.016190112 -0.038510278
0003d0 08 24 62 bc 42 9c 22 3d e8 80 a9 3c b0 f2 76 3c
       -0.013802536 0.0396998 0.02069135 0.01507251
0003e0 a4 72 c1 bc 50 5b 79 bd c0 6c 0d bc d4 7d 86 3c
       -0.023614235 -0.060878098 -0.008631885 0.016417421
0003f0 00 53 30 ba b6 50 11 3d a0 f7 30 bb 98 56 1f 3d
       -0.0006726235 0.035477363 -0.0027003065 0.03890094

bias f4 [128]
000000 40 15 56 3c 4f ce 97 bd 96 c8 27 3e 56 28 ed ba
       0.01306659 -0.07412397 0.16385111 -0.0018093686
000010 42 1b b8 bd 56 62 88 bd e4 1a c1 3d 9b 39 ff bd
       -0.08989574 -0.06659381 0.09428957 -0.12462159
000020 74 c7 a8 3d 67 c7 51 bd 1c 58 22 bd 68 23 35 3d
       0.08241168 -0.051215556 -0.03963481 0.04422322
000030 04 d2 0d be ae 67 4b 3c fe a2 54 bd c1 81 df 3d
       -0.13849646 0.012414856 -0.051913254 0.109134205
000040 09 c3 2f 3c f1 30 96 bd 5d f4 d2 3c bd 93 c9 3c
       0.010727652 -0.073335536 0.025751287 0.02460658
000050 46 fe 3c bd 46 5e dd bd 37 c0 de 3d 69 2a 14 3e
       -0.04614093 -0.10808997 0.10876506 0.14469303
000060 dc 69 fd 3d 6f bc b0 3d 76 0d 37 3c 2c c2 5c bc
       0.12373707 0.08629691 0.011172643 -0.013474029
000070 e4 d8 43 3d 6e bb 41 3d e0 45 85 3d 8e fd 9c bc
       0.047814265 0.047297888 0.06507468 -0.019163873
000080 d8 41 1d 3e 72 ef b1 bd b7 a9 1c 3e 97 e5 20 be
       0.15357149 -0.08688249 0.15299116 -0.15712582
000090 00 1f 87 3d 68 5c 5f 3d 93 eb c1 bd 71 ad 8f bd
       0.0659771 0.054531485 -0.0946876 -0.07015503
0000a0 7e b6 7f bc d0 ad 0e 3e d3 80 ba bc cd a0 aa bc
       -0.015607474 0.13933492 -0.022766506 -0.020828629
0000b0 79 4f a4 3d dc 0d 69 bd 2c 4c 9d 3c f1 58 3d bd
       0.08022971 -0.056897983 0.01920136 -0.0462274
0000c0 fa 05 01 3e 7d e6 22 3e 65 05 0e be 3f 76 94 3d
       0.12599936 0.15908237 -0.13869245 0.07249116
0000d0 d2 a0 c9 bd 28 81 dc 3d e7 a2 38 3d 1f 77 04 3d
       -0.09845127 0.10766822 0.04507723 0.032340165
0000e0 96 d3 af 3d 58 98 4d 3e d3 16 41 3d b4 9f 21 3d
       0.08585279 0.20077646 0.047140907 0.039458945
0000f0 63 af ea 3d 93 9b 5b 3d bf 1b a1 bc f5 80 4d 3d
       0.114592336 0.053615164 -0.01966655 0.05017181
000100 33 8a 27 be 32 7b b2 bd 27 35 01 bd d7 d6 87 bd
       -0.16361313 -0.08714904 -0.03154483 -0.06632774
000110 80 fa 09 bd 0c 07 f6 bd a6 d9 b7 bd 4f 7c 21 bd
       -0.03368616 -0.12013063 -0.0897706 -0.03942519
000120 19 d7 3c 3e f3 f6 24 3d 4a e5 6c 3d 03 bf df bd
       0.18441428 0.04027457 0.057835855 -0.109251045
000130 a4 8a 96 3d 54 a3 a9 bd 0a fd 92 3d d1 cd b2 bd
       0.07350662 -0.082831055 0.071771696 -0.087306626
000140 b8 d9 2b 3d ca 30 33 3e e3 72 4e bd 1a f9 45 3e
       0.04195568 0.1749908 -0.050402533 0.19333306
000150 a8 ad d9 3d b2 6a 96 bd 3e 20 1b bd 17 0c 7c bd
       0.106288254 -0.07344569 -0.037872545 -0.061534967
000160 12 32 3d bd 44 01 e6 bd 08 9b 6b bd 25 b9 19 3d
       -0.04619033 -0.1123071 -0.057520896 0.037530083
000170 47 e6 4e bb 9f 2f 35 3e 1e 7a 94 3c 08 a4 2c 3d
       -0.0031570361 0.17693947 0.018124636 0.04214862
000180 cb 2b 97 bc dd ee 39 bc b4 a8 3a bd 44 b8 1b 3e
       -0.0184535 -0.011348453 -0.045571044 0.1520701
000190 e9 a4 ca 3d e9 bc 1e 3e 97 d4 78 bd 68 75 90 3d
       0.09894735 0.15501751 -0.060749616 0.070536435
0001a0 51 94 f1 3b 81 35 00 3d 7c 66 10 3e c8 8a c2 bd
       0.007372417 0.031301025 0.14101595 -0.09499127
0001b0 90 f2 39 bc 9b c4 19 3e 1b 59 fe 3d f9 b3 38 bc
       -0.011349335 0.15016405 0.12419339 -0.011273378
0001c0 3b ca ef 3d 08 d6 b6 3c 9e 6b ef bd c4 fd 0c be
       0.11708494 0.022318855 -0.11690448 -0.13768679
0001d0 f8 0a 17 3c 64 6e b1 bc 4d 43 f0 bb 69 16 27 3e
       0.009218924 -0.021659084 -0.0073322416 0.16317143
0001e0 34 79 05 bd 35 9d 9b bd 52 68 88 3d 6a b3 93 3a
       -0.03258629 -0.07598344 0.066605225 0.001126868
0001f0 6d 9c 3e bd b3 bc cf 3d 0f 98 b1 3d 81 1b bb 3d
       -0.046535898 0.101434134 0.08671581 0.09136105

weight f4 [128, 128]
000000 bc be 52 3d a4 1b 3a 3d c3 7c 29 bd ef e9 89 3d
       0.05145143 0.045436516 -0.041378748 0.067340724
000010 ad 4c 67 bd fb 9b ba 3c a9 64 f7 bc a0 ec 8e bd
       -0.056469608 0.022779455 -0.030199366 -0.069787264
000020 f9 ee dd 3c 05 2b 94 3c c3 f4 ba 3c 76 ee 13 3c
       0.02709149 0.01808692 0.02282179 0.0090290215
000030 18 2d 81 3d f4 60 d6 bb 5f 01 ca 3c 39 48 56 3d
       0.06307429 -0.0065423194 0.024658857 0.05231497
000040 bc 3c 02 bd 9a b0 12 bd 01 e4 b1 3d 51 82 e9 3c
       -0.031796202 -0.03581295 0.086860664 0.028504523
000050 7e 88 f2 bb 8e 43 a1 bd a6 22 a7 3d a9 c5 19 bb
       -0.007401525 -0.07874213 0.081609055 -0.0023463762
000060 78 71 7a bd 23 16 6e 3b c4 06 20 bd 1d 95 0f 3d
       -0.06114337 0.0036329112 -0.039068952 0.035054315
000070 aa 96 70 3d 1c fb 31 3d 16 21 09 3e 52 e6 95 bc
       0.058737434 0.043452367 0.13391528 -0.018298302
000080 fb 16 42 3d f2 6c be 3c 7e 1c e9 3d 39 22 02 3c
       0.047385197 0.023245309 0.113823876 0.00794273
000090 d5 c9 95 3d 20 4a b1 bc 7e 81 8e 3d de 89 91 3d
       0.07313887 -0.02164179 0.069582924 0.07106374
0000a0 8f cb 05 3d 53 17 50 3d e7 93 d6 3b f0 1a 5d bd
       0.03266483 0.050803494 0.006548393 -0.053980768
0000b0 23 aa 4c bd a5 db 35 3d 69 c6 94 3b 5a 09 0f 3d
       -0.049966943 0.044398922 0.004540254 0.034921028
0000c0 3b bc 03 3e e7 f3 cf 3c d0 9c 87 bd f1 5a b0 3c
       0.12864773 0.025384856 -0.066217065 0.02152774
0000d0 b2 6a 03 bc 5b 69 97 bd 76 26 03 bd b1 80 3d 3d
       -0.008021044 -0.07393142 -0.0320191 0.046265308
0000e0 7f 91 0c 3d 9c c6 17 bd fd d1 8b bd a4 9d 96 3d
       0.034318443 -0.037054643 -0.068271615 0.07354286
0000f0 6b 93 7a 3d f8 fe 08 bd cb b4 69 3d 74 79 34 bd
       0.061175745 -0.033446282 0.057057183 -0.04406114
000100 9d df 65 3d 0e e3 dc 3c e6 0e 4b bd 5f 47 d7 bc
       0.056121457 0.026963737 -0.049574755 -0.02627915
000110 4d 8e a9 bd 86 11 10 bd 31 39 d9 bd 34 98 5f 3d
       -0.08279095 -0.03517296 -0.106066115 0.05458851
000120 a4 5b 9a bc e6 f1 82 3d 94 5e ef bb e5 11 f7 bc
       -0.018842526 0.06393795 -0.0073049758 -0.0301599
000130 bf 73 c2 3d 7f c2 4c bd cd fe 9e 3d f7 f8 2d 3d
       0.09494733 -0.049990173 0.07763443 0.04247376
000140 d6 61 52 bd 00 e3 ee 3d 07 35 7c bd c9 d3 a8 3d
       -0.051362835 0.116643906 -0.06157401 0.0824352
000150 91 62 4b 3c 21 cd ee bb dc cb b3 3d 4f 1a a1 bd
       0.012413637 -0.007287637 0.087791175 -0.07866346
000160 22 fe 88 3d 52 4a df bb ab 0d 50 3d fe 5f a1 bd
       0.06689097 -0.0068142796 0.050794285 -0.07879637
000170 fb d3 1e 3d cb 06 77 3c 84 9e 78 bd 07 a3 f5 3c
       0.03877638 0.015077303 -0.060698047 0.029984964
000180 d4 40 f7 bc d7 6f 4b bd ee e5 83 3d 34 a3 90 bc
       -0.03018228 -0.049667206 0.0644034 -0.017655946
000190 90 12 12 3d aa fc 92 3d 91 26 7d bd 90 9b d8 3d
       0.035662234 0.07177098 -0.061804358 0.10576546
0001a0 32 98 be bd e4 9c ff 3b d4 f0 bb 3d 23 42 6e bd
       -0.09306373 0.0078006852 0.09176794 -0.05816854
0001b0 af 85 94 bd ac 65 d2 3d 3a 6d be 3d a9 c1 bc 3c
       -0.072520606 0.102732986 0.09298177 0.023041563
0001c0 88 eb 33 3b e0 47 23 3b 24 60 b8 bd 7c 7f 53 bd
       0.002745362 0.0024914667 -0.09002712 -0.05163525
0001d0 3f 83 61 3d 97 e5 38 bd c4 fa 0d 3c 32 33 92 bd
       0.055056807 -0.04514083 0.008665744 -0.07138671
0001e0 95 b4 02 3d d4 bc 2a bc a0 a7 5a bd b7 36 00 bd
       0.031910498 -0.010420997 -0.053382516 -0.03130218
0001f0 34 cb 6e 3d 76 23 5e 3d 56 dd 3c 3d 8b 9f ae 3d
       0.05829926 0.054233037 0.04610952 0.08526524
000200 46 78 a6 bd a1 02 07 bd 07 f5 f9 bb a7 14 a0 bc
       -0.08128409 -0.03296149 -0.0076280865 -0.019541098
000210 6c 3b 91 3d f5 95 1b 3d 3b a9 90 3d ab 3f c3 bd
       0.07091412 0.037984807 0.07063528 -0.09533628
000220 a4 1e 4c 3c f3 fb 04 bd ef 0a 95 3d e1 c8 81 bb
       0.012458477 -0.03246684 0.07277476 -0.003960714
000230 38 65 83 bd 1c 89 57 3d e7 c5 20 3d 80 67 1b bd
       -0.0641579 0.052620992 0.039251234 -0.037940502
000240 c4 1a f6 bd 6c cd 2f 3d 3f ae bd 3c 0c 33 8f 3d
       -0.12016824 0.042920515 0.023154376 0.06992158
000250 13 ca df bb 76 0f 55 3d 49 dc 96 3c 35 aa 8f bd
       -0.006829509 0.052016698 0.018415587 -0.07014886
000260 8e 5b e2 bc 87 12 87 3d 4d 63 70 3d e9 7e a4 3d
       -0.027631547 0.06595331 0.05868845 0.08032019
000270 24 79 87 bd 77 ef b6 bd 32 8d 02 bc 23 69 6b bb
       -0.066149026 -0.08932393 -0.007968234 -0.003592082
000280 b5 c4 a3 3d d8 75 aa bd 83 00 2c 3d 38 e4 94 3d
       0.07996503 -0.08323258 0.041992676 0.07270092
000290 b5 1c 3c bd 7f 01 aa bd 5e 3f 0c 3d 12 28 6b 3d
       -0.045925815 -0.083010666 0.03424012 0.05741126
0002a0 61 81 65 bd 03 d8 19 3c 63 1f 99 3d a5 74 d7 bc
       -0.05603159 0.00938988 0.0747669 -0.026300738
0002b0 04 06 0c bd a5 9e 8c 3d 30 af ec bc ab ec b4 3d
       -0.034185424 0.068661965 -0.02889213 0.08834203
0002c0 55 38 c3 3d 85 3c d6 3c c6 8c 4d 3d ea a1 83 bd
       0.09532229 0.026151905 0.05018308 -0.06427367
0002d0 1c f2 78 3d a8 a0 84 3d fe 9a fa 3b 9e af 0f bd
       0.06077777 0.06475955 0.007647871 -0.03507959
0002e0 19 34 b0 bb 72 7c 05 bd 0c cc e8 bc b6 dc 35 3c
       -0.0053773043 -0.032589383 -0.02841761 0.011099985
0002f0 e8 15 2b 3c 93 a3 11 bd e8 c5 c4 3c 1f 90 6f bd
       0.010442235 -0.035556387 0.02402015 -0.058487054
000300 57 0d 34 3c 44 4f ab bd f5 5e 67 bd 37 cd ab bd
       0.010989509 -0.08364728 -0.056487042 -0.08388751
000310 a1 13 4c 3d 93 a5 ea 3c f9 ae ae ba 9a 3e 58 bd
       0.049823407 0.028643405 -0.0013327292 -0.052794077
000320 e8 d3 b2 3d 7a 0a 6a bd b7 12 b2 bd fd 3e 3d bd
       0.08731824 -0.057138897 -0.08694976 -0.04620265
000330 db 18 81 3c 79 27 a3 bd ca 39 05 3c d2 c2 45 ba
       0.015758922 -0.07966513 0.008131454 -0.0007543984
000340 6f 0d 98 bc 63 f6 61 3d 8a 16 5c bd 50 dd 90 3d
       -0.018561093 0.055166613 -0.053732432 0.07073462
000350 9a 3f 1e 3d 23 75 69 ba f6 e3 9b 3d 8c c9 f9 3d
       0.038634874 -0.00089056994 0.076118395 0.12196645
000360 0a e3 9d 3d da e4 0a bd 29 12 4d bd 18 66 67 bb
       0.0770932 -0.033909656 -0.050066147 -0.0035308655
000370 d0 3e 39 3d 9c 55 1b 3d 73 26 a2 3d 79 b7 cb 3c
       0.04522592 0.03792344 0.0791749 0.02486776
000380 6a 2a 2d bd 64 0f 8e bd 09 35 2e 3d 5a 40 12 3d
       -0.042276777 -0.06936529 0.042531047 0.0357059
000390 bb a6 b2 3b ef ad 3d 3b a8 1a 64 bd 2d 25 e7 bc
       0.0054520047 0.0028942784 -0.055689484 -0.028215969
0003a0 ce aa 7a 3d 6f 8c ca bc 5a 80 a3 3d e7 57 74 bc
       0.06119805 -0.024725167 0.079834655 -0.014913536
0003b0 2b a9 80 bd 17 68 3f 3c 42 e7 03 3d 3d 8b 73 3d
       -0.06282266 0.011682532 0.032202967 0.05945896
0003c0 fe d0 78 bd 27 ea 69 3d 7c 72 97 3c b2 da 98 bd
       -0.060746185 0.05710807 0.018487208 -0.07463588
0003d0 66 de ac 3d 80 14 02 3d 55 db 9f 3d ab 6a 23 bd
       0.08440857 0.03175783 0.07805506 -0.03989665
0003e0 d1 72 47 3d b6 f2 78 3d be ee ed 3c 7d 66 81 bc
       0.04869348 0.060778342 0.029044505 -0.01579594
0003f0 d6 b9 d0 3c 71 1c 91 bd 17 a7 34 3d b0 f6 68 bc
       0.025479238 -0.07085503 0.04410466 -0.014218971

bias f4 [128]
000000 58 51 98 3d d8 12 0a 3e f9 dc 31 bd 78 21 c4 3d
       0.0743739 0.13483751 -0.043423627 0.09576696
000010 f0 24 35 bb 43 62 5c 3c 75 9d 14 3d f6 fc 1d 3d
       -0.0027640425 0.013451162 0.036282975 0.03857132
000020 2a bd 3e be f1 f1 ab 3d 5e ce ae bd c6 1c 42 be
       -0.18626848 0.08395756 -0.08535455 -0.18956289
000030 68 86 86 bd a6 1d 3c 3d 4c 13 f6 bd 3e d8 6f 3d
       -0.06568605 0.045926712 -0.12015399 0.058555834
000040 4f 1c e6 3d 1b 90 db bc 92 49 f2 3c 1d fa db 3d
       0.11235868 -0.026802113 0.029576097 0.10741065
000050 dc d2 29 bd 87 6a 2f 3d a0 93 e5 3a e7 9a 36 3e
       -0.041460857 0.0428262 0.0017515309 0.17832528
000060 0e af 6b 3d 33 80 36 bd 1f 2e 01 be 19 8c 4f 3d
       0.057539992 -0.044555854 -0.1261525 0.050670717
000070 d7 fd 0f bd 86 97 28 bd aa 22 1b 3e 98 d8 05 bd
       -0.03515419 -0.04116013 0.15149942 -0.032677263
000080 84 45 5c 3e 78 fe 38 3b dc 88 cc bd 3a 90 5d bd
       0.21510893 0.0028227847 -0.09987041 -0.054092623
000090 9c c0 01 3e 0b 77 0b bd 18 0d 18 3d a1 3b 0b be
       0.12671131 -0.034049075 0.037121862 -0.13596965
0000a0 d1 95 ab bb 51 4c 08 3d c6 04 0c 3e e5 58 ed 3a
       -0.0052363654 0.033275906 0.13673696 0.0018108158
0000b0 7d cd d3 3d ed b2 5c 3d ab 0c 5f bb 0c f7 c0 3c
       0.10341928 0.053881574 -0.003403465 0.023555301
0000c0 ef cb b4 bc f0 86 b7 3c 61 94 c3 3b 27 45 ce bd
       -0.0220699 0.02240321 0.005968616 -0.100717835
0000d0 20 2d d8 bd ce 56 da bc 5e 86 a2 3d 2a 97 f5 bc
       -0.10555482 -0.02665272 0.07935785 -0.029979307
0000e0 55 fb 0a 3e a8 b0 c2 3d 89 66 3a 3d 51 fa 73 3d
       0.13572438 0.09506351 0.04550794 0.059564892
0000f0 38 9d 2a 3c 64 9c e0 bd 79 98 d0 bd 4e 5a eb 3c
       0.01041346 -0.10967329 -0.10185332 0.028729584
000100 57 5e 2b 3e 0e 6f 9c 3c fe 01 a2 bc e9 d0 fe 3d
       0.16735207 0.019095924 -0.01977634 0.1244219
000110 be 2e a8 bc 50 08 e6 bd 44 a3 13 3d 4c 84 04 3e
       -0.0205301 -0.11232054 0.036044374 0.12941092
000120 1c be b6 3c 45 c5 4d 3e 37 10 1f be 3d 6b 29 3e
       0.022307448 0.20094784 -0.15533529 0.16544814
000130 8d cb bd bd 17 0d 45 3c 95 71 8d 3d 2b 44 1e 3e
       -0.0926734 0.012027047 0.0690643 0.15455692
000140 3e 6b 94 bd 0e 8d a3 bc 6b 9c 3c 3e 45 37 58 3e
       -0.07247017 -0.019964721 0.18419044 0.21114834
000150 51 ec 08 3e 70 4c 8f 3d cd 9c 9c 3d d7 fa 06 bd
       0.13371398 0.06997001 0.07647095 -0.032954063
000160 cc 8d 84 bd 1d 75 2c 3b e2 08 f4 3a d2 9d 0f 3d
       -0.06472358 0.0026314922 0.001861837 0.03506262
000170 62 47 32 3e c8 5d 0b 3e 95 d5 15 bd 2e 06 a0 bd
       0.17410043 0.13609993 -0.03658064 -0.07813679
000180 19 3f 9c 3c d4 19 a8 bd cd 78 2c bd 8e 39 a8 3b
       0.019073056 -0.08208051 -0.042107392 0.005133814
000190 47 98 82 3d 81 1d 41 3c e2 53 ff 3d 7c 6a 20 3e
       0.06376701 0.011786819 0.12467171 0.1566562
0001a0 26 43 2d bd ab e0 2b 3e f4 d4 30 bd fc a8 ff bd
       -0.042300366 0.16784923 -0.043171838 -0.12483403
0001b0 b1 af 80 bd 23 cb f3 3d d5 a5 2c be e9 c7 2c 3e
       -0.062835105 0.1190398 -0.16860135 0.16873135
0001c0 3e e8 09 bd 03 86 bd 3d 17 c7 d7 bd b9 75 90 bd
       -0.03366875 0.09254076 -0.1053602 -0.07053704
0001d0 1f b2 2d 3d 17 66 fd 3c 44 b2 ea 3d 8d 01 78 bd
       0.042406198 0.03093247 0.11459783 -0.060548354
0001e0 88 8c 45 3e 32 41 45 3d 53 25 77 3c ee 54 0e bd
       0.1929189 0.04815788 0.015084582 -0.034748964
0001f0 83 ee 85 bc 24 84 21 3d a9 8a 04 3d 91 d0 71 3d
       -0.016349083 0.03943266 0.0323588 0.059036795

weight f4 [128, 128]
000000 8d 43 74 bb 26 7a a2 3c f1 91 e0 3c c5 2b 16 bd
       -0.0037271709 0.019833636 0.02741334 -0.036662836
000010 1c 96 ab bc 5b f8 64 bd e2 75 ad bd 0a 2e 44 bd
       -0.020945601 -0.055900913 -0.0846975 -0.04789547
000020 ae 1d b1 bc b9 a0 3b 3d e1 95 f6 bb 5f 6f c2 bc
       -0.021620598 0.045807574 -0.007525191 -0.023734747
000030 97 75 1c 3d f4 d7 b9 bc 6a 9c a1 3d b6 09 4b 3d
       0.03819808 -0.022685982 0.07891162 0.049569808
000040 84 56 8f bc 03 2c f1 bc ca 42 0b 3d 92 a3 eb bd
       -0.017497309 -0.029439932 0.033999242 -0.11505808
000050 74 ca ba ba 8f d0 53 bd 0d b9 fc 3c 7e e0 68 bd
       -0.001425101 -0.05171257 0.030849958 -0.056854717
000060 92 1c ad bd 89 a6 69 3d da 7e eb 3d b3 4c b2 bd
       -0.08452715 0.057043586 0.114988044 -0.087060355
000070 41 59 05 bd ac 7d 84 3d 93 a7 e8 bd 6a 43 e8 bc
       -0.032555822 0.064692825 -0.11360087 -0.028352458
000080 35 72 a3 bd e5 44 c6 bc 03 68 4b 3d 23 ea 4f ba
       -0.07980768 -0.024202773 0.04965974 -0.00079313124
000090 ff 07 ab 3c 61 1d 0d 3d c5 2b 19 3d e0 7e bc 3d
       0.020877836 0.034451846 0.037395258 0.09203887
0000a0 59 0f 2c 3d df 95 4c 3d ac 2e 37 3c 7c 8a 4b 3d
       0.042006824 0.049947616 0.011180561 0.049692616
0000b0 eb 3a 7c 3c 87 9e 11 bd 66 ee 86 3d 90 c1 6f 3d
       0.0153949065 -0.035551574 0.0658844 0.058534205
0000c0 7f 14 67 bd 77 b2 a5 3d f8 29 57 bc 07 4b 81 bd
       -0.05641603 0.0809068 -0.013132565 -0.063131385
0000d0 d5 6d ab bd 92 a8 a3 ba 05 d8 5a 3d a9 d5 87 bd
       -0.08370558 -0.0012486151 0.05342867 -0.06632549
0000e0 08 d2 45 bd ef 4e 85 3d a4 5c 9c 3d 02 bf 52 3b
       -0.048296005 0.06509196 0.07634857 0.0032157307
0000f0 a9 23 a0 3b 7d cb 9e 3c 91 d2 aa bd 5b d6 41 3d
       0.0048870635 0.01938414 -0.083409436 0.047323566
000100 40 65 ba 3d 1c a7 b6 3d 11 5d 01 3d 8f 56 75 3d
       0.09101343 0.08918592 0.031582896 0.059897
000110 ae 2e 08 3e a7 c8 c7 bb b8 c7 3c 3d 37 41 e2 bc
       0.13299057 -0.0060969177 0.046088904 -0.027618987
000120 8c 34 cf 3c 5b 25 68 3c c9 3e 15 3e de a1 69 bd
       0.025293611 0.0141690625 0.14574732 -0.057039134
000130 59 52 46 3e 0d a9 92 3d 33 73 34 bd 1f 6e 02 3d
       0.1936735 0.0716115 -0.044055175 0.0318433
000140 28 f1 0d bb 1f 8c 78 bd e7 aa aa 3b c8 50 55 3d
       -0.0021658633 -0.060680505 0.0052083614 0.052078992
000150 44 af 93 3d 7c b5 91 3d 87 93 9e bd 2c 06 83 bd
       0.07211164 0.071146935 -0.07742982 -0.063976616
000160 52 ae 0e 3b dc 2f b3 3d b0 c6 06 bd 2f e6 bf 3d
       0.0021771383 0.08749363 -0.032904327 0.09370076
000170 dc 46 dd 3c 29 d8 fb 3c 3f e3 d3 3c 1a 9d e0 3c
       0.027011327 0.030742722 0.025865195 0.027418662
000180 cb 90 62 3a 14 80 e4 bc 39 9a aa 3d c3 90 58 bd
       0.00086427917 -0.027893104 0.08330197 -0.05287243
000190 57 d8 c5 3b cc b0 b0 bc 71 06 d1 bb fe f6 ac bd
       0.0060377526 -0.021568678 -0.0063789417 -0.084455475
0001a0 7c 9d 8c bd 6f 62 c4 3c fc ed 2a bc 3f b7 b3 3d
       -0.06865975 0.023972718 -0.010432716 0.08775186
0001b0 84 83 ab bb 7f f1 35 bd be 41 63 bd b5 4a 63 3c
       -0.0052341837 -0.04441976 -0.05548262 0.013872792
0001c0 fd 52 86 bd 0c 51 98 3c ee 7c 13 3d 0c 8f c2 3d
       -0.065587975 0.018593334 0.036007814 0.0949994
0001d0 8c 1c b1 3d 4f e5 8f bd 96 8c 1d 3c 5e 94 fd bd
       0.08648023 -0.07026159 0.009616038 -0.123818144
0001e0 89 7c 3c 3d 86 3b 3a bd 40 51 82 3d 69 15 5f 3d
       0.046017203 -0.045466922 0.063631535 0.054463778
0001f0 5b 3b c1 bc 0f 7c 1e bd 48 58 ac bc 28 f6 6a 3d
       -0.023587873 -0.03869253 -0.02103819 0.05736366
000200 da ea 25 3d b1 6b 8c bd 68 2e 62 bd 4e a8 2e bc
       0.040507175 -0.06856478 -0.055220038 -0.010660244
000210 fe 39 89 3d 74 33 40 bd 9a 69 8a bd e6 a8 af bd
       0.06700514 -0.04692407 -0.06758423 -0.08577137
000220 be 43 19 3d 09 97 da bd 93 2b 01 bd 82 b3 c0 bc
       0.03741812 -0.10673339 -0.031535696 -0.023523096
000230 6d 9d 45 bc 8b 41 8c bb e3 17 ea 3a 34 a7 8b bd
       -0.012061459 -0.0042802743 0.0017859902 -0.06819001
000240 35 6a 87 bd 99 1f 90 bd f9 3d ae 3b 56 69 6a bc
       -0.06612054 -0.07037277 0.0053174463 -0.014307341
000250 a1 5a 31 bd 06 dd ef 3c c7 5a 1d 3d e2 25 9f bd
       -0.04329932 0.029280197 0.03841665 -0.077708974
000260 09 84 5b bd 3a c3 ca 3c 47 d4 ad bd 1e 10 65 bd
       -0.053592715 0.024751294 -0.08487754 -0.055923574
000270 90 e2 2c bc bd 60 89 bd 12 f2 b5 bd 6e 94 f7 3c
       -0.010552064 -0.067079045 -0.08884062 0.030222144
000280 a4 b0 36 bc f3 dc 9e bd d0 8d a1 bd 92 22 87 3d
       -0.011150513 -0.077569865 -0.07888377 0.06598391
000290 c3 3d d2 3c 8c 28 e9 3c c8 d6 97 bd 99 62 01 bd
       0.025664216 0.028461717 -0.07414013 -0.03158817
0002a0 04 b0 d3 bd 4f 20 17 bd fc a3 e8 bc c4 07 27 3d
       -0.10336307 -0.036896046 -0.028398506 0.04077889
0002b0 c6 d3 ce 3d a2 cf d8 bd 16 4f 39 3a 31 d3 07 3c
       0.10098986 -0.10586478 0.00070689747 0.008290098
0002c0 fa 84 52 bd 3b c7 8f bb 9c b8 60 bd 39 01 93 bd
       -0.051396348 -0.004387764 -0.054863557 -0.071779676
0002d0 ab a3 68 3d a6 37 ab 3c 7a fd aa bc e8 19 4e bd
       0.05679671 0.020900559 -0.02087282 -0.050317675
0002e0 09 3f 1c bc 6c 97 7b bd ac c4 49 bd 61 da e0 bc
       -0.009536513 -0.061423704 -0.049259827 -0.027447881
0002f0 47 74 1b 3d 85 37 33 bd 1d f1 09 bd 7a 82 b6 bc
       0.037952688 -0.04375412 -0.03367721 -0.022279013
000300 07 1f 9c bc f9 4c 73 3d e5 15 5d bd f5 f0 d0 bd
       -0.019057764 0.05939958 -0.05397596 -0.10202209
000310 c4 36 a7 3d d6 e2 7c bd 0a 8b bf bc 84 7a 65 bd
       0.081647426 -0.061739765 -0.023381729 -0.056025043
000320 66 32 55 bd d9 a0 d8 3c 02 9f 9c 3d 5f 9a 58 bd
       -0.052050017 0.026443886 0.07647516 -0.052881595
000330 dc cc ad 3d 64 38 30 bd 90 84 f0 3c 94 72 d1 3c
       0.084863394 -0.04302253 0.029360086 0.02556733
000340 89 1d b2 3d 87 97 92 bc 5c 48 86 bd c4 6b 1a 3b
       0.0869704 -0.01789452 -0.0655677 0.0023562768
000350 11 00 88 3c ab 96 11 3d 12 9a 85 3d c2 bd 93 bd
       0.016601594 0.03554408 0.06523527 -0.07213928
000360 97 66 8e 3d a1 9f b1 bc 02 15 cb bc 13 80 86 3c
       0.06953161 -0.021682562 -0.02479029 0.016418492
000370 88 eb 53 3c 91 9b 71 bd 4e d6 bc bd f5 9b 69 3d
       0.012934573 -0.05898625 -0.09220563 0.057033498
000380 ca f7 63 bd 46 87 79 3d f1 67 a8 bd a0 49 86 bd
       -0.055656232 0.060920022 -0.0822295 -0.065570116
000390 06 1d 94 bd 07 69 99 3d 49 8c a2 3b 66 85 a7 3d
       -0.07232098 0.074907355 0.004960571 0.081797406
0003a0 fa 7e 56 3d b4 08 a5 bd ce 14 18 bd 65 b4 a6 3d
       0.052367188 -0.080583006 -0.037129216 0.08139876
0003b0 1d f2 36 bc 82 81 69 3c 69 4b 9e 3d 84 a3 8a bc
       -0.011166123 0.0142520685 0.07729227 -0.016923673
0003c0 ef a4 b1 bd 3b 26 2a bd 2b 34 41 3c 72 8b 14 bd
       -0.08674037 -0.041540366 0.011792223 -0.036265798
0003d0 62 ba cb bd b6 3e be bc c2 2b 3c 3d de 51 8b bd
       -0.09947659 -0.023223262 0.04594017 -0.06802724
0003e0 23 0d 94 bd ac e6 a8 bc ab 8c af bd 03 a9 04 3c
       -0.07229068 -0.020617805 -0.08571752 0.008096936
0003f0 5e 06 c5 bc 18 9c c8 bc 2c 4e c7 3b 8e b1 67 bd
       -0.024050888 -0.024488494 0.006082317 -0.056565814

bias f4 [128]
000000 f6 9c 82 bc 07 c0 ad 3c c1 fd 36 bd 8f 16 0b 3d
       -0.015943985 0.02120973 -0.044675592 0.03395706
000010 f5 51 b7 bc 6b b3 18 be 4b 42 86 3c d1 34 27 3e
       -0.022377947 -0.14912193 0.016389033 0.16328742
000020 00 a7 37 bd 5a c6 2a bc 57 4b c0 bd 8d 8b 91 3c
       -0.044836998 -0.010423267 -0.0938937 0.017766738
000030 83 e9 99 3b f1 5d 98 3c b6 83 05 be d9 7b e8 3d
       0.004697026 0.018599482 -0.13038525 0.11351747
000040 de 59 ee 3c bb 95 9a bd 7f 96 8f bd 31 84 88 3d
       0.029095586 -0.0754809 -0.07011127 0.066658385
000050 93 43 41 bc 7a e0 88 bc a0 f8 38 3e 95 1d 21 be
       -0.011795896 -0.016708601 0.18063593 -0.15733941
000060 47 bc 40 ba 92 9e 16 3d 9c 39 9d 3c a2 52 02 3d
       -0.0007352274 0.03677232 0.01919251 0.031817086
000070 fb af 6d 3d 7c 71 15 3c 4d fa 11 bc 36 6a ae bd
       0.058029156 0.009121295 -0.008909774 -0.08516352
000080 9b 05 37 bd 5b 4a 8f bc f5 df 3c bd 93 d4 b3 bd
       -0.04468308 -0.01749151 -0.04611202 -0.0878078
000090 b3 74 28 3e af c4 6e bd 5a fb b2 bd 48 0e 9b bd
       0.16450767 -0.05829304 -0.08739348 -0.07571083
0000a0 32 6c 0b 3e 9a 02 2c bd 4f bc 01 3d 78 9e 06 3d
       0.13615492 -0.04199467 0.031673726 0.03286597
0000b0 0b 8b 45 bd 43 c3 bc bd 3c 44 b7 3d 19 92 df bd
       -0.048228305 -0.09216931 0.089485615 -0.10916538
0000c0 78 db 6c bd 1d d6 87 bd 6e 20 77 bc 20 e5 a6 3c
       -0.05782649 -0.06632636 -0.015083415 0.020372927
0000d0 bc 94 e5 b8 56 cd 85 bd e3 65 35 bd 9c 24 1c be
       -0.00010947275 -0.06533305 -0.04428662 -0.1524834
0000e0 b6 75 ac 3d e7 0a 0a 3d 09 33 74 bd 53 31 8e bd
       0.08420889 0.033701804 -0.059618983 -0.069430016
0000f0 64 49 b0 bd 69 a0 a8 3d fb 5a 09 3d a0 97 a2 3d
       -0.08607748 0.08233721 0.03353403 0.079390764
000100 4c 59 02 3c ef 55 bb bd 43 fa de bc b3 3a 98 bc
       0.00795586 -0.0914725 -0.027218943 -0.018582677
000110 f5 22 9a 3d 74 7f 8d bd 29 93 fe 3c 40 8b d5 3c
       0.07526199 -0.069090754 0.03107603 0.026067376
000120 b2 bb 0f 3e 8c 3b 8e 3b 44 c9 3f 3c 1d 39 a8 bd
       0.14036444 0.0043405946 0.0117057 -0.082140185
000130 06 78 9c 3d 68 70 f3 bc d2 1e 5a 3d 22 02 ae 3c
       0.0764008 -0.029716685 0.05325205 0.021241251
000140 1f 86 ee 3c 58 58 a2 bd a5 1f d2 3d b7 ac bf bd
       0.029116688 -0.079270065 0.10259942 -0.093591146
000150 fd 19 0b 3c 43 ea af bd fa a1 d3 3d d5 73 90 bb
       0.008490083 -0.08589604 0.10333629 -0.0044083395
000160 69 a9 ad 3c 68 8d 22 bd 03 59 1e 3e 2c fb ce 3d
       0.021198945 -0.039685637 0.15463643 0.10106501
000170 db 87 a4 bd db d9 e7 3d 7f 0f 67 3d 64 81 f9 39
       -0.08033725 0.113208495 0.056411263 0.00047589384
000180 a2 d4 e9 bc 65 1b 6b 3d 90 a8 12 bd c7 ba 03 3d
       -0.028543774 0.057399172 -0.035805285 0.032160547
000190 0d 79 7b bb e3 2c 39 3e 27 3e ca bc 11 84 ed 3d
       -0.0038371712 0.18083529 -0.02468784 0.11597455
0001a0 a5 62 41 3d 34 cd 75 3d 43 16 03 3e 7f 42 44 3d
       0.047213215 0.06001015 0.12801461 0.047914978
0001b0 f7 00 0d 3d 57 dd 1e 3e b4 fe d5 bd 57 ea 8e bd
       0.03442475 0.15514122 -0.104489714 -0.069782905
0001c0 83 27 53 3d 80 ad d2 bc 1b 20 bf bd 13 15 b1 bd
       0.051551353 -0.025717497 -0.093322955 -0.08646598
0001d0 a3 e5 c3 3c 14 b7 a3 bd fb f3 d8 3d 05 45 c3 b9
       0.02391321 -0.07993904 0.105934106 -0.00037244722
0001e0 6a b4 1c 3e 15 13 45 3c 34 73 a8 bd d6 84 1b 3e
       0.15303198 0.012028475 -0.08225098 0.15187392
0001f0 f9 9b 3c 3b 4d 62 0e 3e e2 db e7 bc a0 51 70 3d
       0.002877949 0.13904686 -0.02830309 0.058671594
