DeepControlledLearning/PolicyWeights/lost_salesgeometric_p39_l4_N5000/l_gen.pth (torch, 290337 bytes, 10 tensors)

weight f4 [256, 4]
000000 03 9a 0c 3e 34 43 c8 be f0 11 8f be 95 6d a3 be
       0.13730626 -0.39113772 -0.27943373 -0.31919542
000010 aa ef b8 3e 6b 5c 36 be 80 f3 8e 3d d7 56 ca 3e
       0.3612035 -0.17808692 0.06980038 0.3951938
000020 06 0d ac 3e 44 b0 96 be c2 6f 35 be 95 9e a9 bd
       0.33603686 -0.29431355 -0.17718413 -0.082822
000030 7e f3 67 be 22 17 03 bf 93 69 01 bd 1a f7 10 3f
       -0.22651479 -0.5120717 -0.031594824 0.5662705
000040 2a 19 a4 be 20 87 ad bc 34 6a 89 be e2 83 aa be
       -0.3205045 -0.021182597 -0.2683884 -0.33303744
000050 92 1b 72 3e 6f 51 8a be d0 69 88 3e 41 8d d0 3e
       0.2364333 -0.27015254 0.2664323 0.40732768
000060 80 95 f8 bd b4 77 89 be da 8f b3 be e0 b0 70 bd
       -0.1213789 -0.2684914 -0.35070688 -0.05876243
000070 5f 78 e1 3d 57 8e 3a 3e 06 a1 2d 3e eb e4 c3 be
       0.11009287 0.18218361 0.16955957 -0.38260588
000080 16 8d d6 bd 9f c2 1c bb 11 ef d3 bd f5 cc e9 3e
       -0.10476129 -0.0023919714 -0.10348333 0.45664182
000090 0e 62 fe be 20 40 00 be d0 5d 4d be 48 e4 85 bd
       -0.49684185 -0.12524462 -0.20055318 -0.06537682
0000a0 5d a2 8c be 53 c2 8c 3c 84 10 4c 3e 54 7b 15 3d
       -0.27467623 0.017182505 0.19928175 0.036494568
0000b0 e5 f4 a0 3e a3 62 da bd 56 aa 9e 3e 28 47 32 bd
       0.3143684 -0.10663345 0.3098933 -0.04352489
0000c0 c2 e5 0f 3d 61 40 b9 3e 87 f5 14 bd c2 d7 f8 bd
       0.035131223 0.3618193 -0.036366966 -0.121505275
0000d0 47 80 1a 3e dd f3 92 be e6 dc 62 bd 1f 30 84 be
       0.15087996 -0.28701678 -0.055386446 -0.25817963
0000e0 97 09 74 3e 2d 9b b0 be 78 fd 83 bd 08 76 f5 be
       0.23831783 -0.3449339 -0.0644483 -0.47941613
0000f0 94 ce ae be 61 52 bd 3e 19 77 ce 3e f3 11 b0 bc
       -0.34141982 0.36976913 0.4032524 -0.021492934
000100 7f 43 05 3e 93 9d 1e 3d cf 69 30 3d cc d0 8e 3e
       0.13014029 0.038724493 0.043069657 0.27893674
000110 b5 44 e0 bd 4f 4a 4a 3e ee d4 02 be d1 04 e9 3e
       -0.10950605 0.19754909 -0.12776539 0.45511487
000120 12 ef 4e 3e fd 05 1a bc 61 f2 a4 3d 74 71 a7 bc
       0.20208386 -0.009400842 0.080540426 -0.02043984
000130 2c 2b 2f be 9c 51 13 be b4 a7 73 be c0 3e 8b be
       -0.17106313 -0.143866 -0.23794442 -0.27196312
000140 d7 20 24 3e 97 8c a4 bc e9 d8 ce 3d 16 30 9e 3e
       0.16028152 -0.02008657 0.10099966 0.30896062
000150 c2 64 d5 bd 84 85 c8 3e 73 bd 13 be a3 f1 90 be
       -0.10419609 0.39164364 -0.14427738 -0.28309354
000160 61 73 15 3e 19 8c e5 3e 44 ae 55 be d8 76 e6 3e
       0.14594795 0.4483345 -0.20867258 0.45012546
000170 a7 d6 75 be 83 86 d7 3e a3 16 6a be a1 e1 a9 be
       -0.24007665 0.42094812 -0.22860198 -0.33179954
000180 80 73 97 be 32 be 9e be d2 37 87 be b8 ad 08 be
       -0.29580307 -0.31004483 -0.26409775 -0.13347518
000190 61 1d 80 be 69 6c 21 be cc 3e b3 3e 6c 24 a9 3e
       -0.25022414 -0.15764011 0.35008848 0.330356
0001a0 2d 14 bd 3e 0f 95 99 be 1e 2c c7 3e ec 1d c2 3e
       0.36929455 -0.29996535 0.38900846 0.37913454
0001b0 ba e4 c0 3e 25 a2 b1 3e bb 3c 0b be 94 a9 1b be
       0.37674505 0.3469402 -0.13597386 -0.15201408
0001c0 4c c8 e4 be c0 df 79 bd 60 92 c1 3d 46 99 fe be
       -0.44684064 -0.0610044 0.09451747 -0.49726313
0001d0 df d4 af 3e 30 d0 1f be b2 5d 95 3e 18 9b 10 3e
       0.34342095 -0.15606761 0.29173046 0.14121664
0001e0 8f e3 49 3c db 83 4c be b6 7d a9 3d 8d c3 55 3e
       0.012322321 -0.19972174 0.082759306 0.20875378
0001f0 ab 3e a1 3e de ff b0 3e 7c 90 07 3e 7e c6 82 be
       0.31493124 0.3457021 0.1323871 -0.25542063
000200 13 70 c9 bb b8 5d e0 bd 99 1c 3d 3d d4 0b a6 3e
       -0.0061473935 -0.109553754 0.04616985 0.324309
000210 33 39 e9 be 94 85 bd 3e 82 b7 e9 3d 80 8a 0a be
       -0.45551452 0.37015975 0.114119545 -0.13529396
000220 f9 cf fe 3d cb 2e da be 61 56 73 be c2 b4 a4 be
       0.124420114 -0.42613825 -0.2376342 -0.32169157
000230 b4 33 c4 ba 72 c6 23 be 91 1d b0 3e 89 a2 53 bd
       -0.0014969022 -0.1599367 0.34397557 -0.051668677
000240 48 46 94 3e fe 45 02 3e ba 27 60 be 09 c6 e1 3e
       0.2895987 0.12722012 -0.21890154 0.440964
000250 cc af 20 be 28 45 a4 be 30 82 cd bd 74 7a 56 be
       -0.15692061 -0.32084012 -0.10034597 -0.2094515
000260 75 a7 ab 3e 19 e2 bb bd 0d c7 df 3e 46 09 f9 bd
       0.33526197 -0.09173984 0.4370655 -0.12159972
000270 cc fa 7f 3e a9 07 04 be bd 58 1b 3e 61 b1 8d bd
       0.24998015 -0.12893547 0.1517057 -0.06918598
000280 b1 14 53 3d cc 2e ce bd a5 47 44 bd 48 4a ca 3e
       0.051533405 -0.100675195 -0.047919888 0.39509797
000290 6f e8 64 3c 98 14 aa 3e c2 cd f7 3e 49 5a e7 3e
       0.013971432 0.33218837 0.48399168 0.4518607
0002a0 b7 fd 19 bc 91 a7 fd 3e b8 5c 51 be 15 e8 05 be
       -0.009398869 0.49541906 -0.20445526 -0.13076814
0002b0 d9 ab fb be ff 79 e1 3e e6 8b b3 be d9 37 ee bd
       -0.49154547 0.44038388 -0.35067672 -0.11631746
0002c0 7f f6 73 bd b6 4e d2 3e ef cb 59 be 9c 79 a2 be
       -0.05956125 0.41075677 -0.212692 -0.31733406
0002d0 47 6c 1e 3e 6e 9c 83 3e 9a 63 87 bd 4d 30 36 be
       0.15470992 0.25705284 -0.06610794 -0.17791863
0002e0 e6 44 8c be 1f a0 15 3e 25 f3 63 3e b2 09 53 3e
       -0.27396315 0.14611863 0.22260721 0.20609167
0002f0 dc bc a5 be 61 16 42 be cc 90 f7 3e 15 37 ca 3e
       -0.3237065 -0.1895385 0.4835266 0.3949515
000300 da 7b a3 bb f1 58 05 bd f2 63 d4 3d 98 58 e7 3e
       -0.0049891295 -0.032555524 0.103706256 0.4518478
000310 7a 91 f0 bd 3d f2 84 be de 93 c2 be be aa 5c 3e
       -0.117464975 -0.25966063 -0.3800344 0.21549508
000320 d3 48 c5 3e 1b f7 09 3e ed d5 99 be c0 08 ba 3d
       0.38532123 0.1347317 -0.30046025 0.090837
000330 2f c0 6e 3e 4c 0a ec be ca 50 86 3e e8 71 e7 be
       0.233155 -0.46101606 0.26233512 -0.4520409
000340 ba ae ad be 66 73 5c bd b4 9c 45 3e 7d a9 da 3e
       -0.33922368 -0.05382099 0.19298059 0.42707434
000350 74 e8 87 3e 91 55 89 3e 1d 91 da bd 55 5d 0f bf
       0.26544535 0.26823094 -0.106722094 -0.5600179
000360 58 45 81 3e aa 77 d8 3e 9a 45 d9 be 13 dc 63 be
       0.25248218 0.42278796 -0.42435914 -0.2225192
000370 aa c4 e1 be d6 99 98 be 68 48 61 be 50 34 7b bd
       -0.44095355 -0.29804868 -0.22000277 -0.061329186
000380 0d ac 01 3c 35 31 f7 be 99 94 d5 3e ef 50 98 3e
       0.007914555 -0.4827973 0.41714934 0.29749247
000390 30 1f 98 3e 66 93 b2 3e 41 6c 66 3e 42 9f 17 bf
       0.29711294 0.3487808 0.22502233 -0.59227383
0003a0 42 54 9a 3d 46 4b a7 bc 82 22 8e be 2b cc dc bd
       0.07535602 -0.020421635 -0.27760702 -0.107811294
0003b0 78 19 79 bc cf fb 51 be 43 77 33 be 47 5b f4 3e
       -0.015203826 -0.20506214 -0.17525963 0.4772589
0003c0 03 58 d8 3e bc fd f6 3e 4d 52 ae be 8e 3d d9 be
       0.42254648 0.4824046 -0.34047166 -0.42429775
0003d0 77 38 df be 49 67 d6 be 44 83 42 bd f4 a8 bf 3e
       -0.43597767 -0.41875675 -0.047488466 0.37433589
0003e0 35 53 2d 3e 5b f6 a2 bd 58 02 21 be d5 a7 96 3e
       0.16926272 -0.07957145 -0.1572355 0.2942492
0003f0 92 1f a1 3e 53 eb eb be 11 a7 67 be 12 70 e9 bd
       0.314694 -0.46077976 -0.22622325 -0.11398329

bias f4 [256]
000000 bc 78 b1 3e 8f 18 3b bf d2 53 40 bf 34 6a 6d be
       0.34662426 -0.7308435 -0.751279 -0.23185045
000010 fc 23 19 3e 83 8a 09 3f 4c 4c 94 be 12 03 58 bf
       0.14955133 0.5372698 -0.2896446 -0.84379685
000020 19 74 13 bd f2 dd a7 be 90 d3 51 3e a8 9b 2d bf
       -0.03599939 -0.32786518 0.20490861 -0.6781564
000030 f2 f7 0a bf d4 2b 06 3e 98 af e7 3e b7 54 aa bd
       -0.54284585 0.13102657 0.45251155 -0.08316939
000040 cb 06 03 3f a2 36 19 be 1e 40 39 3e 20 45 af bc
       0.5118224 -0.14962247 0.18090865 -0.021395266
000050 1b 3a 06 bf a4 84 8c be c9 4e 47 bf aa b8 2e be
       -0.5243241 -0.27444947 -0.7785459 -0.17062631
000060 a4 df 68 be b3 c3 8b be 05 c0 f7 3e 50 52 34 3f
       -0.22741562 -0.27297744 0.48388687 0.704381
000070 38 f5 8d bd 19 01 26 3f 9b f4 5a 3f 39 e9 91 3e
       -0.069315374 0.64845425 0.8552949 0.28498247
000080 24 ee 47 3f 43 1d 9f 3e ca 7b c2 3e 71 10 24 bf
       0.7809775 0.31077012 0.3798507 -0.6408759
000090 b6 cd ea bc b8 e6 8f 3e 7c a6 4e bf 43 03 f8 be
       -0.028662544 0.28105712 -0.80722785 -0.48439988
0000a0 70 a8 4c bf b8 61 f5 bd 32 ed 4c 3f bc ae 13 3f
       -0.79944515 -0.11981529 0.8004943 0.576885
0000b0 23 9d 5f be 41 4c 01 bf 69 3e 1c 3f a2 ba bf be
       -0.21837287 -0.5050698 0.6103273 -0.37447077
0000c0 aa d9 ea 3e 8d 0e c3 bd 90 43 b1 be 9e 9b 47 bf
       0.4586919 -0.0952426 -0.3462186 -0.7797183
0000d0 9c e7 19 bc 1f 12 dd 3e d3 33 4b bf 4e fa 88 be
       -0.009393599 0.43177888 -0.7937595 -0.26753467
0000e0 60 6f 46 3f 03 26 6e 3e b8 0d 09 bf 6e 41 03 be
       0.77513695 0.23256688 -0.5353656 -0.12817928
0000f0 73 f2 1b bf 70 56 b1 3e 7a 65 08 3f 84 a9 2d bf
       -0.60916823 0.3463626 0.5327984 -0.67836785
000100 2e 58 56 be 86 33 ca be 20 b5 a4 be cf dd ec be
       -0.20932075 -0.39492434 -0.32169437 -0.46262977
000110 10 7f 54 bd 04 b1 97 3e d1 da 92 bc 1e 05 03 bf
       -0.05187899 0.2962724 -0.017926605 -0.51179683
000120 af c6 21 bf 63 b3 35 bf e4 7c a2 3e 12 8e ba bb
       -0.6319379 -0.7097685 0.3173591 -0.0056932056
000130 79 c7 1f 3f d0 4f 30 3f 5d 87 cd be 83 4e cc be
       0.62413746 0.68871784 -0.40142336 -0.3990365
000140 28 c8 97 3e 20 49 24 bd 17 58 1b 3f d9 b9 7c 3e
       0.29644895 -0.0401088 0.6068129 0.2468027
000150 e9 33 42 3f c9 1e da 3e e5 37 6c 3f c9 e8 5e bf
       0.7586046 0.42601612 0.9227279 -0.8707395
000160 68 0e 2f be e7 c9 b1 3e 6c ce 8e be e3 d4 fa be
       -0.1709534 0.34724352 -0.27891862 -0.48990545
000170 c4 42 e2 be 38 f7 d8 3e b8 d2 85 bd a7 28 8c bd
       -0.44191563 0.42376113 -0.06534332 -0.06843691
000180 11 c3 47 3d 7b 1f 09 be 47 2f c5 be 8b 20 e1 be
       0.048770014 -0.13390915 -0.38512632 -0.4397014
000190 90 b1 01 bf d2 01 02 3f 0f 7d 79 3f 58 c9 ac be
       -0.50661564 0.5078403 0.9745645 -0.33747363
0001a0 34 f4 6a 3f 1d d6 67 bf 22 33 9b be e9 11 4d 3f
       0.91778874 -0.90561086 -0.3031245 0.80105454
0001b0 fa a4 f8 3c 5f b6 ab be 0e ea 63 bd 31 6f e8 3e
       0.030352104 -0.33537576 -0.055643134 0.45397332
0001c0 0e a9 52 bf b0 76 24 be 0b 34 39 3e 5d eb 1e be
       -0.82289207 -0.160609 0.18086259 -0.15519471
0001d0 4c ab cf be 8b 6f ae 3e d5 da dc be 60 1e 82 3c
       -0.40560377 0.34069476 -0.43135706 0.015883625
0001e0 3f e3 42 bf b6 cd 04 3f a1 fa 43 3e e4 3a 0b bf
       -0.76128 0.5187639 0.19138576 -0.54386735
0001f0 2c 44 39 3f 5b 27 34 3f 3c 90 fe 3d 22 df bf bc
       0.7236965 0.7037255 0.12429854 -0.023421828
000200 f0 48 26 3f 07 cc 15 3f 09 80 57 3f ce 90 6f be
       0.64955044 0.58514446 0.8417974 -0.23395082
000210 7d 52 f1 3e 93 d1 8a be a2 c2 89 3f 73 10 3e bf
       0.47133246 -0.27113017 1.0762522 -0.7424385
000220 02 af a5 3e 98 47 e1 be 10 81 0d bf 5e d5 09 3f
       0.32360083 -0.43999934 -0.5527506 0.538412
000230 0e 80 d6 be 4c 5b 26 be c0 a6 84 bc c2 9e 57 be
       -0.41894573 -0.16245764 -0.016192794 -0.21056655
000240 54 60 c7 3e 16 49 01 bf 19 65 a1 3d f2 fa b6 be
       0.3894068 -0.50502145 0.07880611 -0.3573833
000250 94 b2 8d be 4a 18 f6 3e 3b 83 90 be 6a 18 be 3e
       -0.27675307 0.48065406 -0.2822512 0.37128
000260 f3 ed 62 bf 9c 99 55 bf 24 e4 80 3e 3d 95 0c 3f
       -0.8864433 -0.83437514 0.25174057 0.5491522
000270 7b ac 3e 3f 0e 39 51 bf 7f 5e ba 3d d9 ca dc be
       0.74481934 -0.81727684 0.09100055 -0.4312351
000280 ec 5a 5c 3e 3e 0b f4 be bc ca be be 5c 18 48 be
       0.21519059 -0.47664827 -0.3726405 -0.19540542
000290 c7 00 41 3f 44 a0 d6 3e 4b 45 23 3d be cf 97 be
       0.7539181 0.41919148 0.039861005 -0.29650682
0002a0 6e 52 3c 3c 83 bd 1c be 9f 28 a1 3e 81 a8 fb bc
       0.011494262 -0.15306668 0.31476304 -0.030719997
0002b0 70 b3 74 3f 8a 07 92 3e 9d dd 25 3f eb a7 7d 3e
       0.955863 0.28521377 0.6479128 0.24771087
0002c0 5d da 12 3f 42 9c c6 be cd 25 4e bf 3b 7a ae bd
       0.57364446 -0.3879109 -0.8052643 -0.08519407
0002d0 36 e7 d3 3d c7 75 b5 3e e8 c0 3d be 92 c1 29 bd
       0.10346834 0.3544142 -0.18530619 -0.04144437
0002e0 98 cc fc 3d 5f dc 7a 3e 9a 1d 06 be ea 53 f6 be
       0.12343711 0.24498127 -0.1309723 -0.48110896
0002f0 09 80 ca be 2d f9 2e 3e db 90 a3 be 35 ac de be
       -0.39550808 0.1708724 -0.31946453 -0.4349076
000300 f8 0e a3 bd 02 8c d5 3e 3e 56 ba 3e 48 43 aa 3e
       -0.079618394 0.4170838 0.36393923 0.33254457
000310 69 2d e2 be 9d ce 1d 3f 91 ec 9b 3e 69 a0 94 3e
       -0.4417527 0.6164339 0.30453923 0.29028633
000320 c5 53 9d 3e 07 da 21 3e ce a5 e3 3e e2 23 d2 be
       0.30727974 0.15805827 0.44462436 -0.41043
000330 ab c2 04 3f de ae 3c be 0b 04 8a be 72 0b 13 3f
       0.5185954 -0.18426082 -0.2695621 0.5743934
000340 75 31 3c bf 58 19 4f 3e 57 33 cb be 61 1d d8 be
       -0.73512965 0.20224512 -0.39687607 -0.42209914
000350 6c 30 e9 3e d2 0e cf 3e 5d c7 9c 3d 5a 7e c9 3e
       0.45544755 0.40440995 0.07655213 0.3935421
000360 1e 50 29 3f ec a1 24 bf 7b 40 e7 be c5 a4 9c be
       0.66137874 -0.64309573 -0.45166382 -0.3059446
000370 a8 0a 93 3c 3f 60 fb be a6 c9 54 be 78 90 51 3e
       0.017949417 -0.49096867 -0.20780048 0.20465267
000380 ca 9a 39 3f 68 86 17 bf 0d 79 f5 bd b3 31 b5 3d
       0.72501814 -0.5918946 -0.11985979 0.0884737
000390 f2 21 bd be df 37 91 bc 60 6c 11 be 4c 22 02 3f
       -0.3693996 -0.017726837 -0.14201498 0.5083358
0003a0 a3 d8 ef be 6f ee 82 3e ef e5 1a bf 50 ca 77 3f
       -0.46844968 0.25572535 -0.605071 0.9679308
0003b0 ce ed c8 3e 0c 67 b5 3e c0 5a c1 bd 6a 4f 57 3e
       0.3924393 0.3543018 -0.09441137 0.21026388
0003c0 9f e3 ee 3e ce 72 e2 3e 06 c3 ca 3e ae 65 3d bf
       0.46658036 0.44228214 0.39601916 -0.73983276
0003d0 61 00 36 3f d4 32 53 3f 12 76 fb 3e b9 9a 06 bf
       0.7109433 0.8249943 0.49113518 -0.5257984
0003e0 6c 45 0a bf ea ac 0a 3f 63 de 6b 3f be 5f 7b bf
       -0.5401218 0.54170096 0.9213621 -0.98192966
0003f0 f5 3b 24 3f c8 05 6c 3e a5 06 fb 3d e9 63 97 3e
       0.6415399 0.2304908 0.12257127 0.29568413

weight f4 [128, 256]
000000 c4 62 ab 3d 7d 07 79 bd 9a 67 81 bd ac 97 87 bb
       0.083684474 -0.060798157 -0.063185886 -0.0041379537
000010 00 21 a2 b9 72 26 00 bc 80 09 61 3d 08 ff e0 bd
       -0.00030923635 -0.007821666 0.0549407 -0.10986143
000020 42 ca 19 bc 80 46 91 3b 36 46 e3 3c c8 9f ad bd
       -0.009386601 0.004433453 0.02774344 -0.084777415
000030 4c 7b fc bc 28 c0 3c 3d 5f c3 63 3d 5b 1e 34 3d
       -0.030820511 0.046081692 0.055606242 0.04397426
000040 39 b4 03 3c f7 26 39 3c 18 2b e0 bc 30 49 67 bd
       0.008038574 0.011300794 -0.027364299 -0.05646628
000050 53 23 88 bd 70 a2 5f bc e5 6a 16 bc e7 73 03 bc
       -0.066473626 -0.013649568 -0.009180759 -0.008023239
000060 00 94 b1 b8 d7 3a 27 3d 3d 99 81 bd ad b3 b2 bd
       -8.467585e-05 0.0408276 -0.06328056 -0.08725677
000070 08 e8 73 3c 11 3a ae bd 56 46 96 3c f4 f8 e1 bb
       0.0148868635 -0.08507169 0.018344086 -0.0068961326
000080 0e d1 1c bd fd 9f 1f 3d 48 82 05 3d e7 3c 9f bd
       -0.038285308 0.038970936 0.03259495 -0.07775288
000090 fc 53 35 bd f0 8e 5e 3d 73 2c bd bd 85 55 8e bd
       -0.044269547 0.054335535 -0.09236994 -0.06949905
0000a0 2d 53 28 3d 74 74 e5 3a b2 e8 1e bd 38 cc 27 bd
       0.041094948 0.0017506019 -0.038796134 -0.040966243
0000b0 a8 7d 9d bd e1 e7 a2 bd fb 10 a5 3c aa 75 95 3d
       -0.07689983 -0.07954384 0.020149698 0.07297833
0000c0 40 ae d0 3c 08 cb d2 3c 97 3b be bd 45 92 88 3d
       0.025473714 0.025731578 -0.092887096 0.06668524
0000d0 9e ea 3d 3d 40 49 1d bd 5c 80 ff bc 30 c5 5d 3c
       0.046366327 -0.038399935 -0.031189136 0.013535783
0000e0 9b 17 0f 3d 0d a3 05 bd 73 07 8d 3d 04 26 41 bc
       0.03493462 -0.0326262 0.068861865 -0.011788849
0000f0 00 1f 5c bd 4c 46 72 3d de aa f1 bc b0 45 0d 3c
       -0.0537405 0.05914907 -0.029500421 0.008622572
000100 29 b3 9c bd f4 30 b6 bc 04 c9 13 bd f7 2e 04 3d
       -0.076513596 -0.02224014 -0.036080375 0.03227135
000110 4c 39 fa bc af f2 61 3b 58 34 0d bd ff 98 be ba
       -0.0305449 0.0034476926 -0.034473747 -0.0014541446
000120 8e 28 83 bd 7d 56 05 3c 44 9f 33 3d 77 cc 06 bd
       -0.064042196 0.008138296 0.04385306 -0.032909837
000130 77 b6 e4 bc 82 63 fe 3c 0d 3c 64 bd 7d fe 94 3d
       -0.027919037 0.031053308 -0.05572133 0.07275102
000140 cc ef 58 bd 8c e6 ac 3c c9 dd 97 bd 5f 10 2f 3d
       -0.052963063 0.021106027 -0.07415349 0.042740222
000150 b8 92 45 3d ac 85 c0 bc f5 eb c3 bd 16 9f 18 bc
       0.048235625 -0.02350124 -0.095664896 -0.009315273
000160 cc 2e 9d 3c bd ce 92 bc b5 45 3b bd 74 00 8f 3d
       0.019187354 -0.017920846 -0.045720775 0.06982508
000170 4c 1b 7f bd 16 8d 29 bd 60 e1 63 3d f5 f4 78 3d
       -0.06228189 -0.041394316 0.055634856 0.060780484
000180 b5 ab a7 3c a9 81 88 bc 41 e5 4e bd c2 f1 5a bd
       0.020467618 -0.01666339 -0.050511602 -0.053453214
000190 e1 7e 2b bd 3a 7a a0 3c 54 04 11 3d 86 01 0d 3c
       -0.041869048 0.019589532 0.03540452 0.00860632
0001a0 d3 71 23 3d 44 19 e9 b8 a2 e9 2e 3d b9 bc 0b bd
       0.039903473 -0.00011115012 0.04270328 -0.034115527
0001b0 ec a5 d8 3d 73 5e 64 bd 92 38 d6 bc 31 28 38 bd
       0.10578522 -0.055754136 -0.026150022 -0.044960205
0001c0 a2 d6 98 3b e4 67 69 3d 6a b2 a9 bd 5b da 80 3d
       0.004664258 0.056983843 -0.08285983 0.06291648
0001d0 88 8a 0d 3c d6 4f 1b bd e9 27 36 bd 32 3e 52 bd
       0.008638985 -0.037917934 -0.044471655 -0.051328845
0001e0 ef 64 21 bd 19 8d 03 3d 9e 4c 95 bc 23 ca 86 bd
       -0.0394029 0.032116983 -0.01822501 -0.06581523
0001f0 d6 46 b6 bd 6e 37 98 3a 9b 72 8b 3d 7f a3 04 bd
       -0.0890023 0.0011613199 0.06808969 -0.032382485
000200 ac 41 4d bd 96 d6 a9 bd f6 f4 03 3d fd 8e 53 bc
       -0.050111458 -0.08292882 0.032216035 -0.012912509
000210 13 0f fc bc f0 60 af bb 59 63 a2 bc 61 be 82 bd
       -0.030768907 -0.005352132 -0.019822763 -0.06383968
000220 2d 2b cb 3d a3 84 46 bd a7 70 a3 bb d9 c6 60 bd
       0.099203445 -0.048466336 -0.0049877944 -0.054877136
000230 18 ae 44 bd 00 8f 81 b9 78 05 9c 3d 7d b8 77 bb
       -0.04801759 -0.0002471134 0.076182306 -0.0037799173
000240 fb d5 d4 3c ed 2e 99 3b e4 14 0c bd c0 ae 1c bb
       0.02598094 0.0046747834 -0.03419961 -0.002390787
000250 ff ad c3 bc f2 69 d8 bc 38 39 3f bd 68 25 b9 bc
       -0.023886679 -0.026417706 -0.046685427 -0.022600845
000260 af af 84 bd 43 70 68 bd f5 85 b0 3d 46 e3 16 3d
       -0.064788215 -0.056747686 0.086193 0.03683784
000270 a9 be 59 3c 83 a9 05 3d 8f 99 f1 3c 62 13 71 3c
       0.013290086 0.032632362 0.029492168 0.014714094
000280 6c 7c 85 3c 56 ee 21 bd a7 9a 8c bc e0 f1 41 bd
       0.01629468 -0.039533935 -0.017163588 -0.04734981
000290 0c 7a b6 3a d0 00 96 bd a1 9b 8d bd 12 97 86 3d
       0.0013921871 -0.07324374 -0.069144495 0.06571783
0002a0 59 0a 3c bd 7c 68 83 bc 2d 98 81 bd 3e b5 40 bd
       -0.045908306 -0.016041033 -0.06327853 -0.047047846
0002b0 02 be 2a bc 20 f9 84 bc 54 1b 69 bd 90 d0 2f 3d
       -0.010421278 -0.016232073 -0.056910828 0.04292351
0002c0 e9 77 a6 bd e8 71 66 3d 12 08 ad bd 31 4e 53 bc
       -0.0812834 0.056260973 -0.08448805 -0.01289706
0002d0 e0 bf 82 3d 15 1e 7c 3d bc c5 c7 3c 80 75 b5 3b
       0.063842535 0.061552126 0.02438628 0.0055376887
0002e0 84 aa 7e 3d 46 bb 98 3d 4c 4a 08 bd 90 8d 18 3c
       0.062174335 0.074575946 -0.03327398 0.009311095
0002f0 82 0f 36 bd cf 3e c3 bc 39 b8 7a bc 0d e0 02 3d
       -0.044448383 -0.02383366 -0.015302711 0.031951953
000300 0a 92 8f 3d 47 bc 62 bd 4c 82 8d 3d 66 c7 de 3d
       0.070102766 -0.055355337 0.06909618 0.10877876
000310 90 d0 f8 bb 8a 9f be bd 88 c1 98 3c b9 84 49 3d
       -0.007593222 -0.093077734 0.01864697 0.04919884
000320 be f4 42 3d f2 0f 95 ba 60 6e 7c bb f6 da e9 bc
       0.047596686 -0.001137255 -0.0038517937 -0.028546792
000330 0d ce 7e 3b 85 44 4d bc 67 76 06 3d e2 dc f0 3b
       0.003888014 -0.012528543 0.03282776 0.00735055
000340 35 02 8b bd f9 4f 59 3d db a2 d2 3d 76 85 41 bd
       -0.0678753 0.053054783 0.102849685 -0.04724642
000350 35 b6 c3 3c 10 51 32 bd 52 ce ce bb 71 89 cf 3d
       0.023890594 -0.04353434 -0.0063112164 0.10133637
000360 4a e6 c2 bc 05 3d a1 bc 02 a7 d1 3c a5 e0 51 3d
       -0.023791451 -0.019682417 0.02559233 0.05123963
000370 76 c6 17 3c 0a 68 12 3d 9e 1c 37 bd 6c 3f 90 3d
       0.009263625 0.03574375 -0.044705026 0.07043347
000380 46 d7 59 bd db 55 39 3b a8 23 97 bd 38 13 7c 3d
       -0.053183816 0.0028279934 -0.07379848 0.061541766
000390 3e 53 13 bd 62 06 fc bc 26 6f 3a bc c8 18 a2 3d
       -0.035968058 -0.030764762 -0.011379039 0.07914883
0003a0 cd 9d aa bd fb 01 a2 3c 70 5d 5a bd 82 07 42 bd
       -0.08330879 0.019776335 -0.053311765 -0.04737044
0003b0 13 d4 b7 3d 7b 96 a3 3d de 46 11 3c 51 d1 9d bd
       0.08975997 0.07987686 0.008866994 -0.077059396
0003c0 a1 9d 39 3d 80 21 7c bd 39 a9 90 bd b7 fe c0 bc
       0.045316342 -0.061555386 -0.07063527 -0.023558958
0003d0 be c6 eb 3a 33 d4 e4 bc 46 60 82 bd 5e d8 87 bc
       0.0017988307 -0.027933216 -0.06366019 -0.016582664
0003e0 e1 e2 8e bc 13 84 98 bd a3 e5 2d 3c 94 12 9c bc
       -0.017442169 -0.07447066 0.010613832 -0.019051827
0003f0 8e 78 61 3c 98 c0 40 bd b7 9e 65 3d d8 f9 01 3d
       0.013761653 -0.04705867 0.056059565 0.03173241

bias f4 [128]
000000 2e 9f b7 bc 0c bf 2e 3d 73 33 60 3d 85 6f e9 bc
       -0.02241477 0.042662665 0.054736566 -0.02849556
000010 98 bb 87 bc bb a0 bf be 1e 63 e7 bd 6d 92 aa 3c
       -0.016568944 -0.37427315 -0.11298202 0.020821774
000020 af 3c 3a be ab 96 b8 be c1 a1 27 bd d9 6b 99 bc
       -0.18187211 -0.3605245 -0.040925745 -0.018728184
000030 56 2e 6c 3d 82 bf aa bd 10 39 7e bd 44 c4 a8 3d
       0.057661377 -0.083373085 -0.062066138 0.0824056
000040 65 3e 0e bc 9b d7 f3 ba 39 af f6 bd fb 33 15 3c
       -0.008681868 -0.0018603684 -0.1204514 0.009106631
000050 f9 22 c4 be 63 41 09 bd d3 28 84 3d e8 3c 41 3d
       -0.38307932 -0.033509623 0.06453099 0.047177225
000060 4a 29 ea be 31 fe 01 3e 54 2c d5 bc 11 3d 2b bc
       -0.45734626 0.12694623 -0.026022114 -0.010451571
000070 b6 72 2d bd eb 78 9d be 5d 47 5b 3e f2 ed 70 3d
       -0.042345725 -0.30756316 0.21413942 0.058820672
000080 49 fe 6c bb 58 c7 0a be 96 d3 f6 bb cc c8 65 3e
       -0.0036162308 -0.13552606 -0.007532547 0.22439879
000090 ee 57 64 bd a0 5f 2a bd 8c d9 d8 be cd 3e 86 3c
       -0.05574792 -0.0415951 -0.42353475 0.016387368
0000a0 04 58 ea be 80 88 55 3a 66 44 4c 3e 07 6e 96 bd
       -0.45770276 0.0008145645 0.19947967 -0.07345205
0000b0 c5 1c 7f be 51 cf d5 3c e6 4e 08 3d 5a 1b bc bc
       -0.24913318 0.026099833 0.03327837 -0.022962261
0000c0 c1 78 d2 3d e4 cc 5e be ee 35 57 bd f4 59 ce 3c
       0.10276938 -0.21757847 -0.052541666 0.025189377
0000d0 8a 75 a7 bc 2f c3 ad be 00 67 8e bd 07 5d a5 3c
       -0.02044179 -0.33937976 -0.069532394 0.02018596
0000e0 fc d2 15 3c 09 ff 9a 3d 87 c1 72 bc 9a 3c f9 3c
       0.009144541 0.07568175 -0.014816648 0.030424405
0000f0 23 cd 18 3d 11 d6 e5 bb 03 0a 65 3b b0 a3 9c 3c
       0.03730501 -0.007014044 0.0034948594 0.019121021
000100 94 4f df 3c b9 6e cf 3c fe bd 7e bd 4a b0 5a be
       0.027259625 0.025321351 -0.06219291 -0.21356311
000110 f9 f0 be be 5a 21 4a 3d ff 2c f5 bc c0 58 a9 3a
       -0.37293223 0.049348213 -0.029928682 0.0012920126
000120 ab 67 00 be cd e8 b4 bc 92 c5 ab 3e ad 3d 80 bd
       -0.12539546 -0.022083664 0.33549172 -0.06261764
000130 c2 f5 91 bd 70 92 9d bc 04 75 67 bd 14 ed 5c 3e
       -0.07126953 -0.019234866 -0.05650808 0.21574813
000140 ec ae 6a bd 65 21 35 be 13 4c dc bd 00 3b 72 bd
       -0.057295725 -0.1768852 -0.107566975 -0.059138298
000150 a7 0e 11 3d 48 a0 b5 be 16 24 a5 be 4b 0d 65 bd
       0.035414364 -0.35473847 -0.32254094 -0.05592088
000160 cb 12 0e 3c 69 b9 22 be 10 07 60 bd fb 67 7c 3c
       0.008671473 -0.15891041 -0.054694235 0.01540565
000170 df 8b 8b 3c 40 67 6e bd d2 74 32 3d a0 13 cd 3c
       0.01703447 -0.058203936 0.04356844 0.025033772
000180 00 e2 4c 3d fe b5 b6 be 83 5a c4 be 15 92 92 bd
       0.050020218 -0.35685724 -0.38350305 -0.07156769
000190 bf eb 21 bd 65 a7 4d bd 0f 59 9e 3d d8 36 e7 39
       -0.039531466 -0.050208468 0.0773183 0.00044100615
0001a0 e6 1e 4a be 82 77 a4 3e 84 6e ee be 1a 29 89 bc
       -0.1973835 0.32122427 -0.46568692 -0.016743232
0001b0 f0 af 19 bd 7e 1e 89 bd e1 d3 94 be ee ac 35 3c
       -0.037521303 -0.06695269 -0.290679 0.011088593
0001c0 79 20 4e 3d 9b 38 db 3b 34 e2 65 be 7a c7 23 bd
       0.050323937 0.0066900975 -0.22449571 -0.039985158
0001d0 52 33 83 3c 80 bd 2f be 72 18 18 3d 7b 50 a8 3e
       0.016015682 -0.17162132 0.037132688 0.32873902
0001e0 93 eb a6 bc 7e b5 80 3c 16 23 bb bb 90 bd a9 bb
       -0.020376002 0.015711542 -0.0057109697 -0.0051800683
0001f0 29 66 ca 3c 61 2d c5 3e 2e 75 00 bf 2f d2 d4 be
       0.024706917 0.38511184 -0.501788 -0.41566607

weight f4 [128, 128]
000000 34 7f 72 3d 9f 2a 42 bd 9b 71 7e bd 52 b2 33 3d
       0.05920334 -0.047403928 -0.06212006 0.04387123
000010 0a 94 72 bd 5a cb 7f 3d c0 4e 95 bc 06 78 b2 3c
       -0.059223212 0.06244979 -0.018226027 0.021785747
000020 42 7c d2 bd a4 63 86 3c 0b 4a 9a bd fc f9 68 bd
       -0.102776065 0.016404934 -0.07533654 -0.05687903
000030 2e f3 d6 3c 16 4b a1 bd 99 93 3d 3d 3c a0 7f bd
       0.026239004 -0.0787565 0.04628334 -0.06240867
000040 a6 8d 96 3d 7c 7b 59 bc 20 f2 22 3d 46 75 b3 bd
       0.07351236 -0.01327407 0.03978169 -0.087626025
000050 76 5c 55 bd 41 1b 01 bd 1b 6c 22 3c 24 5d 97 3c
       -0.05209013 -0.031520132 0.00991347 0.01847703
000060 63 77 af 3b aa 9b 50 bd d9 4f 49 3c 63 79 80 3d
       0.005354808 -0.050929703 0.012287104 0.06273153
000070 ff 46 b3 3d 14 7f 9e bd de 9b dc 3c 61 85 25 3d
       0.08753776 -0.07739082 0.026929792 0.040410403
000080 f6 36 60 bd 16 ac ee 3b 95 a0 bb 3d 09 9a 43 bd
       -0.054739915 0.007283698 0.09161488 -0.04775432
000090 17 bc 87 bd 8b fd 3a 3d 9b 49 48 bd 57 23 8b bd
       -0.06627672 0.045651954 -0.04889832 -0.0679385
0000a0 e4 ee 5f bc 0c 72 1f 3d 32 5c 03 3d 84 06 e4 3c
       -0.013667796 0.038927123 0.032070346 0.027835138
0000b0 34 97 71 bd af df 42 3a 82 52 a1 3d 4f 36 e0 3c
       -0.05898209 0.0007433844 0.07877065 0.027369646
0000c0 c4 ee 59 3d 49 3a dd 3b d9 1c 0b 3d 7b bd 6c 3d
       0.05320622 0.006751333 0.03396306 0.05779789
0000d0 36 be 68 bd fe 43 81 bb 9e 81 f1 3c 0f 66 8c 3c
       -0.056822024 -0.003944873 0.029480752 0.01713851
0000e0 a3 05 b7 3c 09 62 5c 3d 00 75 0d bd a8 fd 96 3d
       0.022341555 0.05380443 -0.034535408 0.073726
0000f0 31 cd 35 3d e5 fe b9 3d 05 bf 0d 3d 39 8d b5 3c
       0.04438514 0.090818204 0.034606 0.022162067
000100 b1 80 8c bd 82 2c 80 bd c7 a6 46 3d bd 46 8d bd
       -0.068604834 -0.06258489 0.048498895 -0.06898258
000110 e1 73 b1 3d 11 8b 49 3c 06 cb 4c 3b 4e 9d 53 3c
       0.0866468 0.012301222 0.003124894 0.012915922
000120 4e bf a2 3c 94 3a 11 3d e2 37 08 bc f2 e5 1c 3d
       0.019866612 0.035456255 -0.008314105 0.03830523
000130 68 96 99 3d 96 b9 0a bd 3b 54 9b bd 61 ea 1e bd
       0.07499391 -0.033868395 -0.07584425 -0.03879774
000140 e1 52 a7 3c 0f 43 82 bd ed f4 b6 ba 2a 8b 94 3c
       0.020425262 -0.06360447 -0.0013958492 0.018132765
000150 38 58 85 3d 28 c2 40 3b 8f 35 04 3d 83 a6 93 bd
       0.06510967 0.00294126 0.03227764 -0.07209494
000160 c1 58 13 bd f6 24 ab 3b 19 65 43 bd ad ed 81 bd
       -0.035973314 0.005222912 -0.047703836 -0.06344161
000170 25 41 ca ba f6 2d 61 3d 7b d4 f7 3c 43 fb 21 bc
       -0.0015430792 0.054975472 0.030252686 -0.009886566
000180 cc ef bc bd 0f 3b 65 3c 8c d5 84 3d 0d 4e 8d 3d
       -0.09225425 0.013991131 0.06486043 0.06899653
000190 05 29 40 3c f0 ca fa bc b0 62 7d ba 05 2e ab 3d
       0.01172853 -0.030614346 -0.00096658897 0.08358387
0001a0 c2 00 2a bc 1c ab df bd b8 61 91 3d 61 1a 23 3d
       -0.010376157 -0.109213084 0.070987165 0.03982008
0001b0 62 1a ca bc 8d d3 a0 bd 1c ec f3 3c 93 1c 3a 3d
       -0.024670783 -0.0785285 0.029775672 0.045437407
0001c0 e0 ef d9 3b 9a 6c 21 3d 5a 63 ae bb 81 e7 5f bd
       0.00665091 0.03941021 -0.005321902 -0.05466414
0001d0 71 99 85 3d 00 06 8f 3d 42 cf 1b 3d 59 6b 33 bd
       0.06523407 0.06983566 0.038039453 -0.043803547
0001e0 46 0d 5b 3c 78 24 55 bd 12 62 f5 3c f1 07 9e 3d
       0.013369864 -0.052036732 0.02995399 0.077163585
0001f0 87 5b 8a bd 3e a6 28 bc 9d 41 22 bc 51 94 9e bd
       -0.06755739 -0.0102935415 -0.009903339 -0.07743133
000200 5a 62 24 bd be d9 26 bd a3 09 d5 bb 14 c0 49 bd
       -0.040132858 -0.040735 -0.006501393 -0.049255446
000210 bb 57 45 bc ca 36 55 3d 51 dc c3 3d 40 68 c6 bc
       -0.012044842 0.052054204 0.095635064 -0.024219632
000220 de ae ae bb 7c 9f 61 3c eb 3c 78 3c f7 c4 6d bd
       -0.0053309044 0.013770934 0.015151243 -0.05804917
000230 4a 78 b1 bd b7 8e 64 3d c3 86 43 bc b8 4c 6b bd
       -0.086655214 0.055800166 -0.011933985 -0.05744621
000240 51 7a 39 bd 4e 96 33 3d 48 11 92 bd c4 ae 9d 3d
       -0.045282666 0.043844514 -0.071322024 0.076993495
000250 47 18 8a 3d 3a d8 b3 bd 70 f9 32 bd 97 7e 3e bc
       0.06742912 -0.08781476 -0.043694913 -0.011626861
000260 8a a9 ef 3c 29 c8 26 3d 63 41 00 bd 9e 2d a2 3d
       0.029255647 0.04071823 -0.031312358 0.07918857
000270 f7 62 85 bd 1d 75 b6 3b 30 d7 8d bd c0 7d b1 3b
       -0.06513017 0.00556816 -0.069258094 0.005416602
000280 80 14 24 3d 44 cb a7 3d 4c 74 63 3d d2 9e 2f bd
       0.040058613 0.08193067 0.05553083 -0.042876072
000290 fd 47 a0 bc 70 d1 7e bd 13 56 80 3d 21 d9 33 3d
       -0.019565577 -0.062211454 0.06266417 0.043908242
0002a0 05 9d 97 3d b5 86 b4 3c 14 8c f4 3d ba 50 35 3d
       0.07402996 0.02203689 0.1194078 0.04426644
0002b0 eb cb ca 3d be 02 99 3d 03 c1 9d 3d 80 4e 51 bd
       0.099021755 0.07471226 0.0770283 -0.051100254
0002c0 c6 47 f2 3c 8c 76 84 3d d2 13 87 bd fc d0 68 bd
       0.02957524 0.064679235 -0.06595577 -0.056839928
0002d0 08 c2 97 bb 60 25 93 3d f7 47 a7 3d 68 bd 66 3d
       -0.0046312846 0.07184863 0.08168023 0.056332976
0002e0 62 65 70 3d 5d dc 7a bc 5c e2 cc 3c e7 98 de bc
       0.058690436 -0.015311328 0.02501028 -0.027172519
0002f0 f9 6d a5 3b b3 59 8c bd 5c fd 40 3b 77 94 75 3d
       0.00504851 -0.06853046 0.002944789 0.05995604
000300 e3 e6 42 bd 1f 5b 90 3d 57 c9 78 3d 4f bb d6 3d
       -0.047583472 0.0704863 0.060738888 0.10484945
000310 cb 37 5c bc 15 ae 82 bd d3 16 0a 3d 68 80 b9 3b
       -0.013441036 -0.0638086 0.033713173 0.005661059
000320 23 2e 94 bd 35 cd 02 3c 22 9f 45 3d 93 a0 8e bd
       -0.072353624 0.0079834955 0.048247464 -0.06964221
000330 ba b8 36 3d 6c f4 de bb 7c 25 2b bc ba fa 3f 3c
       0.044609763 -0.0068040397 -0.010445949 0.011717493
000340 d0 a4 0a 39 c3 ea 05 bd a9 f3 84 bc c2 38 2a 3d
       0.00013222103 -0.03269459 -0.016229467 0.041558035
000350 79 ee 2a bb aa 48 61 3d 48 04 c8 3d f9 6b 8b bd
       -0.0026082082 0.05500094 0.097664416 -0.068077035
000360 fe e2 e9 3c 9a c6 9a 3c 6d 76 ab 3d 19 09 55 3d
       0.028550621 0.018893529 0.08372197 0.05201063
000370 0c 1a 8e 3d 1f ea 50 bd d7 bb e8 ba 2d e0 83 bd
       0.06938562 -0.051004525 -0.0017756176 -0.064392425
000380 9e 97 75 bb 22 08 d1 3d 99 bf 30 3d da 74 73 3d
       -0.0037474404 0.10206629 0.04315147 0.05943761
000390 32 e6 d0 bd 89 1e 83 3d 66 1d d8 bd 70 f2 3d bd
       -0.10200156 0.064023085 -0.10552482 -0.046373785
0003a0 f9 1d c8 3c fa 76 da 3c c8 88 e5 3d 21 2b b1 3c
       0.024428355 0.02666806 0.112077296 0.02162701
0003b0 98 75 8e 3d 53 2d 74 3d b6 29 df 3d d0 a1 19 3d
       0.06956023 0.059613537 0.108966276 0.037507832
0003c0 9f 33 05 bd ff ee 58 bd cc cc 6d bd fe 34 1e 3d
       -0.032519933 -0.0529623 -0.058056638 0.038624756
0003d0 50 08 43 bd 0f d9 68 3d e0 a0 fb bc 95 58 70 bd
       -0.04761535 0.05684763 -0.03071636 -0.05867823
0003e0 ec d0 11 3d ca b5 11 3d d0 fb 3e 3c a0 1b b4 bd
       0.035599634 0.03557376 0.0116567165 -0.087943316
0003f0 c0 33 0f 3c 90 8f dd bc 73 78 2c 3e c7 c6 b5 3d
       0.0087403655 -0.027045995 0.16842823 0.088758044

bias f4 [128]
000000 ef ef 4b 3c 59 0f b9 be 8b 96 61 3e 73 a0 04 3c
       0.012447341 -0.36144522 0.22030084 0.008094895
000010 56 69 af bc 95 c8 3b bd 58 17 42 be 8f d1 2a 3d
       -0.021412533 -0.045845587 -0.18954217 0.041703757
000020 39 f5 bc bb 23 f1 ac be a3 d3 5e 3d 91 a0 dd 3c
       -0.0057665375 -0.33777723 0.05440105 0.027054103
000030 b2 e5 9a bc e3 b7 72 3c c3 ad 3a 3c b4 b5 1a bd
       -0.018908355 0.01481435 0.011393967 -0.03777094
000040 dd de 7f be dd ba d1 be 6a 5a e1 3e a4 2c 86 be
       -0.2498736 -0.40962878 0.44014293 -0.26205933
000050 e0 67 bf bd f6 c9 77 3e 2e e3 67 3d 12 39 a7 3b
       -0.093459845 0.24198136 0.05661314 0.005103239
000060 89 8e 7b 3e 05 47 42 3d f7 89 73 3d 09 ac a9 be
       0.24566092 0.04743101 0.059457745 -0.33139065
000070 dc a4 c5 3d 19 d1 59 3e e4 09 25 3d 99 05 88 3d
       0.09650585 0.2127117 0.040292636 0.06641693
000080 d7 e5 45 be 52 c8 d3 3d a8 67 5e be 06 d1 d7 be
       -0.19325958 0.103409424 -0.21719229 -0.4215166
000090 02 d6 10 3c 4f 32 63 3e 18 ca 91 3e f2 29 09 3e
       0.008840086 0.2218716 0.28474498 0.13394907
0000a0 11 fe b5 3e 73 32 9b bd eb 99 d8 bd 89 2b 93 3b
       0.355454 -0.07577982 -0.105762325 0.004491274
0000b0 96 50 04 be b7 e4 f6 3c b7 fe d3 bd 98 1b 44 3d
       -0.12921366 0.030138357 -0.103513174 0.047877878
0000c0 6d 93 7a 3d af c2 86 3e 4b b5 a3 3e 63 6f 64 3e
       0.061175752 0.26320407 0.31974253 0.22308116
0000d0 2c 5d 70 3e f1 cc ca bd a9 18 4a 3e 06 94 aa 3e
       0.23473042 -0.09902371 0.1973597 0.33316058
0000e0 0e fb 2e 3e 3b b5 22 3d 33 96 be 3d 83 8b 93 3c
       0.17087957 0.039723616 0.09305992 0.01801086
0000f0 59 88 73 bc 65 54 19 bd c4 0f 3a 3e 5b 42 19 be
       -0.014864051 -0.037434 0.18170077 -0.14966719
000100 dc 96 02 be 51 53 7e 3d 74 c7 bc 3e e4 4c 8a 3e
       -0.12752861 0.062091175 0.3687092 0.27011788
000110 7a 08 14 bd e0 c1 91 3e fc 5b 48 bc da 94 cb be
       -0.036140896 0.28468227 -0.012228962 -0.39762002
000120 78 df 5d 3e 0d 11 db 3c 3a 21 78 be c2 d9 af 3e
       0.21667278 0.026741529 -0.24231425 0.34345824
000130 e4 31 b3 3d fb 31 b6 3b 4c f0 b2 3e e6 65 10 3e
       0.0874975 0.0055601574 0.34948957 0.14101371
000140 59 0a 8c bb d4 27 97 be a5 5a af bd 35 d1 ad 3d
       -0.0042736945 -0.29522574 -0.08562211 0.08487169
000150 92 d6 5d be 10 20 06 bc 95 5e a4 3e 9c 2e 01 3e
       -0.21663883 -0.008186355 0.3210341 0.12615436
000160 38 28 6b be 5e 0b 91 be 66 49 7f bd 49 ba 84 3e
       -0.22964561 -0.28328985 -0.062325858 0.25923374
000170 07 09 45 3e 18 17 d5 bd 61 fd 4c be 04 ca 51 bd
       0.19241725 -0.104047954 -0.20018531 -0.051218048
000180 eb 0d b1 3d f9 d4 c0 bd c1 39 07 be 8e 90 ca 3c
       0.08645233 -0.09415621 -0.13205625 0.024727132
000190 43 81 1b 3e d1 a5 4e 3d ee bc cc be 5e f0 10 3e
       0.15186028 0.050451104 -0.39987892 0.14154193
0001a0 b1 76 39 3e c0 13 8e 3d e4 1e 85 bd 04 12 9b be
       0.18111683 0.06937361 -0.065000325 -0.30287182
0001b0 63 a5 8a be 4d c3 06 bd 34 0b 07 be 8a 0a 9c be
       -0.27079305 -0.032901097 -0.13187867 -0.3047679
0001c0 5d 8e c8 bd a5 28 7d be 26 94 b4 3d d0 03 11 3e
       -0.09792779 -0.24722536 0.088173196 0.1416161
0001d0 87 44 c4 be 98 0e 8d bd 5e 56 7d 3e 8f b8 8f 3d
       -0.38333532 -0.06887549 0.24739978 0.07017624
0001e0 f1 b6 bc bc d2 d1 77 bd 0b 9b 91 be f6 fb 38 3e
       -0.023036452 -0.060502835 -0.284386 0.18064865
0001f0 bc ed 9e be 62 c1 c6 3d cc b0 b6 bd 76 0a 00 3e
       -0.31040752 0.097048536 -0.0892044 0.1250399

weight f4 [128, 128]
000000 e8 43 89 bd 68 33 1a be 2f 9c 40 ba 05 23 94 3d
       -0.06702405 -0.15058672 -0.0007347492 0.07233242
000010 75 ba 8d bb 4e 75 2a bd 65 5b f5 3d 9a 74 2e bd
       -0.004325206 -0.041615777 0.11980323 -0.04259167
000020 9f 44 92 3d c6 0a e9 bd 61 53 1c 3d b3 47 a4 3c
       0.07141995 -0.11379008 0.038165454 0.02005372
000030 b2 f1 87 3d c0 01 b4 3d 24 f3 19 3e 00 f3 f2 3c
       0.066378966 0.08789396 0.15034157 0.029656887
000040 46 59 3a be 57 e3 a0 bd c2 2d 99 3d 6d 0f 51 3b
       -0.18198118 -0.07855862 0.07479431 0.0031900064
000050 56 6c 79 3c ac 64 06 3e bd 77 4b 3e 4e de 3f bd
       0.015223583 0.13124341 0.19869895 -0.046842866
000060 2b 69 75 3e 72 99 88 3c c9 3d bf 3c 7a b0 0e bd
       0.239659 0.01667473 0.023344891 -0.03483627
000070 f1 fd ae 3e 77 f2 c1 3d 33 a6 ca 3d 87 6c 7c bd
       0.34178117 0.094700746 0.09894981 -0.061626937
000080 88 8a 0a be 88 95 33 3e 33 6b f8 bc 50 8b f6 bc
       -0.13529408 0.1753751 -0.030324554 -0.030095726
000090 79 ff 88 bd 4a b9 1b 3e c2 b2 a2 3d 43 84 21 3e
       -0.066893525 0.15207401 0.079442516 0.1577311
0000a0 99 c8 a1 3d 12 0a 47 bc 7f 0e ae 3d 79 a8 f4 bb
       0.07899589 -0.012148397 0.08498859 -0.0074663726
0000b0 15 ad 13 bd 98 5a 04 3d 5a fb 5d 3d 54 a8 73 bd
       -0.036053736 0.03231296 0.054194786 -0.059486702
0000c0 2e 68 0a 3d 26 e5 a4 3d 40 f5 84 3d d2 a1 a0 bc
       0.03379076 0.08051519 0.0649209 -0.019608412
0000d0 32 29 3e 3d e5 d4 fe 3c 63 f8 a1 3e 4e 7f 8d 3c
       0.046426006 0.031107375 0.31634817 0.017272618
0000e0 de eb 3e 3e 91 2e 28 bc 6c 6c 24 3c fd 00 86 3d
       0.18644664 -0.010265009 0.010035615 0.06543157
0000f0 6b 08 57 3d 3f a0 a6 3c 60 73 a5 3d 17 64 e8 bd
       0.052498262 0.020340083 0.08078647 -0.113472156
000100 68 64 82 bd fa 36 94 3d da 5d d8 3d 72 fc d9 3d
       -0.06366807 0.072370484 0.10564776 0.10643853
000110 bd 25 8b 3d 63 be 9d 3d b1 3b b9 3e 75 50 6a be
       0.067943074 0.07702329 0.36178353 -0.22882254
000120 44 4d 00 3e 99 b3 5e 3d f6 74 ab bd 74 fd 2a 3c
       0.12529474 0.054370496 -0.08371918 0.0104364045
000130 6e 2c 7f bd a4 15 fc 3c b6 3d c2 3d ac f3 90 3e
       -0.06229823 0.030772038 0.09484427 0.28310907
000140 71 8d e9 3c ea df 1c be c0 e0 ac 3c c7 c6 13 bc
       0.028509827 -0.15319791 0.021103263 -0.00901956
000150 9a 27 30 bd 09 ec 24 bd 4b 05 0e 3e 2b b8 fd bc
       -0.043006517 -0.040264163 0.13869207 -0.030971607
000160 e1 82 6c bd a2 3f d7 bb 3f 74 9c 3d 87 5c 18 3e
       -0.057742003 -0.006568865 0.0763936 0.14879046
000170 65 a2 86 3c 52 bc 26 3c 9d 20 09 be 68 f5 42 bd
       0.016434858 0.010176735 -0.13391347 -0.04759732
000180 2b ea a2 3d 73 82 22 bd bf dc 94 bd 0f ee 55 3d
       0.0795482 -0.039675187 -0.072686665 0.052228983
000190 1a 12 38 3e 2b 36 62 3d 6d 9f 51 bd 33 f2 28 3e
       0.17975655 0.05522744 -0.05117743 0.16498642
0001a0 06 56 33 3d e2 b5 8c bd 0b f4 69 bd 89 85 1a be
       0.04378321 -0.06870629 -0.057117503 -0.15090002
0001b0 62 dd ca bc 74 e9 f0 bc 99 ee f4 bd 67 cb 54 bb
       -0.024763767 -0.029408194 -0.119595714 -0.003246987
0001c0 37 4f ef 3c 93 60 1c be 98 da 8e bd e0 b0 45 3d
       0.029212577 -0.15271215 -0.06975287 0.048264384
0001d0 7e ed 51 be 76 b5 14 3d 3e 74 f6 3d 77 ae 90 bd
       -0.20500752 0.036305867 0.1203389 -0.070645265
0001e0 7e 67 1e 3d b2 17 97 bd 39 5a 1d be 82 d7 8f bb
       0.038672917 -0.073775664 -0.15366448 -0.004389704
0001f0 25 a3 e6 bd e5 ac 03 bb f0 46 09 3d 7d 96 bd bb
       -0.11261586 -0.0020092067 0.033514917 -0.005785762
000200 83 be a3 3d be f8 bb be fe ed ad bd a0 10 86 bd
       0.079953216 -0.36713213 -0.08492659 -0.0654614
000210 e1 fd 84 3d bf 31 a7 3d d9 fc a9 bb d1 3b 1c 3c
       0.06493736 0.08163785 -0.0051876125 0.009535746
000220 9f 8b 32 3d b4 a1 d3 be a8 d9 bf 3e ee 35 00 bd
       0.043590184 -0.41334307 0.37470746 -0.03130143
000230 ba 64 6c 3d 4d 4f 1d bd fd fe 4d 3a 10 af 8a 3d
       0.057713248 -0.038405705 0.00078581256 0.06771672
000240 db b9 42 be f0 c7 5d bd bc 9b 36 3e 0f 4a 4a be
       -0.1901621 -0.054145753 0.17832845 -0.19754814
000250 af 46 ff 3c 35 51 a2 3e 58 82 5a 3e c5 5e 3d bd
       0.031161634 0.3170258 0.21338785 -0.046232957
000260 c0 f4 be 3d d6 54 df 3c 5d de fc 3c 44 9a 0d bd
       0.09324026 0.027262133 0.03086775 -0.034570947
000270 50 6d 82 3e a3 18 b8 3d a8 44 0c 3e 33 3f 07 3e
       0.25474024 0.08989074 0.13698065 0.13207702
000280 00 77 b5 bd f3 d0 53 3e 53 86 cb bd 7f 14 a1 3d
       -0.08860588 0.20685177 -0.0993773 0.078652374
000290 67 be 6d 3e 19 23 c2 3c 59 5f c0 3d 4e 5e 37 3e
       0.23217164 0.023698376 0.09393186 0.17907068
0002a0 23 1e 86 3d 42 49 c9 3c e8 3b 30 bd 8b 5d 52 3d
       0.06548717 0.024571065 -0.04302588 0.05135874
0002b0 f2 f4 38 be 3f 7c 51 3d c4 08 ae bc f0 cb 32 3d
       -0.18062189 0.05114388 -0.021244414 0.04365152
0002c0 d3 2a b4 bc 05 d4 90 3d 46 01 94 3d 2a cb cf 3e
       -0.021993076 0.070716895 0.072268054 0.4058469
0002d0 86 21 2a 3d 79 5b 7d bc 93 83 c2 3d 2e b9 e9 bc
       0.041535877 -0.015463703 0.09497752 -0.028530683
0002e0 95 26 b8 3e 80 76 4f 3e 1d 0e 34 3e 55 6b 49 bc
       0.35966936 0.20260048 0.17583509 -0.012293656
0002f0 77 b7 82 3d 13 b0 50 3d 17 c1 20 3e e1 53 1e be
       0.063826494 0.050949167 0.15698658 -0.15461685
000300 c5 4b bd bd c0 3a 93 bd 36 cb 00 bd 44 22 73 3d
       -0.092429675 -0.0718894 -0.031443797 0.05935885
000310 1a c7 7e 3d 1b df 63 3d bc da 43 3e 6d 4c 3b be
       0.062201597 0.05563269 0.1912641 -0.18290873
000320 b7 3a 9c 3d 5f 8e 90 bc 6a 6c 3b bc 66 38 55 bd
       0.076283865 -0.017646013 -0.011439422 -0.05205574
000330 2c 70 ee 3c b1 0b 15 3e 4f 04 79 bd c4 68 8e 3e
       0.029106222 0.14555241 -0.060795125 0.27814305
000340 c2 7f 99 bd ad dd af be 95 07 3d 3d ce c4 5f bd
       -0.07495071 -0.34348813 0.04614981 -0.054631047
000350 9d a9 10 be 75 79 4c bd 48 5b 25 bd a1 35 0e 3d
       -0.14127202 -0.049920518 -0.040370256 0.034719113
000360 42 53 10 be 47 30 22 be 55 cd 80 bc b6 75 bd 3d
       -0.1409426 -0.15838729 -0.01572291 0.09250967
000370 8c ff 94 bc 44 74 63 bd 20 a7 b5 be b2 d7 83 bd
       -0.01818826 -0.0555308 -0.3547907 -0.06437625
000380 4b d8 a3 3d d7 85 7c 3d 93 f7 ef bd b6 56 e0 bd
       0.08000239 0.061651077 -0.11717143 -0.10954039
000390 c1 4b 48 3d 85 f1 0b bc 9c 5b 80 3c f4 11 63 3d
       0.04890037 -0.008541469 0.015668683 0.055437043
0003a0 af 35 91 3c aa 14 c3 3c 54 67 a8 bc 25 d0 5c be
       0.017725794 0.023813564 -0.020557083 -0.21563776
0003b0 da 67 0b be c9 ef 7f bd 43 bb 2b bd 7e 91 6c 3d
       -0.13613835 -0.062484536 -0.041926634 0.05775594
0003c0 d6 f2 ad bc cd 82 80 be cd f2 07 3d e7 51 81 3c
       -0.021233957 -0.25099793 0.033190537 0.015786124
0003d0 45 3e 3b be 4f 02 1b 3d 97 a5 42 3d 27 c9 06 be
       -0.18285473 0.037844 0.0475212 -0.13162671
0003e0 2d a7 78 bd 03 35 13 bd 9e 24 29 3d f6 b5 8c 3c
       -0.060706306 -0.035939228 0.041294686 0.01717661
0003f0 8c f2 11 be 37 ec 9e 3d 54 d6 08 bd 1b 58 b7 bd
       -0.1425268 0.07759898 -0.033407524 -0.08952352

bias f4 [128]
000000 84 bd 22 3e c5 7c e0 bd 4f 9a 4a be 97 74 13 3e
       0.15892607 -0.10961298 -0.19785427 0.14399944
000010 15 06 c3 3b fc 00 24 3e 55 4a 8d 3e 82 ef 83 bd
       0.005951653 0.16016 0.27595773 -0.06442167
000020 fd 98 85 be 3d 61 17 be 0e 74 01 3d 35 b1 ae bd
       -0.26093283 -0.14783187 0.03160482 -0.08529893
000030 43 7c 8f 3e 71 67 ca 3c 0c 1c bd 3d d8 0a f8 3c
       0.28024492 0.024707528 0.09233865 0.030278608
000040 76 99 f0 bd b0 aa 72 3d 72 64 af bd 4f 34 56 be
       -0.1174802 0.05924481 -0.0856408 -0.20918392
000050 22 a8 b5 bd d8 57 90 3e fb b9 05 be 32 96 68 3d
       -0.088699594 0.2819202 -0.13059227 0.056783862
000060 22 8c 6f be 7f ee 41 be f4 79 56 39 9f a1 2c be
       -0.233933 -0.18938635 0.00020454061 -0.16858529
000070 c6 3e 1f 3d d8 47 da bd d1 be 95 3d 67 76 7a 3e
       0.038878225 -0.10658234 0.07311786 0.2445923
000080 cc 11 a9 3e 19 df 57 be 78 48 83 bc ae a0 02 3d
       0.3302139 -0.21081199 -0.016025767 0.031891517
000090 e5 90 b0 3e dd cf 16 3e 77 94 69 3d 6e 5c 48 bb
       0.34485546 0.14727731 0.057026353 -0.003057267
0000a0 0b 7d 0d be 30 2c 33 bd ec ea 60 bd 1f 5a 69 3d
       -0.13817231 -0.043743312 -0.05491154 0.05697071
0000b0 ae 02 30 bd e9 dc 7a bd 73 fd 01 3e 60 a5 e2 bd
       -0.042971306 -0.061245833 0.1269434 -0.11066699
0000c0 e9 e4 94 bc ef a9 8c bd 71 8a ea ba 67 b3 81 3c
       -0.01817556 -0.0686835 -0.0017894042 0.015832616
0000d0 a4 b0 02 be 46 cf 42 bd c7 7b 66 be 50 30 53 3e
       -0.12762696 -0.047560953 -0.22508155 0.20623899
0000e0 09 6a a7 bd 3e 6f b4 3c 86 60 33 be 04 88 41 bd
       -0.081745215 0.0220257 -0.1751729 -0.047248855
0000f0 cb 29 42 bd 4f 8e 2e 3e 6c 70 82 3c c0 54 bd 3e
       -0.047403138 0.17046474 0.015922748 0.36978722
000100 5e c7 48 be d6 e9 e7 bc fb 13 23 3e f0 b5 d2 3d
       -0.19607303 -0.028309744 0.1592559 0.10288608
000110 d6 d7 16 be 5f f6 e2 bd 87 02 a1 ba b3 26 8b bd
       -0.14730772 -0.11082148 -0.0012284078 -0.06794491
000120 a5 35 62 3d a3 be d7 bd 73 76 1b bd 40 a0 93 3c
       0.05522694 -0.10534408 -0.03795476 0.01802075
000130 e5 dc ef bd 64 d9 c3 3d 6c e3 c5 bd 76 4f 89 3d
       -0.11712054 0.09562948 -0.09662518 0.06704609
000140 ef 07 45 bc c5 69 4e 3e 6e 96 c1 bd 76 4e a6 3c
       -0.012025817 0.20157535 -0.0945252 0.020301085
000150 09 11 08 be 6c dc 0f bd 05 f0 66 be 8b c5 3a bd
       -0.13287748 -0.03512232 -0.22552498 -0.045598548
000160 27 c1 b5 3c c2 95 65 be e1 43 31 3e ff 44 3a be
       0.022186829 -0.2242041 0.1731105 -0.18190382
000170 1a 42 94 3e 06 ac 2a be fc 9c 90 bd 6d 67 ae 3a
       0.2895668 -0.16667184 -0.070611924 0.001330597
000180 21 4c a9 3d 07 7c 25 3e 2a 23 5c bc e7 cf 84 be
       0.082664736 0.16160594 -0.013436118 -0.25939867
000190 88 e7 ed bd cb d6 bd bd 7e 6d a9 3c d9 e1 12 bd
       -0.11616427 -0.09269484 0.020682093 -0.035859916
0001a0 6c 35 5d 3e cf 9b f3 bd ba a8 91 bc 0e 4b 8d 3d
       0.2160241 -0.118949525 -0.01778065 0.06899081
0001b0 08 f7 44 bd 5d 3c cb bd 76 1f b9 bd d9 5a e5 3c
       -0.04808715 -0.09923623 -0.09039204 0.027997421
0001c0 df e6 14 bd 8f ed f2 bd e7 42 4d bd 35 a4 8b 3e
       -0.03635299 -0.11861717 -0.05011263 0.27273718
0001d0 0e ec 19 3d 42 99 f1 bd 2a f6 d7 bd e4 4e 29 be
       0.037578635 -0.1179681 -0.10544999 -0.16534
0001e0 2e e4 ad bc 14 ea 4d be 56 b5 44 3e e4 a1 b3 bc
       -0.021226969 -0.20108825 0.19209799 -0.021927781
0001f0 e2 85 40 3d 49 23 42 3d 7e 90 30 be 22 01 97 3b
       0.04700268 0.04739693 -0.1724262 0.0046082893
