DeepControlledLearning/PolicyWeights/lost_salesgeometric_p9_l3_N5000_DCL0/l_gen.pth (torch, 285153 bytes, 10 tensors)

weight f4 [256, 3]
00000000: 245b 453d 03d4 c2be 4e95 443e 6883 3dbb
00000010: f2f6 bfbe 0f1f 53be bb09 75be cd57 943e
00000020: 19c7 813e 680f b6be 413c f03e c5f9 553e
00000030: edab ac3e acc7 003f 3c20 37be 6291 fdbb
00000040: 08c7 b3bc c5d1 45bd 1c05 003f 88a8 003f
00000050: ee7a d63e 97e8 24bf 4321 7e3d a700 e73e
00000060: 5916 4ebe 7edb 92be 80aa a03e c460 c33c
00000070: e980 e53d ec9b 643e d6fd fe3d c0d1 f03e
00000080: c18e f2bd 6dfc 4fbe d18c f33e eebd fb3e
00000090: ea47 b0be c3cf d83e 6dbb 16be 53da 14be
000000a0: b4c6 cdbe 1bf2 8f3e 9208 de3e e32a 11be
000000b0: 73b9 783d 8f2b b83e ff48 66be 1c85 dabe
000000c0: ce67 893e 0f36 d1be 11a5 81be b044 97be
000000d0: bd2c 40be 5352 16be e4c1 71be 67b1 10be
000000e0: ad75 d0bd 3e89 b5be fd98 cbbe fb8a d9be
000000f0: ef7d e6bd 1fc8 933e 19c2 1cbf 3711 67be
00000100: 59e7 8fbd 9f72 08bf 5bd5 d5bd 590d a23e
00000110: 289c a2be c018 ac3e 08da 533e 0312 863e
00000120: 6a6d 82bc 76ba 103e 39c7 f5be e085 e1bd
00000130: 3e82 293e d4b6 1cbc 6c28 9d3e b719 96be
00000140: 1783 4e3d 0871 75be c9c2 debe 2abc 933c
00000150: 988a cf3e cfb1 833d f71b 023f 0db5 d3be
00000160: f066 1cbe 6a07 c63e 20d7 823e f3d2 5bbd
00000170: 6643 d83c 7ae5 1c3e b0f2 973e 5f3d 77be
00000180: 0680 cc3e dddb bf3e ccda 90be 5902 6a3e
00000190: d61f edbe 073e c03e 8984 44be 0d59 9ebe
000001a0: 676a 10bf ada5 52bd b662 0dbf 7890 f13d
000001b0: 4b34 c3be f58b 103e 8085 12be b659 9dbe
000001c0: e645 9bbe 27e2 783e e83f 633c e5bf 013e
000001d0: 001a 07bf e2cd d03c 4c2f 573e 0586 7fbd
000001e0: 45a5 b0be 09ca 4c3e 45af cc3e 83ab d13e
000001f0: ff58 343e 5cf5 bdbd 3db4 533d a061 8e3e
00000200: 76e4 8cbc d16b 95be e503 5f3e 753a 5c3e
00000210: aac0 0fbf a41d 0e3f 1bd7 15bf 25be bdbe
00000220: 78d5 26be e9a7 0abe 0b0a 013f d6fe 493e
00000230: 6571 da39 35e4 a9be dcc3 a63e 044d 11bf
00000240: d8f7 bd3d bb0d 1cbf c38d c2be 4233 cabe
00000250: 453c 2fbe bc22 b13e 142e cfbe b7ae 313e
00000260: 8b91 11bf e448 063f 4191 09bf 977b 10bf
00000270: 08d2 9c3e 24eb 84bd 96e5 c0bd 0663 d53c
00000280: eabb e13c ce4a b5bd 932e 3dbe 9a61 343e
00000290: 945f 60be 082c d33e 592f 9b3e 7235 04bf
000002a0: 7845 6c3e 8bfa 793d 3ac2 553e d853 ac3c
000002b0: d524 003f 0955 113e b571 e5bc 7eba e03e
000002c0: e31b d63e fcae df3e a990 ae3e a1ec 02be
000002d0: 09d4 753b 65ad 0cbf 3947 96be 4034 5db9
000002e0: 95d1 d13e 32b8 613e 5a7e fabd e92b 58bd
000002f0: e45e b13d a70c 3f3e 573b a0be c97f 313e
00000300: 89f1 b63e e9be 1ebd 12c9 eabe 91ea 91bd
00000310: 3411 b2be 9aea b93e 8f04 433e 0b5d db3e
00000320: 01bf bb3e bfc5 27be 7b76 d9be 4f1e 973e
00000330: a585 213d ef79 4abb addb 3dbe 7398 e4be
00000340: c7c4 dbbe 24e7 cb3e 722d 00bf 1918 db3e
00000350: 4318 02ba 9dac 84be 2e4d 93be 471a bbbd
00000360: 4af9 d53e 230e 86bb 35ed 0ebf 0dd1 de3e
00000370: 4eaa aebe b85f c1be 2927 8e3e 0940 aebe
00000380: 50bf 2bbe e78f 80be a378 1ebf 3dcd 023f
00000390: a8b2 b4bd cdbb f83d c017 ca3d c578 283e
000003a0: a356 93be f4d8 db3d 119b c5bc 9a01 1c3e
000003b0: 28cc 7f3d 405a 663d 0f16 50bd b7ff 32bd
000003c0: 8ae2 32bf f887 373a 982b ae3c a695 813e
000003d0: e6ed 7bbd 01b3 883e ad4f c63e 7c77 aa3e
000003e0: b85b 8e3e 7c58 93be ccb5 81bd 7def 07bf
000003f0: 40c4 df3d 2b44 17bd ee93 ffbd 93be c13e
0.04818262 -0.38052377 0.1919758 -0.0028917436 -0.37493092 -0.20617317 -0.23929493 0.28973237
0.25347212 -0.3555863 0.4692097 0.20896061 0.3372492 0.50304675 -0.1788339 -0.0077382782
-0.021945491 -0.048295755 0.50007796 0.5025716 0.41890663 -0.64417404 0.06204344 0.45117685
-0.20125712 -0.28683084 0.3138008 0.023849852 0.11206228 0.22325104 0.12450759 0.47035027
-0.118436344 -0.20311137 0.47568372 0.49168342 -0.34429866 0.4234601 -0.14719935 -0.14536409
-0.4019066 0.281144 0.43365914 -0.14176516 0.060723733 0.35970733 -0.22488783 -0.4267968
0.2683701 -0.40861556 -0.25321248 -0.29544592 -0.18767066 -0.14679842 -0.2360912 -0.14130174
-0.10178695 -0.3545627 -0.39765158 -0.42488846 -0.11254489 0.28863618 -0.6123367 -0.2256516
-0.07026548 -0.532999 -0.10441085 0.31650808 -0.31759763 0.33612633 0.20688641 0.26185617
-0.015921313 0.14133629 -0.48003557 -0.11011863 0.1655359 -0.009565074 0.30694902 -0.29316494
0.050417986 -0.23968899 -0.43507984 0.01803406 0.40535426 0.06430399 0.5082392 -0.41349068
-0.15273643 0.3867753 0.25554752 -0.053667974 0.026399326 0.15321913 0.29677343 -0.24144505
0.39941424 0.3747243 -0.2829193 0.22852458 -0.4631335 0.37547323 -0.19191183 -0.30927315
-0.5641236 -0.051427532 -0.55228746 0.11795133 -0.38125834 0.1411589 -0.14308739 -0.30732507
-0.30326766 0.2430502 0.013870217 0.12670858 -0.5277405 0.025488798 0.21014136 -0.06238367
-0.3450109 0.19998945 0.3997747 0.40951166 0.17612074 -0.09275314 0.05168556 0.27808857
-0.017198782 -0.2918382 0.2177883 0.21506675 -0.5615336 0.5551398 -0.5853135 -0.3705913
-0.1629237 -0.13540615 0.5040595 0.19726118 0.00041664686 -0.3318192 0.32571304 -0.5675814
0.09275788 -0.6095845 -0.3799878 -0.39492232 -0.17112835 0.34596813 -0.40464842 0.17351805
-0.56862706 0.5245497 -0.53737265 -0.56438583 0.3062899 -0.06490162 -0.0941879 0.026048195
0.027555425 -0.088521585 -0.18474798 0.17615357 -0.2191146 0.4124453 0.3030956 -0.5164405
0.23073375 0.061029952 0.20874873 0.021036074 0.500562 0.14192595 -0.028008321 0.43892282
0.4181815 0.4368819 0.34094742 -0.1278558 0.0037510416 -0.5495208 -0.29351214 -0.00021095667
0.4098021 0.22042921 -0.12231131 -0.05277625 0.08660677 0.1865717 -0.31295273 0.17333902
0.35731152 -0.038756285 -0.4585653 -0.07124818 -0.3477875 0.363118 0.19044708 0.42844424
0.36669162 -0.16384028 -0.42473206 0.2951531 0.039434094 -0.0030895432 -0.18540831 -0.4464756
-0.42923567 0.39824784 -0.50069344 0.42791823 -0.0004962722 -0.25912943 -0.2876982 -0.091358714
0.41791755 -0.0040910407 -0.558307 0.43518868 -0.34114307 -0.3776834 0.27764252 -0.3403323
-0.16772199 -0.2510979 -0.6190283 0.5109442 -0.088231385 0.12145195 0.09867811 0.1645232
-0.28777036 0.1073474 -0.024121793 0.15234986 0.062450558 0.056238413 -0.050802287 -0.0437009
-0.6987692 0.0007001157 0.021261021 0.25309485 -0.061506175 0.2669907 0.38732663 0.33294284
0.2780435 -0.28778446 -0.06333503 -0.53099805 0.109261036 -0.036930244 -0.12479387 0.3784071

bias f4 [256]
00000000: 2b60 84be fb1a 383f 8876 3b3e 131c 23bf
00000010: 34f4 363f b5c5 613f ed53 9c3d 754b 24bd
00000020: 2123 e63d 64d1 16bf a810 dcbe 4ebe 2bbd
00000030: 3bd0 82be 7da7 4cbe 88ce e6be bbfd 1dbf
00000040: 7b3f 193e 8c9a d5be c375 7bbe 7a40 b73e
00000050: 7cb9 96be 6c87 d13e 81e2 cbbe a9a7 4bbf
00000060: ca95 9ebe 45eb bf3e 3ed2 143f 10d7 9b3e
00000070: 8315 00be 5d0c bc3e 508d 1ebb 090f fabe
00000080: 121a 34bf 4184 e23e 4d7f 903e 0e64 eb3e
00000090: 157a dc3e 6ad2 e0be fc6f bebe 7442 01bf
000000a0: 19f9 4bbd 473e fdbe 38ae 4a3f 9f38 40bc
000000b0: 0e29 a0bc f725 05be e843 19bf 9279 0abe
000000c0: 4f06 003f 5a5f 633d 1f6a 4a3e dff6 933e
000000d0: d530 cfbe b9c4 3c3f b644 c0be 7f68 00bd
000000e0: 4320 3a3d e3d1 21bf ed15 5f3e bd17 42be
000000f0: 81ed 473f 9324 e6be cafc a03d da97 29bf
00000100: 1514 e4be fb3f 6bbe b3c7 c33e 4667 c93e
00000110: f982 bb3e 9bf0 bebe 0fba 29bf 5959 373e
00000120: 9790 bebe a281 ba3e 4b19 123f f4c7 18be
00000130: ff6a 2a3e 3902 473f afc0 a63e afc8 473f
00000140: e747 133f b2dd ac3e cd0e 0fbf 1162 6e3d
00000150: a0a1 373e 1608 3b3f e1c1 04bf 6b46 023f
00000160: 4f1c 683e 3a64 e73e 3dfa 96be 8284 473f
00000170: 8a79 07bf 376e 363f 7d83 c9be 29cd e93e
00000180: 5547 ec3e ecef 22bf d458 d0be b446 f2be
00000190: f9fd 903e bf10 58bf b41c 063f 4ed4 d2bd
000001a0: d0c9 2c3c a9a2 bbbe bc22 acbe e323 adbd
000001b0: 8ee3 25be e86d 033f 193a b2be 81e9 bdbd
000001c0: 2895 50bf 0c12 eb3d 73c0 193e 1f0c 06bf
000001d0: 5888 4abe 98ea c03e d1b6 d1be 3e1f 5fbe
000001e0: 76f1 1e3f bbeb fb3e ceb6 63bf b727 4b3c
000001f0: 1f78 b3be a8bf 0b3f a77a 943d e094 263e
00000200: dfcd f33b 1013 f1bd 5d28 34be c970 1cbe
00000210: 0f89 7cbe 8778 edbe 2e43 af3e d719 83be
00000220: 0056 0fbf 10a1 91bc 7f48 253f 850e fb3e
00000230: 50c5 aa3e 2d57 1d3e 2536 3cbf f143 22bf
00000240: 9fe1 aa3e 650c c0bd 2290 17bf 01f8 e43e
00000250: b314 e5be 1503 9e3e 39ce a7bd 2352 95be
00000260: b9c5 893e 6723 5cbf d9f9 d7bd f803 04be
00000270: bbe7 0b3f 9058 d33c bf93 8dbe fc5a ccbe
00000280: e01c efbe 4d2a d43d 3b77 22be d609 bfbe
00000290: c447 3c3f 5108 12bf cc4c 143f dd7f 723e
000002a0: 85b3 8bbe ab6b e53d b323 8bbe 4a8f f9be
000002b0: 28c6 de3e 8298 b43e b11c fa3e 383b 08bf
000002c0: d1ca d0be 313f b13e 761f f13e 575d c1bb
000002d0: 0858 433d 66e0 173f eec1 a33e b25d 4b3c
000002e0: 4458 bfbe d9d0 a53e 0fb9 b33e 860b e6be
000002f0: 5b0f 95be 6f5e e73e 8119 2c3f 3cbc 19bf
00000300: 0cad 1f3f 206b 44be 2808 153f 4e4a f2be
00000310: 7447 4fbd 759b 54bf 020d efbe db7f 393e
00000320: 1853 283e 78e9 0f3e 3b57 2abf 8614 c5be
00000330: 57c8 9e3e 2670 193e c2fc 243e 8164 733f
00000340: 1fd5 543d bec3 8cbd dfe3 2d3f 9f38 0ebf
00000350: 6ad9 4e3e 50fd 223e 0ef2 703d 630d 203e
00000360: b1e6 203f aba3 a33e fa66 68bd 448b 19bf
00000370: 403b 31be f67e 74be 5569 8a3e e7a0 843e
00000380: 2bb5 15bf 8a04 91bc abb8 3dbf 7999 203f
00000390: 3aeb babe c641 6f3e 21a7 303f 75fe 893e
000003a0: 8e64 c83e 20e8 eabe a013 273f 5a51 3fbe
000003b0: a015 123f 0275 803e dc9d b9be 1756 6fbe
000003c0: ad6b db3e 1272 4cbf f222 99bc c2c1 2c3f
000003d0: 3382 05bf d0ec 533f c2f4 bf3e be52 4a3e
000003e0: e5e0 123f 7a48 713d 32d8 213e b0d7 29bf
000003f0: 2830 68be dc20 b53e 541e 4abe c8ff b4be
-0.2585462 0.7191617 0.18306935 -0.6371471 0.71466374 0.881923 0.07633195 -0.040111024
0.11237169 -0.58913255 -0.42981458 -0.041929536 -0.25549492 -0.19985767 -0.45079446 -0.61715287
0.14965622 -0.41719472 -0.24556641 0.3579138 -0.29438388 0.4092363 -0.39821246 -0.79552704
-0.30973655 0.37484184 0.58133304 0.30437517 -0.12508206 0.36728182 -0.0024193116 -0.48839596
-0.7035228 0.44241527 0.28222123 0.45974773 0.4306189 -0.43910533 -0.37194812 -0.50492024
-0.049798105 -0.49461576 0.79172087 -0.0117322495 -0.019550826 -0.13002764 -0.5986924 -0.13522938
0.50009626 0.055510856 0.19767044 0.28899285 -0.40466943 0.73737675 -0.37552422 -0.031349655
0.045440923 -0.63210887 0.21785708 -0.18954368 0.7809678 -0.4494978 0.07860716 -0.6624733
-0.4454657 -0.22973625 0.38238296 0.39336604 0.36623362 -0.37292942 -0.6629953 0.17905177
-0.37219688 0.36427027 0.57069844 -0.14920026 0.16642378 0.77737767 0.3256888 0.78040594
0.5753159 0.3376289 -0.5588196 0.058198992 0.17932749 0.73059213 -0.51858336 0.508887
0.22667049 0.45193654 -0.29487792 0.77936566 -0.5291983 0.71261925 -0.3935813 0.45664337
0.46148172 -0.6364734 -0.4069277 -0.47319567 0.28318766 -0.8440055 0.5238755 -0.102944
0.010546163 -0.36647537 -0.3362025 -0.084541105 -0.16200086 0.5133958 -0.3480995 -0.09273053
-0.81477594 0.114780515 0.1501482 -0.52362245 -0.19778574 0.3767898 -0.4095979 -0.21789262
0.6208719 0.49203286 -0.8895081 0.0123996055 -0.35052583 0.5458932 0.072499566 0.16267729
0.007440313 -0.11771214 -0.17593522 -0.15277399 -0.24661659 -0.46381018 0.34230942 -0.25605652
-0.559906 -0.017776996 0.64563745 0.49034515 0.33353662 0.15365286 -0.7352012 -0.6338492
0.3337526 -0.09377364 -0.59204304 0.44720462 -0.44742355 0.30861726 -0.08193631 -0.29164228
0.26908663 -0.8599152 -0.105457015 -0.12892139 0.5465047 0.025799066 -0.27651784 -0.39913166
-0.46701717 0.10359631 -0.15865795 -0.37312192 0.73547006 -0.5704394 0.5792968 0.23681588
-0.272854 0.11202177 -0.27175674 -0.48742133 0.43510556 0.35272604 0.48850015 -0.5321536
-0.40779737 0.34618524 0.47094315 -0.0059010196 0.047691375 0.5932678 0.31983894 0.012412475
-0.3737203 0.323859 0.35102126 -0.44930667 -0.29113278 0.45189235 0.67226416 -0.6005285
0.62373424 -0.1918149 0.5821557 -0.47322315 -0.050605252 -0.8304971 -0.46689612 0.18115179
0.16437948 0.14053905 -0.66539353 -0.3849222 0.31012222 0.14984187 0.16112044 0.9507523
0.05196106 -0.06873272 0.6792583 -0.55555147 0.20200124 0.15916944 0.05882459 0.15630107
0.6285201 0.31960806 -0.05673883 -0.5997813 -0.17307758 -0.23876557 0.27033487 0.2590401
-0.58479565 -0.01770236 -0.74109906 0.6273418 -0.3650759 0.23364934 0.6900502 0.26951948
0.39139217 -0.45880222 0.6526432 -0.18683377 0.5706425 0.2508927 -0.3625325 -0.23372684
0.42855588 -0.7986156 -0.018693421 0.6748315 -0.52151793 0.8278322 0.37491423 0.19758126
0.5737441 0.05890701 0.15805128 -0.6634474 -0.2267462 0.35376632 -0.19738132 -0.35351396

weight f4 [128, 256]
00000000: 80c5 56bd e0ae 64bd 3fcf aa3c 58a8 2dbb
00000010: 288a 94bd 226b 87bc ce41 5dbd b11b bf3c
00000020: 63bb 49bd da8c e3bc e358 4cbd 67cd a2bd
00000030: b644 453d 113a be3b 6202 13bd b1e2 55bd
00000040: 54b9 283c 0cb1 ec3c c0f1 173d 943b 183d
00000050: 4c11 bf3d c8b6 a5bc 4416 873d d6be 80bd
00000060: 4eee 003e 646f 1e3d 048b 5bbd 6017 01bc
00000070: b954 42bd 6801 a43d c165 89bd fff9 c8bc
00000080: dbe5 ef3c 0930 1e3c 0010 d4ba cd51 e5bc
00000090: 309a dd3c 28e9 9abc a6d4 823d 87f3 623d
000000a0: b3f5 c439 13ec 2fbd f876 733c ab81 ce3c
000000b0: 89c6 6a3d 20ff 60bb 0101 2dbd ece4 e23d
000000c0: 25d5 f43c 1fbf 62bc e3db 583e b9c3 20bd
000000d0: 24d1 fd3c 92a5 87bb 6e68 e63c 46b0 6bbc
000000e0: 78ed 9ebc 86f3 f2bc 13ac 843c 3070 c13c
000000f0: bae4 1abd 9518 88bd 1ea7 de3c dc2f e93c
00000100: ff6c 2ebc 7db0 3c3c 758f 6ebd f97f 73bd
00000110: 6fc1 1a3d 106e 1abc 920e 2a3b a408 883c
00000120: 80b2 1cbd 2a37 1bbd eaa3 1cbd 0f24 65bd
00000130: 884c ba3b d88c f73c 5ae2 f5bc b03d 54bd
00000140: 5142 1f3d 8fee a53c 40db 86bd e02f 91bc
00000150: e9ce 6ebb be48 90bd fdca 3ebd fa5b f33d
00000160: a6fb 373d 8873 78bc 896c d6bc d8d7 4e3d
00000170: dae3 09bd e4c7 f8bc fef8 923d f43a 52bd
00000180: 3b84 873b 2678 d23c f383 043e 9c47 d03d
00000190: 83d0 85bc f7f0 093d 2f64 c43d 4805 ed3b
000001a0: 00fa b93d c25d 91bc ee97 14bd 0456 003d
000001b0: 248a c23d 7f72 9cbd 34b4 613d d167 8ebc
000001c0: 6e01 2d3d 29b4 0e3e 9617 aabc c0ff d7bb
000001d0: 575f 6bbc d652 d1bc 0cf5 3bbd dfd0 c03d
000001e0: 808b e63b 84f1 233c 5f52 11bc 5286 2e3d
000001f0: 6422 35bd 023f 3c3d 64f4 1abd 76e4 0a3d
00000200: 4265 693d 54e1 83bc 5812 bfbc 98a8 8bbd
00000210: 4762 783c 8abf 6b3d 769d 96bd 5278 01bd
00000220: a03b 853c 4942 82bd da4e 273c 3b63 213d
00000230: a794 9f3d 7cad 3b3e a654 833b 7c1f 293b
00000240: ebad 893c b6cd 293d e209 9b3d 0d17 4fbd
00000250: 7024 a5bb b3cf 213e c3fd 3cbb 591b 02bc
00000260: 8ee2 24bd 64ec 5f3c f19c 39bd 103e 7e3c
00000270: dac0 10bd 9477 b63b 9877 10bd 1e45 b23d
00000280: b06c a2bc 7842 e6bc 4cc1 8b3c 4d91 d5bc
00000290: 6c64 abbd 05ed c5bc 6ffd 35bd f0a4 8abd
000002a0: 0e0a 003d 75f7 5b3e 1072 463d 80ad a13c
000002b0: 646d 6cbd 1578 9abd 7a91 bf3d 1ff2 a2bd
000002c0: ea89 173d 62a7 58bd db30 03bd 3e48 903c
000002d0: 1952 1bbd 819a 143c de82 443d 30d5 c9bc
000002e0: 8681 563d 8742 5ebd 8da1 3dbc 1cbe 2c3d
000002f0: 3d9f bab9 bce8 34bd 4d17 813c 6eec 61bc
00000300: 9aaa 493d de3c 563c 5efa 053c 8850 54bb
00000310: 8735 763d 7164 3e3d 9aac 31bd 6dd3 973c
00000320: 638d 253b a64a 77bd f523 a13c e8a7 4b3c
00000330: 5a19 15bd 636f 5d3c 1f5f 86bd a83b 10bd
00000340: acaa a6bc 6003 423b c042 663d 2099 88bd
00000350: 6db5 a3bc 367c 88bd f7d2 aebd c17d 53bd
00000360: 817f 97bc 7a2f 46bd 3c33 ffbc 01e0 b93c
00000370: 4ea6 6dbd 6f4e 173e f520 763d 5f21 d53c
00000380: f26c cb3d 7a7d 623d 4580 92bc 089b eb3b
00000390: dffc 093c 90bb 10bc 9502 603d 7ac0 383d
000003a0: 6b3b 85bd a029 8dbb 904b 1b3d 4045 23bc
000003b0: 8cc0 ddbc 76f8 b8bb f15f 983c eb93 bd3d
000003c0: 3ca1 943d 18a0 10bd 1f61 103d 2b3d a9bd
000003d0: f21f 1c3c 3254 18bd 00cd dcbc 92d8 a4bc
000003e0: 3c71 023d 7454 29bd 5839 1b3c 402d 413d
000003f0: ec74 193d 6a88 483d 2723 4a3c 0a32 273d
-0.052434444 -0.055830836 0.020850776 -0.0026498046 -0.07252914 -0.016530577 -0.054017834 0.023328634
-0.04925097 -0.027777124 -0.049889456 -0.07949334 0.04816123 0.005805262 -0.035890944 -0.052218143
0.010298092 0.028893016 0.037095785 0.037166193 0.09329471 -0.020228758 0.06596044 -0.06286399
0.12590906 0.03868045 -0.053599373 -0.007879108 -0.04744408 0.08008081 -0.06708861 -0.02453327
0.029284408 0.009655007 -0.0016179085 -0.027993107 0.027051061 -0.018910006 0.06388216 0.055408027
0.00037567093 -0.042949747 0.014859907 0.025208315 0.057318244 -0.0034331754 -0.042237286 0.1107882
0.029886791 -0.013839512 0.2117763 -0.039249156 0.030983515 -0.0041396106 0.028125968 -0.014385289
-0.019400343 -0.029657137 0.016195333 0.023613065 -0.037815787 -0.06645314 0.027179297 0.028465204
-0.010646104 0.011516687 -0.05824228 -0.059448216 0.03778213 -0.009425655 0.0025948626 0.016605683
-0.03825617 -0.037894405 -0.038242258 -0.05594259 0.005685393 0.030218527 -0.03001516 -0.051816642
0.038881604 0.020255355 -0.06584787 -0.017723024 -0.0036439246 -0.070451245 -0.046580303 0.118827775
0.044917725 -0.015164264 -0.0261748 0.050498813 -0.03366456 -0.030368753 0.07176398 -0.051325753
0.004135636 0.025692057 0.1294096 0.101699084 -0.016334778 0.033677068 0.09589421 0.0072332956
0.09080887 -0.017744903 -0.036277704 0.03133203 0.094990045 -0.07639026 0.055103496 -0.017383488
0.04223769 0.13935913 -0.0207632 -0.006591767 -0.0143659925 -0.025552195 -0.04588799 0.09414839
0.0070356727 0.010006312 -0.008869736 0.042608567 -0.04422225 0.045958526 -0.037830725 0.033909284
0.056981333 -0.016098656 -0.023324177 -0.06819266 0.01516015 0.057555713 -0.07354252 -0.031608887
0.016263783 -0.06360299 0.010211671 0.039401274 0.07792025 0.18327898 0.0040078936 0.002580612
0.016806563 0.041455947 0.07570244 -0.050559092 -0.005039744 0.15801887 -0.0028837777 -0.0079410905
-0.040255122 0.0136672 -0.045315687 0.015517727 -0.035340168 0.005568454 -0.035270303 0.08704589
-0.019827217 -0.028107867 0.017059945 -0.026070261 -0.08368763 -0.024160871 -0.044431146 -0.067697406
0.03125959 0.21481116 0.048448622 0.019736052 -0.05772151 -0.07542435 0.09353919 -0.07956337
0.03699676 -0.052894004 -0.032029014 0.017612573 -0.03792009 0.00907004 0.047976367 -0.024637789
0.052369617 -0.054262664 -0.011574161 0.04217349 -0.00035595326 -0.044167265 0.015758181 -0.013789279
0.049234964 0.013076035 0.008177368 -0.0032396633 0.06010964 0.046482507 -0.043377496 0.018533433
0.0025261275 -0.060373925 0.019670466 0.012430169 -0.03640113 0.013515326 -0.06561112 -0.035213143
-0.020345055 0.0029604062 0.056216 -0.06669831 -0.019983971 -0.06664316 -0.08536332 -0.0516336
-0.018493416 -0.04838512 -0.03115236 0.022689821 -0.05801993 0.14776014 0.060090024 0.02601689
0.09932889 0.055295445 -0.01788343 0.007190112 0.008422106 -0.008833781 0.054689962 0.045105435
-0.06505474 -0.0043079406 0.03791386 -0.009965241 -0.027069353 -0.005644853 0.018600436 0.09256729
0.072573155 -0.035308927 0.035248872 -0.0826362 0.009529101 -0.03718967 -0.02695322 -0.0201228
0.03184627 -0.041340306 0.009474121 0.047162294 0.03746502 0.04895822 0.012337483 0.040819205

bias f4 [128]
00000000: 5495 ebbc 59b3 adbe b3fa c03b 4a85 a23d
00000010: 0622 783d 7168 d23c f6ba 83be 7125 7d3c
00000020: b6a3 c4bd d48d 96bd c9f7 42bd 3334 11be
00000030: 1a95 393d 584f 24bc 03bc f23c c2e2 98bd
00000040: 0f8d b83c 3bdf 0ebd c381 84be 0836 46be
00000050: d4d9 2e3d b598 8bbd e275 90bd 196a acbe
00000060: ffc5 56be 2496 efb9 0e7f c6bc b027 0e3d
00000070: 0b9e e7bc ee53 8fbe 1411 6ebd 13eb 1fbd
00000080: e9f2 d7bc ce68 bebc a1b3 d739 40f3 71bb
00000090: 00ae 7f3b 28a5 38bd efcd 1cbd 40de eb3c
000000a0: a915 54bc 9a48 4bbc 98d1 38bc 1a4e 50bd
000000b0: 0c03 47bd 33d1 56be 7a0e 97bd 176e 43bd
000000c0: f9a9 edbc be7e 24bd 5553 65bc d612 49bd
000000d0: c000 28bd 88ba d3bc 8d89 21bd de8d 2fbd
000000e0: c448 0fbe 819a 3b3d 2813 fdbc 172a 9fbc
000000f0: 199f a4be 2064 80be ce43 01bc a0d2 c2bc
00000100: 4705 70bd 7b33 343d 47b8 88bd 6d27 5b3d
00000110: 32ae 0fbd b9cb 79bd e44d 083d d1dc 81bb
00000120: fdfb 2bbe 3c92 81be 83f3 b73e 9fc9 233d
00000130: 6b33 ff3c b14e 64bd bc07 07bd 6f4b 903c
00000140: 7c71 123d f905 1a3d e6c7 41bd fad0 e9bc
00000150: 56a7 16bd 00c4 a93d cb50 bd3d b7f3 093c
00000160: da2e ee3b 9c2d 7dbd 96cb 90bd 9865 cb3b
00000170: bd26 87bd c806 773d 31b7 4fbd cefb 413e
00000180: e354 84bd 3a8d 463c 19c0 ea3b 1c48 9dbc
00000190: 745e b23e da7f adbd 3989 333e 1046 053e
000001a0: 9094 48bd e646 ea3c e887 bfbc cf12 11bd
000001b0: e8c7 28bc 5170 82bd a064 5fbd d8dd 0fbd
000001c0: 0be9 72bc 1805 0cbc 14ec 473d 06b9 6abd
000001d0: e40b 2bbd ab45 25bd 54a2 90bd 8c2e 50bd
000001e0: 7006 e7bd 63e1 32bd e4ab 79bd 75d8 0cbd
000001f0: c2bc 31bd 70f5 72bd 74c0 ec3d 54ad e6bc
-0.028757729 -0.33925894 0.0058892607 0.07935579 0.060579322 0.025684567 -0.25728577 0.015450821
-0.09601538 -0.0735127 -0.047599588 -0.14180069 0.04530821 -0.010028683 0.029630667 -0.074651256
0.0225282 -0.034880858 -0.2588025 -0.19356549 0.042688206 -0.06816236 -0.07053734 -0.33674696
-0.20973967 -0.00045697496 -0.024230506 0.034705818 -0.028273603 -0.2799372 -0.058121756 -0.039042544
-0.026360946 -0.023243334 0.0004114183 -0.003691867 0.0039013624 -0.04507938 -0.03828233 0.0287925
-0.012944617 -0.012407446 -0.01128044 -0.050855733 -0.04858689 -0.2097824 -0.07375808 -0.04771241
-0.029011713 -0.040159933 -0.013996919 -0.04909023 -0.04101634 -0.025845781 -0.03943782 -0.042859904
-0.13992602 0.045801643 -0.030892923 -0.01942925 -0.32152632 -0.2507639 -0.007889701 -0.023782074
-0.058598783 0.043994408 -0.06675773 0.053504396 -0.035078235 -0.0609853 0.033277407 -0.003963091
-0.16795345 -0.2530688 0.35927972 0.039987203 0.031152448 -0.05573911 -0.03296636 0.017614095
0.03575276 0.037603352 -0.04730978 -0.02854203 -0.036780678 0.08289337 0.09243926 0.008419923
0.0072687687 -0.061811075 -0.07070081 0.0062071793 -0.065991856 0.0603092 -0.050711814 0.18943712
-0.06461503 0.012118632 0.007164013 -0.019199423 0.34837687 -0.084716514 0.17532815 0.13015008
-0.048969805 0.02859826 -0.023380235 -0.035418328 -0.010301568 -0.06369079 -0.054539323 -0.035123676
-0.01482607 -0.008546136 0.048809126 -0.05730536 -0.041759387 -0.040349644 -0.07062212 -0.05082564
-0.11280525 -0.043671977 -0.060954943 -0.034386117 -0.043392904 -0.0593161 0.11560145 -0.028158821

weight f4 [128, 128]
00000000: beef 11bd ef47 463d 90b2 a8bd ea0a 4dbb
00000010: 6818 f2bc ac2b 3e3d 0b91 06be 2c52 9fbd
00000020: 25f5 dfbb 3458 02bd 3c7d 613c 9cd7 49bd
00000030: 7cf0 6bbc 45e7 f4ba 6fc0 fa3c dbaa c4bd
00000040: 3e34 19bd 511c a2bd b1ed 79bd 4c27 c9bd
00000050: 6d22 ad3b e95e 15bd 8c20 b5bc 521a 283d
00000060: 7758 cabd a004 2bbd b595 42bd 0255 953d
00000070: 52c9 49bd fe6e afbd f0db 733c fdf6 37bc
00000080: cbab ea39 ab6a a23d 8be0 88bc cb29 27bc
00000090: fe6e 20bd aac3 0e3d 4a40 1abd afb9 22bd
000000a0: a255 abbd 55ee ed3c 9eb4 273d 2fe9 cbbc
000000b0: b192 46bd 44e7 80bd e0f5 5d3d a43d 803c
000000c0: f3bf 5cbd a611 9e3d eb54 0fbc 71e7 62bd
000000d0: 2580 30bd 745d b9bd 2690 92bd bef2 4dbd
000000e0: 6741 5c3c 961e b23d 503b d63c ec49 3ebd
000000f0: 957d e9bd 9d58 423d e320 773c fa25 1fbd
00000100: e4e5 a5bd 774d af3d d4bc 143d 7cab 5f3d
00000110: c4e9 8abd 3e37 afbd 4582 1abd dfcd 543d
00000120: 6fa4 d33c 045d 0d3d de42 943a 9c98 ab3d
00000130: f936 73bd 9e6e b33d ba73 54bd d1da fabb
00000140: b49a 8fbc 4dfe 42bc 0d79 173d 644f 4fbd
00000150: b3f4 2d3d ba9e 3abc e46e aebd 1555 683d
00000160: 1098 973d b6b8 63bd 8845 93bd 6a5a 6f3d
00000170: ded4 de3c a9c0 a93b da56 5dbc dc4d 06bd
00000180: 1109 fbbc 8d33 16bd 8b56 653c 6e92 a9bd
00000190: 2c21 80bc 59da c2bd be36 883d 1436 a7bc
000001a0: bb7b 8b3d f963 a1bd 6a06 bc3c 8cf7 62bd
000001b0: 1965 6bbc 8e10 b03c 7b16 90bd 1401 34bd
000001c0: 3eb3 43bd 0669 3a3d dcb5 80bd 9048 73bd
000001d0: 2185 793d cfd5 4fbd 4869 a5bd c6e9 05bb
000001e0: 3764 dfbc fe15 263d a707 053d 88e6 653d
000001f0: 686e aabd 9995 2a3d b0af 7dbd d4a4 e6b9
00000200: 6706 fc3d d984 8ebc 9e0f 7abd ffac 193d
00000210: 1b10 68bc 4ed6 f0bc fe47 02be 580b 9f3d
00000220: d031 833c bdf0 33bd 8118 19bd 49c6 c73b
00000230: 412d 8cbc ff94 fd3b 171b 49ba 0310 83bb
00000240: 0caa 19bd 8c7c 98bd 37f4 cebd 811b cbbd
00000250: eae6 473d a5fe 243d e3ff 583d 70a7 03be
00000260: 0ecf 283c 0a63 99bc 6de3 e6bb 7fee b3bc
00000270: c062 a5bd 9c35 c4bc 113c 90bd 445d 1a3c
00000280: 84b4 89bd 53db 2ebd b1f5 a8bd 2997 8eba
00000290: 31d1 a3bd 1849 683d 6382 97bc 3af9 89bd
000002a0: e1c7 7e3c 74a5 903d 34fb dabb 93d8 0fbc
000002b0: 4ebe d33d 0f17 8b3c fbd4 ce3c 7306 55bd
000002c0: 278c 91bd 3d7b cabb 3bf9 833c d38b 29bd
000002d0: e5fa 8dbd c206 cfbc a414 8ebd 3468 a53d
000002e0: c901 3a3d 03e2 64bd 0f09 733d e7c6 dc3c
000002f0: 546f b4bd d376 213d e2e4 d83d bc28 33bd
00000300: 4f40 d6bc cda0 eabb aed7 24bd e98a 2cbc
00000310: 41cc af3d 70a9 78bc b205 923d e7d2 983d
00000320: 380a 81bd 1497 dabd b944 e33d 4a3f a0bd
00000330: dded 863d 4984 c03d c3ba bf3d 00dc 3bbd
00000340: 1c38 043d 41ed 24bc d510 883d 06c1 823d
00000350: 0bac 89bd a67f 1e3d 9cb0 0ebd 1232 0dbd
00000360: a14e 99bc 3899 973d a927 90bd 1ea2 a9bd
00000370: 50c2 6b3d f3a6 73bb 2856 b0bc b824 0dbd
00000380: f4d3 d1bc 7696 91bd d336 a43c 4212 49bd
00000390: b8c9 883d 13b7 7dbc 7846 363d a879 633d
000003a0: b298 18bd 143c c63d 31c2 88bd a4a8 aa3d
000003b0: b2fa c1ba 1971 813c 60ec 62bd c8e7 9c3c
000003c0: 252c cfbb 3f5e f43c 7936 8e3c 9857 93bd
000003d0: af85 5cbd 2499 a7bc c239 72bd d7dc 01bd
000003e0: dee2 313d 6336 0e3d b753 94bd 1d12 c7bc
000003f0: 0b73 01bd 83be ba3d eef6 f6bc 6ce0 e7bc
-0.035629027 0.048408445 -0.08237183 -0.0031287023 -0.029552653 0.046428367 -0.13141267 -0.07779345
-0.0068346434 -0.0318224 0.013762768 -0.049277887 -0.014400598 -0.0018684646 0.030609338 -0.096029006
-0.037403338 -0.07915557 -0.061017696 -0.098219484 0.005283645 -0.036467467 -0.022110246 0.041040726
-0.098801546 -0.041752458 -0.047506053 0.072916046 -0.04926426 -0.08566092 0.01488398 -0.01122832
0.00044759954 0.079305016 -0.016708633 -0.010202835 -0.03916835 0.03485457 -0.037658967 -0.039727863
-0.083659425 0.02904431 0.040943734 -0.024891464 -0.04847974 -0.062941104 0.054189563 0.015654393
-0.053893995 0.0771821 -0.008748273 -0.0553965 -0.04309096 -0.09051028 -0.071564004 -0.050280325
0.0134433275 0.0869724 0.02615133 -0.046457216 -0.11400906 0.04744779 0.015083524 -0.038854577
-0.08100489 0.08559697 0.036312893 0.0546069 -0.067828685 -0.085554585 -0.03772189 0.051954146
0.025835244 0.034512535 0.0011311432 0.08378717 -0.059378598 0.08761333 -0.051868178 -0.0076554795
-0.017529823 -0.01190145 0.036980677 -0.050612822 0.04246969 -0.011390382 -0.085172445 0.056721766
0.074020505 -0.055596076 -0.071909964 0.058435835 0.027201112 0.0051804376 -0.013509477 -0.032789096
-0.030643972 -0.036670256 0.013997684 -0.08279882 -0.015640818 -0.09514303 0.06651066 -0.020411529
0.06810709 -0.078803964 0.022952277 -0.05541186 -0.014367365 0.021492269 -0.07035538 -0.04394634
-0.04777836 0.045510314 -0.06284687 -0.059395373 0.060917977 -0.050741013 -0.080767214 -0.002043353
-0.027269466 0.040548317 0.032478 0.056128055 -0.083218396 0.041646574 -0.061935127 -0.00043991825
0.12305909 -0.017397331 -0.06105005 0.037518498 -0.014163996 -0.029399063 -0.12722775 0.077658355
0.016014963 -0.043930758 -0.037376884 0.0060966355 -0.017111422 0.007738709 -0.0007671578 -0.0039997115
-0.037515685 -0.074456304 -0.10105174 -0.09917355 0.0488042 0.04028191 0.052978408 -0.12856841
0.010303272 -0.018723983 -0.0070461542 -0.02196431 -0.08075476 -0.023951344 -0.07042707 0.00942165
-0.06723884 -0.042689633 -0.08249987 -0.001087879 -0.079988845 0.056710333 -0.01849479 -0.06736989
0.0155505845 0.07062808 -0.006682778 -0.008779663 0.10339032 0.016978769 0.025248041 -0.052008104
-0.0710681 -0.006179242 0.016110053 -0.041393112 -0.0693262 -0.025271777 -0.06937531 0.08076516
0.04541186 -0.055879604 0.05933481 0.026950313 -0.08810297 0.03941996 0.10590531 -0.04374002
-0.026153712 -0.007160282 -0.04024475 -0.010531166 0.0858388 -0.015177116 0.071299925 0.074621014
-0.06300777 -0.10673347 0.11097092 -0.078245714 0.065883376 0.094002314 0.09361794 -0.045864105
0.032280073 -0.010066331 0.066438355 0.063844725 -0.06722268 0.038695954 -0.034836397 -0.03447158
-0.018714251 0.07402271 -0.070388146 -0.082828745 0.057558358 -0.0037178367 -0.021525458 -0.034458846
-0.025613762 -0.07108776 0.020045673 -0.049089678 0.066791 -0.015485543 0.044500798 0.055535942
-0.037254997 0.09679428 -0.06677664 0.08332947 -0.0014799444 0.015801 -0.055401206 0.01915349
-0.006322401 0.029830096 0.017359959 -0.071944416 -0.053838428 -0.020458765 -0.059137113 -0.03170475
0.043429248 0.034719836 -0.0724253 -0.02430063 -0.031603854 0.091183685 -0.030147042 -0.028305255

bias f4 [128]
00000000: 994d 89bd bccf 1f3e cd02 32bc e6fe bebd
00000010: cff1 54bd 5514 903c d021 9cbd c59d a1be
00000020: f737 34be 922c 703e e504 143d b8cb 77bc
00000030: 0bbf 97bd 321d 493e 5d23 ee3d 5e73 33be
00000040: 0eee 22bd f756 34be a55b 9e3e aef7 a6bc
00000050: b533 253d 62fd 2fbe cd61 933e 485c 85be
00000060: f42a 443d 13d1 103e b2ad 6cbe fe43 753e
00000070: e9d7 773c b8f6 19be 48e5 0b3d c628 f33b
00000080: bddb f7bd a298 b03c 3725 8cbd d99f 8d3e
00000090: fc65 073d 75b1 80bd 6c0f fd3c 76f4 51bd
000000a0: 5ce2 70bd 8b13 cc3c 91dd 343e dd37 8b3e
000000b0: 0e57 153d 49ba 963d 592c 403e 409d c13c
000000c0: 0084 6dbd 5132 0fbe 6335 acbd e272 13bd
000000d0: dff8 573d 6f93 d7bd 3c4a 593e f66e 7ebe
000000e0: 272d b9bd 3e44 94bc a2f8 55bd 424a fdbd
000000f0: eb22 1abd 89ad 9bbd 3a4f 213d c918 27be
00000100: 998b e5bd aa32 f8bd f8df cfbb 800f bfbd
00000110: 8bbd 5abd 3c85 88bd cc07 2a3e d83f 14bd
00000120: 358d 583e 7f6b 36be 77fd afbd a866 86bd
00000130: 8686 68be 64cf 2a3e 8b38 ae3e 2eff f3bd
00000140: 1a47 7cbc 06fa 1fbe 25f5 453c 4611 433d
00000150: 26fe 80bd 212e d7bc 19f7 ef3c 6974 ae3d
00000160: 9e0f 29be 0c4f a9bc b79d a63e b5c4 623c
00000170: baf8 e13b 99da cb3e c33e 50bd 31e4 99bd
00000180: e90e 42be 61f2 e13d f7b1 2cbd 69d5 8ebb
00000190: a62d 7dbd 18f2 863e 086b 683e ed62 cabd
000001a0: 24c0 ab3c eab6 cc3d f11e 443e 2321 02be
000001b0: 4594 603e 2d7d 92be 0dbc d8bd 5fc2 643c
000001c0: e952 193d a31e 10be f5b7 b53d ce3c 0b3d
000001d0: b09d 043d 0419 5fbe 3f5b 063d 9e13 203c
000001e0: ff78 053d 973b fc3d aecf ecbc 5a70 8ebd
000001f0: a3ab 013e f05c 0c3e 15af 723d 3bbf cf3c
-0.06704254 0.15606588 -0.010864926 -0.09325962 -0.05198842 0.01758782 -0.07623637 -0.3156568
-0.17599474 0.23454502 0.03613748 -0.015124254 -0.074094854 0.19640043 0.11627839 -0.17524478
-0.039777808 -0.176113 0.30929294 -0.020381775 0.040332515 -0.17186502 0.28785554 -0.26046968
0.047892526 0.14142255 -0.23113135 0.23951718 0.015127161 -0.15035522 0.034154207 0.007420632
-0.121024586 0.021557156 -0.06843036 0.27661017 0.033056244 -0.06283847 0.030891143 -0.051258527
-0.058809623 0.024911663 0.17662646 0.27191058 0.036459975 0.0735975 0.18766917 0.023634553
-0.057987213 -0.13984038 -0.0840862 -0.035998233 0.052727576 -0.105261676 0.21219724 -0.24847016
-0.09041815 -0.018098947 -0.052239068 -0.12367679 -0.037630957 -0.076014586 0.039382197 -0.16318049
-0.11208267 -0.121190384 -0.006343838 -0.09329128 -0.05340342 -0.066660374 0.16604537 -0.0361937
0.21147616 -0.17814444 -0.085932665 -0.06562549 -0.22707567 0.16680676 0.34027514 -0.11913906
-0.015397811 -0.1562272 0.012082373 0.047623895 -0.06298475 -0.026267113 0.02929263 0.08518297
-0.16509864 -0.020667575 0.32542202 0.013840844 0.0068961056 0.39815214 -0.050841104 -0.07514227
-0.18951 0.11032558 -0.042161908 -0.0043589366 -0.061811112 0.26356578 0.22697079 -0.0988215
0.020965643 0.099958256 0.19152428 -0.12707953 0.2193156 -0.28611127 -0.10582743 0.013962357
0.037432585 -0.14074187 0.08872978 0.033993535 0.032376945 -0.21786886 0.032801863 0.009770302
0.032586094 0.12316053 -0.028907623 -0.06955023 0.1266313 0.13707328 0.059249002 0.02535974

weight f4 [128, 128]
00000000: 3e14 2f3c 5c0b a1bc 3bd1 d4bc 1a4e ddbc
00000010: 1521 9abd fa9c 043d 25ba 2dbd 8b6d a33d
00000020: 1324 a2bd 1c90 6e3d 07b3 243d a1bd 8bbd
00000030: 3b62 d53c 40c4 833d 3fe2 93bd 1f5f 02bd
00000040: 70fe dabc 9354 c93d ebf2 2bbd 56bc 843a
00000050: 54e6 9cbb 8066 723d 7f39 4d3c 225b c1bc
00000060: 0e93 eabc 5148 04be d9eb 67bd b623 133d
00000070: 1cf9 983c be24 ad3d dc3a 9e3b e510 2dbc
00000080: 0e8b 883d af80 523d d9e1 963d c681 ecbd
00000090: 31c2 fcbc 40bf fcbc ed33 6ebd e91d c1bd
000000a0: 47a6 06bd 9693 4ebc c9df aa3b 572a 2a3d
000000b0: 4b13 85bd 4e04 a4bd 8ebb 733d 620a 71bd
000000c0: 3043 783c 33ac aebb f2d8 0abd df64 f8bd
000000d0: b649 05bd 352d 5cbd e0bf 61bd b98d a43c
000000e0: 9e54 793d db9e a73d 3315 39bd ff4f c23d
000000f0: bf85 ecbc c83f 02bd 4f35 00bb 5556 77bb
00000100: fb4d 5cbd c460 b83d dec8 023d 97ba 813d
00000110: 9fc5 683d 500d a1bd 3d4f 56bd e44c aabd
00000120: e35d b2bd 0e3f 58bd aba1 ad3d 180c a63d
00000130: cf42 863d 1103 3ebd ab73 6abd 4a3b a83d
00000140: 7763 01bd 94af 743c 681b 5bbd ad11 95bd
00000150: 89d8 b13d 5962 c63d 459c 053c cdd2 39bd
00000160: 6dce 2e3c d249 d53d 475e 32bd baf8 fd3c
00000170: 8f9d 003d d027 d4bd cfb4 923d f8d0 603c
00000180: cc7f 67bd 9c73 2cbd 312f 023d 8104 a2bc
00000190: 7b60 aebd ca02 f9bc da4d a13d e148 8bbd
000001a0: 0153 6e3c bd39 98bd 899d 2dbd f055 79bd
000001b0: 7ee7 ab3c f510 a7bd 7cf7 65bd 76e9 18ba
000001c0: af43 9abd 126d 95bd 13eb b53d 072d 003c
000001d0: a445 a2bc 242f 2fbd 2ad7 83bc 63c7 9abd
000001e0: 5109 90bc 0d84 96bd 9d9f 813d 868f 4bbb
000001f0: 197c b63b d940 9d3d db0a 14bd 9ac7 6ebd
00000200: a162 8abc 8576 e93c 6b82 3b3d 6e3a 2ebd
00000210: 29bd 853d 17b8 8abd 7f01 2ebc fc25 a0bd
00000220: 6450 4f3d 93cf 62bd 3fca 7cbd 60f2 7e3d
00000230: 3ad0 edbc 1896 84bd 2f05 debb 36c8 abbd
00000240: a5be 47bd 222c 343d b3ca b03c 8da8 b63d
00000250: 206c b5bb 0664 423d c976 913c 4fe2 0bbd
00000260: 4660 18bb 7d48 2b3c 4fbd e0bd a59b afbc
00000270: 52b0 a2bd 27b5 35bc 07ca e5bc 3da5 acbb
00000280: 8250 e3bb 332d 37bc d725 a63c 060a b7bd
00000290: d71d dcbb 01af b0bd 7704 32bd a993 bbbc
000002a0: b771 b5bd 5e45 52bc 9f8c 3dbd cc3b 0bbd
000002b0: 0fb0 09be 3ef2 dd3d 7041 143d e764 afbd
000002c0: bac9 a73d c204 a4bc ef2f f83c 40e5 663d
000002d0: 7bf5 6fbd 7dc6 353d 96b2 143d c10a dabc
000002e0: b3f0 3a3d f4a0 8abd 52e7 c73b 35f0 e63d
000002f0: 5368 563c f337 0d3b 8f6f 52bd 9524 523d
00000300: cac8 8f3d 51e8 c0bd fff1 03bd 8b9d efbd
00000310: 1429 b03b fefa 8a3d 2b6b 0abe b5b2 aabd
00000320: 0be6 943d 3fe1 0cbd 4755 2ebd 6991 ac3d
00000330: 5352 323d 1605 84bd 9743 39bb 9f0d a1bd
00000340: b379 b43c f621 9ebc f241 1dbc cfa9 cc3c
00000350: 81b8 d53c 47b8 4e3d 8a6f 9cbd 678e bfbd
00000360: c82a 9ebd 9935 823c 0d97 b6bc 90de b1bc
00000370: 62ae a5bd 99ef b4bd f717 f6bc 4686 ccbc
00000380: 1deb 13be 177d 413d 85dd 6abd f7e4 98bd
00000390: 505d aebc 6cbc a8bc 55f3 043c bc8b aebc
000003a0: 2b73 953d b5ed 91bc 8a9a e4bb a2a4 f5bc
000003b0: 7115 35bd bf8f 3abd 7add 35bc 1fd9 883d
000003c0: dfe7 b0bb d529 043e 8c2c 89bd 2472 763d
000003d0: eabc 27bd 7f81 acbd aa06 1d3c 5910 1d3d
000003e0: c1ed 6cbd 1c6f 01bd 2ffa 9c3d b0cb b73c
000003f0: a768 c2bc 11b8 7e3d 0c12 c33c d7af 773d
0.010685978 -0.019658737 -0.025978675 -0.02701478 -0.07525841 0.032376267 -0.04241385 0.07979878
-0.07917037 0.058242902 0.040209796 -0.06823278 0.026047817 0.06433916 -0.072208874 -0.031828996
-0.026732653 0.098305844 -0.04197971 0.0010126929 -0.0047881994 0.059179783 0.012525915 -0.023603026
-0.028634574 -0.12918212 -0.056621406 0.03592273 0.018673472 0.08454274 0.004828794 -0.01056311
0.066671476 0.051392253 0.07367296 -0.1154819 -0.030854316 -0.030852914 -0.05815499 -0.09429533
-0.03287342 -0.012608429 0.0052146656 0.041544285 -0.064978205 -0.080086336 0.059505038 -0.058847792
0.0151527375 -0.0053305863 -0.0338983 -0.12128615 -0.032541 -0.05375405 -0.055114627 0.02008711
0.060871713 0.08184596 -0.045186233 0.09487914 -0.028872369 -0.031799108 -0.0019563024 -0.0037740667
-0.053785305 0.090028316 0.031929843 0.06334417 0.05682909 -0.07863867 -0.05232166 -0.08315447
-0.08709314 -0.05279451 0.08478101 0.081077754 0.065557115 -0.046389643 -0.057239216 0.082144335
-0.031588998 0.014934439 -0.053492934 -0.07278762 0.08683879 0.09686727 0.008154933 -0.04536705
0.010669333 0.10414471 -0.04354694 0.031002391 0.03140026 -0.10359156 0.07163393 0.013721697
-0.05651836 -0.04210244 0.031783286 -0.019777538 -0.08514496 -0.030396838 0.07876177 -0.0680101
0.014546157 -0.07432888 -0.042386565 -0.060872972 0.020984408 -0.08157531 -0.056144223 -0.0005833128
-0.07532441 -0.07296194 0.088827275 0.007823235 -0.019808598 -0.042769566 -0.01609381 -0.07557561
-0.017582567 -0.073494054 0.06329272 -0.0031060888 0.005568993 0.07678384 -0.036143165 -0.058295824
-0.016892733 0.028498897 0.045778673 -0.04253619 0.0653022 -0.067733936 -0.010620474 -0.07819745
0.050613776 -0.05537374 -0.061716314 0.062242866 -0.029029954 -0.064739406 -0.0067755203 -0.083877966
-0.048765797 0.0439874 0.02158103 0.08918867 -0.005536571 0.04745867 0.017756836 -0.03415137
-0.0023250743 0.010454294 -0.10973608 -0.021436522 -0.07943787 -0.011090553 -0.028050436 -0.0052687214
-0.0069370875 -0.01118021 0.020281715 -0.08937459 -0.0067174244 -0.08627129 -0.04346129 -0.022897558
-0.0885958 -0.012833921 -0.046276685 -0.033992574 -0.13446067 0.1083722 0.03619522 -0.085641675
0.08192773 -0.0200218 0.030296294 0.056370974 -0.058583718 0.044378746 0.036303125 -0.026616456
0.045639705 -0.067689806 0.0061005736 0.112762846 0.013086396 0.002154824 -0.05137592 0.05130442
0.07020719 -0.09419311 -0.032213207 -0.11699971 0.0053759906 0.06786154 -0.13517444 -0.08334867
0.0727044 -0.0343945 -0.042561796 0.08426172 0.04353554 -0.064462826 -0.0028269046 -0.07863926
0.022030687 -0.019303303 -0.009598242 0.024983315 0.026088955 0.05046871 -0.07638462 -0.09353333
-0.077230036 0.015894698 -0.022288824 -0.021712571 -0.080899015 -0.08834762 -0.030040724 -0.02496637
-0.14445157 0.047238436 -0.057340164 -0.074655466 -0.02128473 -0.020597659 0.0081146555 -0.021306865
0.07297357 -0.017813543 -0.0069764303 -0.02998573 -0.0442099 -0.045547243 -0.011100167 0.066820376
-0.005398735 0.12906583 -0.0669795 0.060167447 -0.040951647 -0.08423137 0.009584108 0.03834567
-0.057843927 -0.031600103 0.07664906 0.022435993 -0.023731543 0.06218726 0.023812316 0.06047043

bias f4 [128]
00000000: 4c4f 83bd b47e 873b 8a38 ecbc 58b9 47bd
00000010: 12e9 343a 0282 813e 46c7 a83e 55a3 cbbc
00000020: 22fe f13c 9d0d 2f3d d281 13bd 76d3 293c
00000030: e8df df3c 48a7 c2bd 1dbc 62bd f94c 11be
00000040: 200e ccbd 8e36 6cbd ca94 773e 9462 d1bb
00000050: 4500 2c3d 7749 05bc 393a 3fbd ac26 c0bd
00000060: 6630 903e 5f31 983c 247e ecbd 36ac 01be
00000070: 9247 833d 4dbb 11bd f11f bd3b 56b1 313e
00000080: bc79 613e de50 5dbe e87c 8bbd d9c1 3bbc
00000090: 95c6 36bc ccce 9abb 8ab5 cf3d 51b5 14be
000000a0: 3d9f bc3e 366e a63d 3a72 683d 9677 f8bc
000000b0: 0f6a efbb a443 02be 2f70 d4bc bb49 003c
000000c0: 67bb 3e3e ece6 81be 4054 0e3d 8f12 95bd
000000d0: f5e8 873d a652 a4bd 8aee e03d 0490 4f3d
000000e0: ff76 95bd 284c a53b 5e09 a2bd b44a 5fbc
000000f0: b829 79bd 4c17 5ebe d4b1 923d c44b 95bd
00000100: fd90 113d 5582 c839 400e 103e 4ffc 8bbd
00000110: 4bec fd3c 7ab8 11bb 26c4 a83b 67f1 e2bc
00000120: 597d 15be 5c0f 543d a56b 37bd 36ae 083e
00000130: e223 dabc a5d7 75bd 3a24 90bd 29f1 963e
00000140: e827 293d 520b 2f3c f906 583c a564 06bd
00000150: ff12 a8bd bcac 04be 7cf1 9c3e ce78 34be
00000160: 025f 103d 67de 94bc 5f36 70bd 10ca 59bd
00000170: b6f8 77bc ba4b 3b3d 704c bf3c 310d fd3c
00000180: 8ded cebd 2471 21bd d682 9abd 21dc 183d
00000190: 6e94 703b 1788 af3d 02ec fa3d 4c26 553d
000001a0: 3997 22bd 9775 b1bd d7d2 f9bd 9d38 b1bb
000001b0: 35dd 9f3c 488a 243c ceb1 c93d e80b 96bc
000001c0: a6e2 a1bd 8c73 413d e70b 00bd 1b8a a83c
000001d0: 3d19 b2bd 9037 b0bd 2bec afbd 7c11 bebc
000001e0: 5e87 a03e 577a 613e e3d7 d93c 1f04 833e
000001f0: 4bd2 373d 744c feb8 5b41 0ebd 5b2f da3d
-0.06411609 0.0041349772 -0.028835554 -0.048760742 0.0006901185 0.252945 0.32964534 -0.024858156
0.029540125 0.042737592 -0.03601248 0.010365358 0.027328447 -0.095045626 -0.05535518 -0.14189519
-0.09963632 -0.057669215 0.24177852 -0.0063899253 0.041992445 -0.008135191 -0.046686385 -0.09382376
0.28161925 0.01857823 -0.11547497 -0.1266335 0.06410135 -0.035579015 0.00577163 0.17352805
0.22019094 -0.2161288 -0.06810933 -0.011459791 -0.011155744 -0.004724359 0.10142048 -0.14522292
0.3684024 0.0812649 0.05674956 -0.03033046 -0.0073063443 -0.12721115 -0.0259324 0.007830079
0.18626176 -0.25371492 0.034748316 -0.072789304 0.0663623 -0.080235764 0.10982998 0.050674453
-0.07298087 0.005044479 -0.07911943 -0.01362865 -0.0608308 -0.21688575 0.07162824 -0.07289842
0.035538662 0.00038244078 0.14067936 -0.068352334 0.030996462 -0.00222352 0.005150336 -0.027703
-0.14598598 0.05177246 -0.044780392 0.13347706 -0.026628438 -0.060020108 -0.0703816 0.29480866
0.041297823 0.010683851 0.013185256 -0.032810826 -0.08206748 -0.12956518 0.30652988 -0.17624208
0.035246857 -0.018172456 -0.058645602 -0.053171217 -0.015134981 0.045726515 0.023351878 0.03089008
-0.10103903 -0.03941454 -0.07544486 0.037319306 0.0036709565 0.08570879 0.12252046 0.052038476
-0.039695 -0.086650066 -0.12198418 -0.00540836 0.01951466 0.010042734 0.09848367 -0.018316224
-0.07904558 0.047229335 -0.03126135 0.020573666 -0.0869622 -0.08604348 -0.08589967 -0.023201697
0.31353277 0.22019325 0.0265922 0.25589082 0.044878285 -0.00012125904 -0.034730297 0.106535636

weight f4 [13, 128]
00000000: 3474 683d 4434 91bc 6b38 9ebd 375e 5cbb
00000010: 7a98 68bd d08c 8ebe 7c24 6dbe 67ca 503d
00000020: 9479 42bd aa1e 6cbd 1ac1 b23c d6e6 70bd
00000030: 214a 4c3b 9c89 a2bc b8e0 a33d e014 e03d
00000040: eca2 dabc 8189 5a3d 78e2 8fbe bb34 67bd
00000050: 6e83 893d 7362 803b 47c9 6a3d 49fa 25bd
00000060: af9d 39be 6b24 c53c 3b1a c9bc 9fd3 d03d
00000070: 4a42 0e3d ccf6 a0bb 6e8e ccbc 3b85 96bd
00000080: 47a2 7cbe 4f35 983d 4ec8 923d 9eae 26bd
00000090: 51b1 e33c f2c6 213c 1509 1abc 226e 833c
000000a0: 2c67 68be 40ed acbd e1a8 bebe 7300 88bd
000000b0: d737 a73d fd99 86bc db16 02be af8e ffbc
000000c0: f3a6 4fbe 6ca0 a93d 6da2 16be 697a 5abd
000000d0: 7e12 813b 93f0 46bd adfb acbe 0f01 1f3c
000000e0: 2448 e3bc 4dcc 9a3d 1313 90bb bd46 6ebd
000000f0: 5fd3 36bd 5041 d03d 7330 3cbd 895d 9c3c
00000100: 6844 a03d 51aa eebd 9e28 34be fb84 a1bc
00000110: 02ea 323d 31d8 31bc 277f 6a3d be14 70bd
00000120: 100f 763d 960a 843c 6b03 f0bc 9fbd 03be
00000130: 69b1 2c3d c2e0 523d 2ac7 9d3d cacf 8dbe
00000140: 9c80 4f3d 0bfd 903c 5a4e 5bbd a3ed 50bd
00000150: a601 183d ba4b f03d 1810 72be 9a19 d03d
00000160: 1697 2e3c e810 9d3c f7e8 753d e67c 7e3d
00000170: 41fa 9fbc f212 fcbc 20c6 953d 25be 533d
00000180: 2d0a a2ba 7715 343d 4acf 8e3d 3db6 06be
00000190: 11c4 cfbc 977c 05bd 2292 40bd 06e1 783d
000001a0: f9db 82bd d9ce 76bd 285d 903d 36cc 883d
000001b0: 34c1 e9bd acd3 953d 1ae1 8ebe f700 873d
000001c0: d398 4c3d b689 13bd b563 863b 183b f3ba
000001d0: 5512 19bb 0324 90bd 71ef 31bb d452 e2bd
000001e0: 8bfd 93be b7b0 f6bd f25d 8dbe d1ef 1fbe
000001f0: bd6d 663d e146 06bd 6ded a43d 7444 f5bd
00000200: 7264 11bc 950b 77bd 5d8a 6a3b d6a3 f73c
00000210: 3477 05bd 696f e1bd 5ee2 09be 567d 35bd
00000220: 973d 1dbc 68b5 bb3d a25a 283d bc1d febc
00000230: 37cc 9cbc 489d e7bc 4070 153d 9887 583d
00000240: ad44 5dbc d9e3 8a3d cc2d 19be ef79 c4bc
00000250: b2c4 8a3d f0f8 7c3b 2b55 243d 1c70 9a3d
00000260: fdfd e1bd d982 97bd 6441 c53d ddaf 8f3c
00000270: 42c2 3c3b 8eee b0bc 4107 77bc 2204 99bd
00000280: 6a06 1fbe 4745 233d 5a40 90bc 5c17 97bc
00000290: 699c 1a3d e981 d23c cdf3 f43c 3f33 8c3d
000002a0: 620b 2cbe 9e54 30be ac9a 76be 2776 033d
000002b0: f70e 903c 9b2d 01be 365a dfbd d1da b8bd
000002c0: fe29 9bbc 9822 fa3d 1d72 cbbd 6953 abbd
000002d0: 4f83 5ebd 0fc1 8fbd 158b 69be 71de 2d3d
000002e0: cd6b 16bd 0d07 a73d 4439 9c3d c737 313d
000002f0: 6565 0b3d 7273 e73d 95cd f5bc 082f 403d
00000300: 454b 423d 9fc4 2dbd 6e7e 12be e004 b43d
00000310: 95d2 56bd 5f33 b63c b847 c83d 192f 34bb
00000320: 7981 ab3d c826 47bc 3118 86bd 9ca3 c1bd
00000330: 587c 0c3d 8285 3d3d 9835 3e3d e562 18be
00000340: 9f59 37bd 6cf0 f43c ee2d 90bc e165 febc
00000350: 62f7 273d e6b1 353d 7b0f debd 616d 7b3d
00000360: 4a44 57bd 1e49 24bd 0889 b1bc 37ac 97bd
00000370: 19aa 3a3c 0367 323c c3a2 4b3d 3f24 11bd
00000380: 968a c93c dcec d93c b0ee b5bc cef9 a5bd
00000390: 48a6 a0bd 6e63 7e3c 561d 853c eac3 96bd
000003a0: 7cf6 043d 9365 debc de96 803d ca59 a03d
000003b0: 73a3 103c b099 263d e80e ccbd be9f 5b3d
000003c0: 6c5e 863d 6c1f 7b3c 8fa4 ae3c 008e b03c
000003d0: 20f2 583d 02e9 123d 069a 90bc 8f65 a2bd
000003e0: b102 e4bd 3f8e c3bd 7269 57be 629d 47bd
000003f0: d248 13bc c6ae 5e3d bf50 0c3d 154d e1be
0.056751445 -0.017725118 -0.077256046 -0.0033625492 -0.056786038 -0.27841806 -0.23158449 0.050974276
-0.047479227 -0.05764643 0.021820594 -0.058813892 0.0031172114 -0.019841008 0.08001846 0.109414816
-0.026689015 0.05335379 -0.2810247 -0.056446772 0.06714521 0.003917986 0.05732086 -0.040521894
-0.18126558 0.024065217 -0.02454864 0.101966135 0.034731187 -0.004912233 -0.02497026 -0.073496304
-0.24671279 0.07432043 0.07167111 -0.04069387 0.027794512 0.009874092 -0.009401579 0.016043726
-0.22695607 -0.08443689 -0.3723822 -0.06640711 0.081649475 -0.01643085 -0.12704031 -0.031195967
-0.2027853 0.08282551 -0.14710398 -0.053339396 0.003938972 -0.048569273 -0.33785763 0.009704842
-0.02774436 0.075584985 -0.004396805 -0.05817293 -0.044635173 0.10168707 -0.045944642 0.01908757
0.078255475 -0.11653579 -0.17593619 -0.01971673 0.0436802 -0.010854767 0.05725017 -0.05861353
0.06007296 0.016118329 -0.029298505 -0.12865303 0.04216138 0.051483877 0.07704003 -0.27697593
0.05065976 0.017698785 -0.05354152 -0.051007878 0.037110947 0.11733194 -0.23638952 0.10161133
0.010656139 0.0191731 0.060036626 0.06213083 -0.01952851 -0.030770753 0.0731318 0.051695008
-0.0012362652 0.043965783 0.06973131 -0.13155456 -0.025362046 -0.03258952 -0.047014363 0.060761474
-0.06389613 -0.06025586 0.07049018 0.06679575 -0.11413804 0.07315764 -0.27906114 0.06591981
0.049950432 -0.036020003 0.0041012415 -0.001855704 -0.0023356874 -0.07038119 -0.0027150775 -0.110509545
-0.28904375 -0.120454244 -0.27610737 -0.15618826 0.056257 -0.03278244 0.08053098 -0.11975947
-0.008874046 -0.06031378 0.0035788037 0.03022949 -0.032584384 -0.11007578 -0.13465258 -0.044308983
-0.009597204 0.0916546 0.04110206 -0.031020038 -0.019140346 -0.02827324 0.036484003 0.052863687
-0.013505143 0.0678174 -0.14958876 -0.023983924 0.06775798 0.0038600527 0.040120285 0.075409144
-0.110347725 -0.07398004 0.09631613 0.017539913 0.002880231 -0.021598127 -0.015077413 -0.074714914
-0.1552979 0.03986099 -0.01760881 -0.018443756 0.03774682 0.025696712 0.02990141 0.06845712
-0.16801217 -0.17219779 -0.2408244 0.0320951 0.01758526 -0.12615053 -0.10905878 -0.09026111
-0.018940922 0.122136295 -0.09933875 -0.083655186 -0.054324444 -0.07019245 -0.22806962 0.042448465
-0.0367239 0.08155642 0.0762811 0.043266084 0.034032244 0.11301316 -0.030005256 0.046919852
0.047435064 -0.04242384 -0.14306042 0.08789992 -0.05244692 0.022241293 0.09779304 -0.0027493893
0.08374304 -0.012155242 -0.06547583 -0.09455034 0.03429827 0.0462699 0.04643783 -0.14881475
-0.044763204 0.029899798 -0.017600026 -0.031054439 0.041007407 0.04435911 -0.108427964 0.06138361
-0.05255536 -0.040108792 -0.021671787 -0.07405894 0.0113930935 0.010888818 0.04971577 -0.035434958
0.024602216 0.026602201 -0.022208542 -0.08104287 -0.07844216 0.015526636 0.01624934 -0.073615864
0.03246163 -0.027148044 0.06278776 0.07829626 0.008828032 0.04067391 -0.09963781 0.05361914
0.06560978 0.015327316 0.021318702 0.021552086 0.052965283 0.035866745 -0.01765157 -0.07929527
-0.11133326 -0.09548616 -0.21036318 -0.048734076 -0.00898953 0.054365896 0.034256693 -0.4400412

bias f4 [13]
00000000: 67de 3bbe e82c adbd 690d 98bd 05c1 81bd
00000010: c9ba 313b 3014 623d c93f 2d3e 2646 bd3d
00000020: b13b d13d f5aa f53d 5a8e 51bd 672f 0abe
00000030: 4c47 12be
-0.18346559 -0.08455831 -0.07424433 -0.06335644 0.002711939 0.055195034 0.16918863 0.092418954
0.10216463 0.11995498 -0.051161148 -0.13494645 -0.1428501
