GC-LSN_weights/GC-LSN.pth (torch, 380082 bytes, 10 tensors)

weight f4 [256, 37]
0.19912316 -0.6018569 0.09246514 0.16384041 -0.03086598 -0.53802603 -0.8979188 -0.12657519
-0.25624606 -0.122047 -0.12152541 0.036837906 0.29649445 -0.14956163 -4.955384 -3.3061173
-3.3845775 -4.192389 0.8373642 -0.25996715 0.67407656 3.350152 2.6896012 -0.054199103
0.095294856 -0.044607252 0.2590521 0.49700397 -0.4798824 0.11460902 -0.20122744 0.05555991
0.23604979 0.27498683 -0.12749352 0.24172698 -0.101371534 2.728127 0.05727869 -0.09914236
-0.08340342 -0.06495072 -0.0069416123 -0.082685955 -0.09581071 -0.19812848 -0.16976391 -0.14656436
-0.22991511 -1.0200301 -1.27981 -1.2620964 -2.1342275 -1.6169785 -1.896641 -3.0660892
-1.4013387 -1.0548669 1.0266395 0.64112145 0.108286485 -0.019669227 0.31181386 0.037964035
0.19069248 -0.031054266 0.19491558 -0.014415643 0.434808 0.080435015 0.42234015 0.023285633
0.17220752 0.095832385 -0.9314298 -0.005622298 0.054978944 0.049241725 0.098738246 0.07636758
0.058373757 0.02621269 0.047369234 0.009959065 0.012216334 0.012797922 -13.677482 -15.563299
-11.671338 -3.8500915 0.8695756 2.6274848 2.7611432 3.1313064 2.8199716 1.6578636
-0.53404385 0.13607909 0.00877326 0.24002838 0.023043891 0.13679062 -0.023355128 0.013544004
-0.054341443 0.043746967 -0.061052278 -0.0987885 -0.0013988367 0.015022772 0.0036539824 -2.1288383
0.050548248 -0.012905284 -0.1003741 -0.033915363 -0.08216478 0.027904298 -0.026551638 -0.0028313848
0.09926641 0.10565282 0.13046767 2.0147228 0.75293756 -0.4568384 0.1334888 -0.26706824
2.0412867 0.9758602 -1.7581183 -0.56013846 -1.559636 0.074885964 -0.028417004 -0.19063766
-0.020801663 0.030230254 -0.10099657 0.26800215 -0.008813317 0.14144526 -0.054329935 0.11434002
-0.17168824 -0.8429839 0.0053592077 0.3053577 -0.6199813 -0.006080548 0.04816164 0.109764725
0.107078485 0.06280241 0.06754259 0.11165823 0.10036175 0.13507164 0.18972121 0.18801942
0.27759743 0.67979723 0.63750577 1.4680648 0.32202274 1.1186812 2.2430992 2.4019248
2.7321036 1.0200037 1.875685 0.017976228 -0.08665853 -0.2815984 -0.08220938 -0.4730259
-0.06076847 -0.52066606 0.25686428 -0.22120233 0.1409752 0.19052958 0.047560487 0.087543994
0.074068114 0.63761425 0.08905241 0.1131954 0.06869021 0.034478847 -0.02114205 -0.081443295
-0.033158652 -0.08361789 -0.062465604 -0.29230475 -0.24307798 -2.2872396 -0.2103878 -1.7891413
-0.44381252 0.7982572 -1.052885 0.17205709 -0.17626284 4.350026 -0.39154312 2.8914819
0.43582845 -0.9312113 0.020098142 -1.2659543 0.3072175 -0.96954817 0.35230455 -0.6458402
-0.43693668 -0.63515276 0.079704456 -0.084907144 0.11636876 -0.16145357 1.5220759 -0.009144404
0.024017923 -0.92371166 0.090348125 0.05447413 0.00040707865 0.023355214 0.03374193 0.039026946
0.034863036 0.031817667 -11.9198885 -18.002937 -15.710362 -3.8713567 3.6564162 1.622849
-1.6930678 -3.6266954 -3.8645813 0.78966886 3.4650292 0.15613171 -0.054842986 0.09464441
-0.0055073807 0.08248294 0.01596981 0.01066546 0.048676133 -0.030130506 0.04028548 0.0045899926
00000000: f1e6 4b3e 4b13 1abf 5d5e bd3d c8c5 273e
00000010: a7da fcbc 13bc 09bf 02de 65bf ed9c 01be
00000020: af32 83be c7f3 f9bd 50e2 f8bd 58e3 163d
00000030: 1fce 973e af26 19be 8192 9ec0 6d97 53c0
00000040: eb9c 58c0 0d28 86c0 805d 563f 6a1a 85be
00000050: 4890 2c3f e468 5640 6d22 2c40 e1ff 5dbd
00000060: f329 c33d 18b6 36bd 7aa2 843e 4e77 fe3e
00000070: 25b3 f5be 22b8 ea3d 910e 4ebe ca92 633d
00000080: 09b7 713e 13cb 8c3e a98d 02be 4787 773e
00000090: e19b cfbd a299 2e40 0f9d 6a3d 260b cbbd
000000a0: 6acf aabd e204 85bd 7776 e3bb 4157 a9bd
000000b0: 6838 c4bd 31e2 4abe 97d6 2dbe f814 16be
000000c0: de6e 6bbe 5990 82bf d0d0 a3bf 608c a1bf
000000d0: 2f97 08c0 27f9 cebf 22c5 f2bf ce3a 44c0
000000e0: 115f b3bf e105 87bf ec68 833f 8920 243f
000000f0: 4ec5 dd3d 5c21 a1bc 11a6 9f3e 2d80 1b3d
00000100: e444 433e 8465 febc f397 473e 972f 6cbc
00000110: 279f de3e 1dbb a43d f83c d83e 83c1 be3c
00000120: 2b57 303e c543 c43d 2f72 6ebf 413b b8bb
00000130: 9a31 613d b1b1 493d 4737 ca3d 9b66 9c3d
00000140: 5219 6f3d ffbb d63c 3e06 423d 592b 233c
00000150: 0527 483c 60ae 513c f7d6 5ac1 4603 79c1
00000160: cdbd 3ac1 e667 76c0 829c 5e3f b628 2840
00000170: 92b6 3040 5367 4840 6a7a 3440 e034 d43f
00000180: 19b7 08bf 5158 0b3e b8bd 0f3c 00ca 753e
00000190: 8bc6 bc3c d712 0c3e 4153 bfbc ace7 5d3c
000001a0: 2295 5ebd 0530 333d f411 7abd a051 cabd
000001b0: 2c59 b7ba 1322 763c a777 6f3b e33e 08c0
000001c0: ae0b 4f3d af70 53bc f090 cdbd d6ea 0abd
000001d0: 0246 a8bd 8e97 e43c d282 d9bc c18e 39bb
000001e0: 304c cb3d 8160 d83d 5199 053e 38f1 0040
000001f0: 84c0 403f b9e6 e9be 4ab1 083e 2bbd 88be
00000200: 71a4 0240 f9d1 793f 050a e1bf 3c65 0fbf
00000210: 27a2 c7bf d05d 993d c7ca e8bc 8536 43be
00000220: 4068 aabc 70a5 f73c 4ad7 cebd 9437 893e
00000230: bb65 10bc 07d7 103e 1189 5ebd 1a2b ea3d
00000240: 0bcf 2fbe cbcd 57bf 4b9c af3b d857 9c3e
00000250: 18b7 1ebf 553f c7bb 2445 453d 54cc e03d
00000260: f74b db3d 8d9e 803d c553 8a3d 12ad e43d
00000270: 768a cd3d 3850 0a3e 4746 423e 2a88 403e
00000280: 4021 8e3e 3107 2e3f 9433 233f 8ce9 bb3f
00000290: 2ae0 a43e f230 8f3f f08e 0f40 23b9 1940
000002a0: c9da 2e40 7b8f 823f 7216 f03f e242 933c
000002b0: 077a b1bd aa2d 90be 645d a8bd 7330 f2be
000002c0: 5ce8 78bd 5f4a 05bf b783 833e dd82 62be
000002d0: ce5b 103e 301a 433e c9ce 423d 444a b33d
000002e0: 06b1 973d b03a 233f 1c61 b63d fdd2 e73d
000002f0: 74ad 8c3d b139 0d3d 1832 adbc becb a6bd
00000300: 5ed1 07bd db3f abbd efdb 7fbd f8a8 95be
00000310: 6fe9 78be 2262 12c0 e66f 57be 9502 e5bf
00000320: 653b e3be 955a 4c3f f0c4 86bf bc2f 303e
00000330: 3f7e 34be 6a33 8b40 5778 c8be 0a0e 3940
00000340: e824 df3e dd63 6ebf dca4 a43c ca0a a2bf
00000350: 9d4b 9d3e 4f34 78bf 4361 b43e c955 25bf
00000360: 2ab6 dfbe 5f99 22bf 173c a33d cce3 adbd
00000370: bf52 ee3d 1654 25be 62d3 c23f 69d2 15bc
00000380: 3cc1 c43c 5e78 6cbf 7008 b93d 4420 5f3d
00000390: 2c6d d539 6f53 bf3c fa34 0a3d b8da 1f3d
000003a0: 8bcc 0e3d 3e53 023d ddb7 3ec1 0406 90c1
000003b0: a55d 7bc1 4fc4 77c0 b902 6a40 84b9 cf3f
000003c0: 72b6 d8bf c71b 68c0 4d55 77c0 bd27 4a3f
000003d0: 0ac3 5d40 fee0 1f3e 0aa3 60bd eed4 c13d
000003e0: 4277 b4bb d1ec a83d 1ed3 823c 2ebe 2e3c
000003f0: a060 473d 40d4 f6bc 6302 253d a667 963b

bias f4 [256]
0.37838694 -1.6488379 0.72317004 1.1934936 1.4393203 0.09767931 -0.7389486 -1.798451
-0.37104377 -0.13286889 -0.48623374 -0.16422214 -0.90941393 0.522572 -0.1551313 -1.1172434
1.5283796 -1.0523413 -0.29156703 1.6405764 1.2877382 -0.19735382 -1.0394946 1.344075
1.4420934 -1.1479506 -0.42931175 -0.9697047 1.8274785 0.9615245 -0.30148652 -0.38457724
-0.9978613 -2.213289 -0.058992606 -1.0791588 1.7964225 0.841045 -0.710641 0.05937699
-0.23981316 1.245502 -0.11628424 -0.4412531 -0.56453264 1.2749199 1.3765911 -0.6549954
-0.87439406 1.308156 1.6611364 -0.21091574 1.1687163 -0.26733088 0.1485759 0.8598746
0.73820955 0.11188764 0.34210443 1.3255956 1.7037247 1.6225246 0.41011253 -0.013206624
1.1203008 1.1738733 -0.67335904 -1.249871 -0.047983017 1.3101726 1.5565548 -0.39320442
-0.32908764 -0.54231364 0.52072674 0.49027845 -0.46266627 0.6425229 0.79014885 1.0496238
-0.87529147 1.3020205 -1.0246805 -0.003125766 -0.37021306 0.15793791 -1.7144691 0.30741933
1.5861915 -0.82676256 1.0116589 -0.5442873 0.64122784 -1.3051131 -0.26414484 0.47343495
-0.77733797 1.91512 -0.36558944 0.57976675 -0.20980869 0.85923725 1.5980874 0.85624963
-0.21938086 -0.46490595 1.2041392 0.20629612 -1.0629919 -2.5845277 1.2352246 -0.06977516
0.5865349 1.3850799 -2.0017362 -1.9770131 1.5174494 -1.0209229 -1.9735404 1.0479202
0.026558936 0.3534725 0.28950983 1.7053754 0.28671712 -0.8663315 -0.25965536 -1.7117184
1.1619834 0.10315572 -0.28433016 -1.2429179 0.14381404 0.9089563 0.19471878 0.42291638
1.0557901 -0.52394956 1.0002302 -0.09471189 0.6788479 -1.0406736 1.0760831 -0.103813104
0.08099921 -0.50126755 1.438215 -2.352133 1.7002181 -0.18925576 0.7180585 -2.964827
-0.95114183 0.3391783 0.6407338 -0.6000019 1.5428587 -1.1171144 0.59181345 -0.16340819
-0.32547542 1.1222074 0.053393763 0.5604422 -0.6871486 1.7346509 -1.4594836 1.7772167
0.07769235 -0.09045323 -0.91329336 -0.8261472 1.3858523 1.27997 -1.5927951 1.2857026
1.8335587 0.24450845 -0.379413 0.2380016 -0.6230819 -0.6659854 -0.4189076 -1.3462129
1.9187464 -1.4900522 -0.9229595 -1.6724393 -0.55152285 -1.3915819 0.33654132 1.3450005
-0.62774783 -0.34305152 1.304378 -1.2191107 -0.18716112 0.5391819 1.3960894 0.04573944
2.331701 1.2470642 -0.17716363 -0.93168217 0.32147807 1.1200005 2.4647882 -0.6649607
-0.9220797 1.5955505 0.7926001 1.0098435 -1.49661 -0.45094964 -0.3603187 -0.8257291
-0.3900863 -0.16820723 0.28008455 -0.30030516 1.193762 -0.4117458 1.357721 1.432132
0.021481933 0.80584145 -1.0739973 -0.27766922 1.3491311 0.20008026 0.114150845 0.099384554
-1.8728867 1.1345569 -1.1687093 0.17604218 -0.45660508 1.210721 2.7017643 1.772975
0.40674505 -0.9242264 -0.4331786 1.1461463 -1.015915 1.030061 1.4477943 0.08939309
0.9265988 -0.21302743 1.1569949 -0.007808524 -0.400068 -0.37759456 0.23961872 -0.49925885
00000000: efbb c13e 1f0d d3bf ac21 393f 66c4 983f
00000010: a63b b83f 170c c83d bc2b 3dbf a433 e6bf
00000020: 73f9 bdbe c80e 08be a1f3 f8be d929 28be
00000030: 5acf 68bf 47c7 053f bdda 1ebe d501 8fbf
00000040: f1a1 c33f 1fb3 86bf 4648 95be 68fe d13f
00000050: 9bd4 a43f 1f17 4abe 290e 85bf a60a ac3f
00000060: 8496 b83f 0cf0 92bf c0ce dbbe 913e 78bf
00000070: d1ea e93f 7826 763f 715c 9abe 4fe7 c4be
00000080: d773 7fbf 87a6 0dc0 3ba2 71bd e021 8abf
00000090: 2cf1 e53f ba4e 573f 92ec 35bf 4935 733d
000000a0: 9591 75be 9c6c 9f3f 6e26 eebd edeb e1be
000000b0: 3685 10bf 9330 a33f 2334 b03f c7ad 27bf
000000c0: 4ad8 5fbf a871 a73f 1ea0 d43f 4cfa 57be
000000d0: 7f98 953f 98df 88be 4824 183e be20 5c3f
000000e0: 4dfb 3c3f 5925 e53d 5028 af3e 1ead a93f
000000f0: a713 da3f e3ae cf3f 45fa d13e 9960 58bc
00000100: 0466 8f3f 7b41 963f 4261 2cbf c6fb 9fbf
00000110: d789 44bd bcb3 a73f 303d c73f 1752 c9be
00000120: 2d7e a8be 11d5 0abf 594e 053f c705 fb3e
00000130: 98e2 ecbe 617c 243f 3247 4a3f 135a 863f
00000140: 1a13 60bf 9ca8 a63f bb28 83bf a7d9 4cbb
00000150: 918c bdbe 7aba 213e b973 dbbf 1166 9d3e
00000160: 5308 cb3f b6a6 53bf 0a7e 813f 6a56 0bbf
00000170: 8227 243f f20d a7bf fe3d 87be 1166 f23e
00000180: 9fff 46bf a722 f53f 8a2e bbbe 986b 143f
00000190: 17d8 56be f9f6 5b3f 218e cc3f 2d33 5b3f
000001a0: 60a5 60be 2708 eebe 3c21 9a3f 4a3f 533e
000001b0: 1e10 88bf e768 25c0 d71b 9e3f 47e6 8ebd
000001c0: 2727 163f 4c4a b13f 721c 00c0 c40e fdbf
000001d0: c83b c23f 9aad 82bf f99c fcbf 4022 863f
000001e0: 2092 d93c 59fa b43e a23a 943e be49 da3f
000001f0: 96cc 923e e7c7 5dbf 8cf1 84be 9719 dbbf
00000200: dfbb 943f 4e43 d33d b993 91be ef17 9fbf
00000210: fd43 133e 5cb1 683f 5c64 473e 7f88 d83e
00000220: 2124 873f 8f21 06bf 8b07 803f 4ff8 c1bd
00000230: fac8 2d3f cb34 85bf 17bd 893f f79b d4bd
00000240: eae2 a53d 1253 00bf 6e17 b83f 5989 16c0
00000250: bfa0 d93f 43cc 41be afd2 373f babf 3dc0
00000260: 087e 73bf c7a8 ad3e 2107 243f b999 19bf
00000270: 657c c53f 9bfd 8ebf 1681 173f 7a54 27be
00000280: b7a4 a6be 7ea4 8f3f 6bb3 5a3d 2479 0f3f
00000290: f8e8 2fbf 0a09 de3f 5cd0 babf d67b e33f
000002a0: 2b1d 9f3d 8b3f b9bd 98cd 69bf 627e 53bf
000002b0: 9c63 b13f 0fd6 a33f b6e0 cbbf e791 a43f
000002c0: 0db2 ea3f 6c60 7a3e 6c42 c2be b1b6 733e
000002d0: 4c82 1fbf 057e 2abf 0f7b d6be b450 acbf
000002e0: 7b99 f53f 08ba bebf 1347 6cbf 7e12 d6bf
000002f0: 9a30 0dbf 5b1f b2bf 254f ac3e fa28 ac3f
00000300: 15b4 20bf 73a4 afbe dcf5 a63f d20b 9cbf
00000310: 2aa7 3fbe d307 0a3f 0fb3 b23f 4759 3b3d
00000320: 973a 1540 cd9f 9f3f 626a 35be b982 6ebf
00000330: c698 a43e 2d5c 8f3f 17bf 1d40 dd3a 2abf
00000340: 6a0d 6cbf 003b cc3f d7e7 4a3f 8d42 813f
00000350: eb90 bfbf dfe2 e6be b17b b8be fb62 53bf
00000360: 64b9 c7be 843e 2cbe 3e67 8f3e 99c1 99be
00000370: 31cd 983f 58d0 d2be cdc9 ad3f 1a50 b73f
00000380: e1fa af3c a04b 4e3f be78 89bf a92a 8ebe
00000390: 54b0 ac3f d7e1 4c3e ebc7 e93d 218a cb3d
000003a0: c0ba efbf 2939 913f 4498 95bf 6744 343e
000003b0: 24c8 e9be e8f8 9a3f b5e9 2c40 d8f0 e23f
000003c0: e340 d03e 1a9a 6cbf 96c9 ddbe ecb4 923f
000003d0: 8109 82bf 0ad9 833f 5351 b93f b913 b73d
000003e0: 9435 6d3f dd23 5abe 6918 943f a6de ffbb
000003f0: b7d5 ccbe 1354 c1be 9c5e 753e db9e ffbe

weight f4 [128, 256]
-0.018617332 -0.07333677 -0.07977008 0.01993347 -0.064374045 -0.012218107 -0.038507808 -0.09723797
-0.011789007 -0.007831208 -0.054177936 0.018284492 0.04173531 -0.050175928 -0.087679386 0.013102657
0.05369357 0.010051594 0.040273637 -0.032830495 0.0060959156 0.027632523 -0.028952468 0.025563626
0.017158775 -0.05534446 -0.038279176 -0.05584671 0.014035506 -0.05260475 0.0005325975 -0.07831756
-0.023464913 0.033829063 -0.035091635 -0.052151445 -0.03824183 -0.058904357 -0.06268417 -0.062096868
0.04287316 -0.013829543 -0.04526869 0.0023748947 0.007934346 -0.01805612 -0.018502781 -0.028192317
-0.020189214 -0.06875744 -0.024372043 -0.06137909 0.024827711 0.0070702317 -0.07364471 0.04473691
0.024336401 -0.001489758 0.0022050072 0.045078877 -0.06445917 -0.043616008 -0.026561458 -0.046314023
-0.012470283 -0.003065513 -0.01043147 -0.030834982 -0.0028103183 -0.024586922 -0.022158436 0.016948173
0.030377908 -0.056983992 -0.06239399 0.02553331 0.022977896 -0.008824089 -0.088929705 -0.03588899
0.019185394 0.016376592 0.008923011 0.0014632687 -0.048054483 -0.060840186 0.013864544 0.036880374
-0.04988567 -0.029919265 -0.07038546 -0.028600032 0.034994204 -0.030966787 0.058141157 -0.04712876
-0.06008866 -0.09506032 -0.04039482 0.0039988495 0.0336306 -0.021576913 -0.021578876 -0.014688275
0.009009198 -0.06503471 0.0527686 -0.03088544 0.060415734 -0.026041964 -0.01788916 -0.024467815
-0.060574725 0.0049101342 -0.032797847 -0.027509594 0.026204187 -0.034509383 0.00970144 -0.034106124
-0.07336021 -0.06011013 0.017355844 -0.037313968 0.00024682 -0.021867456 0.04357598 0.04891409
-0.019181926 0.032493792 -0.0057359333 -0.06076104 -0.05614099 -0.09654261 -0.043437675 -0.100677684
-0.046543747 0.043059714 -0.027350146 0.03230897 -0.04855114 0.000831005 -0.05242348 -0.030557144
0.05052362 -0.06803998 -0.048068084 -0.027120592 -0.063479505 -0.036300685 -0.0011968749 -0.013548626
-0.06519973 0.009715956 0.0050630146 -0.030773403 -0.0150119895 -0.058928177 -0.00082802534 0.023025693
-0.003780932 -0.06210786 0.017208418 0.023433898 0.008281613 -0.063619405 3.1164764e-05 -0.09028639
-0.012650096 -0.06254837 0.008940768 -0.078208454 -0.050405025 0.030590842 -0.017791618 0.013496333
0.024294427 -0.06084461 -0.03250961 -0.012620577 -0.045826055 -0.012088037 -0.055141598 -0.07256227
-0.01843592 -0.037874855 -0.08193994 -0.045584813 -0.050601304 -0.051933803 0.020434871 0.0015301037
-0.06139517 -0.07249145 -0.030077077 -0.034898806 -0.08110464 -0.015295603 0.007540597 -0.06280548
-0.047918655 0.018523654 -0.0074206814 0.03065218 -0.022707647 0.003218866 -0.044018194 -0.059297312
-0.08434241 0.017221017 -0.036163088 0.056155197 -0.07267261 -0.04285753 -0.04973133 -0.0069026547
-0.029258227 0.012257328 -0.031051965 -0.03531903 0.064596325 -0.037530243 -0.024978658 -0.009880943
-0.082939714 0.024106296 -0.071869254 0.025281902 0.0067389132 -0.016958 -0.03354537 -0.036736317
0.025448829 0.039830033 -0.020024009 0.03421422 0.027191048 0.011636372 -0.008684156 -0.08805813
0.026309138 -0.05632139 -0.080685936 0.011531441 -0.031005085 0.008045886 -0.013999488 -0.041674294
-0.027998056 -0.001179842 0.031106936 0.0581632 0.026845846 -0.013727718 -0.04450434 -0.031249844
00000000: 6083 98bc 9731 96bd 7f5e a3bd 844b a33c
00000010: 8ad6 83bd 742e 48bc 5dba 1dbd b324 c7bd
00000020: ae26 41bc 784e 00bc afe9 5dbd 5cc9 953c
00000030: a5f2 2a3d 4685 4dbd 4091 b3bd 87ac 563c
00000040: caed 5b3d 71af 243c f8f5 243d 4579 06bd
00000050: 3fc0 c73b 9a5d e23c ba2d edbc cf6a d13c
00000060: 8f90 8c3c dfb0 62bd a0ca 1cbd 85bf 64bd
00000070: 2ef5 653c 1478 57bd 039e 0b3a f564 a0bd
00000080: 7d39 c0bc 5890 0a3d 3fbc 0fbd c19c 55bd
00000090: 77a3 1cbd b245 71bd 8f60 80bd 4959 7ebd
000000a0: c49b 2f3d 4f95 62bc a96b 39bd 1fa4 1b3b
000000b0: 0fff 013c 6eea 93bc 2593 97bc 93f3 e6bc
000000c0: da63 a5bc b3d0 8cbd e1a7 c7bc a468 7bbd
000000d0: 7c63 cb3c 67ad e73b 0ad3 96bd 0d3e 373d
000000e0: 225d c73c fc43 c3ba e281 103b a1a4 383d
000000f0: 2b03 84bd b3a6 32bd 6a97 d9bc c6b3 3dbd
00000100: 2850 4cbc c6e6 48bb c2e8 2abc a599 fcbc
00000110: 512d 38bb 836a c9bc 9c85 b5bc e5d6 8a3c
00000120: 17db f83c 0c68 69bd d790 7fbd 3b2b d13c
00000130: 243c bc3c e992 10bc c720 b6bd 5500 13bd
00000140: b02a 9d3c 3428 863c d231 123c 26cb bf3a
00000150: c7d4 44bd 8f33 79bd 1d28 633c e00f 173d
00000160: eb54 4cbd 3f19 f5bc 4126 90bd 9d4a eabc
00000170: 1556 0f3d 0fae fdbc 6c25 6e3d 160a 41bd
00000180: 871f 76bd fcae c2bd 0a75 25bd c808 833b
00000190: 3dc0 093d 11c2 b0bc 2fc6 b0bc 17a7 70bc
000001a0: 519b 133c eb30 85bd e323 583d 7603 fdbc
000001b0: 7d76 773d f555 d5bc 4a8c 92bc ba70 c8bc
000001c0: 341d 78bd 31e5 a03b 0957 06bd cd5b e1bc
000001d0: 2aaa d63c b659 0dbd caf2 1e3c ddb2 0bbd
000001e0: e13d 96bd 0a36 76bd d82d 8e3c 88d6 18bd
000001f0: 9f67 8139 6123 b3bc ba7c 323d 245a 483d
00000200: 6a23 9dbc 3618 053d 7ff4 bbbb 91e0 78bd
00000210: 18f4 65bd 22b8 c5bd b4eb 31bd 1a30 cebd
00000220: a8a4 3ebd 625f 303d 6a0d e0bc 6956 043d
00000230: 8fdd 46bd cdd7 593a 01ba 56bd fa52 fabc
00000240: dbf1 4e3d 8c58 8bbd 0ae3 44bd 012c debc
00000250: 8b01 82bd 07b0 14bd 75e0 9cba 0efb 5dbc
00000260: 7087 85bd ac2f 1f3c a5e7 a53b 8118 fcbc
00000270: d9f4 75bc ac5e 71bd d70f 59ba 61a0 bc3c
00000280: 83c9 77bb d064 7ebd abf8 8c3c 72f8 bf3c
00000290: 9aaf 073c e44a 82bd e9b6 0238 12e8 b8bd
000002a0: 5942 4fbc 5c19 80bd 4d7c 123c c12b a0bd
000002b0: 8075 4ebd a599 fa3c babf 91bc b91f 5d3c
000002c0: 1b05 c73c 3338 79bd cc28 05bd 89c6 4ebc
000002d0: 1ab4 3bbd e70c 46bc 28dc 61bd 879b 94bd
000002e0: ed06 97bc aa22 1bbd 21d0 a7bd 24b7 3abd
000002f0: 5043 4fbd 8ab8 54bd 0867 a73c c38d c83a
00000300: 8079 7bbd 6676 94bd 3464 f6bc 0df2 0ebd
00000310: 311a a6bd 699a 7abc 1d17 f73b 29a0 80bd
00000320: 5a46 44bd ebbe 973c 3029 f3bb 481a fb3c
00000330: 6305 babc 9cf3 523b 6c4c 34bd bde1 72bd
00000340: b7bb acbd 1713 8d3c bf1f 14bd fe02 663d
00000350: 61d5 94bd 618b 2fbd 14b3 4bbd aa2f e2bb
00000360: f3ae efbc f6d2 483c b160 febc b0aa 10bd
00000370: 144b 843d 50b9 19bd 0ba0 ccbc aee3 21bc
00000380: 4cdc a9bd 917a c53c 3030 93bd fe1b cf3c
00000390: 1ad2 dc3b 81eb 8abc df66 09bd d278 16bd
000003a0: 107a d03c d124 233d 6409 a4bc 3624 0c3d
000003b0: c3bf de3c 7ba6 3e3c fe47 0ebc d257 b4bd
000003c0: 4386 d73c 42b1 66bd ab3e a5bd 5eee 3c3c
000003d0: 60fe fdbc e4d2 033c 1c5e 65bc aab2 2abd
000003e0: 2e5c e5bc eea4 9aba f9d3 fe3c 893c 6e3d
000003f0: d2eb db3c 39ea 60bc 2f4a 36bd acff ffbc

bias f4 [128]
-0.085649975 -0.010856502 1.0904477 0.093659654 -0.058850195 0.9566344 -0.6738747 -0.065717034
-0.41011384 -0.2580366 1.5713307 0.031581327 -0.094411336 1.4859705 -0.13826996 -0.049351968
1.3972902 -0.34979382 -0.05153979 -0.8637088 0.30631235 -0.1130235 -0.14035207 -0.020390607
0.024866935 -0.017482435 0.4001557 -0.04193157 -0.09809992 0.43972486 1.2899865 -0.4496688
0.153834 -0.07947298 0.5850083 0.98698175 0.9581518 0.018957404 -0.63996214 0.63863736
-0.23488766 -0.083022244 0.9282407 -0.87561905 -0.014297063 -0.051014893 -0.40256456 0.030631583
1.5974158 -0.6640731 -0.0035844755 -0.14257537 0.87958455 -0.07002732 1.150758 -0.059231322
0.08299963 -0.0459594 -0.03157804 -0.09325923 0.034826715 -0.054591317 0.2619097 -0.8180563
0.17696284 0.7012739 -0.05830077 0.1851306 -0.0023005235 0.026584107 -0.75778466 -0.38298276
-0.14256723 1.4157056 -0.07609959 -1.9763601 1.6615498 0.35901403 0.81934273 -1.6367004
-0.06580853 -0.6524283 0.11771519 -0.6790452 -0.08249309 0.41130465 1.1288044 -0.07070721
-0.04356872 0.42460397 -0.01756012 0.3712185 4.0722456 0.09223636 -0.3061478 -0.41683966
0.116534695 -1.5484321 -0.28565544 -0.5705178 -0.6847328 -0.042245567 1.0074376 3.928086
0.06848185 -0.05114828 0.5703879 1.7495986 -0.0062175486 -0.1096353 0.05130279 -0.7553201
0.018419089 -0.25700736 1.3668709 -3.4516642 0.5932368 -0.081625946 -0.07050935 0.6248668
-0.0638125 0.53127223 -0.042883497 0.34965047 0.81984234 -0.09907185 0.0049319454 0.029197637
00000000: 4169 afbd 78df 31bc ca93 8b3f a2d0 bf3d
00000010: e70c 71bd fee5 743f 0d83 2cbf a796 86bd
00000020: 71fa d1be 601d 84be 5d21 c93f 6c5b 013d
00000030: bb5a c1bd 4834 be3f a496 0dbe 4a25 4abd
00000040: 68da b23f 2d18 b3be 631b 53bd 051c 5dbf
00000050: f9d4 9c3e dd78 e7bd 74b8 0fbe 340a a7bc
00000060: beb5 cb3c 5337 8fbc 35e1 cc3e 70c0 2bbd
00000070: 9ce8 c8bd 9e23 e13e 471e a53f fd3a e6be
00000080: a986 1d3e bbc2 a2bd 1bc3 153f d6aa 7c3f
00000090: 7049 753f 8f4c 9b3c 8fd4 23bf bd7d 233f
000000a0: 6486 70be 9107 aabd 2fa1 6d3f 9228 60bf
000000b0: 3b3e 6abc fef4 50bd f11c cebe 16ef fa3c
000000c0: 1f78 cc3f b200 2abf 85e9 6abb 47ff 11be
000000d0: 742c 613f 7c6a 8fbd 0a4c 933f 8b9c 72bd
000000e0: b6fb a93d ec3f 3cbd fa57 01bd b2fe bebd
000000f0: 75a6 0e3d 259b 5fbd 0719 863e 236c 51bf
00000100: bf35 353e b086 333f cacc 6ebd e092 3d3e
00000110: 61c4 16bb eac6 d93c 2dfe 41bf 5116 c4be
00000120: 25fd 11be d735 b53f 1ada 9bbd 5ef9 fcbf
00000130: aaad d43f b0d0 b73e 72c0 513f 667f d1bf
00000140: 9fc6 86bd 8b05 27bf a914 f13d e8d5 2dbf
00000150: 23f2 a8bd 8696 d23e aa7c 903f f1ce 90bd
00000160: 1d75 32bd b165 d93e 3eda 8fbc 5a10 be3e
00000170: d64f 8240 6be6 bc3d 68bf 9cbe 026c d5be
00000180: bea9 ee3d 0633 c6bf 6e41 92be 740d 12bf
00000190: a64a 2fbf b009 2dbd b7f3 803f c365 7b40
000001a0: 3640 8c3d dc80 51bd f104 123f d9f2 df3f
000001b0: 94bc cbbb 7988 e0bd e022 523d a85c 41bf
000001c0: a1e3 963c 7896 83be a0f5 ae3f 11e8 5cc0
000001d0: 5ede 173f 812b a7bd 3567 90bd 45f7 1f3f
000001e0: 21b0 82bd 7501 083f 9ba6 2fbd 6305 b33e
000001f0: 30e1 513f 2fe6 cabd 289c a13b e22f ef3c

weight f4 [128, 128]
0.036325462 -0.004739369 0.014837565 0.24009001 -0.113728076 -0.29516613 -0.10808827 -0.009469889
-0.13367145 0.025051067 0.033769228 -0.03588686 0.053458154 -0.8747885 -0.190856 -0.019983936
-0.42570308 -0.2664468 -0.024161248 0.41245508 0.23064764 0.011128284 -0.042123243 0.16664608
0.050585456 -0.089176886 0.048525855 0.048119962 -0.10180647 0.060780417 0.011981004 0.20875128
0.06560314 0.09364528 -0.053927634 0.017260551 -0.23955968 -0.015441263 -0.0566649 -0.106655076
-0.08849306 -0.2538641 -0.24250369 0.13495313 0.012344386 0.02976366 -0.23227623 -0.11252035
-0.017861392 -0.1035836 0.045730796 0.05097432 0.05135092 -0.110333204 0.24207844 0.01860023
-0.4070705 0.019032508 -0.0007021606 -0.04910034 -0.066218875 0.20779043 -0.09307741 -0.097961575
-0.08130118 -0.019512467 -0.00121775 0.4086716 -0.029830577 0.021262782 -0.45925307 0.17411949
0.2193297 0.050735835 0.021276927 -0.10244061 -0.2732755 -0.0029387504 -0.33188796 -0.02873769
0.06574263 0.3686912 -0.22777574 -0.03268836 0.009092213 0.0957244 0.12230919 -0.012213851
-0.051719498 0.10258977 0.06048786 -0.11336592 0.32302856 0.1362499 -0.007616881 0.12150592
-0.57304764 -0.30291 0.047791295 -0.24425802 0.21643731 0.065103084 -0.08178864 0.22102217
-0.023002394 -0.07778731 -0.12418782 -0.005064735 -0.06023094 0.048101716 0.07527673 0.12233241
0.02921644 -0.24453112 -0.07109045 0.00055445207 -0.1991521 0.0072168205 0.020515367 -0.009128245
-0.042213272 -0.06491028 -0.06962027 -0.20126362 -0.04115714 -0.087120235 -0.005711379 0.06387138
-0.049117208 -0.07843109 -0.12412358 -0.053376257 -0.016485797 -0.14880171 -0.23542503 0.07713608
-0.02545294 -0.03349672 -0.06421878 0.016189868 -0.020817038 -0.097540796 -0.053868312 0.06874604
0.00028956705 -0.13870777 -0.03984323 -0.15490712 -0.042786438 -0.098426 0.0060404674 0.046255425
0.008870123 0.031700235 -0.06387733 -0.04354745 0.01632946 -0.03294912 -0.011719094 0.115183525
0.0041332627 -0.0671884 -0.040193778 -0.0008293356 -0.007812653 -0.036713023 0.03530074 0.033355184
0.04767132 -0.013397988 -0.112568535 -0.15770635 0.13050264 -0.07167725 0.041333444 -0.05728697
0.02814183 -0.086641654 0.0027909677 -0.041230913 -0.16460702 -0.07237817 -0.09197004 -0.093367115
-0.0063554076 0.058257226 -0.028308619 0.063768335 -0.028396638 -0.097017534 -0.09397079 -0.11893437
0.025306238 -0.07284897 0.064279236 -0.005077372 -0.08541097 0.007880414 -0.26409817 -0.0071204933
0.045199618 -0.0951438 -0.0314676 -0.10566363 -0.083188176 -0.024843564 0.02487068 -0.03508348
-0.03043745 0.035448425 -0.18454815 0.0639409 -0.063465685 0.02442671 -0.001174877 0.0758861
-0.024099842 -0.046120293 -0.00027415957 -0.022950288 -0.1312027 -0.06981561 0.092181526 -0.028972456
0.02974052 -0.066093914 0.03983045 -0.08884792 -0.0764614 0.07951708 0.0014430208 -0.030240474
0.014359065 0.02054134 -0.09496005 0.028993059 0.0075577786 -0.09119223 -0.13564616 -0.10422709
0.02380874 -0.06941877 -0.10562981 -0.08307721 0.027471263 0.057839785 0.028565621 0.04961702
-0.06908675 0.025620501 -0.09460804 -0.021271821 -0.09130217 0.07156279 -0.06361418 0.050219685
00000000: 02ca 143d b54c 9bbb 4219 733c 28da 753e
00000010: 44ea e8bd 0420 97be 625d ddbd 9827 1bbc
00000020: 2be1 08be e537 cd3c 9a51 0a3d 1afe 12bd
00000030: f0f6 5a3d 24f2 5fbf c16f 43be 5ab5 a3bc
00000040: c1f5 d9be b76b 88be cfed c5bc 502d d33e
00000050: e52e 6c3e 6853 363c 6c89 2cbd 45a5 2a3e
00000060: b232 4f3d 5fa2 b6bd 0cc3 463d 7019 453d
00000070: e97f d0bd e3f4 783d f94b 443c e5c2 553e
00000080: f05a 863d 19c9 bf3d 39e3 5cbd 0066 8d3c
00000090: 224f 75be 5afd 7cbc 7419 68bd fa6d dabd
000000a0: d93b b5bd 7afa 81be e352 78be 2731 0a3e
000000b0: 1c40 4a3c ebd2 f33c d2d9 6dbe 1271 e6bd
000000c0: 0e52 92bc a323 d4bd 3750 3b3d 73ca 503d
000000d0: 5855 523d 60f6 e1bd 69e3 773e 825f 983c
000000e0: 8b6b d0be 10ea 9b3c 3311 38ba 701d 49bd
000000f0: c39d 87bd 04c7 543e 5e9f bebd 14a0 c8bd
00000100: 3c81 a6bd 9cd8 9fbc e99c 9fba 673d d13e
00000110: 415f f4bc 492f ae3c 3823 ebbe 614c 323e
00000120: f797 603e 61d0 4f3d f34c ae3c 62cc d1bd
00000130: c4ea 8bbe 0d98 40bb 38ed a9be 4e6b ebbc
00000140: 12a4 863d 18c5 bc3e 0b3e 69be 3be4 05bd
00000150: 81f7 143c 270b c43d 3e7d fa3d 9b1c 48bc
00000160: d3d7 53bd 961a d23d 1ec2 773d 642c e8bd
00000170: 0064 a53e 1885 0b3e 0797 f9bb 19d8 f83d
00000180: 40b3 12bf 0517 9bbe cec0 433d c61e 7abe
00000190: bea1 5d3e c454 853d cd80 a7bd a353 623e
000001a0: 846f bcbc f44e 9fbd 2f56 febd 14f6 a5bb
000001b0: b8b4 76bd 4e06 453d b02a 9a3d 6a89 fa3d
000001c0: 5157 ef3c 5e66 7abe df97 91bd a658 113a
000001d0: 87ee 4bbe 147b ec3b d80f a83c a28e 15bc
000001e0: d3e7 2cbd aeef 84bd 1295 8ebd 0d18 4ebe
000001f0: 6494 28bd 186c b2bd 8526 bbbb 00cf 823d
00000200: 202f 49bd 7ba0 a0bd 8134 febd 10a1 5abd
00000210: 390d 87bc 7a5f 18be 4213 71be 85f9 9d3d
00000220: af82 d0bc db33 09bd 2385 83bd 9da0 843c
00000230: 7e88 aabc 78c3 c7bd 05a5 5cbd b9ca 8c3d
00000240: 08d1 9739 6909 0ebe a832 23bd f99f 1ebe
00000250: d540 2fbd 9293 c9bd 1def c53b 5476 3d3d
00000260: fe53 113c 1bd8 013d 1ed2 82bd d05e 32bd
00000270: 5cc5 853c a8f5 06bd 7101 40bc 57e5 eb3d
00000280: 5270 873b 129a 89bd 3ba2 24bd c567 59ba
00000290: a400 00bc 6560 16bd 8297 103d 729f 083d
000002a0: 0143 433d 3c83 5bbc 558a e6bd c67d 21be
000002b0: 7ca2 053e 86cb 92bd 424d 293d bea5 6abd
000002c0: b289 e63c 2e71 b1bd abe8 363b bfe1 28bd
000002d0: be8e 28be 023b 94bd ca5a bcbd 4237 bfbd
000002e0: 0641 d0bb 219f 6e3d 7ae7 e7bc f998 823d
000002f0: 11a0 e8bc 21b1 c6bd c273 c0bd dd93 f3bd
00000300: 074f cf3c d731 95bd d5a4 833d 1560 a6bb
00000310: f2eb aebd da1c 013c e037 87be 0753 e9bb
00000320: 3c23 393d c1da c2bd 2ce4 00bd 2c66 d8bd
00000330: 905e aabd bb84 cbbc 99bd cb3c b2b3 0fbd
00000340: f657 f9bc 5e32 113d 31fa 3cbe 72f3 823d
00000350: 4cfa 81bd 861a c83c 55fe 99ba 2c6a 9b3d
00000360: 086d c5bc a2e8 3cbd 13bd 8fb9 3e02 bcbc
00000370: 005a 06be 7dfb 8ebd abc9 bc3d a557 edbc
00000380: 64a2 f33c 3f5c 87bd 4125 233d e6f5 b5bd
00000390: cb97 9cbd dad9 a23d be23 bd3a dfba f7bc
000003a0: 4942 6b3c 5046 a83c 6a7a c2bd da82 ed3c
000003b0: 3ea7 f73b fec2 babd d4e6 0abe 0375 d5bd
000003c0: 8c0a c33c 6e2b 8ebd 7154 d8bd 6224 aabd
000003d0: 6a0b e13c 69e9 6c3d 7302 ea3c 373b 4b3d
000003e0: 5b7d 8dbd 16e2 d13c dcc1 c1bd 3e42 aebc
000003f0: a2fc babd 838f 923d 2748 82bd 28b3 4d3d

bias f4 [128]
0.7409897 -0.12989637 -1.7199774 -0.022096014 0.78654134 0.9997906 0.023541175 -0.11395927
0.42158732 -3.025254 -0.2663047 -0.08922691 0.6858261 1.5267147 -4.228872 -0.050332405
2.879306 -0.36707115 -1.0309182 -0.39177883 -0.24518271 0.09017302 0.5779005 -0.60083574
1.265446 2.0381784 0.22076902 0.8167799 -0.12737285 0.012951947 -0.12403314 -0.7583589
-0.58023745 2.2147007 -0.076909825 -0.06859416 -1.7047325 -1.6184186 0.9975477 -0.6384164
2.6057048 -0.07880967 -1.506797 -0.96078575 -0.1843619 -0.5003281 1.0284812 1.3734462
1.0138247 -0.24260838 -0.33316368 -2.2033317 0.047185082 -0.88238215 1.3005528 -0.08136924
2.599672 -4.155578 1.5406269 1.2025679 0.10977631 -0.34514418 0.1171753 0.60635686
-0.31783825 -1.5396271 2.9502585 -1.8479849 0.8165974 -0.24377775 -0.016299907 -1.2871909
-0.542583 0.18138935 0.27859512 1.1710402 -0.053046513 0.15350248 0.9208557 0.3006926
-0.13775149 -0.032995056 -3.1491652 0.46114728 0.66378754 -1.0958654 -0.5450667 0.10599657
0.2747609 2.022579 0.5777694 -0.9875474 -0.43739533 0.13203315 0.5631648 0.6384146
-1.4896322 -0.48909664 1.5573065 -2.2868547 -1.7998749 1.425862 0.78139096 1.5069026
0.011833102 0.92997354 0.46614373 1.9435753 -0.6089185 -2.0317314 1.4938235 0.6250171
0.8007828 -1.4701855 -3.0221815 0.18459156 -2.7585385 -0.2692432 -2.6993878 -1.7978384
0.006021888 1.7781008 -0.7218661 -0.3143872 1.6756458 -0.71008295 0.56192195 -1.6264658
00000000: 80b1 3d3f 8e03 05be 3828 dcbf b302 b5bc
00000010: c65a 493f 47f2 7f3f 6cd9 c03c 7a63 e9bd
00000020: 4bda d73e c39d 41c0 1759 88be 99bc b6bd
00000030: 4d92 2f3f 636b c33f eb52 87c0 5a29 4ebd
00000040: 8d46 3840 c0f0 bbbe 21f5 83bf 3c97 c8be
00000050: 2d11 7bbe a2ac b83d 4af1 133f 5fd0 19bf
00000060: 22fa a13f 8471 0240 4611 623e 7d18 513f
00000070: 076e 02be 6734 543c 1605 febd cf23 42bf
00000080: 718a 14bf a8bd 0d40 e682 9dbd 187b 8cbd
00000090: ad34 dabf 5728 cfbf 495f 7f3f 426f 23bf
000000a0: dec3 2640 f766 a1bd b9de c0bf 0ef6 75bf
000000b0: 5ec9 3cbe 8115 00bf 46a5 833f 16cd af3f
000000c0: 02c5 813f 556e 78be 6e94 aabe 6303 0dc0
000000d0: 2545 413d cce3 61bf 8478 a63f eba4 a6bd
000000e0: 0761 2640 7ffa 84c0 4333 c53f bfed 993f
000000f0: 67d2 e03d bdb6 b0be 9bf9 ef3d 343a 1b3f
00000100: b2bb a2be 8012 c5bf 09d1 3c40 c58a ecbf
00000110: 870c 513f e0a0 79be 6287 85bc acc2 a4bf
00000120: b8e6 0abf 21be 393e 05a4 8e3e a5e4 953f
00000130: 4d47 59bd c12f 1d3e 33bd 6b3f 61f4 993e
00000140: ba0e 0dbe d325 07bd ec8b 49c0 7f1b ec3e
00000150: fbed 293f 5145 8cbf 7e89 0bbf bb14 d93d
00000160: 76ad 8c3e ef71 0140 b2e8 133f e8cf 7cbf
00000170: 48f2 dfbe b333 073e 912b 103f 246f 233f
00000180: 45ac bebf e06a fabe d255 c73f d45b 12c0
00000190: 4d62 e6bf a582 b63f 3d09 483f 2fe2 c03f
000001a0: a1df 413c bf12 6e3f 64aa ee3e 13c7 f83f
000001b0: 15e2 1bbf e307 02c0 9c35 bf3f 1f01 203f
000001c0: 1a00 4d3f 0a2f bcbf 6c6b 41c0 9205 3d3e
000001d0: e58b 30c0 3fda 89be c5c2 2cc0 921f e6bf
000001e0: 4253 c53b cf98 e33f 37cc 38bf 5cf7 a0be
000001f0: 907b d63f ffc7 35bf 1eda 0f3f 0830 d0bf

weight f4 [128, 128]
-0.03613989 0.028871791 0.06306239 0.056617092 0.12521066 0.07132568 0.07504633 0.042137783
0.018992057 -0.16068687 -0.028067553 0.030673943 0.050624356 0.0036332333 -0.044582013 -0.063331485
0.20179567 -0.13155465 -0.06416208 -0.033698484 -0.04086954 0.016619492 0.085531384 0.095070235
0.13555963 0.12445672 -0.03066703 -0.0600897 0.032045394 0.025921814 0.05047839 -0.116062336
0.15361632 0.21155445 -0.18478237 -0.06024943 -0.08615445 0.023954902 0.12587132 -0.1706422
0.21497189 0.026132345 -0.09854256 -0.30488047 0.013389294 0.0008284091 0.11799776 0.04991017
0.06682791 -0.07664827 -0.073016435 -0.097386815 0.002882442 -0.009854891 0.08149978 0.015041452
0.03618898 -0.37211725 0.0069652065 -0.009767098 0.0916085 0.03776604 -0.06161242 -0.09354225
0.07421436 -0.091657974 0.0790366 -0.20556165 0.12027075 -0.104481414 0.06652342 -0.17356022
-0.017736167 -0.0666388 -0.07140759 0.05289857 0.045651227 -0.08650441 0.007849397 -0.35443363
0.056347463 -0.16379103 0.011104257 -0.10598357 -0.09664989 0.06318408 0.023638928 0.04965861
0.010078012 0.08915487 0.08836901 -0.11728139 -0.03441938 -0.008022466 0.0780046 -0.015631309
-0.06405041 -0.08408393 0.057321824 -0.02405054 -0.093025364 0.0021670402 0.096045054 0.03973545
0.04417591 -0.11064484 0.02425488 0.046978768 0.07378591 -0.16689526 0.24495344 0.013831727
-0.009449289 -0.051345468 -0.14158498 0.100885026 -0.37836093 -0.1184799 0.010231767 -0.13434741
0.02702634 0.12518682 -0.011136181 -0.03774369 0.14809637 -0.07836157 -0.17836036 -0.13334891
0.31968835 -0.009471579 0.3538242 0.047624774 0.49612668 0.2480624 0.076962486 0.061469227
-0.19980189 -0.24041545 0.4438838 -0.24793385 -0.36530808 -1.1481559 -0.71364766 0.013827589
-0.17860863 -1.0415114 -1.8011557 0.5911653 -0.4782826 -0.45009318 -0.42393085 -0.18872073
0.0493052 0.18561332 -0.019174589 -0.853478 -0.07182215 0.037868302 0.31634343 -0.5363583
-0.35686988 -0.12808825 1.0383993 0.10499931 0.62256813 0.0071499823 0.54223305 -1.7098444
-0.25135022 0.010719821 -0.8047934 -0.18715522 -0.3724072 -0.50464535 0.033753708 0.091673575
0.3095282 0.05057845 0.9742021 0.20568079 -0.19123663 -0.06723841 0.048193574 -0.06559986
0.44819316 0.29466423 0.07813627 -0.12919092 0.879329 0.03399829 -1.4464461 0.39654163
-0.2393686 -0.109625034 -0.37884802 0.053944074 0.04254358 0.22807643 0.087346256 -0.4909764
-0.534268 0.036025573 -0.3244574 0.06914145 0.05950924 -0.022056725 -0.057695076 1.0248073
-0.38692957 0.03859549 -0.23438492 -0.24132837 -0.06816458 -1.6022246 0.27300116 -0.11082931
-0.0867143 -0.2581529 -0.07088989 -0.94959855 -0.24092743 0.12299644 0.0487468 0.29068476
0.19403437 0.23360346 0.3447044 0.40977392 0.577295 -0.19505383 0.34982753 0.28918275
0.025844881 -0.13100605 -0.24424875 0.10041187 -0.91240287 0.069137454 0.30954492 0.07769544
-0.2554873 -0.08192264 -0.25414833 0.00919882 -1.3066196 0.43341893 -0.55343306 0.2767139
0.5117111 -0.03224568 0.24820371 0.33058587 0.23446256 0.30821127 -0.08192066 0.51257
00000000: 6c07 14bd 8984 ec3c db26 813d 53e7 673d
00000010: 3937 003e 3313 923d e4b1 993d ab98 2c3d
00000020: 3b95 9b3c 198b 24be eded e5bc ec47 fb3c
00000030: 7c5b 4f3d 8a1b 6e3b a19b 36bd f0b3 81bd
00000040: 86a3 4e3e 43b6 06be 6967 83bd 6c07 0abd
00000050: d266 27bd 9a25 883c 142b af3d 2fb4 c23d
00000060: 25d0 0a3e 2ae3 fe3d 6c39 fbbc 9e20 76bd
00000070: 0842 033d fc59 d43c 6ec2 4e3d 17b2 edbd
00000080: 994d 1d3e bba1 583e 9737 3dbe 1bc8 76bd
00000090: bf71 b0bd 123d c43c 69e4 003e d4bc 2ebe
000000a0: 9721 5c3e 8013 d63c afd0 c9bd 4b19 9cbe
000000b0: c55e 5b3c 9829 593a cfa8 f13d 9b6e 4c3d
000000c0: 12dd 883d c5f9 9cbd a489 95bd bd72 c7bd
000000d0: 5ae7 3c3b 6976 21bc 5be9 a63d 6c70 763c
000000e0: e53a 143d 2786 bebe 633c e43b 2e06 20bc
000000f0: 3d9d bb3d 90b0 1a3d 4e5d 7cbd 1493 bfbd
00000100: b3fd 973d 2db7 bbbd f1dd a13d c17e 52be
00000110: 8350 f63d 5afa d5bd 6e3d 883d c5b9 31be
00000120: 704b 91bc ec79 88bd 243e 92bd 2cac 583d
00000130: c8fc 3a3d 3929 b1bd c29a 003c 5378 b5be
00000140: 99cc 663d d6b8 27be a1ee 353c ea0d d9bd
00000150: 61f0 c5bd a866 813d 6da6 c13c d466 4b3d
00000160: 3f1e 253c d496 b63d d0fa b43d 3a31 f0bd
00000170: 56fb 0cbd a970 03bc e0c0 9f3d 3b0d 80bc
00000180: dd2c 83bd 3234 acbd 4aca 6a3d a305 c5bc
00000190: 1584 bebd e704 0e3b 45b3 c43d a4c1 223d
000001a0: cdf1 343d c399 e2bd 2cb2 c63c cf6c 403d
000001b0: 111d 973d 97e6 2abe 13d5 7a3e 789e 623c
000001c0: 31d1 1abc a04f 52bd a7fb 10be cf9c ce3d
000001d0: 86b8 c1be 97a5 f2bd 24a3 273c 5e92 09be
000001e0: 5866 dd3c f930 003e 8774 36bc 2199 1abd
000001f0: 93a6 173e 087c a0bd 19a4 36be 9e8c 08be
00000200: 31ae a33e af2e 1bbc 7228 b53e 3212 433d
00000210: 5104 fe3e 1204 7e3e 829e 9d3d 28c7 7b3d
00000220: de98 4cbe 782f 76be bd44 e33e 5fe2 7dbe
00000230: a909 bbbe c6f6 92bf 9db1 36bf 1d8d 623c
00000240: 2ee5 36be 3f50 85bf 458c e6bf 9c56 173f
00000250: 75e1 f4be 9d72 e6be 770d d9be 0240 41be
00000260: 40f4 493d 6b11 3e3e 0714 9dbc 897d 5abf
00000270: 7e17 93bd cb1b 1b3d c4f7 a13e c74e 09bf
00000280: a6b7 b6be 9129 03be 45ea 843f e109 d73d
00000290: a060 1f3f 664a ea3b c9cf 0a3f 2edc dabf
000002a0: fab0 80be 30a2 2f3c f106 4ebf 9ea5 3fbe
000002b0: 28ac bebe 7030 01bf 5441 0a3d 5bbf bb3d
000002c0: 7b7a 9e3e 592b 4f3d 4f65 793f fc9d 523e
000002d0: 89d3 43be 4bb4 89bd a066 453d 3859 86bd
000002e0: 9379 e53e 3bde 963e e905 a03d a04a 04be
000002f0: b51b 613f ca41 0b3d 2525 b9bf 8107 cb3e
00000300: 0b1d 75be 1783 e0bd 5ef8 c1be 76f4 5c3d
00000310: 2d42 2e3d de8c 693e 98e2 b23d 4261 fbbe
00000320: cac5 08bf 8d8f 133d 481f a6be 089a 8d3d
00000330: f6bf 733d 4eb0 b4bc ac51 6cbd e32c 833f
00000340: a21b c6be 4e16 1e3d 9a02 70be c91e 77be
00000350: df99 8bbd b215 cdbf cfc6 8b3e 7afa e2bd
00000360: 4497 b1bd 9e2c 84be b82e 91bd e418 73bf
00000370: aeb5 76be 8fe5 fb3d b9aa 473d a2d4 943e
00000380: f2b0 463e bf35 6f3e 187d b03e e3cd d13e
00000390: 9bc9 133f 31bc 47be 981c b33e c30f 943e
000003a0: a5b8 d33c 7326 06be 581c 7abe bda4 cd3d
000003b0: 3c93 69bf f097 8d3d ac7c 9e3e c91e 9f3d
000003c0: 3bcf 82be 0fc7 a7bd bb1f 82be a6b6 163c
000003d0: 503f a7bf 16e9 dd3e caad 0dbf 72ad 8d3e
000003e0: 80ff 023f 0c14 04bd 1d29 7e3e 8d42 a93e
000003f0: f416 703e decd 9d3e 05c6 a7bd ca37 033f

bias f4 [128]
0.91463196 -0.9261794 0.60889363 -1.5479739 -0.148467 0.9994087 -0.9526497 -0.21366481
-0.26057807 0.59243006 -0.23888938 -2.4717703 -0.06393319 -0.5347706 0.7700745 1.1304018
2.1526172 0.44431508 -0.36687657 -1.7809819 -0.031452514 -0.5876786 -0.5111594 -0.31774354
-0.086506814 1.3196322 1.3167084 1.1657034 -0.20619105 0.004080796 -0.08556592 0.019104691
-0.1074052 0.548171 -0.021614058 -1.0433209 -1.5107284 3.157615 2.285588 -0.81798786
-0.10420814 0.9133659 -0.049713746 -0.6243193 1.7921525 0.45360023 -0.12093604 0.17285869
0.2130085 -0.14333841 0.028072769 -0.18120381 -0.020295445 0.46019122 -0.36994788 1.143984
0.7777161 0.22303727 -0.9215129 -0.7104161 -0.2581198 -0.55095226 1.4358526 -0.76113105
-1.4427551 -0.07144862 -1.3358743 0.02152297 -0.69720554 -0.0018040788 0.4944545 0.88607866
1.0341017 0.037718624 -0.13660929 -0.08239385 1.6621302 1.170194 -0.09382748 -0.0033458606
-1.6992797 0.76759505 -0.83690685 -0.14919737 1.3252939 -1.1828201 -0.10941988 -3.4216616
-0.26096678 -0.12427508 0.78066456 -0.013554168 0.8925358 -0.82430077 2.0537465 -0.117731996
0.107631385 1.1390325 -1.0908568 1.2330064 -0.75352037 -0.07039137 2.45026 -0.10149212
-0.046350487 -0.3136112 2.9310226 0.08846499 -0.029344024 -0.011971907 -0.045962535 -0.053085316
0.45537716 0.37216133 0.5371678 1.6826029 -2.1209142 -0.18571104 -0.02499042 0.17271197
-0.30458912 -0.04998021 -2.0531893 -0.93714195 0.41089085 0.36524263 -0.3497415 -0.04995288
00000000: 5225 6a3f 181a 6dbf 74e0 1b3f 0224 c6bf
00000010: bc07 18be 40d9 7f3f dae0 73bf f3ca 5abe
00000020: 7d6a 85be 7fa9 173f 6b9f 74be 7c31 1ec0
00000030: 68ef 82bd bae6 08bf 9a23 453f 02b1 903f
00000040: 7bc4 0940 447d e33e 3fd7 bbbe 37f7 e3bf
00000050: 5ad4 00bd 1b72 16bf 58db 02bf 48af a2be
00000060: 7c2a b1bd b5e9 a83f e789 a83f c535 953f
00000070: bf23 53be 33b8 853b 2f3d afbd 7181 9c3c
00000080: 42f7 dbbd ef54 0c3f f70f b1bc 8a8b 85bf
00000090: 8c5f c1bf 5d16 4a40 1347 1240 a767 51bf
000000a0: 146b d5bd 59d2 693f a4a0 4bbd 64d3 1fbf
000000b0: 4165 e53f 4a3e e83e 51ad f7bd de01 313e
000000c0: e61e 5a3e 4ec7 12be ddf8 e53c 7e8d 39be
000000d0: a242 a6bc 2f9e eb3e cf69 bdbe 116e 923f
000000e0: 6718 473f e263 643e 45e8 6bbf d4dd 35bf
000000f0: 4728 84be 350b 0dbf 05ca b73f 7cd9 42bf
00000100: 33ac b8bf a753 92bd eefd aabf f150 b03c
00000110: 107c 32bf d776 ecba 2429 fd3e 0dd6 623f
00000120: 725d 843f d87e 1a3d 4ee3 0bbe 1bbe a8bd
00000130: afc0 d43f ebc8 953f 9f28 c0bd 3a46 5bbb
00000140: ff81 d9bf 1c81 443f 873f 56bf 32c7 18be
00000150: 3ba3 a93f a666 97bf 8817 e0bd 81fc 5ac0
00000160: 709d 85be ef83 febd a2d9 473f 4d12 5ebc
00000170: 3a7d 643f 6005 53bf 9570 0340 791d f1bd
00000180: d86d dc3d d1cb 913f 32a1 8bbf 27d3 9d3f
00000190: b6e6 40bf 5a29 90bd 0fd1 1c40 1adb cfbd
000001a0: 02da 3dbd a691 a0be e095 3b40 222d b53d
000001b0: e162 f0bc d125 44bc 3643 3cbd fd6f 59bd
000001c0: 3227 e93e ee8b be3e d483 093f 885f d73f
000001d0: 0fbd 07c0 092b 3ebe b6b8 ccbc 68db 303e
000001e0: 1bf3 9bbe 0cb8 4cbd 7467 03c0 89e8 6fbf
000001f0: 4960 d23e 1501 bb3e 5111 b3be 649b 4cbd

weight f4 [130, 128]
0.12148144 0.1991449 -0.27273542 -2.0933769 -0.15558144 -0.031369478 -1.1044697 0.12781774
-0.6651358 0.049859207 -0.18603578 -0.71725845 0.056571662 0.12643541 -0.08151364 -0.12124782
0.053639315 -0.1811733 0.080171585 -0.18926625 -0.09994772 -0.91748863 0.041688327 0.08380479
-0.28245464 0.07583317 -0.1929791 0.08650599 -0.13420749 -0.0297637 -0.05880141 -0.06480251
0.046069298 -0.1619055 0.11919985 -0.10045682 -0.071141034 0.045501143 -0.015613197 -0.027472822
-0.15953292 0.1353822 -0.13185294 0.012546759 0.14425834 -0.7438057 0.007857287 0.2404345
-0.06787468 -0.4285143 0.15123378 -0.04155161 -0.042685796 0.11092304 -0.74916345 0.15413389
0.116365425 -0.42854163 -0.08952309 -0.0220653 0.09512936 -0.17504978 -0.31605518 0.041761514
-0.7972051 0.060599234 -0.23826008 0.13143522 0.04986527 -0.04122286 0.05469773 -0.40231302
-0.090270005 -0.30261213 -0.014870849 0.06339301 -0.0496233 0.016109914 -1.0474913 -0.18288676
-0.64788985 -0.56297463 0.10168917 -0.05238065 0.16517742 0.5888052 -0.12502648 -0.18231432
-0.39782104 -0.14940266 0.09771361 0.039686777 -0.3256964 -0.8068108 0.15429057 -0.06724006
0.13186459 -0.34604254 -0.58841646 0.11231832 -0.3870785 -0.009176189 -0.079340845 -0.006216326
-0.05038582 0.20156449 -0.11254074 0.13179886 -0.023108037 -0.039843664 -0.02640464 0.019827837
0.032187503 0.31782964 -0.29450938 0.09785212 -0.86356264 -0.13466737 -0.07762029 -0.17740394
-0.8444264 -0.013279305 -0.21749476 -0.31452775 0.07929697 0.23977152 -0.064631805 -0.115017
0.121868744 0.19658464 -0.2255976 -1.3477956 -0.30680633 0.026475292 -1.0054011 0.089173436
-0.7747885 0.011767534 -0.087463394 -0.60782677 -0.0071642236 0.09412183 -0.15641741 -0.03965523
0.07189664 -0.1702813 0.030134354 -0.27994063 -0.04716384 -0.5743898 0.0067552715 0.015493173
-0.23494548 0.08926434 -0.11519197 0.046238467 -0.2374467 0.034832556 0.057171978 -0.027186735
0.040803608 -0.07949688 0.10494436 -0.13466737 -0.10644727 0.035319418 0.09197385 -0.092204764
-0.09578179 0.14683439 0.0144447945 -0.086869135 0.14090401 -0.52937376 -0.045476068 0.22552755
-0.16338837 -0.2933347 0.08883525 -0.0655032 -0.06497718 0.09779953 -0.6662073 0.105850264
0.14005436 -0.43216628 -0.120392345 -0.05087542 0.029053656 -0.09197556 -0.16215418 0.009707149
-0.85554856 0.05085351 -1.2025453 0.09886601 -0.015743364 -0.03346733 0.015983889 -0.30980983
-0.011001754 -0.25095806 0.0009597201 -0.02009846 0.059463385 0.09233231 -0.6671026 0.0032366577
-0.47279868 -0.21287578 0.05292096 -0.03669767 0.14263326 0.5465731 -0.09793858 -0.16050936
-0.45859632 0.017953718 0.07026974 -0.061193686 -0.3577213 -0.78325987 0.15661982 0.004501711
0.11571915 -0.22276242 -0.51987743 0.065096006 -0.75044465 0.075737216 -0.046577238 -0.040935844
-0.073895186 0.18899965 -0.030252598 0.19073905 -0.04651388 -0.07154502 -0.09196004 0.002930349
0.11116994 0.28815562 -0.25152802 0.10574885 -0.7867908 -0.18347111 -0.066847816 -0.08705751
-0.51789886 -0.06291133 -0.22409192 -0.29835826 0.014192429 0.20312405 -0.112364985 -0.15248604
00000000: 43cb f83d a4ec 4b3e faa3 8bbe e3f9 05c0
00000010: be50 1fbe 487d 00bd 435f 8dbf a7e2 023e
00000020: 5746 2abf 2b39 4c3d 2a80 3ebe 409e 37bf
00000030: b0b7 673d 4978 013e a0f0 a6bd c750 f8bd
00000040: e6b4 5b3d 7e85 39be 0031 a43d 03cf 41be
00000050: 64b1 ccbd 89e0 6abf 61c1 2a3d d9a1 ab3d
00000060: e59d 90be 6c4e 9b3d 509c 45be 0d2a b13d
00000070: b06d 09be 01d3 f3bc bfd9 70bd 2eb7 84bd
00000080: 29b3 3c3d 8eca 25be 0d1f f43d 4ebc cdbd
00000090: 64b2 91bd 685f 3a3d 7fce 7fbc af0e e1bc
000000a0: 995c 23be a2a1 0a3e 7504 07be ec90 4d3c
000000b0: 75b8 133e 0d6a 3ebf dabb 003c 7634 763e
000000c0: e101 8bbd 3a66 dbbe 07dd 1a3e 0532 2abd
000000d0: 4dd7 2ebd 9e2b e33d 2dc9 3fbf 46d5 1d3e
000000e0: ff50 ee3d cf69 dbbe e257 b7bd 4ac2 b4bc
000000f0: 2fd3 c23d 4040 33be fcd1 a1be 1f0e 2b3d
00000100: a215 4cbf e736 783d 73fa 73be f496 063e
00000110: 863f 4c3d 4dd9 28bd ba0a 603d f9fb cdbe
00000120: 7bdf b8bd faef 9abe dda4 73bc 32d4 813d
00000130: cd41 4bbd f0f8 833c 3214 86bf ab46 3bbe
00000140: 1cdc 25bf 1b1f 10bf 6942 d03d 188d 56bd
00000150: 4524 293e f0bb 163f f106 00be 9bb0 3abe
00000160: 33af cbbe 03fd 18be 131e c83d 9a8e 223d
00000170: aec1 a6be 278b 4ebf 59fe 1d3e 28b5 89bd
00000180: 8307 073e 7d2c b1be 76a2 16bf 2607 e63d
00000190: 272f c6be ba57 16bc 747d a2bd 52b2 cbbb
000001a0: 5d61 4ebd ec66 4e3e c27b e6bd 48f6 063e
000001b0: 114d bdbc 1c33 23bd 8b4e d8bc fd6d a23c
000001c0: 0bd7 033d 91ba a23e efc9 96be b166 c83d
000001d0: 7112 5dbf 3ee6 09be 63f7 9ebd 61a9 35be
000001e0: 542c 58bf 7191 59bc f2b6 5ebe c809 a1be
000001f0: 7366 a23d aa86 753e ae5d 84bd 088e ebbd
00000200: 5296 f93d 7c4d 493e 0f03 67be 9184 acbf
00000210: b815 9dbe b6e2 d83c fcb0 80bf 90a0 b63d
00000220: 8a58 46bf 9dcc 403c 0220 b3bd 899a 1bbf
00000230: ddc1 eabb f2c2 c03d e32b 20be 866d 22bd
00000240: 8c3e 933d 395e 2ebe 52dc f63c 6154 8fbe
00000250: df2e 41bd 360b 13bf 535b dd3b 14d7 7d3c
00000260: 8c95 70be 39d0 b63d c4e9 ebbd 8c64 3d3d
00000270: 3a25 73be 95ac 0e3d 2a2d 6a3d b7b6 debc
00000280: af21 273d 43cf a2bd 12ed d63d 3ee6 09be
00000290: 0701 dabd 18ab 103d c95c bc3d dad5 bcbd
000002a0: 3e29 c4bd c15b 163e dca9 6c3c 72e8 b1bd
000002b0: 2449 103e 0a85 07bf 1d45 3abd b2f0 663e
000002c0: 484f 27be f72f 96be 41ef b53d 8b26 86bd
000002d0: c112 85bd 1f4b c83d 908c 2abf 06c8 d83d
000002e0: 696a 0f3e e644 ddbe 4390 f6bd bf62 50bd
000002f0: ef01 ee3c af5d bcbd bf0b 26be bc0a 1f3c
00000300: 3b05 5bbf c54b 503d 01ed 99bf 437a ca3d
00000310: 3af8 80bc 0a15 09bd a5f0 823c 659f 9ebe
00000320: b340 34bc 937d 80be ba95 7b3a 87a5 a4bc
00000330: e18f 733d b918 bd3d 3cc7 2abf 1b1e 543b
00000340: ab12 f2be 1cfc 59be a6c3 583d 4c50 16bd
00000350: 740e 123e 37ec 0b3f 0694 c8bd 915c 24be
00000360: 23cd eabe ad13 933c 95e9 8f3d 3ba6 7abd
00000370: 3f27 b7be b883 48bf f260 203e 1783 933b
00000380: 29fe ec3d d51b 64be b016 05bf 0e51 853d
00000390: 241d 40bf 1d1c 9b3d c6c7 3ebd 58ac 27bd
000003a0: 5c56 97bd 2089 413e 4cd4 f7bc 1951 433e
000003b0: 5785 3ebd 3286 92bd 8c55 bcbd 190b 403b
000003c0: 11ad e33d 2289 933e 48c8 80be da92 d83d
000003d0: 1f6b 49bf dadf 3bbe 82e7 88bd 354b b2bd
000003e0: 0595 04bf a8d7 80bd 5a78 65be 6ac2 98be
000003f0: 5d87 683c c0ff 4f3e 9d1f e6bd 4d25 1cbe

bias f4 [130]
0.4805095 0.33291644 0.2521803 0.21026564 0.15691152 0.115315765 0.0803839 0.0570825
0.021699306 -0.015762148 -0.053744428 -0.091253884 -0.09531057 -0.1424584 -0.12624153 -0.13031894
-0.15349863 -0.22390884 -0.18510643 -0.19981682 -0.26925892 -0.23759052 -0.2348443 -0.26098967
-0.26624516 -0.373819 -0.3642 -0.3705702 -0.4159009 -0.5249394 -0.51911026 -0.59617066
-0.6611079 -0.64897543 -0.7765851 -0.68426055 -0.75394 -0.67325 -0.73854387 -0.9128718
-0.8090596 -0.84413475 -0.8861579 -0.8575131 -0.5323631 -0.7395325 -0.47786772 -0.6440732
-0.7014571 -0.27813336 -0.27642587 -0.44556782 -0.1139066 -0.7617899 -0.55232495 0.09422778
-0.6676936 -0.012044117 -0.23856378 -0.38785523 -0.1864504 -0.4868459 -0.24429329 -0.4766199
-0.64687663 -0.41244385 -0.39780995 -0.7528291 -0.09106714 -0.50409436 -0.8503177 -0.81131655
-1.1666867 0.23065674 -0.36823875 -0.25368232 -0.36899137 -0.81246644 -3.3295014 -0.8529822
-0.67834634 -0.23557068 -0.66550225 0.39848348 -0.43918768 -8.234282 -1.3184966 -0.5284482
-0.4807101 -0.34628075 -7.4064546 0.9763907 -0.9876092 -6.5894055 -1.0518324 -6.9179764
-3.5537796 -5.9586306 -3.7089329 -0.13129336 -1.090083 -3.1030533 -2.681019 -2.8393285
-2.4259717 -1.4363217 -2.34457 -2.0694818 -2.3286467 -1.7145915 -2.0109215 0.022573367
-1.5575552 -0.09050686 -0.023133043 -1.4101963 -1.0569434 -0.048554506 -0.0702867 -0.014378682
-0.12672395 -0.078626126 -0.052711472 -0.027660565 -0.03713968 -0.10494167 -0.073255055 -0.022787735
0.02836151 -0.067104
00000000: 5705 f63e 0674 aa3e c71d 813e e04f 573e
00000010: 6aad 203e ac2a ec3d 50a0 a43d 57cf 693d
00000020: bec2 b13c 9f1f 81bc 1e23 5cbd 51e3 babd
00000030: 3032 c3bd 9de0 11be 7645 01be 5472 05be
00000040: bf2e 1dbe 5c48 65be 8a8c 3dbe c89c 4cbe
00000050: 4edc 89be ee4a 73be 067b 70be 70a0 85be
00000060: 4951 88be 3465 bfbe 6c78 babe 61bb bdbe
00000070: f6f0 d4be 6e62 06bf 69e4 04bf a49e 18bf
00000080: 5e3e 29bf 4123 26bf 48ce 46bf b32b 2fbf
00000090: 3602 41bf 1d5a 2cbf 3611 3dbf f7b1 69bf
000000a0: 881e 4fbf 3719 58bf 3edb 62bf fb85 5bbf
000000b0: f348 08bf 0052 3dbf 14ab f4be fbe1 24bf
000000c0: b192 33bf 7f67 8ebe b187 8dbe 7721 e4be
000000d0: dd47 e9bd aa04 43bf 2b65 0dbf 7ffa c03d
000000e0: f8ed 2abf b054 45bc 104a 74be f694 c6be
000000f0: dbec 3ebe de43 f9be 0528 7abe 8607 f4be
00000100: b599 25bf d72b d3be bfad cbbe 68b9 40bf
00000110: 6981 babd 540c 01bf 6cae 59bf 71b2 4fbf
00000120: fd55 95bf 4831 6c3e ca89 bcbe a6e2 81be
00000130: 70ec bcbe cdfd 4fbf 8d16 55c0 0b5d 5abf
00000140: 1ba8 2dbf 7139 71be 5b5e 2abf 0706 cc3e
00000150: 35dd e0be 9ebf 03c1 7fc4 a8bf 6248 07bf
00000160: a21f f6be b64b b1be ad01 edc0 bef4 793f
00000170: f5d3 7cbf 69dc d2c0 72a2 86bf 1060 ddc0
00000180: 2071 63c0 1aad bec0 285f 6dc0 c471 06be
00000190: d787 8bbf 6d98 46c0 d195 2bc0 8fb7 35c0
000001a0: 1f43 1bc0 64d9 b7bf 6f0d 16c0 6472 04c0
000001b0: 8c08 15c0 bc77 dbbf f0b2 00c0 c8eb b83c
000001c0: f85d c7bf a95b b9bd 8281 bdbc 5081 b4bf
000001d0: ec49 87bf 17e1 46bd 79f2 8fbd 9094 6bbc
000001e0: ecc3 01be bc06 a1bd fce7 57bd 6998 e2bc
000001f0: c71f 18bd a9eb d6bd bf06 96bd 58ad babc
00000200: 6656 e83c d26d 89bd
