DeepControlledLearning/PolicyWeights/lost_salespoisson_p9_l10_N5000_DCL0/_gen.pth (torch, 290172 bytes, 10 tensors)

weight f4 [256, 10]
0	0x3e2ae970	0.16690612
1	0x3db28ad0	0.08717883
2	0xbdb42f5e	-0.08798097
3	0xbe86bbb6	-0.26315087
4	0xbe2c3d42	-0.16820243
5	0x3e2c3f4e	0.16821024
6	0x3e59ddf1	0.2127607
7	0xbd1d8117	-0.038453188
8	0x3e708c8e	0.23491117
9	0x3da0fee2	0.07861115
10	0xbdb24969	-0.08705408
11	0x3e8fb37e	0.2806663
12	0x3e0330ce	0.12811586
13	0x3d6d9800	0.058006287
14	0x3e9253f9	0.2857969
15	0x3e3fc354	0.18726856
16	0x3e97814c	0.29590833
17	0xbe3fe4ad	-0.18739577
18	0xbe9ab1ab	-0.30213675
19	0xbe49214c	-0.19641608
20	0x3e33748e	0.17524931
21	0xbe6a6540	-0.22890186
22	0xbdcd67f9	-0.10029597
23	0xbddfc064	-0.109253675
24	0xbe777ea2	-0.241694
25	0xbd9ce518	-0.07660884
26	0x3ea45662	0.32097155
27	0xbba09a1c	-0.004901184
28	0xbd16f97f	-0.03685903
29	0x3eadbc8f	0.3393292
30	0xbe141f56	-0.14465079
31	0xbdf29747	-0.1184526
32	0xbe9421c4	-0.2893201
33	0x3dbad962	0.09123494
34	0xbe6f40d5	-0.23364575
35	0x3dc88bf9	0.09792323
36	0xbe8c4ec5	-0.27403846
37	0xbea096a4	-0.3136493
38	0x3e964651	0.29350522
39	0xbe518029	-0.20459045
40	0xbda48e22	-0.08034922
41	0xbe2a0bc7	-0.16606055
42	0xbe43543e	-0.19075105
43	0xbe01aedd	-0.12664361
44	0x3de6f529	0.11277229
45	0xbdcb8221	-0.099369295
46	0x3e6fa3fd	0.234024
47	0x3eb8c32d	0.36086407
48	0xbebd2c4b	-0.36947855
49	0x3e8eb56e	0.27872795
50	0x3d68172a	0.056662716
51	0x3dacc08c	0.08435163
52	0xbe39b4d2	-0.18135384
53	0xbdb1b339	-0.08676762
54	0xbd0acf69	-0.033889208
55	0x3e1e3055	0.15448125
56	0x3e92cd07	0.28672048
57	0x3e3756f7	0.17904268
58	0x3d0249b1	0.03180856
59	0xbe9ae352	-0.30251557
60	0x3db5c8d5	0.08876196
61	0xbe1b3de7	-0.15160333
62	0xbd134934	-0.035958484
63	0x3e027498	0.1273979
64	0xbc825e00	-0.015913963
65	0x3c731c75	0.014838328
66	0x3e64395c	0.22287506
67	0x3e1e0052	0.1542981
68	0x3dce0dab	0.10061201
69	0xbe39e6f5	-0.1815451
70	0x3e1a5aee	0.1507375
71	0xbe2d8996	-0.16947016
72	0x3ddc2c09	0.107505865
73	0xbe2eea0e	-0.17081472
74	0xbe4b64aa	-0.19862619
75	0x3e594b11	0.21220042
76	0xbe63d38d	-0.22248669
77	0xbe341df6	-0.17589554
78	0x3dfb1970	0.12260711
79	0xbdebc065	-0.11511306
80	0xbea02a40	-0.31282234
81	0xbe015410	-0.12629724
82	0x3e3ed12b	0.18634479
83	0x3df63cd4	0.12023321
84	0x3e302f4d	0.17205544
85	0xbdcd1c68	-0.10015184
86	0xbe7d9779	-0.24764813
87	0x3e68e5d3	0.22743921
88	0xbe305d66	-0.17223129
89	0x3e1eab48	0.15495026
90	0x3e8b1202	0.27162176
91	0xbe63324b	-0.22187154
92	0x3cf4a019	0.029861497
93	0xbe36f6bc	-0.17867559
94	0xbe9d339a	-0.3070343
95	0xbe0ed941	-0.13950063
96	0x3e7ac997	0.24490963
97	0x3e5eb8d4	0.21750194
98	0x3d2b6b8b	0.041850608
99	0x3e98a7bb	0.29815468
100	0x3d7f4ec8	0.06233099
101	0x387838a8	5.9180573e-05
102	0x3e78d3ab	0.24299495
103	0xbe4d0790	-0.20022416
104	0x3c2688d2	0.010164456
105	0xbe84b320	-0.25917912
106	0xbd81d51c	-0.063394755
107	0x3e9f5236	0.3111741
108	0x3d5002ab	0.050783794
109	0xbe8bb716	-0.2728812
110	0xbdf5f16f	-0.120089404
111	0x3e7e6076	0.24841484
112	0xbeb8ad1b	-0.3606957
113	0x3e1057b0	0.1409595
114	0x3dbb0fac	0.091338485
115	0xbe6a8105	-0.2290078
116	0x3ca7d24c	0.02048602
117	0x3e093ae7	0.13401376
118	0x3d0069e3	0.03135098
119	0xbe7b4817	-0.24539219
120	0x3d469d61	0.048489932
121	0xbe798c3f	-0.24369906
122	0x3e806a20	0.25080967
123	0xbe881d76	-0.26584977
124	0x3ea5959e	0.3234071
125	0x3e839661	0.25700668
126	0x3e3ee4e3	0.18642001
127	0xbe8d126a	-0.2755311
128	0xbe025710	-0.12728524
129	0xbe8a27e0	-0.26983547
130	0xbe703c05	-0.23460396
131	0x3e114592	0.14186695
132	0xbe86d605	-0.2633516
133	0x3cf63b5a	0.030057598
134	0x3ebdd9ad	0.37080136
135	0x3eb5dfbd	0.3552226
136	0x3e81b0bc	0.2533015
137	0xbdd091f3	-0.101840876
138	0x3dab326e	0.08359228
139	0xbe91a7e5	-0.28448406
140	0xbe80cbaf	-0.25155398
141	0xbd8b2bd6	-0.067954704
142	0xbe5e84c7	-0.21730338
143	0x3dd74ba1	0.10512472
144	0x3e22a25e	0.1588225
145	0x3e33898c	0.17532939
146	0xbe899279	-0.26869562
147	0xbc73466f	-0.014848336
148	0x3e840fd7	0.25793335
149	0x3d229ed1	0.03970224
150	0xbdac5bef	-0.084159724
151	0x3d60bb9c	0.05486642
152	0x3eaf05b3	0.34184036
153	0xbe919544	-0.28434193
154	0x3e87eb46	0.26546687
155	0x3c8a9331	0.01691589
156	0xbd46cfcc	-0.048538014
157	0x3d9a526e	0.075352535
158	0x3e68bf42	0.22729209
159	0xbe9044fe	-0.28177637
160	0x3e2d558d	0.16927166
161	0xbe0aadc3	-0.13542847
162	0xbcab9b14	-0.02094797
163	0x3dcfd4cd	0.101480104
164	0x3e1914bd	0.14949317
165	0xbe63b3bb	-0.2223653
166	0x3cc7d6e8	0.024394467
167	0x3dabc829	0.08387787
168	0x3e716c84	0.23576552
169	0xbec4d6e6	-0.38445204
170	0xbe57afd9	-0.21063174
171	0xbd9fe666	-0.07807617
172	0xbe93a224	-0.2883464
173	0x3e2f2f43	0.17107873
174	0xbdbc251b	-0.09186765
175	0xbe7e9ef1	-0.24865319
176	0xbdba7b9a	-0.091056064
177	0x3b94ba75	0.004538829
178	0xbdcc2a8f	-0.09969055
179	0x3e2703cd	0.16310044
180	0x3e9548e3	0.2915717
181	0x3d75f967	0.0600523
182	0xbd8893fe	-0.06668852
183	0xbe4e560a	-0.20150009
184	0xbe1ea52d	-0.15492697
185	0xbdac14cb	-0.084024034
186	0xbe325a39	-0.1741723
187	0xbe336a86	-0.17521104
188	0xbeb2caca	-0.3492034
189	0xbc0335ac	-0.008008402
190	0xbe719860	-0.23593283
191	0xbe04de26	-0.12975368
192	0x3e080852	0.13284424
193	0xbe45c4ed	-0.19313402
194	0x3ea72713	0.32647
195	0xbe09ed6a	-0.13469473
196	0xbe0229b7	-0.12711225
197	0x3e55ab76	0.20866188
198	0xbdaf7d0c	-0.08568773
199	0x3e99bddf	0.30027673
200	0xbc058f28	-0.008151807
201	0x3a6b96a5	0.00089869864
202	0xbe896d54	-0.26841223
203	0xbe228bb6	-0.15873608
204	0x3e6514d7	0.22371231
205	0x3e929d39	0.28635576
206	0x3e762cdb	0.24040549
207	0x3cf54491	0.029939922
208	0xbcc6d867	-0.02427311
209	0xbe082da4	-0.1329866
210	0xbe7af209	-0.24506392
211	0xbd791e3e	-0.060819857
212	0x3e410979	0.1885127
213	0x3dbecdc3	0.0931659
214	0x3e2b440f	0.16725181
215	0xbe1d7482	-0.15376475
216	0xbe82623b	-0.2546557
217	0x3d916316	0.07098977
218	0xbdba55db	-0.09098407
219	0xbeba4cdf	-0.36386773
220	0x3e3a927b	0.1821994
221	0xbe5f4a52	-0.21805695
222	0x3e1847e2	0.14871171
223	0xbe8cd805	-0.2750856
224	0x3c0db835	0.008649875
225	0xbcf896bc	-0.030345313
226	0x3da879a8	0.08226329
227	0x3de49cf7	0.11162751
228	0xbea2b75d	-0.3178052
229	0x3e07bf65	0.13256605
230	0x3c198a46	0.009371346
231	0xbdc40386	-0.095709845
232	0x3e0fc2a1	0.14039089
233	0xbcf83244	-0.030297406
234	0x3e392a4e	0.18082544
235	0xbe18132f	-0.14851068
236	0x3cb2937c	0.021798842
237	0xbddd8d09	-0.10817916
238	0x3e1a63a7	0.15077077
239	0xbd66bfb2	-0.05633516
240	0x3e51156c	0.20418328
241	0xbda82553	-0.08210244
242	0x3e24fd06	0.16112146
243	0x3dca323b	0.09872862
244	0xbe51896b	-0.20462577
245	0x3ce88546	0.028383862
246	0xbdb105b7	-0.08643668
247	0xbe46551a	-0.19368401
248	0xbeb03b83	-0.34420404
249	0xbe158a8a	-0.1460363
250	0x3b5d6257	0.003378054
251	0xbe8db890	-0.27679873
252	0x3b900e2a	0.0043962197
253	0xbd8dd4ae	-0.06925331
254	0xbe71950d	-0.23592015
255	0xbe221bfc	-0.15830988

bias f4 [256]
0	0xbed955b6	-0.42448205
1	0xbcd00778	-0.025394186
2	0xbd3959cd	-0.045251656
3	0x3ea12ed5	0.31481043
4	0x3e1e640d	0.15467854
5	0x3d043eb0	0.032286346
6	0xbdd7a0aa	-0.10528691
7	0x3ecb728e	0.39735836
8	0x3e4944e7	0.1965519
9	0xbe95a026	-0.29223746
10	0x3e877407	0.2645571
11	0x3e619fa7	0.22033559
12	0x3d89c9b8	0.06727928
13	0x3e0f9bc7	0.14024268
14	0xbdd9ef78	-0.10641378
15	0x3e7de793	0.2479537
16	0x3e2ec546	0.17067441
17	0x3d93b1e4	0.07211664
18	0xbda17288	-0.07883173
19	0x3e5cb090	0.21551728
20	0x3eb34178	0.35010886
21	0x3e94d5f3	0.2906948
22	0xbda12379	-0.07868094
23	0xbe8463a6	-0.25857276
24	0x38507a64	4.970505e-05
25	0x3e7f3939	0.24924172
26	0x3e0fa33e	0.14027116
27	0x3e076175	0.1322077
28	0xbd9f5168	-0.07779199
29	0x3db15225	0.08658246
30	0x3e6077d7	0.21920715
31	0xbe52d4ed	-0.20589037
32	0xbe919cc9	-0.2843993
33	0x3d1f3b5e	0.038874976
34	0xbe919836	-0.2843644
35	0xbe8a065d	-0.2695798
36	0xbd8bc2a0	-0.06824231
37	0x3dc66556	0.09687297
38	0xbdff968c	-0.124798864
39	0xbe9b65d8	-0.30351138
40	0xbe87933c	-0.26479518
41	0xbe312f2d	-0.17303152
42	0x3eca35f6	0.39494294
43	0xbde448c7	-0.11146694
44	0xbe961f95	-0.2932097
45	0x3d73cca6	0.05952134
46	0x3e32134c	0.17390174
47	0x3e14ad5e	0.1451926
48	0xbe3b4d52	-0.18291214
49	0x3dd5c882	0.104386345
50	0x3da8ca2a	0.08241685
51	0x3e35f4f7	0.17769228
52	0xbe3b3787	-0.18282901
53	0xbe420eff	-0.18951033
54	0xbe4a872a	-0.19778123
55	0x3ee2c384	0.44289792
56	0x3d31cb08	0.043406516
57	0xbdd6ba06	-0.104847
58	0x3e3c3bc3	0.18382172
59	0xbe538c6d	-0.20659037
60	0x3e2b4e05	0.16728981
61	0x3d2f5603	0.042806637
62	0xbe825fd2	-0.2546373
63	0x3e04b3d9	0.12959231
64	0xbdcfc590	-0.10145104
65	0x3e9bdb66	0.30440825
66	0xbd8df2f0	-0.06931102
67	0x3ea6c13b	0.32569298
68	0xbea83adc	-0.32857406
69	0x3cfd04b7	0.030886037
70	0x3dba11dc	0.09085438
71	0x3daddf47	0.084898524
72	0x3e5e5eba	0.21715823
73	0xbee3ed49	-0.44516972
74	0x3e9adcba	0.30246526
75	0x3e7494cf	0.23884891
76	0x3e29b7a3	0.16573958
77	0xbe212caa	-0.15739694
78	0x3e95b96e	0.29243034
79	0xbeaf9f82	-0.34301382
80	0xbe507666	-0.20357665
81	0x3d6e679d	0.058204282
82	0x3de4aa26	0.11165266
83	0x3e9bbcf7	0.30417606
84	0xbe5d9ef1	-0.21642663
85	0x3ea7c28c	0.32765615
86	0xbd713cef	-0.058896
87	0xbdfee70a	-0.12446411
88	0x3db5c52a	0.08875497
89	0x3e758e9e	0.23980185
90	0x3e0efaf9	0.13962926
91	0x3eb93352	0.36171967
92	0xbba8bf11	-0.00514973
93	0x3e9ad454	0.30240119
94	0xbe1b3aa7	-0.15159093
95	0xbda4a222	-0.08038737
96	0xbc80a327	-0.015702797
97	0xbdf8dde5	-0.12151698
98	0x3e8e59bc	0.27802837
99	0x3e25fe2e	0.16210243
100	0xbdbcc20f	-0.09216701
101	0x3ee4b905	0.4467241
102	0xbdfe282f	-0.12410008
103	0xbe6d0d3b	-0.23149578
104	0x3e7b81b6	0.245612
105	0xbdec04e9	-0.11524374
106	0xbebff545	-0.37491813
107	0x3e7d5918	0.24741018
108	0x3e39b52b	0.18135516
109	0xbceecef8	-0.029151425
110	0xbd921905	-0.07133678
111	0x3cbd764a	0.023127694
112	0xbe5ad8c9	-0.2137176
113	0xbe93ecbe	-0.28891557
114	0x3dcf0107	0.10107618
115	0xbdd3fb5a	-0.10350676
116	0x3e9e14f9	0.30875376
117	0x3e57e673	0.21084003
118	0xbdf89a22	-0.121387735
119	0xbe6fc131	-0.2341354
120	0xbdfc7835	-0.12327615
121	0xbba42ff4	-0.0050105993
122	0xbebd17af	-0.36932132
123	0x3dfbe5b2	0.1229967
124	0x3e860c55	0.26181284
125	0xbea3cfc3	-0.31994447
126	0x3d288a50	0.04114753
127	0x3e53c737	0.20681463
128	0x3e508b68	0.2036568
129	0xbdf21f48	-0.11822373
130	0xbdbf4635	-0.09339563
131	0x3d3a1f4f	0.045440014
132	0xbea22f24	-0.3167659
133	0xbdc18dd1	-0.094508775
134	0x3e94cb3b	0.29061303
135	0x3cd77e00	0.026305199
136	0x3e6560bb	0.22400181
137	0xbe7dfee5	-0.24804266
138	0xbe02f193	-0.12787466
139	0x3e8bdcab	0.27316794
140	0x3c3e3fdb	0.011611904
141	0xbe37a937	-0.17935644
142	0xbea33d47	-0.31882688
143	0xbeaf8c9b	-0.3428696
144	0x3e9dc6b5	0.30815664
145	0x3e1eed70	0.15520263
146	0xbec0175c	-0.37517822
147	0xbcd51d61	-0.026014986
148	0x3e775584	0.24153715
149	0xbea59707	-0.32341787
150	0x3e11103a	0.14166346
151	0x3de6c4f4	0.112680346
152	0x3ea9609b	0.33081517
153	0x3e6c6848	0.23086655
154	0x3ebce03e	0.36889833
155	0x3cedca52	0.029027138
156	0x3e989011	0.29797414
157	0x3e3e0331	0.18555905
158	0x3e4c7768	0.19967425
159	0xbd4f0c4f	-0.050548848
160	0xbef70150	-0.4824319
161	0xbe8ffd03	-0.2812272
162	0xbe6e02b5	-0.2324322
163	0x3cd093b9	0.025461065
164	0xbdd216e2	-0.10258271
165	0xbc85431a	-0.016267348
166	0xbe34f6fc	-0.17672342
167	0xbddddeea	-0.10833533
168	0xbd82d1a0	-0.06387639
169	0xbea3b10f	-0.31971022
170	0xbe8dc6c7	-0.27690718
171	0x3e9dad3a	0.30796224
172	0x3ed993c2	0.42495543
173	0x3ec043cd	0.37551728
174	0x3dc16e50	0.094448686
175	0x3e62e2bf	0.2215681
176	0xbe1b3e00	-0.1516037
177	0x3e7fda7f	0.24985693
178	0x3eba2201	0.36354068
179	0xbec470a8	-0.383672
180	0x3e2284d9	0.1587099
181	0xbe4d55e5	-0.20052297
182	0x3e94756b	0.28995833
183	0xbe00af25	-0.12566812
184	0x3e41b083	0.1891499
185	0x3e3391c6	0.17536077
186	0x3e439e26	0.19103298
187	0xbe061a56	-0.13095984
188	0xbc721f21	-0.0147779295
189	0xbdae177b	-0.08500572
190	0xbd0d9a23	-0.034570824
191	0x3ebfd467	0.37466738
192	0xbe89515e	-0.2681989
193	0x3e283880	0.16427803
194	0xbdd8cca4	-0.10585907
195	0xbd558b0a	-0.05213455
196	0xbe2704b0	-0.16310382
197	0x3cd39fa9	0.025832968
198	0xbe991406	-0.2989809
199	0x3ddf886d	0.10914693
200	0x3e197340	0.1498537
201	0x3e090c12	0.1338351
202	0xbcdfb956	-0.027310055
203	0x3c359be5	0.011084531
204	0xbe139de3	-0.14415698
205	0xbdf0d155	-0.11758677
206	0x3e189a78	0.14902675
207	0x3eb77aba	0.3583582
208	0xbb9d220c	-0.0047953185
209	0xbdd855eb	-0.105632626
210	0x3c8e65fa	0.01738261
211	0xbe2ec56f	-0.17067502
212	0xbea5e9e7	-0.32405016
213	0xbe4fd031	-0.20294262
214	0x3e606bfb	0.21916191
215	0xbea46d9d	-0.32114878
216	0xbe2f9645	-0.17147167
217	0xbe8d2499	-0.27566984
218	0x3ed5e10d	0.41773263
219	0x3e837a90	0.25679445
220	0xbe5d133b	-0.21589367
221	0x3ebbe171	0.36695436
222	0x3e487370	0.19575286
223	0xbedf16cc	-0.4357208
224	0x3e487de7	0.19579278
225	0x3dac0a00	0.08400345
226	0x3db30189	0.08740527
227	0xbe7db825	-0.24777277
228	0xbd5d71f5	-0.054063756
229	0xbe3c89a2	-0.18411878
230	0xbe986a33	-0.29768524
231	0x3c9e2f36	0.019309621
232	0x3e836dd4	0.2566973
233	0xbdb5ed1a	-0.08883114
234	0xbeb42e0b	-0.35191378
235	0xbebe0f13	-0.37120876
236	0x3e8eace2	0.27866274
237	0xbe5a8f87	-0.21343814
238	0x3e95b202	0.29237372
239	0xbe118a4c	-0.14212912
240	0xbe06b1dd	-0.13153787
241	0xbe9dcd4e	-0.30820698
242	0xbbcc79de	-0.0062401136
243	0x3d4892bd	0.048968066
244	0x3cc8800e	0.024475124
245	0x3eabf9e7	0.33589098
246	0xbe82aead	-0.25523892
247	0x3e61a940	0.2203722
248	0xbd61f181	-0.055161957
249	0x3e633e9e	0.22191855
250	0xbdf5eeb8	-0.120084226
251	0x3e81c352	0.2534433
252	0xbeb4e466	-0.35330504
253	0x3e3a9345	0.18220241
254	0xbe7a393b	-0.24435894
255	0xbdb1018d	-0.08642874

weight f4 [128, 256]
0	0xbd74f24d	-0.05980139
1	0xbd03c7a0	-0.0321728
2	0x3b854314	0.004066834
3	0x3c8e36c8	0.017360106
4	0xbd36cf7a	-0.04463146
5	0xbcb6a0e1	-0.02229351
6	0x3d1a0ceb	0.037609976
7	0x3d028b86	0.03187134
8	0xbcd62404	-0.02614022
9	0x3d46d74a	0.04854516
10	0xbceaf98c	-0.028683446
11	0x3ac623c0	0.0015116856
12	0xbc2f19ed	-0.0106873335
13	0xbc9e6f9c	-0.019340329
14	0xbd442c24	-0.04789366
15	0x3ccec169	0.02523871
16	0x3ce057b4	0.02738557
17	0xbd1e6060	-0.03866613
18	0xbd2a0cd7	-0.04151615
19	0xbcfd71e4	-0.030938096
20	0x3d3d8d17	0.046277132
21	0xbd25b54e	-0.04045611
22	0xbd018121	-0.031617288
23	0xbd3a9fce	-0.045562558
24	0x3d2c3eb5	0.04205199
25	0xbcd3d264	-0.025857158
26	0xbc57774d	-0.013151002
27	0xbd843d3b	-0.06456991
28	0xbcfd6084	-0.030929811
29	0xbcc7a9f2	-0.024373028
30	0xbd48af4e	-0.04899531
31	0xbd093e2a	-0.03350655
32	0x3c5d72b0	0.013516113
33	0xbd361fe1	-0.044463996
34	0xbc27a0d9	-0.01023122
35	0x3c88c878	0.016697153
36	0xbd0f2321	-0.03494561
37	0x3cbb2edc	0.022849493
38	0x3c993ca1	0.018705668
39	0x3d0d707e	0.03453111
40	0xbd66678b	-0.05625109
41	0xbc6b0470	-0.01434432
42	0xbd6faa0a	-0.05851177
43	0xbb81c35f	-0.0039600576
44	0xbb9148d0	-0.0044337288
45	0x3cbb0f0c	0.022834323
46	0xbd1be862	-0.038063414
47	0xbcaed5d4	-0.021342196
48	0xbcca31ec	-0.024682008
49	0x3d3b155a	0.04567466
50	0x3c96ed28	0.018423632
51	0x3c883f88	0.016631857
52	0xbcbe3787	-0.023219837
53	0xbcf760b8	-0.030197486
54	0x3bd789d6	0.0065777106
55	0x3d460a68	0.048349768
56	0x3d48cd38	0.049023837
57	0xbcd80068	-0.026367381
58	0xbcaf3204	-0.021386154
59	0x3d02d864	0.031944647
60	0xbd04e24d	-0.03244238
61	0xbca617e4	-0.020275064
62	0x3d6f3bea	0.058406748
63	0xbc367b73	-0.011137831
64	0x3d152597	0.0364128
65	0x3d44ee9c	0.048079118
66	0xbd7eb37c	-0.06218289
67	0x3d2c2b67	0.04203358
68	0xbcb87df0	-0.02252099
69	0xbce2f167	-0.027703
70	0xbd1e8081	-0.03869677
71	0xbd1bb14f	-0.03801089
72	0xbba4290c	-0.005009776
73	0x3b1c304c	0.0023832498
74	0xbd6a7805	-0.057243366
75	0xbb8f91f8	-0.0043814145
76	0xbd1eb018	-0.038742155
77	0x3c9fac08	0.01949121
78	0xbd32895a	-0.04358802
79	0xbc9b1118	-0.01892905
80	0x3cabf4a4	0.020990677
81	0xbceb193e	-0.02869856
82	0x3d19c89e	0.03754484
83	0xbd507677	-0.050894227
84	0x3c5ee040	0.01360327
85	0xbd3f125f	-0.04664838
86	0x3cf2bf4a	0.02963223
87	0x3cc8663e	0.024462815
88	0x3c97c970	0.01852867
89	0x3d36ccd4	0.044628933
90	0xbc84d694	-0.0162156
91	0xbd833b12	-0.06407751
92	0xbb94d530	-0.0045420155
93	0xbd0ac2cf	-0.03387719
94	0xbd4e2578	-0.0503287
95	0x3d24fab2	0.040278144
96	0xbd086562	-0.03329981
97	0xb9d00200	-0.00039674342
98	0x3d07ef62	0.033187278
99	0x3d1a3b96	0.03765448
100	0xbd6e1d78	-0.058133572
101	0xbd266345	-0.040622015
102	0xbd5e6080	-0.05429125
103	0x3cf653c0	0.030069232
104	0xbccda804	-0.02510453
105	0xbd4fc6dd	-0.05072676
106	0x3ccb3c7c	0.024809115
107	0xbd2ef0bc	-0.04271005
108	0x3d643822	0.055717595
109	0x398ff800	0.0002745986
110	0xbd343284	-0.043993488
111	0xbd228609	-0.039678607
112	0xbc398af7	-0.011324636
113	0x3c0b8dbf	0.008517682
114	0x3bb456c0	0.0055035055
115	0x3d1598b4	0.036522582
116	0xbcf6cfff	-0.030128477
117	0xbb4c2e4a	-0.003115552
118	0x397ef400	0.00024314225
119	0x3c4cc688	0.012498505
120	0xbd233d47	-0.03985336
121	0x3d61c4c9	0.05511931
122	0x3d1bd3d1	0.0380438
123	0xbd1c2cb4	-0.03812857
124	0xbbc8a8c1	-0.0061236327
125	0xbcb9ec4c	-0.022695683
126	0xbb2b4c20	-0.0026137903
127	0x3cabef4d	0.020988131
128	0x3d1cddfa	0.03829763
129	0x3cf2db14	0.02964548
130	0xbd1f777c	-0.03893231
131	0x3d3a29c1	0.045449976
132	0xbd67e9eb	-0.056619566
133	0x3ca73310	0.02041009
134	0xbc33eb46	-0.0109813865
135	0xbd7e80dc	-0.06213461
136	0x3d568928	0.052376896
137	0xbd6ae041	-0.05734277
138	0x3c169658	0.009191118
139	0x3b541760	0.0032362565
140	0x3b69bd66	0.0035665869
141	0xbd39bb19	-0.045344446
142	0x3c81dd80	0.01585269
143	0xbd1f61d5	-0.03891166
144	0xbdaa76c2	-0.083234325
145	0x3d0a7806	0.03380587
146	0x3b1de12a	0.0024090507
147	0x3c5c0d76	0.013430944
148	0xbd4b3abc	-0.04961656
149	0xbc1f996b	-0.009741168
150	0x3d221584	0.0395713
151	0xbd0ec926	-0.0348598
152	0xbbdd16de	-0.0067471107
153	0xbc85958c	-0.016306661
154	0xb9d937f4	-0.00041431154
155	0x3d0424b0	0.03226155
156	0x3c9d0c78	0.019170985
157	0x3d3ec555	0.04657491
158	0x3d376b73	0.044780206
159	0xbd371218	-0.04469499
160	0xbd084302	-0.03326703
161	0x3d1f2e9d	0.038862813
162	0x3d1ec84a	0.03876523
163	0x3c505cc7	0.012717432
164	0x3c9d34dd	0.019190246
165	0xbd793e53	-0.060850453
166	0x3d247ff2	0.04016108
167	0xbcde4fb6	-0.027137619
168	0x3cf215e8	0.029551461
169	0xbd84e2df	-0.06488585
170	0x3d4358f1	0.047692243
171	0xbd2b4e4d	-0.04182272
172	0xbd756e81	-0.059919838
173	0xbd60d8f7	-0.054894414
174	0xbd2bc874	-0.041939214
175	0x3cbbf3e5	0.022943446
176	0x3d2a65fe	0.041601174
177	0x3c761cab	0.015021483
178	0xbd03da7c	-0.032190785
179	0x3d336f4d	0.043807317
180	0x3d2048d8	0.03913197
181	0x3d4c20eb	0.04983608
182	0x3d1e0e62	0.038587935
183	0x3d5a781e	0.05333721
184	0xbd6fd97e	-0.058557026
185	0xbbe7324c	-0.0070555564
186	0xbd6716c4	-0.056418195
187	0x3d266602	0.040624626
188	0xbd1ae215	-0.037813265
189	0x3d6674a8	0.056263596
190	0xbbdf0930	-0.006806515
191	0x3aba334b	0.001420596
192	0xbd7a0980	-0.061044216
193	0xbd622f0e	-0.055220656
194	0xbd797020	-0.060897946
195	0xbd99a7f4	-0.07502738
196	0x3d1bc83d	0.03803276
197	0x3c4631d0	0.012096837
198	0xbc0b9d74	-0.0085214265
199	0xbd6fe056	-0.058563553
200	0x3cd9dbe8	0.026594117
201	0xbce3c6e4	-0.0278048
202	0xbd593198	-0.053025812
203	0x3b84e4f0	0.004055612
204	0xbb4142a0	-0.0029489174
205	0xbd7d16a6	-0.061789177
206	0x3d267af4	0.0406446
207	0xbd701246	-0.058611177
208	0x3bec4f7d	0.007211624
209	0xbd0f45d2	-0.034978695
210	0xbd86219b	-0.065493785
211	0x3d574307	0.052554157
212	0xba562118	-0.00081683835
213	0xbd838c4e	-0.06423245
214	0x3c86d9a4	0.016461201
215	0xbc80ed08	-0.015738025
216	0x3ceb876a	0.028751094
217	0xbce0cda8	-0.027441815
218	0xbd2d8892	-0.04236657
219	0x3aba29c0	0.0014203116
220	0xbd913646	-0.0709043
221	0xbd6bcede	-0.05757033
222	0x3d004d41	0.031323675
223	0xbd155f09	-0.036467586
224	0xbc2140c0	-0.009842098
225	0x3d13d1f9	0.036088917
226	0xbd2ee918	-0.042702764
227	0xbc63ed58	-0.013911568
228	0xbb9dbdab	-0.00481387
229	0x3d62a1f4	0.05533023
230	0xbd3c2ad8	-0.045939296
231	0xbd89ae1c	-0.06722662
232	0x3ca11ebc	0.019667976
233	0xbd7a0d7d	-0.06104802
234	0x3d14ca7f	0.036325928
235	0x3ce1395b	0.02749317
236	0xbd47079d	-0.048591245
237	0xbd24f92b	-0.040276688
238	0xbd420b90	-0.047374308
239	0xbc8b55a5	-0.017008612
240	0x3c874414	0.016511954
241	0x3d2d1da2	0.04226459
242	0x3a1a8d80	0.0005895719
243	0xbd219a6d	-0.039453913
244	0xbd031eac	-0.032011673
245	0xb9610600	-0.00021459907
246	0xbd73fb71	-0.059565965
247	0xbd09cf6a	-0.03364507
248	0x3b9c349d	0.004767014
249	0xbd8540e4	-0.065065175
250	0x3bf45800	0.0074567795
251	0xbc3a02fa	-0.011353249
252	0xbc7e9032	-0.0155373085
253	0x3d7b6cbc	0.061382994
254	0xbd7dc4fa	-0.06195543
255	0x3d5ef7e7	0.054435637

bias f4 [128]
0	0x3ba1edd7	0.004941683
1	0x3ce5b4c0	0.02804029
2	0x3c6011d1	0.013676123
3	0x3d230bac	0.039806053
4	0xbce519ab	-0.027966341
5	0xbcb0d03e	-0.021583673
6	0xbdfbd469	-0.122963734
7	0xbd1f4790	-0.038886607
8	0xbcf34b94	-0.029699124
9	0x3c70a9d5	0.014688929
10	0xbd8cf09f	-0.06881832
11	0xbc3c66ac	-0.011499088
12	0xbdc12257	-0.09430378
13	0xbcf05551	-0.029337557
14	0xbd87eec8	-0.06637341
15	0x3d5b1806	0.053489707
16	0x3c1b753d	0.009488401
17	0x3dd55668	0.10416871
18	0xbca4d30d	-0.020120168
19	0xbd6bfa78	-0.057611912
20	0xbd952131	-0.072817214
21	0xbd656ccf	-0.05601197
22	0x3d9822ad	0.07428489
23	0xbe2c6faa	-0.16839471
24	0x3e2ab9b2	0.166724
25	0x3ccfd7ae	0.025371399
26	0x3d236751	0.039893452
27	0xbe1a39fe	-0.15061185
28	0xbd8c3594	-0.06846157
29	0xbb4b9f6f	-0.0031070372
30	0x3c494e61	0.012286753
31	0xbd81e28c	-0.063420385
32	0xbc473e86	-0.012160903
33	0xbce62cac	-0.028097473
34	0xbd6bb403	-0.05754472
35	0x3cd8f175	0.026482323
36	0xbc9e521d	-0.019326264
37	0x3d43ef58	0.047835678
38	0xbd0fe4b2	-0.03513021
39	0xbcef69b0	-0.0292252
40	0x3d9a4e89	0.07534511
41	0x3cc1de88	0.023665681
42	0x3d7354cc	0.05940704
43	0x3c1b8852	0.0094929505
44	0xbe0a8aef	-0.13529561
45	0xbb8979db	-0.0041954345
46	0xbe0d8bc6	-0.1382285
47	0x3d05e1de	0.032686107
48	0x3d0c4849	0.034248624
49	0xbbb5d396	-0.0055489046
50	0x3de7a735	0.11311189
51	0x3cc09d17	0.023512406
52	0x3ce93d79	0.028471695
53	0x3cebd1a4	0.028786488
54	0xb6e9f7aa	-6.972773e-06
55	0x3d9f8c49	0.07790429
56	0x3cea2bd6	0.028585356
57	0xbd807a83	-0.06273367
58	0xbd7f0823	-0.06226362
59	0xbd9062ad	-0.07050071
60	0xbd387d0c	-0.04504113
61	0x3c8be2a1	0.017075839
62	0x3c80d49a	0.015726376
63	0xbc6b37ec	-0.0143565945
64	0x3d29391d	0.041314233
65	0x3c9e93a5	0.019357512
66	0x3d4f61ce	0.050630383
67	0xbd883073	-0.06649866
68	0x3cc1a763	0.023639387
69	0xbe0595db	-0.13045447
70	0xbd5f8f75	-0.05458017
71	0xbcd826a0	-0.026385605
72	0xbd3e3303	-0.046435367
73	0xbd2e7546	-0.04259231
74	0xbce6bbc5	-0.028165707
75	0x3cf6917c	0.03009867
76	0x3da31838	0.07963604
77	0x3d146a28	0.03623405
78	0x3d394b97	0.045238104
79	0x3c4c5a1f	0.012472658
80	0x3e1d9b10	0.15391183
81	0x3ce41e53	0.027846491
82	0xbc6cf636	-0.014462998
83	0xbd74ed5b	-0.059796672
84	0x3c654abd	0.01399487
85	0xbc63b542	-0.013898196
86	0x3d8c11d0	0.06839335
87	0xbd982944	-0.07429746
88	0xbd7b757b	-0.061391335
89	0xbd0d6993	-0.03452451
90	0xbd4d3e6a	-0.05010835
91	0xbe273362	-0.16328195
92	0x3e21c1f7	0.15796648
93	0x3c8890fa	0.016670693
94	0xbd718226	-0.05896201
95	0x3d625c1e	0.05526363
96	0x3bb2964c	0.0054500457
97	0xbd369273	-0.04457326
98	0xbb86a012	-0.0041084373
99	0xbbf73d03	-0.007545115
100	0xbde31c99	-0.11089439
101	0x39caa953	0.000386546
102	0xbd944e33	-0.07241478
103	0xbd796d8f	-0.0608955
104	0xbd0c9d2a	-0.03432957
105	0x3e225b96	0.1585525
106	0xbb831ed6	-0.0040014787
107	0x3d938ff3	0.072051905
108	0x3cd9362e	0.026515093
109	0xbcec0c62	-0.028814498
110	0x3cd08295	0.025452891
111	0x3de1c21e	0.11023353
112	0xbcc6f3b5	-0.02428613
113	0x3dfcb551	0.12339271
114	0x3d2dcb65	0.0424303
115	0x3d09e340	0.033663988
116	0x3d8d1413	0.068885945
117	0xbce1290d	-0.027485395
118	0xbd8997a2	-0.06718375
119	0x3d7114d2	0.058857746
120	0x3cffe0ac	0.031235062
121	0x3da4bed7	0.08044212
122	0x3d7958df	0.06087577
123	0xbc418305	-0.011811023
124	0x3d3b9903	0.04580022
125	0x3af22f18	0.001847717
126	0xbab88440	-0.00140775
127	0xbd6b9d73	-0.057523202

weight f4 [128, 128]
0	0x3c0cb072	0.00858699
1	0xbdd09a15	-0.10185639
2	0xbd5aaa2d	-0.05338495
3	0x3e2579d5	0.16159756
4	0xbca56d6e	-0.020193782
5	0xbb3c2ac4	-0.0028712014
6	0xbc1c2e20	-0.009532481
7	0xbc798f09	-0.015231856
8	0xbda7e8fa	-0.08198734
9	0xbdc4d2cf	-0.09610521
10	0xbd9f47dd	-0.07777379
11	0xbd885b5e	-0.06658052
12	0xbd5ee4d1	-0.054417435
13	0x3d55aba7	0.052165654
14	0xbdba9c02	-0.091117874
15	0x3c334685	0.010942106
16	0xbe303bb1	-0.1721027
17	0x3d602ecb	0.054732125
18	0xbc46679f	-0.012109666
19	0x3da75f65	0.08172492
20	0xbdb35330	-0.08756101
21	0xbd80a4e6	-0.06281452
22	0x3db1647c	0.08661744
23	0xbe2bcb61	-0.16776802
24	0xbd608c3f	-0.05482125
25	0xbd947d11	-0.07250417
26	0x3cfe2e26	0.031027865
27	0x3cb17d1b	0.0216661
28	0x3d6f4162	0.058411963
29	0x3c64930e	0.013951076
30	0xbd11d4e5	-0.035603423
31	0xbd002378	-0.031283826
32	0xbdc1d51a	-0.09464474
33	0x3dde3e22	0.10851695
34	0xbd9d7975	-0.07689182
35	0xbd9d61a6	-0.076846406
36	0x3c52b332	0.012860106
37	0x3d9f0fab	0.0776666
38	0x3b7e0e6e	0.0038765925
39	0x3c739c9b	0.014868881
40	0xbc4cbcfc	-0.012496229
41	0xbdcd0e42	-0.10012485
42	0x3d9b9d69	0.07598383
43	0x3d5b634c	0.053561494
44	0xbb095d0b	-0.002096
45	0xbcd72c3d	-0.026266212
46	0xbdda9f56	-0.10674922
47	0x3d1b5652	0.03792412
48	0xbd8f140b	-0.06986245
49	0xbb86e636	-0.0041167988
50	0xbdb0d49f	-0.08634304
51	0x3c09044f	0.008362844
52	0xbc8f4685	-0.017489681
53	0x3d4f21b4	0.05056925
54	0x3ce6233a	0.02809297
55	0x3d267e1e	0.04064762
56	0x3d96a35f	0.07355379
57	0x3db6d226	0.089268014
58	0xbd1f2508	-0.038853675
59	0x3c1cc921	0.009569437
60	0x3d93f61d	0.07224677
61	0x3aabfc3a	0.0013121434
62	0x3db8385f	0.08995127
63	0x3be7c276	0.007072742
64	0x3d75a90d	0.059975673
65	0x3d6bef72	0.0576014
66	0x3c04d119	0.008106493
67	0x3d51c428	0.05121246
68	0xbca7986e	-0.020458426
69	0xbd772a0e	-0.06034284
70	0xbe1fc4ba	-0.15602389
71	0xbdf71f85	-0.12066559
72	0x3aa2e873	0.0012428894
73	0x3da0d7de	0.078536734
74	0xbb77ce70	-0.0037812255
75	0xbc5cd334	-0.013478089
76	0x3d2d36b6	0.042288505
77	0x3ba73b9c	0.0051035415
78	0xbd222e30	-0.03959483
79	0xbc537e0d	-0.012908471
80	0xbdb80b23	-0.08986499
81	0xbbab01a2	-0.0052187005
82	0xbd0c682d	-0.034279037
83	0x3df2ce7a	0.118557885
84	0xba2eef52	-0.0006673235
85	0x3dac9fbf	0.08428907
86	0x3dbe7b8a	0.09300907
87	0xbd0895a2	-0.033345826
88	0xbc93d4d5	-0.018045822
89	0xbb9a78de	-0.0047141155
90	0x3d519549	0.05116776
91	0x3d11c010	0.035583556
92	0xbc587b0a	-0.013212929
93	0x3d926279	0.071476884
94	0xbce568be	-0.028004047
95	0x3ce0cb64	0.027440734
96	0x3d1ac9a4	0.037789956
97	0x3dbde550	0.092722535
98	0xbd6c9ea5	-0.057768483
99	0xbc9270e7	-0.017876102
100	0xbe1612fd	-0.14655681
101	0x3b2fb416	0.002681022
102	0xbd8deaa7	-0.06929522
103	0x3ca739d2	0.020413313
104	0x3dc3396c	0.09532437
105	0xbc0ddb4a	-0.00865824
106	0xbd29eb2d	-0.041484047
107	0x3d63bbb2	0.055598922
108	0x3c8a4589	0.01687886
109	0x3945d540	0.00018866826
110	0x3c9f4487	0.019441856
111	0xbcd6105f	-0.026130853
112	0x3d39e19f	0.045381185
113	0xbdd6c513	-0.10486808
114	0x3d350689	0.044195686
115	0x3cb5dcb7	0.022199972
116	0xbda1c6ee	-0.07899271
117	0x3da6e462	0.08149029
118	0x3d847416	0.06467454
119	0xbd476211	-0.048677508
120	0x3d066024	0.03280653
121	0xbd6a33b3	-0.05717821
122	0x3d18ce7b	0.03730629
123	0xbd9195b4	-0.07108632
124	0xbbb95b63	-0.005656646
125	0xbb81782f	-0.0039510946
126	0xbdb86be5	-0.09004954
127	0x3ca24d91	0.019812377
128	0x3da817ce	0.082076654
129	0xbd59b48e	-0.053150706
130	0x3ca8db27	0.020612312
131	0xbb41908f	-0.0029535627
132	0xbdb7e8a8	-0.089799225
133	0x3bc581ab	0.0060274205
134	0xbd33b1e7	-0.043870833
135	0x3d9aa8e8	0.075517476
136	0xbd01c74b	-0.0316842
137	0x3da62440	0.08112383
138	0xbd1fbefc	-0.039000496
139	0x3b46efef	0.0030355414
140	0x3cf697ee	0.030101743
141	0x3d81b725	0.0633376
142	0x3bacc1fb	0.0052721477
143	0x3d00e5ce	0.03146916
144	0x3c1d8dfe	0.009616373
145	0x3b8e0226	0.004333752
146	0xbdded39e	-0.108802065
147	0x3d85bd2f	0.065302245
148	0xbd26302f	-0.040573295
149	0x3d9b785e	0.075913176
150	0x3c9406c7	0.018069638
151	0xb9ebd438	-0.00044980808
152	0xbd7b3489	-0.0613294
153	0xbd87bb47	-0.06627517
154	0x3d8dea85	0.06929497
155	0x3d280450	0.041019738
156	0x3d8bc407	0.068244986
157	0xbc82a0dd	-0.015945846
158	0xbdaf660e	-0.08564387
159	0x3d4f01d7	0.050538864
160	0xbb864e6e	-0.004098705
161	0xbbc28f52	-0.0059374953
162	0x3d8b00ad	0.06787238
163	0x3da74140	0.08166742
164	0x3d81e727	0.06342917
165	0xbc45fa7f	-0.012083649
166	0xbafb24fa	-0.00191608
167	0xbc628c1a	-0.013827348
168	0x3d859ff2	0.06524648
169	0xbd6ce16e	-0.057832174
170	0xbd8c6f5d	-0.06857178
171	0x3d9b1b40	0.07573557
172	0xbcfe6d12	-0.031057868
173	0x3d6be4d4	0.057591274
174	0xbd25c69b	-0.040472608
175	0xbd40c777	-0.047065224
176	0x3d79e67c	0.061010823
177	0xbd443fd3	-0.04791243
178	0x3ceb5005	0.02872468
179	0x3d0dfb28	0.03466335
180	0xbce9a049	-0.028518813
181	0x3c434800	0.011919022
182	0xbcfb59ce	-0.03068247
183	0xbdb2522e	-0.08707081
184	0x3d0167ce	0.031593136
185	0x3da8d377	0.08243459
186	0x3c25d9f6	0.010122767
187	0xbd0112dc	-0.031512126
188	0xbda3045f	-0.07959818
189	0xbd5916cd	-0.05300026
190	0xbc833116	-0.016014617
191	0xbd65a2a2	-0.0560633
192	0xbd8e9a86	-0.06963067
193	0x3bce41e8	0.0062944777
194	0x3d85048e	0.06495009
195	0xbcd53a67	-0.026028825
196	0xbd43098c	-0.047616526
197	0xbdcbb4d9	-0.09946603
198	0x3d7587cc	0.05994396
199	0xbcf3614a	-0.029709477
200	0xbc8a220e	-0.016861942
201	0xbd4cf471	-0.050037805
202	0x3da1c9a8	0.07899791
203	0xbd7d8d80	-0.061902523
204	0xbd96c346	-0.07361464
205	0xbd1431cb	-0.0361803
206	0xbd96c62e	-0.073620185
207	0xbd955d81	-0.07293225
208	0xbbeb1337	-0.0071739214
209	0xbdb61ead	-0.0889257
210	0xbd23469e	-0.039862268
211	0xbd00b368	-0.031421095
212	0xbd98038e	-0.07422553
213	0xbc4c84dc	-0.012482848
214	0xbd2f47f5	-0.042793233
215	0x3c98f4d5	0.018671433
216	0xbda00c4b	-0.07814845
217	0xbc9419b2	-0.018078659
218	0x3c3c40d7	0.011490068
219	0x3cd84e4d	0.026404524
220	0xbc1197d3	-0.008886295
221	0x3d700ca6	0.058605812
222	0x3bcc7750	0.006239809
223	0x3d25649d	0.040379155
224	0xbd8b0e8b	-0.06789883
225	0xbd492565	-0.049107928
226	0xbd5ba790	-0.053626597
227	0xbd299bb3	-0.041408252
228	0xbd55e215	-0.05221756
229	0x3cbb4d22	0.022863928
230	0xbd39cb8f	-0.045360144
231	0x3da74125	0.08166722
232	0x3d28d821	0.04122174
233	0xbd318532	-0.043339916
234	0xbb7f5dc1	-0.0038965794
235	0xbd8379e1	-0.06419731
236	0xbcf17f54	-0.02947966
237	0xbc4d8b54	-0.012545425
238	0xbd241f6c	-0.04006903
239	0x3d9985f5	0.074962534
240	0x3c93e9db	0.018055847
241	0xbd74da98	-0.05977878
242	0x3c824174	0.015900351
243	0x3d655e08	0.05599788
244	0xbd21fe50	-0.039549172
245	0x3c0c63b8	0.008568697
246	0x3ced7145	0.028984675
247	0xbdc0babf	-0.09410619
248	0x3c97d1ef	0.018532721
249	0xbdc6751e	-0.09690307
250	0x3ccf4081	0.025299313
251	0x3c2b27e1	0.01044652
252	0xbc223644	-0.009900633
253	0xbd2b3de5	-0.041807074
254	0xbdb94f8e	-0.09048377
255	0xbb837391	-0.0040115793

bias f4 [128]
0	0x3d8674da	0.065652564
1	0xbd2bd04c	-0.041946694
2	0xbd82fff5	-0.06396476
3	0x3d0481f2	0.032350488
4	0xbd9f0525	-0.07764653
5	0x3e345537	0.17610632
6	0xbe1a7dc6	-0.15087041
7	0xbd8c5385	-0.068518676
8	0xbc800573	-0.015627598
9	0x3d811c64	0.06304243
10	0xbd1f0465	-0.03882255
11	0xb9853352	-0.00025405973
12	0x3dae4012	0.08508314
13	0x3dea7c74	0.11449519
14	0xbded054f	-0.11573278
15	0x3cc1b219	0.023644494
16	0x3de28db4	0.11062184
17	0x3e114c60	0.14189291
18	0x3d532098	0.051544756
19	0x3c30532c	0.010762017
20	0x3cbfd66e	0.023417678
21	0x3e224d29	0.15849747
22	0xbc2e40fa	-0.010635609
23	0xbd3ba7f1	-0.04581446
24	0xbb9ea2b8	-0.004841175
25	0x3c959a91	0.01826218
26	0x3e3fd835	0.1873482
27	0xbe0372aa	-0.1283671
28	0xbdaffcba	-0.08593126
29	0xbdbf7c1d	-0.093498446
30	0x3e530215	0.20606263
31	0xbd8b8491	-0.068123944
32	0xbc30c9ff	-0.010790347
33	0x3d0eaabe	0.0348308
34	0xbdb5cdf9	-0.08877177
35	0x3e2bd274	0.167795
36	0x3d5bfb85	0.053706665
37	0x3d0f1c29	0.034938965
38	0xbd303f61	-0.043029193
39	0x3e1c6d13	0.15275984
40	0xbd90a56e	-0.07062803
41	0xbdd3ce52	-0.10342087
42	0x3dee5a88	0.11638361
43	0x3d22cc02	0.03974534
44	0xbe15e551	-0.14638259
45	0xbd16230b	-0.036654513
46	0x3d8a74e8	0.06760579
47	0xbdde5688	-0.10856348
48	0x3dd570ca	0.104219034
49	0x3d848638	0.06470913
50	0xbcb26526	-0.021776747
51	0xbdf38eb4	-0.11892453
52	0x3d024530	0.031804264
53	0xbdd3bd2b	-0.10338815
54	0xbdfe889d	-0.12428401
55	0xbd6ad027	-0.057327416
56	0xbd2d3d88	-0.04229501
57	0xbd40e592	-0.047093935
58	0xbdfc551c	-0.12320921
59	0xbd577865	-0.05260505
60	0xbd5835be	-0.052785628
61	0xbcc95b82	-0.024579767
62	0x3b133c52	0.0022466374
63	0xbdbf1b14	-0.093313366
64	0xbd69e8b6	-0.057106696
65	0xbddec49a	-0.108773425
66	0x3d95de80	0.07317829
67	0x3a8ef3af	0.0010906364
68	0x3e08526e	0.13312694
69	0x3e5b559d	0.21419378
70	0xbd000443	-0.031254064
71	0xbc289e34	-0.010291625
72	0x3c0468c2	0.008081617
73	0x3b7fa9c0	0.003901109
74	0x3da36c18	0.079796016
75	0x3c2ca3a5	0.010537063
76	0x3df41752	0.119185105
77	0xbc46a63a	-0.012124592
78	0xbd01d106	-0.03169348
79	0xbdc45a05	-0.09587482
80	0xbd908203	-0.07056048
81	0x3d72531f	0.0591613
82	0x3dcb9420	0.09940362
83	0x3d9e7278	0.07736677
84	0x3d5b575e	0.053550117
85	0xbdd9158d	-0.105998136
86	0xbd7852ed	-0.06062596
87	0x3db6e977	0.08931249
88	0x3e03fd8f	0.12889694
89	0x3df21577	0.118205
90	0x3c48ee91	0.01226391
91	0x3e2a32be	0.16620919
92	0xbd3d4567	-0.046208765
93	0x3be8fa1f	0.007109895
94	0x3dd9e30a	0.106390074
95	0xbe0a33ed	-0.1349637
96	0xbe22b0a6	-0.15887699
97	0xbde865b3	-0.113475226
98	0xbd84df2c	-0.06487879
99	0xbdbc8a05	-0.09206013
100	0xbc84a248	-0.016190663
101	0xbe0b0c89	-0.13579
102	0xbc5992fe	-0.013279675
103	0xbd9eb6d8	-0.077497184
104	0xbdc09b3e	-0.0940461
105	0x3dbe1e8c	0.0928317
106	0x3d5f1d00	0.054471016
107	0x3de55f0e	0.11199771
108	0x3e579474	0.21052724
109	0x3e0e3a44	0.13889414
110	0xbce2a1c3	-0.027665025
111	0xbd81bb80	-0.06334591
112	0x3c7c398a	0.015394578
113	0x3ce3b9a5	0.027798483
114	0x3e04bb51	0.1296208
115	0xbccaf0a7	-0.024772955
116	0xbdf1a747	-0.11799484
117	0xbd23ae4e	-0.03996115
118	0x3db20a3b	0.086933576
119	0x3d4cbe39	0.049986098
120	0x3e46518c	0.19367045
121	0xbd84479e	-0.064589724
122	0xbe0a3320	-0.13496065
123	0x3d852138	0.065004766
124	0x3bbcf07e	0.0057659736
125	0xbd8e18a8	-0.069382966
126	0xbda28d6e	-0.07937132
127	0x3e18ddad	0.14928313

weight f4 [128, 128]
0	0x3d5ee4d5	0.05441745
1	0xbd75808c	-0.059937045
2	0xbc3a5991	-0.011373893
3	0xbd0baeb0	-0.03410214
4	0x3d058d6f	0.032605585
5	0xbc18c46b	-0.009324173
6	0xbd7d59ea	-0.061853327
7	0x3d2530bc	0.04032968
8	0x3de1cbd5	0.11025206
9	0xbc8c3cc1	-0.017118813
10	0x3d56d42c	0.052448437
11	0xbde3c8a4	-0.111222535
12	0xbd1d76f5	-0.038443524
13	0xbda46126	-0.08026342
14	0x3d877066	0.06613235
15	0x3ce2a655	0.027667204
16	0xbdacd71d	-0.08439467
17	0x3ca6e18b	0.02037122
18	0xbd5198f5	-0.05117126
19	0x3d2c8f1a	0.04212866
20	0xbc9f742a	-0.019464571
21	0xbdbf20a2	-0.09332396
22	0xbd504761	-0.050849322
23	0xbae17ff8	-0.0017204275
24	0x3c852733	0.016254043
25	0x3c1d2d0a	0.009593258
26	0xbdc92321	-0.098211534
27	0x3d53f51e	0.051747434
28	0x3d992614	0.07477966
29	0x3c2691ee	0.010166628
30	0x3ba17356	0.004927079
31	0xbc847117	-0.016167207
32	0x3cf56d5a	0.02995937
33	0xbd4a2254	-0.049349144
34	0x3d4e6c63	0.050396334
35	0xbd947285	-0.07248405
36	0x3c46f758	0.012143932
37	0xbdb03c4e	-0.08605252
38	0xbca7adb5	-0.020468572
39	0xbd877c51	-0.06615508
40	0x3ca15eff	0.019698618
41	0xbd1a0cda	-0.037609912
42	0x3cacefd4	0.021110453
43	0x3ca43826	0.020046305
44	0xbd778e07	-0.060438182
45	0x3d899f7a	0.06719871
46	0xbe370ee6	-0.17876777
47	0xbc97dd6d	-0.018538201
48	0x3d991b4e	0.07475911
49	0xbd81a884	-0.0633097
50	0xbc4155e4	-0.011800263
51	0x3d4a39e0	0.0493716
52	0x3d0829fc	0.033243164
53	0x3d321564	0.04347743
54	0xbd4bd71b	-0.049765687
55	0x3a120072	0.00055695244
56	0x3d0a506d	0.033768106
57	0x3e1bb5d0	0.15206075
58	0xbaff6bc4	-0.0019487073
59	0x3cafd6e4	0.021464773
60	0xbdf39315	-0.11893288
61	0x3c9d8353	0.01922766
62	0x3deac0bb	0.11462542
63	0x3c09f86c	0.008421045
64	0xbd968260	-0.07349086
65	0xbdadac90	-0.08480179
66	0x3d0ce248	0.034395486
67	0xbd8582ea	-0.065191105
68	0xbc5806d0	-0.013185218
69	0xbd2ebfea	-0.042663492
70	0x3d4b1da0	0.0495888
71	0xbdd258ce	-0.102708444
72	0xbd208544	-0.039189592
73	0xbc4b1093	-0.012394088
74	0xbdbc638e	-0.09198676
75	0x3dcf941a	0.1013567
76	0x3d09fa3a	0.0336859
77	0x3d109577	0.03529879
78	0xbd2c978f	-0.042136725
79	0xbd36262c	-0.044469997
80	0x3cf44175	0.029816369
81	0x3a8d2444	0.0010768254
82	0xbe32a8d6	-0.17447218
83	0xbe2eec29	-0.17082275
84	0x3d91fd4e	0.07128392
85	0xbd086831	-0.03330249
86	0xbd14b58e	-0.036305957
87	0xbdbd8c21	-0.09255243
88	0xbd273225	-0.040819306
89	0xbd2132b8	-0.03935501
90	0xbe381ce4	-0.17979771
91	0xbe3c4e8e	-0.18389341
92	0xbd741118	-0.059586614
93	0x3db747c2	0.089492336
94	0x3de7eac9	0.113240786
95	0x3d814caf	0.06313454
96	0xbc269ab6	-0.010168722
97	0xbd94ebe1	-0.07271553
98	0xbcd62610	-0.026141196
99	0x3dce7629	0.10081131
100	0x3bd244dc	0.0064169
101	0x3dac42c1	0.0841117
102	0x3b100ceb	0.0021980356
103	0xbd084732	-0.033271022
104	0xbd7c040f	-0.061527308
105	0x3c2cb880	0.010542035
106	0xb9eb26d2	-0.00044851616
107	0xbd05e4d9	-0.03268895
108	0x3d9dc12a	0.07702859
109	0xbd392bfd	-0.045207966
110	0x3d75905b	0.05995212
111	0x3d80438f	0.06262886
112	0x3d63b410	0.055591643
113	0x3d802e0b	0.06258782
114	0x3ba9baca	0.0051797377
115	0x3ce88fb8	0.028388843
116	0x3c3b6b5d	0.011439172
117	0x3ccf11e4	0.025277086
118	0x3dbb3404	0.091407806
119	0x3d4638e8	0.048394114
120	0x3d767b5d	0.060176242
121	0xbc2f592d	-0.0107024135
122	0xbc89ada7	-0.016806437
123	0x3c4626b4	0.0120941885
124	0xbda86cb5	-0.08223859
125	0xbd706c0e	-0.0586968
126	0x3d7adbc1	0.06124473
127	0x3dfd8ccd	0.12380371
128	0xbd2ac7ad	-0.041694332
129	0xbda98bbd	-0.08278606
130	0x3d2ffc77	0.04296538
131	0x3c45fb09	0.012083777
132	0xbd8055a7	-0.06266337
133	0x3c93c8f1	0.018040152
134	0xbd253b08	-0.0403395
135	0xbd85ef8a	-0.06539829
136	0xbd9a859e	-0.07545017
137	0xbcd46f24	-0.025931902
138	0xbd95fea0	-0.073239565
139	0xbe055883	-0.13022046
140	0xbafe6674	-0.0019409196
141	0x3d8ae22d	0.06781421
142	0xbdc4c92d	-0.09608684
143	0xbd0029cd	-0.031289864
144	0xbdac8e1c	-0.08425543
145	0xbcd0c042	-0.0254823
146	0xbb8b4389	-0.004249994
147	0x3d5e90d9	0.054337356
148	0xbb7591ff	-0.0037471054
149	0x3d6386c2	0.055548437
150	0xbd910d99	-0.07082672
151	0xbd9e57e2	-0.07731606
152	0xbd0de4de	-0.034642093
153	0x3cd9d1ee	0.02658936
154	0xbdee1061	-0.11624218
155	0xbc88cf06	-0.016700279
156	0xbd3e4ad9	-0.0464581
157	0x3d7b8590	0.061406672
158	0x3c8f9529	0.01752718
159	0xbd576612	-0.052587576
160	0xbdb3eb25	-0.08785085
161	0xbca940d2	-0.020660792
162	0xbcb6343b	-0.022241702
163	0x3dbe229a	0.092839435
164	0x3d76910e	0.06019693
165	0xbd59c5a2	-0.053166993
166	0xbd534c6a	-0.051586546
167	0xbdc7023d	-0.09717224
168	0xbdaf3384	-0.08554748
169	0x3bddf52b	0.006773611
170	0xbdfff9d0	-0.1249882
171	0x3d53f3ad	0.05174606
172	0x3bbe423b	0.005806235
173	0x3c606c3f	0.013697683
174	0xbcc4b085	-0.024009952
175	0x3ba8ad66	0.005147624
176	0xbce03eb5	-0.027373651
177	0xbd995666	-0.07487182
178	0x3dab9caf	0.083794944
179	0x3c74fc5b	0.014952744
180	0xbcce5b8c	-0.025190137
181	0x3da67ff0	0.08129871
182	0xbd7d0a14	-0.06177719
183	0xbccfe23f	-0.025376437
184	0xbdb0c073	-0.08630457
185	0x3cdabc22	0.026701037
186	0xbcf0e208	-0.029404655
187	0xbca2a5cf	-0.019854454
188	0x3d3ec490	0.046574175
189	0xbd85203f	-0.06500291
190	0xbcc0b476	-0.02352355
191	0x3d055f1b	0.032561403
192	0x3c891f59	0.01673858
193	0xbdda0d7a	-0.10647102
194	0x3bfd55c4	0.0077311713
195	0xbc81f1be	-0.015862342
196	0xbbebbc1b	-0.007194055
197	0xbb50f750	-0.003188569
198	0xbd6ecf18	-0.05830297
199	0xbdac0c4c	-0.08400783
200	0xbd9b3ac0	-0.07579565
201	0xbdc169e0	-0.09444022
202	0x3c85d042	0.016334657
203	0xbdefe848	-0.11714226
204	0xbcdbc3b5	-0.026826719
205	0xbd80895f	-0.062762015
206	0xbe2e390e	-0.17013952
207	0xbd1a4c41	-0.037670378
208	0x3d5a2184	0.05325462
209	0x3c1ecab0	0.009691879
210	0xbdbed184	-0.09317306
211	0xbd97ce5c	-0.07412407
212	0x3d692daf	0.056928333
213	0x3d17fcaf	0.037106212
214	0xbd8de7ce	-0.06928979
215	0x3dc87767	0.09788399
216	0xbdf432f9	-0.11923785
217	0x3d813179	0.06308264
218	0x3d0e9a26	0.034814976
219	0xbdaf3b82	-0.08556272
220	0x3d1bab2c	0.03800504
221	0x3c4dce9c	0.012561467
222	0xbd35a6c1	-0.044348482
223	0xbae9aff9	-0.0017828933
224	0xbd67d9df	-0.056604262
225	0xba559213	-0.0008147072
226	0xbd807eda	-0.06274195
227	0x3d996422	0.07489802
228	0x3d268a90	0.040659487
229	0xbdd15219	-0.10220737
230	0xbc3e8b17	-0.011629841
231	0x3d4d09d9	0.05005822
232	0x3c819e20	0.01582247
233	0xbd59d3d5	-0.053180534
234	0x3d12e44a	0.035862245
235	0x3d45d17d	0.048295487
236	0xbdc1c82d	-0.094620086
237	0x3c7d598f	0.015463247
238	0xbdb5e47e	-0.08881472
239	0xbafc451e	-0.0019246673
240	0xbc9a4694	-0.018832482
241	0x3c901866	0.01758976
242	0xbbf3ddba	-0.0074422034
243	0xbc934c0c	-0.017980598
244	0x3c8655e7	0.016398383
245	0x3d1adde7	0.03780928
246	0xbcb861a1	-0.02250749
247	0xbd91745c	-0.07102272
248	0x3d559246	0.05214145
249	0x3ca97d0e	0.020689514
250	0xbdad60dd	-0.08465741
251	0xbce66ac2	-0.028127078
252	0xbd879474	-0.06620112
253	0xbb4ea0a4	-0.0031528855
254	0x3c72a1ca	0.014809081
255	0xbd831380	-0.06400204

bias f4 [128]
0	0xbd3b02a8	-0.04565683
1	0xbdc99024	-0.09841946
2	0xbda3b3b8	-0.07993263
3	0x3d23b773	0.039969873
4	0xbd2fc6b5	-0.04291411
5	0xbdb6b2b2	-0.08920802
6	0x3dd8f56a	0.10593684
7	0xbd41f00e	-0.047348075
8	0x3d5f2097	0.05447444
9	0x3daaa969	0.08333094
10	0xbc7021c7	-0.014656491
11	0x3d60a532	0.054845043
12	0xbd30db1c	-0.04317771
13	0xbd7a4d2a	-0.061108746
14	0xbd9783be	-0.07398175
15	0xbd9f2fa2	-0.07772757
16	0x3cd4a85d	0.025959188
17	0xbd7e1309	-0.062029872
18	0xbc952596	-0.018206399
19	0x3dbb0de5	0.091335095
20	0xbd3ccaee	-0.046091966
21	0xbd1b8e57	-0.037977543
22	0xbd9325e7	-0.07184964
23	0xbc6a154b	-0.014287303
24	0x3d3704d7	0.04468235
25	0xbc48c402	-0.012253763
26	0x3ddc9f49	0.10772569
27	0xbd8d4c04	-0.068992645
28	0xbd622e7e	-0.05522012
29	0xbda074e5	-0.07834796
30	0xbcf85035	-0.030311683
31	0x3c5e9f5b	0.013587798
32	0x3d600ad8	0.05469784
33	0xbbcbf6c3	-0.0062244846
34	0xbe012c12	-0.12614468
35	0xbda6708c	-0.08126935
36	0x3a928e54	0.0011181333
37	0x3e2148e2	0.15750459
38	0xbcccfda3	-0.025023287
39	0x3d493811	0.049125735
40	0x3d1dea38	0.038553447
41	0x3abd36f1	0.001443593
42	0x3cff109d	0.031135852
43	0xbc437613	-0.011930007
44	0x3d9034d1	0.07041324
45	0x3dcb9a7b	0.09941574
46	0xbcb65e88	-0.022261873
47	0x3d023a5b	0.031793933
48	0x3d76290c	0.06009774
49	0x3e173f04	0.14770132
50	0xbe1430a2	-0.14471677
51	0xbd477c65	-0.048702616
52	0x3d459226	0.04823508
53	0x3d959f80	0.07305813
54	0x3d980232	0.07422294
55	0xbd50ab16	-0.05094441
56	0x3dfb4c77	0.12270444
57	0xbdb9bff0	-0.09069812
58	0xbd7766a5	-0.060400624
59	0x3ce04d0d	0.02738049
60	0xbdb92329	-0.090399094
61	0x3e03a770	0.12856841
62	0xbccfc814	-0.02536396
63	0xbdaafe02	-0.083492294
64	0x3c8d2a26	0.017232012
65	0xbd4ef18f	-0.050523337
66	0x3d71eef4	0.059065774
67	0xbdfcb088	-0.12338358
68	0x3cb33bf3	0.021879172
69	0xbd45cdff	-0.048292156
70	0x3d0ae7d4	0.033912495
71	0xbc1af9f4	-0.0094590075
72	0xbd754365	-0.059878726
73	0x3e0e3441	0.13887121
74	0xbd34977e	-0.044089787
75	0xbda256c7	-0.07926708
76	0xbc2aaa5b	-0.0104165925
77	0x3d294bd3	0.041332077
78	0xbcca891d	-0.024723584
79	0x3d6a6693	0.05722673
80	0xbcdcd254	-0.026955761
81	0xbd5f88a5	-0.054573674
82	0x3d8336da	0.064069465
83	0x3d8b706a	0.06808551
84	0x3e0386d4	0.12844402
85	0x3da33420	0.079689264
86	0xbb7560bd	-0.0037441694
87	0x3e4a407e	0.19751164
88	0xbd539bef	-0.05166238
89	0xbda5f5fb	-0.08103558
90	0xbd8e4e9f	-0.069485895
91	0xbd9359cf	-0.07194864
92	0x3ca87e9d	0.020568186
93	0x3e3ee15d	0.18640657
94	0x3d450a1a	0.048105337
95	0x3d970ff6	0.07376091
96	0xbd6c9f6a	-0.057769217
97	0x3d46ce90	0.048536837
98	0xbc08afb7	-0.008342675
99	0x3e049a10	0.12949395
100	0xbd531ad4	-0.051539257
101	0x3d840846	0.064468905
102	0x3d555800	0.052085876
103	0x3d1b957b	0.037984353
104	0x3e383e24	0.17992455
105	0x3e13888c	0.14407557
106	0xbcc465ae	-0.023974266
107	0xbd12f853	-0.03588135
108	0x3d34c09e	0.044129007
109	0xbdb0f517	-0.08640497
110	0xbd8e6b2a	-0.06954034
111	0x3dad5f13	0.084653996
112	0xbdd10c83	-0.102074645
113	0x3ce8257c	0.028338186
114	0x3c23b0ba	0.009990865
115	0xbddffdbb	-0.10937067
116	0x3d3028fe	0.043007843
117	0x3d178651	0.03699333
118	0x3e35c50e	0.17750952
119	0x3b036977	0.0020051876
120	0x3c063eaf	0.008193656
121	0x3e222c79	0.15837277
122	0x3db92583	0.09040358
123	0x3c96d34a	0.018411297
124	0x3ce02d21	0.02736527
125	0xbdd4403e	-0.10363816
126	0x3e165b90	0.14683366
127	0xbd183156	-0.037156425
