IO_DynaPlex/DeepControlledLearning/PolicyWeights/lost_salesgeometric_p4_l4_N5000/cl_gen.pth (torch, 284166 bytes, 10 tensors)

weight f4 [256, 4]
000000 9a 98 e1 3e f2 5f 17 3e bd ac c7 3e 69 bd d9 bd
       0.44061738 0.14782694 0.38998976 -0.1063183
000010 42 5b d4 3e 05 9a 50 be a5 5e cc 3e c4 09 0a be
       0.41475874 -0.20371254 0.39915958 -0.13480288
000020 25 58 8a be f6 ec b1 3e e7 eb c3 3e 02 83 a0 3e
       -0.27020374 0.347511 0.38265917 0.3134995
000030 7b 71 3f 3e 22 6f 54 3d 0b a6 c5 3d 98 96 36 be
       0.18695633 0.051863797 0.09650811 -0.17830884
000040 0d 42 51 3e 42 a3 82 be ba 6e 4a 3e 0a 3f ee be
       0.20435353 -0.2551518 0.19768801 -0.4653247
000050 28 fb c5 3d ec c9 61 3e 7d f0 4f be 35 3f 8b 3e
       0.09667045 0.22049683 -0.20306583 0.2719666
000060 dd ae 50 3e df 2a 88 3e 3c 08 8f be 75 2b c5 be
       0.20379205 0.26595208 -0.2793597 -0.38509718
000070 cc 5a ef bd b1 04 c5 3e e2 45 18 3e 25 1c e0 be
       -0.1168724 0.38480142 0.14870408 -0.43771473
000080 4d f1 e8 3d 95 d9 ee 3e d8 96 a4 bd 50 f5 0f bf
       0.113741495 0.46650377 -0.08036584 -0.5623369
000090 3e cf 27 3e 3d a4 d6 bd 74 89 08 be 07 27 ab be
       0.1638765 -0.10480545 -0.13333684 -0.33428213
0000a0 ff 0d 92 3e 71 7b c9 3d 27 fe cd 3e 09 97 37 bd
       0.28526303 0.09837998 0.40232965 -0.044821773
0000b0 6e 19 39 3e 39 9f e4 3e 9d ca ef be 09 63 d9 3e
       0.18076107 0.44652727 -0.4683427 0.4245837
0000c0 ae 46 c8 3d 41 4f 15 bd dc 8b c6 3e a6 17 dd bd
       0.09779106 -0.036452536 0.3877858 -0.10795526
0000d0 18 a0 6b bc 07 45 b5 3e 6e 4d 30 3e 64 2e 42 be
       -0.014381431 0.35404226 0.17217037 -0.18963009
0000e0 47 ed af 3e e7 97 f7 be bf bf ab 3e b2 ee 56 bd
       0.34360716 -0.4835808 0.33544728 -0.05247373
0000f0 ff ac 38 3d 10 20 33 3e 89 f0 e7 bd 24 53 ab be
       0.045086857 0.174927 -0.11325175 -0.3346187
000100 6b a0 a4 bc d8 5a 0a bf 84 43 07 3e cc 05 43 3e
       -0.020096024 -0.54044867 0.13209349 0.1904518
000110 2b 11 95 3e 47 c1 8e be 4e e2 85 be a1 8b d3 be
       0.2911466 -0.27881834 -0.2614922 -0.41317466
000120 7a 5b b3 bd 59 12 07 be 94 37 43 3e 2e bd 1a be
       -0.08757682 -0.13190593 0.1906417 -0.15111229
000130 2b 9a 68 bd ad 88 1e 3e fc 0f 05 3f a2 2a ff be
       -0.05678765 0.15481825 0.51977515 -0.49837214
000140 85 66 85 3e 94 8a f5 3e a4 22 f4 bc d0 2e 18 be
       0.2605478 0.4795729 -0.029801674 -0.14861608
000150 06 af 96 be 7d bb 81 3e 9d 75 0c be 81 23 f3 3e
       -0.29430407 0.25338355 -0.13716741 0.47488025
000160 e4 1c 1a be 10 bc 3e bd 4e c5 e6 be 78 50 90 bd
       -0.15050083 -0.04656607 -0.45072407 -0.07046598
000170 0d db 84 3d e1 ee d4 be da 32 ec be 94 fe 08 3f
       0.06487093 -0.415885 -0.46132547 0.53513455
000180 8f 47 3d 3d 07 60 fd 3d 73 02 d0 3e a7 39 dc bd
       0.04621082 0.123718314 0.4062687 -0.10753184
000190 b9 f2 91 3e be b4 04 3d 82 21 d0 3e 6a 95 31 3e
       0.28505495 0.03239893 0.40650564 0.17342153
0001a0 da b5 95 be 37 5b 9a 3e 6e 21 c1 be c6 a2 b9 3e
       -0.29240304 0.30147716 -0.37720817 0.36257
0001b0 85 7b c8 be 66 72 7a 3e 7e 54 54 3e 4b 32 aa 3e
       -0.39156738 0.24457702 0.20735356 0.33241495
0001c0 98 11 54 be 65 4a bf be f9 be 0a 3f c2 69 15 be
       -0.20709836 -0.37361446 0.5419765 -0.14591125
0001d0 60 f6 e7 bc 73 2b 4f 3d 99 3c c5 be fd 52 bf 3e
       -0.028315723 0.050578546 -0.38522795 0.37368003
0001e0 21 f6 91 3d 01 6a 3e 3e 21 51 78 3e f1 fe 58 be
       0.071270235 0.18595125 0.24249698 -0.21191002
0001f0 f6 60 af be fa c3 9b 3d d3 64 c8 be f4 69 bc 3d
       -0.34253663 0.07605739 -0.39139423 0.091998965
000200 6b 42 d0 3d 35 df a5 3d 38 ba ca 3d a8 10 a8 3e
       0.10168918 0.08099214 0.098988 0.32825208
000210 8a 80 f0 3d ac a7 93 3e f4 d9 83 be 02 a7 ec 3e
       0.11743267 0.2883886 -0.25752223 0.46221167
000220 6c 6c 95 3e 95 8b eb bd ad 02 a4 3d 53 82 cf be
       0.29184282 -0.115012325 0.08008323 -0.40529117
000230 4b 9b 6b be c9 28 83 bc b9 8e b4 be af 1b 86 3e
       -0.23008458 -0.016010659 -0.3526514 0.26192996
000240 5a a7 ca bd bc 0a a5 be 4a 72 84 3e 37 65 20 3f
       -0.09895201 -0.32234752 0.25868446 0.6265444
000250 72 68 d8 3d b4 de 8c be 6b 4d f3 be 9c 90 7c be
       0.10566796 -0.2751366 -0.47520003 -0.24664539
000260 77 01 fd be bd bb 91 3e 33 3a f6 be e2 94 d9 be
       -0.4941518 0.28463545 -0.48091277 -0.424964
000270 b0 3a ee bd f2 7f e7 be e0 20 6e bd e0 b0 aa 3d
       -0.116322875 -0.45214802 -0.05813682 0.083345175
000280 9c 31 19 be 34 62 d1 be a0 c7 61 be b2 d1 89 be
       -0.1496033 -0.40895236 -0.22048807 -0.26917797
000290 9a be b7 be 8a 32 ef 3e 62 cc 5b 3e 7b 2a e7 bd
       -0.35887605 0.46718246 0.21464685 -0.112873994
0002a0 44 54 f7 be 46 d9 82 be 52 46 da be 78 53 a8 bd
       -0.48306477 -0.2555639 -0.42631775 -0.082190454
0002b0 c1 7a cd 3e a7 97 66 3e 07 f0 17 3e d5 11 00 bd
       0.40132716 0.22518788 0.14837657 -0.031267006
0002c0 57 01 98 bd b3 1d d3 be 5f 85 df 3e 7a d3 74 3e
       -0.074221306 -0.41233596 0.43656442 0.23908797
0002d0 e4 f2 df 3b cc 42 e4 bd cc 69 1b be 87 23 12 be
       0.0068343747 -0.11145553 -0.15177077 -0.14271365
0002e0 51 7e 35 3c da 44 9b be f2 bb ee 3e 23 98 dd be
       0.011077479 -0.30325967 0.46627766 -0.43280134
0002f0 be 29 e5 3e 3e 6b b4 be a2 6c 2a 3d 9c 6a ee be
       0.4475841 -0.3523807 0.041607507 -0.46565711
000300 02 78 d2 be d8 71 35 be e4 10 18 be 30 38 eb be
       -0.41107184 -0.17719209 -0.14850193 -0.45941305
000310 67 14 3e 3e 69 0a 94 be 0c 4d b4 be 05 9f 16 bd
       0.1856247 -0.28914192 -0.35215032 -0.036772747
000320 22 3d ef 3e 58 ab ca 3d 8f 07 aa be 57 6c f6 be
       0.46726328 0.098959625 -0.33208892 -0.48129532
000330 0c 22 bf bd e2 9b 1a be e9 2d e1 3d 37 53 b6 3e
       -0.09332666 -0.15098527 0.10995085 0.35610363
000340 82 38 fc 3d 30 c5 a9 3e 01 a0 ca 3e 26 e2 16 bf
       0.123154655 0.33158255 0.39575198 -0.58938825
000350 0f 4a a4 3e d7 39 af be 63 8a 98 be 07 34 8b be
       0.32087752 -0.34223816 -0.2979308 -0.2718813
000360 d9 7b 3f 3e f4 19 9a 3e 11 3b 27 be eb 61 bd be
       0.18699588 0.30097926 -0.16331126 -0.36988768
000370 7f de 84 3e 62 9c 49 be d0 08 bf 3e 4b aa c8 bb
       0.25951 -0.19688562 0.3731141 -0.006123816
000380 5e 0d dd 3d ce 73 7a be 64 59 87 3e 0b d6 05 be
       0.10793565 -0.24458238 0.26435387 -0.13069932
000390 16 56 fd be 36 3f ba be 40 a5 0c be 3c 41 5e be
       -0.4947974 -0.3637635 -0.13734913 -0.21704572
0003a0 4c cc 4a 3e 7d b6 23 be 85 99 a4 bd 62 30 d2 bc
       0.19804496 -0.15987583 -0.08037094 -0.025657836
0003b0 f1 38 7b 3e 1e 3a 93 be e1 37 58 3e a3 90 d3 be
       0.2453344 -0.28755277 0.21115066 -0.41321287
0003c0 85 f4 bb 3e 03 27 ac be d3 11 b2 be 50 5d bd 3e
       0.3670999 -0.33623514 -0.34779224 0.36985254
0003d0 c8 03 fd be 7f be 18 be 57 9d 15 be d5 aa 2b 3e
       -0.49416947 -0.14916418 -0.14610802 0.16764386
0003e0 c0 09 90 3d 1a 96 7d 3e 5e 81 80 3d 2d 1f 01 bf
       0.0703311 0.2476429 0.06274675 -0.50438195
0003f0 8b 61 b3 3e 92 79 a4 be 69 4d 0d bf 3f 72 6b be
       0.35035357 -0.32124 -0.55196244 -0.229928

bias f4 [256]
000000 96 4f e2 be 55 a6 76 be 00 28 fe bd 52 50 9d be
       -0.44201344 -0.24086888 -0.12409973 -0.30725342
000010 c5 e0 7f 3e 6d 04 35 bd c3 0e 5a bd 25 f8 85 3d
       0.24988087 -0.044193674 -0.053236734 0.065414704
000020 04 93 0e 3f 5a 61 93 3e 7a 22 27 bf e9 4b 28 bf
       0.5569308 0.2878521 -0.6528698 -0.6574083
000030 1b a3 c4 3e b6 49 d8 be 14 45 ee 3e d1 89 dc 3e
       0.3840569 -0.42243737 0.46537077 0.43073896
000040 c9 f6 b7 bd bb c1 9c be 5c 2f ca bd f5 26 a6 be
       -0.089826174 -0.30616555 -0.09872314 -0.32451597
000050 a4 42 9b be 8b de 17 bf 10 57 b0 3d 6d 9c 0c 3e
       -0.3032428 -0.5932395 0.08610356 0.13731547
000060 78 e9 a7 3e cf e4 f0 3d 7c c7 91 3e a1 26 3f be
       0.3279531 0.11762392 0.28472507 -0.1866708
000070 94 43 c5 3e 62 3f c6 bd 4c 3e b5 be 1b 70 a8 3e
       0.3852812 -0.09680058 -0.3539909 0.3289803
000080 00 13 e3 3e 2b 16 91 be b8 96 92 be f0 76 9f bd
       0.44350433 -0.28337225 -0.28630614 -0.077863574
000090 fb fa 02 bf 50 54 fa 3e ac 9c d9 3c 6c 23 cd be
       -0.51164216 0.4889245 0.026563965 -0.40066087
0000a0 a8 eb a2 3e ae 05 18 3f 9a 18 d6 3e c4 8b 0a 3f
       0.31820416 0.59383667 0.41815645 0.54119515
0000b0 4d 8b f0 3e de c5 9e 3e 33 83 dd be ff 17 c2 3e
       0.46981278 0.31010336 -0.4326416 0.37908933
0000c0 2e 73 a0 be 3c 36 6d 3e bd d9 f2 be ce 65 ed 3e
       -0.31337875 0.2316522 -0.47431746 0.46366733
0000d0 fe 74 ad bd 60 fc 25 3f 7d e3 25 be fd c7 3c be
       -0.0846958 0.6483822 -0.16200061 -0.18435664
0000e0 36 1e c8 be 84 6c 9b 3e ce 3b de 3e 3c 55 83 3e
       -0.3908555 0.30356228 0.43405002 0.25650966
0000f0 d8 44 21 bf 98 ee 1e be 51 da 40 be a4 f8 db bc
       -0.6299567 -0.15520704 -0.18833281 -0.02685196
000100 13 6f e0 3e ee 58 a5 bc 73 57 f1 be 1c 81 ec 3e
       0.43834743 -0.020184007 -0.4713703 0.46192253
000110 04 70 a8 3e 24 b1 0a bf 1a 5a 4b 3e 80 cd 30 bf
       0.3289796 -0.54176545 0.1985859 -0.6906357
000120 93 1a 8b be e8 70 63 3d 11 98 7e bc d0 4d 60 be
       -0.27168712 0.055527598 -0.015539185 -0.21904683
000130 a7 ab e0 3d 25 2d fc bd cd c2 55 be 03 ff 5b be
       0.1097024 -0.12313298 -0.20875092 -0.21483998
000140 9f bb d7 be 04 3f 00 3e 63 0a 09 bf 34 ba a4 be
       -0.4213533 0.12524039 -0.53531474 -0.32173312
000150 5a 54 eb 3e 52 e1 b7 be c6 b6 57 3e b8 18 05 bf
       0.45962793 -0.35914093 0.21065816 -0.5199084
000160 f5 2c 4a 3f 90 3d 81 3e 64 47 81 be 65 ff 19 bf
       0.7897485 0.2524228 -0.2524978 -0.60155326
000170 40 fc de bd a6 a1 00 3e d4 8b 84 be c8 9b d3 3d
       -0.108879566 0.12561664 -0.2588793 0.10332447
000180 c8 db ca 3d 48 26 80 be 6c 95 92 3e d2 59 36 3f
       0.09905201 -0.25029206 0.28629625 0.71230805
000190 b0 e1 26 be 75 c3 1b bf a4 c6 9e be 25 b1 69 3c
       -0.1629703 -0.6084512 -0.31010926 0.014263426
0001a0 5a e2 95 bd e5 b2 16 bf c1 a2 16 bf 0b 40 15 bf
       -0.07318564 -0.5886672 -0.5884209 -0.58300847
0001b0 bd 3a 01 3e 4a c4 ae 3e a0 1a 45 3e b0 98 f7 3d
       0.12620063 0.34134132 0.19248438 0.1208967
0001c0 9f be 76 bd 2d 36 83 3e 28 b2 eb 3e ab 4c 2e 3f
       -0.060240384 0.2562727 0.4603436 0.68085736
0001d0 bb ec ae 3c 31 39 fd be ae df c6 be a2 3b af 3e
       0.021353116 -0.49457696 -0.3884253 0.34225184
0001e0 f8 cd 05 3e 09 5e 97 bd 32 5c 1d be 8a 61 e8 be
       0.13066852 -0.07390983 -0.15367201 -0.45386916
0001f0 16 5f 96 be 38 70 dd be db 88 24 3f c8 1d 88 be
       -0.2936942 -0.4324968 0.64271325 -0.2658522
000200 dd 79 b0 be 87 b2 f0 3d bb 24 0a be 4b 05 16 bd
       -0.34467974 0.117528014 -0.13490574 -0.03662614
000210 2c 63 09 3f 19 16 09 3f e6 e4 c4 bd 09 81 9b be
       0.5366695 0.53549343 -0.096139714 -0.30371884
000220 e5 e6 57 3d a5 ca 21 be 4e d4 14 bd b1 80 c6 be
       0.052710433 -0.15799959 -0.036335282 -0.3877006
000230 02 b5 cc 3e 4a e0 85 3e 78 1e 89 be 28 7d ce 3e
       0.39981848 0.2614768 -0.26781058 0.40329862
000240 97 a2 ad be 5c af 1c bf c1 79 1d 3f 3f 48 e6 be
       -0.3391311 -0.6120508 0.61513907 -0.44976994
000250 33 e8 13 3e 0e 17 ec 3e 07 2c 9c 3e b4 e5 1f bf
       0.14444046 0.4611134 0.3050234 -0.62459874
000260 e5 e1 99 be 05 d3 88 be 60 3e 6c 3d 6b ad e6 bd
       -0.30055156 -0.26723495 0.057676673 -0.112635456
000270 ae b1 94 3e d3 f3 4b be 93 7e 9d be f2 fb ec 3e
       0.2904181 -0.1991723 -0.3076063 0.4628597
000280 3d 18 64 be e0 fa 1c 3f 03 dd 15 bf 91 9b 1e be
       -0.22274871 0.61320305 -0.5854036 -0.15489031
000290 8d d9 10 3f 64 1b bf be 4e 6b 02 bf fe 92 9e 3e
       0.56581956 -0.37325585 -0.50944984 0.3097152
0002a0 2b 8d 33 3f 25 88 e8 be ed ff b4 3e 5a f4 8e be
       0.7013728 -0.4541637 0.35351506 -0.279208
0002b0 7b 41 d2 bd 64 df 54 3e 6c 46 aa be 69 9d 34 3f
       -0.10266396 0.20788342 -0.33256853 0.7055269
0002c0 f1 5f ec bd 38 61 81 3d e1 22 37 3f 35 0b 19 3e
       -0.11541737 0.06317371 0.71537596 0.14945681
0002d0 1e 51 06 3e 6f 13 b4 bd d0 f4 f6 be de 0f 62 be
       0.13116881 -0.08792769 -0.48233652 -0.22076365
0002e0 53 74 68 3d 37 c9 de be ea 8b 89 bd 4e d1 71 3b
       0.05675156 -0.4351289 -0.067161396 0.0036898437
0002f0 53 64 b6 be 16 14 77 3e 60 9f e6 be b8 eb 92 be
       -0.35623416 0.24128756 -0.45043468 -0.28695464
000300 16 a2 84 3e ad 21 e4 3e 67 d2 e7 be 96 cb 9c be
       0.25904912 0.44556943 -0.45277712 -0.30624074
000310 f7 fc d4 3e 7b a8 68 3e 92 4c 4e 3e a6 33 b8 3e
       0.41599247 0.2272052 0.20146397 0.35976905
000320 f6 cb 61 bd 82 cd 1c bf a9 d6 03 3f d0 fb 83 be
       -0.055126153 -0.6125108 0.5149942 -0.25778055
000330 07 31 c2 3d d0 c0 d6 be 11 3e 25 bf 0e d3 e6 be
       0.094820075 -0.4194398 -0.6454783 -0.45082897
000340 fa 2f 0a 3f 5f 15 44 3f bb b2 20 3f a7 dd e5 3d
       0.53979456 0.7659511 0.6277272 0.112239175
000350 5e ac 6e 3e 36 72 b5 be d8 3d 4f 3d 0b c6 de 3e
       0.2330794 -0.354387 0.05059609 0.4351047
000360 4c 54 ff be 30 5a 5d be ab 3c 1c bf ec fe 95 3e
       -0.49869 -0.21616435 -0.6103007 0.29296052
000370 2c 2b bf 3e 5d c9 c8 be 36 86 12 be 6b 0c 2b 3f
       0.37337625 -0.39216128 -0.1430901 0.66815823
000380 3a a6 a2 3e 48 37 de be 9b ce 17 3f fa b1 62 be
       0.31767446 -0.4340155 0.5929963 -0.22138205
000390 e3 83 91 be 6c f5 1f be f0 1d 01 3c 36 44 ec 3d
       -0.28420934 -0.15620965 0.007880673 0.11536448
0003a0 58 e6 81 be 44 16 7c be 7b 40 ef 3e 54 1d b9 3e
       -0.2537105 -0.24617869 0.46728882 0.36155188
0003b0 64 98 d7 3d 48 a6 5b 3b 7a 43 95 3e d1 10 5c 3e
       0.10527113 0.003351586 0.29153043 0.2149079
0003c0 20 d0 2b 3f b9 b8 9e 3e 53 08 a5 be e7 35 96 3e
       0.6711445 0.31000307 -0.32232913 0.29338
0003d0 72 61 56 3e 80 89 2f 3f dd 8c 13 bf 2c 64 cf be
       0.2093561 0.68569183 -0.57636815 -0.40506113
0003e0 3e 09 86 3e 15 61 9e bb 9d 98 c6 be f0 67 d5 3e
       0.26178926 -0.0048333504 -0.3878831 0.4168086
0003f0 95 17 8b be 29 5b 08 3f a0 bd b6 bd 9d ae cc 3e
       -0.2716643 0.532641 -0.08922887 0.3997697

weight f4 [128, 256]
000000 e7 58 2c bd e2 51 30 39 e9 67 c0 3c c3 0a 41 bd
       -0.04207697 0.00016815172 0.023487048 -0.047129404
000010 ed 50 0c bd 96 73 16 3d fc f1 bc 3b f9 b5 21 be
       -0.034256864 0.036731325 0.0057661515 -0.15792073
000020 80 08 75 bd e8 46 49 3c 11 bc 15 bd a1 88 14 3d
       -0.05982256 0.012284972 -0.036556307 0.036263112
000030 ac 76 ea bc 6e 6d 1b 3c 93 ee a2 bc 3b ec 13 bd
       -0.02862104 0.009486539 -0.019889152 -0.03611396
000040 d4 c6 12 be 7f c2 85 bd 45 6b c2 ba ab 5f ac bd
       -0.1433366 -0.06531238 -0.0014832994 -0.08416685
000050 ef da cb 3c 46 bc de 3c f8 3c de 3c 62 04 84 bd
       0.02488467 0.027189385 0.027128682 -0.064461485
000060 2a 60 97 3c 52 0b 15 3d 26 ef 2b bb 6d 75 c5 bc
       0.018478472 0.03638775 -0.0026235073 -0.024103845
000070 d9 2f e3 bd 51 a2 c9 bc 93 1c 05 3b 2d 6b 05 3d
       -0.110931106 -0.024613531 0.002031122 0.032572914
000080 00 8f 64 3d 09 5f 08 3d 7c 43 e1 3c 97 40 4a bd
       0.055800438 0.033293758 0.027498 -0.049378004
000090 00 ae 08 be ff fd d4 bd 55 37 e3 3c 7c 4a 32 3d
       -0.13347626 -0.104000084 0.027736345 0.043528065
0000a0 7e 44 1f 3d 45 f6 5a 3c f6 33 59 bd ce 72 1b 3c
       0.03888368 0.013364379 -0.05302807 0.009487821
0000b0 90 d7 75 ba ae 80 1f bd d8 67 e7 bd 2c ae f6 bc
       -0.00093781296 -0.038941078 -0.112991035 -0.030112348
0000c0 f6 aa 68 bd ea 85 13 bd 3f 21 e2 bc 75 00 60 3d
       -0.056803666 -0.036016382 -0.027603744 0.054687936
0000d0 64 ea 60 3d 03 7f 50 bd ea 56 e1 bc 43 47 56 bc
       0.054911032 -0.050902378 -0.027507264 -0.013078514
0000e0 20 f7 af bd 84 64 1a 3d 79 a0 62 3c da f7 99 3c
       -0.08592057 0.037693515 0.013832205 0.018794943
0000f0 27 10 d0 bc d9 43 0b 3d 02 47 ec bd 82 61 36 bd
       -0.025398327 0.03400025 -0.11536981 -0.044526584
000100 c7 bc 23 3d 75 af d8 bc eb 95 80 3d 51 6f 1e bd
       0.039974954 -0.026450852 0.062785946 -0.03868038
000110 78 14 18 bc c1 b7 f9 bd 26 bf 3f bd f8 03 b3 3c
       -0.009282224 -0.121932514 -0.046813153 0.021852478
000120 c9 55 92 bd 66 4b 91 bd 4e aa 3c bd 8b 84 1c bb
       -0.071452685 -0.07094459 -0.046060853 -0.0023882713
000130 f8 9f 6a 3c ce 40 78 3d 90 a4 71 bc c7 a1 15 be
       0.014320366 0.060608678 -0.014748707 -0.14612494
000140 36 a0 5e 3d 78 39 d8 bc 61 78 e5 bd 79 b4 0b 3d
       0.054352008 -0.02639459 -0.11204601 0.03410766
000150 12 ad 0c bd b6 6d bf bd de da 9d 3d 93 e9 7d 3c
       -0.03434474 -0.093470976 0.07707761 0.015497583
000160 ff 55 9e bc ba 02 8b 3c 10 07 39 3d e4 38 82 bd
       -0.019328116 0.016969074 0.04517275 -0.06358507
000170 72 e2 74 bd ee ee 50 3d 75 cd 45 ba 78 48 27 bc
       -0.059786268 0.05100911 -0.0007545569 -0.010210149
000180 fa bc 2d bd 5a cd 1d 3d 6c cd 4f 3d db eb 2d 3c
       -0.04241655 0.038525917 0.050733015 0.010615314
000190 a0 34 1d 3d b4 de 48 bd 63 44 65 bc 89 c6 cd bb
       0.038380265 -0.04904051 -0.013993355 -0.0062797708
0001a0 f0 fb 01 3b de ac 83 bc 08 9c 9f bd e1 74 41 bb
       0.0019834004 -0.01607364 -0.077934325 -0.0029519128
0001b0 2a b7 4c 3d d0 f6 56 3c c8 41 7c bd 70 55 a9 bd
       0.049979366 0.013120368 -0.06158617 -0.08268249
0001c0 2b b9 96 bc 62 fc f8 bc d7 39 8d bd 96 61 43 3d
       -0.018398842 -0.030393783 -0.06895798 0.047700487
0001d0 40 23 25 bd 00 6d 23 be 30 40 c3 bb 70 e4 35 be
       -0.04031682 -0.15959549 -0.0059585795 -0.17762923
0001e0 17 62 1b be c3 dc 1f be 51 49 5e bc f6 11 63 3d
       -0.15174137 -0.15611558 -0.013567285 0.05543705
0001f0 53 d3 0c bd 51 cc 18 3d 71 a5 f6 3c ee bc 51 bd
       -0.034381222 0.037304226 0.030108185 -0.051205568
000200 04 83 20 3d 37 37 57 3b 65 b2 0f bd c4 f3 8d 3c
       0.039187446 0.0032839307 -0.03508224 0.01732815
000210 90 ec 80 bd dd cd 0c 3d 02 79 d5 bd a6 8d 39 bd
       -0.06295121 0.034376014 -0.10423471 -0.045301102
000220 10 3a 2b bd 43 75 1a be 29 f0 5e 3d 61 05 fd bc
       -0.04180342 -0.15083794 0.054428253 -0.030886354
000230 01 ef 7b bb e8 1e ec 3c d4 f1 b0 3d 1f a4 68 bd
       -0.0038442018 0.028823331 0.08639875 -0.056797143
000240 06 1f 35 bd 67 c9 f0 3b c7 b8 6e 3d fd 0e ae 3c
       -0.04421904 0.007348228 0.058281686 0.021247381
000250 ac 11 89 bd 1f 6b 3f 3d 76 35 19 b9 de f9 26 ba
       -0.06692824 0.046733018 -0.00014611133 -0.00063696306
000260 d2 f5 54 bb 0e b9 2a be 32 4c e2 bd fb 9f ec 3d
       -0.0032495153 -0.16672155 -0.11049689 0.11553951
000270 00 0a 1b bd d7 b4 af bd 62 da 00 3d 0d cb 78 3d
       -0.037851334 -0.08579414 0.031458266 0.06074052
000280 31 00 00 be 5b 0b 23 bd 2d 12 70 bd 67 35 88 bc
       -0.12500073 -0.03980575 -0.058611084 -0.016627027
000290 c8 b1 8c bb 61 68 99 bd 63 7b de bb 41 e3 71 ba
       -0.004293654 -0.07490612 -0.006789611 -0.0009227284
0002a0 5f 38 19 3d 4f 53 28 bd 83 c8 ca 3d 80 b3 6e bd
       0.037407275 -0.041095074 0.09901526 -0.058276653
0002b0 80 92 f2 3c 81 c2 f4 bb 63 37 9c bb b6 ec 4c bc
       0.029610872 -0.0074694757 -0.004767345 -0.012507608
0002c0 8a 40 5c 3d cc 3a 20 3d b3 50 3f bd 7a ca a2 bc
       0.053772487 0.039118573 -0.04670782 -0.019871939
0002d0 18 19 58 37 fc dc 96 3d 73 88 2a bc 6a 23 74 bd
       1.2880446e-05 0.07366368 -0.010408509 -0.059604086
0002e0 61 f6 98 bd a0 58 4f bd 28 85 3c 3d 6c c3 ed 3d
       -0.07468868 -0.05062163 0.046025425 0.116095394
0002f0 50 75 8b bd a0 b4 41 3c 30 4c ca 3b e4 7e a1 bd
       -0.06809485 0.0118228495 0.006173633 -0.078855306
000300 c9 06 df 3d e0 7c de bc 61 c7 91 bd 7f 85 ba 3b
       0.10889966 -0.027159154 -0.07118107 0.0056921835
000310 45 6a 01 3d 86 83 68 3d 41 7f dc bc cc c9 8c 3c
       0.031595487 0.056766056 -0.026916148 0.017186068
000320 e4 ac f5 bc 33 62 a6 bd e8 06 d2 3c de a6 85 bc
       -0.029989667 -0.08124199 0.025638059 -0.01631492
000330 dc df 86 3d f8 f8 5c bd 63 fc 91 bd ea 96 53 bd
       0.065856665 -0.053948373 -0.07128217 -0.051657595
000340 ec 84 35 bd d1 e0 32 be 9c 03 4e 3c f4 6a 43 bd
       -0.044316217 -0.17468573 0.012574103 -0.04770942
000350 cd b7 d4 3b 75 3b 44 3d 7f f5 2d 3c 93 80 c5 bc
       0.0064916373 0.047908265 0.010617613 -0.02410916
000360 eb c5 71 bd b8 20 dc bc 8d 32 b2 bc 24 ff 78 3d
       -0.05902664 -0.02687107 -0.02175262 0.060790196
000370 09 62 0d bd 76 77 69 3c 05 06 5d bd b9 06 59 bd
       -0.03451732 0.014249673 -0.05396082 -0.052984927
000380 ed e7 15 3d 74 7a 2f 3d b6 a2 4a 3c f9 90 c8 3b
       0.036598135 0.04284139 0.012367895 0.0061207977
000390 ae 09 b8 bc 3c a0 8a bc fd 41 a5 3d 91 80 fd bd
       -0.022465553 -0.016922109 0.08069227 -0.12378038
0003a0 30 b7 38 bc 9c b1 ed 3c a5 f4 26 be 17 50 e4 3d
       -0.011274144 0.029015355 -0.16304262 0.111480884
0003b0 37 d0 32 bd d6 39 b7 bb ce 70 b2 bc 1e ee 76 bc
       -0.0436556 -0.0055916114 -0.021782305 -0.01507142
0003c0 ce 56 3c 3c 21 62 da 3c 67 92 80 bc bb ea f0 3c
       0.011495305 0.02665812 -0.01569481 0.029408803
0003d0 ab 4d 1b be 2c 83 d1 3c 7a f0 30 bd 3e 1f ba 3c
       -0.15166347 0.025575243 -0.043198086 0.022719976
0003e0 16 e4 0c bd 4e 00 e5 bd 81 00 e4 bd e0 bc 50 bd
       -0.034397207 -0.11181699 -0.111329086 -0.050961375
0003f0 78 aa 40 3d 9a f2 01 3c 0e 21 49 bc 7e df f2 bb
       0.04703757 0.007931376 -0.012275947 -0.0074118963

bias f4 [128]
000000 be 84 c3 3c 7d 8b 10 3c 8c 8e 5f be d6 1f 1d bd
       0.023867007 0.008822319 -0.21831721 -0.03836044
000010 31 45 b6 3d d7 69 33 3e b5 9a 8d 3d a8 a3 f4 bb
       0.08899916 0.17520843 0.06914274 -0.0074657984
000020 74 1e d2 3b 3c 28 22 3d 4a 2e b3 bc c4 ed 5c be
       0.0064123217 0.03958915 -0.021872658 -0.21575075
000030 3f 33 ba bc 59 b8 57 3e 1f 57 22 bc d1 67 27 3d
       -0.022729514 0.21066417 -0.009908467 0.04087049
000040 4b 2f 51 3e fa 48 53 be b1 36 64 be 34 66 80 3c
       0.20428197 -0.20633307 -0.22286488 0.015673734
000050 46 02 43 be 36 c6 3d 3d 17 a5 7e bc 2a 34 41 3c
       -0.19043836 0.046331607 -0.01554229 0.011792222
000060 cc 23 11 3d 82 52 bd 3d 9a de 4c be f8 4c ce 3d
       0.03543453 0.09244253 -0.20006791 0.100732744
000070 a2 55 29 be 25 4d 44 be 0c 29 16 3e 4e 72 ff ba
       -0.16536573 -0.19170053 0.14664096 -0.0019489022
000080 f2 69 6a bd 74 d4 8f bd c4 59 07 bd ed 3f 10 be
       -0.057229944 -0.07022944 -0.03304459 -0.14086886
000090 e5 8a f3 3d 00 f8 b4 bc 55 60 5a be ee cb 89 3e
       0.118917264 -0.022090912 -0.2132581 0.26913399
0000a0 7b e9 95 bb 40 be 80 bc 51 36 a2 3d 04 42 24 3e
       -0.004574952 -0.015715718 0.07920516 0.16040808
0000b0 9b 14 45 3d ae 86 81 bd 06 ed 0d 3c 73 af 04 bc
       0.048115354 -0.06324516 0.008662468 -0.008098471
0000c0 bc b6 39 3e 00 54 bb bc 63 b3 bb bd ce d1 58 3e
       0.18136114 -0.022867203 -0.09165075 0.21173784
0000d0 bf 2a 1c 3d 84 39 0e bc 52 da 69 3e e3 d3 41 3e
       0.038126703 -0.008680705 0.22837189 0.18928485
0000e0 cb b2 b3 bd f4 bd 90 bd 6f ee 23 be fd c5 a1 3d
       -0.087743364 -0.07067481 -0.16008924 0.078990914
0000f0 53 70 f1 3d 99 8c b2 3d 80 c2 99 bb 55 27 9b bc
       0.11789002 0.08718223 -0.0046923757 -0.018939653
000100 d2 18 32 3d 49 aa 38 bd a3 bd 7e bd 6c 8e 88 3c
       0.0434807 -0.04508427 -0.06219257 0.016669475
000110 20 2d a2 3d 8d 21 62 bc 7f bb 78 3e 24 01 0c be
       0.07918763 -0.013801944 0.24290274 -0.1367231
000120 7c 36 23 3e 84 6f 3e be 88 c1 0c 3e 59 59 3f 3d
       0.15938753 -0.18597227 0.13745701 0.046716068
000130 b4 59 41 3d 34 34 43 bc cc b8 d7 bd e2 d0 0b bb
       0.04720469 -0.011914302 -0.10533294 -0.002133422
000140 08 3e 41 bd fc 85 1e bd ae b3 47 3e a6 53 14 be
       -0.0471783 -0.038701996 0.19502136 -0.14485034
000150 bf 7d 86 bd 3d 0d af ba d0 f5 44 be fd ce b6 bd
       -0.06566953 -0.0013355386 -0.19234395 -0.08926199
000160 8f c0 2b 3d ec 86 c4 3c c3 55 80 bd ee 16 bd 3c
       0.041931685 0.023990117 -0.06266358 0.023082223
000170 43 7d 1e 3e 87 71 0d be 31 01 ae ba ba 6b bf bb
       0.15477471 -0.13812838 -0.0013275502 -0.0058416994
000180 f9 62 18 be 15 38 4b bd a1 b3 eb 3c e8 e6 2b bc
       -0.14881505 -0.04961403 0.028772177 -0.010492064
000190 68 be 47 bd 45 bb 7a 3e 42 7e 6b 3d fd 5c 29 3e
       -0.04876557 0.244855 0.057493456 0.16539378
0001a0 a1 ff 35 3e d9 6e 84 3d a3 d2 2c bd 2a 39 c2 bc
       0.17773296 0.06466455 -0.042193066 -0.023708899
0001b0 b0 17 c1 bb 8c af 76 3c c5 c5 dc 3c 6d c2 fd 3b
       -0.0058927163 0.015056502 0.026949773 0.0077441246
0001c0 e7 ca 84 bd 40 e9 e9 3c 30 eb 8e bd 31 d0 90 bd
       -0.06484013 0.028553605 -0.06978452 -0.07070959
0001d0 37 4b 22 3d 2a a2 3a bd 02 fa d0 3c 98 ac 3c 3e
       0.03962251 -0.045564808 0.025509838 0.18425214
0001e0 52 e4 7c 3d 86 cc 81 3e 5b f0 f4 3c 37 df 7d bc
       0.06174118 0.25351351 0.029899767 -0.015495113
0001f0 7e 6b 2e 3d 49 45 37 bd a8 a6 3c 3d de 47 94 bc
       0.04258298 -0.04474381 0.046057373 -0.018100675

weight f4 [128, 128]
000000 5d 3a 7f bd a0 84 0e bd 0a f0 68 3d d8 59 18 3d
       -0.06231152 -0.03479445 0.056869544 0.037195057
000010 a2 58 39 bd 5a 79 72 3d 34 0d 67 bc 36 4b 3a 3d
       -0.045250542 0.05919776 -0.014102269 0.045481883
000020 1f db 03 bc 8c be 99 3d 6d 62 ab bd 4a a7 24 ba
       -0.008047848 0.07507047 -0.083683826 -0.00062810315
000030 0e 17 fb 3c 08 e4 d9 3c 61 bb 8f 3d cf 00 0a 3d
       0.030650642 0.026597992 0.070181616 0.033692177
000040 9c 52 97 3d 1e fe 8f bd 56 70 48 bd 85 41 81 bd
       0.07388803 -0.07030891 -0.048935257 -0.06311325
000050 b0 94 25 3d f1 35 08 bd 68 ed 92 3d 4e 23 05 bd
       0.040425003 -0.033254568 0.07174188 -0.032504372
000060 d9 d6 53 bb 7f 00 d9 bd 35 93 bf 3d 52 73 f4 bd
       -0.0032324104 -0.10595798 0.093542494 -0.11936058
000070 92 cb 94 3d 51 08 2b 3b 1b 54 b7 bd 07 3a 46 bd
       0.072653905 0.0026097486 -0.08951589 -0.048395183
000080 ea 8e 3d bd 15 ba 11 bb ea 31 51 3d c7 b3 21 bc
       -0.04627887 -0.0022236158 0.051072992 -0.009869522
000090 c5 b0 94 3d e3 ef 7a 3d 05 5e 89 3d 93 6f 48 bd
       0.072602786 0.06126393 0.06707386 -0.04893453
0000a0 28 64 36 3d b4 fa 3f bc 8f 19 fd 3b 42 93 ec bb
       0.04452911 -0.011717487 0.007723994 -0.007219703
0000b0 20 63 a6 3d d8 19 e9 bd 87 f3 dc 3c c8 81 1f 3b
       0.08124375 -0.113818824 0.026971592 0.002433883
0000c0 65 9b 54 3d 9c 26 4d bd 9b 25 15 bd 5a 21 df bc
       0.05190601 -0.05008565 -0.036412816 -0.027237583
0000d0 5b 18 9a 3d 3d e6 90 3d a3 60 c5 bc 21 8e 2a bb
       0.07524177 0.070751645 -0.024093932 -0.0026024657
0000e0 ce 04 46 bd 0a a3 97 3d 6f 34 af 3c 4c 8b df 3b
       -0.048344426 0.07404144 0.021387307 0.0068220254
0000f0 20 42 05 bd 47 3c 5f bd 7c e1 8a bc c2 48 b1 bc
       -0.032533765 -0.054500844 -0.016953222 -0.021641139
000100 b9 e1 14 3d 2f 03 3f 3d 73 46 9a bd 0a 57 37 3d
       0.03634808 0.046633895 -0.07532968 0.04476074
000110 a8 ef 21 3d 6f d9 96 3d 3f c2 b4 3d 4c 82 33 bd
       0.039535195 0.07365691 0.08826112 -0.043825433
000120 69 1d 8a 3a dd c7 55 3d d6 83 fb bc 9e 2b 0b bc
       0.0010537329 0.052192558 -0.030702513 -0.008494286
000130 47 9e 14 bd 9f 8d c2 bd 0d 75 ee 3a 3b a2 4a bd
       -0.036283758 -0.09499668 0.0018192843 -0.04947112
000140 88 21 8e 3d 09 8d dd bc 34 c7 87 bc 54 6a 5a bd
       0.06939989 -0.02704479 -0.01657448 -0.05332406
000150 e6 28 38 3d d6 17 6a bd f1 8a e6 bc 8f a9 84 bd
       0.04496088 -0.057151638 -0.028142424 -0.06477653
000160 f5 84 9b bc 40 76 4d bd 9f 70 43 3c 14 d2 c5 bd
       -0.018984297 -0.0501616 0.011928706 -0.0965921
000170 6c 8c af 3b c3 29 7e 3d 38 e5 62 3d 72 5a 1b 3d
       0.0053573158 0.062051546 0.05539438 0.037928052
000180 e3 a5 87 3c d7 d9 67 bd f0 03 97 bc d7 f1 01 bb
       0.016558593 -0.056604233 -0.018434495 -0.0019827986
000190 35 3a 88 bd d9 39 cf bc f0 0f 14 bd 0c 17 c7 3c
       -0.06651727 -0.025296139 -0.03614801 0.024302982
0001a0 6f d7 8a bd 0e 4f a8 bd 83 22 aa bd 98 12 74 3d
       -0.06779372 -0.082182035 -0.08307364 0.059588045
0001b0 fe a9 4e bc 09 17 4b 3c 23 00 ff bc 94 a3 30 3c
       -0.0126137715 0.012395629 -0.031127995 0.010781188
0001c0 04 b7 3e 3d 67 0e 64 3d 90 2f 26 bd e4 37 9e bd
       0.046561256 0.055677798 -0.040572703 -0.07725504
0001d0 38 89 70 3d d3 47 08 bd 21 cf e1 3b 06 59 31 3c
       0.058724612 -0.033271622 0.006891147 0.0108244475
0001e0 4a 2b a8 3c 51 99 3d bd 9e da 3d bd c5 f1 bb ba
       0.020528454 -0.046288792 -0.046351068 -0.0014339021
0001f0 2d 59 8d bd 52 c7 90 3d 82 88 3f 3c 2b 3f d7 bb
       -0.069017746 0.07069267 0.011690261 -0.0065688095
000200 70 9c be 3d 8b d9 5d bd 32 e4 2b be 03 fe 71 3d
       0.09307182 -0.054162543 -0.16786268 0.059080135
000210 f8 91 2e bb e6 b4 05 bd e4 bc 93 3d 7b 50 b5 3c
       -0.0026637297 -0.03264322 0.072137624 0.022133103
000220 7c f2 17 bb e2 c5 74 3d dc 3d 93 3d 6f 90 2a 3c
       -0.0023185303 0.05975903 0.07189533 0.010410412
000230 5e 8d d1 bc 37 c3 19 3e d3 36 2c 3b 84 ff 6c bd
       -0.025580104 0.15015875 0.0026277795 -0.057860866
000240 04 ba 23 3e bb 1d 5a 3c d8 13 b1 bd bb 12 87 bd
       0.15988928 0.013312752 -0.08646363 -0.065953694
000250 c1 32 f5 bc 0a b2 16 bd 70 0c 3a bd 81 91 4b bc
       -0.029931428 -0.036790885 -0.045422018 -0.012424828
000260 20 91 20 bd 60 99 8f bc be a8 7b bc b5 11 f4 3d
       -0.039200902 -0.01752919 -0.0153600555 0.1191744
000270 86 1c d7 bd 01 af f7 bd 1a d0 e3 3d de 4a e9 bc
       -0.10503487 -0.12093926 0.111236766 -0.028478082
000280 fc 06 83 3d a3 60 b5 bd 42 83 53 3d bf ab 8f bd
       0.063978165 -0.088563226 0.05163885 -0.0701518
000290 49 4d bf 3d c1 83 0b 3d 44 c1 0d be 38 04 18 3e
       0.09340913 0.034061197 -0.13843256 0.1484536
0002a0 60 72 0e bd 23 12 80 bd 31 93 ed 3d 92 6d c3 3d
       -0.034777045 -0.06253459 0.1160034 0.09542383
0002b0 44 69 8f 3d ab c0 85 3d f3 f8 80 bd 5e cb 64 bd
       0.070025 0.06530889 -0.06297483 -0.05585801
0002c0 8e bb 79 3d 3f 86 09 bd 36 42 86 3d de 4d 4f 3d
       0.06096988 -0.033575293 0.065555975 0.05061137
0002d0 09 63 9e 3d 69 94 9a 3d d4 7b 3d 3d 88 b5 5d bc
       0.07733733 0.07547838 0.04626067 -0.01353205
0002e0 25 b5 97 3d d8 eb 62 bd f6 3e 88 bc e7 70 61 3d
       0.074075975 -0.0554007 -0.016631585 0.055039313
0002f0 3b ec 96 bd 5e 9a 0c bd d7 b5 02 3d 5a 09 a2 bc
       -0.07369276 -0.034326904 0.031911697 -0.01977985
000300 2f cb a0 bd ee 41 85 3c 85 4e 20 bd e6 0e b8 bc
       -0.07851254 0.01626679 -0.039137382 -0.022468042
000310 e1 33 44 3d dd 5b 8a bc 6b 82 3e bd e4 16 0d bd
       0.047901038 -0.016889507 -0.046511095 -0.03444566
000320 8a 5b 3b 3d 4a 83 54 3c 3f 6a 86 3d 0d df a3 bd
       0.045741595 0.012970755 0.065632336 -0.08001528
000330 09 4e 3d bd c6 8c e0 bc c2 7e 61 bd 74 79 de 3a
       -0.046217 -0.027410876 -0.055052526 0.0016973452
000340 fb 13 3a 3d 76 e0 46 3d 6d 4d 1d 3d 43 90 25 3d
       0.04542921 0.048553906 0.038403917 0.04042078
000350 a6 7e 88 3d 81 ef b0 bd ca e9 d6 bd 77 22 0a 3d
       0.06664781 -0.08639432 -0.104938105 0.033724274
000360 7a 68 cc 3d 16 30 ce 39 0f 2a 83 bd 73 34 f4 3d
       0.09980865 0.0003932721 -0.064045064 0.119240664
000370 13 ed fb 3d 21 5d b2 3b 12 87 05 3d 0b 13 2d 3c
       0.12301078 0.0054432307 0.032599516 0.010563622
000380 c9 d9 d9 bd ae 0c 82 3d 64 23 26 bd 84 d1 a8 bd
       -0.10637242 0.06350075 -0.040561095 -0.08243087
000390 c9 28 8a 3b 5a 47 11 3e aa dc b0 bd aa 8a 92 3d
       0.0042162878 0.14187375 -0.08635838 0.07155354
0003a0 a7 2e 11 bd 31 79 74 3d c5 cf 97 bd 51 9e e2 bd
       -0.03544488 0.05968589 -0.07412676 -0.11065353
0003b0 70 13 d4 3c 33 07 ed 3c 07 f3 1a 3d 04 e5 83 3d
       0.025888175 0.028934097 0.037829425 0.06440166
0003c0 83 3e be 3d a8 5f 59 bd ad a8 c1 3d 44 df 99 bd
       0.09289267 -0.05306974 0.094560005 -0.07513288
0003d0 00 1f 0c b9 33 8b 97 bd b3 27 a5 3d a9 73 8e 3d
       -0.00013362989 -0.07399597 0.08064213 0.06955654
0003e0 fe d1 7c 3d ea 68 07 3e bb f1 e8 bc f1 03 6c bd
       0.0617237 0.13223615 -0.028435579 -0.057620946
0003f0 04 bc a1 3d 70 eb ec 3c da 5b a6 bd 88 cb 13 3a
       0.07897189 0.02892086 -0.08122988 0.00056379335

bias f4 [128]
000000 ef a3 d0 3b 96 f8 34 3e de 31 f1 3d f1 4a 2d be
       0.0063671987 0.17672953 0.117770895 -0.16923119
000010 8c 95 c6 3d 8d 9e 80 3c 2b 40 09 3e 28 ec 22 be
       0.096964926 0.015700603 0.13403384 -0.15910399
000020 50 12 00 3d fc e4 37 bd 86 2f 37 3e 80 7e 0c 3e
       0.031267464 -0.04489611 0.17889223 0.13720131
000030 bb 98 1a bd 13 22 40 be d7 b7 10 bd bb bc 5a 3d
       -0.03774331 -0.18762998 -0.035331573 0.053402644
000040 3f 40 0b be 76 a5 e4 3c 28 54 2d 3e 97 f1 db bd
       -0.13598727 0.02791093 0.16926634 -0.10739439
000050 8f a8 00 3d b1 7e 37 be 90 ea bf bd 95 63 9b bc
       0.03141075 -0.17919423 -0.09370911 -0.018968383
000060 15 a2 ae bd 1b 9d 59 bd 6c 77 40 3d ac 6f 49 39
       -0.085270084 -0.053128343 0.04698889 0.00019210455
000070 eb 39 8b bd a0 e9 7f 3e 08 21 60 3e 2d a7 de bb
       -0.06798156 0.24991465 0.218876 -0.0067948312
000080 e3 82 7c 3e f4 c0 a1 bc 3e ce 4f bd 41 07 8a bd
       0.24659304 -0.019745328 -0.050733797 -0.06739665
000090 1a 4a d2 bd 31 f9 8d bd 5f 82 dd 3d 9b 00 85 3e
       -0.1026804 -0.06932295 0.10815882 0.25977024
0000a0 ed eb ff bd 41 f8 41 3d 2f 76 1b be 7d 72 33 3d
       -0.12496171 0.047355894 -0.15181802 0.043810356
0000b0 16 fb 04 3e 22 5a 26 3d 0e 02 8a 3e 8f ce b9 3c
       0.12986407 0.0406133 0.26954693 0.022681503
0000c0 ad 97 39 bd 4a 03 05 be 9a be 86 bd 44 af e6 bd
       -0.045310665 -0.12989536 -0.06579323 -0.11263898
0000d0 fd c2 35 3c b8 7d 8a 3e 69 7e b8 bb 96 d0 9f bb
       0.011093852 0.2704904 -0.0056303036 -0.0048771603
0000e0 66 0c 62 bd ca 5d 82 be 95 22 be bd d8 53 16 3d
       -0.055187605 -0.2546218 -0.0928394 0.036701053
0000f0 74 88 19 3d 29 01 25 3d 30 13 ac bd 6a c2 8d bd
       0.037483647 0.04028431 -0.08402097 -0.06921847
000100 27 a5 f5 bc 29 e3 f8 bd 81 17 23 be 94 2a 80 3e
       -0.029985977 -0.12152702 -0.15926935 0.25032485
000110 ca 2b 80 3d 4f 9a bb bd e9 1c 1d 3b 90 00 84 3d
       0.06258352 -0.091602914 0.002397353 0.0644542
000120 b3 ab 55 be d7 69 57 bd b6 21 13 be c3 c0 52 3e
       -0.2086628 -0.05259117 -0.14368328 0.20581345
000130 57 d6 93 3d ec 2e a8 bd ba 7c c3 bd 97 6b 73 bc
       0.072186165 -0.08212075 -0.09545274 -0.014857194
000140 3d 40 90 bd 34 37 80 3e f6 db 99 bd 96 c3 b8 3c
       -0.070435025 0.25042117 -0.07512657 0.0225542
000150 39 0b cd bc 6b 85 0f 3d 86 65 34 3c 73 84 a1 bd
       -0.025029765 0.035039347 0.011010533 -0.07886591
000160 ac 32 dc 3d b6 30 99 3e a8 91 90 3d 77 d7 11 be
       0.107518524 0.29919976 0.07059032 -0.1424235
000170 d4 80 84 3e 21 f9 5c bd 94 43 fe 3d 42 14 1e bd
       0.25879538 -0.053948525 0.12415233 -0.038593538
000180 60 9c 8b 3d 8c b4 46 3e 02 fd 26 be 05 64 de 3d
       0.068169355 0.1940481 -0.16307452 0.10858921
000190 17 84 65 bd ae 5f ab bd a1 4b 3e 3e 60 9b c6 bd
       -0.056034174 -0.08367859 0.18583538 -0.09697604
0001a0 2d a5 6d bc 9a 57 83 be fe fb 1c be e7 64 a9 bc
       -0.014504713 -0.25652772 -0.15330502 -0.020677997
0001b0 7b 6d 11 bd 67 bd a7 3c b5 5d 4e 3e 70 2f 79 bc
       -0.0355048 0.020476056 0.20152934 -0.015209064
0001c0 91 af 21 3e 3f 69 19 be be 1a 50 bd b6 fc b2 3d
       0.1578963 -0.14981554 -0.050806753 0.08739607
0001d0 71 d9 a1 bb b1 78 9e bc 45 69 77 3e a8 de e9 bd
       -0.004939251 -0.01934466 0.24161251 -0.114194214
0001e0 c7 33 f4 bd 84 68 a7 bb 1c ed 14 bd 5b 40 0c 3e
       -0.11923938 -0.005108895 -0.036358938 0.13696425
0001f0 d8 9e fe bd 8c 0b 5d bd 5e 49 cc bc 18 d4 cb bd
       -0.12432641 -0.05396609 -0.024937328 -0.09952563

weight f4 [128, 128]
000000 e8 f7 98 bc 29 42 d9 bd 7a b4 b3 3c 8a 80 77 bd
       -0.018672898 -0.10608322 0.021936644 -0.06042532
000010 85 89 ff 3c db 2f bb bc 0f 3e 79 3d 12 79 b3 bc
       0.031193504 -0.022849968 0.0608502 -0.021908317
000020 35 65 83 3d 00 93 65 bd 87 f4 72 bd c4 bf 10 be
       0.06415788 -0.056048393 -0.05931523 -0.14135653
000030 d2 f3 8a 3d f8 da a2 3d 09 dc b2 3c 48 e3 aa bd
       0.06784786 0.07951921 0.021833437 -0.08344132
000040 07 77 56 bd 79 16 e3 3d 03 4c 8d 3d 6a 8b f5 bd
       -0.052359607 0.11088271 0.06899264 -0.11989482
000050 0d d3 62 3d 6d 6e 66 3b 00 6f 62 bd 5c 67 e7 3c
       0.055377055 0.0035161034 -0.05528164 0.028247528
000060 f4 91 83 bd a7 77 d8 bc e2 c7 15 3c 55 cb 0b be
       -0.06424323 -0.026424242 0.009141894 -0.13651784
000070 01 48 cc bc f3 64 97 bd 47 3b b0 3c 42 f0 d7 3d
       -0.024936678 -0.073923014 0.02151264 0.105438724
000080 72 d0 00 be a6 0b 02 bb 6f 80 3a bd 61 a3 ac bd
       -0.12579516 -0.0019843369 -0.04553264 -0.084295996
000090 eb af 87 3d 93 19 3b bd 17 e1 97 bc d9 0a 48 3d
       0.066253506 -0.045678686 -0.018539948 0.04883847
0000a0 95 bc 5d bb 38 4c 03 bd 52 9c ba 3d ad 3d 7e 3c
       -0.0033834327 -0.03205511 0.09111847 0.015517634
0000b0 f5 03 59 bd 84 90 1b bd a6 4c a9 bd 36 c2 bc bd
       -0.05298229 -0.037979618 -0.08266573 -0.0921673
0000c0 fa 6d 10 be 5b fe 8f bb 04 25 8a bc d7 15 98 3d
       -0.14104453 -0.004394335 -0.016863354 0.074260406
0000d0 70 c9 67 bd 59 87 77 bd 71 fd 5b bd ac 3c 80 bd
       -0.05658859 -0.060431812 -0.053708497 -0.06261572
0000e0 bd c9 e5 bc 88 6f e9 bb c7 55 a4 bd 40 e1 8d 3d
       -0.028050298 -0.0071238913 -0.08024173 0.06927729
0000f0 c7 28 3e 3c 2d 90 50 bd ca bd 77 3d 86 66 ab bd
       0.011606402 -0.050918747 0.06048373 -0.08369164
000100 db b0 48 be 1e 96 11 be 21 39 57 3b 7a d8 20 bd
       -0.19598715 -0.14217421 0.0032840448 -0.03926895
000110 a1 87 b5 3c 34 c9 c8 3c 5a b2 85 3d 12 e3 2e 3d
       0.0221594 0.024510004 0.065281585 0.04269702
000120 ce 7a 3e 3d ae 37 9e 3d e5 0b 55 bd 48 91 1c 3d
       0.046503834 0.07725464 -0.052013297 0.03822449
000130 f0 ad 06 bd 06 40 e1 3d 95 2e 28 bc 6b 2a b6 3b
       -0.032880723 0.109985396 -0.010265012 0.005559256
000140 ab 2e 58 bd 08 9f c9 bd af 60 81 3c 72 e3 10 3d
       -0.05277888 -0.09844786 0.015793173 0.03537316
000150 18 bd d2 bd 1b 37 4d bd fa fc 08 be c0 33 44 3d
       -0.10289973 -0.05010138 -0.13377753 0.047900915
000160 1e 87 ac 3d 65 4e 5e 3c 6b 92 7d bd 88 f1 65 bd
       0.08424209 0.013568495 -0.061907213 -0.056138545
000170 cc de 89 3d 47 fa f5 bd 19 e3 f3 bc 18 16 b6 bc
       0.06731948 -0.12010627 -0.029771375 -0.022227332
000180 1b 2c af bd f8 44 ae bc 60 29 1f bc 7a 4d b4 bd
       -0.08553334 -0.021273121 -0.009714454 -0.0880384
000190 3b 03 0d be 27 b7 8d bd 83 66 11 be a8 83 c8 bd
       -0.13770764 -0.06919699 -0.14199261 -0.097907364
0001a0 ef 92 a2 3c 5e 40 84 3d 20 cf 00 3e 32 ee 90 3d
       0.019845454 0.064575896 0.12579012 0.07076682
0001b0 55 6d 4a 3d 7a 2c 00 3e 0d 26 ae 3d fe c7 be be
       0.049420673 0.12516966 0.08503351 -0.37261957
0001c0 5c 85 38 be dc 72 36 3c e0 c9 53 3d 56 a1 17 bd
       -0.18019623 0.011135783 0.051706195 -0.037019096
0001d0 88 cb bc 3c 41 07 db bd d7 1f c4 3d c0 59 c4 3d
       0.02304627 -0.10694743 0.095763855 0.09587431
0001e0 55 ce 87 bc 9c a6 79 bb 27 38 9f 3d 9f 45 d0 bd
       -0.016577879 -0.0038093692 0.07774382 -0.10169529
0001f0 f0 20 7f bd 45 1a 23 3d 39 2d cc bc 91 44 96 3d
       -0.06228727 0.039819974 -0.024923908 0.07337297
000200 55 a0 98 bb 46 7f 71 3c 06 4d cf bc 81 14 ab 3d
       -0.004657785 0.014739817 -0.025305282 0.0835352
000210 fd ee 72 3d f3 99 a4 3d 8e 0a d8 3c cd 11 2a 3b
       0.05930995 0.08037176 0.02637222 0.0025950551
000220 4d 70 7a 3d 94 32 b6 bc d5 c5 98 bd 8b 77 4d bd
       0.061142255 -0.022240914 -0.074596085 -0.050162833
000230 8b 0b f5 ba a0 eb c4 3d 9f 2f 45 bd 1f f4 37 3d
       -0.0018695457 0.096152544 -0.04814112 0.044910546
000240 fa 04 64 bd a0 fc fb bc 26 26 b9 bd ba 1d e8 3b
       -0.05566881 -0.03076011 -0.09040479 0.007083622
000250 9b ce 29 bd 25 4f de 3c 2c 6a 1f 3d 7e 56 32 3b
       -0.0414568 0.027137348 0.038919613 0.0027212198
000260 f7 c4 80 bb e7 5c 86 3d 5b e8 c9 3c 72 c7 33 bc
       -0.00392973 0.065606885 0.024646929 -0.010972844
000270 fe 68 42 3c 02 54 38 3c 82 4c ae bd 36 fd 5e 3d
       0.011865852 0.011250498 -0.085106865 0.0544407
000280 e3 ef 61 bd f4 a7 57 3c 53 ee a7 3b 24 e8 2e 3d
       -0.055160414 0.013162602 0.005124846 0.042701855
000290 00 58 d2 3c c2 5d 2d bd 7d ec 13 3c a0 fa ba bd
       0.025676727 -0.042325743 0.009028551 -0.09129834
0002a0 d9 56 9c bd c5 aa 02 3d c3 c5 b3 bc db 68 a0 3d
       -0.076337524 0.03190114 -0.021944886 0.078324996
0002b0 1b 91 88 3d 4a 3a 92 3d fd 10 26 bc b5 15 81 bd
       0.06668302 0.07140024 -0.010135886 -0.063029684
0002c0 62 d3 3c bd 9b 69 9f bd f9 a2 91 3d 01 0d 11 3c
       -0.046100028 -0.077838145 0.07111163 0.008853198
0002d0 e1 ed 0c 3d 81 3f 75 3d cf 36 44 3d d0 62 8f 3c
       0.034406547 0.059875015 0.047903832 0.017503172
0002e0 4d 10 97 3d 9d 29 2e bd e7 ee 91 bd bb 99 0d 3d
       0.07376156 -0.042520154 -0.07125645 0.034570437
0002f0 dd d6 9c bd 08 86 95 bd 68 e9 96 3d fd d6 66 bc
       -0.076581694 -0.07300955 0.073687375 -0.014089343
000300 97 ba d2 3a 1b 89 1c ba 63 62 4f 3d 45 d1 08 bd
       0.0016077337 -0.0005971358 0.05063094 -0.0334027
000310 06 53 39 3d f1 03 af bd 2c 7a 31 3d 2c 27 fa bb
       0.045245193 -0.08545674 0.043329403 -0.007634064
000320 8f 6f b9 bb c9 36 bf bd 69 b7 d2 bb 21 4e a1 bd
       -0.005659051 -0.09336621 -0.0064305556 -0.0787623
000330 cd e3 2a 3c 1d 0b 8d 3d 98 f9 95 3b aa b2 7b bd
       0.0104302885 0.06886885 0.004576873 -0.061449684
000340 a5 ec c0 bc 8e 9d 9c 3c a0 52 23 3d 6d 62 26 3d
       -0.02355034 0.019118097 0.03987372 0.04062121
000350 1b f5 80 bd d2 03 52 bd 96 b4 d9 bc 11 50 4d bd
       -0.0629675 -0.051273175 -0.026575368 -0.050125185
000360 38 dc 84 3d fb 62 66 3c 82 bd 2d 3d 14 27 6e bd
       0.06487316 0.014061685 0.042417057 -0.058142737
000370 b1 ad f8 3c 9d 09 92 3c 55 54 81 bd 64 60 6d 3d
       0.03035626 0.01782685 -0.06314913 0.057953253
000380 f2 6b a3 bc e0 21 86 3d 2b 95 42 bd 3a 09 4b 3d
       -0.019948933 0.0654943 -0.04750554 0.049569346
000390 bc f7 63 3d 68 78 5b bb dc fd 35 bd 80 c7 e6 3c
       0.05565618 -0.0033488516 -0.044431552 0.0281713
0003a0 48 aa f0 bc 96 f6 d6 bc c1 99 12 bc ab 44 82 bc
       -0.029378071 -0.026240628 -0.008947791 -0.015901884
0003b0 ca 46 14 bd 18 71 aa bd 63 e0 94 3d f0 3f 93 bd
       -0.036200322 -0.08322352 0.07269361 -0.071899295
0003c0 91 6a 73 3d 06 8c c0 bd 77 f0 05 bb e5 d3 7f bd
       0.0594278 -0.09401707 -0.0020437518 -0.062457938
0003d0 6e c0 a6 3d e7 1a 47 3d 5f 67 b6 bc fb c5 61 bd
       0.08142172 0.04860964 -0.022266088 -0.05512045
0003e0 9c fa 12 3d 2d 7c ad 3d f4 e7 93 3c 1a 59 a7 bd
       0.03588353 0.0847095 0.01805494 -0.08171292
0003f0 f1 7e 90 bd fa 64 d2 bc 80 91 c6 bd fe 3f 04 bd
       -0.07055462 -0.025682915 -0.09695721 -0.03228759

bias f4 [128]
000000 3c 4a dc bd 6b 48 31 bd 72 c0 52 bd 7f d9 dc 3d
       -0.107563466 -0.043281954 -0.05145306 0.107836716
000010 6e 1a 87 bc 92 94 22 3d f4 c5 9a bd 98 f3 d5 39
       -0.016492095 0.03969247 -0.07557288 0.00040808017
000020 7a 4c 2b bd 74 bf 5b bc 6a 23 82 3c 1a 88 00 3e
       -0.04182098 -0.013412345 0.015886027 0.12551919
000030 f0 3d bf 3d 8b 32 cf 3c 55 bb 71 3d 9e 86 c3 bc
       0.093379855 0.025292655 0.059016544 -0.023867901
000040 ec fa ab bc eb d6 eb 3d 27 89 84 3d 45 01 7d bd
       -0.020993672 0.11515602 0.06471472 -0.06176879
000050 7e 38 6a bd e1 3b 36 bc ce 77 09 3c f5 40 8d 3c
       -0.05718278 -0.011122675 0.00839038 0.017242888
000060 b4 d1 fb ba c2 b7 9d 3c 44 44 20 3e 56 fb 44 bc
       -0.0019212277 0.019252662 0.15651041 -0.012022814
000070 bb 36 5f 3b 68 54 64 3e 86 31 39 be 8e 63 80 3c
       0.0034059722 0.22297823 -0.18085298 0.015672471
000080 3f 38 72 3d 98 21 45 3d da b1 ff bc 42 ef 83 3d
       0.05913567 0.04812774 -0.031212736 0.06442119
000090 a2 44 9e 3c 0b 1c 07 3d 83 da 8a bd e4 10 d2 bd
       0.019319836 0.03298573 -0.06779959 -0.10257128
0000a0 59 93 dc 3b e5 c0 26 3d 26 6e c1 bd 00 a3 6e 3c
       0.0067314324 0.040711302 -0.09444837 0.014565229
0000b0 9a e7 cf 3d 1c 38 1f 3d 52 01 0b 3d 04 f0 bd bd
       0.10151596 0.03887187 0.033936806 -0.09274295
0000c0 48 3e b1 bb 0b fb f0 bb 6d 75 58 3d d3 45 56 3d
       -0.005409036 -0.0073541454 0.05284636 0.052312683
0000d0 4f 67 a6 bd 4b 1f ce bd 9a 05 8d 3d ff 2b 1d 3e
       -0.08125173 -0.100645624 0.06885834 0.15348814
0000e0 24 c2 f9 3d e3 3f 69 bd ff 97 3a bd 46 f0 8f bc
       0.121952325 -0.056945693 -0.04555511 -0.017570626
0000f0 e4 10 04 3e 2c a1 06 3e 89 17 94 bc 04 93 8a bd
       0.12897068 0.1314742 -0.018077629 -0.06766322
000100 f3 17 0d be 54 9a 53 bd 59 ff 62 3d fc 42 06 bc
       -0.13778667 -0.05166085 0.0554193 -0.008194681
000110 95 62 63 bd f6 74 18 3d 36 84 a3 bd 60 81 18 3d
       -0.055513937 0.037220918 -0.079842016 0.037232757
000120 1f 1c 62 3e 9f 43 2d 3e 46 91 63 3d c8 e4 be bb
       0.2208104 0.16920327 0.055558465 -0.0058256127
000130 d9 40 01 3d f1 ca 56 3d 4d 9e d0 3d 30 d3 65 3e
       0.031555984 0.052439634 0.101864435 0.22443843
000140 86 c7 b8 bd 33 51 01 be a5 91 91 3d 61 42 db 3c
       -0.09022431 -0.12628631 0.071078576 0.02676505
000150 ab c7 59 3c 05 79 d0 bc c8 b6 27 3e c0 5e 1b 3d
       0.013292233 -0.025448332 0.1637832 0.037932158
000160 d5 af 14 bd 64 87 a4 3d a3 7d 2f bd 9a d9 0b 3e
       -0.0363005 0.08033636 -0.042844426 0.13657227
000170 7b 5c 94 bd 3f 3b 21 3e 44 95 94 bd fc 96 c3 bc
       -0.07244202 0.15745257 -0.07255033 -0.023875706
000180 74 93 90 3c 64 72 cd 3d 8b ea cf 3c d4 54 1f 3e
       0.017648436 0.10031584 0.025380393 0.15559703
000190 ba a2 43 bd 13 8a af bd fe 10 c5 bc 66 54 95 bd
       -0.04776261 -0.085712574 -0.024055954 -0.07291488
0001a0 b0 85 37 bc 63 90 2f 3d 98 4c 9a 3e 2f 57 3b bd
       -0.011201307 0.042862307 0.3013656 -0.04573744
0001b0 d9 6a 03 3d f3 5b e0 bd e2 40 b8 bd c0 3c cf 3d
       0.03208432 -0.10955038 -0.089967504 0.10119009
0001c0 38 c1 8e bd d8 c5 cf 3d 6c 2c 89 bd 82 ee 25 be
       -0.06970447 0.101451576 -0.06697926 -0.16204265
0001d0 d7 6d be bd 53 42 df 3d 29 98 d2 3d b8 38 78 bd
       -0.09298294 0.10901322 0.102829285 -0.060600966
0001e0 d1 1b 80 3d da f4 e6 3d 74 95 72 bc 6c 03 ff 3c
       0.062553056 0.112771705 -0.01480614 0.031129561
0001f0 23 98 9c bd d9 5f cb 3c 47 72 b6 bd f6 99 20 3e
       -0.07646205 0.024825977 -0.089085154 0.15683731
