IO_DynaPlex/DeepControlledLearning/PolicyWeights/random_leadtimes_lpareto_d10_h1_b99/_gen.pth (torch, 382332 bytes, 10 tensors)

weight f4 [256, 101]
-0.14573681 0.041386183 -0.09998085 -0.05811521 -0.020466143 -0.021403851 -0.073214754 0.06315332
-0.046654113 -0.042230126 -0.09592662 0.079328075 -0.059815217 0.101787746 -0.0027382826 0.04476109
0.0036054058 0.04685561 0.1236085 -0.0028495295 0.020514073 0.17739978 0.13687621 0.17937885
0.10785918 0.1151478 0.16942912 0.2027056 0.07457846 0.029235166 -0.14529467 -0.2253504
-0.24479559 -0.072011106 -0.31752574 -0.22944118 -0.11280333 -0.11652874 -0.019809874 -0.06476247
-0.033607084 0.02436411 0.113597006 -0.048377734 0.07409606 0.05180964 0.025248663 0.07690031
0.024938323 -0.07782621 -0.091711156 0.08124554 0.061235674 0.057029184 0.01440805 0.0865799
-0.059137043 0.024708062 0.06367024 0.090987325 0.08440955 -0.06412933 -0.03605715 0.0783632
-0.06928738 0.017867796 0.096928336 0.07845172 0.06556029 -0.03415895 -0.06312179 0.035393108
-0.054530893 0.02455884 -0.029880883 0.032179397 -0.059190422 0.02024187 0.060234305 0.049762048
0.092152745 -0.038152948 0.046168655 0.055405628 -0.06436736 0.016881797 -0.09745877 -0.023300366
-0.09766751 0.014336915 -0.07331008 0.09055459 0.006176636 -0.083414905 0.0438612 -0.07930594
0.08965532 -0.096348286 -0.029164765 -0.05858872 -0.0020072958 0.12531194 -0.08794742 -0.050191846
0.096157454 -0.018482858 -0.08676147 -0.06037629 0.048582133 -0.12998271 -0.0294414 -0.09213232
-0.049622994 -0.08588138 -0.050777525 0.12913354 0.028722066 0.072970405 0.09057729 0.034069303
0.077900246 0.025794648 0.046310946 0.004768224 -0.05838439 -0.015503239 0.06337806 -0.016870651
-0.036228895 0.05456601 0.052053135 -0.08053192 -0.024687618 -0.018515503 0.017506236 -0.04213918
0.029062007 0.0046139667 -0.0949832 0.014782609 -0.06953254 -0.09283673 -0.08240632 0.026221303
0.0085408995 -0.09051589 -0.01585801 0.025399817 0.059509598 0.051306866 -0.060068786 -0.06668945
0.063842095 -0.028410237 -0.030129518 -0.013935418 -0.08775592 -0.03033251 0.09914315 0.0013289094
0.05668454 0.09176802 -0.09289942 0.093388654 -0.0045636967 0.0033311401 0.07618845 -0.06428015
0.08812901 -0.01687818 -0.026074158 -0.094034754 -0.0020914075 0.06845864 -0.054322008 -0.047196373
-0.094906524 -0.059402984 0.07802914 -0.01190377 -0.049675398 -0.0526572 0.08413928 0.06864885
-0.043668494 0.09257987 0.09711037 -0.09755159 -0.021979 0.045599554 0.0638213 -0.03044764
0.03319576 0.061264724 -0.058811106 -0.0026550076 0.07351525 -0.008641867 -0.033825833 -0.07574635
0.04993706 0.040808193 -0.045855436 -0.04459821 -0.06233767 -0.04499932 0.003095406 0.065951124
0.09134932 0.0213903 -0.010136329 0.043831494 0.01684876 -0.05305318 -0.019578716 -0.018119156
-0.040682822 -0.096089035 -0.076927446 0.09055374 -0.05898686 -0.004194677 0.04873724 0.019123435
0.011819469 0.0020702106 -0.01388631 -0.0011574357 0.031672593 -0.077146195 0.020962805 -0.07352425
0.06159931 -0.05061893 -0.0384301 -0.07488663 0.04971344 -0.04382897 -0.047156684 0.097182445
-0.051167786 -0.053062122 -0.04604653 0.025243632 0.02217325 -0.03435972 0.06661117 -0.014964794
-0.057344373 0.041258026 0.06352134 0.03246898 -0.08418217 -0.09157883 -0.0125317555 0.08561015
00000000: 083c 15be 8f84 293d c3c2 ccbd 370a 6ebd
00000010: 9da8 a7bc 2157 afbc 9ef1 95bd 8756 813d
00000020: 6218 3fbd 7ff9 2cbd 2d75 c4bd c276 a23d
00000030: cd00 75bd 1876 d03d c274 33bb 6857 373d
00000040: ac48 6c3b abeb 3f3d 7426 fd3d 2cbf 3abb
00000050: 210d a83c 4aa8 353e 4729 0c3e 17af 373e
00000060: 46e5 dc3d 9cd2 eb3d d47e 2d3e 0f92 4f3e
00000070: 97bc 983d 967e ef3c 20c8 14be 41c2 66be
00000080: b2ab 7abe 8f7a 93bd bc92 a2be a1f2 6abe
00000090: 6f05 e7bd 9fa6 eebd 5148 a2bc 30a2 84bd
000000a0: 95a7 09bd 3e97 c73c 8ca5 e83d bb27 46bd
000000b0: adbf 973d 5836 543d 49d6 ce3c e97d 9d3d
000000c0: 744b cc3c 5963 9fbd 0fd3 bbbd 1064 a63d
000000d0: 42d2 7a3d 6f97 693d be0f 6c3c cd50 b13d
000000e0: af39 72bd 9068 ca3c 8b65 823d 9057 ba3d
000000f0: eade ac3d 3d56 83bd aab0 13bd e37c a03d
00000100: 8be6 8dbd 7c5f 923c 5d82 c63d 4cab a03d
00000110: 7944 863d 41ea 0bbd ff45 81bd 5df8 103d
00000120: c95b 5fbd 9f2f c93c c1c8 f4bc 8bce 033d
00000130: a871 72bd 47d2 a53c 3fb8 763d 4ad3 4b3d
00000140: 94ba bc3d 4446 1cbd 581b 3d3d 03f1 623d
00000150: 09d3 83bd b24b 8a3c 7798 c7bd 69e0 bebc
00000160: e705 c8bd 61e5 6a3c 9823 96bd af74 b93d
00000170: 6165 ca3b 6fd5 aabd cda7 333d 276b a2bd
00000180: 359d b73d 4052 c5bd f2ea eebc bafa 6fbd
00000190: d68c 03bb c651 003e c71d b4bd f795 4dbd
000001a0: 33ee c43d 5d69 97bc ffaf b1bd 214d 77bd
000001b0: 0ffe 463d 301a 05be 172f f1bc dfaf bcbd
000001c0: 7b41 4bbd 94e2 afbd 18fc 4fbd 953b 043e
000001d0: 8a4a eb3c 8271 953d 9680 b93d 418c 0b3d
000001e0: 2a8a 9f3d 4c4f d33c 8cb0 3d3d c33e 9c3b
000001f0: 7824 6fbd 4c01 7ebc 5bcc 813d 5234 8abc
00000200: c064 14bd 9c80 5f3d ab35 553d ebed a4bd
00000210: b03d cabc d3ad 97bc 3d69 8f3c 229a 2cbd
00000220: 7213 ee3c c230 973b 8d86 c2bd c232 723c
00000230: 1467 8ebd 2f21 bebd a5c4 a8bd 0fce d63c
00000240: 21ef 0b3c 6560 b9bd a8e8 81bc 4713 d03c
00000250: 56c0 733d 2627 523d b00a 76bd 7a94 88bd
00000260: a5bf 823d 96bc e8bc 2ed2 f6bc 6151 64bc
00000270: 60b9 b3bd e27b f8bc 900b cb3d cd2e ae3a
00000280: 0c2e 683d dff0 bb3d 0d42 bebd 8d42 bf3d
00000290: 108b 95bb 424f 5a3b b108 9c3d 50a5 83bd
000002a0: fb7c b43d 1c44 8abc 7999 d5bc 4b95 c0bd
000002b0: ff0f 09bb 0b34 8c3d c180 5ebd fc50 41bd
000002c0: 5a5e c2bd 8b50 73bd becd 9f3d 0808 43bc
000002d0: 6e78 4bbd 13af 57bd 3751 ac3d c597 8c3d
000002e0: bcdd 32bd 849a bd3d cde1 c63d 21c9 c7bd
000002f0: 4e0d b4bc 99c6 3a3d beb4 823d 546d f9bc
00000300: 47f8 073d b8f0 7a3d eae3 70bd a3ff 2dbb
00000310: 2a8f 963d 9e96 0dbc f58c 0abd e720 9bbd
00000320: cd8a 4c3d 7e26 273d e9d2 3bbd 9dac 36bd
00000330: c955 7fbd 3551 38bd 4cdc 4a3b 6211 873d
00000340: 5a15 bb3d b63a af3c d812 26bc a788 333d
00000350: 6906 8a3c 4b4e 59bd 8b63 a0bc a06e 94bc
00000360: 08a3 26bd 54ca c4bd 238c 9dbd 3d74 b93d
00000370: 359c 71bd 8073 89bb b3a0 473d c0a8 9c3c
00000380: 72a6 413c 5fac 073b 6883 63bc 19b5 97ba
00000390: 1fbb 013d d3fe 9dbd 30ba ab3c e293 96bd
000003a0: 8f4f 7c3d cc55 4fbd e168 1dbd 295e 99bd
000003b0: 52a0 4b3d 0286 33bd 5e27 41bd 9707 c73d
000003c0: 5095 51bd ab57 59bd 499b 3cbd bccb ce3c
000003d0: ada4 b53c c7bc 0cbd 706b 883d e52e 75bc
000003e0: efe1 6abd 2dfe 283d 7a17 823d 31fe 043d
000003f0: b467 acbd ae8d bbbd fe51 4dbc 6054 af3d

bias f4 [256]
0.034451067 0.048169564 -0.002984247 -0.056589924 -0.112107284 0.15721712 -0.27711928 -0.041280713
0.26741326 -0.00274084 0.021240013 -0.33892173 -0.03769244 -0.109381974 -0.14225025 -0.015595923
0.18048172 0.07883039 -0.23235616 0.011626584 -0.039726473 0.051427204 0.1349173 0.018267775
0.3113603 -0.36098376 0.25683257 0.052852966 -0.027883183 0.19536996 0.24377039 -0.05221614
-0.032486085 -0.099438645 0.056218587 0.051290713 -0.14234383 -0.034159195 -0.08643362 -0.37870368
-0.007843865 -0.03224948 -0.18250813 0.13812958 0.27729014 -0.32893637 -0.012076062 -0.24549708
-0.17259139 -0.09269911 -0.16558366 0.0027803765 0.044092905 -0.013015449 0.02530344 0.0367667
-0.32127005 0.05267608 0.18126163 -0.022017077 -0.14487286 -0.07857751 0.07357229 -0.06142368
0.2262331 -0.04930269 -0.14078459 0.28366962 -0.06107935 0.3132678 -0.118592374 -0.19411798
-0.016122598 -0.0406634 -0.18579736 -0.2938296 0.20123069 -0.32529703 0.31690556 -0.019059533
0.12937507 0.12781827 0.08135474 -0.12528068 -0.31572986 0.053903893 -0.2304852 0.018040843
0.044345584 -0.26194003 -0.36716107 0.27965274 0.10292343 0.19605501 -0.017908622 0.010265313
-0.078544244 0.03576974 -0.15357393 0.07573856 -0.040851347 0.0036119088 -0.08722286 -0.046739865
-0.34892845 -0.17743003 -0.10807855 0.08214361 -0.023783736 0.29376176 0.0056709927 -0.007065728
-0.038925968 -0.23312217 0.029766725 -0.1970773 0.20143166 -0.22363256 0.17092226 -0.028935442
-0.16293277 0.12667619 -0.0030671472 0.0011814918 -0.3379799 -0.05616246 -0.30228373 -0.30714047
-0.03972934 -0.007896737 -0.078652084 -0.3309612 0.09655118 -0.2522854 -0.059405595 -0.033081256
0.30380055 0.1852983 -0.09263343 -0.00901594 -0.047882795 -0.30709648 -0.113634355 -0.31065142
-0.05812768 0.023692861 0.09063964 0.41115466 0.050042044 -0.16267991 0.006515096 0.04535233
0.08615856 0.15942065 0.013790408 -0.3347633 -0.0669238 0.027721077 -0.3097876 0.022879766
-0.046348777 0.011228976 -0.015636323 0.0050964174 -0.13163559 0.085585594 0.039008785 0.048707146
0.2609457 -0.08751707 0.0043871896 -0.1644931 -0.31515306 -0.09254759 -0.31148586 0.07423463
-0.06675383 0.006053417 -0.05994504 -0.13461447 -0.08281505 0.23424056 -0.02402709 0.067320235
0.11487013 -0.08522947 -0.07801319 -0.2501997 0.0070110043 -0.28503972 -0.0148881385 0.020614097
-0.21024714 0.0712928 -0.08415419 -0.15853688 -0.04111607 -0.008625951 -0.10412618 0.026117453
0.03275877 0.09264851 -0.15351513 0.0056699174 -0.35582373 0.3428542 -0.245951 -0.22159357
-0.17039385 -0.30668607 -0.022982046 -0.30042902 -0.0641852 -0.055794388 0.005453068 -0.35764402
-0.012845286 -0.17110427 0.05283083 0.29469475 -0.18149345 -0.21861234 0.08029025 0.22821277
-0.30416912 -0.003803191 -0.2733899 0.006678804 0.06350325 -0.15142211 -0.061820805 0.23444727
-0.09102997 -0.19973084 -0.13872361 -0.10525712 -0.049063206 -0.043620635 -0.09064457 0.1581322
-0.13403538 -0.11267517 -0.26878095 -0.16990983 -0.15799578 -0.35174334 -0.14424306 0.022416653
-0.04832142 -0.044286527 -0.093959466 -0.32244825 -0.09142759 -0.00093383074 -0.066197895 -0.02612195
00000000: 901c 0d3d 734d 453d 5b93 43bb d6ca 67bd
00000010: 8198 e5bd 86fd 203e 94e2 8dbe f715 29bd
00000020: 64ea 883e aa9f 33bb 89ff ad3c 2687 adbe
00000030: 6363 1abd a803 e0bd 0daa 11be 0b86 7fbc
00000040: 33d0 383e d471 a13d c6ee 6dbe 6e7d 3e3c
00000050: 3ab8 22bd 55a5 523d c327 0a3e 4da6 953c
00000060: 9e6a 9f3e ddd2 b8be 8f7f 833e 5a7c 583d
00000070: 466b e4bc 100f 483e f29e 793e 97e0 55bd
00000080: 2110 05bd 7da6 cbbd 7645 663d 3616 523d
00000090: 95c2 11be 83ea 0bbd 1c04 b1bd 73e5 c1be
000000a0: 8e83 00bc 0818 04bd 69e3 3abe d771 0d3e
000000b0: f9f8 8d3e 596a a8be adda 45bc 9663 7bbe
000000c0: ccbb 30be 08d9 bdbd c38e 29be fa36 363b
000000d0: c39a 343d c03e 55bc 2949 cf3c ae98 163d
000000e0: 827d a4be e0c2 573d a69c 393e 285d b4bc
000000f0: 8d59 14be 3fed a0bd 12ad 963d 6697 7bbd
00000100: a6a9 673e 9ef1 49bd d629 10be 253d 913e
00000110: 572e 7abd a364 a03e 8fe0 f2bd ddc6 46be
00000120: 8a13 84bc aa8e 26bd aa41 3ebe d570 96be
00000130: 6b0f 4e3e 558d a6be 7241 a23e bd22 9cbc
00000140: e67a 043e cbe2 023e 509d a63d 9449 00be
00000150: 58a7 a1be 54ca 5c3d 5004 6cbe 64ca 933c
00000160: b7a3 353d 011d 86be 89fc bbbe a52e 8f3e
00000170: 85c9 d23d a5c2 483e 1ab5 92bc d82f 283c
00000180: cedb a0bd 4a83 123d 7c42 1dbe d11c 9b3d
00000190: be53 27bd c6b5 6c3b e6a1 b2bd 4d72 3fbd
000001a0: c0a6 b2be 38b0 35be 4958 ddbd e93a a83d
000001b0: 1cd6 c2bc f167 963e bcd3 b93b 9f87 e7bb
000001c0: d670 1fbd 94b7 6ebe 59d9 f33c a2ce 49be
000001d0: 1a44 4e3e efff 64be 3f06 2f3e 050a edbc
000001e0: d9d7 26be 67b7 013e 3102 49bb 49dc 9a3a
000001f0: b40b adbe 9c0a 66bd efc4 9abe 8441 9dbe
00000200: 3bbb 22bd 5161 01bc 5814 a1bd bf73 a9be
00000210: a0bc c53d 8d2b 81be 4853 73bd 3680 07bd
00000220: bf8b 9b3e d6be 3d3e 99b6 bdbd 98b7 13bc
00000230: c020 44bd c03b 9dbe 21b9 e8bd b40d 9fbe
00000240: 4a17 6ebd 8817 c23c 47a1 b93d dd82 d23e
00000250: e3f8 4c3d 9095 26be 967c d53b 5dc3 393d
00000260: e673 b03d 2b3f 233e 2af1 613c 1866 abbe
00000270: 580f 89bd 5017 e33c 7b9c 9ebe 596e bb3c
00000280: 37d8 3dbd bdf9 373c bf17 80bc d9ff a63b
00000290: 7bcb 06be 8047 af3d adc7 1f3d 2581 473d
000002a0: ad9a 853e 263c b3bd 6ac2 8f3b e170 28be
000002b0: be5b a1be 9789 bdbd 137b 9fbe 5308 983d
000002c0: 3bb6 88bd be5b c63b ee88 75bd 60d8 09be
000002d0: f09a a9bd c2dc 6f3e 76d4 c4bc 31df 893d
000002e0: 0841 eb3d ca8c aebd 61c5 9fbd 2d1a 80be
000002f0: 91bc e53b baf0 91be 61ed 73bc e5de a83c
00000300: 074b 57be f601 923d 0859 acbd 7e57 22be
00000310: 5369 28bd dc53 0dbc 1b40 d5bd 45f4 d53c
00000320: 0f2e 063d 81be bd3d 1233 1dbe b7ca b93b
00000330: 872e b6be 968a af3e 94da 7bbe 6de9 62be
00000340: ba7b 2ebe f505 9dbe d844 bcbc d5d1 99be
00000350: 8873 83bd a888 64bd a6af b23b 1e1d b7be
00000360: 0975 52bc f535 2fbe 2465 583d 3be2 963e
00000370: 6bd9 39be eadb 5fbe 376f a43d 9cb0 693e
00000380: 0ebc 9bbe f53e 79bb c3f9 8bbe ded9 da3b
00000390: fe0d 823d 660e 1bbe d037 7dbd f212 703e
000003a0: ec6d babd 3e86 4cbe 900d 0ebe 0c91 d7bd
000003b0: 80f6 48bd 8dab 32bd dca3 b9bd 68ed 213e
000003c0: 9240 09be 3dc2 e6bd a89d 89be d8fc 2dbe
000003d0: a5c9 21be b417 b4be 74b4 13be 21a3 b73c
000003e0: aeec 45bd ca65 35bd d26d c0bd f017 a5be
000003f0: 633e bbbd 52cc 74ba c392 87bd b3fd d5bc

weight f4 [128, 256]
0.093112856 0.024222162 0.025819287 -0.05051639 -0.04779821 0.06155919 0.06153534 -0.06589383
-0.0469714 0.0051762555 -0.026333606 0.03292354 0.02012422 -0.006050482 -0.031015517 -0.014567986
0.02369921 0.044569977 -0.0027281127 0.027301893 0.039148323 -0.043348007 0.06259134 -0.04509411
-0.03628536 -0.03974445 0.03478168 -0.01383011 0.057143196 0.04465942 0.019885777 -0.005945967
-0.020358473 0.022257566 0.006428197 -0.004099639 -0.0628338 0.04086691 0.033655934 -0.029420344
-0.034218546 0.052523036 -0.008373372 -0.000842746 -0.070821665 0.026944835 -0.028309723 -0.004525912
-0.027002722 0.06525888 0.026864313 -0.026398404 -0.028666638 -0.0008152449 -0.059002183 -0.007081613
0.07700103 0.0061502308 -0.022566862 0.040697016 -0.018160138 0.015982391 0.032781344 0.02047028
-0.026013942 -0.015366518 0.0039139697 0.060526796 -0.0286806 -0.016663663 -0.041797217 0.0562198
-0.011589101 0.010256102 0.033785548 0.0518659 -0.02405968 -0.009562536 0.03676065 -0.051387876
0.011142224 0.047740813 -0.054947436 0.013469133 0.048997287 -0.024301529 -0.039226122 0.009689893
-0.06688642 -0.011817368 0.07288426 -0.034751035 0.053268194 -0.034891292 -0.019585432 -0.011820236
0.04536114 0.009047873 -0.0493151 -0.031149983 0.02677466 0.045263365 -0.03598678 -0.02145612
-0.038090207 0.009533212 0.005358832 -0.12150848 0.037599925 -0.09538239 0.040618785 -0.025505843
-0.08077524 -0.015743963 -0.0221693 0.038405333 -0.047918797 0.027796326 0.041851815 -0.031522743
-0.052157447 0.043636322 0.006617724 -0.015188042 -0.037911758 0.064008124 0.03541258 0.02485459
-0.20319651 -0.010605914 -0.014237592 0.05714082 0.0075670704 0.029245934 0.0078053847 -0.0032245617
-0.0072113294 -0.016360842 -0.058347814 -0.059610438 0.054918036 0.028461153 -0.033067226 0.118167564
-0.048071943 0.038349397 -0.00527371 -0.022287957 -0.021616314 0.040664334 0.037770096 0.046565253
-0.086340114 0.025666283 0.050615758 0.07086505 -0.04696746 -0.068149604 -0.02961423 0.022579411
0.027516358 0.026394092 -0.14426057 0.015577149 -0.05579482 -0.0420908 0.009041247 0.053961147
0.050880436 -0.033036016 -0.06514477 -0.031580377 0.047368865 -0.046327915 -0.0011023903 -0.0008729547
-0.029926876 -0.09813921 0.030037947 0.0068884077 0.034864277 -0.041606147 0.033508033 0.088848434
-0.014111993 0.0043584253 -0.035433706 0.019159615 -0.15251173 0.054441802 0.10635435 0.01862017
-0.047493365 -0.03601277 -0.01250156 0.015280128 -0.040662315 0.01031286 -0.01763976 -0.04628899
-0.016033635 -0.05601924 0.053110212 0.009455654 0.020849407 -0.010997015 0.022850713 -0.03303137
0.026059737 -0.04172713 0.04785345 -0.018187972 -0.035677567 -0.028380297 0.03464804 0.042943705
0.033053763 -0.0067318752 0.030927533 -0.018426927 -0.018958472 0.09048883 0.012305107 -0.01835891
-0.021589385 -0.018147402 -0.033124946 -0.041448466 0.028872412 -0.018387947 0.0028515607 -0.08376808
0.018074773 -0.043698225 -0.015658343 -0.012938588 0.003573436 -0.050884318 0.047538128 0.015067639
0.0812129 -0.0077828313 0.018701527 -0.03801145 0.020280538 0.10351969 0.017106958 0.02380985
-0.077273086 0.04261829 0.054757014 -0.008772197 0.0640518 -0.035952184 0.04165923 -0.010136753
00000000: f4b1 be3d 8e6d c63c f882 d33c 46ea 4ebd
00000010: 0ec8 43bd 7d25 7c3d 7b0c 7c3d 58f3 86bd
00000020: 1565 40bd 949d a93b 93b9 d7bc d5da 063d
00000030: 8cdb a43c 1f43 c6bb 4114 febc 90ae 6ebc
00000040: d824 c23c 028f 363d 23ca 32bb 38a8 df3c
00000050: fe59 203d ae8d 31bd e32f 803d 9ab4 38bd
00000060: f59f 14bd 14cb 22bd 3c77 0e3d b097 62bc
00000070: fc0e 6a3d ccec 363d 7fe7 a23c 63d6 c2bb
00000080: d0c6 a6bc 8055 b63c a0a3 d23b 4456 86bb
00000090: 02af 80bd 1064 273d ceda 093d ef02 f1bc
000000a0: bf28 0cbd 6522 573d 7830 09bc baeb 5cba
000000b0: f30a 91bd 6abb dc3c cbe9 e7bc 1a4e 94bb
000000c0: d034 ddbc 73a6 853d 8c12 dc3c 7741 d8bc
000000d0: 4cd6 eabc 29b6 55ba 46ac 71bd e00c e8bb
000000e0: b7b2 9d3d e087 c93b 24de b8bc eab1 263d
000000f0: 92c4 94bc 81ed 823c bb45 063d 4ab1 a73c
00000100: 311b d5bc d9c3 7bbc c240 803b f2ea 773d
00000110: 94f3 eabc 3c82 88bc 8f33 2bbd bc46 663d
00000120: 36e0 3dbc 3609 283c b762 0a3d 5771 543d
00000130: ce18 c5bc 2fac 1cbc 5692 163d 187c 52bd
00000140: e08d 363c df8b 433d 9010 61bd a3ad 5c3c
00000150: 61b1 483d 0014 c7bc 92ab 20bd 5bc2 1e3c
00000160: bffb 88bd a29d 41bc 5844 953d 1a57 0ebd
00000170: c02f 5a3d 2cea 0ebd a171 a0bc aaa9 41bc
00000180: 9acc 393d 883d 143c a1fe 49bd 402e ffbc
00000190: 8856 db3c 1466 393d e066 13bd bfc4 afbc
000001a0: 7a04 1cbd 3031 1c3c 2499 af3b 70d9 f8bd
000001b0: 6102 1a3d d857 c3bd e25f 263d a1f1 d0bc
000001c0: 7d6d a5bd 7cf9 80bc 649c b5bc e94e 1d3d
000001d0: 8046 44bd 1fb5 e33c cf6c 2b3d fe1d 01bd
000001e0: 0ca3 55bd 00bc 323d 7ed9 d83b 44d7 78bc
000001f0: 5c49 1bbd b116 833d c80c 113d da9b cb3c
00000200: bf12 50be 6dc4 2dbc ca44 69bc 7e0c 6a3d
00000210: 30f5 f73b 2b95 ef3c 50c4 ff3b 2b53 53bb
00000220: 044d ecbb 2c07 86bc 1efe 6ebd 132a 74bd
00000230: bcf1 603d 5d27 e93c 8071 07bd d601 f23d
00000240: 16e7 44bd 4214 1d3d 16cf acbb 3c95 b6bc
00000250: b214 b1bc a58f 263d d1b4 1a3d 35bb 3e3d
00000260: 16d3 b0bd 1942 d23c 7852 4f3d b221 913d
00000270: f460 40bd 0592 8bbd 8b99 f2bc 75f8 b83c
00000280: fc69 e13c 6c38 d83c 0bb9 13be 4c37 7f3c
00000290: 1c89 64bd 6767 2cbd bd21 143c 5d06 5d3d
000002a0: 0168 503d c650 07bd 9f6a 85bd 6d5a 01bd
000002b0: db05 423d 57c2 3dbd 157e 90ba 00d7 64ba
000002c0: 3529 f5bc 36fd c8bd 2412 f63c 27b8 e13b
000002d0: d8cd 0e3d 356b 2abd b83f 093d 2bf6 b53d
000002e0: fd35 67bc 1fd1 8e3b ef22 11bd a0f4 9c3c
000002f0: 092c 1cbe 5efe 5e3d 4fd0 d93d 5489 983c
00000300: 6788 42bd 2082 13bd 58d3 4cbc 8159 7a3c
00000310: 878d 26bd 45f7 283c 4281 90bc 8699 3dbd
00000320: f858 83bc 6e74 65bd 188a 593d e3eb 1a3c
00000330: 60cc aa3c d32c 34bc 6b31 bb3c e74b 07bd
00000340: 3b7b d53c 11ea 2abd fb01 443d f1fe 94bc
00000350: a422 12bd cc7d e8bc 1aeb 0d3d bde5 2f3d
00000360: 6263 073d 1097 dcbb bd5b fd3c 11f4 96bc
00000370: cc4e 9bbc 3552 b93d 5c9b 493c 6d65 96bc
00000380: 39dc b0bc dca9 94bc 06ae 07bd dec5 29bd
00000390: d685 ec3c 52a2 96bc 40e1 3a3b 998e abbd
000003a0: 8c11 943c e9fc 32bd ed45 80bc 5ffc 53bc
000003b0: 4f30 6a3b 136c 50bd 57b7 423d 42de 763c
000003c0: f352 a63d 1f07 ffbb f233 993c e5b1 1bbd
000003d0: 5f23 a63c 2202 d43d e423 8c3c e00c c33c
000003e0: 5a41 9ebd 8490 2e3d e448 603d 43b9 0fbc
000003f0: 972d 833d 9942 13bd dea2 2a3d a014 26bc

bias f4 [128]
-0.13010223 -0.0890433 -0.26356852 -0.24609639 -0.22001782 -0.09907972 0.03915586 -0.125677
-0.07276791 -0.046180457 -0.031676568 -0.19249102 -0.0880642 -0.18117833 -0.018103149 -0.14566468
-0.019630343 -0.26626992 0.016193226 -0.026712028 -0.007731994 0.039868522 0.0030339162 0.014304535
-0.20734967 -0.063282736 -0.11451502 -0.2618946 -0.09084828 -0.025198624 -0.06596812 -0.14804523
-0.010763699 0.013540068 -0.2141765 -0.06246343 -0.024639918 -0.006583057 0.010004973 -0.0057961224
-0.2927602 -0.23929898 -0.06963444 0.045545105 -0.12992924 -0.05797172 -0.10668275 -0.077763334
-0.045394372 -0.011272724 0.0024803395 -0.1978737 0.16022906 -0.18228577 0.034752935 -0.0024847307
-0.020293122 -0.10435779 0.004567551 0.005311485 -0.13389653 -0.109659635 -0.20698728 -0.26922846
-0.085283056 -0.1373093 -0.1321704 -0.24017075 0.025613824 0.014204625 -0.05712035 -0.061792497
0.044755135 -0.06764593 -0.042624738 0.024231773 -0.26087245 -0.06917985 0.01902653 -0.23015712
-0.080591016 -0.06692018 -0.25315627 -0.09073286 -0.2433473 0.05500295 -0.2131645 -0.20930877
-0.2550618 0.010621269 0.044208173 -0.22573774 -0.06467648 -0.18716396 0.027252387 0.055454515
-0.19115494 -0.20723367 -0.066865504 -0.0288948 0.14956093 -0.049931493 -0.06937454 -0.16198288
-0.008507774 0.03915111 -0.017137993 -0.12798792 0.014420072 -0.22371788 0.121440694 -0.26298988
0.021338377 0.041294765 -0.08362842 0.013676137 -0.010638472 -0.17773643 -0.19873574 -0.20418835
-0.064549506 -0.023759989 0.13584474 -0.2668799 0.014196646 0.033620343 0.11205951 -0.16977344
00000000: 8539 05be 555c b6bd 74f2 86be b100 7cbe
00000010: 5a4c 61be 4fea cabd e561 203d 79b1 00be
00000020: 5807 95bd b827 3dbd 4abf 01bd 5e1c 45be
00000030: 015b b4bd d086 39be 0e4d 94bc 1f29 15be
00000040: d0cf a0bc 8854 88be a8a7 843c 2fd3 dabc
00000050: ab5c fdbb 2d4d 233d abd4 463b 925d 6a3c
00000060: 7953 54be 619a 81bd da86 eabd 0d17 86be
00000070: aa0e babd 586d cebc 4b1a 87bd 2b99 17be
00000080: 3a5a 30bc 29d7 5d3c 1651 5bbe a7d9 7fbd
00000090: a7d9 c9bc afb6 d7bb e6eb 233c 66ed bdbb
000000a0: aae4 95be cb0a 75be 809c 8ebd 818d 3a3d
000000b0: 2c0c 05be c173 6dbd 7c7c dabd 6242 9fbd
000000c0: 73ef 39bd 3bb1 38bc 318d 223b 679f 4abe
000000d0: 1613 243e 1fa9 3abe 1859 0e3d ddd6 22bb
000000e0: c33d a6bc 89b9 d5bd 65ab 953b f70b ae3b
000000f0: 2c1c 09be 3b95 e0bd 79f4 53be 50d8 89be
00000100: e2a8 aebd cf9a 0cbe ad57 07be 52ef 75be
00000110: 15d4 d13c 84ba 683c 07f7 69bd 211a 7dbd
00000120: 2951 373d f389 8abd 4797 2ebd b681 c63c
00000130: 1391 85be 2aae 8dbd 87dd 9b3c 4fae 6bbe
00000140: e70c a5bd 730d 89bd b39d 81be 26d2 b9bd
00000150: 0930 79be c64a 613d cb47 5abe 0a55 56be
00000160: 7697 82be d504 2e3c a113 353d cb27 67be
00000170: 1a75 84bd e9a7 3fbe 6640 df3c 4624 633d
00000180: 1fbe 43be 1035 54be c8f0 88bd cab4 ecbc
00000190: 8026 193e f784 4cbd 3d14 8ebd d7de 25be
000001a0: 3164 0bbc ea5c 203d fa64 8cbc 440f 03be
000001b0: 2a42 6c3c 4d16 65be e6b5 f83d 9ca6 86be
000001c0: d2cd ae3c b324 293d 6145 abbd e011 603c
000001d0: fc4c 2ebc 8a00 36be 6281 4bbe c016 51be
000001e0: 8832 84bd 4fa4 c2bc e21a 0b3e 7ba4 88be
000001f0: 0d99 683c 7cb5 093d 757f e53d 17d9 2dbe

weight f4 [128, 128]
0.057559825 0.023201123 0.02261894 0.031406954 0.08916601 0.039998528 -0.04317153 0.009508629
0.0072286497 -0.036470447 0.048132975 -0.090015486 0.07637346 -0.104901865 -0.06292854 -0.030951103
-0.00041105016 -0.051814046 -0.013591482 -0.03757075 0.041411925 0.070713766 0.06293692 0.07453104
0.004525073 -0.008045889 -0.09557226 -0.02047684 0.015803117 0.0682155 0.007143923 -0.0009285639
-0.04256057 -0.023233728 -0.067320116 0.067298144 0.018514372 -0.025374558 0.01954314 0.045778707
-0.062287245 -0.06908108 -0.032555964 0.11078837 -0.08896822 -0.007992867 -0.09512191 -0.052343294
0.079983465 -0.015719423 -0.0039040626 -0.027505118 0.025092196 0.03596599 0.06763507 -0.041807804
-0.020895943 0.019899374 -0.033860773 -0.036977034 -0.05249595 0.005133095 -0.1100267 0.022395758
-0.023628883 0.0058418135 -0.07030632 0.020935852 -0.007975015 0.07958723 -0.08558677 0.03893627
0.014092601 0.0058959606 -0.07181095 0.004279062 0.05303445 0.064678565 -0.04809813 -0.102204576
-0.035174035 -0.049134195 -0.09841897 -0.06254282 -0.08119794 0.006472569 0.060497988 -0.030448047
0.09065332 0.019871086 -0.082454994 -0.03691368 0.058500618 0.02737116 0.026800964 -0.07042489
-0.17658307 -0.08629568 0.024988445 0.075429164 0.071181916 -0.06932004 -0.07622339 -0.10638778
0.074342415 0.014588753 0.037367627 0.028929457 0.047074117 -0.116361804 0.19136013 -0.070086814
-0.1285672 0.08725586 0.08614895 0.033998728 -0.00694923 0.007313882 -0.13642596 -0.0023766588
0.03244563 -0.009715473 -0.052849315 0.026414365 -0.06764741 -0.0076023387 0.012905651 0.033360314
0.034511 0.072573416 0.010339758 0.08078015 -0.015192003 -0.007618858 0.050428525 0.036476742
-0.0056748306 0.07664884 0.009813788 0.004450861 0.036959354 0.16629748 -0.009451013 0.042076457
-0.003025228 0.10247485 0.006475001 -0.049055237 -0.062125713 -0.058948323 0.034196585 0.025257323
0.027918363 0.115035705 -0.040890556 0.028692212 0.060558118 0.033446454 0.13286722 0.074011244
0.044146173 0.053567246 0.060593814 0.030368606 0.02803844 -0.054995414 -0.092608154 -0.08387
-0.029921032 0.035738807 0.065504104 -0.073917136 -0.056201745 0.069843486 0.093916185 0.038960863
-0.032167893 -0.07564668 -0.08695154 -0.020293871 -0.010852272 0.03259732 0.078018285 0.12117862
0.037960086 0.048788633 -0.029671654 0.026116481 -0.024157628 0.0847664 0.068533815 0.054635342
0.046722926 0.062445097 -0.027177239 0.010946263 -0.062583916 -0.062374044 -0.05276778 -0.01422172
-0.033199523 -0.028924745 0.08720756 -0.08017061 0.0730015 -0.034074817 0.064788856 0.007226281
-0.00844608 0.014855721 0.098552585 0.0064937593 -0.049705762 0.05281141 0.035137802 0.015052804
-0.03219066 -0.08405334 -0.07920705 0.09416889 -0.014635809 0.02177714 0.044087328 -0.05374172
0.10347955 0.07906389 0.08216498 -0.051405177 0.10536538 0.052401595 0.09075877 -0.03430845
-0.062701695 -0.052655205 -0.030627634 -0.04404717 0.039508417 -0.015514116 -0.03557733 0.082590975
-0.031244535 -0.026417173 -0.05842067 0.08206222 0.06624606 0.081479326 0.06358899 0.029915798
0.05185143 0.05551943 0.13845895 -0.0016782978 0.0015100498 0.056074306 0.06773663 -0.0017547355
00000000: dac3 6b3d 4810 be3c 5b4b b93c 94a4 003d
00000010: ab9c b63d 7fd5 233d a1d4 30bd 15ca 1b3c
00000020: 4fde ec3b 0962 15bd 1527 453d 0a5a b8bd
00000030: b069 9c3d cad6 d6bd aee0 80bd 2b8d fdbc
00000040: 3882 d7b9 f73a 54bd cfae 5ebc c9e3 19bd
00000050: 8d9f 293d 61d2 903d 12e5 803d bba3 983d
00000060: 1047 943b e8d2 03bc 64bb c3bd 0cbf a7bc
00000070: 8a75 813c 91b4 8b3d 9217 ea3b de6a 73ba
00000080: fe53 2ebd a954 bebc 21df 89bd 9cd3 893d
00000090: 74ab 973c 4ede cfbc ef18 a03c 7482 3b3d
000000a0: e920 7fbd 627a 8dbd 6759 05bd 03e5 e23d
000000b0: f834 b6bd 84f4 02bc 47cf c2bd ec65 56bd
000000c0: 5fce a33d 05c6 80bc 4ddb 7fbb 6a52 e1bc
000000d0: 268e cd3c 1351 133d 4184 8a3d a93e 2bbd
000000e0: f82d abbc 0304 a33c 98b1 0abd 3b75 17bd
000000f0: fe05 57bd 8633 a83b ae55 e1bd 4f77 b73c
00000100: 5c91 c1bc af6c bf3b c3fc 8fbd aa81 ab3c
00000110: a3a9 02bc a1fe a23d 1e48 afbd a37b 1f3d
00000120: a7e4 663c e732 c13b 9f11 93bd 6037 8c3b
00000130: a73a 593d 3276 843d 8b02 45bd a250 d1bd
00000140: a612 10bd f040 49bd e38f c9bd 7316 80bd
00000150: 1b4b a6bd d817 d43b bdcc 773d 2f6e f9bc
00000160: 73a8 b93d b0c8 a23c 2ade a8bd cd32 17bd
00000170: 589e 6f3d 7c39 e03c b28d db3c ed3a 90bd
00000180: 31d2 34be cabb b0bd 91b4 cc3c 9b7a 9a3d
00000190: d3c7 913d aaf7 8dbd 021b 9cbd d6e1 d9bd
000001a0: d640 983d aa05 6f3c cc0e 193d 78fd ec3c
000001b0: cad0 403d 194f eebd e9f3 433e ad89 8fbd
000001c0: 1fa7 03be 33b3 b23d dc6e b03d 4042 0b3d
000001d0: 5eb6 e3bb 4aa9 ef3b 3fb3 0bbe b8c1 1bbb
000001e0: b5e5 043d a62d 1fbc 8678 58bd f062 d83c
000001f0: ba8a 8abd 0a1d f9bb 3972 533c d3a4 083d
00000200: 685b 0d3d 5fa1 943d 1768 293c 1070 a53d
00000210: e1e7 78bc 9da7 f9bb 248e 4e3d a368 153d
00000220: eef3 b9bb 11fa 9c3d 03ca 203c 87d8 913b
00000230: b162 173d e349 2a3e 6cd8 1abc 5d58 2c3d
00000240: e742 46bb 56de d13d 3f2c d43b 25ee 48bd
00000250: 8877 7ebd cc73 71bd b811 0c3d 72e8 ce3c
00000260: 0db5 e43c d797 eb3d db7c 27bd ee0b eb3c
00000270: ca0b 783d 26ff 083d 580e 083e 3593 973d
00000280: 9ed2 343d 5469 5b3d 3831 783d 95c7 f83c
00000290: dfb0 e53c df42 61bd 58a9 bdbd 09c4 abbd
000002a0: f41c f5bc db62 123d 0427 863d de61 97bd
000002b0: cd33 66bd 1a0a 8f3d 2157 c03d 6d95 1f3d
000002c0: 7bc2 03bd a6ec 9abd a613 b2bd 553f a6bc
000002d0: bacd 31bc c484 053d 0dc8 9f3d 7f2c f83d
000002e0: 097c 1b3d 97d6 473d f811 f3bc 3bf2 d53c
000002f0: 38e6 c5bc 029a ad3d 755b 8c3d 4fc9 5f3d
00000300: 8a60 3f3d 6ec6 7f3d cda2 debc f457 333c
00000310: ff2b 80bd ed7b 7fbd 0723 58bd 3802 69bc
00000320: 39fc 07bd 96f3 ecbc e199 b23d 7d30 a4bd
00000330: cf81 953d 0992 0bbd 05b0 843d 70ca ec3b
00000340: 6d61 0abc 6965 733c f0d5 c93d 9ac9 d43b
00000350: 4598 4bbd c750 583d a8ec 0f3d 09a0 763c
00000360: 5ada 03bd 2824 acbd 4e37 a2bd 9edb c03d
00000370: 08cb 6fbc f965 b23c ea94 343d 4720 5cbd
00000380: 16ed d33d 40ec a13d 1d46 a83d 3c8e 52bd
00000390: cec9 d73d 0ea3 563d bcdf b93d 0487 0cbd
000003a0: bf69 80bd fcac 57bd cee6 fabc ce6a 34bd
000003b0: 94d3 213d eb2e 7ebc 89b9 11bd 7525 a93d
000003c0: 8af4 ffbc d468 d8bc 834a 6fbd 3d10 a83d
000003d0: 04ac 873d a2de a63d f23a 823d fa11 f53c
000003e0: 2a62 543d 5868 633d 2fc8 0d3e 54fa dbba
000003f0: ddec c53a 2cae 653d 81b9 8a3d 27ff e5ba

bias f4 [128]
0.0058863442 -0.23369049 -0.14567608 -0.079138316 0.0020018972 -0.030850468 0.009235254 -0.025062202
0.009554617 -0.18987523 0.073960975 0.015737843 -0.16208139 0.18237302 -0.08836617 -0.13515425
0.13540554 0.057166588 0.07356567 0.006495964 -0.025693936 0.08641742 -0.26297495 -0.10782996
0.08595731 -0.009076973 0.009197492 -0.11401094 0.2138094 0.030323714 -0.1815918 -0.12825087
-0.0040253554 0.13086163 -0.2455146 0.18817957 0.049068 -0.19671121 -0.22663632 0.040261764
0.20315008 0.14116172 -0.042479478 0.09777614 0.100664474 -0.23128106 0.08384609 0.2517741
-0.01551639 -0.00617399 -0.1573247 -0.14795445 0.071357764 -0.012808875 -0.097437195 0.09188648
-0.00849597 -0.1268956 0.1728362 -0.24903849 -0.103140764 0.052056815 -0.056128792 -0.006551672
-0.25663993 0.10865748 0.10639605 -0.2602069 -0.09245695 0.053221155 0.13470145 0.03914571
-0.18018164 0.08261318 -0.031822283 -0.06016947 -0.09226489 -0.022418926 0.0048523946 -0.22486812
-0.011607314 -0.03032181 -0.12996547 0.10015829 -0.24788803 -0.1613736 0.0021715814 -0.06799937
-0.2695681 -0.120836586 -0.064087264 -0.21250807 -0.21286495 0.19103317 -0.16487892 -0.022764957
0.12703072 -0.18340045 0.040374216 -0.16873316 0.056099597 -0.100025624 -0.08258185 -0.20061347
-0.05627277 -0.12162912 -0.07200761 0.08267969 0.17501557 -0.036681663 0.2233574 -0.04609179
-0.05037873 0.09084233 -0.25281644 -0.13023221 -0.08836497 -0.063880645 0.13629746 -0.14592753
-0.043294232 -0.0645622 -0.09209549 0.05313153 0.021977073 -0.1076553 -0.058127936 -0.22306848
00000000: 3ce2 c03b 8f4c 6fbe 1c2c 15be 4513 a2bd
00000010: 4332 033b 1fba fcbc 764f 173c 3f4f cdbc
00000020: f88a 1c3c a76e 42be da78 973d a6ec 803c
00000030: aaf8 25be febf 3a3e 53f9 b4bd e065 0abe
00000040: c0a7 0a3e 8327 6a3d 99a9 963d 18dc d43b
00000050: 177c d2bc 9efb b03d a7a4 86be f4d5 dcbd
00000060: 630a b03d 96b7 14bc 14b1 163c 917e e9bd
00000070: daf0 5a3e 7069 f83c 33f3 39be 3254 03be
00000080: 21e7 83bb 9700 063e 2e68 7bbe 25b2 403e
00000090: 87fb 483d aa6e 49be 5a13 68be 85e9 243d
000000a0: 9306 503e b38c 103e f6fe 2dbd db3e c83d
000000b0: 2d29 ce3d f1d4 6cbe 80b7 ab3d 89e8 803e
000000c0: 7538 7ebc 2f4f cabb ba19 21be 5f81 17be
000000d0: 0524 923d 51dc 51bc 278d c7bd fb2e bc3d
000000e0: ae32 0bbc ecf0 01be f9fb 303e f203 7fbe
000000f0: 773b d3bd 8739 553d 4ee7 65bd 68af d6bb
00000100: 4f66 83be d087 de3d 2ce6 d93d d739 85be
00000110: 125a bdbd 6dfe 593d 2def 093e 4157 203d
00000120: 8981 38be 1931 a93d 1558 02bd 4374 76bd
00000130: 60f5 bcbd e5a7 b7bc d600 9f3b d443 66be
00000140: 9b2c 3ebc 7265 f8bc ab15 05be ca1f cd3d
00000150: 5cd6 7dbe 1f3f 25be 1751 0e3b 4143 8bbd
00000160: d404 8abe 2c79 f7bd 2f40 83bd b79b 59be
00000170: 45f9 59be 339e 433e 05d6 28be 937d babc
00000180: 5714 023e 54cd 3bbe 6f5f 253d 63c8 2cbe
00000190: b1c8 653d 3cda ccbd ac20 a9bd 9e6d 4dbe
000001a0: 477e 66bd b018 f9bd ba78 93bd f853 a93d
000001b0: 4837 333e 833f 16bd cdb7 643e bfca 3cbd
000001c0: ed59 4ebd 8b0b ba3d 2871 81be 985b 05be
000001d0: b2f8 b4bd dbd3 82bd 9091 0b3e 076e 15be
000001e0: 4b55 31bd 3039 84bd 8f9c bcbd 72a0 593d
000001f0: 4309 b43c 627a dcbd 8f17 6ebd 106c 64be

weight f4 [128, 128]
0.03845313 -0.092005655 -0.08505387 0.007950977 0.081378296 -0.10126476 0.062248804 -0.09060523
0.036926616 0.09406736 0.043892704 0.05406957 -0.06870881 0.10055526 0.014862475 -0.05183435
-0.061575025 -0.08903122 -0.04166137 0.085981704 0.05638364 -0.04064868 -0.045135133 0.07021708
0.14128318 0.007987568 -0.044122238 -0.12182342 0.056254 -0.037292752 -0.02121031 -0.03280501
-0.007805121 0.046754003 -0.03443736 0.076658696 0.07546288 -0.06694077 -0.02166602 -0.17033035
0.028111992 0.11965641 -0.051908653 -0.053819515 0.07976988 -0.13322072 0.07146872 -0.03713674
-0.03986176 0.06302081 0.06318458 -0.10410072 0.017464502 0.07932394 -0.022428274 -0.027211027
-0.009828079 0.124796316 -0.043091394 0.03926282 -0.16986504 -0.030714823 0.029806206 0.072999924
-0.027928991 0.0765747 0.088749625 -0.09428481 0.1556615 0.043025825 0.036930423 -0.028942613
-0.07151683 -0.052471284 -0.038684405 -0.055460814 0.07507339 0.07656453 0.00073508883 0.0015368129
-0.048889264 -0.06460958 0.07559402 -0.07265863 0.10379662 -0.1021748 0.09842124 -0.05130686
0.095022716 -0.0041285893 -0.060974006 0.019938413 0.08311918 0.07059151 -0.11736467 0.021247996
-0.042845372 -0.03555799 0.05060896 -0.032841045 0.08581478 -0.06623512 -0.012908237 0.06584776
-0.0047310484 -0.04499528 -0.046280935 -0.055819232 -0.005786073 -0.06497831 -0.03639702 -0.062999815
-0.008432002 -0.016772533 0.07745483 -0.020066768 0.024532616 -0.05409365 -0.0037058087 0.043224867
0.08926273 0.05076684 -0.039428353 -0.017233577 -0.037363578 -0.003992918 -0.013594242 -0.0044114557
0.07894339 -0.054779127 -0.009293355 0.0067843287 0.014216743 0.038081046 0.037287917 -0.07202696
-0.014442633 -0.03566535 -0.013786099 -0.059001714 0.08577277 -0.09294631 0.07357235 -0.0807551
-0.07269529 0.041253146 -0.054894667 0.0879859 0.09732949 -0.086993754 0.006920333 0.050736032
0.08187072 0.011784239 -0.012603845 0.01741251 -0.03386726 -0.026101748 -0.02775381 -0.001543021
0.0044713416 0.00809618 0.08482142 -0.097447895 -0.16611691 -0.06844449 0.00036043167 -0.019548383
-0.006261385 0.081295915 -0.04077234 0.061361335 -0.08146735 -0.04371825 0.046059687 0.017068177
0.046190903 -0.014467015 -0.050203115 0.05451374 0.03813642 -0.06923383 -0.0005863731 -0.12157656
-0.14376444 0.032058757 -0.052716188 0.012691759 -0.03833734 -0.0774311 0.0084008975 -0.16344145
0.037561554 -0.057517037 -0.10503612 -0.078577444 0.037730332 -0.056093745 0.06711103 -0.0049472726
-0.0647179 0.039359093 0.0461402 0.009691504 -0.048858356 0.09141624 0.076808475 -0.059731312
0.050972994 -0.0118602365 0.082089335 -0.09669253 0.048985634 0.030526457 -0.017588342 -0.020676484
-0.054164205 0.0098651415 -0.03249551 0.088083684 0.07530389 0.093332626 -0.06365885 -0.062225606
-0.02517284 -0.07201568 0.067287885 -0.05300549 -0.064870454 0.03609005 -0.083914116 0.03379811
0.045515582 -0.0025685404 0.03497212 -0.18181883 0.08734361 0.11708957 -0.026076932 0.06854338
0.046020992 -0.041055102 -0.025301095 -0.016619332 0.047334764 -0.13450226 -0.12227865 0.03598277
0.034595188 0.033428773 -0.055616498 0.023454849 0.10977043 -0.05042848 0.0011659109 -0.049096424
00000000: 0781 1d3d 766d bcbd b930 aebd d144 023c
00000010: aaa9 a63d e663 cfbd 9af8 7e3d 3c8f b9bd
00000020: 5d40 173d 63a6 c03d d6c8 333d 0e78 5d3d
00000030: 34b7 8cbd ebef cd3d bd81 733c 4150 54bd
00000040: 1836 7cbd 0056 b6bd 1da5 2abd 2d17 b03d
00000050: 88f2 663d 3b7f 26bd 9edf 38bd f9cd 8f3d
00000060: 8aac 103e 4ade 023c 85b9 34bd 8f7e f9bd
00000070: 986a 663d 49c0 18bd 3ec1 adbc 8c5e 06bd
00000080: 1ac2 ffbb 2081 3f3d 300e 0dbd 3cff 9c3d
00000090: 488c 9a3d 3e18 89bd f07c b1bc 146b 2ebe
000000a0: 1f4b e63c 6b0e f53d 2b9e 54bd da71 5cbd
000000b0: 645e a33d 036b 08be 315e 923d b21c 18bd
000000c0: 1646 23bd 0e11 813d eb66 813d c232 d5bd
000000d0: b711 8f3c 9774 a23d 80bb b7bc a9e9 debc
000000e0: f305 21bc 3695 ff3d 9a80 30bd 0dd2 203d
000000f0: 1af1 2dbe a79d fbbc 252c f43c fc80 953d
00000100: 57cb e4bc 32d3 9c3d 5dc2 b53d 6518 c1bd
00000110: ba65 1f3e d93b 303d 5b44 173d 0f19 edbc
00000120: 6a77 92bd 21ec 56bd 8a73 1ebd e12a 63bd
00000130: 14c0 993d ddcd 9c3d fab2 403a e26e c93a
00000140: 1c40 48bd 0752 84bd 0ad1 9a3d 0cce 94bd
00000150: 5393 d43d 0641 d1bd 1391 c93d 2427 52bd
00000160: 459b c23d 1e49 87bb e1bf 79bd e255 a33c
00000170: 633a aa3d 4892 903d e35c f0bd 4710 ae3c
00000180: a17e 2fbd 41a5 11bd 574b 4f3d 5584 06bd
00000190: a9bf af3d 47a6 87bd 127d 53bc 31db 863d
000001a0: e906 9bbb f94c 38bd 1491 3dbd b5a2 64bd
000001b0: 1999 bdbb 5913 85bd 0b15 15bd 0c06 81bd
000001c0: 6126 0abc 8d66 89bc a3a0 9e3d 1063 a4bc
000001d0: a0f8 c83c 4e91 5dbd 27dd 72bb 8f0c 313d
000001e0: 61cf b63d e4f0 4f3d a07f 21bd 6e2d 8dbc
000001f0: 8d0a 19bd 06d7 82bb 62ba 5ebc f98d 90bb
00000200: 12ad a13d 1460 60bd 2843 18bc 134f de3b
00000210: 58ed 683c dffa 1b3d 37bb 183d df82 93bd
00000220: cba0 6cbc d415 12bd 17df 61bc c8ab 71bd
00000230: a2a9 af3d a35a bebd 1aad 963d ee62 a5bd
00000240: 45e1 94bd 0ff9 283d 3bd9 60bd f431 b43d
00000250: af54 c73d c829 b2bd f6c3 e23b 96d0 4f3d
00000260: d6ab a73d ae12 413c 5c80 4ebc aea4 8e3c
00000270: 65b8 0abd 55d3 d5bc f55b e3bc 313f caba
00000280: 5584 923b d7a5 043c dab6 ad3d c392 c7bd
00000290: 8d1a 2abe a02c 8cbd 52f8 bc39 ee23 a0bc
000002a0: 4e2c cdbb 797e a63d e600 27bd 0656 7b3d
000002b0: 5bd8 a6bd e811 33bd 15a9 3c3d 90d2 8b3c
000002c0: ac32 3d3d 0f07 6dbc c8a1 4dbd cd49 5f3d
000002d0: ef34 1c3d 77ca 8dbd d5b6 19ba 22fd f8bd
000002e0: fc36 13be 0b50 033d eeec 57bd 18f1 4f3c
000002f0: 9d07 1dbd 3294 9ebd eba3 093c 325d 27be
00000300: 25da 193d fc96 6bbd 2d1d d7bd 36ed a0bd
00000310: 1f8b 1a3d 8ec2 65bd 8271 893d bb1c a2bb
00000320: d18a 84bd 0037 213d 82fd 3c3d 1dc9 1e3c
00000330: b31f 48bd 7038 bb3d c34d 9d3d d2a8 74bd
00000340: 0fc9 503d 7051 42bc 741e a83d bc06 c6bd
00000350: 29a5 483d 9f12 fa3c 6d15 90bc bb61 a9bc
00000360: 49db 5dbd 67a1 213c 031a 05bd 3865 b43d
00000370: ed38 9a3d 2d25 bf3d 925f 82bd 47e0 7ebd
00000380: 4637 cebc f57c 93bd 3bce 893d 491c 59bd
00000390: cdda 84bd 29d3 133d 2adb abbd e36f 0a3d
000003a0: 8c6e 3a3d f554 28bb ed3e 0f3d b72e 3abe
000003b0: 35e1 b23d a8cc ef3d 4a9f d5bc 7960 8c3d
000003c0: 8280 3c3d 6529 28bd 3e44 cfbc 4425 88bc
000003d0: 19e2 413d f6ba 09be 3b6d fabd ab62 133d
000003e0: afb3 0d3d 9cec 083d 20ce 63bd 6224 c03c
000003f0: 52cf e03d 188e 4ebd 7ad1 983a 5519 49bd

bias f4 [128]
0.087285504 0.053637356 -0.02530205 -0.18449011 0.09155359 -0.08085352 -0.0274564 -0.19039091
-0.01528953 -0.00010471699 0.119895704 -0.1602123 -0.075082995 0.10832486 -0.087343805 -0.2294456
0.027787114 -0.17667812 -0.07595086 -0.080647714 -0.018989207 -0.08311024 0.056046937 -0.13179861
0.07648092 0.07391382 -0.0077004605 -0.005959556 -0.050780535 -0.07488768 -0.090747215 0.020386117
0.1027309 0.0914665 0.09363783 -0.12279264 -0.033302825 -0.091746226 -0.0481248 0.09339447
-0.1712985 0.1767878 0.042638715 -0.050639052 -0.06540107 -0.009913829 -0.0015125849 0.052676514
-0.13032934 0.02848884 -0.12155164 -0.048674356 0.12630346 0.08864759 0.22351485 -0.04520517
-0.077688605 -0.08840411 -0.06298488 0.07183478 0.13263752 0.15251772 0.16168034 -0.015432022
-0.04099144 0.21805486 0.23255804 -0.06793864 0.10221857 0.0048608957 -0.03058374 -0.020386418
-0.048038293 -0.012326419 0.024188686 -0.054647774 -0.09588568 -0.24477078 -0.08170416 -0.037048534
-0.03344148 -0.096439525 -0.046198547 0.11868322 0.07485574 -0.10681667 -0.04839429 0.058057807
0.06627905 0.035246912 -0.07450455 -0.045446772 -0.05339307 0.0017931182 -0.2144026 0.03532806
-0.045627896 -0.23468168 0.0304341 -0.2008715 -0.121898316 -0.19842765 -0.0036004032 -0.05639176
-0.068404116 -0.034400944 -0.018083787 0.17865612 -0.085702226 -0.057146825 0.094804466 -0.08675033
-0.081680536 0.020601604 0.17847852 -0.036060568 -0.037653815 -0.0333619 -0.06273228 -0.13770598
0.0056312163 -0.12740822 -0.10263325 -0.08091556 -0.0029192544 -0.03375825 -0.009650479 -0.07056186
00000000: bec2 b23d d8b2 5b3d 3f46 cfbc faea 3cbe
00000010: 7380 bb3d 8896 a5bd 3fec e0bc d6f5 42be
00000020: f080 7abc 829b dbb8 e18b f53d b10e 24be
00000030: 1dc5 99bd 6dd9 dd3d 4fe1 b2bd caf3 6abe
00000040: cda1 e33c 1ceb 34be 208c 9bbd a12a a5bd
00000050: 418f 9bbc b435 aabd 7991 653d 37f6 06be
00000060: 07a2 9c3d 2160 973d 2554 fcbb 6148 c3bb
00000070: 40ff 4fbd b65e 99bd add9 b9bd c900 a73c
00000080: 9464 d23d ca52 bb3d 31c5 bf3d b57a fbbd
00000090: 8b68 08bd 72e5 bbbd 831e 45bd 9a45 bf3d
000000a0: e068 2fbe dc07 353e efa5 2e3d e56a 4fbd
000000b0: fff0 85bd 9d6d 22bc ed41 c6ba 54c3 573d
000000c0: 0e75 05be 6e61 e93c 11f0 f8bd c35e 47bd
000000d0: b255 013e de8c b53d 14e1 643e 0e29 39bd
000000e0: 341b 9fbd 370d b5bd 37fe 80bd 1d1e 933d
000000f0: 21d2 073e 9b2d 1c3e 888f 253e 97d6 7cbc
00000100: a4e6 27bd c649 5f3e b223 6e3e 6a23 8bbd
00000110: f857 d13d 2648 9f3b c08a fabc 6b01 a7bc
00000120: cdc3 44bd c0f4 49bc 5a27 c63c 58d6 5fbd
00000130: b65f c4bd 31a5 7abe 8354 a7bd 34c0 17bd
00000140: eff9 08bd 1682 c5bd b03a 3dbd 3010 f33d
00000150: f74d 993d b3c2 dabd 1739 46bd 06ce 6d3d
00000160: 50bd 873d 115f 103d d795 98bd 6526 3abd
00000170: b1b2 5abd 1007 eb3a 5b8c 5bbe 28b4 103d
00000180: 51e4 3abd 6550 70be ef50 f93c 42b1 4dbe
00000190: d3a5 f9bd 9e30 4bbe bef4 6bbb 0cfb 66bd
000001a0: 7517 8cbd 01e8 0cbd 7324 94bc a1f1 363e
000001b0: a684 afbd ca12 6abd d828 c23d 28aa b1bd
000001c0: 2048 a7bd b2c4 a83c 13c3 363e 3fb4 13bd
000001d0: e33a 1abd 7da6 08bd c879 80bd cc02 0dbe
000001e0: 1186 b83b 4d77 02be 6231 d2bd 0fb7 a5bd
000001f0: f650 3fbb 1746 0abd 0b1d 1ebc bd82 90bd

weight f4 [7, 128]
-0.023357272 0.029168332 -0.05996657 0.10487988 -0.13338622 -0.023741325 -0.15072416 0.11862103
-0.041702446 0.0024539821 -0.1165928 0.13231409 -0.030772308 -0.10045392 -0.04175294 0.16256621
-0.053087827 0.10077282 0.026042953 -0.043939803 0.030793527 0.020598598 -0.034724757 0.0999315
3.9479877e-05 -0.029930871 -0.03472974 -0.036126625 0.09520793 0.09390981 0.0949131 0.081635796
-0.20903513 -0.14306371 -0.077712454 0.050142806 0.021912863 -0.10376102 0.080269255 -0.054666463
0.12051074 -0.14971955 0.0067210444 0.06453149 0.08399115 0.0071771652 -0.061866716 -0.10445423
0.060892615 0.0061864154 -0.10490811 0.09186336 0.03767241 0.0045646457 -0.1613591 0.084556885
0.06154849 0.03714199 -0.08143108 0.0003353943 -0.2322036 -0.16837253 -0.28697786 0.000530817
-0.05268001 -0.16780569 -0.190808 0.0957561 -0.12062591 0.054536924 -0.007050833 0.07853206
-0.03575885 -0.08545597 -0.09980126 0.059744403 0.11752143 0.07270653 -0.0691813 -0.0029035883
0.062305532 0.02233481 -0.02214742 -0.11497063 -0.15274139 0.05558823 -0.077091195 -0.014763931
-0.07174277 -0.22866629 0.048364263 -0.09704935 -0.039549965 -0.06439141 0.09682232 0.038675617
0.043730196 0.16367954 -0.011408445 0.06294547 0.0979127 0.105678596 -0.02282017 -0.04070635
0.06168971 0.08462373 0.042612754 -0.19838616 0.099237606 0.08574332 -0.1892722 0.024174131
0.0044674184 -0.045846406 -0.101624794 0.04590331 0.0010379796 -0.4223639 -0.060406663 0.045801878
0.035550494 0.0341953 0.09039313 -0.051624905 0.014369499 -0.2435672 0.044373058 0.009978854
-0.046016376 -0.046765223 -0.08749375 0.062332444 -0.08430945 0.08136943 -0.0022447382 0.07631015
0.07217546 0.023320142 -0.11683462 -0.05470439 0.09028689 -0.15220082 -0.043416526 -0.038788833
-0.0335624 0.062076837 0.041719396 -0.07471653 0.03903171 0.07773104 -0.009257971 0.060594514
-0.14672787 -0.063591376 0.021534046 0.0068027466 0.07323952 0.04126782 -0.00085138 0.09179182
-0.23228408 0.0037527252 -0.1771976 0.036626402 0.0031829316 -0.093705125 0.019784788 -0.04995573
-0.053482156 -0.061034754 0.06673571 0.061159834 -0.003872613 -0.028200703 -0.04080955 0.04500327
0.022086788 0.022337312 0.08309985 0.06250374 -0.031510662 0.04262472 -0.019109914 0.07055567
0.085813746 0.007875311 0.02807704 0.047384776 -0.0919447 -0.120538704 -0.28503045 0.12433808
-0.06744005 -0.16138907 -0.1761837 -0.01015358 -0.07817294 0.077628635 0.00041725804 0.04290628
0.008796693 -0.003969218 -0.111452825 0.07317151 -0.045261033 -0.053080235 0.021070834 -0.009437217
-0.014397928 -0.07172087 -0.011813192 -0.19677892 -0.1753379 0.055081557 -0.05105559 -0.0017773706
-0.09714406 0.032838892 0.008680926 0.081391305 0.07016178 -0.039167404 -0.03924167 0.038967125
0.08755013 -0.026697965 0.06160866 -0.01665558 0.08035345 0.061581936 0.040180884 -0.062067974
0.0065404093 0.035774484 -0.083873354 -0.1228597 -0.047132254 0.03755359 -0.12853052 0.034569886
0.027523609 -0.06144883 -0.02882435 -0.02879631 -0.07576532 -0.1660295 -0.05801727 -0.022611018
-0.049126673 0.043799408 0.0007781278 -0.059737653 0.023542417 -0.008221707 0.07109035 0.044950567
00000000: c057 bfbc 6df2 ee3c 829f 75bd 43cb d63d
00000010: 6696 08be 2b7d c2bc 6f57 1abe 95ef f23d
00000020: 2fd0 2abd fdd2 203b 35c8 eebd 587d 073e
00000030: 3516 fcbc c9ba cdbd 2105 2bbd c277 263e
00000040: 9f72 59bd fb61 ce3d 0858 d53c 39fa 33bd
00000050: b542 fc3c 64be a83c 8c3b 0ebd e3a8 cc3d
00000060: 3297 2538 9631 f5bc c640 0ebd 83f9 13bd
00000070: 60fc c23d c953 c03d cd61 c23d ab30 a73d
00000080: 4e0d 56be 4b7f 12be b527 9fbd 8b62 4d3d
00000090: 9b82 b33c a880 d4bd 3564 a43d f1e9 5fbd
000000a0: 56ce f63d 1550 19be 353c dc3b 1629 843d
000000b0: 8d03 ac3d 6d2e eb3b f467 7dbd 19ec d5bd
000000c0: 896a 793d 6ab7 ca3b 10da d6bd db22 bc3d
000000d0: 634e 1a3d 0693 953b 523b 25be 292c ad3d
000000e0: 451a 7c3d 3322 183d 57c5 a6bd dcd7 af39
000000f0: c8c6 6dbe d969 2cbe c3ee 92be 8726 0b3a
00000100: ffc6 57bd 41d5 2bbe 2c63 43be c61b c43d
00000110: b80a f7bd 1c62 5f3d ad0a e7bb 6bd5 a03d
00000120: df77 12bd 8a03 afbd 9a64 ccbd 8cb6 743d
00000130: 13af f03d 29e7 943d edae 8dbd 214a 3ebb
00000140: 1634 7f3d 7ef7 b63c 826e b5bc b975 ebbd
00000150: 3d68 1cbe 7cb0 633d fde1 9dbd 6ae4 71bc
00000160: e0ed 92bd 7f27 6abe 9b19 463d cfc1 c6bd
00000170: 25ff 21bd a5df 83bd c84a c63d 536a 1e3d
00000180: 6f1e 333d 9c9b 273e 7dea 3abc 8ee9 803d
00000190: 7486 c83d 056e d83d 5df1 babc b4bb 26bd
000001a0: 59ae 7c3d 354f ad3d b68a 2e3d be25 4bbe
000001b0: 163d cb3d 329a af3d 92d0 41be d408 c63c
000001c0: 6c63 923b 71c9 3bbd a920 d0bd 1c05 3c3d
000001d0: d10c 883a 1540 d8be fa6c 77bd c09a 3b3d
000001e0: 659d 113d 5f10 0c3d 0920 b93d a374 53bd
000001f0: 0c6e 6b3c ae69 79be 86c0 353d 597e 233c
00000200: ab7b 3cbd e48c 3fbd ec2f b3bd 4e50 7f3d
00000210: 6faa acbd 04a5 a63d 751c 13bb 7f48 9c3d
00000220: bad0 933d e209 bf3c fd46 efbd b611 60bd
00000230: 55e8 b83d 88da 1bbe 87d5 31bd 0ae1 1ebd
00000240: ba78 09bd 4844 7e3d f5e1 2a3d fb04 99bd
00000250: b7df 1f3d 7431 9f3d bfae 17bc f431 783d
00000260: d53f 16be 323c 82bd 2b68 b03c 93e9 de3b
00000270: 9afe 953d 7208 293d 252f 5fba 5afd bb3d
00000280: e1db 6dbe 48f0 753b 4a73 35be 9105 163d
00000290: bb98 503b 79e8 bfbd b513 a23c 619e 4cbd
000002a0: 1b10 5bbd 94ff 79bd bbac 883d bc82 7a3d
000002b0: aacb 7dbb 2905 e7bc ea27 27bd 5955 383d
000002c0: 5aef b43c bdfc b63c 4130 aa3d f601 803d
000002d0: 5311 01bd 4297 2e3d 658c 9cbc 7e7f 903d
000002e0: 1ebf af3d 7307 013c d201 e63c 8a16 423d
000002f0: 814d bcbd ffdc f6bd 83ef 91be f7a4 fe3d
00000300: 021e 8abd 2d43 25be 8069 34be 345b 26bc
00000310: 2219 a0bd c3fb 9e3d 6dc3 da39 7fbe 2f3d
00000320: 0120 103c 3710 82bb 6141 e4bd f2da 953d
00000330: a263 39bd a96a 59bd be9c ac3c 8f9e 1abc
00000340: 49e5 6bbc 64e2 92bd 1e8c 41bc 6a80 49be
00000350: c78b 33be 339d 613d ab1f 51bd a9f6 e8ba
00000360: 77f3 c6bd 1382 063d 713a 0e3c 7cb0 a63d
00000370: fbb0 8f3d 006e 20bd e0bb 20bd fe9b 1f3d
00000380: 7c4d b33d b1b5 dabc 5d59 7c3d 4871 88bc
00000390: 5990 a43d 573d 7c3d b694 243d fd3a 7ebd
000003a0: ee50 d63b 4488 123d cbc5 abbd de9d fbbd
000003b0: c00d 41bd cbd1 193d 819d 03be 2799 0d3d
000003c0: 3179 e13c c5b1 7bbd 0b21 ecbc 3de6 ebbc
000003d0: d92a 9bbd a303 2abe 84a3 6dbd be3a b9bc
000003e0: 0d39 49bd 0267 333d 46fb 4b3a 78af 74bd
000003f0: 07dc c03c 57b4 06bc d197 913d 161e 383d

bias f4 [7]
-0.12295952 0.103320494 0.15728049 0.058174632 -0.012303091 0.09604914 -0.023868777
00000000: 33d2 fbbd b299 d33d 230e 213e 8648 6e3d
00000010: e792 49bc 69b5 c43d 7488 c3bc
