IO_DynaPlex/DeepControlledLearning/PolicyWeights/perishable_systems_m5_l0_cvr1.000000_f1.000000_DCL0/l_gen.pth (torch, 292385 bytes, 10 tensors)

weight f4 [256, 4]
0.04603378 -0.06482556 0.1299406 0.30387902 0.25100616 0.2813871 0.1111067 0.22694796
0.14000498 0.15203248 0.08056263 0.24691138 -0.49598783 0.08329388 -0.23189586 -0.016289853
-0.3303944 0.4125955 0.0041683433 -0.0016352382 -0.4970036 -0.2026974 -0.5309379 0.26746544
0.03372679 -0.3431157 -0.5586777 -0.3315472 0.15337656 0.48790258 -0.48239493 0.20494628
0.4864095 0.15594383 -0.2362103 0.0423569 -0.036394097 0.3232035 -0.15650895 0.22837959
0.28926983 -0.28541338 0.33493143 -0.45946008 -0.026832562 -0.120307095 0.4267001 0.10279017
-0.034388144 -0.24760836 -0.3577111 0.35573766 0.44241425 -0.122860365 0.4221294 -0.29801232
-0.07486699 0.21772373 -0.29967895 -0.07474314 0.2700069 -0.42953172 -0.4938956 0.0048127463
0.55713403 -0.34052747 0.19970194 0.4724017 0.48660538 0.017252073 -0.041118015 0.14522083
-0.122394726 -0.64680064 -0.4780986 0.20920373 0.511361 -0.2888379 0.06703246 -0.06999282
0.0044038487 0.3281866 0.2979279 -0.48961622 0.38795617 -0.0065417336 0.39175108 0.23651549
0.33453003 -0.3799807 -0.22324684 0.1431413 0.08028878 -0.30357644 0.39099592 -0.19291805
0.3983926 0.2798784 -0.1821687 0.081441216 0.25357133 -0.48106897 -0.64434063 0.04040122
0.22577198 -0.25354642 0.24763507 0.07362934 -0.037489355 -0.32667845 -0.44409984 -0.07618178
0.35935244 -0.31646135 -0.4505553 -0.28072557 0.4702122 -0.25703046 -0.39946207 -0.29606315
0.4343711 -0.045360003 0.36535692 0.15316105 -0.038708854 0.36881852 0.3874423 -0.16694134
-0.1887339 -0.3252648 0.06991388 0.25568298 -0.011037981 -0.21338402 -0.24029075 -0.015775494
-0.10303394 -0.08590591 -0.25217998 0.45433927 0.07821489 -0.41797495 0.43616542 0.12461762
-0.2736221 0.24775845 0.12411914 -0.37051532 0.11705485 0.21165057 -0.2813326 -0.10407983
-0.09410427 -0.3581848 0.48213685 -0.4125578 -0.29452887 -0.18238987 0.32074 0.038657952
0.22078107 0.087585814 0.3314835 0.06293072 0.078645505 0.048882212 0.24072134 0.38707578
0.12676053 0.033019662 0.33142534 -0.007673025 0.3984492 0.39882004 -0.36734894 0.079744376
-0.046696678 -0.107391685 0.4328725 -0.17327484 -0.24845223 0.20021173 0.31768122 -0.12894382
0.28102434 0.11332469 -0.45642868 0.334366 0.30125728 0.39222822 0.3376129 -0.18689422
-0.3456948 -0.27713248 0.48344958 -0.38182366 -0.3638662 -0.02206975 -0.348223 0.07431173
0.42689347 0.36404997 0.03800997 -0.39077482 -0.469786 0.39349177 0.45713943 0.29866654
0.05530843 0.51087946 0.35133713 -0.18471386 -0.048324816 -0.14586799 0.10748256 -0.3742899
-0.51695746 -0.541519 0.38045952 -0.367138 0.2755515 -0.03173315 0.24346383 -0.70055354
0.030714488 0.34120446 -0.36780128 0.2905835 -0.16827796 0.09038496 0.17277974 0.21088292
-0.047717594 -0.3995655 0.41619515 0.079414055 -0.076615356 0.1469582 0.08735274 -0.36015844
0.45583653 0.40616074 0.45884103 0.3682205 -0.39146227 -0.015264957 -0.15339795 0.15857089
-0.20179957 0.09179576 0.39867175 -0.19059177 -0.54172236 -0.15401568 0.07636229 -0.030731324
00000000: eb8d 3c3d 43c3 84bd 260f 053e 0896 9b3e
00000010: e183 803e f811 903e e98b e33d 0c65 683e
00000020: 775d 0f3e 67ae 1b3e 05fe a43d 56d6 7c3e
00000030: 1ef2 fdbe fb95 aa3d 1c76 6dbe 4c72 85bc
00000040: 7429 a9be b83f d33e 9996 883b 7d55 d6ba
00000050: 4177 febe e88f 4fbe 8ceb 07bf 3bf1 883e
00000060: 1a25 0a3d dcac afbe 8005 0fbf 8ec0 a9be
00000070: bf0e 1d3e 5ece f93e 78fc f6be 70dd 513e
00000080: aa0a f93e bdaf 1f3e 1de1 71be 6e7e 2d3d
00000090: fa11 15bd ee7a a53e e243 20be 57dc 693e
000000a0: 2d1b 943e b421 92be 227c ab3e 5a3e ebbe
000000b0: f6cf dbbc 9163 f6bd 6f78 da3e a783 d23d
000000c0: 95da 0cbd 0c8d 7dbe e925 b7be 3f23 b63e
000000d0: 1f84 e23e 379e fbbd 5821 d83e 1295 98be
000000e0: dd53 99bd f8f2 5e3e 856f 99be ee12 99bd
000000f0: 583e 8a3e 95eb dbbe e2df fcbe 3eb4 9d3b
00000100: 56a0 0e3f 9e59 aebe aa7e 4c3e a3de f13e
00000110: 5724 f93e 3854 8d3c 5d6b 28bd c5b4 143e
00000120: 16aa fabd ba94 25bf 57c9 f4be 8139 563e
00000130: 8ee8 023f 90e2 93be 5048 893d 6558 8fbd
00000140: 294e 903b 1308 a83e 018a 983e faae fabe
00000150: 31a2 c63e 0a5c d6bb 9993 c83e 1e31 723e
00000160: 8547 ab3e d58c c2be d29a 64be a293 123e
00000170: 726e a43d 5f6e 9bbe 9e30 c83e 4f8c 45be
00000180: 1dfa cb3e 394c 8f3e 6f8a 3abe a7ca a63d
00000190: 1ad4 813e ac4e f6be 82f3 24bf c07b 253d
000001a0: c530 673e d6d0 81be 0c94 7d3e fbca 963d
000001b0: 708e 19bd 6642 a7be 0e61 e3be 3105 9cbd
000001c0: 0bfd b73e 3907 a2be 2faf e6be 43bb 8fbe
000001d0: a7bf f03e 7f99 83be 4b86 ccbe 9795 97be
000001e0: e465 de3e 69cb 39bd 1010 bb3e 40d6 1c3e
000001f0: 2d8d 1ebd c8d5 bc3e d65e c63e acf2 2abe
00000200: 7643 41be 1c89 a6be 022f 8f3d e1e8 823e
00000210: a6d8 34bc 5781 5abe c70e 76be 9c3b 81bc
00000220: 7503 d3bd 70ef afbd bc1d 81be 289f e83e
00000230: 212f a03d d000 d6be 1351 df3e 8637 ff3d
00000240: 3218 8cbe 64b4 7d3e 2d32 fe3d 2fb4 bdbe
00000250: 74ba ef3d edba 583e d40a 90be ce27 d5bd
00000260: bdb9 c0bd 0064 b7be a4da f63e c73a d3be
00000270: 7dcc 96be 69c4 3abe 0938 a43e cd57 1e3d
00000280: 6f14 623e 3160 b33d 35b8 a93e d2e1 803d
00000290: e510 a13d b738 483d a87f 763e cc2e c63e
000002a0: 83cd 013e a03f 073d 95b0 a93e 006e fbbb
000002b0: 8901 cc3e 2432 cc3e 2915 bcbe 0551 a33d
000002c0: 0445 3fbd 2cf0 dbbd 77a1 dd3e f66e 31be
000002d0: 436a 7ebe 4e04 4d3e 1da7 a23e d909 04be
000002e0: 6ce2 8f3e c616 e83d 05b1 e9be 0532 ab3e
000002f0: 653e 9a3e 23d2 c83e 99db ac3e 3361 3fbe
00000300: e9fe b0be 4fe4 8dbe b486 f73e 647e c3be
00000310: ac4c babe 9fcb b4bc 494a b2be c030 983d
00000320: c891 da3e c264 ba3e 58b0 1b3d a313 c8be
00000330: ca87 f0be c177 c93e 2e0e ea3e d2ea 983e
00000340: 188b 623d ffc8 023f 76e2 b33e a125 3dbe
00000350: 3ef0 45bd 6b5e 15be d11f dc3d eda2 bfbe
00000360: 5357 04bf fda0 0abf 97cb c23e 83f9 bbbe
00000370: 1615 8d3e 9ffa 01bd 954e 793e 7a57 33bf
00000380: f39c fb3c 5ab2 ae3e 7350 bcbe 5cc7 943e
00000390: 0f51 2cbe c01b b93d 2ced 303e b1f1 573e
000003a0: 8673 43bd d993 ccbe 8817 d53e d6a3 a23d
000003b0: 83e8 9cbd 367c 163e fee5 b23d b066 b8be
000003c0: 6863 e93e 4df4 cf3e 36ed ea3e 6687 bc3e
000003d0: be6d c8be df19 7abc 5a14 1dbe 6860 223e
000003e0: 8ca4 4ebe 6aff bb3d b41e cc3e 7d2a 43be
000003f0: 51ae 0abf 49b6 1dbe d563 9c3d 42c0 fbbc

bias f4 [256]
-0.13033831 0.47667852 0.59720534 0.042523332 0.13805477 0.23728125 0.54966956 0.34349877
0.22160567 -0.07524289 0.12992916 -0.48947546 0.37729847 0.3998002 -0.28551686 -0.3111596
-0.43583417 0.25880662 -0.2063267 -0.06978473 -0.07602744 -0.18402751 0.2257888 0.0575806
-0.40050584 -0.052650936 -0.20883898 0.33500302 0.4563882 0.4288399 -0.50135434 -0.21400714
0.25514957 0.5550301 -0.28137532 -0.27705917 0.475015 -0.28108814 -0.4733729 0.11302756
0.44397342 -0.59601766 -0.29420114 -0.18595493 -0.4704027 0.15949988 0.23323293 -0.17989527
0.24464825 -0.16741651 -0.17762035 -0.35146633 0.42496368 0.6245597 -0.12731826 -0.34293067
-0.033291273 -0.04689823 -0.3069596 -0.5034524 -0.49884182 -0.481173 0.34038123 -0.22069772
0.59560424 0.34322125 -0.02263645 -0.4889607 -0.16301079 -0.14836085 0.6388359 -0.15448493
0.06416883 -0.4285861 -0.00919632 -0.38662454 0.064927265 -0.3804963 -0.11895086 -0.043836158
0.49335113 0.1850452 -0.08359528 -0.46078107 0.5498268 0.5335288 -0.25742415 0.28523138
0.411743 -0.102873005 -0.05208121 -0.46664107 -0.36536756 -0.37142122 -0.18259488 0.43305925
0.6156132 0.2963794 -0.27539 0.050960552 -0.24524447 0.3901836 -0.43350586 -0.31102613
-0.27494937 0.55525815 -0.1829291 -0.12636542 -0.34463543 -0.58968973 0.011421726 -0.33632693
0.18329471 0.4666302 -0.21483459 -0.3287509 -0.27160034 0.6242998 0.5504339 -0.5434904
0.43704307 -0.55698043 -0.42822227 -0.362363 -0.27022162 -0.13041484 -0.23557226 -0.40240717
0.39695954 -0.18458942 -0.57308316 0.5234326 -0.017431844 0.56090397 0.24843785 0.45036408
-0.3667588 0.5991094 -0.4604428 -0.18913732 0.4466406 0.24881215 -0.5493198 -0.19564918
0.54876256 -0.19494261 -0.5284428 -0.3608607 0.21478604 -0.15347324 0.47305295 -0.18759258
-0.2219903 -0.2493077 -0.14925925 -0.4827973 -0.059511013 0.21772891 -0.4057886 0.34002802
-0.323935 0.07100339 0.587995 -0.45443004 0.11654287 -0.6437875 0.1425741 0.10352094
0.20086883 -0.3216447 0.43996358 -0.060910374 -0.113111734 0.39966482 0.39254475 0.14013068
0.57150966 -0.16032958 -0.31540257 0.34047702 0.16095336 -0.4771309 -0.34969866 -0.37140232
-0.2841184 -0.22183953 -0.42205182 -0.4306791 -0.21730709 -0.35579282 0.2738625 0.467135
-0.093930826 -0.43338627 0.61078346 0.3535382 -0.06841047 0.13488503 0.58775365 0.3965533
-0.026206493 -0.40499714 -0.57056344 -0.033796206 -0.3695709 -0.077308774 0.10479993 0.44737265
0.21540913 0.03297529 0.476278 -0.08133777 -0.11267595 0.28072816 -0.021357948 0.42360446
-0.5203129 -0.541066 -0.1452984 0.58637834 0.46310169 0.00894992 -0.020024942 -0.14008765
-0.47556442 -0.4215113 -0.18236114 -0.22783522 0.3553759 -0.3670399 -0.24925798 -0.62490505
-0.4382398 0.20152746 -0.1225617 -0.40177748 -0.005285568 0.38237932 -0.3461444 -0.12669629
0.34218714 0.39637366 -0.34909552 -0.60488343 0.253386 0.07510494 0.43361536 0.5917526
-0.14027731 0.59340227 -0.27490383 -0.38029808 -0.23802336 -0.15445867 0.46813527 0.20372915
00000000: 6877 05be 350f f43e 73e2 183f f22c 2e3d
00000010: 3b5e 0d3e dbf9 723e 25b7 0c3f 12df af3e
00000020: 99ec 623e f218 9abd 260c 053e 879c fabe
00000030: 442d c13e 9db2 cc3e 442f 92be 5050 9fbe
00000040: a825 dfbe 4d82 843e 4e47 53be 4ceb 8ebd
00000050: 46b4 9bbd b571 3cbe 2e35 673e a3d9 6b3d
00000060: 1a0f cdbe 82a8 57bd e3d9 55be 8485 ab3e
00000070: b7ab e93e e790 db3e c258 00bf b024 5bbe
00000080: f7a2 823e 7416 0e3f 6d10 90be b3da 8dbe
00000090: 2b35 f33e c9ea 8fbe ef5d f2be fe7a e73d
000000a0: 7c50 e33e 9d94 18bf 88a1 96be f86a 3ebe
000000b0: 9fd8 f0be f053 233e 9dd4 6e3e 7736 38be
000000c0: 1285 7a3e 3c6f 2bbe 1ce2 35be 65f3 b3be
000000d0: d794 d93e 25e3 1f3f b85f 02be 9c94 afbe
000000e0: 6e5c 08bd 5c18 40bd cf29 9dbe 42e2 00bf
000000f0: 3268 ffbe 4f5c f6be 7346 ae3e 95fe 61be
00000100: 8579 183f b2ba af3e 1470 b9bc 0f59 fabe
00000110: 4dec 26be e8eb 17be c08a 233f 4c31 1ebe
00000120: f36a 833d a36f dbbe 29ac 16bc a7f3 c5be
00000130: 96f8 843d 69d0 c2be 829c f3bd 8b8d 33bd
00000140: 8598 fc3e 7d7c 3d3e 0134 abbd 7feb ebbe
00000150: 73c1 0c3f 5895 083f 19cd 83be d909 923e
00000160: facf d23e 15af d2bd 1b53 55bd 94eb eebe
00000170: 7511 bbbe ec2a bebe 27fa 3abe f1b9 dd3e
00000180: d498 1d3f 0abf 973e ebff 8cbe 03bc 503d
00000190: 5e21 7bbe 25c6 c73e 7bf4 ddbe d13e 9fbe
000001a0: 2ac6 8cbe 6625 0e3f c451 3bbe f065 01be
000001b0: 0e74 b0be e8f5 16bf 3122 3b3c 0b33 acbe
000001c0: 9cb1 3b3e 27ea ee3e 99fd 5bbe 0a52 a8be
000001d0: 330f 8bbe 1dd2 1f3f 3ce9 0c3f 3022 0bbf
000001e0: 1cc4 df3e 4596 0ebf f33f dbbe a587 b9be
000001f0: 7d5a 8abe 788b 05be db39 71be 5008 cebe
00000200: 483e cb3e 0205 3dbe 94b5 12bf aeff 053f
00000210: 3acd 8ebc 6797 0f3f 7e66 7e3e 1f96 e63e
00000220: cfc7 bbbe 3c5f 193f 29bf ebbe 37ad 41be
00000230: 14ae e43e 9dc8 7e3e 39a0 0cbf 4258 48be
00000240: b47b 0c3f 099f 47be 0748 07bf bcc2 b8be
00000250: dff0 5b3e 1728 1dbe ff33 f23e 4518 40be
00000260: 6d51 63be 854a 7fbe 6bd7 18be 3531 f7be
00000270: d2c1 73bd 54f4 5e3e 86c3 cfbe 2718 ae3e
00000280: cfda a5be 3a6a 913d d786 163f 0eab e8be
00000290: 07ae ee3d 42cf 24bf f2fe 113e c902 d43d
000002a0: 8fb0 4d3e 9dae a4be e842 e13e 287d 79bd
000002b0: 20a7 e7bd dea0 cc3e a0fb c83e 6b7e 0f3e
000002c0: 754e 123f 702d 24be 727c a1be 0153 ae3e
000002d0: f5d0 243e 804a f4be b40b b3be 7228 bebe
000002e0: f877 91be e729 63be 2d17 d8be f981 dcbe
000002f0: c085 5ebe 7a2a b6be b537 8c3e 522c ef3e
00000300: ce5e c0bd cee4 ddbe 4e5c 1c3f f502 b53e
00000310: ca1a 8cbd 4d1f 0a3e 0677 163f 0909 cb3e
00000320: 00af d6bc c95b cfbe 7210 12bf e46d 0abd
00000330: 6638 bdbe 1054 9ebd 58a1 d63d 070e e53e
00000340: 3694 5c3e 1911 073d b6da f33e 6b94 a6bd
00000350: a6c2 e6bd 9abb 8f3e ddf6 aebc afe2 d83e
00000360: 3a33 05bf 4d83 0abf 1bc9 14be e41c 163f
00000370: aa1b ed3e afa2 123c 590b a4bc 2373 0fbe
00000380: 2e7d f3be 54d0 d7be e1bc 3abe a34d 69be
00000390: d4f3 b53e a7ec bbbe 7c3d 7fbe c7f9 1fbf
000003a0: f860 e0be 375d 4e3e a101 fbbd c7b5 cdbe
000003b0: 8f32 adbb 39c7 c33e d739 b1be acbc 01be
000003c0: 2733 af3e 7df1 ca3e a6bc b2be a4d9 1abf
000003d0: cfbb 813e 9ed0 993d d502 de3e 197d 173f
000003e0: dba4 0fbe 36e9 173f 32c0 8cbe 6eb6 c2be
000003f0: 65bc 73be 6a2a 1ebe 6daf ef3e 609e 503e

weight f4 [128, 256]
-0.009274952 -0.0261553 0.004524979 -0.025310084 -0.044823818 -0.0078125205 0.01092123 -0.0156078115
-0.0316154 -0.07061366 -0.008715812 -0.038618412 -0.0002462165 0.04685006 -0.0027457045 -0.00019878894
-0.02757874 -0.07472213 0.04790139 0.04251293 0.043596044 -0.01356655 -0.0048725703 -0.030341923
0.041545726 0.032040298 0.0002631406 -0.04393797 0.046938118 0.053522855 0.011949195 0.03267046
-0.04738659 0.040934205 -0.024373638 -0.006282774 -0.03237454 -0.016176224 0.03551338 0.033716034
-0.02590899 0.01727307 -0.031456538 -0.011650588 0.041131176 0.039184615 -0.018026901 0.015348351
-0.034243267 -0.05028654 0.0033750162 -0.03221443 -0.009294749 -0.041884597 0.027478883 -0.02680492
0.028897548 -0.054840628 0.019401345 0.038283277 -0.033507906 0.028530061 -0.070311405 0.04236469
-0.03419694 -0.0053289765 -0.014847467 0.013376026 0.05342126 0.05226045 0.014776895 -0.031010555
-0.051935688 -0.069258384 0.056248777 -0.023966147 -0.033771016 -0.006041148 0.029789928 0.037118662
-0.05805306 0.042276468 -0.0071970196 0.022641381 -0.06119027 0.04633158 -0.06154603 -0.022978792
0.029078778 0.034319203 -0.013523652 0.015123618 0.008244463 0.034038056 -0.06485149 0.019412326
-0.012708399 -0.05203749 0.044871014 0.02873358 0.0040117884 -0.022452218 -0.036142934 0.04767914
-0.0014947584 -0.03889426 0.03129704 0.036022518 -0.054738194 0.0056854486 0.041833177 -0.006467295
-0.040198084 -0.0325125 0.018725723 -0.06519404 -0.043723796 0.00010804001 0.0028679825 0.0010510953
-0.027045412 0.03958378 0.03185626 0.025836905 -0.055544183 0.02383776 0.03411679 0.04236329
-0.0054662465 -0.057968426 0.045536496 -0.038811132 -0.057524644 -0.030083159 -0.03355422 0.06522736
0.047507748 -0.04337513 -0.04218707 -0.012721733 0.048374828 -0.039502133 -0.03264794 0.024409987
0.006823664 0.026198598 -0.065840304 0.010576131 -0.043961816 0.019244695 -0.032762893 -0.073053695
-0.016061848 0.036243927 -0.04338587 0.018360436 0.037889846 -0.06380585 0.015643753 0.03037136
0.028964648 0.0004514494 -0.034429207 -0.030135525 -0.071964554 0.03489322 -0.039399102 -0.034500018
0.03556265 0.04746 0.00027266899 -0.013156576 -0.019272216 -0.023681303 -0.06807686 0.0071595595
0.044490688 0.043448415 0.036836993 0.043601178 -0.05363165 0.02695357 -0.020173931 -0.0025786227
-0.023792457 0.017661525 0.058161564 -0.044094108 0.0121185975 -0.0057927035 0.016226662 -0.0027434449
0.04464976 -0.04588743 0.02489134 0.031366337 -0.06267944 -0.02738207 0.039494753 0.022613512
-0.031006053 -0.06425752 0.018999606 0.023519553 -0.06302907 0.009496178 -0.027644223 -0.048124846
0.011463977 -0.074723125 -0.04829838 0.023772156 -0.043673683 -0.011380798 0.057137795 0.006966838
0.060898673 -0.06949231 0.024851428 -0.025133798 0.041449644 -0.061470743 0.0320595 -0.0050403755
0.035547137 0.020964617 -0.050609197 -0.008574662 -0.038425647 0.013055258 -0.013709046 0.04059253
-0.008262479 -0.015606133 0.054570973 -0.024456507 0.048732463 0.011160321 0.0015208522 0.02468967
-0.01060497 0.0230235 0.0098861335 0.042305276 0.032707203 -0.039790835 -0.020427132 0.0049621323
-0.027161578 0.00112988 -0.011075062 -0.05149968 -0.0648493 0.012961679 0.0040130476 -0.07448168
00000000: f8f5 17bc a443 d6bc 4646 943b 1857 cfbc
00000010: 2e99 37bd 1600 00bc f5ee 323c e8b7 7fbc
00000020: 267f 01bd e59d 90bd c4cc 0ebc 572e 1ebd
00000030: 9f16 81b9 d9e5 3f3d 47f1 33bb 0072 50b9
00000040: cfec e1bc eb07 99bd 3f34 443d 0a22 2e3d
00000050: c491 323d 3c46 5ebc 15aa 9fbb a08f f8bc
00000060: da2b 2a3d b03c 033d 22f6 8939 4df8 33bd
00000070: 2f42 403d c83a 5b3d 8ec6 433c 76d1 053d
00000080: 7118 42bd a0aa 273d 39ab c7bc badf cdbb
00000090: 2a9b 04bd 0084 84bc 7a76 113d d319 0a3d
000000a0: 173f d4bc 4180 8d3c 92d8 00bd 1ce2 3ebc
000000b0: 2a79 283d 0c80 203d 27ad 93bc a677 7b3c
000000c0: ab42 0cbd 42f9 4dbd 602f 5d3b 47f3 03bd
000000d0: 0149 18bc 2f8f 2bbd 651b e13c fe95 dbbc
000000e0: 8dba ec3c 91a0 60bd 92ef 9e3c edce 1c3d
000000f0: 963f 09bd e0b7 e93c 6dff 8fbd 9986 2d3d
00000100: 1712 0cbd b29e aebb ca42 73bc 1f27 5b3c
00000110: 40d0 5a3d 0e0f 563d ca1a 723c d909 febc
00000120: 84ba 54bd 57d7 8dbd 1e65 663d a754 c4bc
00000130: 7a53 0abd d3f4 c5bb 020a f43c bd09 183d
00000140: 0cc9 6dbd 172a 2d3d fad4 ebbb 6b7a b93c
00000150: a6a2 7abd 2fc6 3d3d b117 7cbd 053e bcbc
00000160: 9e36 ee3c 4b92 0c3d 4f92 5dbc 0dc9 773c
00000170: c913 073c 7d6b 0b3d dcd0 84bd 9906 9f3c
00000180: e436 50bc 4325 55bd abca 373d af62 eb3c
00000190: 5275 833b b7ed b7bc 9d0a 14bd 344b 433d
000001a0: c5eb c3ba 964f 1fbd 5331 003d 598c 133d
000001b0: 2835 60bd 004d ba3b 4459 2b3d 9aeb d3bb
000001c0: bfa6 24bd d42b 05bd b066 993c 7484 85bd
000001d0: b917 33bd 8a93 e238 c3f4 3b3b e8c4 893a
000001e0: 578e ddbc 9a22 223d b67b 023d eba7 d33c
000001f0: 4c82 63bd 6847 c33c 0cbe 0b3d 2185 2d3d
00000200: 331e b3bb 4d70 6dbd 7a84 3a3d 6cf8 1ebd
00000210: f69e 6bbd f570 f6bc 2670 09bd ec95 853d
00000220: 7c97 423d 1faa 31bd 59cc 2cbd d16e 50bc
00000230: af24 463d fdcc 21bd d9b9 05bd 74f7 c73c
00000240: 0b99 df3b 719e d63c 48d7 86bd 8247 2d3c
00000250: 4e11 34bd 0da7 9d3c 6232 06bd 2d9d 95bd
00000260: 2394 83bc 8374 143d 62b5 31bd a068 963c
00000270: 6232 1b3d a4ac 82bd 5427 803c 5ccd f83c
00000280: 4547 ed3c 83b0 ec39 a405 0dbd c7de f6bc
00000290: 2762 93bd 31ec 0e3d f460 21bd e44f 0dbd
000002a0: 24aa 113d 6b65 423d 03f5 8e39 ae8e 57bc
000002b0: c4e0 9dbc 4bff c1bc e16b 8bbd bd9a ea3b
000002c0: de3b 363d f7f6 313d 63e2 163d 2697 323d
000002d0: dcac 5bbd bccd dc3c cd43 a5bc 1cfe 28bb
000002e0: 66e8 c2bc e7ae 903c d23a 6e3d 069c 34bd
000002f0: 158d 463c b8d0 bdbb c7ed 843c 5ecb 33bb
00000300: abe2 363d 75f4 3bbd ece8 cb3c fd79 003d
00000310: 145e 80bd 5d50 e0bc 40c5 213d f93f b93c
00000320: 6800 febc 7299 83bd 10a5 9b3c 14ac c03c
00000330: 6315 81bd db95 1b3c 2376 e2bc 8f1e 45bd
00000340: 68d3 3b3c 7008 99bd 86d4 45bd d3bd c23c
00000350: 2de3 32bd 8776 3abc 5209 6a3d 134a e43b
00000360: e370 793d fc51 8ebd 3995 cb3c 65e5 cdbc
00000370: 1ac7 293d bfc8 7bbd d350 033d bc29 a5bb
00000380: e099 113d fdbd ab3c 974b 4fbd bd7c 0cbc
00000390: 3664 1dbd b9e5 553c e89b 60bc 5a44 263d
000003a0: 595f 07bc deb0 7fbc d085 5f3d 0359 c8bc
000003b0: b19b 473d c7d9 363c 5557 c73a fe41 ca3c
000003c0: 78c0 2dbc c79b bc3c 73f9 213c 4c48 2d3d
000003d0: fdf7 053d b7fb 22bd cd56 a7bc 6299 a23b
000003e0: f581 debc 7b18 943a 2d74 35bc 54f1 52bd
000003f0: b6cf 84bd 395d 543c e27f 833b da89 98bd

bias f4 [128]
0.03443275 -0.054595992 0.160205 0.027808363 0.10006302 -0.03803019 -0.031910136 -0.035298266
-0.15955651 -0.030113116 0.12447252 0.00062854716 -0.085830756 -0.07790211 0.15459341 -0.06987437
-0.0045808605 0.030032357 0.058111966 0.06795798 -0.060155768 -0.064594455 0.007573307 0.0049035214
-0.0110302055 0.04667609 -0.052939836 0.08722553 -0.03365734 -0.120004356 -0.019306736 -0.07559167
0.042137958 0.14481874 0.023367597 0.03633443 -0.02431155 -0.010889911 -0.01268918 -0.00093440403
0.16579615 0.033952594 0.036390632 -0.01787003 -0.12572493 -0.0648273 -0.009502279 -0.009566152
0.021889312 -0.029073643 0.18090034 -0.14196835 0.08613279 0.06426657 -0.04626758 0.15896
0.01609756 -0.046383493 0.039290365 0.029077346 0.1716723 -0.019878268 0.012614813 -0.0715489
0.124387465 -0.023059506 0.042169645 0.07830426 -0.027533768 -0.06752181 -0.014684977 -0.034716908
-0.16043535 0.11569027 0.029309822 -0.047678832 0.08808834 -0.04261807 -0.0058029033 0.022854775
0.11691381 0.04310987 -0.026106145 0.021298055 -0.091683924 -0.0853513 0.11397404 -0.05391988
-0.13445517 -0.058094732 0.037856497 0.103163704 -0.12995966 0.027220566 0.051523 0.17349173
-0.033779383 0.16825989 -0.0026655667 0.04263854 0.21458657 -0.04566397 -0.16007318 0.049264926
-0.048059095 -0.060270187 0.05608102 -0.062180616 -0.051739205 0.15581481 -0.061046824 -0.029649414
-0.096895784 0.11350073 0.057536483 0.09151922 -0.05468368 0.0036634367 -0.066195115 -0.019547958
-0.05017101 -0.01274547 -0.031316184 -0.13901033 0.062950745 -0.008739792 -0.026831316 -0.09720559
00000000: 5b09 0d3d 0ca0 5fbd c80c 243e 5dce e33c
00000010: d7ed cc3d 8bc5 1bbd 34b4 02bd ea94 10bd
00000020: c862 23be c8af f6bc 73eb fe3d 16c5 243a
00000030: 09c8 afbd 248b 9fbd bc4d 1e3e 4b1a 8fbd
00000040: 0b1b 96bb 6b06 f63c d006 6e3d 8e2d 8b3d
00000050: e565 76bd 194a 84bd 8129 f83b b8ad a03b
00000060: 09b8 34bc 6e2f 3f3d 71d7 58bd 4ca3 b23d
00000070: 47dc 09bd d8c4 f5bd 2929 9ebc cecf 9abd
00000080: da98 2c3d 5d4b 143e 676d bf3c 69d3 143d
00000090: 0429 c7bc 996b 32bc 47e6 4fbc cbf2 74ba
000000a0: 77c6 293e e011 0b3d 580e 153d 2b64 92bc
000000b0: 09be 00be 2dc4 84bd 72af 1bbc 59bb 1cbc
000000c0: 3751 b33c d92b eebc f03d 393e 2760 11be
000000d0: 6366 b03d 319e 833d 1383 3dbd 69c6 223e
000000e0: 08df 833c 9efc 3dbd efee 203d 9d33 ee3c
000000f0: ddca 2f3e c0d7 a2bc 5cae 4e3c 3b88 92bd
00000100: dbbe fe3d 4ae7 bcbc 14ba 2c3d fc5d a03d
00000110: 7f8e e1bc e048 8abd 4299 70bc 5133 0ebd
00000120: 2a49 24be 05ef ec3d 271b f03c e14a 43bd
00000130: a967 b43d 4990 2ebd 4826 bebb f039 bb3c
00000140: 8270 ef3d fa93 303d 8edc d5bc 4279 ae3c
00000150: c8c4 bbbd aacc aebd 396b e93d 18db 5cbd
00000160: 9eae 09be bef4 6dbd 6a0f 1b3d 7e47 d33d
00000170: 2514 05be aafd de3c c809 533d d1a7 313e
00000180: 405c 0abd 524c 2c3e cab0 2ebb c0a5 2e3d
00000190: 95bc 5b3e 250a 3bbd 39ea 23be 05ca 493d
000001a0: 9dd9 44bd dfdd 76bd 36b5 653d 1ab1 7ebd
000001b0: 7dec 53bd eb8d 1f3e 3c0c 7abd 54e3 f2bc
000001c0: 4c71 c6bd 1273 e83d 60ab 6b3d 6e6e bb3d
000001d0: fffb 5fbd 4516 703b 4e91 87bd 0a23 a0bc
000001e0: 1e80 4dbd 60d2 50bc 6645 00bd b958 0ebe
000001f0: 52ec 803d 5831 0fbc 59cd dbbc b913 c7bd

weight f4 [128, 128]
-0.070873484 -0.031047082 -0.016017433 -0.06468915 0.037876964 -0.034645364 0.2611255 -0.048358466
0.027697569 -0.04049809 0.07259939 -0.008601765 -0.080114014 0.06202984 0.070451304 0.015807517
-0.025977977 0.026772585 -0.064347446 0.025597354 0.020639563 -0.07560225 -0.02443133 0.07557041
0.07415306 -0.007056155 0.0925886 0.06379851 -0.0039419555 0.032516487 0.047171526 0.046204448
0.03128684 0.077506766 0.021523692 -0.028148217 0.02910314 -0.006463855 0.05600828 -0.05921527
-0.04992823 0.03066633 -0.06906806 -0.05343191 0.00896328 0.020403165 -0.017515466 0.064946115
-0.0750291 0.07111741 0.07113948 -0.050788924 -0.04615265 -0.07959003 0.014808544 -0.0069634696
0.068178095 -0.035899725 -0.036177564 0.0053127776 0.015771013 -0.058446452 0.0419418 -0.06287113
0.050580356 -0.04707486 -0.05829853 -0.06229751 -0.06199139 -0.02155765 0.15394898 -0.061144434
0.0035465553 -0.024874274 -0.07830279 -0.087857634 0.0120541705 0.024221884 -0.032081086 -0.086959735
-0.037439853 -0.012005466 -0.015089717 -0.028059851 0.027676063 -0.008158337 0.05490288 -0.019731041
0.055143498 0.06809634 -0.06351755 -0.004022332 0.07734894 0.047308084 0.049702194 0.08562866
-0.068852864 0.039542682 0.05154781 -0.06546956 -0.026209978 -0.045572367 -0.052030805 0.025813105
-0.037404224 0.04923439 0.035624914 0.009150375 0.052919444 -0.07324323 -0.048997764 0.06685431
-0.03783273 0.016320568 0.064982064 -0.027808744 0.08609242 -0.09666582 0.06047501 0.025319103
0.028808322 0.025878586 -0.009163717 -0.05721805 0.03734348 -0.08580806 0.059493553 -0.040548407
-0.07230565 0.050974157 -0.10382842 0.0509278 0.023233814 0.043711454 0.13515136 -0.08832617
0.00037460687 -0.012267298 0.029602038 -0.03743986 -0.03137758 -0.12716742 0.092527114 0.04632922
0.045045026 -0.048315782 0.062197432 0.040433954 -0.07992576 0.07669308 0.08374328 0.020972254
0.0034329763 -0.044460826 0.048255857 -0.009169889 -0.048163153 -0.0036533684 -0.00536676 -0.065731235
0.072348505 -0.036539037 -0.154657 0.08023972 -0.005677879 0.054769196 -0.012593327 -0.042263865
-0.0012544465 0.0021414696 0.075237475 0.05192319 0.0476708 -0.0795395 -0.06839076 -0.014023224
0.012315275 0.047046114 -0.032728296 -0.04647712 0.096462786 -0.022247357 -0.044347383 0.019995581
-0.09221267 -0.016806684 0.018591825 -0.03950364 -0.052884143 0.076876216 0.05786423 -0.0022459743
0.062043004 -0.0865968 0.08416047 -0.016233955 0.098988585 0.0571094 0.13294357 -0.08562189
0.032336626 -0.02230272 -0.07431366 0.066590145 -0.045696553 -0.041971214 -0.041095696 -0.05514482
-0.07746033 0.07365529 -0.108500786 0.07177806 0.041735858 -0.0062999194 0.049833477 0.0077959206
0.010152555 0.009140544 -0.04782293 0.08202045 0.03661183 0.040567126 0.084466964 0.07228104
-0.05167153 -0.08495745 0.028735448 -0.0276681 -0.016754616 0.07978239 0.024839029 -0.0014690844
-0.051668823 -0.0028543805 -0.03842037 -0.002371265 -0.07063443 0.02527718 0.033943657 0.0028801158
0.05896993 0.005503485 0.035976708 -0.07119185 -0.050316688 0.052752107 0.07504809 0.019431548
0.00032963193 -0.020657571 0.046739638 -0.09131062 -0.029960638 0.027820086 -0.08977233 0.046856962
00000000: 1e26 91bd 7356 febc fe36 83bc bf7b 84bd
00000010: e024 1b3d 4ce8 0dbd 3eb2 853e 8713 46bd
00000020: 03e6 e23c 53e1 25bd fdae 943d 6bee 0cbc
00000030: d112 a4bd 0013 7e3d c648 903d c47e 813c
00000040: c4cf d4bc 2e52 db3c 98c8 83bd 8bb1 d13c
00000050: 4d14 a93c 5ad5 9abd 3624 c8bc a9c4 9a3d
00000060: 8fdd 973d 5137 e7bb 189f bd3d cba8 823d
00000070: 852b 81bb 0230 053d ee36 413d e040 3d3d
00000080: a126 003d debb 9e3d 7452 b03c 1797 e6bc
00000090: b569 ee3c bfce d3bb f068 653d b68b 72bd
000000a0: 8b81 4cbd f537 fb3c 8e73 8dbd 6bdb 5abd
000000b0: b9da 123c 8a24 a73c 987c 8fbc 7802 853d
000000c0: dba8 99bd 01a6 913d 93b1 913d 0c08 50bd
000000d0: 900a 3dbd 1900 a3bd 899f 723c d12d e4bb
000000e0: f5a0 8b3d 970b 13bd ed2e 14bd cf16 ae3b
000000f0: 3632 813c 8c65 6fbd 2acb 2b3d 94c2 80bd
00000100: 592d 4f3d 92d1 40bd 70ca 6ebd ad2b 7fbd
00000110: afea 7dbd ab99 b0bc cda4 1d3e 9672 7abd
00000120: 536d 683b 22c5 cbbc 375d a0bd b4ee b3bd
00000130: db7e 453c f96c c63c 7567 03bd f217 b2bd
00000140: 885a 19bd 93b2 44bc dc3a 77bc c6dd e5bc
00000150: e9b8 e23c 8caa 05bc d8e1 603d fea2 a1bc
00000160: 26de 613d 1876 8b3d 7d15 82bd c4cd 83bb
00000170: 1f69 9e3d 1fc6 413d 8794 4b3d 145e af3d
00000180: bb02 8dbd 82f7 213d cc23 533d e814 86bd
00000190: 4fb6 d6bc 17aa 3abd 411e 55bd 0176 d33c
000001a0: 2c35 19bd 00aa 493d 6eeb 113d 74eb 153c
000001b0: 0fc2 583d 8c00 96bd e1b1 48bd eaea 883d
000001c0: 7ef6 1abd b6b2 853c 5115 853d 2acf e3bc
000001d0: 3951 b03d bbf8 c5bd a5b4 773d 026a cf3c
000001e0: 6eff eb3c 54ff d33c 6a23 16bc 795d 6abd
000001f0: 7af5 183d 23bc afbd 83af 733d 1616 26bd
00000200: fc14 94bd 47ca 503d ffa3 d4bd ab99 503d
00000210: d754 be3c c80a 333d 1e65 0a3e 5ae4 b4bd
00000220: e266 c439 c7fc 48bc f97f f23c 8a5a 19bd
00000230: c785 00bd 2d38 02be db7e bd3d b5c3 3d3d
00000240: 2281 383d c5e6 45bd bcc2 7e3d 139e 253d
00000250: 1eb0 a3bd 4311 9d3d 9981 ab3d 01ce ab3c
00000260: c9fb 603b 8e1c 36bd efa7 453d 4d3d 16bc
00000270: ba46 45bd 5a6d 6fbb a5db afbb 199e 86bd
00000280: 742b 943d f5a9 15bd 685e 1ebe b954 a43d
00000290: 800d babb aa55 603d 3e54 4ebc e01c 2dbd
000002a0: 3d6c a4ba e657 0c3b 1b16 9a3d 69ad 543d
000002b0: 7542 433d 9be5 a2bd 7410 8cbd aac1 65bc
000002c0: 02c6 493c 6db3 403d 1b0e 06bd cb5e 3ebd
000002d0: 488e c53d 1740 b6bc 9aa5 35bd c6cd a33c
000002e0: ffd9 bcbd 2cae 89bc e24d 983c 92ce 21bd
000002f0: 0b9d 58bd 4771 9d3d 0b03 6d3d 3231 13bb
00000300: ce20 7e3d aa59 b1bd 535c ac3d 12fd 84bc
00000310: 87ba ca3d 8ceb 693d 5c22 083e 885a afbd
00000320: 6973 043d 32b4 b6bc c331 98bd 6a60 883d
00000330: 4f2c 3bbd 02ea 2bbd f653 28bd 89df 61bd
00000340: 86a3 9ebd 96d8 963d a935 debd 6000 933d
00000350: 38f3 2a3d 8e6f cebb 301e 4c3d ec74 ff3b
00000360: e756 263c 38c2 153c fae1 43bd 56fa a73d
00000370: 49f6 153d b729 263d 04fd ac3d 1508 943d
00000380: 87a5 53bd 2cfe adbd 9a66 eb3c 36a8 e2bc
00000390: fa40 89bc f364 a33d 387b cb3c 4b8e c0ba
000003a0: b0a2 53bd 8f10 3bbb ae5e 1dbd 3a67 1bbb
000003b0: c9a8 90bd 1712 cf3c 8108 0b3d 53c0 3c3b
000003c0: 748a 713d 9456 b43b 505c 133d 08cd 91bd
000003d0: df18 4ebd 9812 583d d0b2 993d e92e 9f3c
000003e0: 73d2 ac39 113a a9bc 1072 3f3d 1001 bbbd
000003f0: 0370 f5bc f3e6 e33c 8eda b7bd 16ed 3f3d

bias f4 [128]
0.06848995 -0.034280088 0.15800108 0.016850665 0.05659059 -0.008878971 -0.0994363 0.09086335
0.03460266 -0.09898811 0.03810963 -0.07262566 -0.051055998 -0.06786166 0.16639155 -0.051806957
0.08962291 0.064298764 0.11409862 0.16158856 0.22900489 0.010754377 0.039510354 0.016315043
-0.04841805 0.004560043 -0.034410764 0.033612266 0.04802732 0.015577498 -0.017872375 -0.11983493
-0.028153444 0.024329752 0.079870954 -0.034985308 0.041439764 -0.047239807 0.032656394 0.0793986
-0.0013760527 0.16011347 -0.003171009 0.123316325 0.007910471 0.121020354 0.06224779 -0.045025755
-0.027021106 -0.0993443 -0.09793111 -0.02701232 -0.054089222 -0.08337158 -0.07675547 0.08995377
-0.068782896 -0.020769468 0.004007201 0.011101113 -0.04795259 0.16505104 -0.0484318 0.029759543
-0.08623016 -0.0007003114 -0.11462317 -0.06375976 0.10924307 0.1373519 -0.008059793 -0.08122646
-0.052780163 -0.022864344 -0.0036777866 0.028952647 -0.056151494 0.06034788 0.051940788 -0.09222367
-0.04632106 0.14857736 -0.038806174 0.0695643 -0.0502475 0.086369626 -0.18966305 0.019461736
-0.021715075 0.17461878 -0.0028676495 0.059484605 0.010745766 -0.14552528 0.015841039 -0.060229454
0.04368329 0.00044306106 -0.18351516 0.11198872 -0.074942544 -0.12246175 0.21835259 0.05495422
0.046087414 -0.055819675 -0.069032475 0.024655294 -0.024374504 0.104039766 0.1104962 0.063110024
-0.068385325 0.05344623 -0.087730125 -0.007873442 -0.07385056 0.00022054731 -0.100665696 0.19220407
-0.033095445 -0.0047036535 -0.036601976 0.03601554 0.033641264 -0.06591328 -0.18529713 0.08862995
00000000: 7544 8c3d 4769 0cbd 09cb 213e 680a 8a3c
00000010: 89cb 673d 1b79 11bc 42a5 cbbd 9016 ba3d
00000020: 85bb 0d3d 47ba cabd d818 1c3d c3bc 94bd
00000030: 1820 51bd 0efb 8abd 8c62 2a3e 8833 54bd
00000040: 378c b73d 12af 833d 8aac e93d 7977 253e
00000050: 4280 6a3e 2033 303c 9cd5 213d 20a7 853c
00000060: 0152 46bd 6a6c 953b 4df2 0cbd 04ad 093d
00000070: 4cb8 443d c338 7f3c 1669 92bc 046c f5bd
00000080: 0da2 e6bc 304f c73c 6293 a33d c14c 0fbd
00000090: bebc 293d 877e 41bd b6c2 053d bc9b a23d
000000a0: ab5c b4ba c9f4 233e b4d0 4fbb 458d fc3d
000000b0: ec9a 013c 85d9 f73d 8af7 7e3d ed6c 38bd
000000c0: 5e5b ddbc 0675 cbbd 1b90 c8bd f148 ddbc
000000d0: a98c 5dbd b8be aabd f931 9dbd af39 b83d
000000e0: 0cde 8cbd bb24 aabc d74e 833b 71e1 353c
000000f0: ef69 44bd 2403 293e 6c60 46bd 49ca f33c
00000100: 7099 b0bd 1a95 37ba 8dbf eabd 7a94 82bd
00000110: d5ba df3d faa5 0c3e 390d 04bc 0f5a a6bd
00000120: 0330 58bd 014e bbbc 0507 71bb 1a2e ed3c
00000130: 1cff 65bd 572f 773d ddbf 543d c3df bcbd
00000140: 27bb 3dbd aa24 183e 39f3 1ebd ba77 8e3d
00000150: 53d0 4dbd 8fe2 b03d 0837 42be 386e 9f3c
00000160: d0e3 b1bc 44cf 323e 2def 3bbb 21a6 733d
00000170: 020f 303c 9404 15be 11c5 813c 29b3 76bd
00000180: 40ed 323d a64a e839 66eb 3bbe 585a e53d
00000190: 7a7b 99bd 3acd fabd d297 5f3e ad17 613d
000001a0: 28c6 3c3d 2ca3 64bd e660 8dbd e6f9 c93c
000001b0: 0aad c7bc cd12 d53d d54b e23d d43f 813d
000001c0: 9b0d 8cbd 6fea 5a3d daab b3bd 9cff 00bc
000001d0: f63e 97bd b842 6739 d129 cebd 25d1 443e
000001e0: 178f 07bd 1b21 9abb f4eb 15bd 0885 133d
000001f0: 6ccb 093d 8bfd 86bd 88be 3dbe 9f83 b53d

weight f4 [128, 128]
0.07352832 -0.012752203 -0.01570107 -0.055350624 0.08397147 -0.042245165 0.09662658 -0.01195514
-0.02646397 0.093583494 -0.050843786 -0.044586375 0.060719542 -0.0036571943 -0.044931788 -0.06900774
-0.05759775 -0.07037999 -0.019032126 -0.06525022 -0.1302748 -0.05153809 0.01428642 -0.04251453
0.03834864 -0.024962649 -0.06198832 0.01774594 0.05778029 0.054591205 -0.055423 -0.01582029
0.027839484 -0.039950117 -0.058035675 0.06867648 0.011600302 -0.099827446 -0.04331431 0.03511955
0.0752734 -0.104378566 0.03336056 -0.110384256 0.07598846 -0.07267882 -0.0031851558 -0.046480563
-0.061749537 -0.032358266 -0.0914888 -0.0017042794 -0.01269153 0.011551716 -0.06648916 -0.052744456
-0.0062682596 0.036040533 0.025320169 0.10526765 -0.014197442 -0.1576329 -0.007821198 -0.045701306
0.0034569465 -0.06470312 0.006495887 0.006139316 -0.08934291 -0.09786004 -0.039452314 0.03545449
0.02326765 -0.02330737 0.06853565 -0.059853364 0.07298511 -0.05101434 0.06633668 -0.07282545
-0.013743529 -0.04302773 -0.021289151 0.044720206 0.075638704 -0.08867582 0.04033072 0.013551711
-0.0035785737 -0.03923728 0.052093748 0.05355185 -0.005509982 0.065389656 0.043573685 0.02734247
0.06455773 -0.0648968 0.05945027 0.017543191 -0.06606189 0.06415441 -0.16962539 0.030242044
0.08558758 0.03449593 0.017077276 0.09171629 0.03821469 -0.04155063 -0.043077216 -0.0033418152
-0.053120267 -0.018002195 0.05111891 0.006201034 -0.07187376 0.07983553 0.11653407 0.0048163976
-0.050898694 -0.06577235 0.004446501 0.08758936 -0.037934434 0.005042682 0.07568491 -0.03423717
-0.083450295 0.005914762 -0.008208457 -0.04861588 -0.06491875 -0.0874092 0.036219157 -0.015451576
0.09403606 -0.06555242 -0.00218666 -0.0661578 0.058966782 -0.091441184 -0.101172075 0.0033897972
-0.034796096 0.052534822 -0.019499535 -0.08489565 0.022964763 0.012004573 -0.010942588 0.03647708
-0.04679821 0.0092452625 -0.04688676 -0.07991174 0.00027320345 -0.0353576 -0.081770524 0.056130636
-0.07290345 -0.04473822 0.05771889 -0.03317315 0.03229605 -0.00308213 -0.07110472 0.02121874
0.07720978 0.020336652 -0.04731754 -0.0013487275 0.024971282 0.016769465 0.0053908424 0.071750514
0.04090488 0.0074319816 -0.022156114 0.04263901 -0.072090656 0.058377765 0.03338218 -0.115592904
0.012419105 -0.020252913 -0.004960593 -0.039680734 0.06459968 0.035737194 0.07029385 0.06423601
0.08355739 0.02573333 0.0073924405 0.0325653 0.033122223 -0.031696133 -0.0487665 0.028001904
0.00943685 0.1149382 0.02220483 0.027265536 -0.04375616 -0.0627078 -0.00841377 0.015516316
0.045787975 0.02418688 -0.04100415 -0.07072038 0.044029653 0.042564355 -0.034269337 0.04699015
0.049339395 -0.031588893 -0.0074123945 -0.026219485 -0.025953019 -0.04279837 -0.09013808 -0.05026532
-0.07192864 -0.027791947 0.0011033689 0.11512274 0.05984071 0.011574828 0.040509637 -0.052601006
-0.004718419 0.03279194 0.055788986 -0.13193059 -0.033727165 -0.084174074 -0.079086654 0.04778565
-0.04365736 0.03846465 -0.019823333 0.067629516 -0.01570684 -0.008143703 -0.026370434 -0.012956151
0.06392441 0.013656575 0.058278233 -0.06941923 0.049423955 -0.020512663 -0.0025140685 0.0008835227
00000000: 0496 963d 9eee 50bc 889f 80bc 56b7 62bd
00000010: 3cf9 ab3d 4409 2dbd 28e4 c53d 7edf 43bc
00000020: f8ca d8bc b4a8 bf3d 9341 50bd 34a0 36bd
00000030: 0eb5 783d 8aad 6fbb 650a 38bd ee53 8dbd
00000040: 9eeb 6bbd 6223 90bd 43e9 9bbc e8a1 85bd
00000050: c266 05be 9b19 53bd 9711 6a3c b723 2ebd
00000060: 7713 1d3d 787e ccbc 77e7 7dbd ef5f 913c
00000070: 06ab 6c3d 079b 5f3d 3a03 63bd 8e99 81bc
00000080: a10f e43c bca2 23bd d1b6 6dbd 41a6 8c3d
00000090: 310f 3e3c 5572 ccbd 596a 31bd 84d9 0f3d
000000a0: f128 9a3d 6ec4 d5bd 15a5 083d 2411 e2bd
000000b0: d69f 9b3d a2d8 94bd 0cbe 50bb 6762 3ebd
000000c0: 15ed 7cbd 1a8a 04bd 7b5e bbbd 2162 dfba
000000d0: 23f0 4fbc 6943 3d3c 782b 88bd 920a 58bd
000000e0: f965 cdbb 3d9f 133d 3e6c cf3c 9196 d73d
000000f0: 639c 68bc 856a 21be 7b24 00bc 4b31 3bbd
00000100: f08d 623b 1283 84bd 73db d43b 512c c93b
00000110: 6af9 b6bd d86a c8bd c098 21bd ba38 113d
00000120: cc9b be3c 19ef bebc 6b5c 8c3d cd28 75bd
00000130: 3879 953d 6af4 50bd 86db 873d 8225 95bd
00000140: 8a2c 61bc d83d 30bd 9666 aebc 892c 373d
00000150: 77e8 9a3d ab9b b5bd d331 253d ff07 5e3c
00000160: 8186 6abb 45b7 20bd 4160 553d 2f59 5b3d
00000170: 148d b4bb 03eb 853d 527a 323d 51fd df3c
00000180: d836 843d 9de8 84bd 2082 733d bdb6 8f3c
00000190: 754b 87bd 6363 833d 47b2 2dbe 2abe f73c
000001a0: 8b48 af3d 9b4b 0d3d a5e5 8b3c c0d5 bb3d
000001b0: 0287 1c3d fe30 2abd bc71 30bd 5b02 5bbb
000001c0: a394 59bd 5779 93bc 1062 513d 0b32 cb3b
000001d0: 8d32 93bd cf80 a33d 6aa9 ee3d dfd2 9d3b
000001e0: 267b 50bd a7b3 86bd f4b3 913b 0d62 b33d
000001f0: 2361 1bbd 153d a53b b100 9b3d 463c 0cbd
00000200: fde7 aabd 9fd0 c13b c47c 06bc 7221 47bd
00000210: 1ff4 84bd 9803 b3bd 8a5a 143d 9b28 7dbc
00000220: fa95 c03d 5940 86bd 114e 0fbb be7d 87bd
00000230: 2787 713d 8445 bbbd 4e33 cfbd 5c27 5e3b
00000240: 5a86 0ebd c12e 573d 7dbd 9fbc c5dd adbd
00000250: 9920 bc3c d4ae 443c 8a48 33bc fe68 153d
00000260: 7baf 3fbd 7179 173c 550c 40bd c4a8 a3bd
00000270: bf3c 8f39 21d3 10bd 4e77 a7bd 3de9 653d
00000280: 674e 95bd 6c3f 37bd a56a 6c3d 92e0 07bd
00000290: dd48 043d 90fd 49bb 5a9f 91bd ecd2 ad3c
000002a0: 2920 9e3d 0d99 a63c 09d0 41bd c9c7 b0ba
000002b0: 9390 cc3c 1e60 893c aaa5 b03b eff1 923d
000002c0: e08b 273d fb87 f33b bd80 b5bc 3ea6 2e3d
000002d0: 44a4 93bd 861d 6f3d c1bb 083d f9bb ecbd
000002e0: 8079 4b3c 70e9 a5bc 788c a2bb 4488 22bd
000002f0: d64c 843d 2a61 123d 39f6 8f3d 2b8e 833d
00000300: 2320 ab3d b4ce d23c 493c f23b 3163 053d
00000310: 2bab 073d ced3 01bd 62bf 47bd 4064 e53c
00000320: 059d 1a3c b864 eb3d e7e6 b53c f95b df3c
00000330: a939 33bd f26c 80bd e9d9 09bc 2538 7e3c
00000340: 2c8c 3b3d 9023 c63c f8f3 27bd d9d5 90bd
00000350: 7058 343d f657 2e3d 015e 0cbd be78 403d
00000360: 1b18 4a3d 5b63 01bd ace3 f2bb 3fca d6bc
00000370: 6d9b d4bc 584d 2fbd 509a b8bd 02e3 4dbd
00000380: 534f 93bd f0ab e3bc eb9e 903a 79c5 eb3d
00000390: 881b 753d 59a4 3d3c 6fed 253d 2774 57bd
000003a0: f89c 9abb d750 063d fe82 643d d018 07be
000003b0: 7f25 0abd 7563 acbd 2ff8 a1bd e3ba 433d
000003c0: 0fd2 32bd 1c8d 1d3d 8b64 a2bc 5881 8a3d
000003d0: a2ab 80bc 2b6d 05bc cf06 d8bc 0946 54bc
000003e0: cdea 823d d4bf 5f3c 28b5 6e3d ab2b 8ebd
000003f0: c670 4a3d 2c0a a8bc 12c3 24bb 349c 673a

bias f4 [128]
-0.08972006 0.03299944 0.27019632 0.056260463 -0.038928755 0.08651823 -0.010472081 0.005603277
0.026125694 -0.032612547 -0.051873323 -0.078306116 -0.0017932437 0.15547186 -0.08766754 -0.10133939
-0.037959468 -0.01589064 -0.07450281 -0.0077012186 -0.05333804 -0.041699488 -0.043543242 -0.08342698
0.094082296 -0.009844172 -0.014919915 -0.040728815 -0.09267031 0.17840636 -0.04588444 -0.00064852607
-0.030021138 0.11774446 -0.05907968 0.00804135 0.07383437 -0.041200615 0.026267419 -0.022389533
-0.050256897 -0.09572458 -0.08531831 0.0013895419 -0.029404571 0.036883645 -0.0866645 0.15684319
0.074145876 -0.016442614 0.19216618 0.1937209 0.106440246 -0.058245666 0.06807605 -0.021766864
0.059968766 -0.074958764 -0.039171077 -0.06997409 -0.010809974 -0.10912149 0.17007378 0.0138179455
0.0062107407 -0.038340222 -0.08427733 -0.059803966 -0.076327495 0.010962232 0.039814062 -0.026231207
-0.09799653 -0.10381474 -0.06639159 -0.089061715 0.02380368 -0.043064296 -0.08453724 -0.1862967
-0.07744354 -0.02839083 -0.005934415 -0.027551053 0.106765665 -0.060345028 0.058773227 0.09841242
-0.083985955 0.12902725 0.16744882 0.030713718 -0.14687666 -0.029895864 -0.06533721 -0.036424957
0.0031351498 0.040351205 0.056876417 -0.037903577 0.03259078 0.002597115 0.032952223 -0.039972823
0.03839481 0.015548204 0.07622871 0.10334915 0.13607854 0.07639644 0.00040037488 0.042678334
0.035065424 -0.073824696 -0.08347819 -0.07596675 -0.026949223 0.1307687 -0.035365123 0.13553761
-0.09273985 -0.095807835 0.011717926 0.0007095695 -0.01749191 0.12185568 -0.020442594 0.012081145
00000000: 27bf b7bd 6c2a 073d 2c57 8a3e 5f71 663d
00000010: c273 1fbd 7830 b13d 1793 2bbc b29b b73b
00000020: 8d05 d63c bc94 05bd 1f79 54bd f55e a0bd
00000030: 460b ebba 0434 1f3e 0a8b b3bd 078b cfbd
00000040: 637b 1bbd 162d 82bc ee94 98bd 815a fcbb
00000050: fd78 5abd 15cd 2abd 665a 32bd c4db aabd
00000060: 38ae c03d 7349 21bc a972 74bc 42d3 26bd
00000070: eec9 bdbd 28b0 363e 53f1 3bbd d901 2aba
00000080: e4ee f5bc 0224 f13d 89fd 71bd debf 033c
00000090: 7936 973d fac1 28bd c52e d73c 416a b7bc
000000a0: 2dda 4dbd 400b c4bd 5ebb aebd 4a21 b63a
000000b0: dbe1 f0bc 4e13 173d 287d b1bd 809b 203e
000000c0: cbd9 973d a9b2 86bc 36c7 443e c65e 463e
000000d0: 58fd d93d 0293 6ebd 756b 8b3d 6c50 b2bc
000000e0: cfa1 753d fb83 99bd da71 20bd 934e 8fbd
000000f0: 511c 31bc 167b dfbd d227 2e3e aa64 623c
00000100: 7883 cb3b a30a 1dbd 9899 acbd 01f5 74bd
00000110: 9751 9cbd ef9a 333c 1214 233d d4e2 d6bc
00000120: 68b2 c8bd d39c d4bd 50f8 87bd fd65 b6bd
00000130: efff c23c 3064 30bd dc21 adbd 90c4 3ebe
00000140: b89a 9ebd e393 e8bc 7b75 c2bb bfb2 e1bc
00000150: f5a7 da3d 592c 77bd 32bc 703d 738c c93d
00000160: d400 acbd b81f 043e b477 2b3e 569b fb3c
00000170: d666 16be 2ce8 f4bc 84cf 85bd 5632 15bd
00000180: 1677 4d3b 4e47 253d 3ff7 683d c840 1bbd
00000190: e97d 053d 5c34 2a3b e9f8 063d 8bba 23bd
000001a0: e043 1d3d e5bd 7e3c cc1d 9c3d b8a8 d33d
000001b0: 2c58 0b3e bd75 9c3d 68e9 d139 7acf 2e3d
000001c0: c3a0 0f3d 6731 97bd 9df6 aabd 7594 9bbd
000001d0: 9ec4 dcbc 3be8 053e 05db 10bd 5fca 0a3e
000001e0: 64ee bdbd e636 c4bd 8bfc 3f3c 6702 3a3a
000001f0: 324b 8fbc 798f f93d 3a77 a7bc ffef 453c

weight f4 [25, 128]
0.07994445 0.037661616 -0.3375472 -0.050617415 -0.087436795 -0.0763195 0.025333036 0.020290032
0.07248696 0.0812105 0.04696757 0.012249677 -0.04304821 -0.26884207 -0.06754186 0.03602844
-0.07122733 -0.08194502 -0.056879383 -0.048650812 0.028975936 -0.0012084345 0.036608107 -0.06919147
-0.07317813 -0.08739991 0.018840507 -0.010978892 0.010860574 -0.26598072 0.085945815 -0.0921112
-0.004734995 -0.00055248715 -0.07422387 0.032279454 -0.22291088 -0.09669988 0.00021138531 -0.017785769
0.04064709 0.084184445 0.09933947 -0.06576775 0.063406944 0.06032374 0.087274335 -0.098647684
0.029231787 0.0909903 -0.17343074 -0.112476975 -0.20147495 0.068290584 -0.10263906 0.013994988
0.0021651795 0.016870499 0.09536307 0.0028512059 -0.04083234 0.019605182 0.021845242 -0.03599018
0.041019797 0.07578132 0.013128789 0.055935226 0.06710759 0.025457153 0.006722199 0.08072558
0.038744528 -0.02439231 -0.0020877 0.009326379 -0.07418443 0.006894335 0.05094467 0.11577468
-0.05775911 0.010466507 -0.052352563 0.064209454 0.044878054 -0.035855222 -0.028893884 -0.3405258
0.0012078321 -0.043891788 -0.11177384 -0.07784721 0.07226013 -0.016159816 0.01899897 0.013965184
-0.0502693 -0.100220405 0.057946417 -0.13429755 0.04066299 0.0019915944 0.061713338 -0.019600553
0.006153954 0.005365749 -0.2724816 0.0005809227 0.015770733 -0.039835047 -0.033860363 -0.004413862
0.038587376 -0.060369015 0.02656004 -0.06246994 0.051725272 -0.30264744 0.008648315 -0.22670245
-0.067641884 0.06466679 0.060811844 -0.059357364 -0.0087330695 -0.11228012 -0.043657437 -0.031156639
0.04892816 -0.016090164 -0.10370429 -0.017140815 -0.041815184 0.0591896 0.0071268547 -0.061156943
-0.039491575 0.07823798 -0.013544485 0.06996 0.0074664 -0.0673739 -0.06853795 -0.10501789
0.025473632 -0.05717569 0.043039594 -0.029527556 0.12684305 0.048663743 0.070730954 0.014915636
-0.05046568 0.026743082 -0.05782317 0.018628895 -0.031437613 -0.08697867 -0.051334545 -0.16908798
-0.013492388 0.03318372 -0.02023396 -0.050955884 -0.4086671 -0.057901494 0.05406916 0.028062714
-0.07642753 -0.033764552 -0.012025038 0.032067288 -0.031817257 0.041242827 0.019288823 0.010321946
0.067184776 0.07355215 -0.05694501 -0.13957132 0.008161555 -0.059234343 -0.12786771 -0.025971342
0.06752815 -0.0016341604 0.04376506 0.03177585 0.050092705 0.04850945 -0.05335176 0.06655913
0.021058712 0.07010542 0.08287256 -0.013266621 0.03750149 -0.043325476 0.07126694 0.08913027
0.04365147 -0.004525738 -0.026244951 -0.07040717 -0.2535596 -0.050635666 -0.05681289 0.04696457
0.08437994 -0.044207193 -0.0667378 0.061103366 -0.0869703 0.06338721 -0.05755441 -0.8252716
0.058157034 -0.023651237 0.039533593 -0.062334083 0.0857482 0.0817968 0.041366745 -0.06698291
-0.08695287 0.061389484 0.04890087 -0.0857018 -0.03989284 -0.07590421 -0.032524873 0.078126855
-0.15561779 0.009217247 -0.17957337 -0.033134136 -0.029469652 -0.037427038 -0.014355098 -0.07100001
0.09147729 0.05263639 0.09388633 -0.017190116 0.09421351 -0.2809176 -0.19134325 -0.008305611
0.047585778 0.08762713 0.031119645 -0.07261786 -0.0075231595 -0.17157088 0.028471591 -0.015690224
00000000: eab9 a33d 1143 1a3d fdd2 acbe 3554 4fbd
00000010: 1012 b3bd 664d 9cbd 3a87 cf3c 4837 a63c
00000020: 0b74 943d b151 a63d 1161 403d dfb2 483c
00000030: 5253 30bd aba5 89be 6353 8abd 8f92 133d
00000040: a2df 91bd cad2 a7bd 5bfa 68bd 1346 47bd
00000050: f15e ed3c 5564 9eba 62f2 153d 42b4 8dbd
00000060: 6ade 95bd b9fe b2bd 6857 9a3c d0e0 33bc
00000070: 8df0 313c a02e 88be 5c04 b03d cca4 bcbd
00000080: 0428 9bbb c9d4 10ba af02 98bd 7637 043d
00000090: c042 64be 960a c6bd 50a7 5d39 76b3 91bc
000000a0: 907d 263d e568 ac3d 7e72 cb3d 3eb1 86bd
000000b0: 80db 813d 0716 773d e3bc b23d cc07 cabd
000000c0: 8077 ef3c 1f59 ba3d d497 31be 545a e6bd
000000d0: 734f 4ebe efdb 8b3d 6d34 d2bd 3c4b 653c
000000e0: afe5 0d3b 0034 8a3c b74d c33d 4cdb 3a3b
000000f0: d03f 27bd 0c9b a03c cbf4 b23c 706a 13bd
00000100: 6004 283d 3d33 9b3d 221a 573c 561c 653d
00000110: b46f 893d 858b d03c e445 dc3b 7453 a53d
00000120: 95b2 1e3d 62d2 c7bc cbd1 08bb abcd 183c
00000130: 02ee 97bd e0e9 e13b 5cab 503d 471b ed3d
00000140: d194 6cbd b67b 2b3c a46f 56bd 3f80 833d
00000150: 0dd2 373d eddc 12bd deb2 ecbc 6659 aebe
00000160: 1f50 9e3a e0c7 33bd afe9 e4bd 5c6e 9fbd
00000170: 1efd 933d 9761 84bc baa3 9b3c 3ace 643c
00000180: 2ee7 4dbd 5b40 cdbd 3959 6d3d 4c85 09be
00000190: 3c8e 263d 6985 023b 20c7 7c3d 5791 a0bc
000001a0: 1ca7 c93b 2ad3 af3b b582 8bbe 1049 183a
000001b0: a031 813c 132a 23bd 2ab1 0abd 28a2 90bb
000001c0: cc0d 1e3d 8045 77bd 7194 d93c 7be0 7fbd
000001d0: e1dd 533d 9bf4 9abe aab1 0d3c b024 68be
000001e0: d487 8abd 0670 843d d715 793d b520 73bd
000001f0: 2615 0fbc 1ff3 e5bd 24d2 32bd 353c ffbc
00000200: e568 483d 85cf 83bc ea62 d4bd e56a 8cbc
00000210: 6646 2bbd cb70 723d 6488 e93b b47f 7abd
00000220: ebc1 21bd 3c3b a03d b0e9 5dbc 3047 8f3d
00000230: b4a8 f43b 54fb 89bd a05d 8cbd 9f13 d7bd
00000240: 14ae d03c 0e31 6abd 494a 303d c6e3 f1bc
00000250: 25e3 013e a253 473d 64db 903d b660 743c
00000260: 1ab5 4ebd 4f14 db3c fdd7 6cbd a09b 983c
00000270: bac4 00bd df21 b2bd 2c44 52bd 6625 2dbe
00000280: 2d0f 5dbc a7eb 073d b1c1 a5bc 1eb7 50bd
00000290: d03c d1be 1e2a 6dbd a077 5d3d c7e3 e53c
000002a0: 0986 9cbd b34c 0abd aa04 45bc fd58 033d
000002b0: d052 02bd 3dee 283d 9803 9e3c 611d 293c
000002c0: 2c98 893d 82a2 963d 2c3f 69bd c9eb 0ebe
000002d0: 0bb8 053c b69f 72bd c1ef 02be dac1 d4bc
000002e0: 334c 8a3d 5331 d6ba fe42 333d 6527 023d
000002f0: 022e 4d3d d8b1 463d 6087 5abd 2750 883d
00000300: 5283 ac3c 6e93 8f3d 17b9 a93d 3e5c 59bc
00000310: 2a9b 193d 0e76 31bd 67f4 913d ee89 b63d
00000320: e2cb 323d a44c 94bb a7ff d6bc a231 90bd
00000330: 90d2 81be 5867 4fbd a2b4 68bd ec5d 403d
00000340: 64cf ac3d 9a12 35bd d4ad 88bd 8647 7a3d
00000350: 7c1d b2bd 27d1 813d 2cbe 6bbd 0045 53bf
00000360: 1236 6e3d 3dc0 c1bc faed 213d 0652 7fbd
00000370: c19c af3d 1585 a73d 2d70 293d 562e 89bd
00000380: 5914 b2bd 8a73 7b3d 474c 483d 6d84 afbd
00000390: ad66 23bd ab73 9bbd cd38 05bd f900 a03d
000003a0: 455a 1fbe f003 173c 15e2 37be a9b7 07bd
000003b0: 576a f1bc 184d 19bd a531 6bbc 7468 91bd
000003c0: 7258 bb3d 4199 573d 7a47 c03d 49d2 8cbc
000003d0: 03f3 c03d 6fd4 8fbe 7cef 43be 4214 08bc
000003e0: 4ee9 423d da75 b33d a0ee fe3c acb8 94bd
000003f0: d684 f6bb 47b0 2fbe 413d e93c c988 80bc

bias f4 [25]
-0.13117471 -0.04923522 0.0065044286 0.07695421 0.11958757 0.11548241 0.107170105 0.041376118
0.0035202194 0.029636106 0.0598655 -0.049541052 0.014607429 -0.056738317 -0.117570385 -0.11257409
0.0323747 -0.045778617 -0.11425724 -0.0482505 -0.14376 0.0073545463 -0.06947603 -0.1338432
-0.06935086
00000000: aa52 06be dfaa 49bd 1a23 d53b 2b9a 9d3d
00000010: 54ea f43d 0b82 ec3d 007c db3d 017a 293d
00000020: 7bb3 663b 6bc7 f23c 8735 753d 8feb 4abd
00000030: ff53 6f3c 7066 68bd bec8 f0bd 3f8d e6bd
00000040: 559b 043d 5c82 3bbd b3ff e9bd 51a2 45bd
00000050: d235 13be 68fe f03b 7349 8ebd 310e 09be
00000060: d307 8ebd
