IO_DynaPlex/DeepControlledLearning/PolicyWeights/lost_salespoisson_p4_l4_N20000/l_gen.pth (torch, 283617 bytes, 10 tensors)

weight f4 [256, 4]
000000 c0 b2 d8 3d e7 35 24 be 4d ce a7 3c ca 47 3b 3d
       0.10580969 -0.16036187 0.020484114 0.04572276
000010 86 7e 13 be 1b 89 3a 3e 8e 03 ea 3d 57 5b 66 3d
       -0.14403734 0.18216364 0.11426459 0.056239452
000020 18 b5 5c be 50 9a fc be a4 e8 e9 be 4c a4 da be
       -0.21553457 -0.4933648 -0.45685303 -0.42703474
000030 5d f3 51 3c 1e b5 13 bf cb 4f 84 3d db 3e e5 3d
       0.01281437 -0.5769824 0.06460532 0.11193629
000040 80 9e 61 be 2c 08 f5 be aa 5f d3 3e 02 bc fd be
       -0.22033119 -0.47857797 0.41283923 -0.495575
000050 c8 db c9 bd 36 34 93 be 6e a8 e4 be 2c ff ac be
       -0.09856373 -0.2875077 -0.44659752 -0.3378843
000060 24 43 fb be 1e 63 a9 3e 8c a7 7c be 6c a4 95 be
       -0.49074662 0.33083433 -0.24673289 -0.29227006
000070 07 d9 e0 bd ad 1e 86 3d 7c 30 d3 3e 54 37 55 bd
       -0.10978895 0.0654882 0.41247928 -0.052054718
000080 bb f3 47 3d dd b6 ae bd 11 4b 1c 3d 93 c4 b2 be
       0.048816424 -0.08530972 0.038157526 -0.349156
000090 5b 2d 66 bd 74 42 08 be 11 83 51 3c 27 24 5e 3e
       -0.056195598 -0.133066 0.012787596 0.21693479
0000a0 3f 14 d4 3d f0 b4 8f 3e 01 4a 10 3d 9a 25 4f be
       0.10355424 0.28067732 0.035226826 -0.20229188
0000b0 b3 d1 ba 3e 98 93 e2 3e f5 d7 8f 3e b6 c3 8b bd
       0.36488113 0.4425323 0.2809445 -0.06824438
0000c0 a4 c1 68 3e 9c a6 1b 3e 03 f9 a9 be 22 c9 34 be
       0.22730118 0.15200275 -0.33197793 -0.17654851
0000d0 aa 85 9f 3d 2b dd 55 3e 5f ea bc be b9 bf 55 3e
       0.07789166 0.2088515 -0.3689756 0.20873918
0000e0 44 48 d7 be de 58 b8 be 52 28 a2 be 88 bd 77 be
       -0.42047322 -0.360053 -0.31671387 -0.24193394
0000f0 a3 ec b8 3e 78 f2 cb 3e 2f 61 93 bd 9a de f8 be
       0.3611804 0.39833426 -0.07196271 -0.48607332
000100 22 0f 04 3e 8a 63 a5 bc 93 e5 4b 3d 96 5b 64 3e
       0.12896398 -0.020189065 0.049779486 0.22300562
000110 04 f6 9a be fd 63 37 3e 80 33 1a bd 73 af 87 3e
       -0.3026582 0.17909236 -0.03764677 0.26501045
000120 2c 76 c1 3c e9 7d 5c bd 59 f8 88 be 7d 25 eb 3e
       0.023615919 -0.053831015 -0.26751974 0.4592704
000130 c1 44 56 3e bd 6d d9 be 2d 11 92 3e dd 71 7f 3e
       0.20924665 -0.42466536 0.2852873 0.24945779
000140 19 80 31 be 33 ec 8a be 3d 4e f4 3e 03 64 b9 bc
       -0.17334022 -0.2713333 0.4771594 -0.022630697
000150 a6 a8 28 3e 81 3f e0 3e 10 87 15 3d b2 f7 da be
       0.16470584 0.4379845 0.03650576 -0.42767102
000160 9c 9d 79 be 78 8c 84 bd c8 90 d0 3d 34 80 22 be
       -0.2437653 -0.06472105 0.10183865 -0.15869218
000170 f5 84 17 be 4d e1 d2 3e 44 eb cc 3d 81 e9 59 bd
       -0.14796813 0.41187516 0.10005811 -0.053201202
000180 e3 d5 f5 3d 78 26 ec be 14 c1 68 3e 2d fb d1 be
       0.12003686 -0.461231 0.22729903 -0.41011944
000190 8f 27 a6 be 4b 94 94 3e e0 9e 27 be 7c f2 ad 3e
       -0.32452056 0.2901939 -0.163692 0.33974063
0001a0 1b 12 83 3e 58 62 ec bd 92 f8 67 be c1 eb 1d be
       0.2559975 -0.11542195 -0.22653416 -0.15421964
0001b0 08 49 e7 be 1c 43 35 3e fe 77 f5 be 28 45 82 3d
       -0.45172906 0.17701381 -0.4794311 0.06360847
0001c0 94 c1 e1 be e8 d3 59 be 46 93 fb be 44 e8 f8 be
       -0.44093 -0.21272242 -0.49135798 -0.48614705
0001d0 ce e1 73 3d 16 33 a9 3e a0 2a b8 be 93 cd e8 bd
       0.059541516 0.33046788 -0.3597002 -0.11367335
0001e0 3c c6 71 be 2a a1 f6 be b0 9a e1 bd ec c1 79 be
       -0.23610777 -0.48169833 -0.110158324 -0.24390382
0001f0 8a 29 1c be b0 ae c2 3e 73 81 42 be 39 7c 88 3e
       -0.15250221 0.380239 -0.18994693 0.26657274
000200 8f 4c a6 3d 99 19 9d 3d 3c d4 10 3e 35 03 dd be
       0.08120071 0.07670898 0.14143461 -0.4316651
000210 c1 d3 d8 bd 7b a0 e2 3e f4 4d 8a bd 9a 09 1c bb
       -0.10587264 0.44263062 -0.0675315 -0.0023809434
000220 cb 72 29 3e 95 c4 d7 bc d4 97 8b 3c e4 c7 17 bf
       0.16547696 -0.026338855 0.01704017 -0.59289384
000230 9d 4e ae 3d dc 32 65 3d 3d 37 9f 3d bc 72 cc 3e
       0.08511088 0.055956706 0.07774208 0.39931285
000240 2f 27 67 bd 21 11 ad bd f2 d2 31 3e 67 96 8d be
       -0.056433853 -0.08450533 0.17365626 -0.2765381
000250 8c 62 71 3e c9 1b fd 3d b1 ac a7 be bd a6 23 3d
       0.23572749 0.12358815 -0.3274894 0.039953936
000260 8e e1 a2 be de 7d 89 be f0 05 c1 3d 20 1d 0d 3d
       -0.3181271 -0.26853842 0.094249606 0.034451604
000270 67 4b a7 3d c6 d0 ab be d7 d6 b9 be ec 82 ca 3e
       0.08168679 -0.3355772 -0.36296722 0.3955301
000280 be e3 e2 3d b9 4f 32 3e 89 81 79 be 23 44 82 be
       0.110785946 0.17413224 -0.2436582 -0.2544261
000290 f2 7d c2 3e 78 74 28 be ce 3a b9 3e cc 5b 82 3d
       0.37986714 -0.1645068 0.36177677 0.06365165
0002a0 e1 34 e4 3e 5b a7 b4 be 14 fd 26 bd 98 84 2f 3e
       0.44571593 -0.35283932 -0.040768698 0.17140424
0002b0 c0 55 f1 bd 80 fe 12 bd 86 5d dd be 88 42 90 be
       -0.11783934 -0.03588724 -0.43235415 -0.2817576
0002c0 20 f4 f3 be d2 2d 84 bd 41 bf 7d 3e 94 46 21 be
       -0.4764719 -0.06454052 0.24779989 -0.1574958
0002d0 e2 86 ef 3d f1 4c 06 3e 92 64 28 3e 73 91 ef bd
       0.11695649 0.13115288 0.16444615 -0.11697664
0002e0 40 ac a1 bd 34 60 a8 be dc c2 fc be b0 12 c6 3e
       -0.07894182 -0.32885897 -0.49367416 0.38686132
0002f0 22 e5 14 be 29 fc 9a bd 9e 50 9b 3e c3 2e d8 3c
       -0.14540532 -0.07567627 0.30334944 0.026389485
000300 8d f0 03 3e 75 cd b1 be 28 c7 88 3e 8c 1b ca bd
       0.12884732 -0.34727064 0.26714444 -0.098685354
000310 3c 84 7b 3d 96 96 8e be b0 10 f6 be da 23 f0 bd
       0.061405405 -0.27849263 -0.48059607 -0.11725588
000320 81 2d bc 3d 96 13 ac 3e 77 a3 ef be f4 a0 7c be
       0.09188367 0.33608693 -0.468044 -0.24670774
000330 85 a7 4f be 21 0e 26 bd 10 5d dd bd f1 5b eb 3e
       -0.20278747 -0.040540818 -0.10808766 0.45968583
000340 94 db 88 bd fc 14 38 3e 1f cb a9 be 94 47 73 3e
       -0.06682506 0.17976755 -0.33162782 0.23757774
000350 be ff b3 be 66 67 98 3e 79 60 ba 3c 0f 73 64 3e
       -0.35156053 0.29766387 0.02275108 0.22309516
000360 28 b5 43 be 38 d5 f6 be 0c 18 d0 3e 92 d1 8e be
       -0.19112074 -0.48209548 0.40643346 -0.27894264
000370 73 b8 a8 be 2b ce 35 3e 47 8d fa 3d 1e 7a 2b 3e
       -0.32953224 0.17754428 0.12233978 0.16745803
000380 a7 dd 2b 3d 8e ab c8 3e f9 5c 7b 3e a3 b3 ec 3d
       0.04195943 0.39193386 0.24547185 0.115577005
000390 c6 30 43 3e fb 70 67 bc a2 1f eb be 95 47 67 3e
       0.19061574 -0.014126058 -0.4592257 0.225859
0003a0 9a 4e 03 3f 04 bf 3d be d1 79 61 be 5d fa 95 bc
       0.5129181 -0.18529898 -0.22019126 -0.01830786
0003b0 28 95 82 3e 21 52 6e be af 33 c1 3e 38 00 7f 3b
       0.25504422 -0.23273517 0.37734744 0.0038910042
0003c0 32 af cd be 92 9d d6 be 62 08 b2 be 80 4e 47 3e
       -0.40172726 -0.41917092 -0.3477202 0.19463539
0003d0 b8 8a c5 3e 9e 36 85 3e f3 c8 00 bf 93 ff b2 be
       0.38582397 0.26018232 -0.50306624 -0.34960613
0003e0 c0 44 8b be 6e 8e a7 be 90 b5 0b be 10 0e c5 be
       -0.2720089 -0.32725853 -0.1364348 -0.3848729
0003f0 1c be 66 3d f9 bf 8b be b1 bb 5b be cb 2b e0 be
       0.056333646 -0.272949 -0.21458317 -0.4378341

bias f4 [256]
000000 d9 24 74 be c7 98 76 3e c8 85 b2 bd 9a 89 de be
       -0.23842181 0.24081717 -0.08716923 -0.43464357
000010 54 e0 82 be 0a aa df 3e a0 7b 25 bd d7 56 0f 3f
       -0.25561774 0.43684417 -0.0404011 0.5599188
000020 a7 75 46 3b 39 51 e7 bd 7b b2 fc be 9d d4 32 bf
       0.0030282529 -0.11294789 -0.4935492 -0.6985567
000030 46 d2 84 be d8 03 73 3e 04 f6 d7 be 14 d7 32 bf
       -0.25941676 0.23731935 -0.42179883 -0.69859433
000040 55 3a 8e be 62 d9 cc bd 1f e0 14 bf b2 c5 1d 3f
       -0.2777888 -0.100024 -0.5815448 0.61629784
000050 19 3e c2 3b 43 3d 1f bf 00 b4 ff 3a fa 3e e3 be
       0.005927813 -0.6220285 0.00195086 -0.44383985
000060 33 71 05 3e 83 50 ff bd 89 ad 81 be e8 77 b9 be
       0.13031463 -0.12466528 -0.2532771 -0.36224294
000070 9c b1 24 be b1 b6 12 3e 60 8e ea be d6 28 89 3e
       -0.16083378 0.14327504 -0.45811749 0.26788968
000080 ac 07 2b 3f df c5 dc be 39 e1 39 3d 40 33 40 bf
       0.6680858 -0.43119714 0.045380805 -0.750782
000090 2e 1e e0 3d cd 99 3d 3e ce 53 d7 be 33 13 0b be
       0.10943256 0.18515702 -0.42056125 -0.13581543
0000a0 58 f9 8c be 99 91 83 bd ef c2 af be cc 47 e6 3e
       -0.27533984 -0.06424255 -0.3432841 0.44976652
0000b0 f1 82 c1 3d 95 e6 42 bf a2 6f e2 be 57 4f 93 3e
       0.09448803 -0.7613309 -0.44225794 0.2877147
0000c0 82 33 a8 3e 56 52 bf be 72 44 18 be 0f 7c 86 3e
       0.32851797 -0.37367505 -0.1486986 0.26266524
0000d0 c8 4e 3b 3e 38 05 90 be 10 36 1e 3d 30 ec 23 3f
       0.18291771 -0.28128982 0.038625777 0.6403227
0000e0 50 15 14 3f 3e 89 91 3d 77 47 33 bf 2e 65 cd be
       0.5784502 0.07106255 -0.7003092 -0.40116256
0000f0 40 71 3b 3c b9 f1 fb be 1c 85 1a be 9d 6e ac 3e
       0.011440575 -0.49207857 -0.1508984 0.3367814
000100 68 91 d3 3e 60 0d ef bd 62 8a d5 3e 16 bd 32 be
       0.41321874 -0.11672473 0.4170714 -0.17454943
000110 b1 6e b7 3e ee 90 9d be f1 89 12 3f 54 c4 9e be
       0.35826638 -0.30774635 0.5724173 -0.3100916
000120 1b 42 cf 3c 5f 51 93 be 77 4b ea be 03 fe 25 bf
       0.025300076 -0.2877302 -0.457607 -0.64840716
000130 1e 0c eb be 60 1e 3c be 67 cc b9 be 60 fc ba 3e
       -0.45907682 -0.18370962 -0.3628876 0.36520672
000140 fc 5c 0c 3f 6a 19 cf 3e 73 3a df be 6e 0f 72 be
       0.5482938 0.40449077 -0.4359928 -0.23638698
000150 e3 f5 e0 be 58 1f b9 3e 8c 17 92 3e 80 18 e7 be
       -0.43937597 0.36156726 0.2853359 -0.4513588
000160 04 33 de be d4 78 13 be b6 49 fc be 9f dc 42 be
       -0.43398297 -0.14401561 -0.49274987 -0.19029473
000170 fb 9f 93 3e d4 3d ef be 51 22 b8 be 8a d8 da bd
       0.28832993 -0.4672686 -0.3596368 -0.10685833
000180 84 09 4a be 55 e2 82 be 58 70 fd 3e 6a 66 df be
       -0.19730192 -0.25563303 0.49499774 -0.43632823
000190 f1 2b 82 3e 86 ab 27 3f 4e 8f 0c 3f 90 1a 0e be
       0.2542415 0.654961 0.54906166 -0.1387732
0001a0 d0 c1 6e be 4d 3e 2c bf 04 90 a9 be c1 a0 03 3f
       -0.23316121 -0.67282563 -0.33117688 0.51417166
0001b0 dd 05 d0 3d ef f6 c2 be 07 21 47 be fa 5b e4 3e
       0.10157368 -0.3807902 -0.19446193 0.44601423
0001c0 92 4f e9 be 4e 90 f2 be a3 4d 19 be c6 19 19 bf
       -0.4556852 -0.4737572 -0.14971022 -0.5980495
0001d0 35 1c 2b be c3 19 f2 be 98 73 3a be 91 fe f0 3e
       -0.16709979 -0.4728528 -0.18208158 0.4706922
0001e0 16 0f 92 3e ab 7b 0d 3e 57 d1 99 be 05 37 15 bf
       0.28527135 0.13816707 -0.30042526 -0.5828708
0001f0 56 c3 fb 3e 05 3c d8 be d8 61 3d 3f 2c 12 bb 3e
       0.49172467 -0.4223329 0.7397742 0.36537302
000200 63 5e a8 3d 70 2a 0d 3f b8 07 10 3f 28 f1 9b be
       0.08221128 0.5514288 0.5626178 -0.30457425
000210 b9 40 3a 3f 3c dc ce 3e 0c d5 2a be 10 26 31 3e
       0.7275501 0.404024 -0.16682833 0.17299676
000220 a0 87 b2 be 8c 45 90 3e 05 d3 a7 3e ec 34 b9 be
       -0.348691 0.2817806 0.32778183 -0.3617319
000230 42 9b cb 3e ae 54 26 3e a5 1c e1 3e d4 88 da 3d
       0.3976689 0.1624324 0.43967167 0.10670629
000240 48 02 5d be 13 fe 44 3e fd 2a ad be f0 1e b0 be
       -0.21582901 0.19237547 -0.3382186 -0.34398603
000250 1b ac 1e bf da 47 1d 3e 23 c8 a6 3e 6e 96 cc 3e
       -0.6198136 0.1535944 0.32574567 0.3995852
000260 26 8d c9 be 3d b7 18 3f 1e 3f d6 3e 4b a0 0a 3f
       -0.393655 0.596546 0.4184503 0.5415084
000270 a0 13 95 3e 70 2d f7 bd 60 af e4 bc 70 cc cd 3d
       0.29116535 -0.120692134 -0.027915657 0.10048759
000280 a4 7e a7 be f1 8a 2a 3f 25 47 2c 3f e0 ae e7 3e
       -0.32713807 0.6661826 0.6729606 0.45250607
000290 a1 88 32 bf 48 a6 09 3e 42 d0 29 3f 77 6a da be
       -0.6973973 0.13442338 0.663334 -0.4265935
0002a0 80 00 a7 3d 26 5a c5 3e 20 53 50 3d aa 04 62 3e
       0.08154392 0.3854534 0.050860524 0.22072092
0002b0 34 30 b9 3d 86 2d a4 3e 16 f8 e1 3e a1 d0 98 be
       0.09042397 0.32065982 0.44134587 -0.2984667
0002c0 8c 63 27 be 40 a9 15 3f 31 73 1c 3f 2d 24 98 be
       -0.16346568 0.5846138 0.6111327 -0.297151
0002d0 c0 fd 8f 3e 9d a3 d9 be b8 d5 ca bd d4 89 9f be
       0.28123283 -0.4250764 -0.09904045 -0.31159842
0002e0 95 60 fe 3e d8 22 e3 3e 41 dd 8c bd 90 bb 99 3d
       0.4968306 0.4436252 -0.06878138 0.07506478
0002f0 ff 24 0c 3f a6 97 05 bf 76 e4 d8 be f6 d7 8e 3e
       0.5474395 -0.5218452 -0.42361802 0.2789914
000300 b8 df 9c be bd f9 aa be 90 00 83 be 10 ad f2 3d
       -0.30639434 -0.3339366 -0.25586367 0.11849415
000310 ac 2e 02 be 3f 3b ee be 98 9d fa bd 08 88 b4 bd
       -0.12713116 -0.46529576 -0.1223709 -0.088150084
000320 b1 4d 9f be 14 1b 12 bf 6a 91 23 bf fc a5 bc 3d
       -0.3111396 -0.5707257 -0.6389376 0.092113465
000330 6b bd c4 3e 64 ae e6 be 30 1c 48 be 14 12 bd be
       0.38425764 -0.45054924 -0.19542003 -0.36927855
000340 c6 b3 eb be 02 d1 39 3e 5a e2 c2 3e 71 74 bd bd
       -0.46035594 0.18146136 0.38063318 -0.09250725
000350 0c d6 64 3e 51 0a c7 3e 62 a5 80 3e 00 48 37 bb
       0.22347277 0.38875058 0.25126177 -0.00279665
000360 d7 cb 8d 3c f5 c4 f3 be ca ca 06 be 45 eb 86 3e
       0.017309112 -0.47611204 -0.13163295 0.2635137
000370 c0 6d 43 3d 00 ed c9 3e e6 e4 10 be 4a 81 8e 3c
       0.047712088 0.3943863 -0.14149818 0.017395634
000380 3d eb 64 be 58 1e b0 be 4c 34 8e be 7a 4a d4 3e
       -0.22355361 -0.3439815 -0.27774274 0.4146307
000390 79 bb 80 3e 98 ad 4a 3f 8a 6f a1 be d7 d4 c8 be
       0.2514303 0.79171133 -0.3153041 -0.39224884
0003a0 39 d4 e8 3e bb 94 e2 3e 6f ba 55 be ce 23 92 3d
       0.45474413 0.44254097 -0.208719 0.071357355
0003b0 1c 49 3f 3e 20 7b c8 3e 0c f3 fa be 8c d7 ba 3e
       0.18680233 0.39156437 -0.49013555 0.36492574
0003c0 60 34 1b 3f a8 ad 03 bf b6 50 05 3f 18 ba 29 bf
       0.6062679 -0.51436853 0.5207628 -0.6629958
0003d0 b4 38 c5 3e cd b0 b6 be 35 fd da be 9e 22 fa be
       0.38519824 -0.35681763 -0.42771307 -0.48854536
0003e0 0d 96 13 be c8 e6 c3 be e0 1d c7 3d 57 e8 1a bf
       -0.14412709 -0.3826201 0.09722495 -0.6051077
0003f0 6c fa 4c be 45 97 91 3d 1c 3e 83 be 09 8e 06 bf
       -0.20017403 0.071089305 -0.25633323 -0.5256048

weight f4 [128, 256]
000000 40 49 a3 3c c0 ed e0 3b 08 e6 38 3c b4 19 43 bd
       0.01993239 0.0068642795 0.0112853125 -0.047631934
000010 80 43 58 bb 8c 64 96 3c d0 e2 3e bc 7e 9b 12 bd
       -0.0032999218 0.018358491 -0.011650756 -0.03579282
000020 70 4b c5 3c 4c 5d 3d 3d 74 05 46 3d 7c df a8 3c
       0.024083823 0.046231553 0.048345044 0.020614378
000030 d8 32 12 bc e8 f5 37 3c 18 08 26 3d 20 25 64 3b
       -0.008923255 0.011228062 0.040535063 0.0034812167
000040 44 2a bb bc c8 51 11 3d 9e 97 0a 3d b2 d3 7b bd
       -0.022847302 0.035478383 0.033836 -0.061481185
000050 40 82 77 3d 90 a3 6b bd 72 52 24 bd 7c 7b 90 bc
       0.06042695 -0.057529032 -0.04011769 -0.017637007
000060 b8 28 70 bc ee 1c 77 3d 90 21 c3 3c 40 38 20 3b
       -0.014658146 0.060330324 0.023819715 0.002444759
000070 56 ab 04 bd f2 56 1b 3d 38 79 51 bd a0 4a d1 3b
       -0.03238996 0.037924714 -0.051140994 0.00638707
000080 1a d8 7a bd 1a 66 4b bd 48 d6 31 bd 48 c5 db bc
       -0.061241247 -0.04965792 -0.043417245 -0.02682747
000090 42 5a 0a 3d 36 33 29 bd 40 6a 86 3c 40 68 60 bd
       0.033777483 -0.041308604 0.016408086 -0.05478692
0000a0 4c 4c 7d 3d a6 44 5a bd c4 52 78 bd 46 20 2d 3d
       0.06184034 -0.053288125 -0.060625806 0.042267106
0000b0 40 c1 8e bb c0 16 06 bc a0 73 83 bb 00 90 df b7
       -0.0043565333 -0.008184135 -0.0040115863 -2.6650727e-05
0000c0 48 61 93 bc 5c bc c5 bc 90 62 ac 3c 80 19 4b bc
       -0.017990723 -0.024137668 0.021043092 -0.012396216
0000d0 82 da 7c 3d e2 e0 21 3d a6 9b 45 bd 20 98 13 3d
       0.061731823 0.039521106 -0.04824414 0.03603375
0000e0 70 98 34 3c 3c 3b e5 3c 40 86 35 3b e6 d1 66 3d
       0.011022672 0.027982347 0.0027698427 0.05635252
0000f0 dc f3 83 3c 58 06 04 3c 04 f0 71 3d 60 df 5c 3d
       0.016107492 0.008058153 0.059066787 0.053923965
000100 d0 b2 6c 3d b2 51 4f 3d 40 38 ba bb 18 39 54 bc
       0.057787716 0.05061502 -0.005682975 -0.012953065
000110 e8 ad 7f bd c6 83 28 bd 00 b4 5c b9 22 10 3e 3d
       -0.06242171 -0.041141294 -0.0002104789 0.046402104
000120 d8 66 d4 3c c0 00 45 bc 60 7a cf bb 18 01 22 3c
       0.025927946 -0.012024105 -0.006331727 0.009887956
000130 d8 1f b3 3c 96 49 11 bd 4c cd 89 3c 14 97 3b 3d
       0.02186577 -0.035470568 0.016821526 0.045798376
000140 80 e9 6e 3a 2c 17 34 bd c8 5c 21 bc 04 14 29 bd
       0.00091137737 -0.04396741 -0.009848781 -0.041278854
000150 b4 de 17 3d 70 66 f7 3c 3c 35 6a 3d c0 0e 46 3d
       0.03707762 0.030200213 0.057179675 0.04835391
000160 60 9a 69 bc d8 40 15 bd d0 8e 28 3d 20 26 08 3b
       -0.014257997 -0.036438793 0.04115182 0.0020774677
000170 e0 b3 69 bb 88 b9 a4 bc c2 42 35 bd 28 ea 33 bd
       -0.0035660192 -0.020108 -0.04425312 -0.04392448
000180 70 61 3c 3d 9a 6e 3a bd 22 84 68 3d 80 18 ff 3b
       0.04599136 -0.045515634 0.056766637 0.007784903
000190 70 cc e5 bc 38 22 ff bc 20 09 22 bc 20 be 6a 3d
       -0.028051585 -0.031144246 -0.009889871 0.057310224
0001a0 b0 e8 4e 3c c2 89 4e bd c4 61 76 3d 68 c8 f0 bc
       0.012628719 -0.050424345 0.06015183 -0.029392436
0001b0 96 f4 01 bd 58 e0 04 3d 2a 2b 23 bd 28 88 91 bc
       -0.031727396 0.032440513 -0.039836086 -0.01776512
0001c0 0c 63 fa bc 98 bd 6f bd 4c 59 7a 3d 50 3f d1 bb
       -0.030564807 -0.05853042 0.061120316 -0.0063857213
0001d0 c8 b6 95 3c d0 01 61 3c ec 4e aa 3c 10 f6 da bc
       0.018275633 0.013733342 0.020789586 -0.02672866
0001e0 38 e0 6a 3c 00 58 5c bb 10 87 cc 3c c0 41 6e 3c
       0.0143356845 -0.0033621788 0.024966747 0.014542043
0001f0 90 fe 25 3c 00 c6 42 39 00 b8 61 b8 b4 22 54 bd
       0.010131493 0.00018575042 -5.3815544e-05 -0.051790908
000200 00 7a ed bb 60 68 60 bb 00 37 0e 3d c0 f2 cb 3a
       -0.0072472095 -0.00342419 0.03472042 0.0015560016
000210 58 fc 22 3d 54 44 46 3d b4 3d 25 3d 2a 39 09 3d
       0.039791435 0.048405007 0.040342048 0.03350178
000220 cc 35 ff bc 20 aa e0 bb 7c 72 6b bd 0c 5e 90 3c
       -0.031153582 -0.006856218 -0.057482228 0.01762297
000230 00 95 6a 3a 08 00 57 bc 4e b5 3f 3d 3c c8 1b bd
       0.00089485943 -0.013122566 0.046803765 -0.038032755
000240 00 7f 95 ba fc 6b 12 3d 14 94 60 3d 20 cb 03 bc
       -0.0011405647 0.035747513 0.05482872 -0.008044034
000250 5c c8 20 bd 60 7d 55 3c 00 14 50 bd ea 71 6e bd
       -0.039253578 0.01303038 -0.050800323 -0.058214106
000260 48 b1 43 3c 38 28 6f 3c d4 47 87 3c 00 8a 35 bc
       0.011944123 0.014596991 0.016513743 -0.011080265
000270 48 a6 3a bd da b4 51 3d e0 ce 55 3d b4 4f f8 bc
       -0.045568734 0.051197864 0.052199244 -0.030311443
000280 4c ff 8e 3c ea b3 7f 3d d6 e3 1e bd b0 51 e9 bb
       0.01745572 0.06242744 -0.0387915 -0.0071203336
000290 5a 08 2b bd 40 7a 49 bd 14 f5 b8 bc ec 21 bb bc
       -0.04175601 -0.049188852 -0.0225778 -0.022843324
0002a0 34 92 70 bd 18 64 41 bc bc 91 4e 3d 98 52 43 bd
       -0.05873318 -0.011803649 0.050431952 -0.04768619
0002b0 d8 fe 5c bd 9a 54 59 bd ee 50 61 bd a4 8a 3b bd
       -0.053953975 -0.053059198 -0.05500882 -0.045786515
0002c0 74 a0 f7 3c 4c e6 32 bd 80 ea c4 3b dc 12 b9 bc
       0.030227877 -0.04367666 0.0060094 -0.022592
0002d0 a0 98 61 3b 48 25 ec bc bc a4 ca 3c 54 19 a8 bc
       0.0034423247 -0.02882637 0.024736755 -0.02051989
0002e0 0a 19 55 bd a0 fc 36 3d 56 26 3b bd c0 cd f1 3a
       -0.052025832 0.044674516 -0.045690857 0.0018448159
0002f0 f0 92 9e bc 04 fe cb 3c 6a e4 21 3d 08 36 cf bc
       -0.019357175 0.024901398 0.039524473 -0.025294319
000300 00 13 4f ba f8 16 93 bc 28 df d3 3c 38 06 35 bd
       -0.00078992546 -0.017955288 0.025863245 -0.044195384
000310 f6 7a 43 3d 14 d1 64 3d e0 71 9e bb ba 49 19 bd
       0.047724687 0.055863455 -0.0048353523 -0.037423827
000320 a8 f2 3b bc 30 24 ca 3c 6e ec 11 bd 78 cb 2f bc
       -0.011471428 0.024675459 -0.035625868 -0.010729663
000330 10 f7 79 3c 94 40 5a bd 84 38 62 bd 70 82 09 3c
       0.015256658 -0.053284243 -0.05522968 0.008392915
000340 fe 66 21 3d 9a 15 39 3d 0e a5 22 bd 70 10 41 bc
       0.03940486 0.045186616 -0.03970819 -0.011783704
000350 f0 79 80 3c 70 1c 1f bd 00 4c ff bb e0 40 95 3c
       0.015683144 -0.03884548 -0.0077910423 0.018219411
000360 d2 ea 49 3d f0 7f 73 bd 80 83 23 3b 68 fd 3e bd
       0.049296208 -0.059448183 0.0024950206 -0.046628386
000370 10 f0 50 bd 36 55 38 3d c8 f1 0a bc 6c 42 28 3d
       -0.05101019 0.04500314 -0.008480497 0.04107897
000380 80 fe 8c 3a 56 72 3e bd f0 dc 62 bd 94 fc 92 3c
       0.0010756999 -0.046495758 -0.055386484 0.017942704
000390 74 3f af bc 54 dc 65 3d c0 14 75 3b c8 64 79 bd
       -0.021392561 0.056118324 0.0037396401 -0.060887128
0003a0 d8 a0 4e bd ac ca f9 bc 10 31 05 bc 4c 56 ef bc
       -0.05044636 -0.03049215 -0.008129373 -0.029215954
0003b0 88 c9 31 3c cc 8d 9d 3c b0 1c 75 3d b0 01 15 3d
       0.010851271 0.019232653 0.05984181 0.036378562
0003c0 ca d5 2f 3d 78 47 6e bc 66 91 3e bd e4 ee e2 bc
       0.042928495 -0.014543407 -0.04652538 -0.027701803
0003d0 00 7e 42 bd a0 8e 58 3d 60 e4 bf bc 38 16 35 bc
       -0.047483444 0.052870393 -0.023424327 -0.011052661
0003e0 1c 84 1a bd e0 a1 6d bd 60 a9 ca 3c 8a 00 2d 3d
       -0.037723646 -0.058015704 0.024738967 0.042236842
0003f0 f0 3e a7 3c a0 8f a2 3b a0 e6 c8 bb 70 72 15 3c
       0.020415753 0.004960969 -0.0061310083 0.009121522

bias f4 [128]
000000 b6 aa 4b bd 5f 04 03 bd 02 1e b8 bc 92 dc 23 3d
       -0.04972335 -0.03198659 -0.022475246 0.040005274
000010 49 67 70 bd 65 6d e8 3d ca c9 4e 3e 70 ff bc bd
       -0.05869225 0.1134899 0.20194164 -0.09228408
000020 f2 87 8b bd b0 24 5b 3c 38 d7 8e bc 5f fc 09 be
       -0.06813039 0.013375446 -0.017436609 -0.13475178
000030 13 b6 5f be 57 00 61 3e 7f c8 81 bd 58 96 e2 bc
       -0.218468 0.21972786 -0.0633707 -0.02765958
000040 9f f7 60 be c8 4e 6e be 1d a6 72 3e 2d 32 1b be
       -0.2196946 -0.2327224 0.2369618 -0.1515586
000050 1e 1d 66 3e 8e e6 dc 3c ba 69 9e bc b0 7b d5 bc
       0.22472045 0.026965406 -0.019337524 -0.026059955
000060 f0 83 57 3c 0c 26 4a be df 16 3d bd 51 b7 83 3e
       0.013154015 -0.19741076 -0.04616439 0.25725797
000070 2d 94 54 3e a2 f9 85 bd db ce 80 3e 6e d3 25 bd
       0.2075965 -0.06541754 0.25157818 -0.04048484
000080 9c 30 f5 3b ed 68 51 bd ff f3 e9 bc b1 a2 25 bd
       0.0074826013 -0.051125456 -0.02855873 -0.040438358
000090 43 90 98 bd 91 c5 ca 3c c0 5c 45 be bc 3b 85 3e
       -0.07449391 0.02475241 -0.19273663 0.26022136
0000a0 15 53 9c bd 13 7b d2 3a e0 47 93 be 1a 17 56 be
       -0.07633034 0.0016058407 -0.28765774 -0.2090725
0000b0 75 13 21 3b ea 78 ea bd 70 47 db bc 7f 13 f2 bc
       0.0024578248 -0.11448844 -0.026767462 -0.029550312
0000c0 46 f1 62 3d 60 de c4 bd 81 16 15 bd d2 d4 13 bd
       0.055405878 -0.09612727 -0.036398415 -0.036091633
0000d0 2d 15 3b bd c5 67 8f 3a 78 cf 52 bd f0 9d 5f 3c
       -0.04567449 0.001094096 -0.05146739 0.013648495
0000e0 47 b6 e6 bc dc 5d bb bd 3d b7 e5 bd 11 d4 30 be
       -0.028163088 -0.09148762 -0.112165906 -0.17268397
0000f0 2c e8 64 3e c8 c6 3f bc 6c eb 82 3e 83 2e 46 3e
       0.22354192 -0.011705108 0.25570238 0.1935368
000100 fc fb 7a 3e f2 8e c9 3c e8 6e 48 3c d7 f6 8e bc
       0.24510187 0.024604294 0.012233473 -0.017451687
000110 98 53 7d bd 71 48 19 bd 8d be 17 bc 4a e3 64 bd
       -0.0618473 -0.0374226 -0.009261739 -0.055880822
000120 b2 c9 fe bd 9d 82 18 bd b2 89 f2 3c fc c6 19 bd
       -0.12440814 -0.037233938 0.029606674 -0.037543282
000130 78 ea 4e bd 70 87 6c bd 5d b4 0a bd ec da 31 3d
       -0.050516576 -0.05774635 -0.033863414 0.04342167
000140 fc 77 4e 3c 41 63 87 3e 4a 35 81 3b 00 26 c3 3b
       0.012601849 0.26442912 0.00394312 0.0059554577
000150 49 a7 67 3e 88 ae 97 3c 73 b3 67 3d f2 3f 03 be
       0.22622408 0.01851584 0.05656762 -0.12817362
000160 d9 e7 23 be 5b c0 47 3e 1a c2 60 3e ff 2f 4e be
       -0.16006412 0.19506972 0.21949044 -0.20135497
000170 de 1f 79 3e bf 68 e9 3c fc 38 a1 3c 9b df 2d 3e
       0.24328563 0.02849233 0.019680493 0.1697983
000180 05 0e 3a 3e c5 cf d2 3c 6b 7a 60 3e 8a cf ab bc
       0.1816941 0.025733838 0.21921699 -0.020972986
000190 d8 f2 81 bd a3 b9 02 be eb 1a 80 3c 2a 46 29 bd
       -0.06345147 -0.12766127 0.015637835 -0.04132668
0001a0 e2 22 05 3d 94 67 79 bd 1f cf 16 be da d5 e3 bd
       0.03250397 -0.060889795 -0.14727448 -0.11124773
0001b0 d2 52 46 3e 16 ee 5b 3e 00 16 70 bd 69 ee 8a 3e
       0.19367531 0.21477541 -0.05861473 0.27135018
0001c0 de af cc 3c aa e4 7c 3b da 71 48 be 1e 08 2d bd
       0.024986204 0.0038588443 -0.19574681 -0.04224407
0001d0 36 8f 4e 3e bd ad 30 bd 3a ed b4 3c 23 1b ab 3c
       0.20171818 -0.04313444 0.022085775 0.020886963
0001e0 57 ae 5c 3c db 5b 90 bc d9 ba 1f bd 98 c9 6a bd
       0.0134693 -0.017621925 -0.03899655 -0.05732116
0001f0 c5 f3 d0 bc 29 52 9b 3c 19 87 81 bd aa 65 0a 3d
       -0.025506863 0.018960075 -0.06324596 0.03378836

weight f4 [128, 128]
000000 a0 2f 3e bd 33 cc b8 3c 91 d7 11 bc cb 0f 95 3d
       -0.046432137 0.022558307 -0.008901493 0.07278403
000010 9e 6b 51 3c 02 b7 49 bd fc 3c be 3d 7b c3 b2 bc
       0.012782006 -0.049246795 0.092889756 -0.021821728
000020 25 17 99 3d 15 28 ae bd be 23 80 3c ff 47 e2 bc
       0.074751176 -0.08503739 0.015642043 -0.027622221
000030 91 96 52 bd 3d 75 b6 3d f1 9f 24 3d c6 22 08 bd
       -0.051413123 0.0890908 0.040191595 -0.033236288
000040 10 8d d7 3c 68 a7 29 be 32 77 24 3d 9e a4 df bd
       0.026312381 -0.16567767 0.040152736 -0.1092007
000050 01 9a 73 3d 4c 6d 82 bd 16 5f 6a 3d 39 02 94 bd
       0.05947304 -0.06368503 0.057219587 -0.072269864
000060 a0 67 82 bd 15 c7 93 bc d1 a0 95 3c c1 cf fb 3d
       -0.06367421 -0.018039266 0.01826516 0.12295485
000070 9c 9a 05 3d 33 38 22 3d fa 2b 16 3d 9b b0 01 3d
       0.03261815 0.039604377 0.036663033 0.031662565
000080 7b b1 92 bd 57 d4 2c 3d d5 17 d6 3c 74 87 51 3c
       -0.07162758 0.04219469 0.02613441 0.012788642
000090 23 8d 0e 3d 1e 6c 1b 3d 3c b0 be bb a8 1e b7 3d
       0.034802567 0.037944905 -0.0058193486 0.08941394
0000a0 c3 18 58 3c 44 c6 88 bc dc 0e e3 bd ef 8b d2 bc
       0.013189497 -0.016696103 -0.110868186 -0.025701491
0000b0 98 77 6b 3d ce 11 29 bc 9f 6e 06 bd 60 97 22 bd
       0.0574871 -0.010319186 -0.03282034 -0.039695144
0000c0 6e 4d 63 3d 2f 6a ee 3c 34 38 a1 3d ab a9 c0 3b
       0.055493765 0.029103367 0.07872048 0.005879601
0000d0 72 ba ad bb 6e 1e 03 bc 0b e7 21 bd be 6d 46 bd
       -0.005301767 -0.0080028605 -0.03952698 -0.048444502
0000e0 8e 53 37 3d b9 6e c5 bb 72 7a 0f b9 2a 00 70 bd
       0.04475742 -0.006025162 -0.00013683157 -0.058593906
0000f0 e1 24 f3 bc 3a d6 be 3c 5e 8b 0b 3e 0f 1e af 3d
       -0.029680671 0.02329551 0.13627383 0.08550655
000100 d3 d2 d4 3d d6 0c 83 bd 17 95 97 bc d3 2f 8b bd
       0.10391774 -0.06398933 -0.018503709 -0.06796231
000110 6d 5c 8d bc 68 a5 65 3d 6e 21 41 3d 50 e9 52 3d
       -0.017255986 0.056065947 0.04715102 0.051492035
000120 78 6c 2b 3c 41 14 c0 bd 23 3b a8 3d 69 04 d9 3c
       0.010462873 -0.09378863 0.082144044 0.02649136
000130 d3 a9 d0 3d 2a f3 44 bd 91 0c 17 3d bf e4 fa 3c
       0.101886414 -0.04808346 0.03687722 0.030626653
000140 ac d0 81 bd e2 b3 cd 3b 1e be 89 bd b7 91 ea bb
       -0.06338629 0.006277547 -0.06725715 -0.007158484
000150 0b b0 ea 3c 6f 68 00 3d cd 17 02 bd 9e 7c b5 3d
       0.028648397 0.031349596 -0.03176098 0.088616595
000160 d8 28 1b bc 9e a3 62 3e 0e 98 12 3d d7 4b 52 bd
       -0.009470187 0.22132728 0.035789542 -0.051341858
000170 a3 8d 26 3e ff 9a bd bd 71 23 41 3d 69 c4 f3 bc
       0.16264968 -0.09258079 0.04715294 -0.029756742
000180 83 13 e7 3d 09 69 82 bd 29 96 92 bd ca a3 a2 bd
       0.112830184 -0.0636769 -0.07157547 -0.079413965
000190 b6 6d 99 3d e8 d1 6b bd 38 22 0f bd ac 03 74 bc
       0.07491629 -0.05757323 -0.034944743 -0.014893454
0001a0 0d d9 84 3d 63 b7 6c 3d a2 a2 64 3d f6 ff 4f 3d
       0.06486712 0.05779208 0.05581916 0.050781213
0001b0 88 ec 72 3d 5c 04 f7 3d 92 9c 04 3d 6f 98 94 3d
       0.059307605 0.12061378 0.03237588 0.07255637
0001c0 b5 42 13 3d d5 22 62 bd a4 0b 42 bc 49 1e 9d bd
       0.03595229 -0.055209 -0.011843596 -0.07671792
0001d0 44 b5 ef 3d ea 6b 2c bc 3d 6f 26 bd ed f3 2d bd
       0.117044955 -0.010523776 -0.04063343 -0.042468954
0001e0 52 80 37 3c 2c 6c b7 bd 3c 68 19 bd 44 47 69 bd
       0.011200028 -0.08956179 -0.03745292 -0.05695273
0001f0 67 6f d5 bc 77 ed 94 3d e4 b6 7e bc c0 58 40 bd
       -0.026054097 0.07271855 -0.015546534 -0.04695964
000200 41 dc fe bc 29 b6 d0 3c 8f fe aa bb 4b f5 3b 3d
       -0.031110885 0.025477486 -0.005218334 0.045888226
000210 47 07 eb ba 06 7f 87 bd 25 7e 99 bd 85 bb e7 bc
       -0.0017931246 -0.06616025 -0.07494763 -0.028287658
000220 b9 70 06 bd c9 51 c1 3b 4f 3c 1d bd bb fd 83 3d
       -0.032822344 0.005899642 -0.038387593 0.064448796
000230 aa a1 94 3d 83 1b ec 3c c2 95 9d bc 30 8c 82 3d
       0.072573975 0.028821712 -0.01923645 0.06374395
000240 84 75 79 bd 1b 77 f1 3d 8f 7b 4e bd 1c 3e 35 3c
       -0.060903087 0.11790296 -0.050410803 0.011062171
000250 8b 70 b4 bd cf 88 69 bd ee 0b 80 bd 4a af 87 3d
       -0.08810528 -0.057015236 -0.062522754 0.066252306
000260 35 06 07 b9 f4 45 45 3d 04 d3 95 3d 62 13 48 3d
       -0.00012876916 0.048162416 0.07315639 0.04884661
000270 0b 9b bd 3a bf 7b 0b bd 5b 7d 00 bd b8 cd be 3d
       0.0014465762 -0.03405356 -0.03136955 0.093165815
000280 f6 0b 3e 3d 60 c1 37 3d 6e 86 a0 3d ce 7d 34 3d
       0.046398126 0.04486215 0.078381404 0.04406529
000290 27 33 26 3d ad 87 a1 3d bc c4 f9 bb fc 8d 99 3d
       0.040576126 0.07887206 -0.0076223295 0.074977845
0002a0 80 06 f4 ba 07 28 ed 3c ef 14 af 3d 27 52 64 bc
       -0.001861766 0.02894975 0.08548915 -0.013935602
0002b0 0c 58 fa 3c 8c 26 18 bd 17 10 eb 3c 79 64 53 3d
       0.030559562 -0.037146136 0.028694196 0.05160949
0002c0 ce ec 35 bd d8 fb 1b 3d d3 0c bb bb da e4 00 bd
       -0.044415288 0.038081974 -0.005708316 -0.03146825
0002d0 b5 81 95 3c 2f 5d 49 b9 35 34 fa bc 76 e0 ad bb
       0.018250326 -0.00019203567 -0.030542472 -0.005306299
0002e0 1a 50 32 bc ac bc 85 3d b1 0e 94 3d 81 6c 85 bd
       -0.0108833555 0.06530127 0.07229365 -0.06514836
0002f0 df 06 a7 3d 9c 88 a3 3d 37 8b 41 3d 39 4e 01 3d
       0.081556074 0.079850405 0.047251906 0.03156874
000300 1c 08 b3 bd 81 b0 9f bd a8 b5 cf bc d7 23 28 bd
       -0.08741781 -0.07797337 -0.025355175 -0.041049805
000310 38 06 66 3d b9 69 87 bb db c5 cc 3c 4f f2 3b 3d
       0.056158274 -0.004132476 0.024996689 0.04588538
000320 60 32 c1 3d e0 34 12 3d f1 2a 13 3d 5e 73 a7 3d
       0.094334364 0.035694957 0.035929624 0.081763014
000330 f5 69 a4 bd 66 6c 0e 3d 38 a6 26 3d 9e 6e af 3d
       -0.08028022 0.034771346 0.040685862 0.085660204
000340 d9 46 f6 3c 6c f4 1d 3d 2a 6a 3e 3d 7b f0 9e bd
       0.03006308 0.038563177 0.046487965 -0.07760712
000350 03 1e fd bd 9e e8 8c 3d a4 8b b1 bd 1a 18 85 bc
       -0.1235924 0.06880306 -0.086692125 -0.016246844
000360 6c dd 45 bd 83 bb cc bd 2a 53 c2 3c f5 32 59 bd
       -0.048306867 -0.099967025 0.023721296 -0.053027112
000370 b2 37 62 be d1 d9 b8 3d 4e 4c 19 bb c8 24 00 3d
       -0.22091559 0.0902592 -0.0023391428 0.031285077
000380 b9 54 a8 bb b6 06 6e bd bd 04 80 3d 37 78 40 bc
       -0.005137053 -0.05811187 0.06250904 -0.011747411
000390 04 8b 7a bd 68 80 9a 3d 68 f7 19 bd 71 41 a9 bd
       -0.061167732 0.07544023 -0.03758946 -0.08264435
0003a0 d1 6f b5 3c dd b9 ad 3d b9 2f ef bb e3 01 d8 3d
       0.022148045 0.08482716 -0.00729939 0.10547235
0003b0 13 d5 ff 3c 93 87 ab bb 22 14 18 bd 5a a9 2a bd
       0.031229531 -0.0052346676 -0.037128575 -0.041665412
0003c0 07 f0 dc bc ec d3 02 3d 89 ef 82 bd 0b 8c 3c bd
       -0.026969923 0.031940386 -0.06393344 -0.046031993
0003d0 4e 33 3f 3d 7c ff 63 3d ce ab 4b bc 6c 07 2c bd
       0.046679787 0.05566357 -0.012431098 -0.041999266
0003e0 85 ab 4f 3d e0 a4 9e bd ec 12 12 3a a6 63 1d 3d
       0.050700683 -0.07746291 0.00055722776 0.03842511
0003f0 82 58 56 3c 44 41 cb 3c db 6a 47 bc 39 3e ad bd
       0.013082625 0.024811395 -0.012171472 -0.08459134

bias f4 [128]
000000 a2 d0 65 3e fe 96 12 be 34 49 14 bd cc a1 48 be
       0.22442868 -0.14315411 -0.036202624 -0.1959297
000010 2c 43 70 3d 23 cd 89 3c 7a 62 55 bd 76 9d 8d bd
       0.05865781 0.01682145 -0.052095868 -0.06914799
000020 6c ae fb bc 85 1a 15 bd 29 b3 6f 3e 8d ae 4f 3e
       -0.03072282 -0.036402244 0.23408188 0.2028143
000030 14 96 ad bd 9a d6 27 be 5a 3c 12 3e 25 02 3c 3e
       -0.08475891 -0.16390458 0.14280835 0.18360193
000040 2b 53 08 3d d5 38 58 3d a7 57 f6 ba fa bb 5c be
       0.03328244 0.052788574 -0.0018794433 -0.21556082
000050 0b df e5 bd 86 80 46 3d 13 10 e0 3c 99 45 2b bc
       -0.11224183 0.048462413 0.027351415 -0.010453605
000060 ab a8 23 be 1d b1 69 3e 5d 12 4b 3e 35 04 2e 3e
       -0.1598231 0.2282147 0.19831224 0.16993792
000070 7c ab 9d bd 5d 71 dc 3d eb 4d be bd eb 8e 3c 3e
       -0.07698724 0.1076381 -0.092922054 0.18413894
000080 83 ef 54 3d 99 d5 c8 bd dc a0 50 3e a0 7a 13 3d
       0.05198623 -0.098063655 0.20373863 0.036005616
000090 f4 d1 68 be 16 ea 76 bc 94 c4 dd bd c3 c8 06 3e
       -0.22736341 -0.015070459 -0.1082851 0.13162522
0000a0 a2 e8 61 3c 4e f9 94 bd 46 10 9f bd f3 0e cb bd
       0.013788374 -0.072741136 -0.07766776 -0.09914961
0000b0 ab d0 9e 3d 9b a0 9c 3e 36 26 15 be be 0b 9e 3e
       0.07754644 0.30591282 -0.14565358 0.30868334
0000c0 aa 05 ff bb 9e 5d 43 be 2f 1f 8c 3d b8 74 09 3e
       -0.0077826576 -0.19078681 0.06841885 0.13423431
0000d0 01 f4 22 3d fe ad 2e bc 42 25 0e 3d 10 b9 ba bd
       0.03978348 -0.0106616 0.0347035 -0.09117329
0000e0 71 b4 93 3d 96 84 3b be 3f ac 08 bd 9f c1 78 3e
       0.07212151 -0.18312296 -0.03336739 0.2429261
0000f0 f8 44 90 3e b1 f9 32 bc 76 95 fb 3b fd 7e 25 3e
       0.2817762 -0.010923789 0.0076777292 0.16161723
000100 7e df 23 3d a6 07 cf bd 8f b1 72 be 3a 2b e8 bd
       0.04000806 -0.10108881 -0.23700546 -0.1133637
000110 e3 68 c8 bd 28 72 a8 bd 21 d9 c2 bc 80 bf b4 bd
       -0.097856306 -0.082248986 -0.023785176 -0.08825588
000120 04 fb c2 bd 89 0d 58 3e 6b 5a 30 3e c7 ed 1c bd
       -0.09520534 0.21098913 0.17221992 -0.0383127
000130 d5 4b eb bd 15 ac 84 bc 8b 5b 75 3d 2b 97 3e bd
       -0.11489073 -0.016195336 0.059901755 -0.046530884
000140 e1 d5 50 be eb d1 4b be 4b b1 87 bd ce 7c 1f bc
       -0.20394088 -0.19904296 -0.06625613 -0.009734346
000150 12 5b 9b 3d 4a c7 f1 bc 23 ec d7 bc 62 5f 94 bd
       0.0758573 -0.029513974 -0.026357716 -0.07244755
000160 78 79 83 3e dd 02 d7 bb 55 e5 b1 bd 2a d8 90 3e
       0.2567861 -0.0065616206 -0.0868632 0.2828992
000170 7a e1 92 bc f5 f8 08 3e ce 0b 4f bd a0 96 51 3d
       -0.017929781 0.1337622 -0.050548367 0.051169038
000180 07 0d 79 bd 76 6c ed 3c 35 e9 24 bd 4b 4e 54 bd
       -0.06080344 0.028982382 -0.040261466 -0.05183248
000190 19 95 77 3c 33 d9 f7 3c 70 4d e9 3a c1 0e 43 be
       0.015111231 0.030254936 0.0017799567 -0.19048597
0001a0 a4 57 8d 3e 40 12 66 3e f1 02 9e 3d e4 eb 9b bd
       0.27605927 0.224679 0.07715405 -0.07613352
0001b0 e1 b1 60 bd b0 a9 de bd c0 eb 63 bc d3 0a 6b bd
       -0.05485714 -0.10872209 -0.013911188 -0.05738337
0001c0 6b 56 8f 3e a0 20 b6 bd 29 4e 93 3e e8 2d 31 bd
       0.2799562 -0.088929415 0.2877057 -0.04325667
0001d0 a6 ed 84 3d 55 7d a3 3c 1d f2 56 3e 42 ee db bd
       0.0649064 0.019957224 0.20990796 -0.107388034
0001e0 0f 49 61 bc d9 91 f3 bd ec fe 63 3d 86 f8 99 bd
       -0.013750329 -0.118930526 0.055663034 -0.07518105
0001f0 a7 8e b1 bd 4a 4d 66 bd e7 62 68 bd 5a 94 ef bd
       -0.08669787 -0.056226052 -0.056734946 -0.11698218

weight f4 [128, 128]
000000 e6 a9 35 bd ae d9 b5 bd 0e 06 b0 bd 60 87 b7 bd
       -0.04435148 -0.0887941 -0.08594905 -0.089613676
000010 ec 18 93 bd ef 16 ad bd e0 e6 c2 bd 00 b7 82 bd
       -0.07182488 -0.0845164 -0.09516692 -0.06382561
000020 e6 e5 bd 3c 7b e7 bf bc 3f c9 6d 3d 96 a7 b9 bd
       0.023180913 -0.023425808 0.05805325 -0.090651676
000030 ee b0 96 3d d3 18 64 3d 01 54 13 bc da f5 2d 3d
       0.073579654 0.055687737 -0.008992196 0.04247079
000040 09 04 30 3d 24 75 9e bc 0d b7 6b 3d 2d 6d 1d 3d
       0.0429726 -0.019342966 0.057547618 0.038434196
000050 38 3b ec bb 47 f6 d0 bc 2a ad 9e bc 91 be 96 3d
       -0.007209208 -0.02550806 -0.01936968 0.073605664
000060 16 69 8f bd c3 c4 1c bc fe 72 4b bd 61 1d 7f 3d
       -0.070024654 -0.009568396 -0.049670212 0.062283877
000070 93 01 f3 3c 35 70 48 3d d7 0f e0 3c 30 54 be bd
       0.029663837 0.048935134 0.027351303 -0.09293401
000080 d7 94 1c bd 6f b5 36 bd 56 2e 04 3d 75 d7 16 bd
       -0.038227882 -0.044606622 0.032270752 -0.03682657
000090 46 ac f6 bb e1 7d 26 3c 2f f9 4f 3d e0 2d fa bc
       -0.007527861 0.010161848 0.05077475 -0.030539453
0000a0 fa c5 3f 3c 9d bf 48 3d aa d3 a5 3c 93 bd a8 3d
       0.011704916 0.04901086 0.02024253 0.082392834
0000b0 c3 24 a4 3a b1 25 84 3c 0a 16 5d bd 25 75 e6 bb
       0.0012523163 0.016131254 -0.053976096 -0.0070330077
0000c0 26 ce af 3d c4 4f 64 3d 10 d1 61 bd a4 a5 4a b9
       0.085842416 0.055740133 -0.05513102 -0.00019325927
0000d0 75 a9 ff bb dc af 70 bd 7c d7 96 bd 2b 2e 92 3d
       -0.0078021833 -0.058761463 -0.07365319 0.07137712
0000e0 76 ba 2f 3d e5 10 80 bd e4 bf 66 3c e0 e3 74 bd
       0.042902432 -0.062532224 0.014083836 -0.05978763
0000f0 b1 14 13 bc c7 63 22 3d 8f 8b b1 bc b7 db 5d bd
       -0.008977101 0.039645936 -0.021672992 -0.054164615
000100 fb a8 45 3d 47 fd 5f bd 5e 67 d1 bd 6e c5 fe bc
       0.048256855 -0.054684903 -0.10224794 -0.031100001
000110 46 00 07 bd 69 14 9c bd 2f ed c7 3b 99 79 97 3d
       -0.032959245 -0.076210804 0.0061012725 0.0739624
000120 ac 63 65 3d e2 97 56 b9 e7 d0 f8 3c 08 66 26 bd
       0.056003258 -0.00020465211 0.03037305 -0.04062465
000130 21 6e f0 bc 11 d9 a9 3d e5 e5 88 3d 84 73 d7 bc
       -0.029349389 0.08293355 0.06684474 -0.0263002
000140 fa 18 be bb ea 5a 76 bd 4a d2 3d 3d fa 25 97 bd
       -0.0058013173 -0.060145296 0.046343125 -0.0738029
000150 7e e7 4b bd 4b 70 2c 3d a6 62 f3 bc 20 10 a7 bd
       -0.049781315 0.04209928 -0.029710125 -0.081573725
000160 e6 cf 63 bd 54 97 12 bd 79 06 db 3b 19 b8 18 3d
       -0.05561819 -0.03578885 0.006684121 0.037284944
000170 d5 60 b0 bb 2d d0 a4 3c 38 f8 80 bc 49 1d 49 bd
       -0.005382637 0.020118797 -0.01574336 -0.049100194
000180 4a 1b 8e bd d9 69 ae bc 57 fb 51 3d 39 cb 68 bc
       -0.06938799 -0.021290706 0.051265087 -0.014208608
000190 90 1b cf bd ee 43 a0 3d de 3c 99 bd 46 f9 96 bd
       -0.10112679 0.078254566 -0.074823126 -0.07371764
0001a0 fb f3 98 3c 9d b6 6c 3d 9a 98 93 bb 5a 34 30 bd
       0.018671026 0.05779134 -0.0045042755 -0.043018676
0001b0 09 67 8e bd cb 83 03 bd a4 c1 87 3d bd cb f0 bc
       -0.06953246 -0.03210811 0.06628731 -0.029394025
0001c0 8b dc 22 bd 53 50 93 bd 51 8f 64 bb 73 bc 8b bd
       -0.039761107 -0.07193055 -0.0034875462 -0.06823053
0001d0 94 c6 ed ba 54 13 89 3d b6 c0 0c bd 91 b3 c9 bc
       -0.0018140846 0.0669314 -0.03436347 -0.024621757
0001e0 33 50 aa bc 78 11 25 bd e9 65 18 3c 59 16 42 3d
       -0.020790195 -0.040299863 0.009301641 0.047384594
0001f0 17 24 b5 bc 43 96 04 bc 22 72 ec bc 73 53 3f 3d
       -0.022111936 -0.008092466 -0.028863017 0.046710443
000200 f4 80 15 3d 61 3c a6 3d 07 c4 87 bd 2b 8a bd 3c
       0.036499932 0.08116985 -0.06629186 0.023137173
000210 02 8e 0e bd d7 81 a1 3d c3 28 97 3d fc de 98 3d
       -0.034803398 0.07886093 0.073808216 0.07464406
000220 20 cb 11 3e c8 16 01 3d da 76 97 bd 4d 75 79 bd
       0.14237642 0.031515867 -0.07395716 -0.060902882
000230 63 62 90 3d 69 f3 8b bb e0 cd 48 3d e1 a6 2d 3d
       0.07050016 -0.00427096 0.049024463 0.042395476
000240 d3 60 80 bd 12 be 8a 3d cf 4c 92 bc 82 82 96 3c
       -0.06268468 0.06774534 -0.01785889 0.018372778
000250 95 c0 10 3d 11 2d e3 bc 98 6f 06 bd 1d 56 41 3d
       0.03533991 -0.02773145 -0.032821268 0.047201265
000260 ab 85 e9 3c 15 ab ca bc cf 36 50 bd 39 6e 98 bd
       0.02850612 -0.024739781 -0.05083352 -0.07442898
000270 fa 5f 51 3c be b2 87 3c 42 d5 a2 3d 6c 30 ab bd
       0.01277923 0.016564723 0.07950832 -0.08358845
000280 12 db 4e 3d 84 6c f2 3a 00 d8 83 3c 26 23 66 3d
       0.05050189 0.0018495475 0.016094208 0.056185864
000290 de 49 40 3d a9 64 08 3b af a8 ad bd fc 98 2c bb
       0.046945445 0.0020811951 -0.084794395 -0.0026336303
0002a0 ad ba 88 3d e7 31 11 bd 99 71 18 3d 0f 3a 4c bd
       0.066762306 -0.03544798 0.03721771 -0.049860056
0002b0 0e 4f a3 bc a7 09 6a bd f8 41 ae 3d 10 a8 b9 bc
       -0.019935157 -0.05713811 0.08508676 -0.022663146
0002c0 ae a2 24 bd 27 b4 98 bc 5b cb a7 3c a6 d7 0d bd
       -0.040194206 -0.01864059 0.02048271 -0.034629487
0002d0 94 db 85 bc a0 18 40 bb 2f 3f c3 39 66 fc be bb
       -0.016340055 -0.0029311553 0.00037240374 -0.005828428
0002e0 24 63 f0 bb 84 80 9b 3d a0 9d 8b bc fe ef 9e bd
       -0.0073360372 0.07592872 -0.017042935 -0.077606186
0002f0 a4 49 14 3d ee 2e 25 3c 06 08 e8 3c 8d b8 1c 3b
       0.03620304 0.01008199 0.028324138 0.0023913712
000300 ba db 9c 3d 30 70 0f 3d ae 1b 24 bd a9 3a 8e 3d
       0.07659097 0.0350191 -0.04006546 0.06944782
000310 68 de 6d bd 3e cc 5d 3d 57 67 d4 3c 58 21 8b bd
       -0.05807343 0.05414986 0.025928183 -0.06793469
000320 fe b0 89 3d 88 cf 88 bd d2 64 b9 3c af d7 bb bd
       0.06723212 -0.066802084 0.022631083 -0.09171998
000330 3e b2 8b 3d b2 ca 8f bd 63 6c ff 3c 9e f0 ef bc
       0.068211064 -0.07021083 0.031179613 -0.02928954
000340 30 d5 9f bd 4e 23 d8 bd 34 b1 64 bd df 19 b4 bc
       -0.07804334 -0.10553609 -0.055833057 -0.021984993
000350 02 bb 36 3b c0 d8 8a 3d 2e 27 63 bd a8 5c 97 3d
       0.0027882461 0.06779623 -0.055457287 0.0739072
000360 a4 14 98 bc cf a1 54 3d 0e 82 43 bd 35 de 2b bd
       -0.01856453 0.051912125 -0.04773145 -0.04195996
000370 57 2e bb bc 3c f7 65 3c e7 05 59 3d 7a 1c 8d bd
       -0.022849245 0.014035996 0.052984145 -0.06890197
000380 99 00 63 bd bc fb 8f bc dc 3e 58 bd 32 58 73 3d
       -0.05542049 -0.017576091 -0.052794322 0.05941028
000390 42 b7 83 3c e9 35 51 3d e3 39 3e 3d 5b 14 17 3d
       0.016078595 0.051076803 0.046441924 0.036884647
0003a0 98 e7 ae 3d 08 ad 40 bc 14 ad 54 bd 45 83 b1 bc
       0.08540267 -0.011760004 -0.051922873 -0.02166904
0003b0 af d5 4c 3d d9 75 7f bc da bd 41 3d 99 56 13 bd
       0.050008472 -0.015592062 0.047300197 -0.035971258
0003c0 b4 2f 8c bd cb 08 f0 3c c4 e4 9b 3d 70 ab 8f bd
       -0.06845036 0.029301068 0.07611993 -0.07015121
0003d0 29 8c 38 bd 05 8e a8 bd 6d 00 87 bc d2 73 6e 3b
       -0.045055542 -0.08230213 -0.016479695 0.0036384952
0003e0 65 94 a3 bb 85 7b c2 bc e1 d8 31 bd 37 e6 6f 3d
       -0.0049920552 -0.02374054 -0.043419722 0.05856916
0003f0 9d 3c e2 bb a1 e4 31 bd 1a 1e b4 3d e9 62 05 bd
       -0.0069041983 -0.04343093 0.08794804 -0.03256503

bias f4 [128]
000000 24 8b f3 bc 5b f0 2e 3d 3a 58 85 3e 61 64 92 3c
       -0.029729433 0.04270969 0.26043874 0.01787013
000010 86 53 c4 bd 9b 3c 87 3b 19 d2 b5 3c 11 a9 22 3d
       -0.09586243 0.004127098 0.022194909 0.039712016
000020 1f ed 8b 3d 50 4b 3c bd 9d 28 9e bd 10 93 4c bd
       0.06832337 -0.04597026 -0.0772259 -0.049944937
000030 c8 e1 51 3d 9b 3f b1 3d 82 ac 01 be 77 aa 87 3d
       0.051240712 0.0865471 -0.12663463 0.066243105
000040 ea 70 81 3e e1 1c 82 3e 39 fd df 3d 2a bb d4 3d
       0.2528146 0.25412658 0.1093697 0.10387261
000050 0b c2 23 3e 42 c8 82 3e fd f1 07 be 79 a2 91 bc
       0.1599199 0.2554341 -0.13275905 -0.017777668
000060 de 7f 6e 3d f3 fb 74 bd 92 56 f5 3d 13 4c 3e 3e
       0.058227412 -0.05981059 0.119794026 0.18583708
000070 05 67 4e 3e ed 96 ea bd 8a 66 2d bd 17 b4 c1 3d
       0.20156486 -0.11454568 -0.042334117 0.094581775
000080 bc 8c 1d 3e 3e 63 05 3d 51 75 92 3e 45 c6 78 3d
       0.15385717 0.032565348 0.2860513 0.06073596
000090 32 0c 90 bc 25 6b a5 bd e2 85 81 bd 89 33 1f 3d
       -0.01758394 -0.08077077 -0.06324364 0.038867507
0000a0 dc 3a 4c 3e f2 c4 06 be 87 99 41 bd ce ca 82 bd
       0.19944328 -0.13161066 -0.047265556 -0.06386338
0000b0 60 b8 16 3d d1 e9 82 3d 05 a8 b0 bd d3 6f 85 3e
       0.036796927 0.06392253 -0.08625797 0.26061878
0000c0 60 5a 4d 3b 32 d5 8b 3d b5 12 96 bd 1d b1 ce 3c
       0.0031334385 0.06827773 -0.07327787 0.025230939
0000d0 3e 0b 33 3b 10 d3 56 3e 37 e1 0a be 48 2b 89 bd
       0.0027319933 0.20978951 -0.13562475 -0.06697708
0000e0 e0 0b 08 bb 62 9b 14 3b 69 c4 2f 3e d1 7b f2 3d
       -0.0020759031 0.0022675623 0.17164768 0.11840022
0000f0 44 5c c6 bc 3c 0c 61 3e 9e c8 6f bd ec 74 49 3d
       -0.024213918 0.21977323 -0.058540933 0.04918377
000100 89 ed 7e bd ef 90 a5 3d d3 da 08 bd 73 5c 58 bd
       -0.06223825 0.080842845 -0.033411812 -0.05282254
000110 83 aa c9 bc 89 f1 a2 3c e4 1b 22 3e 04 43 3f 3d
       -0.02461744 0.019890564 0.15830952 0.04669477
000120 61 6e 88 bc 9f aa 87 3d 8f c3 06 3e 1f da 47 3e
       -0.016654195 0.0662434 0.13160537 0.195168
000130 61 bf ae bd d1 b4 70 bd 49 9c 95 3c 26 49 7f bd
       -0.085325964 -0.05876619 0.018263 -0.06232562
000140 a3 c9 f0 3d ce 27 cb 3d 92 f3 de 3c c3 f6 73 3c
       0.11757209 0.099197015 0.027215753 0.014890376
000150 4f 9f 89 3d 75 92 00 3d c5 f1 9d 3c d0 4a 82 3d
       0.06719839 0.031389672 0.019280324 0.063619256
000160 24 74 91 3c 71 1f 94 3c 89 bd e8 bc e7 ff cd bc
       0.017755575 0.018081399 -0.02841069 -0.025146438
000170 13 2f 34 3d fb 0e ae bc b9 dd 6d 3e f8 4e cd bc
       0.043990206 -0.021247378 0.23229112 -0.02506207
000180 91 3a 6b 3e 92 a8 9a 3d 59 57 8b 3d c4 3f 8a 3c
       0.2297156 0.075516835 0.068037696 0.016876109
000190 6e d4 72 3e 4c 78 b6 3c b1 17 44 3d 75 39 20 be
       0.23713848 0.022274159 0.047874156 -0.15646918
0001a0 f4 88 f2 bd 90 f4 88 bd 62 97 60 3e 9d d4 42 3d
       -0.11842528 -0.066872716 0.21932748 0.047566045
0001b0 49 df 26 3c 00 89 ee 3d 93 e0 e2 bc 23 dd 66 bd
       0.010185071 0.116472244 -0.027694976 -0.056363236
0001c0 d8 41 b9 bd a6 60 77 3d 5e e6 1c 3d 47 5d f6 bd
       -0.09045762 0.060394906 0.038305633 -0.1202951
0001d0 a7 d4 87 3c 5e 99 64 3d e2 95 86 3c 55 46 3b 3e
       0.016580893 0.055810325 0.016428892 0.18288548
0001e0 ea 67 9a 3c a1 d0 d7 3b c2 af 2e 3e e5 92 b1 bc
       0.018848378 0.00658615 0.17059234 -0.02167649
0001f0 a7 36 94 bd b8 53 36 3e b8 6e db bd 50 af 8e 3e
       -0.072369866 0.17805374 -0.10714477 0.27868128
