IO_DynaPlex/DeepControlledLearning/PolicyWeights/perishable_systems_m4_l1_cvr2.000000_f0.500000/l_gen.pth (torch, 291873 bytes, 10 tensors)

weight f4 [256, 4]
0	0x3ec56e5e	0.38560766
1	0x3e8c7570	0.27433348
2	0x3ea8f8e2	0.33002383
3	0xbef5f253	-0.4803644
4	0xbd8ad258	-0.06778401
5	0xbe9daa55	-0.30794016
6	0x3cad84fe	0.02118158
7	0x3d63fe5f	0.05566251
8	0x3ea63c79	0.32468012
9	0x3d4e13cb	0.050311845
10	0xbd52d519	-0.051472757
11	0xbeab4917	-0.334542
12	0xbc86d75c	-0.016460113
13	0x3e1fb7f7	0.15597521
14	0x3e6984b7	0.22804533
15	0xbd663618	-0.05620393
16	0x3e126f7e	0.14300343
17	0x3d0d68c0	0.034523726
18	0xbe588a91	-0.21146609
19	0x3e7bed73	0.24602298
20	0xbe258b5e	-0.16166446
21	0xbe25f608	-0.16207135
22	0x3ec8a274	0.39186442
23	0x3d7d8747	0.06189659
24	0x3ed97a1d	0.42475978
25	0x3d952395	0.07282177
26	0x3eb9e17f	0.36304852
27	0x3e40ff30	0.18847346
28	0x3cc59c6a	0.024122436
29	0xbeca13a7	-0.3946812
30	0x3f0c08a9	0.54700714
31	0xbe982aac	-0.29720056
32	0x3d937b28	0.072012246
33	0x3dc5074c	0.096205324
34	0x3e9fad78	0.31187034
35	0x3dd594e6	0.10428791
36	0x3e4efbe1	0.20213272
37	0x3ecba36a	0.39773113
38	0x3c53d7e3	0.012929889
39	0x3e895781	0.26824573
40	0xbe8e60ec	-0.2780832
41	0xbed93f34	-0.42431033
42	0x3ef986c7	0.4873564
43	0xbe41fb88	-0.18943608
44	0x3e92cd9c	0.28672493
45	0x3db95676	0.09049694
46	0xbe310897	-0.17288433
47	0x3dd7216f	0.10504424
48	0xbe2859c7	-0.16440497
49	0x3d963e64	0.07336119
50	0xbd3eb008	-0.046554595
51	0x3cb5764d	0.022151137
52	0x3ee1fa94	0.44136488
53	0x3ed68a3e	0.41902345
54	0xbef578b2	-0.47943646
55	0xbed05e54	-0.40696967
56	0x3eefee38	0.46861434
57	0xbedcc8a3	-0.43121824
58	0x3edc09c0	0.4297619
59	0x3ecff891	0.4061933
60	0xbd6792a3	-0.056536328
61	0xbe865abf	-0.2624111
62	0x3e031f34	0.12804872
63	0x3df4de77	0.11956494
64	0xbead8a09	-0.33894375
65	0x3ee568cf	0.44806525
66	0x3dc0d30a	0.094152525
67	0x3e75e382	0.24012569
68	0x3d80d5de	0.06290792
69	0x3e123bab	0.14280574
70	0x3dd0acbc	0.101891965
71	0xbee88b9f	-0.45419022
72	0xbe38643c	-0.18006986
73	0x3ce4ff8d	0.027953887
74	0x3e957197	0.29188225
75	0x3df5af8a	0.11996372
76	0x3e85d545	0.26139274
77	0xbe912f8e	-0.28356594
78	0xbeda5271	-0.42641023
79	0x3ea6376c	0.3246416
80	0xbe30afa2	-0.17254499
81	0x3dcce182	0.1000395
82	0xbe4e00a7	-0.20117436
83	0xbeafc302	-0.34328467
84	0xbd05f7bc	-0.03270696
85	0x3ef84c30	0.48495626
86	0x3e0cf9e6	0.13767204
87	0x3e5febd8	0.21867311
88	0x3e9012c0	0.28139305
89	0x3c8d7b6a	0.017270762
90	0x3dc603a4	0.09668663
91	0xbe9ca6c9	-0.30595997
92	0x3e5828f6	0.21109375
93	0xbe362412	-0.17787197
94	0x3eabcec3	0.33556184
95	0x3d75ac90	0.05997902
96	0xbec1e663	-0.37871084
97	0x3dc12f49	0.09432847
98	0x3cca9d20	0.024733126
99	0x3ecb2d17	0.39682838
100	0xbcf89dd1	-0.03034869
101	0xbc513fc4	-0.012771551
102	0xbd749a89	-0.05971769
103	0xbed48a7b	-0.41511902
104	0xbee8aacb	-0.45442805
105	0xbea655f3	-0.3248745
106	0x3eb60ee2	0.3555823
107	0xbe325aa5	-0.1741739
108	0xbea5032a	-0.32228976
109	0xbe2249ed	-0.15848513
110	0xbe0ca015	-0.13732941
111	0x3eceacd3	0.4036623
112	0x3e1483b1	0.14503361
113	0x3ecfe2a2	0.40602595
114	0xbf06b26e	-0.5261601
115	0x3ec23c8a	0.37936813
116	0x3d09b273	0.033617448
117	0x3eb8b035	0.36071935
118	0xbda5c2e2	-0.080938116
119	0x3ecb2704	0.39678204
120	0xbea6f6ac	-0.3261007
121	0xbe88d694	-0.2672621
122	0x3ec9ed8d	0.3943905
123	0xb8ed6e12	-0.00011321543
124	0x3ea4f63a	0.32219106
125	0xbea7e24f	-0.32789847
126	0x3eb34ace	0.3501801
127	0xbe2b217d	-0.16711994
128	0xbe9459d0	-0.28974771
129	0xbe40a3ac	-0.18812436
130	0x3e8d6cf0	0.27622175
131	0x3c398556	0.011323294
132	0xbe083434	-0.13301164
133	0x3c3b27b2	0.011423038
134	0x3d3a0ed2	0.04542429
135	0xbe9a2854	-0.30108893
136	0xbe211503	-0.15730672
137	0x3e206bb1	0.15666081
138	0xbdf7c273	-0.12097635
139	0x3e00a281	0.1256199
140	0x3ea17dfc	0.3154143
141	0x3eb99dc4	0.36253178
142	0x3e0a0c07	0.1348115
143	0xbe332b04	-0.17496878
144	0xbe825194	-0.25452864
145	0x3e5385fd	0.20656581
146	0x3eaad150	0.33362818
147	0xbe9480fd	-0.2900466
148	0x3e81e453	0.2536951
149	0xbed08921	-0.4072962
150	0xbe87e5ea	-0.26542598
151	0xbd8c09aa	-0.06837781
152	0xbee48431	-0.44632104
153	0x3e0d3654	0.13790256
154	0x3ebc1860	0.36737347
155	0xbe96af3e	-0.29430574
156	0x3e2aee55	0.16692479
157	0x3daf0656	0.0854613
158	0xbe503fdc	-0.2033686
159	0xbe28e860	-0.16494894
160	0xbcb87600	-0.022517204
161	0x3ed1e81a	0.40997392
162	0xbe5c5cc9	-0.2151977
163	0xbd271089	-0.040787254
164	0x3eae5e1f	0.34056184
165	0xbdb3ebec	-0.08785233
166	0x3e3b0828	0.1826483
167	0xbe2241da	-0.15845433
168	0x3ed3376c	0.4125322
169	0xbdec0979	-0.11525244
170	0xbe9f2565	-0.31083217
171	0xbed0d173	-0.40784797
172	0xbd4d3ca2	-0.050106652
173	0xbeb8d203	-0.36097726
174	0xbe450550	-0.19240308
175	0x3ee99a34	0.4562546
176	0xbd7405a9	-0.05957571
177	0x3dd19764	0.102339536
178	0xbe35360e	-0.17696401
179	0xbefd6e20	-0.4949808
180	0xbedf96a8	-0.4366963
181	0xbdd56878	-0.104203165
182	0xbdd586a8	-0.10426074
183	0xbe459d3c	-0.19298261
184	0x3d72e4ef	0.05930036
185	0x3ebd98d4	0.3703066
186	0x3eb7e6d6	0.359183
187	0xbd04f3ea	-0.032459177
188	0xbe84b751	-0.2592111
189	0x3f02d4e5	0.511061
190	0x3eee0827	0.46490595
191	0x3f04d52d	0.5188778
192	0x3ee1fe37	0.44139263
193	0x3eab54db	0.33463177
194	0x3e7c72e3	0.24653201
195	0xbe72fc65	-0.23729093
196	0xbdce04cf	-0.10059511
197	0xbde8c8f0	-0.11366451
198	0xbe449652	-0.19197968
199	0x3edaead3	0.42757282
200	0xbe44133c	-0.19147962
201	0xbe39736a	-0.18110433
202	0x3ecb3bcd	0.39694062
203	0x3e50a2b5	0.20374568
204	0xbdcd06fb	-0.10011097
205	0xbe4c6734	-0.19961244
206	0x3ed212f8	0.41030097
207	0xbec33caf	-0.38132235
208	0x3e3a6d41	0.1820574
209	0xbe7b5813	-0.24545316
210	0xbe454a0a	-0.19266525
211	0xbd004d9d	-0.031324018
212	0x3c83d3e6	0.016092252
213	0x3e53b202	0.20673373
214	0xbe1f6819	-0.15567054
215	0xbe1bf8cf	-0.15231632
216	0xbe2506a4	-0.16115814
217	0xbf19b814	-0.60046506
218	0xbea419a6	-0.32050818
219	0x3ec24975	0.37946668
220	0xbe7f63ad	-0.24940367
221	0xbea69c15	-0.32540956
222	0xbd7f2b92	-0.06229741
223	0xbce316d7	-0.027720852
224	0xbdc2bed8	-0.09509057
225	0x3e522db9	0.20525254
226	0x3c20fd21	0.009825976
227	0x3ea7cadd	0.3277196
228	0x3ec6911a	0.3878258
229	0x3dc04231	0.09387625
230	0x3ee75b06	0.45186633
231	0x3e8efaf2	0.2792583
232	0x3e8fe17b	0.28101715
233	0x3f006b43	0.5016367
234	0x3eae02cb	0.33986506
235	0x3dfb470e	0.12269412
236	0x3ed9a28c	0.42506826
237	0x3ef69e01	0.48167422
238	0x3dca059e	0.09864353
239	0x3eed33a9	0.46328476
240	0x3dab9d51	0.08379615
241	0xbeaf7dd7	-0.34275696
242	0x3e98e8fa	0.29865247
243	0x3ed44697	0.41460106
244	0xbeb4e566	-0.35331267
245	0xbe452050	-0.19250607
246	0xbef3f4f9	-0.47647837
247	0x3dfdb3d9	0.12387819
248	0x3d5ccab8	0.053904265
249	0xbe5b754d	-0.21431465
250	0xbe26648b	-0.16249292
251	0xbd44feab	-0.048094433
252	0x3d8a1424	0.06742123
253	0x3ee3f7e7	0.44525072
254	0xbe874716	-0.26421422
255	0x3e79f9ee	0.24411747

bias f4 [256]
0	0x3ec67f8e	0.38769192
1	0x3f04dba9	0.51897675
2	0xbef80c6b	-0.48446974
3	0xbc779308	-0.015110739
4	0xbe40d981	-0.18832971
5	0x3f0dc0a7	0.5537209
6	0xbf17acef	-0.5924825
7	0xbec64410	-0.38723803
8	0xbf026b38	-0.5094485
9	0xbf0cccd3	-0.55000037
10	0x3ef77d37	0.4833772
11	0x3e81f464	0.25381768
12	0x3ee9e6d3	0.45683917
13	0x3e973ca9	0.29538468
14	0xbf084213	-0.5322582
15	0x3db1a54f	0.08674108
16	0x3ed5aed4	0.41734946
17	0xbdbf471f	-0.09339737
18	0x3ea36fee	0.31921333
19	0xbe7c176f	-0.24618314
20	0x3f174389	0.59087425
21	0x3d1390ab	0.036026638
22	0xbe85d2c8	-0.26137376
23	0xbea6bc44	-0.3256551
24	0xbeee90da	-0.46594888
25	0x3eddf483	0.4335061
26	0x3ec249ff	0.3794708
27	0x3ee7e74f	0.45293662
28	0x3eb709bd	0.35749617
29	0xbe0d0d5b	-0.13774626
30	0x3e82cdea	0.25547725
31	0xbf04de24	-0.5190146
32	0x3e980669	0.2969239
33	0xbecf1331	-0.4044433
34	0x3e91d9dc	0.28486526
35	0x3f1c2bbe	0.61004245
36	0xbeb1e2c6	-0.34743327
37	0xbecf40bd	-0.4047908
38	0x3f083bc2	0.53216183
39	0x3f27295c	0.65297484
40	0xbe767c2b	-0.24070804
41	0x3eaded03	0.33969888
42	0x3f1faf80	0.62377167
43	0xbef0071f	-0.46880433
44	0xbea9a725	-0.33135334
45	0xbe3557c0	-0.17709255
46	0x3e87e66e	0.2654299
47	0xbf18b6a7	-0.59653705
48	0x3e63b350	0.22236371
49	0x3eaea9f5	0.34114042
50	0xbe868338	-0.26271987
51	0x3e65117f	0.22369955
52	0xbe4a812d	-0.19775839
53	0xbec9e72a	-0.39434177
54	0xbecae58a	-0.3962825
55	0x3f1be6a9	0.60898834
56	0x3ea80518	0.32816386
57	0xbef64de2	-0.48106295
58	0xbecf072c	-0.4043516
59	0xbf1bd455	-0.6087087
60	0xbeef1437	-0.4669511
61	0x3dd77d45	0.1052194
62	0x3f07dc4c	0.5307052
63	0xbb32a829	-0.0027260876
64	0xbe372672	-0.1788576
65	0x3f1683cb	0.5879485
66	0xbd8e97d9	-0.069625564
67	0xbed6368e	-0.41838497
68	0xbe76e330	-0.24110103
69	0x3eced9a5	0.40400425
70	0x3eb210ec	0.34778535
71	0xbecbb864	-0.39789116
72	0x3c2e0030	0.010620162
73	0x3d32bf9e	0.04363977
74	0xbeae363a	-0.34025747
75	0x3e937192	0.28797585
76	0xbea1c531	-0.31595758
77	0xbef8ecd3	-0.48618183
78	0x3ed85aa7	0.42256662
79	0xbe538ecf	-0.20659946
80	0x3f210784	0.6290209
81	0xbd19e38e	-0.03757053
82	0xbe377300	-0.17914963
83	0xbed67614	-0.4188696
84	0x3f03d49d	0.514963
85	0x3ea660d0	0.32495737
86	0xbf1ab6de	-0.60435283
87	0x3eec1cd0	0.46115732
88	0x3de43a3c	0.1114392
89	0x3debc668	0.11512452
90	0xbe2819f8	-0.16416156
91	0x3d601e8a	0.054716624
92	0xbeeacdd0	-0.45860147
93	0xbd8c0493	-0.0683681
94	0x3f1f4c49	0.62225777
95	0x3eb89f9e	0.36059278
96	0x3f29d32b	0.6633784
97	0xbeb3e754	-0.35137427
98	0x3f02d941	0.51112753
99	0xbe199576	-0.14998421
100	0x3eb2317f	0.34803388
101	0x3f11a2a1	0.56888777
102	0x3f08f37f	0.53496546
103	0xbeaf0539	-0.34183672
104	0xbee8a5b9	-0.45438936
105	0xbba07137	-0.0048963088
106	0x3eced21e	0.40394682
107	0xbdd32b1a	-0.10310955
108	0x3e821855	0.2540919
109	0xbf136611	-0.57577616
110	0xbeb9f1aa	-0.36317188
111	0xbe29e772	-0.16592196
112	0x3e6cfffd	0.23144527
113	0xbd8b8a41	-0.06813479
114	0xbde9a86d	-0.11409078
115	0xbdfc6427	-0.1232379
116	0xbd94f2ec	-0.07272896
117	0x3e5e3ebc	0.21703619
118	0x3df221a9	0.118228264
119	0xbf0e157d	-0.5550154
120	0x3ec67333	0.38759765
121	0x3f13178f	0.5745782
122	0xbf1b347e	-0.6062697
123	0x3e49c6c4	0.1970473
124	0x3f1f1e4e	0.62155616
125	0xbeb02cdb	-0.34409222
126	0x3d99a6ec	0.07502541
127	0x3e39d7e9	0.1814877
128	0xbebc05be	-0.3672313
129	0x3e7ea9f0	0.24869514
130	0xbeae8d0c	-0.34091985
131	0x3e83292b	0.25617346
132	0xbef0e4e6	-0.47049636
133	0x3eddd205	0.43324295
134	0x3f1a80a9	0.6035257
135	0x3f0699e8	0.5257859
136	0x3f03856a	0.5137545
137	0xbd8a47bd	-0.06751964
138	0x3eb76dc2	0.35825926
139	0xbdb89e75	-0.09014598
140	0xbe964116	-0.29346532
141	0xbea48a02	-0.32136542
142	0x3eec9d67	0.46213838
143	0xbc7e60e3	-0.015526029
144	0x3eacc912	0.33747154
145	0xbeb1255b	-0.34598812
146	0x3e2b29b9	0.16715135
147	0x3d3bf805	0.045890827
148	0x3d7c23d0	0.06155759
149	0x3f120b3a	0.5704838
150	0x3e213497	0.15742718
151	0xbe9be891	-0.30450872
152	0x3f225446	0.6340984
153	0x3ebdc08e	0.3706097
154	0xbb431294	-0.0029765712
155	0xbf1699ca	-0.58828413
156	0xbee8bec0	-0.4545803
157	0xbe326920	-0.17422915
158	0xbef18d72	-0.47178227
159	0x3eb2ef9e	0.34948438
160	0xbcc1f618	-0.023676917
161	0xbeac38fc	-0.33637226
162	0x3f2d564d	0.6770981
163	0xbeaa4dd6	-0.3326251
164	0xbee34cda	-0.4439457
165	0xbdddb8ab	-0.10826238
166	0xbee87942	-0.45405012
167	0xbe43f990	-0.1913817
168	0xbeaa7799	-0.3329437
169	0x3e295e2b	0.16539828
170	0x3ec18e37	0.37803814
171	0x3eb9b817	0.36273262
172	0x3ed27bab	0.41109976
173	0xbdd450ae	-0.10366951
174	0xbe613b0e	-0.21995184
175	0x3f0ce6cc	0.5503967
176	0xbe9e7214	-0.3094641
177	0xbecdbefe	-0.40184778
178	0xbeabff87	-0.3359339
179	0x3ebda8d5	0.3704287
180	0x3ce1275a	0.027484585
181	0x3f2b21ab	0.6684825
182	0xbf1732e0	-0.59062004
183	0x3ed2cbfa	0.41171247
184	0xbe48e4a2	-0.19618466
185	0x3ec865e1	0.39140227
186	0x3ed3ed32	0.41391903
187	0xbc0ddb05	-0.008658175
188	0x3dc1e00d	0.094665624
189	0xbeca46c8	-0.39507127
190	0xbe079d6a	-0.13243642
191	0xbeafb181	-0.34315112
192	0xbf00bf1e	-0.5029162
193	0x3e913f31	0.28368524
194	0x3f0d7b5f	0.55266374
195	0x3e9b5673	0.30339393
196	0xbe8d5eec	-0.27611482
197	0x3e264322	0.16236547
198	0xbe0910e8	-0.13385355
199	0xbe526b2f	-0.205487
200	0x3eb933be	0.3617229
201	0x3e9bffd7	0.30468628
202	0x3d96d606	0.073650405
203	0xbda4bf3b	-0.08044287
204	0x3ed23850	0.41058588
205	0x3f2298bb	0.635143
206	0x3e3e2d4d	0.18571968
207	0x3f048df2	0.5177909
208	0x3eaa6939	0.33283404
209	0xbe1a2aa2	-0.15055326
210	0x3edfc556	0.43705243
211	0x3e671a76	0.22568688
212	0x3dcac2fe	0.09900473
213	0x3e0d3d03	0.13792805
214	0x3eade9da	0.33967477
215	0xbd581dc1	-0.05276275
216	0xbe182ac7	-0.14860068
217	0xbd77ec14	-0.060527876
218	0xbf09bc08	-0.5380254
219	0xbf09fe25	-0.5390342
220	0xbe2174ee	-0.15767261
221	0xbdf7c930	-0.1209892
222	0xbdf5b938	-0.11998218
223	0x3efeaa19	0.4973915
224	0x3e8b4d76	0.27207536
225	0xbdf7789b	-0.120835505
226	0x3e03e2a4	0.12879425
227	0x3e40d2d8	0.1883043
228	0x3ea1a1e2	0.3156882
229	0xbe764361	-0.2404914
230	0xbefff813	-0.49993953
231	0x3f0a06cd	0.5391663
232	0x3f177e4c	0.5917709
233	0xbf0f31f5	-0.55935603
234	0x3e7b4874	0.24539357
235	0x3e3b7aca	0.18308559
236	0xbe028a29	-0.12748016
237	0x3ee21102	0.441536
238	0x3e3a4697	0.1819099
239	0xbe180f60	-0.14849615
240	0xbf077fab	-0.5292918
241	0x3f032751	0.5123187
242	0xbe6d7d87	-0.23192416
243	0x3efa1201	0.4884186
244	0xbef2ace8	-0.47397542
245	0xbefd9866	-0.49530333
246	0xbdee3f9d	-0.11633227
247	0xbf0223ca	-0.5083586
248	0x3e3d2969	0.18472828
249	0xbedead68	-0.43491673
250	0x3e152fad	0.14568968
251	0x3e9d6250	0.3073907
252	0x3e237407	0.1596223
253	0x3e02b551	0.12764479
254	0x3ecbb201	0.39784244
255	0xbebcdabd	-0.36885634

weight f4 [128, 256]
0	0x3d894799	0.06703109
1	0x3d66b808	0.05632785
2	0x3d33fa03	0.0439396
3	0xbcdfc5cc	-0.027315997
4	0x3aa9f262	0.0012965912
5	0x3c988456	0.01861779
6	0xbdb8bdaa	-0.090205505
7	0xbc016144	-0.007896725
8	0xbd8ee463	-0.06977155
9	0xbd020113	-0.031739306
10	0x3d3bdbb9	0.04586384
11	0x3c53b1b0	0.012920782
12	0x3e432d3e	0.19060227
13	0x3d1981fc	0.03747748
14	0xbda0130f	-0.07816135
15	0xbc5045fe	-0.012712
16	0x3db76f47	0.08956771
17	0x3dee35fb	0.1163139
18	0x3d12451b	0.035710435
19	0x3c71f293	0.014767307
20	0x3ddc8a74	0.10768595
21	0x3d423c25	0.04742064
22	0x3c6a5041	0.014301361
23	0xbdb27c6a	-0.08715136
24	0xbd9d25ec	-0.07673249
25	0x3e7f828f	0.24952148
26	0x3d92f66a	0.07175906
27	0x3c5d33bd	0.013501105
28	0xbccc8838	-0.024967298
29	0xbc4a9bdb	-0.01236626
30	0xbd59d0d4	-0.05317767
31	0xbd8cd2ba	-0.068761304
32	0x3da444a0	0.08020902
33	0x3d750306	0.059817336
34	0x3dcc28a4	0.09968689
35	0x3dd49b4c	0.10381183
36	0xbd04a752	-0.03238613
37	0xbde00a29	-0.10939438
38	0x3ddd3954	0.1080195
39	0x3dd29bce	0.10283624
40	0xbc72d82b	-0.014822046
41	0x3dbf4a31	0.09340323
42	0x3de50bf0	0.111839175
43	0x3c3111ba	0.010807449
44	0xbd335faf	-0.043792423
45	0x3c34d4d8	0.011037074
46	0xbb8792af	-0.004137359
47	0x3d0c4b6d	0.03425162
48	0x3d72aab0	0.05924481
49	0xbd14f7b9	-0.03636906
50	0x3d28be1f	0.04119694
51	0x3cf42e58	0.029807255
52	0x3cebce36	0.028784852
53	0xbd505c44	-0.05086924
54	0xbcee3437	-0.029077632
55	0x3e790ba7	0.24320851
56	0xbc80f741	-0.0157429
57	0x3ce65169	0.028114991
58	0xbd0ed067	-0.034866717
59	0xbcbbe263	-0.022935098
60	0xbd585c38	-0.05282232
61	0x3d0119c2	0.031518705
62	0x3e1d825e	0.15381762
63	0xbd468763	-0.04846896
64	0xbc52bd50	-0.012862518
65	0x3de9a8c9	0.11409146
66	0xbcabfaab	-0.020993551
67	0x3bfe8706	0.007767561
68	0xbc5d6d85	-0.013514881
69	0x3d9a5cc7	0.07537227
70	0x3db84170	0.08996856
71	0xbdb17abd	-0.086659886
72	0xbc92dc12	-0.017927203
73	0x3beebe52	0.0072858715
74	0xbd38e3cd	-0.045139123
75	0x3d7f7c0b	0.062374156
76	0xbdb31034	-0.08743325
77	0x3cb47491	0.02202824
78	0x3d42b8a0	0.047539353
79	0xbce04546	-0.027376782
80	0x3e2b5c38	0.16734397
81	0xbcb28f93	-0.021796977
82	0x3caab455	0.020837942
83	0xbd2b3bb8	-0.041805
84	0x3d9e27c7	0.07722431
85	0x3cba0b60	0.022710502
86	0xbc76ab51	-0.015055493
87	0x3d955e8d	0.07293425
88	0x3da89a56	0.08232562
89	0x3db43b0d	0.088003255
90	0xbbd093b1	-0.0063652624
91	0xbccb4c5c	-0.024816684
92	0x3c123a70	0.008925065
93	0xbb1b75ae	-0.0023721266
94	0x3dc3f6da	0.095685676
95	0x3c4ea1fb	0.012611861
96	0x3d4e9835	0.050438125
97	0xbd17df0b	-0.037077945
98	0x3cdc6730	0.026904672
99	0x3c2aa461	0.010415168
100	0xbb07e576	-0.0020736135
101	0x3de49b91	0.111624844
102	0x3d259328	0.040423542
103	0x3b153972	0.0022769836
104	0xbdca6a4b	-0.09883555
105	0x3cf78654	0.03021542
106	0xbd3a3311	-0.045458857
107	0x3d7f0333	0.06225891
108	0x3dbb12d3	0.0913445
109	0xbd796f5a	-0.06089721
110	0x3d47834a	0.04870919
111	0xbc5868d7	-0.0132085895
112	0x3d4d73ca	0.050159253
113	0xbc474165	-0.012161587
114	0x3ce54106	0.027985107
115	0x3d5ef891	0.05443627
116	0xbd5fcc8d	-0.054638434
117	0x3d6aa785	0.057288665
118	0x3b18929e	0.002328075
119	0xbda05625	-0.07828931
120	0x3c4f28b8	0.012643985
121	0x3da2c204	0.07947162
122	0xbdf255f5	-0.11832801
123	0xbca3339c	-0.01992207
124	0x3d857d20	0.06518006
125	0xbd763182	-0.060105808
126	0xbc59d5fe	-0.013295649
127	0x3c8ef966	0.017452907
128	0xbc1b72ef	-0.0094878515
129	0xbd0a013e	-0.03369259
130	0x3cb8acf0	0.0225434
131	0x3c070d6d	0.008242947
132	0x3d67e4bb	0.05661462
133	0x3dcb1012	0.099151745
134	0x3de20b92	0.11037363
135	0x3dc93d77	0.098261766
136	0x3d550d71	0.05201477
137	0x3d2b7d61	0.041867618
138	0x3d830695	0.0639774
139	0x3c807063	0.01567859
140	0xbcbc7d11	-0.023008855
141	0x3cae44af	0.021272985
142	0xbcc671e4	-0.02422423
143	0x3cbb9317	0.022897286
144	0x3da0e5be	0.0785632
145	0xbd0a41b8	-0.03375408
146	0xbd2a1702	-0.04152585
147	0xbca7ae35	-0.02046881
148	0x3d2dea75	0.042459924
149	0x3c43c78d	0.011949432
150	0x3c5418f5	0.012945403
151	0xb9a96946	-0.00032312627
152	0x3d806665	0.0626953
153	0x3cf7a42c	0.03022965
154	0x3ccc2c83	0.024923569
155	0xbd69e1c5	-0.057100076
156	0xbd630250	-0.055422127
157	0x3c361ae6	0.0111148115
158	0x3ca53358	0.020166084
159	0x3da49043	0.08035328
160	0x3c8eb055	0.017418066
161	0xbd4adedc	-0.04952894
162	0x3e0841aa	0.13306299
163	0x3c7525e0	0.014962643
164	0x3d79a0c0	0.06094432
165	0xbd809526	-0.06278448
166	0xbc91ae38	-0.01778327
167	0x3d4c0a06	0.049814247
168	0xbd28ef68	-0.04124394
169	0xbd379738	-0.044821948
170	0x3d0e2edb	0.034712654
171	0x3d95289e	0.07283138
172	0xbd19f4b3	-0.03758688
173	0xbd44402a	-0.047912754
174	0xbce5455e	-0.027987178
175	0x3da20bb4	0.079123884
176	0xbd06cf06	-0.032912277
177	0x3cf05270	0.029336184
178	0x3c398c70	0.011324987
179	0x3d31451b	0.043278795
180	0xbaceb672	-0.0015770926
181	0x3ce95584	0.02848316
182	0xbd943470	-0.07236564
183	0x3d77bc76	0.060482465
184	0x3d2976be	0.041373007
185	0x3d06a385	0.032870788
186	0x3d60567e	0.054769985
187	0x3c696d69	0.014247277
188	0x3cab18b7	0.020885808
189	0xbc30b134	-0.010784436
190	0xbd99ad06	-0.07503705
191	0xbcd3ef4d	-0.025870943
192	0xbdaa7650	-0.083233476
193	0x3d429835	0.047508437
194	0x3c18f287	0.009335167
195	0x3d7cc386	0.061709903
196	0xbd0b98b5	-0.03408118
197	0x3b5c828e	0.0033647153
198	0xbdea7c3e	-0.114494786
199	0xbbe05a18	-0.0068466775
200	0xbcd0f0df	-0.025505481
201	0x3d5b9b73	0.053615045
202	0x3c8807e0	0.016605318
203	0xbacadc6f	-0.0015477071
204	0x3c821024	0.015876837
205	0x3dbde9fb	0.09273144
206	0xbca4dc4b	-0.020124575
207	0x3d7b0d10	0.061291754
208	0xbd119f9c	-0.035552606
209	0xbd1b50db	-0.037918907
210	0x3d07d4fb	0.0331621
211	0x3d3aa8b9	0.045571063
212	0x3b941435	0.0045190104
213	0x3cf4a697	0.029864592
214	0xbd54d376	-0.051959477
215	0x3d3e29bc	0.04642652
216	0xbc8fb393	-0.017541682
217	0xbd3c4fdc	-0.045974597
218	0x3d16b2e8	0.036791712
219	0xbb1d5531	-0.0024007077
220	0x3c9b000d	0.018920923
221	0x3c9e74d5	0.01934282
222	0xbd2a348e	-0.041554026
223	0x3b541ab4	0.003236455
224	0xbd097d8f	-0.033567008
225	0x3c448fd9	0.011997187
226	0x3d1b8b07	0.037974384
227	0x3dbc1ef7	0.091855936
228	0x3ceaec13	0.028677022
229	0xbd2c228b	-0.04202513
230	0xbd07ea36	-0.033182345
231	0x3d16a1b1	0.036775295
232	0x3d72a7da	0.059242107
233	0xbd0e14af	-0.034687694
234	0xbc889902	-0.016674522
235	0xbc012499	-0.007882261
236	0x3db2fb1d	0.08739302
237	0x3ad32a92	0.0016110709
238	0x3cb2a4a6	0.021807026
239	0xbd49e903	-0.049294483
240	0xbdb4ae70	-0.08822334
241	0x3d1f1d8f	0.03884655
242	0x3b6a18c7	0.0035720335
243	0x3d709005	0.058731098
244	0x3d50778d	0.050895263
245	0xbdba6db5	-0.09102956
246	0xbc102a19	-0.008799099
247	0xbd0f6094	-0.035004213
248	0x3da756ba	0.08170839
249	0x3d6897be	0.056785338
250	0xbcdf2b19	-0.02724223
251	0x3dc97965	0.09837607
252	0xbd52f43a	-0.051502444
253	0xbdd19b5a	-0.10234709
254	0x3ccda2e6	0.02510209
255	0xbca10c80	-0.01965928

bias f4 [128]
0	0x3dcca44f	0.09992277
1	0x3dbe5c78	0.09294981
2	0x3e2b3e6a	0.16723028
3	0x3e30b29a	0.17255631
4	0x3e1eef1e	0.15520903
5	0xbcfe9f33	-0.031081771
6	0x3d9ce2a9	0.076604195
7	0x3b6e9e74	0.0036410363
8	0xbdf3e0d5	-0.11908118
9	0xbb794269	-0.0038033968
10	0x3e5d8749	0.21633638
11	0xbc94c40e	-0.018159892
12	0x3d3b2662	0.0456909
13	0x3d6fba60	0.05852735
14	0x3d6b124d	0.0573905
15	0x3d8ba5d8	0.068187416
16	0x3d899f4e	0.06719838
17	0xbe0f2a3d	-0.13980956
18	0xbe1e863b	-0.15480892
19	0x3e491d0b	0.19639985
20	0xbc2b4d90	-0.010455504
21	0x3cefc555	0.0292689
22	0xbcf79242	-0.030221108
23	0x3cb5fafb	0.022214403
24	0x3cf40d1c	0.029791407
25	0x3d83a60b	0.064281546
26	0x3df23c20	0.11827874
27	0xbe39d281	-0.18146707
28	0xbdc34956	-0.09535472
29	0x3dbba057	0.09161442
30	0xbe2601c3	-0.1621161
31	0xbbc62de0	-0.006047949
32	0x3e30b918	0.17258108
33	0xbe346780	-0.17617607
34	0xbd2d4327	-0.04230037
35	0x3de19ef2	0.110166445
36	0x3e24520d	0.16046925
37	0x3d508311	0.050906245
38	0x3e1cab25	0.15299661
39	0xbe2b0e45	-0.16704662
40	0x3d4046c1	0.046942476
41	0x3d1c0371	0.03808922
42	0x3e53b4ff	0.20674513
43	0x3b89cddf	0.00420545
44	0xbd1ea492	-0.038731165
45	0xbd0ec646	-0.034857057
46	0xbe37f23e	-0.17963502
47	0x3e2f33ea	0.17109647
48	0xbdfabbf5	-0.12242881
49	0x3d841473	0.06449213
50	0xbd48f3cb	-0.049060624
51	0x3cbc1958	0.022961304
52	0xbcad800a	-0.021179218
53	0x3daee7bd	0.08540294
54	0xbd95c41c	-0.073127955
55	0xbdab058d	-0.08350668
56	0x3d132c6c	0.035931036
57	0x3e5612c5	0.20905598
58	0xbd793297	-0.06083926
59	0xbd82d55b	-0.063883506
60	0xbd7c208d	-0.06155448
61	0xbe098c24	-0.13432366
62	0xbde8c6e8	-0.11366063
63	0x3cf898d5	0.030346313
64	0xbe04b64c	-0.12960166
65	0x3e2f68c8	0.17129815
66	0xbe1da4ad	-0.1539485
67	0x3dd5bc9c	0.10436365
68	0x3da1d535	0.07901994
69	0x3e515c51	0.20445372
70	0x3de37f39	0.1110825
71	0x3d910354	0.07080713
72	0x3c9a7089	0.01885249
73	0xbd2bf6f2	-0.041983552
74	0xbe18852f	-0.14894556
75	0xbc8b7049	-0.017021315
76	0x3da8147f	0.08207034
77	0xbcdc2724	-0.026874132
78	0x3cf977dd	0.030452663
79	0xbdd84c1e	-0.10561393
80	0xbdb8c046	-0.09021048
81	0x3d62b8ee	0.055352144
82	0x3e568522	0.20949224
83	0x3cb32141	0.021866443
84	0x3cdce033	0.026962375
85	0x3b397350	0.0028297491
86	0xbd8b16ae	-0.06791435
87	0xbd00a3b7	-0.03140613
88	0x3e157ea2	0.14599088
89	0xbe00451f	-0.12526368
90	0x3b7310ae	0.00370888
91	0xbd9e22e5	-0.07721499
92	0x3d356756	0.044288002
93	0x3e0af408	0.13569653
94	0xbd89e5f0	-0.0673331
95	0xbe168ddd	-0.14702554
96	0x3e0a21d3	0.13489465
97	0x3d9afeeb	0.07568153
98	0xbd8509ce	-0.06496011
99	0x3dd24654	0.1026732
100	0x3cf550dd	0.029945785
101	0xbdb2b105	-0.0872517
102	0x3d10788e	0.03527122
103	0x3e3328d3	0.17496042
104	0xbda23f78	-0.07922262
105	0xbe107084	-0.14105421
106	0x3de91ba5	0.11382226
107	0x3dd2af56	0.10287349
108	0xbdbd99c1	-0.09257842
109	0xbdd85620	-0.10563302
110	0x3e0d85f0	0.13820624
111	0xbcbf03b4	-0.023317195
112	0x3d16a19b	0.036775213
113	0xbd4bb642	-0.04973436
114	0xbe021253	-0.12702303
115	0x3cbeeff8	0.023307785
116	0xbd7c4f1a	-0.061598875
117	0x3e52a734	0.20571595
118	0xbd3d7240	-0.046251535
119	0x3c84e8f8	0.01622437
120	0xbd7ef2e7	-0.06224337
121	0xbd37a076	-0.04483076
122	0xbca43941	-0.020046832
123	0x3e4a7dea	0.19774595
124	0x3de70b77	0.112814836
125	0x3cfc93f9	0.030832278
126	0xbd215ecf	-0.039397057
127	0x3e272b7a	0.16325179

weight f4 [128, 128]
0	0x3d62f835	0.05541249
1	0xbd28c71e	-0.041205518
2	0x3dd1792d	0.102281906
3	0x3d8f56e6	0.069989964
4	0x3e2abeac	0.16674298
5	0x3c7062d3	0.014671999
6	0xbc41009b	-0.0117799295
7	0xbc4ce764	-0.01250634
8	0xbb6a9e9e	-0.003580011
9	0x3d721766	0.059104346
10	0x3db3f8b6	0.08787672
11	0x3d5383a1	0.051639203
12	0x3d41b1f3	0.047288846
13	0x3d8ab3c2	0.06772567
14	0xbcb4d984	-0.022076376
15	0x3d49cf5b	0.049270015
16	0xbc0ef3e9	-0.008725145
17	0xbd838f33	-0.064237975
18	0xbe1cb1b8	-0.1530217
19	0xbcc1c1a7	-0.023651911
20	0xbd734bdd	-0.05939852
21	0xbdb0a539	-0.08625264
22	0x3d49d8fd	0.0492792
23	0xbd2a9a9e	-0.04165136
24	0xbda8a8f3	-0.082353495
25	0x3e07e936	0.13272557
26	0x3dad9af0	0.084768176
27	0xbd9562d5	-0.07294241
28	0x3c04632f	0.008080288
29	0x3df00fe9	0.117217846
30	0x3ccef4d2	0.025263224
31	0xbcead94a	-0.028668065
32	0xbd150e4b	-0.036390584
33	0xb8cebdfa	-9.858231e-05
34	0xbd805382	-0.06265928
35	0xbc3ed9b4	-0.011648584
36	0xbd72e708	-0.05930236
37	0x3e17defc	0.14831156
38	0x3d0ce288	0.034395725
39	0x3d26b6df	0.040701743
40	0x3bb1ee95	0.0054300525
41	0x3a42abcc	0.00074261124
42	0x3d7a22ba	0.061068274
43	0x3cf5defa	0.03001355
44	0xbd8834ef	-0.06650721
45	0xbde671fe	-0.11252211
46	0xbe1b7c4c	-0.15184134
47	0x3b7e1cc7	0.0038774477
48	0xbd449fb1	-0.048003856
49	0x3d08d476	0.033405744
50	0x3cda55c3	0.026652222
51	0xbd68a962	-0.05680216
52	0x3d9873f2	0.0744399
53	0xbc9a28e7	-0.018818332
54	0xbdae79a2	-0.08519293
55	0xbe019210	-0.12653375
56	0xbcf94290	-0.030427247
57	0x3d3780a8	0.04480043
58	0xbd921847	-0.07133537
59	0x3ca51491	0.020151408
60	0x3d5ef2c6	0.054430746
61	0xbe1a5bd9	-0.150741
62	0x3d8eacea	0.069665745
63	0x3d60de29	0.05489937
64	0xbddaf5ce	-0.10691415
65	0x3d31a7c7	0.043372896
66	0xbdd1f805	-0.10252384
67	0x3dba99dd	0.09111378
68	0x3dc00067	0.09375077
69	0xbd656a98	-0.05600986
70	0x3e18dc3c	0.14927763
71	0xbc5c0d9a	-0.013430977
72	0xbd20d98e	-0.039269976
73	0x3aa30efd	0.001244038
74	0xbe0a8536	-0.13527378
75	0xbcccb991	-0.024990829
76	0x3d321907	0.0434809
77	0xbc9b2471	-0.018938275
78	0x3c9cce4c	0.019141339
79	0xbd598b48	-0.053111345
80	0xbd9e875d	-0.07740662
81	0x3e07b328	0.13251936
82	0x3de4c02e	0.11169468
83	0x3cb09254	0.02155415
84	0x3d8a4542	0.06751491
85	0x3d026949	0.03183869
86	0xbd5c8b43	-0.053843748
87	0xbcf2dff1	-0.0296478
88	0xbda74b3c	-0.08168647
89	0xbdf95208	-0.12173849
90	0xbd6fd83d	-0.05855583
91	0xbce25612	-0.027628932
92	0x3d1018fe	0.035180084
93	0x3d9056c9	0.07047803
94	0xbc121b35	-0.0089176195
95	0xbc942930	-0.018086046
96	0x3c805ba3	0.015668696
97	0x39ba6016	0.00035548274
98	0x3ce2101d	0.027595574
99	0x3d3c9a8f	0.046045836
100	0x3d6a0df6	0.05714222
101	0x3d7c9e61	0.06167448
102	0x3d88c108	0.06677443
103	0xbd40beaa	-0.04705683
104	0xbd784b31	-0.060618583
105	0xbde2f82c	-0.11082491
106	0x3d1aeebf	0.037825342
107	0x3db51dc8	0.08843571
108	0xbd8aaf97	-0.06771772
109	0xbe0fdb1d	-0.14048429
110	0x3d90a2d7	0.07062309
111	0x3d2fe292	0.042940684
112	0xbd08205b	-0.03323398
113	0xbc80c7d1	-0.01572028
114	0xbe2f8aaf	-0.17142747
115	0xbd026eb8	-0.03184387
116	0x3cae7439	0.021295654
117	0x3e046c59	0.12931956
118	0xbba625cc	-0.0050704237
119	0xbd0d9fb3	-0.03457613
120	0x3d409ab0	0.04702252
121	0x3d3c8891	0.046028677
122	0xbd2b4ceb	-0.0418214
123	0x3d458fff	0.04823303
124	0x3d8d1932	0.06889571
125	0xbd8efb65	-0.069815435
126	0xbc451895	-0.012029787
127	0x3dcea7ca	0.10090597
128	0xbb7c21d5	-0.0038472314
129	0xbcf462f0	-0.029832333
130	0xbd5971d0	-0.053087056
131	0x3d73caf6	0.05951973
132	0xbc8848bf	-0.01663625
133	0x3dcb00a9	0.09912235
134	0xbd6836d9	-0.05669293
135	0x3cfc6522	0.030809943
136	0x3dc1818c	0.09448537
137	0x3c8fd57f	0.017557858
138	0xbcbe7bdd	-0.023252422
139	0xbac39bb3	-0.0014923721
140	0xbd9f7bf3	-0.07787313
141	0x3d592491	0.053013388
142	0xbd739043	-0.05946375
143	0x3dc7973a	0.09745641
144	0x3d8611ab	0.06546339
145	0xbcccaa2d	-0.02498349
146	0x3d1fbdfd	0.038999546
147	0xbdca6fff	-0.09884643
148	0xbd12f494	-0.03587778
149	0xbcdc7a98	-0.026913926
150	0x3dc36889	0.09541423
151	0x3d63165d	0.05544125
152	0x3d3fb418	0.04680261
153	0x3d4b19f3	0.049585294
154	0xbd22f4b8	-0.039784163
155	0x3deca039	0.115539975
156	0x3e0f1e04	0.13976294
157	0x3d0af191	0.033921782
158	0x3d362150	0.044465363
159	0x3bd3b302	0.0064605484
160	0x3dd5dcd5	0.10442511
161	0x3d4e5d5c	0.050382003
162	0x3d7c5216	0.06160172
163	0x3dd1dd63	0.10247304
164	0x3d89965f	0.06718134
165	0xbc892837	-0.016742809
166	0x3db3af3e	0.08773659
167	0x3deb990a	0.11503799
168	0xbd9a0c89	-0.07521922
169	0x3c93377b	0.017970791
170	0xbd97e94e	-0.07417546
171	0x3d823cff	0.0635929
172	0x3d4294fd	0.047505368
173	0x3d83402a	0.06408723
174	0x3d6c2aa1	0.05765784
175	0xbd462a79	-0.04838035
176	0x3db07737	0.086164884
177	0x3c4f8e40	0.012668192
178	0xbd116588	-0.03549722
179	0xbda09f52	-0.07842888
180	0x3d1c07df	0.038093444
181	0xbd64a9f5	-0.055826146
182	0x3e0036fa	0.12520972
183	0x3dab6b44	0.08370069
184	0xbd48963a	-0.048971392
185	0x3dac34b7	0.08408492
186	0x3dbad4ee	0.09122644
187	0xbcbb5a48	-0.022870198
188	0xbcd846df	-0.026400981
189	0x3e1c0a97	0.15238415
190	0xbd33331e	-0.04374992
191	0x3d4ecf47	0.050490644
192	0x3df08cf7	0.11745637
193	0xbc32f0ef	-0.010921701
194	0x3e072513	0.13197736
195	0xbd85a3d5	-0.06525389
196	0xbba81044	-0.005128892
197	0xbd64b548	-0.055836946
198	0x3c0db529	0.008649149
199	0xbd5372c5	-0.051623125
200	0xbdb05478	-0.08609861
201	0xbda81d9d	-0.08208773
202	0x3c9da557	0.01924388
203	0x3dc51806	0.09623723
204	0xbd485a37	-0.04891416
205	0xbd321340	-0.04347539
206	0xbcaccafc	-0.021092884
207	0x3b5adf92	0.0033397418
208	0x3ceee349	0.029161112
209	0xbd376118	-0.04477033
210	0xbd11675c	-0.03549896
211	0x3ddbfc98	0.10741538
212	0x3d041566	0.03224697
213	0x3d9fd9e0	0.07805228
214	0x3ddc6165	0.10760764
215	0x3da96745	0.0827165
216	0x3dc29ba6	0.09502344
217	0x3d3082a2	0.04309333
218	0x3d08af46	0.03337028
219	0x3d9fee15	0.078090824
220	0xbcf158ed	-0.029461348
221	0x3d060a9e	0.03272497
222	0xbd7441e0	-0.059633136
223	0xbd4fdf3e	-0.05075001
224	0xbd527935	-0.051385123
225	0x3b3ca38a	0.0028784
226	0x3d79a5e4	0.06094922
227	0xbd818bbd	-0.06325481
228	0x3d998327	0.074957184
229	0x3de19baa	0.11016019
230	0x3cd49419	0.025949525
231	0xbd95419f	-0.07287907
232	0xbbac984f	-0.00526718
233	0x3c100334	0.008789826
234	0xbccacaba	-0.02475487
235	0x3da90677	0.08253186
236	0x3d950abc	0.07277438
237	0x3dba0f74	0.09084979
238	0xbd08e161	-0.033418063
239	0xbd5d3dd1	-0.05401403
240	0x3c7f30dd	0.015575615
241	0x3de1e9cd	0.11030922
242	0x3dea7244	0.11447576
243	0xbb2e802d	-0.0026626692
244	0x3c2f12b0	0.010685608
245	0xbc27eda3	-0.010249528
246	0x3db437b3	0.08799686
247	0x3d87f449	0.066383906
248	0x3cf9b153	0.030480063
249	0xbd621c99	-0.055203054
250	0xbd65ee74	-0.05613561
251	0xbd7f0df4	-0.062269166
252	0xbd32fe51	-0.043699566
253	0x390369fb	0.00012532614
254	0x3dced09a	0.10098381
255	0x3d709241	0.05873323

bias f4 [128]
0	0x3dced6e8	0.10099584
1	0x3a7ccf00	0.00096438825
2	0x3dce8475	0.10083858
3	0xbc9e87ff	-0.019351957
4	0x3d0492a6	0.032366417
5	0xbd841fd1	-0.06451381
6	0xbde7bb23	-0.1131499
7	0x3d5fd6bc	0.054648146
8	0x3e6004ac	0.21876782
9	0xbd24324b	-0.040087026
10	0xbd041921	-0.032250527
11	0xbdaab998	-0.083361804
12	0x3d8f7798	0.070052326
13	0x3e551c6d	0.20811625
14	0xbc17b8c7	-0.009260363
15	0x3dcfee4f	0.10152876
16	0xbd99540c	-0.07486734
17	0x3c5c7232	0.013454961
18	0xbd251a70	-0.040308416
19	0xbd1aecde	-0.03782355
20	0x3c6abf87	0.01432789
21	0x3e3028da	0.17203084
22	0x3d3375b3	0.04381342
23	0xbd8b2258	-0.0679366
24	0x3dbc7460	0.09201884
25	0xbdac8caa	-0.08425267
26	0xbe1d8713	-0.15383558
27	0x3dcf3765	0.101179875
28	0xbb1c3f03	-0.002384127
29	0xbd9c1993	-0.076220654
30	0xbd795f1e	-0.060881726
31	0x3b843ec5	0.004035803
32	0x3d8bd899	0.06828422
33	0xbca278d5	-0.019833008
34	0x3c3c4800	0.0114917755
35	0xbd6c5c64	-0.057705298
36	0x3d767cd2	0.06017763
37	0x3e00b13d	0.12567611
38	0x3e08d332	0.13361815
39	0xbd334088	-0.043762714
40	0x3d527e7e	0.051390164
41	0x3b146113	0.0022640869
42	0xbcd9d40a	-0.026590366
43	0x3ce5a7bc	0.028034084
44	0xbd6dfd64	-0.05810298
45	0xbcc6b82c	-0.024257742
46	0xbc9c70e6	-0.019096803
47	0x3d928e77	0.07156079
48	0x3d8b69ec	0.06807312
49	0x3dab4998	0.08363646
50	0xbdce6bce	-0.10079156
51	0x3c8c6a61	0.01714057
52	0xbd1d7dc3	-0.038450014
53	0x3e361557	0.17781578
54	0xbc2eaf90	-0.010661975
55	0x3d994c8c	0.07485303
56	0x3e4d0fb2	0.20025519
57	0xbe03369a	-0.12813798
58	0xbdfad6e7	-0.122480206
59	0xbdd4d31c	-0.103918284
60	0xbcbfa158	-0.023392364
61	0x3dd71996	0.10502927
62	0xbcdc7b74	-0.026914336
63	0xbdbda6a7	-0.09260302
64	0x3db01ebf	0.08599614
65	0x3d6f8e30	0.05848521
66	0xbd298280	-0.04138422
67	0x3dcc9736	0.09989779
68	0x3ddeaf9a	0.10873337
69	0x3e00f18f	0.12592147
70	0x3ddadaa0	0.10686231
71	0x3b83a346	0.0040172664
72	0x3db17b46	0.08666091
73	0x3dc0bcd4	0.09411016
74	0x3d606637	0.05478498
75	0x3d3ff321	0.046862725
76	0xbd9809ca	-0.07423742
77	0x3d4442f1	0.047915403
78	0xbdc14056	-0.09436099
79	0xbd218c60	-0.039440513
80	0xbd868852	-0.0656897
81	0xbcc90df2	-0.024542782
82	0xbd1776b8	-0.036978453
83	0x3e391ca4	0.18077332
84	0x3e233c71	0.15941025
85	0xbd8f9eda	-0.070127204
86	0x3ce72799	0.028217124
87	0x3dcf6954	0.101275116
88	0x3de1d7df	0.11027502
89	0x3e487b12	0.19578198
90	0xbc24c207	-0.010056025
91	0x3d25cf05	0.040480632
92	0x3e021c7c	0.12706178
93	0x3dbea5db	0.09308978
94	0x3e05c7a0	0.13064432
95	0xbe02231a	-0.12708703
96	0xbd998c96	-0.07497518
97	0x3bb2599d	0.0054428116
98	0xbdec3eae	-0.11535393
99	0x3d04b173	0.03239579
100	0xbdafda3b	-0.08586546
101	0x3d6b84a0	0.057499528
102	0x3d2af60a	0.041738547
103	0xbd36f211	-0.044664446
104	0xbca29a32	-0.019848917
105	0xbd1a8866	-0.037727736
106	0xbdc8ce67	-0.09804993
107	0xbd268db6	-0.04066249
108	0x3b3d5b46	0.0028893515
109	0xbdb17ab5	-0.08665983
110	0x3d9fc074	0.078003794
111	0xbcf28b8f	-0.029607562
112	0xbd7809b4	-0.06055613
113	0xbd1175e1	-0.03551281
114	0xbd79814d	-0.060914326
115	0x3d327eb2	0.043577857
116	0xbe39c6a5	-0.18142183
117	0xbccb57f5	-0.024822215
118	0xbdaa758e	-0.08323203
119	0x3cfa3dbe	0.03054702
120	0xbd5dfd44	-0.05419661
121	0x3e29911e	0.16559264
122	0x3d53af24	0.0516807
123	0xbbcd5b5e	-0.0062669953
124	0x3db91d09	0.09038741
125	0x3c5172bf	0.012783705
126	0xbd3edd20	-0.0465976
127	0xbe0de33a	-0.13856211

weight f4 [128, 128]
0	0xbdda8b3c	-0.10671088
1	0x3d3f8c57	0.046764698
2	0x3dd1bbcb	0.10240897
3	0x3cbddb4e	0.023175862
4	0x3d86f51e	0.06589721
5	0xbd2f3c85	-0.042782325
6	0x3d98bd19	0.074579425
7	0x3d9c7ec2	0.07641365
8	0xbde8b309	-0.11362273
9	0xbd63a9f9	-0.05558202
10	0x3d892fac	0.06698546
11	0x3d797460	0.060902
12	0xbcbf1551	-0.023325594
13	0x3c3834eb	0.011243085
14	0x3b88da7b	0.0041764355
15	0x3debc06b	0.1151131
16	0x3c240e40	0.010013163
17	0x3d66456d	0.056218553
18	0x3ca7e16d	0.020493234
19	0xbc937a3d	-0.018002624
20	0x3da65988	0.081225455
21	0x3cc453d2	0.02396575
22	0x3b081522	0.002076455
23	0x3d32a0a5	0.043610234
24	0xbd28897a	-0.041146733
25	0xbd9923f9	-0.07477564
26	0x3d9e2fed	0.07723985
27	0xbcb515e5	-0.022105167
28	0x3d84eb1d	0.06490157
29	0xbd90b9be	-0.070666775
30	0x3ddcb6b8	0.10777038
31	0xba667d9f	-0.0008792523
32	0xbd99701f	-0.074920885
33	0xbd9a1401	-0.07523347
34	0xbc917dc5	-0.017760167
35	0xba5884c5	-0.00082595303
36	0xbd4c43c8	-0.04986933
37	0x3c8c1966	0.017101955
38	0xbd2d16d3	-0.042258095
39	0xbca147ae	-0.0196875
40	0xbd11e3e0	-0.03561771
41	0x3d551073	0.05201764
42	0x3dc3ae1b	0.09554692
43	0xbcdc7ca6	-0.026914906
44	0x3d90866a	0.070568874
45	0xbcc6b993	-0.02425841
46	0xbce265cf	-0.027636437
47	0xbd8f219c	-0.06988832
48	0x3d876e89	0.0661288
49	0x3db5b5ab	0.08872541
50	0xbdefc497	-0.117074184
51	0x3dad6dc0	0.08468199
52	0x3de1f262	0.11032559
53	0xbc13fdc3	-0.0090326695
54	0x3da0fd54	0.078608185
55	0xbda278c2	-0.07933189
56	0xbc956cf7	-0.018240435
57	0x3d85e31a	0.06537457
58	0x3c43d8fa	0.011953587
59	0xbdb7be14	-0.089718014
60	0x3cf7c2ff	0.030244349
61	0xbcda2f7b	-0.026633969
62	0xbd3afd58	-0.045651764
63	0x3c950b9f	0.018194018
64	0xbd77acc5	-0.0604675
65	0xbda1f965	-0.07908896
66	0x3d944d31	0.072412856
67	0x3db535a8	0.08848125
68	0x3cae5ac3	0.021283513
69	0x3d2bc098	0.04193172
70	0xbda33e40	-0.079708576
71	0xbd09cb32	-0.033641048
72	0x3da437c5	0.0801845
73	0xbd0f932e	-0.03505247
74	0x3db76f08	0.089567244
75	0x3d67186d	0.05641978
76	0xbbaaf27b	-0.005216894
77	0x3da599d3	0.0808598
78	0x3ccee247	0.025254382
79	0xbd1f6c42	-0.038921602
80	0x3d860d6d	0.065455295
81	0x3c8eedc8	0.017447367
82	0x3d3ac5be	0.045598738
83	0xbdd3e71f	-0.10346817
84	0xbd977e4d	-0.07397137
85	0x3cb5b362	0.022180263
86	0xbd833a70	-0.064076304
87	0x3c0c68f0	0.008569941
88	0x3d70976b	0.058738153
89	0xbd75ba18	-0.059991926
90	0xbd099af0	-0.033595026
91	0x3d9e004d	0.07714901
92	0xbd97d0da	-0.07412882
93	0xbd36c2da	-0.04461942
94	0xbdb9d46f	-0.090737216
95	0x3dd950dd	0.106111266
96	0x3d42bc5f	0.047542926
97	0xbc176533	-0.009240436
98	0x3d55e02c	0.05221574
99	0x3d28fde9	0.041257773
100	0xbd31d929	-0.04341999
101	0xbd3cab47	-0.04606178
102	0x3cf6ccad	0.030126894
103	0x3c8328d5	0.016010681
104	0xbd136127	-0.035981324
105	0x3d8a4662	0.06751706
106	0x3d44437a	0.047915913
107	0x3d4f5f4c	0.05062799
108	0x3d3409fe	0.04395484
109	0xbbf625d0	-0.007511832
110	0x3ca2f06b	0.01989003
111	0x3d7b0a7e	0.061289303
112	0x3cf754a2	0.030191723
113	0x3d03e6e4	0.032202616
114	0xbd872589	-0.06598956
115	0x3db4697e	0.088091835
116	0x3dd991b8	0.10623497
117	0x3bf4413e	0.0074540665
118	0x3d2e8bf5	0.042613942
119	0x3d10229b	0.035189252
120	0xbd316703	-0.04331113
121	0x3d291024	0.04127516
122	0x3da74cac	0.08168921
123	0xbd8f6f33	-0.070036314
124	0x3d21a2cd	0.0394619
125	0xbade4a76	-0.0016959447
126	0x3daf0392	0.08545603
127	0x3d81078f	0.0630027
128	0xbd1e2080	-0.038605213
129	0x3cfd1bd1	0.030897053
130	0x3d8a23a1	0.06745077
131	0xbd9b5069	-0.075836964
132	0xbd1d83bb	-0.038455706
133	0xbc41b434	-0.011822749
134	0xbdbb711b	-0.091524325
135	0x3d3448c4	0.044014707
136	0x3d5bcf1c	0.05366431
137	0xbd357934	-0.04430504
138	0x3d46a1b7	0.048494067
139	0x3d2bdf38	0.041960925
140	0x3dc27cb8	0.094964445
141	0x3d31ae4f	0.043379124
142	0x3d5954b9	0.053059313
143	0x3d936081	0.07196141
144	0xbdd403cb	-0.10352286
145	0xbd10ce59	-0.03535304
146	0xbca5d4bb	-0.02024304
147	0x3d75e3ab	0.060031574
148	0xbd6537a7	-0.055961277
149	0x3da6c20a	0.08142479
150	0x3d6bed88	0.057599574
151	0x3dacdfd8	0.08441132
152	0xbdb06126	-0.086122796
153	0x3cd80cd7	0.02637331
154	0xbdc0e299	-0.0941822
155	0xbdb7740f	-0.08957683
156	0xbcc2675d	-0.023730928
157	0x3c960325	0.018312046
158	0xbce6418b	-0.028107425
159	0x3bd3f016	0.0064678295
160	0xbb017f1a	-0.0019759596
161	0xbcb1a38e	-0.021684434
162	0xbca96234	-0.02067671
163	0xbd202c27	-0.039104607
164	0xbdc74a23	-0.09730937
165	0x3cec0315	0.028810063
166	0x3ca11e35	0.019667724
167	0x3c898879	0.016788708
168	0x3d7c1fb4	0.061553672
169	0x3cfae345	0.030625949
170	0xbd069f67	-0.03286686
171	0x3c140e95	0.00903668
172	0xbd159f9e	-0.036529176
173	0xbd73c870	-0.059517324
174	0xbd98e519	-0.07465572
175	0xbc8a2d55	-0.01686732
176	0xbd9918bf	-0.07475423
177	0x3ce0d210	0.027443916
178	0x3c98b1b9	0.018639432
179	0xbaafeff8	-0.0013422957
180	0x3d3efa6e	0.046625547
181	0x3dcb7d87	0.09936052
182	0x3c081590	0.008305922
183	0x3db3a0c9	0.08770902
184	0x3e017f7d	0.12646289
185	0xbcbfd991	-0.023419173
186	0xbcf36c4a	-0.029714722
187	0x3df5da49	0.12004525
188	0xbdab2f19	-0.083585925
189	0xbc9402ab	-0.018067678
190	0x3d63ae8f	0.055586394
191	0x3d7cc08d	0.06170707
192	0x3d190a16	0.037363134
193	0x3d2c3e2d	0.042051483
194	0xbd626e1d	-0.055280793
195	0x3b6aaba5	0.0035807875
196	0x3d9d8229	0.07690842
197	0x3cdda518	0.027056262
198	0x3d793e38	0.060850352
199	0x3db57275	0.088597216
200	0x3d00bc49	0.031429563
201	0x3dbf17cd	0.093307115
202	0xbd0f2ac5	-0.034952898
203	0x3c80d08e	0.015724447
204	0xbda1bab1	-0.07896937
205	0xbad8e388	-0.0016547302
206	0xbbde5efe	-0.0067862263
207	0x3d83267c	0.06403825
208	0x3d777bfb	0.06042097
209	0xbda11588	-0.07865435
210	0x3d2697a6	0.040671967
211	0x3c998c0a	0.018743534
212	0x3d00c416	0.031437002
213	0x3d2c3761	0.042045
214	0xbd8d17fe	-0.06889342
215	0x3d6e0ba9	0.05811659
216	0x3c0431d9	0.008068525
217	0xbd04ed53	-0.032452893
218	0x3ce9ec45	0.028555045
219	0x3d18b605	0.037282962
220	0x3dd6a407	0.104805045
221	0xbb1e2c5c	-0.0024135327
222	0x3d1676c5	0.03673436
223	0xbd3cfb05	-0.04613783
224	0xbc0cbec4	-0.008590404
225	0x3c9a1381	0.018808128
226	0x3c3fac17	0.011698744
227	0xbcb31fb5	-0.021865705
228	0xbd058d12	-0.03260524
229	0x3c09c388	0.008408435
230	0x3d712042	0.058868654
231	0x3ca00433	0.019533252
232	0x3d3cb442	0.046070345
233	0x3d814200	0.063114166
234	0xbc1d3931	-0.009596155
235	0xbc4804cd	-0.012208176
236	0x3dbc9620	0.092083216
237	0x3cf8c17a	0.030365694
238	0xbd57d82e	-0.0526964
239	0x3d64c300	0.05585003
240	0xbc8e507d	-0.017372364
241	0x3d8c193b	0.0684075
242	0x3d52b261	0.051439647
243	0xbd9a3f3f	-0.075315945
244	0xbc03f6fd	-0.008054492
245	0x3d4743a2	0.048648484
246	0xbb56f37a	-0.0032798932
247	0x3d5e8de4	0.054334536
248	0xbd68dcae	-0.05685108
249	0x3d549e37	0.051908698
250	0xbc0229ff	-0.007944583
251	0x3d66e36c	0.05636923
252	0x3d1693b4	0.036761954
253	0x3d9bde04	0.076107055
254	0x3d87001e	0.06591819
255	0x3d641f45	0.055693883

bias f4 [128]
0	0xbd3a3d78	-0.045468777
1	0x3b48d2f9	0.0030643328
2	0x3d737d8a	0.059445895
3	0x3dde50b0	0.10855234
4	0x3e3a238e	0.18177626
5	0x3cdbee7e	0.02684712
6	0xbdcb3754	-0.099226624
7	0x3db3a7a1	0.08772207
8	0x3d502c00	0.05082321
9	0x3c35d4cd	0.011098099
10	0xbc9953bc	-0.018716685
11	0x3de5e4d6	0.112252876
12	0xbdb4c11a	-0.08825894
13	0x3d73c643	0.05951525
14	0xbc4e6dbe	-0.012599407
15	0xbd78955c	-0.060689315
16	0x3d94c45b	0.07264014
17	0x3d8028c8	0.062577784
18	0xbe194452	-0.14967468
19	0xbdb03645	-0.08604101
20	0xbd59abf8	-0.053142518
21	0xbcffd887	-0.031231178
22	0xbd534da0	-0.0515877
23	0xbd80fa2b	-0.06297716
24	0xbd3ea200	-0.046541214
25	0xbbc79aa1	-0.0060914312
26	0x3cb28b1c	0.021794848
27	0x3bacb8d7	0.005271058
28	0xbb966b2c	-0.0045904126
29	0x3c43b0d9	0.011944019
30	0x3d7f9695	0.062399466
31	0xbae26ecf	-0.0017275455
32	0x3e1372c1	0.14399244
33	0x3d142110	0.036164343
34	0xbcf6c1a6	-0.030121636
35	0x3e377904	0.17917258
36	0x3e446024	0.191773
37	0x3bfd1af1	0.007724159
38	0x3c3774be	0.011197267
39	0xb6f4e5f8	-7.2985385e-06
40	0x3dc29cd6	0.0950257
41	0xbcd7a19c	-0.026322179
42	0x3d0e6883	0.03476764
43	0xbe0d1b55	-0.13779958
44	0xbb0463f8	-0.0020201188
45	0x3d4c2190	0.049836695
46	0xbd674772	-0.05646462
47	0x3cb56e50	0.022147328
48	0x3c92c1c6	0.017914664
49	0x3d2112b6	0.039324485
50	0x3df66a27	0.12031966
51	0x3da96fe4	0.082732946
52	0x3d317cd1	0.043331925
53	0xbda373f8	-0.07981104
54	0x3d905f5e	0.0704944
55	0x3d16c43c	0.036808237
56	0xbd50f71c	-0.051016912
57	0x3d7e9668	0.062155157
58	0x3caa8a07	0.02081777
59	0xbd0c53d1	-0.03425962
60	0x3d4db1b3	0.050218295
61	0xbcfd269c	-0.0309022
62	0x3d3149be	0.043283217
63	0x3dad1b65	0.08452491
64	0x3d97f8c2	0.07420494
65	0xbd415e2f	-0.04720896
66	0x3e0ce794	0.13760215
67	0x3d43fd31	0.047848884
68	0x3e0d9020	0.1382451
69	0x3c64699d	0.013941196
70	0x3cc6b2a1	0.024255099
71	0xbd72f187	-0.05931237
72	0xbde49564	-0.111613065
73	0x3c9c5c10	0.019086868
74	0xbcdb00ce	-0.026733782
75	0x3d8d2686	0.068921134
76	0x3dbbce8e	0.091702566
77	0x3a0d527e	0.00053910154
78	0xbd80ed6c	-0.06295285
79	0x3cc1dfe1	0.023666324
80	0x3da440bd	0.0802016
81	0x3b870a90	0.004121132
82	0x3d49927b	0.04921196
83	0xbd5fdf07	-0.054656055
84	0xbcf32bd5	-0.029683987
85	0x3d4d9a28	0.050195843
86	0xbdc008e3	-0.09376695
87	0xbd62f609	-0.05541042
88	0x3e3d5666	0.1848999
89	0xbd8eb397	-0.06967848
90	0xbca93e7a	-0.020659674
91	0xbd90b700	-0.070661545
92	0x3dfaa122	0.12237765
93	0x3d3cafbd	0.046066035
94	0x3d9e0161	0.07715107
95	0x3d0fa091	0.035065237
96	0x3d6ba1c9	0.057527337
97	0xbc4dbb01	-0.012556792
98	0xbce31331	-0.027719112
99	0x3d8e28b3	0.069413565
100	0x3d538a6c	0.05164568
101	0xbc8b17b9	-0.016979085
102	0x3c8d5e91	0.017257007
103	0x3c2dd9a6	0.010610973
104	0xbcef69f9	-0.029225336
105	0xbd066d91	-0.032819334
106	0x3db833c0	0.089942455
107	0xbd9d31f4	-0.076755434
108	0x3da69a6f	0.081349246
109	0xbdacffb1	-0.08447207
110	0x3c9a2659	0.018817114
111	0x3cba1210	0.022713691
112	0x3d7fa44e	0.062412553
113	0xbd218669	-0.039434824
114	0x3d93cdb0	0.07216966
115	0xbcfb4e33	-0.030676937
116	0xbc1349cb	-0.008989762
117	0x3dfd600c	0.12371835
118	0xbd993371	-0.07480515
119	0x3d6e7ace	0.058222584
120	0xbda06e44	-0.078335315
121	0xbd0aca69	-0.03388444
122	0xbccde6ed	-0.025134528
123	0x3d932a7d	0.07185838
124	0x3e0d4e76	0.13799462
125	0xbd4c379e	-0.04985773
126	0xbde59768	-0.11210519
127	0xbab4a34f	-0.001378158
