IO_DynaPlex/DeepControlledLearning/PolicyWeights/lost_salespoisson_p19_l10_N5000_DCL0/l_gen.pth (torch, 290785 bytes, 10 tensors)

weight f4 [256, 10]
000000 a5 6a 08 bd 5c 1c a0 bd 46 17 b4 bd 5c 78 1b 3d
       -0.03330483 -0.07817909 -0.087935016 0.03795658
000010 3f d7 96 be f7 99 cd 3d 89 9e a6 3e 9c b3 01 3e
       -0.29461095 0.10039132 0.32542828 0.12666172
000020 4f bd 07 be 63 d5 c7 3c 58 36 38 3d 2e 96 a6 3e
       -0.13255809 0.024393743 0.0449737 0.32536453
000030 24 fc 15 be f5 df 39 be 6f 0f 61 be a4 5e 65 ba
       -0.14646965 -0.18151839 -0.21978544 -0.0008749759
000040 81 41 66 3e 9c 8f df bc 5c d8 ee bd 60 ea b7 bb
       0.22485925 -0.027290158 -0.11662361 -0.0056126565
000050 4f aa 21 bd 92 31 36 be e7 a2 15 be 8a 06 8b be
       -0.03946906 -0.17792347 -0.14612924 -0.27153426
000060 9b 61 bc bd b9 8e 89 be ee ce fe bd f6 4f 93 be
       -0.09198304 -0.268667 -0.124418125 -0.28771943
000070 13 6a eb bd e8 ea b9 bd 34 bd 92 3b b4 bf 5f bd
       -0.114948414 -0.09078008 0.004478121 -0.05462618
000080 82 ca af bc 30 0e 14 bd a5 a0 2a be fd 52 da 3d
       -0.021458868 -0.036146343 -0.16662844 0.1066036
000090 a5 ad 8e 3e 0a 6d 86 3e e6 33 b3 3d 37 33 7c 3e
       0.27866855 0.26255065 0.08750133 0.24628912
0000a0 99 c9 51 3e 46 fc a7 3d 77 5d 15 be 1e 20 55 be
       0.2048706 0.08202414 -0.14586435 -0.20813033
0000b0 fe 33 a5 bd ec 9e 3b 3e 99 41 4f 3c 6d f9 57 be
       -0.08066557 0.18322343 0.012649917 -0.21091242
0000c0 3d e6 61 be c1 8f 03 3d b1 e1 3f be 40 a0 7c 3d
       -0.22060485 0.032119516 -0.18738438 0.061676264
0000d0 38 a7 22 bd 0f 47 85 bc 6a f5 3b 3d ab c0 8d be
       -0.039710253 -0.016269235 0.045888342 -0.27686056
0000e0 37 2e 8c 3e cd 33 01 3d 6f a0 a3 be b7 23 08 be
       0.2737901 0.03154354 -0.3195834 -0.13294874
0000f0 b5 30 d6 3c d7 7e 39 3e 2b 90 18 be 45 22 9e 3d
       0.026146272 0.18114792 -0.14898746 0.0772138
000100 9e 54 05 3e ca 4e 03 be 91 7f 08 3c fe a0 0f ba
       0.1302056 -0.12823024 0.008331195 -0.0005479007
000110 9a e6 03 3d 48 fe 9a 3e 64 53 f2 bc 32 a6 16 3c
       0.03220234 0.30272126 -0.02958078 0.0091948975
000120 5e 71 09 3e 94 74 49 3e e4 f8 22 3e 7b 33 91 be
       0.13422152 0.19673377 0.15915257 -0.2835959
000130 19 08 95 be 74 7c 86 3e eb 72 64 bd f2 21 50 be
       -0.2910774 0.26266825 -0.055773657 -0.20325449
000140 83 9d 7c 3c c7 08 3e be fd a9 98 be cb 4c 6e be
       0.015418413 -0.18558036 -0.2981719 -0.23271482
000150 e5 2d 9a 3e 60 64 30 3e 27 28 8a be 4b 4b 5b 3e
       0.3011314 0.1722579 -0.2698376 0.2141544
000160 f2 2d 98 3e 8e cf 75 3e d2 8b 14 be 4d 46 05 3e
       0.29722553 0.24004957 -0.14506462 0.13015099
000170 21 af 2a 3e 34 1e b4 3b 95 5d 93 3e b0 9f 9e be
       0.16668369 0.0054967646 0.28782335 -0.30981207
000180 b6 d5 86 3e bf a8 82 3e ce e1 87 bd 60 00 53 be
       0.26334924 0.25519368 -0.06634866 -0.20605612
000190 83 0e 84 3e a4 d8 00 be 58 f3 78 bc 92 87 90 3d
       0.25792322 -0.12582642 -0.015194736 0.07057108
0001a0 4b 47 58 be 21 27 8b 3e fd f8 ab 3d b0 95 5e 3e
       -0.21120946 0.2717829 0.083971 0.21736789
0001b0 62 27 7f be b0 23 72 be 41 a9 1d 3e cb e4 72 bd
       -0.24917367 -0.23646426 0.15396596 -0.059300225
0001c0 4f ba b7 bd 59 40 78 be 5f 58 06 3d 81 53 99 be
       -0.089710824 -0.24243297 0.03279912 -0.2994652
0001d0 ab a1 14 bd c4 44 84 be 91 55 21 3c 4e 5f 8c 3e
       -0.03628699 -0.25833714 0.009847061 0.27416462
0001e0 8d 99 83 be b3 cc d9 3d d4 cd 98 3e 2e d7 b7 be
       -0.25703087 0.106347464 0.29844534 -0.35906357
0001f0 ed da f2 3d b2 c8 04 be fa 8a 57 3d 79 58 84 be
       0.11858163 -0.12967184 0.052622773 -0.2584875
000200 05 23 a9 bc 2b b1 25 3e e0 09 93 3c 40 4c 8c be
       -0.020646581 0.16180865 0.017949045 -0.27401924
000210 6a f1 61 3e 93 4d 8a bd d1 87 40 be 2b 2a 22 3e
       0.22064748 -0.06753077 -0.1880181 0.15836398
000220 96 fa 86 3e 2f 90 59 3e cb e9 10 3c 23 89 2c 3e
       0.26363057 0.21246408 0.008844803 0.16849189
000230 e1 6d 62 3d c3 40 40 bd 15 b8 6d 3e 74 c5 38 be
       0.05528057 -0.04693676 0.23214753 -0.18044072
000240 25 3e cf bd b1 67 60 bd 86 67 48 3e 82 2b 14 3e
       -0.10119275 -0.054786388 0.19570741 0.14469722
000250 72 ed 97 be bb 0a 56 3e bc 9a 1c 3e f7 e5 3e 3e
       -0.29673344 0.20902531 0.15293401 0.18642412
000260 73 93 7e 3e 28 6c e8 bd 5e b7 64 be d5 7f 80 be
       0.24860935 -0.11348754 -0.22335574 -0.25097528
000270 01 7c a8 3d ce 9b 35 3e 3d 4e 15 be 48 30 2e 3e
       0.08226777 0.17735216 -0.14580627 0.17010605
000280 ac a2 94 be a1 11 13 bd c5 ae 8d 3c 14 dc 09 be
       -0.2903036 -0.035905484 0.01729525 -0.1346286
000290 cb cc 15 3e bf 0c 8f 3e 96 e9 9a 3e 24 7d 96 3e
       0.14628904 0.27939412 0.30256337 0.2939235
0002a0 e4 80 10 3e 08 51 43 be 57 21 3b be 70 94 03 3e
       0.14111668 -0.1907388 -0.18274437 0.12849593
0002b0 38 aa 69 3e f6 c9 53 3e 25 c6 8e be 19 5f 3b 3e
       0.2281884 0.2068251 -0.27885547 0.18297996
0002c0 87 c1 54 3d e3 fe b4 bb 7a 10 30 3d 8a cb 69 be
       0.051942375 -0.005523549 0.042984463 -0.2283155
0002d0 0f 04 8a bd 4f d1 16 3d 4d 82 58 be e2 e3 15 3c
       -0.06739055 0.036820706 -0.21143456 0.00914857
0002e0 ad ce 69 be ff 24 36 3c db 78 8f 3e 5d 8f ba bd
       -0.22832747 0.011117219 0.28021893 -0.091093756
0002f0 5c d7 b2 bd 35 4a 7e 3e 96 77 d3 3d d8 d2 29 3e
       -0.08732483 0.24832995 0.103255436 0.16584337
000300 0d e6 63 be ed c9 66 be fa 56 fa bd b4 2b 29 3d
       -0.22255726 -0.22537966 -0.12223621 0.041301444
000310 d2 82 7d 3d be da 90 bd b6 39 44 3e a9 f2 11 be
       0.061892338 -0.07072972 0.1916264 -0.14252724
000320 e5 cb cd 3d 73 32 83 bb f5 8c 07 be f9 79 fc bd
       0.100486554 -0.0040038167 -0.13237365 -0.12327952
000330 59 b1 93 3c b8 cd 38 3e 42 95 81 be d3 f2 0b 3b
       0.018028902 0.18047225 -0.25309187 0.0021354451
000340 90 cc 4e 3e 69 5a 66 3d a1 bc 43 3e b3 19 bb 3b
       0.20195222 0.056238566 0.19114925 0.0057098507
000350 3c 61 ae be 75 56 92 be 6d 0f 92 3d 09 35 93 be
       -0.3405856 -0.28581586 0.071318485 -0.287514
000360 18 0b 91 3d a8 63 2e be f1 95 90 bd 1c ae 20 3e
       0.07082194 -0.17030203 -0.07059849 0.15691417
000370 bd 96 c1 3d 00 28 81 3e 29 3c 97 3b 4f 6c 92 3e
       0.09452579 0.2522583 0.004615326 0.28598258
000380 89 66 ee bc 54 f0 35 be 0d 22 03 3e 1f 5c dd bd
       -0.029101627 -0.17767459 0.12805958 -0.10808586
000390 81 1d a7 3d 61 0a c2 be 31 dc 15 3e fd 60 69 3c
       0.08159924 -0.37898543 0.14634778 0.014244315
0003a0 50 29 1c 3d 4f ae 9f be af 6f 89 3e 21 25 06 bd
       0.038125336 -0.31187674 0.2684302 -0.032750253
0003b0 68 8f 4d be e7 91 30 be 4a e8 6b be b9 1d 5e be
       -0.20074236 -0.17243157 -0.2303783 -0.21691026
0003c0 78 c1 88 bd 38 ee 56 3e 93 23 6b 3e bf 16 01 3d
       -0.06677526 0.2098931 0.22962789 0.031515833
0003d0 d6 a7 03 3d 5a 00 2f 3e d8 0f 95 be 3c dc 45 bd
       0.032142483 0.17089978 -0.2911365 -0.048305735
0003e0 8d ca 8c 3d 07 25 bd bd a0 33 d1 3d cc 76 50 be
       0.06874571 -0.09235578 0.10214925 -0.20357817
0003f0 a0 dc 21 3e 4d 2f 7d be 6b c6 9c be be 47 30 3e
       0.15806818 -0.24725075 -0.3062013 0.17214867

bias f4 [256]
000000 fb 36 b0 3e c0 3f 45 3e 8f 6c ca 3b a2 51 71 3d
       0.34416947 0.192626 0.006177492 0.05891574
000010 a1 13 a0 be 00 d4 a0 3e 23 d3 83 be e6 0e 10 be
       -0.31264976 0.31411743 -0.25747022 -0.14068183
000020 6f fd 81 3d 64 3d b3 3d b8 03 ca 3e ce 46 66 3e
       0.06347167 0.08751944 0.39455962 0.22487947
000030 48 a8 b7 bd d2 1e c7 be 4b 7d 29 3e 5a ba 74 be
       -0.08967644 -0.38890702 0.16551702 -0.23899212
000040 1f 61 49 bd a3 61 73 3e c8 6f 07 be c7 e5 3f 3e
       -0.049164888 0.23767714 -0.13226235 0.18739997
000050 c1 66 48 3e 03 f8 8d 3e 1e ba 5a be a2 86 a2 3d
       0.19570448 0.2772828 -0.2136006 0.079358354
000060 b2 c5 07 3e 5e ab bc 3d 1f 0f 94 be 4f ee a3 be
       0.13259009 0.09212373 -0.28917786 -0.32017753
000070 5e f3 e5 3d b7 40 53 3d 17 55 c6 bd af a5 04 be
       0.11228059 0.05157539 -0.09684198 -0.12953828
000080 80 17 51 3e a9 d1 34 be 6d 86 3a 3e d3 f8 60 3d
       0.20419121 -0.17658104 0.18215342 0.054924797
000090 f0 49 16 be 85 36 30 bd 2f 50 03 be ef 18 1a bd
       -0.14676642 -0.043020744 -0.12823556 -0.037621435
0000a0 dc 1e 91 be 5f 8e 8d 3e 1b 06 35 3e 0f 37 25 3e
       -0.28343856 0.27647683 0.1767811 0.16134284
0000b0 35 00 10 3e 7d c4 a6 3e ff de 97 be a1 3f 42 be
       0.14062579 0.32571784 -0.2966232 -0.18969585
0000c0 fb 46 de 3d 60 34 95 3e 71 f2 a3 bd dd 02 4c 3e
       0.10853382 0.2914152 -0.080052264 0.19922967
0000d0 7a 2c 95 3e e8 54 4e 3d ac 1e cd 3d 37 c2 25 3e
       0.29135495 0.05037394 0.10015616 0.16187368
0000e0 cf 3c 25 3d 30 51 00 be 40 13 ab 3b 94 14 7d be
       0.040341195 -0.1253097 0.0052208006 -0.24714881
0000f0 b9 56 98 3e 41 ab c4 3d 50 93 bd be 62 48 58 be
       0.29753664 0.096029766 -0.37026453 -0.21121362
000100 3a 8d 8e 3e 0b d4 0b 3e 6b 7b 56 bd ca 99 6e 3e
       0.27842122 0.13655107 -0.052363794 0.23300853
000110 a3 7b a5 be f0 9e 3c 3e 5c c9 ea be 18 bf ac 3e
       -0.3232089 0.18420005 -0.4585675 0.33739543
000120 04 23 7d bd c1 33 a2 3e b3 26 a4 be c6 bd 88 3c
       -0.06180097 0.3168011 -0.32060775 0.016692054
000130 63 58 0b 3e b6 f3 21 3d 55 e4 8d be 55 53 3a be
       0.13607936 0.03953906 -0.27713266 -0.18195851
000140 a3 5b 0b 3d 03 12 5a be 6c 5e c4 3d ee 9a 1f bd
       0.03402294 -0.21295933 0.09588322 -0.03896611
000150 ed 73 a9 3e 0f e7 11 be 30 0f d9 3b 90 0c 93 3d
       0.33096257 -0.14248298 0.006624125 0.071801305
000160 9a 15 91 3d 37 1f ce 3e b7 03 b1 be 45 ee 23 3e
       0.07084198 0.4025819 -0.34573147 0.16008861
000170 6e 36 b7 be 0b 8c 7b 3e 4e 0b 62 3e be a6 e6 3c
       -0.35783714 0.24565141 0.22074625 0.02815568
000180 95 2e db 3d c0 6f 7c 3d 43 55 d7 3c 83 75 e0 bb
       0.10702244 0.06163001 0.026285773 -0.006849946
000190 f5 00 3a be 5c 86 56 be ad 84 df 3d 87 af 7a be
       -0.18164428 -0.20949692 0.10913978 -0.24481021
0001a0 ea 20 d0 bd 05 32 ab be 24 7c 96 3e 89 f8 db 3e
       -0.10162528 -0.334366 0.29391587 0.42963055
0001b0 c6 91 7d be 61 8a 05 3c 48 a6 1a 3e 01 0d 50 3e
       -0.2476264 0.008150668 0.15102494 0.2031746
0001c0 3a 4d 17 3d 5a 88 83 3d 1d 1c 81 3e 4f 86 75 3e
       0.036938883 0.06422491 0.2521676 0.23977016
0001d0 9a 2f 5d be 94 dc db 3d c1 83 5d be 55 b5 b1 3e
       -0.2160019 0.10735431 -0.21632291 0.34708658
0001e0 4f a1 25 bd d0 af 4b bd 20 85 a3 bd 79 1e ea bd
       -0.04043704 -0.049728215 -0.07984376 -0.114315934
0001f0 e8 5d 44 be eb a7 18 3e 43 c5 1d be 9b 14 a1 3e
       -0.19176447 0.14907806 -0.1540728 0.31461033
000200 cf db 26 3d 7f 0f 2d bd df 96 b1 bd 61 11 0e be
       0.04073697 -0.042251106 -0.086713545 -0.13873817
000210 63 3d 6c bc 04 25 8b 3e ec bf 81 3e bd 73 6d 3e
       -0.014418933 0.27176678 0.25341737 0.23188682
000220 47 a1 6f be 63 36 c3 bd 77 f9 aa 3d 6b 4e 31 bb
       -0.23401366 -0.09531858 0.08348363 -0.0027054797
000230 d9 e2 98 3e e9 4e d3 be 09 f5 fe 3c 8a c1 3b be
       0.2986057 -0.4127114 0.031122701 -0.18335548
000240 ce b2 93 be 90 42 5d 3e 10 95 c2 3d 17 94 d5 be
       -0.28847355 0.21607423 0.09501088 -0.41714546
000250 de de 38 be 63 f8 c6 3d 57 3b 56 bd cf 99 02 3e
       -0.18053767 0.09715345 -0.052302685 0.12753986
000260 91 d3 9e be c8 c0 36 3e 60 45 d3 be 01 34 61 3e
       -0.31020787 0.17846978 -0.41263866 0.21992494
000270 17 4e b2 3d df b7 8a bd fa 46 6f 3e 7e 51 76 3d
       0.08706301 -0.06773352 0.23366919 0.06013631
000280 41 0f 59 3e dd 66 1c be a0 be d5 3d 93 d3 ef bd
       0.21197225 -0.15273614 0.104367495 -0.117102765
000290 07 bf c3 bd 9c 61 67 3d 77 f4 06 bd fb df 10 be
       -0.0955792 0.056489572 -0.032947984 -0.14147942
0002a0 49 a4 73 3d 49 a3 40 bc 73 7c 2c bc b2 c5 82 3e
       0.059482846 -0.01175768 -0.010527718 0.25541455
0002b0 d1 a0 26 be d6 d4 32 be 30 d8 80 be 32 e3 95 3e
       -0.16272284 -0.17464003 -0.25164938 0.292749
0002c0 81 0a b6 be cb b2 32 be cb 00 a9 3e 44 f0 d5 be
       -0.3555489 -0.17451017 0.33008417 -0.4178487
0002d0 c3 29 ac 3e fe c2 47 bd 38 78 f4 bd 85 81 38 be
       0.33625612 -0.048769943 -0.119369924 -0.18018158
0002e0 32 b5 04 ba bf 89 d6 bd 03 f9 00 3e 1b 86 1a be
       -0.00050624006 -0.10475492 0.1259499 -0.1509022
0002f0 ac fb 25 3d 07 3e a1 be c4 69 83 bc 4d f3 7d be
       0.040523216 -0.31492636 -0.016041644 -0.24799843
000300 a5 bb e5 bc 20 b3 94 3e cc 47 d0 3a 45 43 e4 bb
       -0.028043577 0.29042912 0.0015890538 -0.006966027
000310 14 86 54 be 49 8c 71 3d e8 be bb 3e 59 54 5f 3e
       -0.20754272 0.058971677 0.36669087 0.2180952
000320 21 43 da 3d ea fd 37 3e 5d f7 da 3e 82 c2 4c 3d
       0.10657335 0.17967954 0.42766848 0.049990185
000330 ee e6 2e be a5 99 a9 3d 4f 97 70 be 65 72 96 3e
       -0.1708028 0.082812585 -0.2349522 0.2938415
000340 f0 47 54 be 01 1d 86 3e 2a 08 bc 3e 5d 65 ca bc
       -0.20730567 0.26194003 0.3672498 -0.024706537
000350 6b 6f 9d be 8c c6 19 3d 48 3b e3 bd e4 99 87 bd
       -0.30749068 0.037542865 -0.110952914 -0.06621149
000360 02 67 ca 3d 51 be bc 3d 23 be 64 be 20 38 75 3e
       0.098829284 0.092159875 -0.22338156 0.23947191
000370 77 7c 41 3e 48 9e 4e be 21 26 97 3e 77 7c 97 be
       0.18895136 -0.20177567 0.29521278 -0.29587147
000380 d3 5e da 3d 95 3e 80 3c c4 07 ba be 99 a1 20 be
       0.106626175 0.015654841 -0.3633405 -0.15686645
000390 46 b7 5a bd ba 29 95 3e 17 1f cc be 12 b7 89 3e
       -0.05339744 0.29133397 -0.3986747 0.26897484
0003a0 46 c0 9c 3e fe 4b 25 3d 98 e6 1f 3d 34 4f 35 be
       0.30615443 0.040355675 0.03903827 -0.17705995
0003b0 d6 65 b2 3d f7 83 d6 be 76 bc 97 be 58 36 06 bd
       0.0871083 -0.41897556 -0.29635972 -0.03276667
0003c0 43 f5 9c 3c 55 c6 8f 3e 67 a0 35 bd 9e 2b e0 bd
       0.019159919 0.28081003 -0.044342425 -0.10945819
0003d0 80 a4 7b 3e da 3d 1f 3e da 77 5d be 02 4c 2e 3e
       0.2457447 0.15550938 -0.21627751 0.17021182
0003e0 86 33 2c 3e 5e 2e d8 3d 75 70 d4 bd 65 bd dc 3e
       0.1681653 0.10555719 -0.10373012 0.43113247
0003f0 57 1e 83 3d bb f1 67 3e 17 0a 98 3e 00 a3 76 be
       0.06402271 0.22650807 0.29695198 -0.24085617

weight f4 [128, 256]
000000 0c 61 61 3d b6 27 7f bd 18 b8 5b bc 3d a2 8e bd
       0.05502419 -0.06229373 -0.013410591 -0.06964538
000010 4f 1a 39 3a f8 a1 73 bc e0 4d b0 bc b6 e2 1c 3d
       0.000706111 -0.014870159 -0.021521509 0.038302146
000020 e0 b5 8d bc 51 51 89 bd 9a ca 16 bd dc cd 86 bc
       -0.017298639 -0.06704963 -0.03681431 -0.016455583
000030 3c 67 c1 bc 45 0b ae bc cf 1c eb 3c 84 d0 45 3c
       -0.023608796 -0.021245608 0.02870026 0.01207364
000040 bb 25 8d bb 93 36 a1 3c 93 8f ff bc 73 b6 d2 3b
       -0.0043074763 0.019679343 -0.031196391 0.006430441
000050 34 a1 95 bc e8 58 3f 3d 73 a9 41 3d 26 37 4a 3d
       -0.018265344 0.046715647 0.04728074 0.049369
000060 17 81 39 bd 5c da 7c bd 1c 04 1d 3d 2d 41 e5 3c
       -0.045289125 -0.06173168 0.038333997 0.02798518
000070 28 c2 7d bd ae a9 16 bc 78 82 6d bc ac ea 9f 3c
       -0.06195274 -0.009195728 -0.014496438 0.01952108
000080 12 27 3c 3d 74 ca b8 3c be be bf 3c 80 86 24 bc
       0.045935698 0.022557475 0.023406383 -0.010041833
000090 fb 84 1a bd cf 84 7d bb 60 95 6a 3c 80 bc 4d 3d
       -0.037724476 -0.0038683896 0.01431784 0.050228596
0000a0 d2 66 03 bd 60 0d 6f bc c0 e3 2d 3d 4e d1 3c 3d
       -0.03208048 -0.014590591 0.042453527 0.046098046
0000b0 ef 43 70 bd 34 a2 0c bd 4a 7f 36 bc 66 31 1c 3d
       -0.058658537 -0.034334376 -0.0111387465 0.038133048
0000c0 a5 a9 86 bd 8c 1e a1 bc c2 a2 20 3d fa 3c a0 bc
       -0.06575326 -0.019667886 0.039217718 -0.019560326
0000d0 0e f2 2b 3d 70 b0 06 3c 5c c7 56 bd ac a4 40 3b
       0.04197889 0.008220777 -0.052436218 0.0029395027
0000e0 96 fb e5 bb 20 73 a1 bc 01 26 3b bd 00 20 4a 3b
       -0.007018517 -0.019708216 -0.04569054 0.0030841827
0000f0 11 a4 2d bd d0 ec d1 bb 3d eb f0 3b 11 a2 15 3c
       -0.042392794 -0.006406404 0.0073522613 0.009132878
000100 69 55 74 bd 3d 75 2f 3d 80 fd ff 3b f2 54 5f bd
       -0.059651766 0.042836417 0.007812202 -0.05452437
000110 21 da 0c bc e0 6d 31 3d dd 48 2a bc f3 db 8c bd
       -0.008596928 0.043317676 -0.0103933485 -0.068778895
000120 94 1f e1 3c c8 67 22 bc b8 d9 20 3d 5c b0 37 bd
       0.027480878 -0.009912439 0.039270133 -0.044845924
000130 ad 56 80 bd e0 6c c3 bc 42 51 6f 3d a8 17 01 bc
       -0.06266532 -0.023855627 0.058427103 -0.007879175
000140 81 18 0a bd f6 48 20 3d d9 be 5e 3d 0c d3 57 bd
       -0.033714775 0.03913208 0.054381225 -0.052691504
000150 37 60 1e 3d ea 45 7d bd fd 9e 97 bb 9c 1f e4 bc
       0.038665976 -0.061834253 -0.004627107 -0.027847104
000160 dd 08 5e bd fe ed 48 3d 4f da 3e 3d 23 25 91 bc
       -0.05420767 0.049055092 0.046594914 -0.017717903
000170 54 a3 00 3d ea 41 64 3d 7f 01 16 bd 1f 31 5f bd
       0.03140576 0.055726923 -0.03662252 -0.054490205
000180 06 ce e4 ba c8 49 3c bc 47 3e 71 bd 30 cd 59 bd
       -0.0017456419 -0.0114922 -0.058897283 -0.053174198
000190 11 35 1b bd 69 af cf 3c 50 a7 dd 3c d8 2e 3b bc
       -0.037892405 0.025352197 0.02705732 -0.011424743
0001a0 e2 44 64 bd 18 b3 1a bc 96 db 3a 3d b0 27 7e 3d
       -0.055729754 -0.009442113 0.04561957 0.062049568
0001b0 19 19 17 bd be 80 9b 3c 9a 17 3d bd 33 9e 41 3d
       -0.03688917 0.018982287 -0.046165086 0.04727001
0001c0 fa 7b 1b bd c8 b7 f5 3c fb 17 ef bc c8 1e f1 bc
       -0.03796003 0.02999486 -0.02918624 -0.029433623
0001d0 f2 91 32 3d 27 98 4e 3c c8 6a 65 3d d8 75 4f 3d
       0.043596216 0.012609518 0.056010038 0.050649494
0001e0 36 da 32 bd 1d 2d 9c 3c d9 8d 60 3d f0 45 d5 3b
       -0.043665133 0.01906448 0.054822776 0.0065085813
0001f0 72 af 63 bd 48 11 03 3d 80 39 17 3c 5a d3 0d 3d
       -0.05558724 0.031998903 0.009230018 0.03462539
000200 20 6f 4f bb 39 0d 1f bd 20 9e c1 bc 89 66 e6 bb
       -0.003165193 -0.03883097 -0.02363497 -0.007031266
000210 01 6c 2d bd 2c 40 a2 bb 35 ec 29 bc 45 7b 09 bd
       -0.04233933 -0.0049514975 -0.010371258 -0.033564825
000220 07 5d 46 bc 20 5d 59 3d f8 27 46 3d 84 16 ed 3c
       -0.01210714 0.053067327 0.04837796 0.0289414
000230 95 2b 36 3d 3f 40 b6 bc e6 25 40 bd 1f 9b 8f 3c
       0.044475157 -0.022247432 -0.046911143 0.017530022
000240 96 30 10 3d 68 c2 4e bd 94 44 26 bd 66 bf 25 3d
       0.035202585 -0.05047837 -0.040592745 0.040465735
000250 51 46 1a 3d 18 ac 16 3d e8 e2 65 bc 84 7f 51 bd
       0.037664715 0.036785215 -0.014031149 -0.051147
000260 65 b8 a6 3c 9a 8b d1 bc fd aa 05 3c 2f 78 48 bc
       0.020351598 -0.025579263 0.008158443 -0.012235685
000270 9b cd 49 3d 80 fc 01 ba 16 46 37 bd 10 83 2d bd
       0.049268346 -0.0004958585 -0.044744574 -0.04236132
000280 7d c4 5c 3d 6a b2 4f 3d 78 f7 9e bc c8 aa 8d 3c
       0.053898323 0.05070726 -0.019405112 0.017293349
000290 0c f8 30 3d b8 09 a8 3c 08 90 e0 3c 83 83 25 3c
       0.043205306 0.020512447 0.02741243 0.010102156
0002a0 a1 ed 5b bd 32 d9 5c bd c8 d4 5e 3c bd 39 73 bd
       -0.053693417 -0.05391807 0.013600536 -0.059381235
0002b0 eb 29 27 3d 6a 47 06 3d 74 3d ff 3b 98 0b 6f 3c
       0.04081146 0.03278295 0.007789308 0.0145901665
0002c0 7e 59 25 3d a0 53 88 bc 80 0a 60 3a 45 3b fb bc
       0.04036855 -0.016641438 0.00085464865 -0.03066791
0002d0 44 2e 9d 3c 41 48 0f bd 36 70 25 3d 88 58 c8 bc
       0.0191871 -0.034981016 0.040390216 -0.024456277
0002e0 b6 47 74 bd c0 ad ac 3c 8b c3 59 bd 08 e9 00 3d
       -0.0596387 0.021078944 -0.053165 0.031472236
0002f0 60 0e 25 bd 0f ef 26 bd 54 2a 9e bb c0 ff 80 ba
       -0.040296912 -0.040755328 -0.0048268232 -0.0009841844
000300 f8 94 06 3c af b5 68 bd dc 10 88 bc 16 2d cd 3c
       0.008214228 -0.056813892 -0.016609602 0.025045913
000310 a8 03 7c bd 95 8e f1 3c 20 ad c1 3c 7c 8a af bc
       -0.061526924 0.029486934 0.023642123 -0.02142834
000320 58 e0 db 3b d2 57 54 3d 05 ff fc bc 30 55 d9 3b
       0.0067100935 0.051841564 -0.030883322 0.0066324696
000330 9d de 2d 3c 3b 49 42 3d 3a e2 42 bd 13 54 84 bc
       0.010612157 0.04743312 -0.047579028 -0.016153371
000340 5d 41 42 3d cc 9b 96 bc 49 3d 64 bd 89 24 41 3c
       0.047425617 -0.018384837 -0.05572251 0.011788496
000350 a0 2a f2 3b 19 48 25 bd 3a d0 2c bd bd 30 48 bc
       0.007390335 -0.04035196 -0.042190768 -0.012218651
000360 80 92 89 3a d8 66 95 bc 86 6d 12 bd e1 8a 35 3d
       0.0010495931 -0.018237516 -0.03574898 0.0443219
000370 32 17 62 3d 46 b9 43 bd b8 46 be 3c 86 05 6a 3d
       0.055197902 -0.047784112 0.02322708 0.057134174
000380 3f d6 0b 3d d0 86 79 3d 15 ae 3e 3d 30 4d f8 bb
       0.034139868 0.060919583 0.046552736 -0.007577561
000390 3e f5 0a bd b8 5e dc bc 72 4c 2c 3d 55 b4 3b bd
       -0.033925287 -0.026900634 0.04206509 -0.045826275
0003a0 40 9c 3b 3b 31 88 b4 bc f4 85 51 bb ec 4c 8e bd
       0.0028627068 -0.022037597 -0.0031970711 -0.069482654
0003b0 83 d4 5d 3d 2a 50 c5 bc 3c 7a a5 3c 22 cf 35 3d
       0.054157745 -0.024086077 0.020199887 0.04438699
0003c0 e5 07 06 3b 30 f9 63 bc e5 2a 28 bc ee 1f 53 bc
       0.0020451483 -0.013914391 -0.010264133 -0.012886031
0003d0 b7 2e 92 bc 5e 4a 54 3d 52 75 29 3d a6 81 2b 3d
       -0.017844541 0.051828735 0.04137165 0.04187169
0003e0 30 ef 19 bc 08 51 9b 3a b4 c0 a7 bb 4b c8 4b 3d
       -0.009395406 0.0011849711 -0.0051194075 0.04975156
0003f0 b0 1f 05 bc c0 c3 aa 3c 70 05 18 bd 71 88 7b 3c
       -0.008125231 0.020845294 -0.03711456 0.015352354

bias f4 [128]
000000 68 92 22 3d 74 7c a3 bc 5a 88 35 3d bb 52 6a bd
       0.039690405 -0.019956805 0.044319488 -0.057207804
000010 20 6c 79 3d a2 18 ad bc 95 50 7a 3c 4d 64 9b bd
       0.06089413 -0.02112991 0.015278001 -0.0758749
000020 91 38 1b bd 35 cd 42 3c 01 65 d3 bd 46 19 0d 3e
       -0.037895743 0.0118897455 -0.10321999 0.13779172
000030 d0 01 46 3c 95 73 05 be cd 63 04 3e 77 b4 d3 3d
       0.012085393 -0.13032372 0.12928696 0.10337155
000040 b2 72 7f bc 39 a4 34 3e 48 49 23 bd 9d 8f 86 bc
       -0.01559131 0.17640771 -0.03986481 -0.016425902
000050 5b 0b a0 bc dd 72 d0 3c f9 ac 32 3d b9 57 bc 3d
       -0.019536665 0.025445396 0.04362199 0.09196419
000060 a3 7f a5 3d 10 58 12 bd c9 30 98 3b 5a b7 b8 3d
       0.080809854 -0.035728514 0.0046444875 0.090193465
000070 bd 8e a0 bc f7 f8 82 bd 90 cf 79 3c 96 74 d0 bd
       -0.019599313 -0.063951425 0.015247241 -0.10178487
000080 34 6e 21 bd b6 e3 05 3d e8 3c 99 3d 47 e3 0e bd
       -0.03941174 0.032687865 0.0748232 -0.034884717
000090 f5 c9 df 3c b0 4f b9 bd 58 84 75 3d ea 9c 85 bd
       0.02731798 -0.09048402 0.059940666 -0.065240696
0000a0 1d 0a c5 bd 11 3e 8e bd 56 77 6f bd 9c 56 a3 bd
       -0.096210696 -0.06945432 -0.058463417 -0.07975504
0000b0 cb 7a 9b 3c 72 0c 03 bd a9 57 68 bc 8d 1f 46 3d
       0.01897945 -0.03199429 -0.014181056 0.048369933
0000c0 d8 04 34 3c f6 d5 39 bd 2c 85 74 3d 4b ec 29 3d
       0.010987483 -0.045370065 0.059697315 0.041485112
0000d0 18 cd 36 bc d1 72 90 bd 78 08 7b bd fd d4 bc 3c
       -0.011157297 -0.070531495 -0.061287373 0.02305078
0000e0 26 75 20 bd d8 d0 b6 bd 6c 04 c8 bc d5 33 e9 bc
       -0.03917422 -0.089265525 -0.024416171 -0.028467098
0000f0 aa 19 48 bc 04 77 11 be 8b 01 b2 bc 9a 46 ee 3c
       -0.01221315 -0.14205557 -0.021729251 0.0290864
000100 fd 80 db 3a d6 6e cc 3c 70 54 d1 bc 50 3f 65 3d
       0.0016746816 0.024955194 -0.025552958 0.055968583
000110 52 81 fe 3d 74 53 f2 3b 86 15 50 bd 78 e2 85 bc
       0.1242701 0.0073952023 -0.050801776 -0.01634334
000120 f0 2e 1e 3d ae 70 a9 bd 5c 44 3a bd 69 1b fe 3c
       0.03861898 -0.08273445 -0.04547535 0.03101893
000130 d6 2a 11 3b 69 04 01 bc f3 cc 1d 3d 7a 52 be bc
       0.0022150776 -0.007874587 0.038525533 -0.023232687
000140 0d e7 56 3d cb f1 7e bd 13 73 0d bd a2 8b 5e 3c
       0.05246644 -0.06224231 -0.03453357 0.013583096
000150 13 e3 ad bb 0c 82 e3 bc 71 65 b3 bd 6d 54 57 bd
       -0.0053066104 -0.027771972 -0.08759583 -0.05257075
000160 fd e3 85 bb 2a 26 fb 3c 97 03 26 be 8a 2d 80 3d
       -0.004086016 0.030657846 -0.16212307 0.06258686
000170 d0 8f 01 3e 9c 76 9f 3c 4f 2a e8 bd 01 d0 1e 3e
       0.12652516 0.019465737 -0.11336195 0.15509035
000180 a5 e1 5d bd af 53 87 3c 63 4d 08 3d 8e 76 0c 3d
       -0.05417027 0.016519396 0.033276927 0.03429275
000190 ab 29 8c bd c1 7d 2a 3a 28 c7 d4 bd 25 2a 67 bc
       -0.06843885 0.0006503724 -0.103895485 -0.014109169
0001a0 06 e6 63 b8 3f 13 e1 bc 66 65 08 be 74 81 b7 3c
       -5.4335243e-05 -0.027474998 -0.1331993 0.022400595
0001b0 e1 1b d0 3c fd 9f 35 bd bb ff 29 be 9a df ee 3c
       0.025403919 -0.04434203 -0.1660146 0.029159356
0001c0 e7 c7 01 3e 29 a7 44 3d ab 78 db 3c 58 dd 72 bb
       0.12673913 0.04801098 0.026790937 -0.00370582
0001d0 5b c9 fe 3c 48 11 41 bd ac 58 c0 bd a4 01 06 3e
       0.031101873 -0.04713562 -0.09391913 0.13086563
0001e0 14 34 e8 3c 27 c9 95 3c d6 07 c4 bd 7e a6 e6 3b
       0.028345145 0.018284393 -0.09571807 0.0070388904
0001f0 78 5a c0 3d 43 04 1e be b7 22 b1 bc e6 dc 86 bd
       0.093922555 -0.15431313 -0.021622999 -0.06585102

weight f4 [128, 128]
000000 40 e8 a1 bd 6b a2 b5 3d 65 e0 a9 3d e0 de 9b 3d
       -0.07905626 0.088688694 0.08294753 0.076108694
000010 39 6e af 3d 8d a9 5c bd ff 31 74 3d d6 01 5a 3d
       0.08565945 -0.053872634 0.059617992 0.053224407
000020 98 37 85 bd 3e bf 43 3d 75 79 8d bd 18 f9 b6 bc
       -0.06504744 0.047789805 -0.06907932 -0.022335574
000030 24 de 9c bc b0 36 d2 bd 0a 8e 4f bd 3a f3 91 bc
       -0.019148894 -0.10264337 -0.05067257 -0.017816175
000040 4c 52 84 bd 17 df 25 3c a4 e5 84 3d 15 33 ce bc
       -0.064610094 0.01012399 0.06489113 -0.025170842
000050 24 b3 80 3d f2 f3 37 bc a7 db 8c bd 0b 68 0b 3d
       0.06284168 -0.011227595 -0.06877833 0.03403477
000060 8d 9c a0 3a 91 a3 4c bd 2a e8 40 bc c1 a6 64 3d
       0.0012253687 -0.049960677 -0.011774102 0.05582309
000070 86 f3 43 3d cf 3b 99 3c 8f c0 81 3c a7 93 f2 bd
       0.047839664 0.018705277 0.01583889 -0.11844569
000080 4b f3 4c bd 69 2a 8d 3d 3d 14 ad 3d 10 fc 83 bd
       -0.05003671 0.06892855 0.08451126 -0.064445615
000090 fe dc ba 3d 0d 96 72 3d bb 7e 37 3d 0d cd ea bd
       0.09124182 0.05922513 0.044798594 -0.114648916
0000a0 59 4c 26 3b 4a 11 48 ba 68 53 0c 3d 47 ee 72 bd
       0.0025375097 -0.0007631971 0.03425923 -0.05930927
0000b0 6f 64 72 3d e2 e2 43 3a d8 fa a4 bd 5b 43 e7 bc
       0.059177812 0.0007472468 -0.08055657 -0.02823036
0000c0 45 d4 9e bd b6 6c 12 3d c1 32 79 ba 33 2a d7 bc
       -0.07755331 0.035748206 -0.0009506159 -0.02626524
0000d0 2e 5b 59 3d cc f0 b1 3d 44 47 9f bd 7b 31 46 3d
       0.05306547 0.086885065 -0.07777265 0.048387032
0000e0 b1 15 0d 3d 6e e6 59 3c 98 75 90 3d bf 16 93 3d
       0.034444515 0.013299568 0.07053679 0.07182073
0000f0 77 5c 97 3c a6 2c 90 3b e0 b5 98 bd 2e 25 95 3d
       0.018476708 0.0043998538 -0.07456565 0.07282482
000100 87 c3 82 3c 2e 23 86 3d ca 34 92 bc ac bf 89 3d
       0.015962375 0.06549679 -0.017847437 0.06726012
000110 dc 0f 78 3d 3d bb 82 bc 5b 73 7f 3d 15 4b be 3c
       0.060562 -0.015958423 0.06236587 0.023229161
000120 9b df 45 bd 3d 39 67 bd 63 56 80 3d 05 c7 bb 3d
       -0.04830895 -0.05645107 0.06266477 0.09168819
000130 64 c9 a4 3d d4 67 b9 3d 12 95 82 3c d0 20 93 3d
       0.08046225 0.09053007 0.015940223 0.07183993
000140 7b 50 55 3d 20 b4 d3 3c d3 c3 8b 3d 5a 77 1e 3b
       0.052078705 0.025842726 0.0682446 0.0024180026
000150 c3 1c 82 3d 17 30 f8 3c f3 be c3 bb e7 e7 a2 3a
       0.06353142 0.030296369 -0.0059736907 0.0012428731
000160 8e e0 c2 3c 17 a6 04 bc b9 3b 37 3c db 94 1d 3e
       0.023788717 -0.0080962395 0.011183673 0.15388815
000170 16 e8 64 bd ab a8 a9 bd d8 97 98 3d 4d 9c 27 3e
       -0.055885397 -0.08284124 0.07450837 0.16368218
000180 43 d2 8f bc 30 50 ae 3a fc bd c4 3c a6 c9 42 3d
       -0.017556315 0.0013299044 0.024016373 0.04755559
000190 5f 65 b1 bc 9e 19 3a bc c8 0e 70 3b 84 d7 8c 3d
       -0.021654783 -0.011358647 0.0036629904 0.06877044
0001a0 83 50 9f bd a4 ad 92 3d bf 54 b8 bd 92 77 04 3d
       -0.07779028 0.071620256 -0.09000539 0.032340594
0001b0 22 b6 e0 bc f4 28 66 bd 94 9d bb bd 5d 75 9f bd
       -0.027430598 -0.0561914 -0.09160915 -0.07786057
0001c0 47 4c 0f 3b 43 2d 63 bd 2f 85 9e 3c f0 4b 83 3d
       0.0021865533 -0.055463087 0.019350616 0.06410968
0001d0 e5 f0 b3 3c 09 48 e4 bc 53 a2 46 bd 9c e2 4c bd
       0.021965453 -0.02786638 -0.04849465 -0.0500208
0001e0 99 4a 32 bd 3a 3c 47 3c b9 81 25 bd bc 83 ab 3d
       -0.043528173 0.012160355 -0.040406916 0.08374736
0001f0 7d 48 60 3d 2f 69 0c 3d 22 60 57 3d a9 97 b4 bb
       0.05475663 0.03428 0.052581914 -0.0055112434
000200 5e b8 a3 3d b6 9c e3 bc 03 4f 23 3d 6b df 42 bd
       0.079941496 -0.027784687 0.039870273 -0.04757635
000210 6a b7 dd 39 76 c3 43 3d 15 01 bd bd 1d 30 ce bb
       0.0004228906 0.047793828 -0.09228722 -0.0062923566
000220 0b 21 32 bd 93 3c 3c bd ed af 90 bd 78 9a c1 3d
       -0.043488543 -0.045956206 -0.07064805 0.09453291
000230 01 d5 ea bc 06 95 c1 3c 2e 77 27 bd 03 6c 4c bd
       -0.028666021 0.02363063 -0.040885143 -0.049907696
000240 5a b3 a5 3d bf 8c de 3b 4a 7a ff bc b7 73 b7 ba
       0.08090849 0.0067916806 -0.031186242 -0.0013996278
000250 61 0d e2 bc e8 76 0a 3d 0c 09 0a 3d 09 23 20 3d
       -0.02759427 0.033804804 0.033700034 0.039095912
000260 31 10 a9 bb 9f 6e 71 3c 9a 4a 7d 3c 52 e1 a3 3b
       -0.005159401 0.014735847 0.015459681 0.0050012255
000270 2b 23 a2 3c 46 e1 4b 3c 8b 9e fd 3c f4 9a f7 bd
       0.01979216 0.012443846 0.030959388 -0.12090102
000280 07 25 04 bd 49 6e c9 bc 8b a8 5d bc cc a5 21 bb
       -0.032261875 -0.02458872 -0.013528953 -0.0024665473
000290 29 d8 09 bb 82 b8 db bc 11 dd af bd ef 4c dc bd
       -0.0021033383 -0.026821379 -0.08587087 -0.107568614
0002a0 b1 4d a2 3b ae 3b 01 bd fb 2a b2 3d 12 e7 00 3b
       0.004953109 -0.031551056 0.08699604 0.0019668979
0002b0 95 58 39 3d 71 c7 98 3b 89 59 88 bd a5 8c fa 3c
       0.045250494 0.004662447 -0.066577025 0.030584643
0002c0 aa 74 8a 3d 70 fb ae bd 55 41 49 3d 07 c6 0c 3d
       0.06760533 -0.08544052 0.04913457 0.03436854
0002d0 b8 41 20 bd 92 5d bf 3c e0 6a 8d bd 41 ea 74 3d
       -0.039125174 0.023360047 -0.069051504 0.059793714
0002e0 dd 86 49 bd b5 3b 8a 3d 7d 0f 94 bb 93 74 8f 3d
       -0.04920088 0.067496695 -0.004518448 0.07004657
0002f0 1c 93 a6 bd 26 93 8a 3d ac 21 7f 3c 4f 63 42 bd
       -0.08133528 0.067663476 0.015571993 -0.04745799
000300 d7 c5 75 bd 95 2a 29 3d 1f 43 b7 bb ed ca 3e 3d
       -0.060003128 0.041300375 -0.0055927183 0.046580244
000310 67 96 8b 3c 38 43 19 bc 31 a3 87 3d c3 b8 9c 3d
       0.01703949 -0.009354405 0.06622923 0.07652428
000320 6d 3b 70 3d 31 15 21 bc 34 1f 54 bc ae 43 9c 3c
       0.058650423 -0.009831713 -0.0129468925 0.019075241
000330 d9 66 ac 3d aa de 30 3d 5b cf 97 bd 12 6f ab bc
       0.08418054 0.0431811 -0.07412597 -0.020926986
000340 5d bb c9 bd 41 25 aa bd 45 27 5b 3d b6 49 06 bd
       -0.0985019 -0.08307887 0.053504247 -0.03278514
000350 a7 41 f4 3c 47 b9 ac 3c 3e 57 47 3d 00 22 c8 bc
       0.029816462 0.02108444 0.048667185 -0.024430275
000360 ec a1 12 3d fa ec 2e bb f5 d1 80 bd c6 f8 5b 3d
       0.035798952 -0.0026691542 -0.06290046 0.053704046
000370 84 93 0d 3d ec dc 80 3d 2e 35 ac 3d 5c ac 4f 3d
       0.03456451 0.062921375 0.08408581 0.050701484
000380 14 4c a5 bd 36 b0 1e 3c cf 17 5b 3d 57 f2 58 3d
       -0.080711514 0.009685567 0.053489503 0.05296549
000390 78 61 89 bd 84 64 1d 3d 30 8b af 3d b0 69 40 3d
       -0.06708044 0.038425937 0.0857147 0.04697579
0003a0 83 b0 85 bc 27 8d 55 bd b6 29 c6 bc b8 77 0e bd
       -0.016319519 -0.052136566 -0.024189811 -0.03478214
0003b0 36 c5 bc bd b1 10 89 3c a8 16 8d 3c f1 2e 64 3b
       -0.092173025 0.016731592 0.017222717 0.0034818018
0003c0 61 37 18 bd 3e e1 c3 bd 40 9e 6c bd c8 48 a5 bd
       -0.03716219 -0.09564446 -0.057768106 -0.080705225
0003d0 97 85 12 3d 6e 9c 89 3d d8 23 07 be 27 74 2f 3d
       0.035771932 0.0671929 -0.13197267 0.04283538
0003e0 6e f7 5d 3d ca 30 9c bd 06 25 be bd 02 f9 66 3d
       0.054191045 -0.07626493 -0.092844054 0.056389816
0003f0 9d e0 a5 bd 04 e0 11 be fa d6 97 3d 7d 42 10 bc
       -0.08099482 -0.14245611 0.074140504 -0.008804915

bias f4 [128]
000000 1d 3d 36 3e 39 e7 fa 3c 9c 5a 8d bd a1 d1 25 be
       0.1779675 0.030627834 -0.06902048 -0.16193248
000010 e7 20 2a bd 90 78 08 3e e1 6b d5 3d eb b2 19 3d
       -0.041535284 0.13327241 0.10420967 0.037524145
000020 32 ad c1 bd 98 c5 97 bc 4a ba dc 3c ee a4 71 3d
       -0.094568625 -0.018526837 0.026944298 0.05899518
000030 76 f8 5b 3d 08 1c ed bd 3b 60 02 3b 60 cf af bd
       0.053703748 -0.11577612 0.0019893784 -0.085844755
000040 ec 81 01 bd 1d e5 0c be a0 9d 7a 3d ed 21 52 3d
       -0.031618044 -0.13759275 0.06118548 0.051301885
000050 d2 c4 1a bc d0 10 b9 3d 6b 4d 3e 3e 6a 0e c0 bd
       -0.00944634 0.0903641 0.1858422 -0.09377749
000060 26 d9 b2 bd af f7 b9 3d 40 3a a7 bc b5 f4 aa 3c
       -0.08732824 0.09080445 -0.020413518 0.020868639
000070 24 8b 8f bd 95 3a c1 3d 55 75 8f bc ec 56 e7 3c
       -0.07008961 0.09435002 -0.017512003 0.02823969
000080 09 ac c9 bc b1 40 0b 3d 76 99 52 3d 0b fc 38 3d
       -0.024618166 0.03399724 0.051415883 0.045162242
000090 66 82 f4 3d ec 90 b8 bd e7 c8 86 bd 31 45 ed bd
       0.11938934 -0.09012017 -0.06581288 -0.11585463
0000a0 64 84 39 bd 06 c5 5c 3d f5 27 51 bd b1 6f 0b bd
       -0.045292273 0.053898834 -0.051063497 -0.034042064
0000b0 db ff 08 3e f0 70 bc ba 1d c9 d8 bc 9f 5a 88 3a
       0.13378851 -0.001437692 -0.026463086 0.0010402984
0000c0 98 20 23 3c d4 de 3a 3e 72 98 10 bd 9c eb 09 3e
       0.009956501 0.18249065 -0.035301633 0.13468784
0000d0 96 1f 71 3d 6a ae 32 bd 45 d0 a4 3c 57 14 9b bd
       0.058868013 -0.043623365 0.020118842 -0.07572239
0000e0 76 79 5d 3c f9 81 d6 bb a6 50 d2 3d dd 35 83 3c
       0.013517728 -0.0065462557 0.10269289 0.016016895
0000f0 2e fa b8 3d b5 ca a8 3d cb d4 a6 3d 4f 41 0b 3d
       0.09032093 0.08241788 0.08146056 0.03399783
000100 71 02 0e 3a cd 2f 9f 3b 31 18 c9 3d 67 54 88 3d
       0.0005417234 0.004857993 0.09819067 0.066567235
000110 39 9a c0 3c 4c 7e 0b 3d d6 14 98 bd e0 cb b4 bd
       0.02351104 0.034055993 -0.07425849 -0.088279486
000120 24 35 2d 3c 63 28 42 3d 34 a8 bf bc 5f 63 b1 bd
       0.010571752 0.047401797 -0.023395635 -0.08661532
000130 7d 6c 2f 3e 7f 21 82 bd c9 d5 55 bc 36 48 ed bd
       0.17131229 -0.06354045 -0.013051459 -0.11586039
000140 5c 8b 8f 3b 91 48 06 3d 23 2f 98 bd cb 04 b6 3d
       0.0043806266 0.03278405 -0.074308656 0.08887633
000150 d7 8f 8d 3d de 94 2e bd b6 8a 02 3c db ee 0d 3e
       0.06912201 -0.04262244 0.007967642 0.13860647
000160 d2 6b 34 be 86 d2 c0 bd a3 f8 d5 bb e6 23 e6 3c
       -0.17619255 -0.09415154 -0.006529884 0.02809329
000170 f6 cf db 3c f3 d1 00 bd a7 19 7f bd 94 f3 f4 bd
       0.026832562 -0.031450223 -0.062280323 -0.11960521
000180 78 9f 73 3d 8b 2b db ba 5a 89 90 bd 4e a4 9a 3d
       0.059478253 -0.0016721351 -0.07057448 0.0755087
000190 21 9f 92 bd 61 43 58 3c c3 7e 0a 3c 0f a3 27 be
       -0.07159258 0.013199658 0.008453074 -0.16370796
0001a0 ee a6 26 3d 70 06 c4 bd 73 11 b9 bd b3 ef 0b bc
       0.04068654 -0.0957154 -0.09036531 -0.0085410355
0001b0 c2 ac 25 3e 60 58 28 3d 22 9d c5 3d df 5d c4 3d
       0.16179183 0.041099906 0.09649111 0.09588217
0001c0 c5 44 8b bd 84 0e f7 3c 3e 96 a3 3d ee 44 89 bc
       -0.06800226 0.030158289 0.07987641 -0.016756501
0001d0 fb 80 2c be 7e bf 51 bb d2 c4 42 bc ff ca a7 3d
       -0.16846077 -0.0032005007 -0.011887746 0.08193015
0001e0 a9 74 2e 3e 7b 05 12 3d 4e 16 3d bd 44 96 ce bd
       0.1703669 0.035649758 -0.04616385 -0.10087255
0001f0 39 aa dd 3d ca 1d dc 3d c2 0c 0d 3e cd 97 da 3b
       0.10823483 0.10747869 0.13774398 0.006670928

weight f4 [128, 128]
000000 50 04 0c 3d cd ff c9 bb 3d 81 d2 3a 9d 61 83 bd
       0.0341838 -0.006164527 0.0016060245 -0.06415103
000010 55 9a 82 3d 2e aa 15 3d 2a 1d 80 3d 5f a8 90 bd
       0.06377093 0.03653925 0.062555626 -0.07063364
000020 c7 8e 23 bb 7c 95 ae bd dd d1 99 3d e3 1d 8d 3c
       -0.0024956928 -0.08524606 0.07510731 0.017226165
000030 8e 59 b9 bd 34 77 e1 3c a5 3e 6a 3d 60 86 ac 3c
       -0.09050284 0.02752266 0.05718865 0.021060169
000040 77 e1 f5 bc 9f 45 df 3b a7 0c 67 3d 87 58 e3 3c
       -0.030014737 0.0068137194 0.05640855 0.027752174
000050 db 8d f1 bc 24 f1 10 bd 64 fc 70 bd a5 73 6a bb
       -0.029486587 -0.03538622 -0.05883445 -0.0035774496
000060 f3 6f 9c bd 42 45 b7 bd 61 8f bb 39 2c 29 76 3c
       -0.0763854 -0.08948757 0.00035774245 0.015024465
000070 c8 b8 da 3b a5 a1 8d 3c b0 3a 6a bd 65 8a a0 3d
       0.0066748597 0.017288992 -0.057184875 0.07838897
000080 53 b2 86 3c 8f 97 f1 3c e0 06 2e 3d c7 e9 cc 3b
       0.016442453 0.029491214 0.042487025 0.0062534544
000090 0b 88 a1 bd b5 62 09 bd 87 56 66 3d ca 94 1e bd
       -0.07887276 -0.0335414 0.056234863 -0.038716115
0000a0 25 55 af bc 14 84 1f bd 38 b7 3d bd f9 18 6f bd
       -0.021402905 -0.03894432 -0.04631731 -0.058373425
0000b0 50 43 8d bc bd ed 30 bd 97 d7 90 bd 7e 46 99 3d
       -0.017244011 -0.043195475 -0.070723705 0.074841484
0000c0 3b fb 49 ba f4 5f 93 bd 6c fd 96 bd 11 01 97 bc
       -0.0007704978 -0.07196036 -0.07372555 -0.018433126
0000d0 ca 0c 49 bd e6 98 33 bd cb b3 9e 3d 8e 3c 1f bd
       -0.049084462 -0.043846987 0.077491365 -0.03887611
0000e0 a3 4a e0 3c 74 7e e4 3c 7b 77 1d bc 16 2f 06 bd
       0.02737934 0.027892329 -0.009611006 -0.03275975
0000f0 f8 3e 85 3d dc 45 82 3d c1 bc 07 3c d7 29 94 bd
       0.06506151 0.06360981 0.0082847485 -0.07234543
000100 0d 3a 96 3c e2 be 03 3d 4e 88 ee bc 2a e2 f5 bb
       0.018338228 0.032164462 -0.02911773 -0.0075037675
000110 4c cf 8c bd 2f 5d 13 3d 07 99 81 3c 59 87 55 3d
       -0.06875476 0.03597754 0.01582004 0.05213103
000120 cc 8e 95 3d 73 29 87 bc 8a 15 8a 3d 44 da 75 3d
       0.07302627 -0.016499257 0.067423895 0.060022607
000130 30 e3 58 bd b5 d5 3c bd 4a be 44 3c 53 3b cc 3b
       -0.052951038 -0.046102244 0.012008259 0.006232658
000140 05 8f 01 bb 78 1b 06 bd 3a e3 78 bc bb 78 72 bd
       -0.0019769084 -0.03274104 -0.015190894 -0.05919717
000150 0c 49 de 3c c8 43 1c bc fc 39 0d bd 3c 81 dc bc
       0.02713444 -0.009537645 -0.034479126 -0.026917093
000160 df 32 0c bd c0 15 a9 3c f5 aa 93 3d bc 9a a7 3d
       -0.034228202 0.020640254 0.07210342 0.0818381
000170 49 76 b4 bd 88 87 82 bd 85 b7 b2 3d 0b 15 d6 3c
       -0.088116236 -0.06373507 0.0872641 0.026133081
000180 6c b3 d5 3c 2e 4e 58 3d 14 2f b6 3b b7 ed ce bd
       0.026086532 0.052808933 0.0055598114 -0.10103934
000190 21 fa 94 bd d9 60 17 3d 7e ff 68 3c 75 cd b0 bd
       -0.07274271 0.036957595 0.01422107 -0.08632938
0001a0 13 2c 58 3b 6c ce a9 3c 91 c0 41 bd cc 82 85 3c
       0.0032985255 0.020728312 -0.047302786 0.01629772
0001b0 7b 84 b9 bd 2a 22 93 bc 0b 88 3f 3c 30 82 16 bc
       -0.09058472 -0.017960627 0.01169015 -0.009186313
0001c0 41 00 3d bd dc c3 be 3c 2e 9e 63 bd 0a 0f b7 3c
       -0.04614282 0.023286752 -0.055570774 0.022346038
0001d0 53 18 7b bd 3e 65 41 3d ad 37 2c bd e8 68 3e bd
       -0.061302494 0.047215693 -0.042045284 -0.046486765
0001e0 0c d8 8a bb e9 44 4c bd cc 62 f3 3a 68 6b 2e bc
       -0.0042371806 -0.049870405 0.0018568872 -0.010645725
0001f0 50 c1 56 bd 45 1c ba bb a6 02 31 3d e3 8d eb 3b
       -0.05243045 -0.0056796395 0.043215416 0.007188545
000200 5f a7 2b bd 1b ad 62 bd e0 5e c5 3c 09 37 1d 3c
       -0.041907664 -0.055340867 0.024093091 0.009595641
000210 43 c7 94 3d 9e ab aa bd 3a 27 3e 3c a1 db cc 3d
       0.07264569 -0.08333515 0.011606032 0.100028284
000220 74 b2 b8 bc 1f a2 a7 bc 38 f3 11 bc 39 28 2f bd
       -0.02254603 -0.020463048 -0.0089080855 -0.04276297
000230 67 a3 11 b9 0e 7b f6 bc 6a ca 95 bd f0 a3 a5 3d
       -0.0001388915 -0.030087974 -0.07313998 0.08087909
000240 a5 b8 6b bd 4b 0a 03 3d 07 c5 77 bd 27 a0 bf bd
       -0.057549138 0.031992238 -0.060490634 -0.093567185
000250 8e 1f bb bd 0d 6b cb 3d e4 d2 be bd 8d e3 67 3d
       -0.09136878 0.09932528 -0.09317568 0.056613494
000260 1f 5e 61 bd 41 e6 f4 3c c4 21 24 3d 64 b7 63 bd
       -0.0550214 0.02989495 0.040071264 -0.055594817
000270 30 93 b4 bd cc 0d f2 bd e0 03 0f 3d 74 fa a6 3d
       -0.08817136 -0.11819038 0.034915805 0.08153239
000280 6e 27 d9 bd f1 1e 8a 3c 59 e7 3e bd f9 c3 ec bd
       -0.10603224 0.016860457 -0.04660735 -0.11560816
000290 9d 1b c6 3c 64 c1 49 3c 65 ae 31 3d 6d 1e f2 bc
       0.024183089 0.012314174 0.043379206 -0.029555524
0002a0 8d bb 3f 3d 12 9a a6 3d 8f bd 8c 3d 99 e6 9b bd
       0.04680972 0.08134855 0.06872093 -0.076123424
0002b0 6e 6e f3 bd 42 64 bf bd 26 df 91 3c b8 05 de 3c
       -0.11886297 -0.093452945 0.0178066 0.027102336
0002c0 4b 3b 18 3d 74 2a 4a 3d ca a0 cd bd 2f 9d c4 bd
       0.03716592 0.049356893 -0.10040434 -0.09600293
0002d0 e7 12 a8 3d d5 ba ed 39 2d 12 38 bd f6 74 ac 3c
       0.0820673 0.00045343363 -0.04493921 0.021051865
0002e0 3e e4 98 bd af 1b ba 3d 04 20 3b 3c 35 dc 50 bd
       -0.07465409 0.090873115 0.011421207 -0.050991256
0002f0 ea 6b 6f bd 67 47 ba 3c ed 64 71 bd 41 c4 34 3d
       -0.058452524 0.022739125 -0.05893414 0.044132475
000300 c3 13 37 bb fd e9 ac 3d ca 54 c5 3c 89 c6 f0 3c
       -0.0027935363 0.08443067 0.024088282 0.029391544
000310 09 a6 f9 bc bc b4 d5 bd 62 e8 5d ba 20 78 b2 bd
       -0.03047468 -0.10434863 -0.00084651087 -0.08714318
000320 b2 73 06 bd 04 72 a3 bd 89 5f ed 3d f9 00 b3 3c
       -0.03282518 -0.07980731 0.115904875 0.02185105
000330 78 9d 40 3c f9 3f 1e bd 2b c2 49 bd fc a4 80 bc
       0.0117562935 -0.038635228 -0.04925744 -0.01570367
000340 38 a4 03 bb c6 a6 30 bb 6f 6f f1 3b 0e bf 3c bd
       -0.0020086896 -0.0026954873 0.0073680202 -0.04608064
000350 6b 6d 59 3d c8 75 8e bd 51 8d fc bc ae 96 74 3d
       0.053082865 -0.06956059 -0.030829104 0.05971401
000360 57 3d fa 3b c2 07 0d bd 5f ae da 3c 4f 13 a1 3d
       0.007636707 -0.034431227 0.026694475 0.07865011
000370 2d f6 95 3c e8 f1 9a bd 8d e0 8a bc 8d 58 9b 3d
       0.018305862 -0.07565671 -0.016952777 0.07585249
000380 c5 1c 8d bd fc d2 c7 3d 61 93 08 bc 57 cd fe bb
       -0.06890253 0.09757039 -0.008335919 -0.0077759433
000390 c1 cf c6 bd fa f0 bb 3c ca b2 bc bc e2 91 5d 3d
       -0.09707595 0.022942055 -0.023034472 0.054094203
0003a0 ca 59 54 3d 9a 0e b1 39 1a 77 30 bd 2b 68 f1 bc
       0.051843442 0.0003377095 -0.043082334 -0.029468616
0003b0 e4 c3 ab bd 21 e9 e3 bc b1 73 f6 bc 2f 41 b9 bd
       -0.083869725 -0.027821125 -0.030084463 -0.09045636
0003c0 c0 92 6e 3d 40 ca d3 bd 0d 21 57 3d 64 be b1 3c
       0.05824542 -0.103413105 0.052521754 0.02169723
0003d0 7a 49 79 bd 1c 46 b9 3d 03 28 89 bd 08 d5 7b bd
       -0.06086109 0.090465754 -0.06697085 -0.06148246
0003e0 f2 4c e1 bc b9 a9 1d 3d e1 20 49 bd 4d ed 2f bd
       -0.02750251 0.03849194 -0.04910362 -0.042950917
0003f0 db bc b7 bd 26 57 64 bd cc b3 cb bd 48 2a 61 3c
       -0.08971568 -0.055747174 -0.09946403 0.013742991

bias f4 [128]
000000 c8 e2 87 3c 52 d1 5b bc 6d 3e 04 bd 0b e4 24 3d
       0.01658763 -0.013416605 -0.032286096 0.04025654
000010 62 52 d9 bc 76 20 8e 3b 6e fe b4 bd c9 c6 3b 3e
       -0.026528541 0.0043373657 -0.08837591 0.1833755
000020 0e 65 34 bd fa 53 f9 bb 87 57 9a 3d 95 77 2f 3d
       -0.044041686 -0.0076088877 0.07536226 0.04283865
000030 a1 51 77 bc f0 5f 91 3d 64 40 39 bd 1f f8 c4 bc
       -0.015095145 0.07098377 -0.045227423 -0.024044095
000040 3f 15 e5 ba e3 b6 a1 3d b9 0c 72 bd 6b 1b 77 bb
       -0.0017477645 0.07896211 -0.059094165 -0.0037705551
000050 83 9b a7 bd 24 ff b2 bd 95 46 bf 3d 2d aa e7 bc
       -0.081839584 -0.087400705 0.09339634 -0.028279388
000060 ff 3d a6 bd 31 ba ef bc ec e3 37 bc 23 7a 49 bd
       -0.081172936 -0.029263588 -0.011223774 -0.049188744
000070 f2 65 18 3e 1f 80 30 bd 99 41 8c 3d ba 71 5a 3b
       0.14882639 -0.043090936 0.06848449 0.0033331946
000080 7c 5a d2 3c 5d 2e 6d 3d 5d 5d e9 3c 38 b7 9c 3c
       0.025677912 0.057905544 0.028486902 0.019130334
000090 77 86 86 bd 09 3c 7c bd c5 07 04 3e 78 f7 98 bd
       -0.06568616 -0.06158069 0.12893589 -0.07469076
0000a0 13 fc 31 bd 1c 6e 4f 3c 2d c9 42 bd c1 89 43 bd
       -0.043453287 0.012660529 -0.047555137 -0.047738794
0000b0 93 58 c6 3d d8 61 be 3d c5 aa 02 3e 99 fb 69 bd
       0.09684863 0.09296006 0.12760456 -0.057124708
0000c0 c8 0f 47 3b c5 e3 99 ba ca 84 d1 bd a6 3a f7 3d
       0.0030374397 -0.0011740854 -0.10230406 0.12071733
0000d0 42 a3 3f 3b 94 49 14 bd de 2e 62 3d 7b 3b c3 3d
       0.0029241596 -0.036202982 0.055220477 0.095328294
0000e0 a2 75 4a bd d3 7a 7d bd f3 27 cd bc 6b 39 d6 bc
       -0.04942859 -0.061884712 -0.025043463 -0.026150426
0000f0 e0 3f 86 3d 5b fe 52 3d a6 7e 69 bd 0d 91 a5 bd
       0.06555152 0.051512104 -0.057005547 -0.08084307
000100 3b 80 83 bd 02 f2 8b bd 34 d9 05 3c a9 1b 83 bd
       -0.064209424 -0.06833269 0.008169461 -0.0640176
000110 1d fb 19 3c 9e c5 31 3e 8c 2d 10 bd 3e f7 ea bc
       0.009398249 0.17360541 -0.035199687 -0.028682347
000120 cd f9 70 bb 88 98 cc bd b5 76 b0 3b 12 1d 73 3d
       -0.0036769987 -0.099900305 0.0053852447 0.059353895
000130 ba 2e 15 3e 59 f9 8b bd f4 82 a1 3c d3 9e 8c 3c
       0.14568606 -0.06834669 0.019715764 0.017165577
000140 d7 02 b2 bc 91 9e 3e 3c 11 75 88 bd 09 d0 ff bd
       -0.02172987 0.011634485 -0.06662954 -0.124908514
000150 fc 32 b9 bd 2c a7 3c 3d 46 de db 3c fb a9 b1 bd
       -0.090429276 0.046057865 0.026839387 -0.08674999
000160 f6 2b c0 3d c4 55 b6 bc ee 35 b7 3c 37 4b 01 bd
       0.09383385 -0.022257693 0.022364583 -0.03156587
000170 56 35 86 3d be d6 2a bd 38 3c 69 bd ca f4 17 3e
       0.06553142 -0.0417087 -0.056942195 0.14839473
000180 e3 fe bf 3d 20 df 74 3d a0 0e 98 3d 31 42 a6 3d
       0.09374788 0.0597831 0.074246645 0.08118094
000190 62 aa 22 3d c9 14 2f 3e 03 c2 dc bc 22 00 de 3c
       0.03971327 0.17097773 -0.02694798 0.027099673
0001a0 90 5b b5 bc 06 fe 17 3e f9 d4 6e 3d d7 fc f3 3d
       -0.022138387 0.14842996 0.058308575 0.1191346
0001b0 33 52 df bd c9 64 b0 bd f8 e9 8d 3d e6 a3 1a 3e
       -0.1090435 -0.08612973 0.069293916 0.15101585
0001c0 19 7f 7f bd ad a9 9e 3d 08 49 e4 3c b5 09 ed 3d
       -0.06237707 0.07747207 0.027866855 0.11574117
0001d0 d1 d0 8f 3d dc 8f 9f bd 5b 5f 9f bc 4d 85 a6 bd
       0.070222504 -0.07791111 -0.019454649 -0.08130894
0001e0 99 35 a5 3b 85 bf c9 bd b7 30 a4 bc 4b cd bd bd
       0.0050417897 -0.098509826 -0.02004276 -0.09267672
0001f0 02 53 36 bd 53 de 4c bd f0 f8 af bd 40 0a f6 bd
       -0.044512756 -0.050016712 -0.08592403 -0.12013674
