DeepControlledLearning/PolicyWeights/lost_salespoisson_p39_l3_N5000_DCL0/cl_gen.pth (torch, 284166 bytes, 10 tensors)

weight f4 [256, 3]
0.4067035 0.045088712 0.3261458 -0.17521073 0.53087336 -0.2631287 0.44157287 -0.12627156
-0.34657237 0.2589501 0.23011886 0.17795864 0.24453245 0.037439037 0.09782013 -0.15648931
0.31676885 -0.40991077 0.2469464 -0.44597954 0.18537536 0.22452958 -0.29112995 0.26692066
0.24944709 0.28484303 -0.32476726 -0.27154547 -0.17430936 0.49709302 0.09563947 -0.47441533
0.13022694 0.4796061 -0.14195731 -0.6173338 0.13981016 -0.2316017 -0.1871827 -0.42803255
0.30819127 0.08173579 0.37104383 -0.18137719 0.14901 0.38284454 -0.60401744 0.3782077
0.10512785 -0.027771126 0.4675118 -0.042343795 -0.012283654 0.36682206 0.061882693 -0.2634878
0.3160839 -0.50531775 0.47962916 0.012348545 -0.06159677 0.14110838 -0.18484421 -0.48700967
-0.14235808 -0.5744925 0.0059974664 0.117561914 0.36307177 -0.2717629 -0.22952476 -0.40315667
-0.14035332 -0.18936975 0.10071065 -0.14021865 -0.046611257 0.21695533 0.45889053 -0.6438225
0.29292053 0.50263137 -0.018162383 -0.21806864 -0.38665685 0.38907877 -0.06974938 0.3429705
-0.25092897 -0.12726425 -0.5204513 -0.081367105 0.10254802 -0.42560244 -0.5387933 0.5874722
-0.03021086 0.04156959 0.4283143 -0.043907017 0.39958844 0.08535341 0.41515678 0.16774945
-0.4322954 0.29262945 -0.47828066 0.33925703 -0.5174608 0.3316151 0.18457589 0.38119844
-0.2838758 -0.4509335 0.43602407 -0.27104762 -0.14653128 0.0426166 -0.42485437 0.36342406
0.07634679 0.17480302 0.22704428 -0.21549337 -0.41277426 0.06862922 -0.5573322 0.147625
0.21223474 0.0658112 0.085719146 0.33485654 0.17563306 0.3810335 -0.28970578 0.4007181
0.24614866 -0.23796597 0.09020924 -0.5709576 -0.35860756 -0.056102663 -0.4843259 0.2380686
-0.24873665 -0.52558845 0.15023233 0.45514393 0.062144116 -0.46791512 -0.56135166 -0.25930357
-0.49230966 0.29547498 -0.48497307 -0.58449864 -0.13431808 -0.52209556 -0.06713062 0.093726195
-0.22568974 -0.5416251 -0.2545977 -0.31081995 -0.4761206 0.4025546 0.12442802 -0.2876659
-0.55779517 -0.2950998 -0.49226934 -0.10777148 0.45197374 0.27658814 0.1487376 -0.053603876
-0.13244157 -0.59555995 0.43299207 0.18159826 0.0016785854 -0.07906716 -0.24118724 -0.15604547
-0.07719394 -0.2050608 0.3923605 -0.53695595 0.4923277 -0.37122267 0.09940916 -0.46505606
-0.47466487 -0.2046038 -0.17147526 -0.5304845 0.22937031 -0.327665 -0.39473036 -0.054513864
0.51487184 0.10700699 -0.40495288 -0.6403874 -0.113691695 -0.1860447 0.16821064 0.3480824
0.19488752 0.3789147 0.49112698 -0.603224 0.2683345 -0.43496907 -0.39208058 -0.38149557
0.12050443 0.2526498 -0.2813151 -0.39953476 0.40319204 -0.21182969 0.34362072 -0.05441751
-0.032048214 -0.41446528 0.30652225 -0.14811797 -0.5713428 -0.42003793 -0.15859711 -0.2672685
0.28457436 -0.1956488 0.004245612 0.043169335 0.2871825 -0.32529125 0.35650897 -0.40005088
0.36043307 -0.4701332 -0.45660344 0.42088443 -0.49713522 -0.13992278 -0.22521952 0.17074029
0.033649188 0.2449295 -0.008711817 -0.5132551 0.4813672 -0.32661977 -0.5285142 -0.182362
00000000: 713b d03e f1ae 383d 95fc a63e 716a 33be
00000010: 51e7 073f ceb8 86be d715 e23e 554d 01be
00000020: ef71 b1be 1c95 843e 47a4 6b3e ca3a 363e
00000030: b766 7a3e ad59 193d ec55 c83d bc3e 20be
00000040: 872f a23e d3df d1be 84df 7c3e 6e57 e4be
00000050: 0ad3 3d3e 15eb 653e fc0e 95be d3a9 883e
00000060: 0f6f 7f3e f2d6 913e e547 a6be 0208 8bbe
00000070: 277e 32be fa82 fe3e a0de c33d 91e6 f2be
00000080: 365a 053e ee8e f53e 425d 11be 9709 1ebf
00000090: 652a 0f3e ff28 6dbe d2ac 3fbe 1527 dbbe
000000a0: 3fcb 9d3e 1865 a73d 75f9 bd3e f1ba 39be
000000b0: 1496 183e 3304 c43e e3a0 1abf 71a4 c13e
000000c0: 454d d73d 4680 e3bc b55d ef3e b070 2dbd
000000d0: 6141 49bc 1ad0 bb3e b578 7d3d dfe7 86be
000000e0: c0d5 a13e 815c 01bf f491 f53e 8d51 4a3c
000000f0: e54c 7cbd b77e 103e cd47 3dbe 5559 f9be
00000100: 51c6 11be f111 13bf 6586 c43b 4dc4 f03d
00000110: 8be4 b93e 8224 8bbe 8a08 6bbe 8d6a cebe
00000120: c8b8 0fbe 25ea 41be 6341 ce3d 7a95 0fbe
00000130: 72eb 3ebd 8a29 5e3e b3f3 ea3e 8dd1 24bf
00000140: aef9 953e 73ac 003f 47c9 94bc 634d 5fbe
00000150: e3f7 c5be 5535 c73e c3d8 8ebd d499 af3e
00000160: c379 80be 8f51 02be 4c3c 05bf cca3 a6bd
00000170: b204 d23d 90e8 d9be 5cee 09bf 9464 163f
00000180: c47c f7bc e044 2a3d 034c db3e d8d7 33bd
00000190: db96 cc3e c5cd ae3d 6e8f d43e 83c6 2b3e
000001a0: d355 ddbe 87d3 953e 34e1 f4be 19b3 ad3e
000001b0: 5078 04bf 74c9 a93e 7601 3d3e 712c c33e
000001c0: 2b58 91be c1e0 e6be 8c3e df3e c1c6 8abe
000001d0: 4c0c 16be be8e 2e3d 8386 d9be b812 ba3e
000001e0: b55b 9c3d 90ff 323e 4c7e 683e 4baa 5cbe
000001f0: 2657 d3be 7a8d 8c3d 53ad 0ebf 022b 173e
00000200: 1054 593e 06c8 863d 858d af3d 5172 ab3e
00000210: 27d9 333e d316 c33e 5154 94be ec2a cd3e
00000220: 650e 7c3e 5aad 73be 9fbf b83d 472a 12bf
00000230: 699b b7be e8cb 65bd 90f9 f7be 41c8 733e
00000240: d2b4 7ebe f78c 06bf 81d6 193e a008 e93e
00000250: d48a 7e3d 9292 efbe beb4 0fbf 70c3 84be
00000260: 0310 fcbe 7f48 973e 644e f8be b4a1 15bf
00000270: ae8a 09be 0ea8 05bf c77b 89bd 85f3 bf3d
00000280: 361b 67be f1a7 0abf a15a 82be cb23 9fbe
00000290: 14c6 f3be a31b ce3e 1ed4 fe3d f248 93be
000002a0: aacb 0ebf 5217 97be ba0a fcbe 4bb7 dcbd
000002b0: 1a69 e73e f69c 8d3e ab4e 183e bd8f 5bbd
000002c0: c39e 07be 9e76 18bf 23b1 dd3e e5f4 393e
000002d0: fb03 dc3a f7ed a1bd caf9 76be 62ca 1fbe
000002e0: db17 9ebd 75fb 51be 7ae3 c83e f275 09bf
000002f0: 6012 fc3e e610 bebe 0897 cb3d d41b eebe
00000300: 4607 f3be a983 51be 3697 2fbe d5cd 07bf
00000310: 0de0 6a3e b5c3 a7be 191a cabe ee49 5fbd
00000320: a4ce 033f 7b26 db3d fc55 cfbe 6ef0 23bf
00000330: 31d7 e8bd 8082 3ebe 693f 2c3e db37 b23e
00000340: 9890 473e 1c01 c23e ff74 fb3e e36c 1abf
00000350: 2463 893e 44b4 debe c9be c8be 6353 c3be
00000360: 07cb f63d 515b 813e 8808 90be d28f ccbe
00000370: 306f ce3e e2e9 58be 0eef af3e e5e4 5ebd
00000380: fd44 03bd cb34 d4be 7cf0 9c3e 3dac 17be
00000390: 8643 12bf 360f d7be 4867 22be 6bd7 88be
000003a0: bbb3 913e 2958 48be c61e 8b3b 54d2 303d
000003b0: 9609 933e 938c a6be 5888 b63e 78d3 ccbe
000003c0: af8a b83e 4cb5 f0be edc7 e9be 2a7e d73e
000003d0: 8288 febe eb47 0fbe f29f 66be 8bd6 2e3e
000003e0: bbd3 093d cdce 7a3e 02bc 0ebc b064 03bf
000003f0: c375 f63e b53a a7be b54c 07bf 1bbd 3abe

bias f4 [256]
-0.6083749 -0.13785547 0.6963718 -0.4859292 0.87843674 -0.1733732 -0.8432941 0.71848476
0.5602762 -0.44539687 0.7507265 -0.7979092 0.7124874 0.7255888 0.8479226 0.10576053
-1.0484562 -0.7032264 -0.14279051 0.1101764 -0.18425964 -0.4067234 -0.8223605 0.27316654
-0.051174797 0.5191916 0.73254824 -0.54197 -0.31523383 -0.5038577 -0.40676525 0.046481382
0.6244525 -0.75027084 -0.033129834 0.49007946 0.48884326 -0.4376808 -0.37175706 -0.5617434
-0.9988856 0.22933474 -0.10929266 -0.6134101 -0.88525164 0.17752682 0.42786387 0.19601975
-0.3554268 -0.3901309 -0.5073229 -0.017473293 0.12597354 0.02119859 -0.5645136 -0.49624556
0.49525553 0.22851416 0.7282706 -0.35454956 -0.13087061 0.07628606 -0.63587797 0.42864627
-0.11599178 -0.43565732 0.42646214 0.6286566 0.02218436 -0.10100596 -1.0528669 0.22910108
0.8136702 0.35157526 -0.4638979 -0.29714215 0.038649723 0.27929875 -0.6805674 -0.28301334
0.01135311 -0.7285325 0.31139857 -0.61870193 -0.70886135 -0.29176867 0.3067315 -0.64085287
0.8272312 0.4839933 0.034885947 -0.36395523 0.4448083 0.9398921 -0.3866648 0.65895146
0.7531879 -0.8098012 0.86198455 0.56863445 0.043082405 -0.6397393 -0.6354976 0.16768073
0.36623022 -0.09646986 -0.20612955 -0.44995168 0.8484289 0.1806402 -0.22441642 0.8867347
-0.4475151 0.41684768 0.17598327 -0.79116005 0.8682596 -0.37316087 -0.6339165 -0.933308
0.7809175 0.55807626 0.49562433 0.4155628 0.48240086 -0.58456784 0.30268726 0.01626753
-0.43817943 0.14329618 0.3231982 0.48370412 0.80428344 0.2441732 0.46952185 -0.3980845
-0.3577386 0.7779736 0.0564872 0.5436018 -0.041906103 0.07334401 0.57539994 0.29614547
0.77695125 -0.3981582 -0.37694448 0.81656593 0.64730924 -0.510111 -0.983786 -0.96297777
-0.858145 -0.6350067 0.6764682 -0.81346744 -0.5469286 -0.48619473 0.089536764 0.83363616
-1.0024388 -0.5105381 0.1831897 -0.90912104 -0.035484094 -0.6121133 -0.16501892 -0.40179524
-0.27186272 -0.17002323 0.02426327 0.2196441 -0.46697706 -0.19382374 0.48758346 -0.09786633
0.08914191 -0.14832805 0.43535858 -0.10970883 -0.43839312 0.17625815 -0.3465462 -0.13945322
0.031329233 -0.108711086 0.69498 -0.11184077 0.21803427 0.17777741 -0.5156172 0.38203564
-0.1409334 -0.13092364 0.47922984 0.21794207 0.74898666 -0.7340142 0.2558548 0.4622884
0.17081708 0.060781136 -0.36113825 -0.5269103 -0.43793833 0.67060846 -0.50931203 0.099400535
-0.21079563 -0.901228 -0.20687445 0.8172013 0.3354416 0.5427505 0.09344944 -0.55780745
-0.009348982 0.27927804 0.04184619 0.28740734 -0.33103287 0.89569753 0.91029006 -0.03440621
-0.7006123 -0.4680367 0.12169475 0.4496127 -0.8019406 0.50235283 -0.023923438 -0.24997179
-0.29188338 0.50238734 0.8302126 -0.8327034 -0.5453871 -0.36720148 -0.02119991 -0.8564728
0.10623567 0.20697238 0.49513096 -0.34797713 0.19745591 0.3571164 0.31655395 -0.5122747
1.0092721 -0.10852631 -0.25674555 -0.7197436 0.7171772 -0.38432592 -0.44146696 -0.6700966
00000000: 75be 1bbf fc29 0dbe 6c45 323f b6cb f8be
00000010: 3be1 603f bf88 31be 1fe2 57bf 9eee 373f
00000020: 436e 0f3f 0f0b e4be 9d2f 403f c743 4cbf
00000030: 9365 363f 30c0 393f 7511 593f fa98 d83d
00000040: d033 86bf a506 34bf ad37 12be 2aa4 e13d
00000050: 8fae 3cbe 0d3e d0be 3886 52bf 7cdc 8b3e
00000060: aa9c 51bd bee9 043f 4888 3b3f 8cbe 0abf
00000070: 5466 a1be d1fc 00bf 8943 d0be 4363 3e3d
00000080: 1edc 1f3f c011 40bf 26b3 07bd b2eb fa3e
00000090: aa49 fa3e b317 e0be f156 bebe 6ace 0fbf
000000a0: f7b6 7fbf bad6 6a3e d5d4 dfbd 7208 1dbf
000000b0: da9f 62bf 97c9 353e f910 db3e 67b9 483e
000000c0: 80fa b5be 3dbf c7be eadf 01bf 2724 8fbc
000000d0: 35ff 003e aaa8 ad3c f783 10bf e613 febe
000000e0: 2292 fd3e 9eff 693e f16f 3a3f 8587 b5be
000000f0: f202 06be de3b 9c3d e6c8 22bf 8677 db3e
00000100: 198d edbd 7a0e dfbe 3f59 da3e a4ef 203f
00000110: fabb b53c 36dc cebd 58c4 86bf 7999 6a3e
00000120: b14c 503f ac01 b43e 0784 edbe 0423 98be
00000130: 2c4f 1e3d 3f00 8f3e aa39 2ebf 20e7 90be
00000140: 6502 3a3c 1b81 3abf a26f 9f3e 4063 1ebf
00000150: f077 35bf b462 95be e90b 9d3e ef0e 24bf
00000160: 6dc5 533f f8cd f73e 91e4 0e3d 5758 babe
00000170: eabd e33e c59c 703f eef8 c5be 0bb1 283f
00000180: ecd0 403f 224f 4fbf 05ab 5c3f 0792 113f
00000190: 2d77 303d f4c5 23bf f9af 22bf 7fb4 2b3e
000001a0: 8782 bb3e fd91 c5bd a013 53be 1160 e6be
000001b0: a332 593f bff9 383e 6bcd 65be 0c01 633f
000001c0: b320 e5be 0f6d d53e f534 343e 7789 4abf
000001d0: 4346 5e3f f10e bfbe 5a48 22bf 46ed 6ebf
000001e0: 36ea 473f 16de 0e3f 79c2 fd3e a6c4 d43e
000001f0: 3ffd f63e 3da6 15bf d3f9 9a3e 7c43 853c
00000200: 0e59 e0be 3cbc 123e 3c7a a53e 11a8 f73e
00000210: 85e5 4d3f 8a08 7a3e 2b65 f03e bbd1 cbbe
00000220: 8429 b7be 4729 473f 1f5f 673d 7d29 0b3f
00000230: bca5 2bbd 6235 963d 694d 133f 61a0 973e
00000240: 47e6 463f 64db cbbe defe c0be 770a 513f
00000250: 0fb6 253f a296 02bf 66d9 7bbf b685 76bf
00000260: 64af 5bbf cd8f 22bf 052d 2d3f 673f 50bf
00000270: 8303 0cbf 84ee f8be 0d5f b73d 2e69 553f
00000280: ea4f 80bf a0b2 02bf 1596 3b3e 28bc 68bf
00000290: c557 11bd 75b3 1cbf b8fa 28be 1bb8 cdbe
000002a0: 9731 8bbe 921a 2ebe c4c3 c63c 62ea 603e
000002b0: 9e17 efbe bb79 46be 8aa4 f93e 246e c8bd
000002c0: 0990 b63d 4fe3 17be 52e7 de3e 06af e0bd
000002d0: 1075 e0be 047d 343e 816e b1be d3cc 0ebe
000002e0: 1553 003d eba3 debd 36ea 313f c60c e5bd
000002f0: 6044 5f3e 480b 363e 7dff 03bf 2d9a c33e
00000300: d850 10be d910 06be 9d5d f53e 352c 5f3e
00000310: 97bd 3f3f 5be8 3bbf 66ff 823e 11b1 ec3e
00000320: acea 2e3e a4f5 783d 1de7 b8be 98e3 06bf
00000330: 7439 e0be ffac 2b3f 4662 02bf 8292 cb3d
00000340: cfda 57be e1b6 66bf e5d6 53be 1b34 513f
00000350: 00bf ab3e b2f1 0a3f 6c62 bf3d 78cc 0ebf
00000360: 792c 19bc 88fd 8e3e e966 2b3d 0e27 933e
00000370: 247d a9be 6f4c 653f c508 693f 87ed 0cbd
00000380: 545b 33bf 82a2 efbe 193b f93d a333 e63e
00000390: fb4b 4dbf 329a 003f 16fb c3bc 9bf8 7fbe
000003a0: bd71 95be 759c 003f d088 543f 0d2c 55bf
000003b0: 7d9e 0bbf d501 bcbe 6fab adbc cd41 5bbf
000003c0: 1692 d93d 91f0 533e ce81 fd3e 0f2a b2be
000003d0: e231 4a3e f6d7 b63e 5c13 a23e 6f24 03bf
000003e0: d42f 813f 0b43 debd 2774 83be 1e41 38bf
000003f0: ed98 373f 5ec6 c4be f507 e2be 738b 2bbf

weight f4 [128, 256]
-0.04161398 -0.0025711777 -0.014326452 -0.023078201 0.01762627 0.010292833 -0.0039040418 -0.0017255377
0.050352134 0.010063162 -0.06927554 -0.06786009 0.021220377 -0.052413754 0.02967603 0.019851428
-0.013310886 -0.014895342 -0.030485243 -0.038645558 -0.019072114 -0.06069184 0.008511928 0.0022937506
0.021883868 -0.0054953997 0.028012693 -0.023854515 0.034924917 -0.0016103185 -0.029046588 0.028184297
0.03169211 -0.029132532 -0.01982604 -0.015541439 -0.060358122 0.038774002 -0.0059348135 -0.048916474
0.034291103 0.054346703 0.05086644 0.04036496 0.026102958 0.024428423 -0.045733303 0.034251444
-0.039172344 0.013611929 -0.039807454 0.025950298 0.0033558384 0.048349153 0.003067568 -0.0133073665
-0.03259462 0.03322559 0.036816716 0.032310683 -0.0521864 -0.019495979 -0.01735965 -0.0011514798
0.032075927 0.013715401 -0.055482853 0.04437255 0.039480492 -0.05080983 0.014985324 -0.057585336
-0.022499407 0.0026132658 -0.00417435 -0.0023722479 0.00041346997 -0.012567852 -0.02288143 -0.017482104
-0.03475774 0.018724704 -0.053111468 -0.020817373 0.043993853 -0.02963291 0.040985808 -0.04478731
0.05567478 0.0014959376 -0.019128282 -0.05929745 -0.020080216 0.010205947 -0.037640877 0.0077162036
0.0058640284 -0.02390932 0.029367492 0.061182246 -0.01719188 -0.06313155 -0.036658205 0.022137186
0.0051418394 -0.052895725 -0.05396706 -0.067861535 0.0029921278 0.042667665 0.008746902 0.01368026
0.0037904778 0.031201392 0.02909778 0.060259968 -0.013319468 -0.051940903 -0.04855316 0.021346107
0.011611366 -0.027579715 -0.0072615272 -0.056733645 -0.036995318 -0.03335392 0.05329272 -0.024948753
-0.025276095 0.0018002342 -0.018874347 -0.020007245 0.028140014 0.047755282 -0.010031422 -0.017632976
0.0073545463 -0.01614283 -0.015098584 -0.032509882 0.026411243 0.026485905 -0.057233434 0.024805466
-0.02846728 -0.056618992 0.05164419 -0.044088393 0.019333227 0.0537455 0.013496302 -0.05687664
-0.030700443 -0.041097187 -0.0121923005 -0.020591605 0.03914687 -0.0036125928 -0.022136994 0.03287715
-0.039724533 0.052421287 -0.056514274 -0.011978845 0.051240563 -0.041623957 -0.034857225 0.042111427
0.054684367 -0.038656425 0.029202318 -0.016188104 -0.012605675 0.01757742 -0.05526082 0.057521947
-0.01517234 0.0030765987 0.044445716 0.006083481 0.0014882928 -0.007094281 -0.042285144 -0.013455061
0.013580729 -0.03806797 0.0010239161 -0.017802618 -0.019500703 0.016302973 -0.060313158 -0.030910678
0.002904264 0.04836561 -0.0502766 -0.032086197 0.0398805 0.016156789 0.009614904 0.0508573
0.01768051 -0.063463345 0.053798217 -0.014545172 0.005631216 -0.037414033 -0.059690997 -0.044118386
0.040396728 0.057353493 0.057512745 -0.006212367 0.007100863 -0.047525324 0.018461423 0.04034472
-0.034874354 -0.033240702 -0.052722476 0.03753758 0.02745524 -0.029685905 -0.0140989255 0.05224474
0.019443246 -0.036486275 0.048478704 -0.012537688 -0.016212186 -0.013943183 -0.024565615 0.020783506
-0.025820553 -0.030490004 0.024133204 0.034204468 0.0008957237 -0.0041416246 0.015946448 0.006882133
0.058360603 0.017852375 -0.016320402 0.02967099 0.015353518 0.058115363 -0.06033072 -0.05483378
0.024397746 -0.0015732063 -0.057270583 0.042294826 -0.02301997 0.03588958 0.0093998015 0.040925972
00000000: 6c73 2abd 3481 28bb 7fb9 6abc 7f0e bdbc
00000010: f864 903c 45a3 283c f4da 7fbb 702b e2ba
00000020: 0a3e 4e3d f6df 243c 56e0 8dbd 3bfa 8abd
00000030: 5bd6 ad3c ceaf 56bd 251b f33c 769f a23c
00000040: e715 5abc 980b 74bc 30bc f9bc ce4a 1ebd
00000050: 1f3d 9cbc 0298 78bd 9d75 0b3c c052 163b
00000060: cc45 b33c c112 b4bb e07a e53c 8b6a c3bc
00000070: 6e0d 0f3d 5311 d3ba 1cf3 edbc c1e2 e63c
00000080: 96cf 013d 59a7 eebc 386a a2bc 85a1 7ebc
00000090: 143a 77bd 7dd1 1e3d d378 c2bb a45c 48bd
000000a0: d474 0c3d a69a 5e3d 5459 503d ba55 253d
000000b0: dfd5 d53c 1e1e c83c d852 3bbd 3e4b 0c3d
000000c0: 2e73 20bd 9104 5f3c 240d 23bd b895 d43c
000000d0: a0ed 5b3b c309 463d 4009 493b 2407 5abc
000000e0: f081 05bd 8e17 083d 20cd 163d 3558 043d
000000f0: 68c1 55bd 08b6 9fbc d335 8ebc 40ed 96ba
00000100: 0c62 033d 90b6 603c fd41 63bd febf 353d
00000110: 4cb6 213d f81d 50bd 0185 753c 9ade 6bbd
00000120: ad50 b8bc 5343 2b3b fcc8 88bb b777 1bbb
00000130: 00c7 d839 64e9 4dbc d671 bbbc a136 8fbc
00000140: 225e 0ebd 8d64 993c 698b 59bd 3289 aabc
00000150: e632 343d b7c0 f2bc bce0 273d e672 37bd
00000160: 3d0b 643d 5613 c43a eab2 9cbc e2e1 72bd
00000170: 447f a4bc d836 273c 522d 1abd 35d8 fc3b
00000180: 0927 c03b 7add c3bc 1894 f03c 3c9a 7a3d
00000190: fcd5 8cbc 1d4b 81bd ea26 16bd 0b59 b53c
000001a0: e07c a83b 30a9 58bd 900c 5dbd fdfa 8abd
000001b0: 9317 443b 4ac4 2e3d 2b4f 0f3c 2b23 603c
000001c0: aa69 783b 109a ff3c 785e ee3c 28d3 763d
000001d0: e639 5abc fcbf 54bd aedf 46bd 08de ae3c
000001e0: 993d 3e3c dbee e1bc 1bf2 edbb 8a61 68bd
000001f0: 6788 17bd 1f9e 08bd 7849 5a3d 5461 ccbc
00000200: d00f cfbc d6f5 eb3a 609e 9abc 3ce6 a3bc
00000210: e385 e63c 0b9b 433d d55a 24bc 0873 90bc
00000220: 68fe f03b f83d 84bc 0d60 77bc 1529 05bd
00000230: 645c d83c f8f8 d83c 9b6d 6abd d534 cb3c
00000240: 3734 e9bc 51e9 67bd dc88 533d 0896 34bd
00000250: b760 9e3c 3e24 5c3d 981f 5d3c 7bf7 68bd
00000260: 7f7f fbbc 8655 28bd 37c2 47bc baaf a8bc
00000270: 7858 203d 40c1 6cbb a458 b5bc 31aa 063d
00000280: 31b6 22bd b4b7 563d 837b 67bd eb42 44bc
00000290: a0e1 513d e27d 2abd 73c6 0ebd 087d 2c3d
000002a0: b7fc 5f3d 3356 1ebd b339 ef3c ea9c 84bc
000002b0: 0888 4ebc 86fe 8f3c 2b59 62bd 229c 6b3d
000002c0: 6895 78bc c3a0 493b b60c 363d f057 c73b
000002d0: d212 c33a 2477 e8bb 3033 2dbd 9e72 5cbc
000002e0: b581 5e3c 29ed 1bbd ec34 863a ccd6 91bc
000002f0: f0bf 9fbc d08d 853c ee0a 77bd 6438 fdbc
00000300: 7755 3e3b 051b 463d d6ee 4dbd d16c 03bd
00000310: bc59 233d 3e5b 843c d587 1d3c bf4f 503d
00000320: b8d6 903c 12f9 81bd 855b 5c3d e04e 6ebc
00000330: 1086 b83b 753f 19bd 8c7e 74bd 7bb5 34bd
00000340: 0a77 253d 7feb 6a3d 7c92 6b3d 1d91 cbbb
00000350: 5bae e83b eaa9 42bd 693c 973c 8140 253d
00000360: 69d8 0ebd 6727 08bd 86f3 57bd 01c1 193d
00000370: d0e9 e03c db2f f3bc 2eff 66bc 95fe 553d
00000380: 7147 9f3c a272 15bd 9b91 463d e06a 4dbc
00000390: 6bcf 84bc f371 64bc d43d c9bc 2c42 aa3c
000003a0: a085 d3bc 2cc6 f9bc ffb2 c53c fc19 0c3d
000003b0: 00cf 6a3a 77b6 87bb 20a2 823c 8483 e13b
000003c0: 870b 6f3d 253f 923c 5db2 85bc 9310 f33c
000003d0: 528d 7b3c 600a 6e3d 581d 77bd 6399 60bd
000003e0: c8dd c73c 0b34 ceba 8f94 6abd 573d 2d3d
000003f0: 6094 bcbc f400 133d a001 1a3c fea1 273d

bias f4 [128]
0.015899554 -0.010513614 0.08672317 0.19424497 0.011801988 0.042067654 0.006537404 0.037265517
0.00035179406 0.37933588 0.021345451 0.046311773 -0.031039514 0.0018332943 0.02529599 0.34658447
-0.013419531 -0.032454282 -0.04484781 0.019973561 -0.021878468 -0.008576516 0.018214988 -0.0037166914
-0.021725364 -0.026470056 0.40620303 0.047323413 0.020393774 -0.08556088 -0.034024477 0.0026132397
-0.019020202 -0.07575779 0.02271879 0.050370213 0.03901212 0.09185804 0.25229895 0.022363352
-0.07923058 0.017403593 0.058432728 0.017595792 -0.019181957 -0.012196009 0.34254622 0.045373768
-0.06395627 0.00028059806 0.017686095 0.1357162 0.055647526 0.28540137 0.031178584 0.064863846
-0.019569669 0.34838423 0.042549748 0.02907535 -0.047140043 0.02716036 -0.03827289 -0.03524344
0.17088239 0.18693812 0.038940713 0.17403065 0.015536994 0.021090835 0.033597242 -0.042375997
-0.04320263 0.09679405 -0.023312552 0.058433138 -0.045563128 0.048907004 -0.06310821 0.009078194
-0.030811995 -0.028940365 -0.111194566 -0.057026096 0.045111295 -0.020705927 -0.04582166 -0.008015181
0.0131971 0.34353203 0.0416647 -0.02208234 0.04289017 -0.036890365 0.063922934 -0.040617764
0.1839325 0.03255252 -0.05387269 0.01030148 -0.0022938848 -0.046795443 0.08425668 0.041070864
-0.051005896 -0.019283582 -0.060152527 0.0490449 -0.057762366 0.048478562 0.0684786 0.031252068
-0.018430928 0.13036776 -0.054261286 0.007150984 0.30843267 0.1817907 0.03911542 -0.021055842
0.04564375 0.0009856499 0.06563527 0.006741283 -0.020141622 0.01310472 0.35891026 0.04201053
00000000: c83f 823c 4b41 2cbc eb9b b13d 27e8 463e
00000010: 205d 413c 224f 2c3d b837 d63b baa3 183d
00000020: 0071 b839 5038 c23e a8dc ae3c 6ab1 3d3d
00000030: 9446 febc 264b f03a 8939 cf3c 8573 b13e
00000040: 98dd 5bbc c8ee 04bd 56b2 37bd 989f a33c
00000050: 793a b3bc 8484 0cbc 9937 953c bc93 73bb
00000060: 64f9 b1bc bbd7 d8bc d8f9 cf3e 32d6 413d
00000070: d810 a73c 8b3a afbd 405d 0bbd e342 2b3b
00000080: 41d0 9bbc e626 9bbd c21c ba3c ff50 4e3d
00000090: 2ccb 1f3d 1120 bc3d 542d 813e 5933 b73c
000000a0: a443 a2bd fb91 8e3c 2857 6f3d 0d25 903c
000000b0: 7b23 9dbc c5d1 47bc 3862 af3e d8d9 393d
000000c0: 81fb 82bd 3c1d 9339 6ee2 903c 30f9 0a3e
000000d0: a9ee 633d 2120 923e 3b6a ff3c 56d7 843d
000000e0: 9250 a0bc 6b5f b23e a548 2e3d 6e2f ee3c
000000f0: eb15 41bd 677f de3c 09c4 1cbd 6d5b 10bd
00000100: cbfb 2e3e b56c 3f3e 4c80 1f3d 1735 323e
00000110: e08e 7e3c b0c6 ac3c 439d 093d 7492 2dbd
00000120: 3ef5 30bd f53b c63d f7f9 bebc 9657 6f3d
00000130: 67a0 3abd b652 483d e13e 81bd b5bc 143c
00000140: 7069 fcbc 5814 edbc fab9 e3bd 3294 69bd
00000150: 9fc6 383d 7a9f a9bc 7eaf 3bbd 1b52 03bc
00000160: a638 583c 6ee3 af3e 9ba8 2a3d 06e6 b4bc
00000170: 9aad 2f3d 5a1a 17bd 07ea 823d d05e 26bd
00000180: cd58 3c3e cb55 053d 9ca9 5cbd 8ac7 283c
00000190: 0055 16bb 94ac 3fbd c48e ac3d ec39 283d
000001a0: 8feb 50bd 9af8 9dbc 7f62 76bd 4ee3 483d
000001b0: 3b98 6cbd 7591 463d 823e 8c3d 2b02 003d
000001c0: 75fc 96bc 207f 053e 1541 5ebd cd52 ea3b
000001d0: e3ea 9d3e 5727 3a3e 7e37 203d 4d7d acbc
000001e0: f1f4 3a3d ec30 813a c96b 863d fbe5 dc3b
000001f0: 0b00 a5bc 2eb5 563c 16c3 b73e 3c13 2c3d

weight f4 [128, 128]
0.046699405 -0.0071602645 -0.08754855 0.06899639 -0.044184204 -0.08836077 0.023114614 -0.07924508
-0.051248405 0.11812828 -0.068459935 0.07116955 -0.029758878 0.025306651 -0.04264344 0.095861346
0.058337897 -0.017551703 0.04758588 -0.04940334 -0.05211487 -0.06141942 -0.014883413 -0.013513853
0.0060628136 0.10407667 0.10491953 -0.07923567 0.083637826 -0.17452957 -0.009334815 0.10374393
0.071210474 -0.08811314 -0.012137245 -0.010785377 -0.06661421 -0.04090378 0.06880924 0.08210459
-0.019604193 -0.067431025 0.0071152835 0.008579274 -0.014810771 0.06055469 -0.006401847 -0.043791976
-0.0029621553 0.03950739 -0.0081951795 -0.034403656 0.027451474 0.012844541 0.02200117 0.022608615
-0.09823079 0.07997724 0.055390753 0.04672025 0.031783845 -0.07874297 -0.09683433 -0.017912172
0.058775324 0.06075185 -0.02751867 0.098095514 -0.028716512 -0.046196964 0.07980147 0.0688068
-0.016359864 0.03960871 -0.067136094 -0.06775381 -0.076117 0.023997318 -0.027788218 0.0033906386
0.06551533 0.04103515 0.12615897 -0.075704 -0.022702314 0.075068 -0.051861264 -0.0031410083
0.043105196 0.07296343 -0.023878628 0.064642966 -0.035936628 0.014908399 0.033589724 0.038230196
-0.04953454 0.044278592 0.020762095 -0.013292369 0.018023215 0.05965786 0.104765885 0.014914526
0.005197992 0.07565102 -0.06176981 -0.06760998 0.10038918 0.012787518 0.09295632 0.021655777
0.0400874 0.027333792 0.034045216 -0.03911568 -0.0139601845 -0.0176378 0.05307736 -0.05096049
0.03908608 0.046527945 -0.066931695 -0.025167095 0.003264874 0.055777557 0.00940915 0.08065267
-0.018582424 0.04774758 -0.06136132 -0.010803643 0.027311284 -0.04608222 -0.06573709 0.105115935
0.025816493 0.08618047 -0.068171024 -0.028763635 -0.019707572 0.0003522316 0.012580655 0.070922494
-0.008806215 0.0034287535 -0.07857366 0.029738795 -0.040295955 0.09737206 0.0007975279 0.041806653
0.057969566 0.113957435 -0.011880801 -0.036296885 0.0642706 -0.15058862 0.07548625 0.04004414
-0.066756174 -0.07064481 -0.031051818 0.023592427 -0.03137882 -0.0115556875 -0.033744004 0.035553563
-0.017642336 -0.022701422 -0.011862177 0.051351316 -0.014376805 -0.06256143 0.053758625 0.009660731
0.007347503 0.014760154 0.06728943 0.0794883 0.056578215 -0.027320553 0.0653779 0.029101111
-0.09809871 -0.07316879 0.03123641 -0.034303974 0.05355683 0.075516135 0.0029216066 0.025038755
-0.0070522046 -0.02490155 -0.059979413 0.05151952 -0.06128769 0.00027938816 0.06060519 0.035989154
-0.046137806 0.09974535 0.01687568 0.07956588 0.048201337 0.01607995 0.046864282 0.0759483
-0.050012976 -0.044536836 0.03768697 -0.059695598 0.004163848 0.024256648 -0.020102635 0.082877524
-0.023664394 0.06717433 -0.06855151 -0.022961421 -0.03750408 -0.025883608 0.01046753 -0.026091564
0.062074516 -0.045523927 0.050352313 -0.02011773 -0.06268297 0.042845573 0.10867372 0.027193936
-0.021670884 0.07138895 -0.04228135 0.02000719 0.028074058 0.08808273 -0.0036376833 0.022068756
-0.08538593 0.13246892 -0.05265726 -0.07647354 0.069735266 -0.074666426 0.029784957 -0.0013241543
0.09712658 0.05480136 0.084158204 0.044702023 -0.018295024 -0.052432824 0.083482504 0.0662501
00000000: e047 3f3d a7a0 eabb a74c b3bd fb4d 8d3d
00000010: 7ffa 34bd 7ef6 b4bd dc5a bd3c 3f4b a2bd
00000020: d9e9 51bd 3ded f13d b934 8cbd 57c1 913d
00000030: e4c8 f3bc e54f cf3c e3aa 2ebd f452 c43d
00000040: b8f3 6e3d 97c8 8fbc 69e9 423d 285b 4abd
00000050: 6776 55bd ee92 7bbd 8fd9 73bc 3569 5dbc
00000060: 91aa c63b 2626 d53d 0de0 d63d 5046 a2bd
00000070: 4f4a ab3d e1b7 32be 0df1 18bc b377 d43d
00000080: ccd6 913d a974 b4bd 4cdb 46bc 26b5 30bc
00000090: 086d 88bd b98a 27bd dceb 8c3d 7426 a83d
000000a0: f998 a0bc 4719 8abd 5327 e93b 1590 0c3c
000000b0: e0a8 72bc 3208 783d 96c6 d1bb 375f 33bd
000000c0: b820 42bb 80d2 213d 1345 06bc d9ea 0cbd
000000d0: eae1 e03c e971 523c cc3b b43c b435 b93c
000000e0: 392d c9bd 1bcb a33d 6ae1 623d bc5d 3f3d
000000f0: c72f 023d ff43 a1bd 1451 c6bd 8cbc 92bc
00000100: 65be 703d efd6 783d d56e e1bc 4de6 c83d
00000110: e43e ebbc 0739 3dbd f46e a33d 94ea 8c3d
00000120: 1f05 86bc be3c 223d a67e 89bd 82c2 8abd
00000130: 3be3 9bbd 0696 c43c 1ea4 e3bc 7a35 5e3b
00000140: e72c 863d 7914 283d d12f 013e b30a 9bbd
00000150: 34fa b9bc 40bd 993d 7a6c 54bd 60d9 4dbb
00000160: 138f 303d da6d 953d 1d9d c3bc 8863 843d
00000170: 4932 13bd 5c42 743c 6195 093d 4497 1c3d
00000180: bbe4 4abd 785d 353d 4515 aa3c 3dc8 59bc
00000190: 6ca5 933c cd5b 743d 7f8f d63d 0e5c 743c
000001a0: eb53 aa3b ecee 9a3d 5702 7dbd 1a77 8abd
000001b0: d898 cd3d bd82 513c e25f be3d 7567 b13c
000001c0: af32 243d 1eeb df3c ff72 0b3d c337 20bd
000001d0: 42b9 64bc 267d 90bc a567 593d f2bb 50bd
000001e0: ba18 203d 1694 3e3d 7c13 89bd 392b cebc
000001f0: 7ff7 553b 0277 643d d628 1a3c 3a2d a53d
00000200: 2b3a 98bc f792 433d 0256 7bbd c301 31bc
00000210: eabb df3c b6c0 3cbd 2ba1 86bd 0647 d73d
00000220: 1c7d d33c 637f b03d 409d 8bbd b7a1 ebbc
00000230: c671 a1bc baab b839 171f 4e3c d03f 913d
00000240: f147 10bc f0b4 603b 3aeb a0bd c69e f33c
00000250: 5f0d 25bd 016b c73d 3111 513a 743d 2b3d
00000260: 7f71 6d3d 8462 e93d b1a7 42bc 0bac 14bd
00000270: 4ea0 833d e733 1abe 8998 9a3d 5305 243d
00000280: 76b7 88bd 3aae 90bd 6260 febc e844 c13c
00000290: 1487 00bd 1154 3dbc 2737 0abd 9da0 113d
000002a0: a986 90bc 55f8 b9bc 9459 42bc c255 523d
000002b0: b18c 6bbc 3520 80bd 0132 5c3d 0b48 1e3c
000002c0: 53c3 f03b 93d4 713c 0acf 893d c3ca a23d
000002d0: 8fbe 673d 5acf dfbc d9e4 853d 7465 ee3c
000002e0: fae7 c8bd 85d9 95bd 80e3 ff3c 5382 0cbd
000002f0: 685e 5b3d 34a8 9a3d 6d78 3f3b 131e cd3c
00000300: 2e16 e7bb 56fe cbbc f9ac 75bd 2206 533d
00000310: cd08 7bbd d87a 9239 263d 783d 5d69 133d
00000320: fffa 3cbd 4a47 cc3d de3e 8a3c 70f3 a23d
00000330: c46e 453d 19ba 833c c3f4 3f3d c88a 9b3d
00000340: 68da 4cbd 426c 36bd a75d 1a3d 5f83 74bd
00000350: e370 883b e1b5 c63c 48ae a4bc b1bb a93d
00000360: d5db c1bc b292 893d bc64 8cbd 9719 bcbc
00000370: e19d 19bd dc09 d4bc 0180 2b3c fabd d5bc
00000380: d941 7e3d 4c77 3abd 3a3e 4e3d f0cd a4bc
00000390: ee5f 80bd d77e 2f3d 5490 de3d d1c5 de3c
000003a0: 2387 b1bc 5f34 923d 352f 2dbd 1ee6 a33c
000003b0: 91fb e53c b864 b43d 3366 6ebb 89c9 b43c
000003c0: d2de aebd efa5 073e 24af 57bd 299e 9cbd
000003d0: 5dd1 8e3d b6ea 98bd 95ff f33c 3f8f adba
000003e0: 4dea c63d 6477 603d 235b ac3d 7819 373d
000003f0: 72df 95bc cdc3 56bd e0f8 aa3d 22ae 873d

bias f4 [128]
0.14882992 0.04610045 0.28705063 0.02599658 -0.0035631582 -0.06503209 -0.016916309 0.0155182555
0.039596856 0.16403778 -0.060926575 -0.11272989 0.072029725 -0.046137195 0.026765276 -0.0980368
-0.035117444 0.11654439 -0.10499234 0.2628215 0.20794627 0.017088551 -0.10871241 0.1909906
0.15234792 -0.04764464 -0.02304406 0.104296654 0.16790897 0.2009687 0.09371536 0.22464702
0.09998301 0.20073564 -0.05238381 -0.11859373 0.096528746 -0.0007531017 0.21131057 0.066748664
-0.028469704 0.20277274 0.09796936 0.010059694 -0.13072585 0.087941274 0.2679099 0.26650608
0.107959844 0.04305043 0.09761145 0.23730782 0.01434666 0.17832777 -0.04944161 -0.14048113
0.013395785 0.13407955 0.11873763 0.16431886 0.07456633 0.2068915 0.05476989 -0.013417665
0.0009897063 0.114620194 -0.052815795 0.10618336 0.11376434 0.03169359 -0.042574152 0.1448788
0.069743425 0.08079419 0.31675294 0.039628472 0.03516909 -0.11683642 0.052989658 0.2824259
-0.0408704 0.017700033 -0.119446725 -0.031832904 0.11103021 -0.0010767659 0.22735023 0.011151414
0.30251545 -0.06164622 -0.11158554 -0.03405709 0.047487397 0.017945968 -0.048956785 0.24394059
-0.021675715 -0.10086301 0.06497411 -0.041690957 -0.12205547 -0.16874698 0.2321397 0.08714409
0.07704623 -0.021099718 -0.11054428 -0.02579192 -0.026374003 -0.11895377 0.13415755 -0.09058038
0.037318777 0.005129591 0.2912421 -0.10150275 0.007580787 -0.049796373 0.2362206 0.24583825
-0.056259397 -0.05992228 0.14653914 -0.008866988 -0.06443277 -0.071319245 -0.1466055 0.09644388
00000000: df66 183e d3d3 3c3d 4df8 923e c8f6 d43c
00000010: e083 69bb 8b2f 85bd 1294 8abc 4840 7e3c
00000020: 5030 223d 85f9 273e 258e 79bd eede e6bd
00000030: 5284 933d 5bfa 3cbd da42 db3c 85c7 c8bd
00000040: 4fd7 0fbd d3ae ee3d 3906 d7bd 8a90 863e
00000050: deef 543e 4afd 8b3c 9da4 debd 0a93 433e
00000060: 1801 1c3e 0727 43bd e6c6 bcbc 7c99 d53d
00000070: 54f0 2b3e bdca 4d3e d7ed bf3d de09 663e
00000080: e4c3 cc3d a58d 4d3e 6890 56bd 45e1 f2bd
00000090: ddb0 c53d cd6b 45ba cc61 583e 86b3 883d
000000a0: 4c39 e9bc a8a3 4f3e 29a4 c83d 6ad1 243c
000000b0: ffdc 05be 8e1a b43d 7d2b 893e 7c73 883e
000000c0: 0d1a dd3d a655 303d 83e8 c73d d200 733e
000000d0: 410e 6b3c 8e9b 363e 4983 4abd 49da 0fbe
000000e0: ff79 5b3c 264c 093e b72c f33d 3443 283e
000000f0: 3bb6 983d 5edb 533e 6456 603d c4d5 5bbc
00000100: 08b9 813a febd ea3d 6055 58bd a976 d93d
00000110: 47fd e83d 23d1 013d 3c62 2ebd 1c5b 143e
00000120: a4d5 8e3d 6d77 a53d 712d a23e 7751 223d
00000130: 770d 103d ef47 efbd af0b 593d 219a 903e
00000140: b867 27bd a9ff 903c 7ca0 f4bd 3863 02bd
00000150: cf63 e33d 4522 8dba 80ce 683e 6cb4 363c
00000160: 4ee3 9a3e bf80 7cbd f686 e4bd 727f 0bbd
00000170: 2582 423d 6c03 933c e986 48bd 90cb 793e
00000180: 4591 b1bc 4491 cebd 2511 853d 23c4 2abd
00000190: 38f8 f9bd 02cc 2cbe 08b6 6d3e 9a78 b23d
000001a0: 6aca 9d3d 51d9 acbc 0a65 e2bd 9449 d3bc
000001b0: 4b0e d8bc 099e f3bd 9960 093e 3582 b9bd
000001c0: 93db 183d 2116 a83b af1d 953e ace0 cfbd
000001d0: 4068 f83b 48f7 4bbd d0e3 713e 06bd 7b3e
000001e0: 4170 66bd 1171 75bd 5b0e 163e d846 11bc
000001f0: 54f5 83bd d30f 92bd c11f 16be 5e84 c53d

weight f4 [128, 128]
0.047275756 0.032815002 0.098500036 -0.10222965 -0.0119461045 0.018813312 -0.034837168 0.03884931
0.071142085 0.032496337 -0.030142486 -0.0058828704 0.07145119 -0.07170866 0.011374231 -0.13280839
-0.08756537 0.060576133 0.034014583 -0.025924206 0.077099085 0.09549072 0.03999022 0.054051142
0.11009253 0.1496456 0.019308237 -0.11226206 -0.043492872 0.061103534 -0.045271434 0.009413787
-0.07335354 0.02419106 0.21778773 0.04050884 0.056430373 0.019662388 0.04491511 -0.06347354
0.013613764 0.09623591 -0.099711575 -0.021727245 -0.024469143 0.09476933 0.032375753 0.13356
0.02037098 -0.04419024 0.024170086 0.086270936 0.030236967 0.10493101 -0.08050789 -0.034435976
0.05555249 0.08163213 -0.08867184 0.024172245 -0.010493114 0.043875393 -0.051186096 0.16697913
-0.08125304 0.08212523 0.11390143 -0.14151375 0.11548005 0.095006794 -0.0448803 0.11125951
-0.002376267 -0.047817696 0.10494956 -0.003594563 0.041392237 0.031979863 -0.0753053 0.04482496
-0.03512151 -0.02763687 0.05230849 0.050905 0.02830962 0.034645956 0.09790282 0.047818914
0.018568639 -0.21195497 0.17354092 0.05324967 -6.108603e-05 -0.049777932 -0.040275484 0.10482939
-0.065190606 0.039437816 0.057237856 0.06398513 -0.05252277 0.042211074 0.092026815 0.110432446
-0.04085708 0.09683804 0.022805924 0.087064095 0.04132207 0.10061416 0.12119144 -0.05175842
-0.10097648 0.09306885 -0.025618948 0.02539627 -0.06941399 -0.04773488 0.03596329 0.0023897605
-0.024107702 -0.09380805 0.028961685 0.04749689 0.00095890736 -0.0016304444 -0.03719164 -0.01651477
0.032815527 0.010233395 0.0076595703 0.07538552 0.061365586 0.020709202 -0.09658967 -0.00874571
0.05315122 0.07067685 -0.0007983879 0.01328412 0.0488156 -0.07478329 -0.02208218 0.09164109
-0.03679463 0.071033664 0.014714852 -0.104240276 -0.012123736 -0.09520436 -0.08815683 -0.10869369
-0.099095084 -0.08216616 0.07627481 0.031689145 -0.069113895 0.029179094 0.1310572 0.056633018
0.088337556 -0.004726198 -0.017649483 0.019966586 -0.057570986 -0.032847174 -0.005396674 0.06515799
0.11327224 0.047987964 -0.031405855 0.052226998 -0.03747812 0.027266908 0.043460555 -0.035345137
-0.053403396 0.01759581 -0.08339184 -0.119287476 0.05969943 0.037514105 0.04530828 -0.068599045
-0.008584475 0.013698707 -0.097241804 -0.00017171359 -0.09951236 0.0076101776 -0.0989309 -0.06710974
0.09980349 -0.09420024 -0.036872037 0.07235443 -0.041261163 -0.12142686 0.017722989 0.015889626
-0.013884226 -0.060911298 -0.07835649 0.0009943218 0.03002819 -0.02222758 -0.05706337 -0.031191668
-0.074397765 0.10633979 -0.060473207 -0.054078903 -0.12605642 0.07866857 0.04919176 -0.102006406
-0.05772246 0.081356406 0.056651253 -0.027364286 0.092864476 -0.067560986 0.080339804 -0.06750108
0.06733967 -0.011762361 -0.092854224 -0.015031825 -0.061371874 -0.08132809 0.0051394855 -0.08764067
-0.013571621 -0.054070517 -0.033186365 -0.055706352 -0.03939545 0.048560355 -0.0165301 -0.02895598
0.10302752 -0.082598984 -0.05534838 -0.11043892 0.036116336 -0.09632035 0.023710677 0.057581495
0.041655928 -0.03292742 -0.027484117 -0.009459578 -0.0059749163 -0.0294147 0.051359747 -0.06788467
00000000: 39a4 413d 0669 063d 63ba c93d c75d d1bd
00000010: 98b9 43bc 601e 9a3c 6bb1 0ebd 7420 1f3d
00000020: f1b2 913d e11a 053d 60ed f6bc 18c5 c0bb
00000030: 0055 923d fddb 92bd fc5a 3a3c ecfe 07be
00000040: 7955 b3bd ae1e 783d e052 0b3d 005f d4bc
00000050: 20e6 9d3d a390 c33d c9cc 233d bb64 5d3d
00000060: 3178 e13d b23c 193e 4f2c 9e3c a7e9 e5bd
00000070: 9525 32bd b347 7a3d 8a6e 39bd 493c 1a3c
00000080: 613a 96bd 542c c63c bf03 5f3e 99ec 253d
00000090: 8923 673d 0413 a13c e8f8 373d 6afe 81bd
000000a0: 440c 5f3c 5517 c53d 9535 ccbd 56fd b1bc
000000b0: 8373 c8bc 6c16 c23d 709c 043d f4c3 083e
000000c0: 0be1 a63c d300 35bd 5800 c63c d1ae b03d
000000d0: 84b3 f73c 12e6 d63d 52e1 a4bd bd0c 0dbd
000000e0: 028b 633d bf2e a73d 9599 b5bd df04 c63c
000000f0: 4feb 2bbc afb6 333d 83a8 51bd 94fc 2a3e
00000100: fe67 a6bd 4631 a83d 2745 e93d fbe8 10be
00000110: ce80 ec3d ec92 c23d 68d4 37bd 07dc e33d
00000120: 25bb 1bbb 7ddc 43bd cbef d63d c392 6bbb
00000130: e88a 293d 51fd 023d aa39 9abd 619a 373d
00000140: 93db 0fbd b866 e2bc 6d41 563d c381 503d
00000150: 94e9 e73c ebe8 0d3d 4681 c83d c4dd 433d
00000160: 421d 983c b90a 59be b6b4 313e 531c 5a3d
00000170: 501b 80b8 f2e3 4bbd e8f7 24bd cbb0 d63d
00000180: a782 85bd 8c89 213d 3e72 6a3d a30a 833d
00000190: 1e22 57bd 85e5 2c3d 8e78 bc3d 682a e23d
000001a0: c159 27bd 0653 c63d 7dd3 ba3c a94e b23d
000001b0: 5541 293d cc0e ce3d 3833 f83d a300 54bd
000001c0: c2cc cebd e29a be3d d4de d1bc d70b d03c
000001d0: ec28 8ebd a685 43bd 3e4e 133d 879d 1c3b
000001e0: 847d c5bc 6f1e c0bd 0e41 ed3c 198c 423d
000001f0: 2f5f 7b3a a3b4 d5ba 4356 18bd fc49 87bc
00000200: 9369 063d f8a9 273c 22fd fa3b b963 9a3d
00000210: 7b5a 7b3d 58a6 a93c ced0 c5bd 2b4a 0fbc
00000220: 18b5 593d 06bf 903d e84a 51ba a3a5 593c
00000230: def2 473d fb27 99bd b0e5 b4bc 53ae bb3d
00000240: f7b5 16bd 197a 913d 9016 713c ed7b d5bd
00000250: a2a2 46bc 81fa c2bd 918b b4bd cc9a debd
00000260: 5df2 cabd bb46 a8bd f835 9c3d 7acc 013d
00000270: 968b 8dbd ff08 ef3c dc33 063e 06f8 673d
00000280: 52ea b43d 39de 9abb a695 90bc f790 a33c
00000290: 8ecf 6bbd c28a 06bd 95d6 b0bb 8d71 853d
000002a0: 47fb e73d 078f 443d 6da3 00bd faeb 553d
000002b0: a882 19bd da5e df3c b203 323d 10c6 10bd
000002c0: 85bd 5abd 1725 903c 57c9 aabd fe4c f4bd
000002d0: 6487 743d 64a8 193d 2d95 393d a87d 8cbd
000002e0: e6a5 0cbc 8b70 603c b626 c7bd 040e 34b9
000002f0: 23cd cbbd cc5e f93b 499c cabd d570 89bd
00000300: c665 cc3d 0eec c0bd 2207 17bd 8f2e 943d
00000310: 7701 29bd a5ae f8bd cd2f 913c f62a 823c
00000320: aa7a 63bc 207e 79bd 5e79 a0bd e753 823a
00000330: aefd f53c 9d16 b6bc 48bb 69bd ab85 ffbc
00000340: db5d 98bd adc8 d93d c1b2 77bd d781 5dbd
00000350: ef14 01be fd1c a13d 4d7d 493d bce8 d0bd
00000360: 636e 6cbd 309e a63d 250b 683d 112b e0bc
00000370: bb2f be3d 6a5d 8abd 3289 a43d 023e 8abd
00000380: 62e9 893d ebb6 40bc 5b2a bebd 0b48 76bc
00000390: 1361 7bbd 578f a6bd 2169 a83b f47c b3bd
000003a0: 815b 5ebc 0c79 5dbd 6dee 07bd 582c 64bd
000003b0: 205d 21bd 39e7 463d 226a 87bc 1735 edbc
000003c0: 1800 d33d a829 a9bd fcb4 62bd cd2d e2bd
000003d0: b9ee 133d 9b43 c5bd e53c c23c 93da 6b3d
000003e0: 689f 2a3d e7de 06bd 5f26 e1bc 59fc 1abc
000003f0: 3bc9 c3bb 19f7 f0bc 995e 523d 1e07 8bbd

bias f4 [128]
0.13200359 -0.06921349 -0.010569203 0.12346098 -0.06933251 -0.037952494 -0.07765048 -0.013917785
-0.07960697 0.038873706 -0.08281624 0.16214152 0.08194749 0.04631539 0.043513216 0.037367765
0.012633068 0.13190062 -0.10593777 0.23034537 0.057112675 -0.05388582 -0.005319251 0.040350195
-0.037292276 0.05328495 0.03636325 0.0020372071 0.039071016 0.042313855 -0.022619393 0.14704648
-0.012098348 -0.043688532 -0.014932073 0.022723194 0.0135798 -0.088356316 0.062775984 0.041838806
0.033449307 0.1518006 0.053445097 0.12944981 -0.079874896 0.10876729 0.05703702 -0.10622835
-0.10734894 0.103565596 -0.04672576 -0.0060758977 0.032688368 0.040240075 -0.037939288 0.07407454
-0.09587351 0.157242 -0.05708693 0.15376286 0.17095222 0.04391974 -0.0033433873 -0.027053889
-0.013274343 -0.07312061 -0.03091303 0.01237811 0.20014814 0.303581 0.020278538 -0.046394646
-0.0602564 0.013796248 -0.040249005 -0.066109344 0.1310431 0.17368849 0.004589543 -0.08414069
-0.0777886 -0.060496833 -0.046508577 -0.0067748185 -0.058034074 0.20499444 0.006650896 -0.008888994
0.037553877 -0.09421176 -0.10350843 -0.091406435 0.02717348 -0.03920298 -0.07442924 0.06734867
-0.026421675 0.061417732 0.067283645 -0.07112221 0.119534574 0.014394591 -0.07361072 0.039887074
-0.07669514 0.10184132 -0.043451924 -0.028086852 -0.018333698 0.024810055 -0.0881581 -0.02810896
0.2234464 0.02981756 0.2129288 -0.016834047 -0.104050644 0.014277736 0.008359496 0.07061105
-0.05316249 -0.064155325 0.014177209 -0.0017464887 0.022247434 -0.0774184 0.13077445 0.13880336
00000000: f32b 073e cdbf 8dbd 732a 2dbc 1cd9 fc3d
00000010: 34fe 8dbd 1374 1bbd 3707 9fbd 6c07 64bc
00000020: fb08 a3bd 093a 1f3d 909b a9bd 6d08 263e
00000030: 16d4 a73d 35b5 3d3d ea3a 323d f10e 193d
00000040: edfa 4e3c f510 073e e7f5 d8bd a8df 6b3e
00000050: fbee 693d 61b7 5cbd 1d4d aebb 3f46 253d
00000060: c9bf 18bd 5241 5a3d a2f1 143d aa82 053b
00000070: ee08 203d 4b51 2d3d 4e4c b9bc 5a93 163e
00000080: 2638 46bc bff2 32bd a7a5 74bc fe25 ba3c
00000090: cf7d 5e3c 28f4 b4bd b290 803d 2b5f 2b3d
000000a0: 2402 093d 9e71 1b3e 3fe9 5a3d 7e8e 043e
000000b0: 7395 a3bd 63c1 de3d a69f 693d 408e d9bd
000000c0: c3d9 dbbd 331a d43d 8363 3fbd 5318 c7bb
000000d0: 3de4 053d c7d2 243d 3a66 1bbd 64b4 973d
000000e0: 5559 c4bd 0c04 213e fcd3 69bd 0374 1d3e
000000f0: 190e 2f3e 2fe5 333d bb1c 5bbb 1ea0 ddbc
00000100: a17c 59bc 42c0 95bd 533d fdbc 8ecd 4a3c
00000110: a2f3 4c3e f86e 9b3e 2d1f a63c 5008 3ebd
00000120: 6acf 76bd a809 623c 24dc 24bd 5664 87bd
00000130: 2a30 063e 65db 313e e163 963b f451 acbd
00000140: a14f 9fbd 87cb 77bd c77f 3ebd 4cff ddbb
00000150: 23b5 6dbd 10ea 513e c2ef d93b 25a3 11bc
00000160: 18d2 193d 18f2 c0bd 3afc d3bd 4c33 bbbd
00000170: eb9a de3c 4e93 20bd 5b6e 98bd 19ee 893d
00000180: 4572 d8bc 2991 7b3d 02cc 893d 85a8 91bd
00000190: 8bce f43d 4ad7 6b3c 38c1 96bd a160 233d
000001a0: 5712 9dbd 2f92 d03d a5fa 31bd 6616 e6bc
000001b0: 8d30 96bc 753e cb3c 3c8c b4bd c344 e6bc
000001c0: 22cf 643e f543 f43c 020a 5a3e 8ee7 89bc
000001d0: 8118 d5bd 2aed 693c 44f6 083c 879c 903d
000001e0: e9c0 59bd de63 83bd 8647 683c 70ea e4ba
000001f0: 4040 b63c 8a8d 9ebd bde9 053e 7822 0e3e

weight f4 [11, 128]
-0.18526936 0.093059026 0.0028850052 -0.1029416 0.049967945 -0.1416291 -0.007838513 0.029333932
-0.053117204 -0.16867036 -0.009892843 -0.15924846 -0.13190153 -0.09913443 0.047297116 0.06343411
-0.033046484 -0.11348502 0.06828818 -0.1771429 -0.1938802 -0.21950728 -0.024480944 -0.13941613
-0.03033957 -0.04387042 -0.0020867714 0.034021903 0.052615 -0.015793612 -0.01931237 -0.14461976
-0.057291247 -0.09077494 0.04224179 -0.12622795 -0.13159958 -0.041091166 -0.12975946 -0.035763375
-0.03714896 -0.2483898 0.017738644 -0.073578 0.0022439326 -0.14470252 0.043939065 0.0009321712
-0.041848756 -0.07571728 -0.04060338 -0.07644886 -0.05080116 -0.15541467 0.030825654 -0.026986897
0.04100182 -0.14006463 0.014888723 -0.07149489 -0.17232452 -0.06303704 0.018609393 0.010310254
0.061579283 -0.12819126 -0.088578396 0.08549707 -0.124824554 -0.24225982 -0.08224401 0.006152556
-0.04949485 0.0030062145 -0.04495704 -0.029650038 -0.088600725 -0.14982562 -0.13218811 0.041011553
0.032124568 0.033904128 -0.11350681 -0.13258998 0.042591237 -0.18703838 0.06348227 0.020821804
0.03107442 0.06410579 0.053150766 0.059359774 0.0035430628 -0.014139831 0.053544823 -0.15650953
0.055375747 0.003834396 -0.14157832 -0.0926686 -0.12055704 0.035440903 -0.029872278 -0.22929879
0.04301346 -0.054549363 -0.17024782 0.072807334 0.015402168 -0.03619802 -0.034964487 -0.10134035
-0.19943683 -0.09477444 -0.23037753 0.03722903 0.047867328 -0.004228093 -0.040667225 -0.18323801
-0.07073079 0.058163445 -0.08604653 0.01897208 -0.112160884 0.04311203 -0.13670884 -0.12695482
-0.13406341 0.018221876 -0.015044004 -0.09678457 0.014711142 0.004480628 -0.06832221 -0.018077943
-0.042425778 -0.11004293 -0.08730781 -0.046265285 -0.09199494 0.02575938 0.052467447 0.0036192336
-0.038847458 -0.12890168 0.071977146 -0.12553525 -0.09537468 -0.37252024 0.0190527 -0.080183
0.0010745161 0.03316462 0.022605406 0.038503624 -0.088264115 0.041882783 -0.14134352 -0.09833878
-0.0057994435 -0.041379225 -0.015547447 0.004903432 -0.016111568 -0.01021801 -0.09892632 -0.117784545
-0.06604089 -0.041659087 -0.09689315 -0.16381818 -0.027544294 -0.048545744 -0.0037307208 -0.06750524
0.0016719424 -0.049345497 0.027909258 -0.10945899 -0.120562546 -0.12241457 -0.01051015 0.013302163
0.046725012 -0.12693807 -0.04700846 -0.07780323 -0.07681723 0.06426215 0.024261558 0.04662791
-0.07404759 -0.0735665 0.02790265 -0.04943604 -0.1106455 -0.11389049 -0.10676722 -0.019098377
0.05145172 0.065733686 0.009605281 -0.0060491506 -0.049510486 -0.025410345 -0.08626291 0.066986
0.00016792522 -0.0793953 0.04830959 0.034272008 0.06169172 -0.07899523 -0.023381565 0.044349786
-0.017762715 -0.03621873 -0.01675282 0.04937725 0.025964838 0.06772089 -0.0695597 -0.04133184
0.021895258 0.07818805 -0.01859492 0.074693576 -0.10827007 0.038482986 -0.045415856 -0.1163545
-0.015393651 -0.112028606 0.048711393 0.009185703 0.014619624 0.04732009 0.012194643 -0.01093799
-0.12191765 -0.00088142924 -0.14970826 -0.009122604 0.014925853 -0.042228825 -0.077622175 -0.10961851
0.045967773 0.06967885 0.11222603 0.006067575 -0.113509774 0.02149667 -0.0833457 -0.107731685
00000000: 40b7 3dbe bb95 be3d 5b12 3d3b 0cd3 d2bd
00000010: 30ab 4c3d 3807 11be 1b6d 00bc b74d f03c
00000020: 6d91 59bd ecb7 2cbe 9715 22bc 0712 23be
00000030: 3211 07be fe06 cbbd 9fba 413d bee9 813d
00000040: c05b 07bd d66a e8bd acda 8b3d f364 35be
00000050: 8888 46be 84c6 60be 438c c8bc 1ac3 0ebe
00000060: b18a f8bc 78b1 33bd 37c2 08bb 8d5a 0b3d
00000070: d482 573d 9b61 81bc fa34 9ebc 3417 14be
00000080: 3aaa 6abd 36e8 b9bd ba05 2d3d e641 01be
00000090: 0ac2 06be 364f 28bd aadf 04be 9e7c 12bd
000000a0: 8229 18bd e559 7ebe a250 913c 10b0 96bd
000000b0: f10e 133b e62c 14be 73f9 333d f35c 743a
000000c0: 9a69 2bbd a911 9bbd bb4f 26bd 3891 9cbd
000000d0: e114 50bd 0625 1fbe 1586 fc3c a013 ddbc
000000e0: 86f1 273d 1a6d 0fbe d5ef 733c ea6b 92bd
000000f0: d775 30be 9019 81bd ba72 983c 57ec 283c
00000100: 8f3a 7c3d 9244 03be 9768 b5bd 1619 af3d
00000110: 04a4 ffbd f512 78be 8c6f a8bd 619b c93b
00000120: 1dbb 4abd e903 453b e024 38bd a3e4 f2bc
00000130: 4c74 b5bd e36b 19be 525c 07be bbfb 273d
00000140: 0d95 033d 0edf 0a3d 4276 e8bd abc5 07be
00000150: 2674 2e3d fd86 3fbe fe02 823d 7d92 aa3c
00000160: c88f fe3c e549 833d 9eb4 593d 3c23 733d
00000170: bb32 683b c0aa 67bc d151 5b3d 0944 20be
00000180: aed1 623d 7d4a 7b3b e8f9 10be 09c9 bdbd
00000190: 9ce6 f6bd 7b2a 113d b5b6 f4bc 4dcd 6abe
000001a0: e22e 303d 276f 5fbd 7255 2ebe 031c 953d
000001b0: 6059 7c3c 6044 14bd ec36 0fbd 888b cfbd
000001c0: 2b39 4cbe 1a19 c2bd 16e8 6bbe 787d 183d
000001d0: 8810 443d d18b 8abb ad92 26bd bfa2 3bbe
000001e0: 4edb 90bd cb3c 6e3d 2a39 b0bd 566b 9b3c
000001f0: 9bb4 e5bd 3d96 303d 67fd 0bbe 7200 02be
00000200: eb47 09be 0b46 953c 207b 76bc fd36 c6bd
00000210: 0007 713c 3bd2 923b 84ec 8bbd 3218 94bc
00000220: a7c6 2dbd 305e e1bd 70ce b2bd ab80 3dbd
00000230: d867 bcbd 5605 d33c 1be8 563d aa30 6d3b
00000240: 831e 1fbd cdfe 03be c168 933d 508c 00be
00000250: cd53 c3bd f9ba bebe 6814 9c3c fc36 a4bd
00000260: c7d6 8c3a a0d7 073d f92e b93c fab5 1d3d
00000270: d1c3 b4bd 488d 2b3d 5bbc 10be d865 c9bd
00000280: 4209 bebb 437d 29bd b8ba 7ebc f8ac a03b
00000290: 68fc 83bc 7169 27bc e299 cabd 0639 f1bd
000002a0: 7240 87bd b8a2 2abd ea6f c6bd f4bf 27be
000002b0: 92a4 e1bc e7d7 46bd 1c7f 74bb 3040 8abd
000002c0: 1425 db3a 811e 4abd f5a1 e43c 092c e0bd
000002d0: 7fe9 f6bd 7db4 fabd c432 2cbc 51f1 593c
000002e0: ba62 3f3d 0efc 01be f18b 40bd 4d57 9fbd
000002f0: 5a52 9dbd e09b 833d 2dc0 c63c e8fc 3e3d
00000300: 43a6 97bd 08aa 96bd 1994 e43c 727d 4abd
00000310: 1c9a e2bd 6b3f e9bd c6a8 dabd 3374 9cbc
00000320: 0abf 523d 629f 863d 785f 1d3c f437 c6bb
00000330: 82cb 4abd 5b29 d0bc 9caa b0bd f52f 893d
00000340: 1515 3039 019a a2bd 47e0 453d ce60 0c3d
00000350: 75b0 7c3d 40c8 a1bd b28a bfbc 1fa8 353d
00000360: 1d83 91bc 175a 14bd 363d 89bc cd3f 4a3d
00000370: 36b4 d43c 40b1 8a3d 5175 8ebd 934b 29bd
00000380: af5d b33c 0e21 a03d 6054 98bc f2f8 983d
00000390: b3bc ddbd 56a0 1d3d fa05 3abd 454b eebd
000003a0: a735 7cbc 416f e5bd 9985 473d a17f 163c
000003b0: 2687 6f3c b6d2 413d 0acc 473c 4135 33bc
000003c0: f6af f9bd b70f 67ba 1f4d 19be f976 15bc
000003d0: 918b 743c 22f8 2cbd 60f8 9ebd ab7f e0bd
000003e0: b448 3c3d c9b3 8e3d c3d6 e53d 82d2 c63b
000003f0: d077 e8bd c919 b03c 26b1 aabd 6ea2 dcbd

bias f4 [11]
-0.22730647 -0.18123157 -0.087970346 -0.09576047 -0.07167088 0.08694077 0.040895585 0.011106841
-0.009353097 0.0807224 -0.037709568
00000000: 07c3 68be c594 39be cc29 b4bd 111e c4bd
00000010: 2fc8 92bd 010e b23d 2182 273d 78f9 353c
00000020: bb3d 19bc c951 a53d 5975 1abd
