DeepControlledLearning/PolicyWeights/perishable_systems_m4_l2_cvr1.000000_f0.500000_DCL0/_gen.pth (torch, 295356 bytes, 10 tensors)

weight f4 [256, 5]
000000 9a 30 79 be 72 3b 1a bd d8 78 83 3e cc a0 b0 3d
       -0.24334946 -0.037654348 0.25678134 0.086244196
000010 46 90 cc bd 99 56 ba 3e ba 4e 8a 3e 70 7e cb 3e
       -0.099884555 0.36394194 0.2701319 0.39744902
000020 21 18 14 3e 01 f2 33 be 50 66 f4 bd 45 ce a0 be
       0.1446233 -0.17572786 -0.11933577 -0.3140737
000030 23 47 62 bd 7f 85 a1 3d f7 9f 1a 3e 38 5e f3 3d
       -0.055243623 0.078867905 0.15100084 0.11883205
000040 4c 33 af be 8f 1b dc be 21 70 39 be 3c 20 ab be
       -0.34218824 -0.42989776 -0.1810918 -0.3342303
000050 f0 15 84 be 3f c5 17 3c 2f 9c 72 bd 26 bc af be
       -0.25797987 0.009263336 -0.05923098 -0.34323233
000060 ef 0d 96 be 3a 01 f7 be 5e c0 b5 be 5e 8a 8a 3e
       -0.29307505 -0.48243123 -0.35498327 0.2705869
000070 7f 18 76 be eb 67 eb bc 09 e2 e4 3e ee b9 9d bd
       -0.24032782 -0.028736075 0.447037 -0.07701479
000080 53 02 8c 3d 42 70 dd be 9f 32 ac be 23 7b 1d 3d
       0.06836381 -0.43249708 -0.3363237 0.03844751
000090 23 02 1a bd 8d 03 64 3b 10 92 b6 bd fb 23 c9 3e
       -0.037599694 0.0034792155 -0.08914578 0.39285263
0000a0 55 d5 97 bc 83 86 d0 be c6 43 71 3d cb c6 b7 be
       -0.018534342 -0.40727624 0.058902524 -0.35893854
0000b0 2d 35 a0 3e 66 64 ad be 48 6a b5 3e 35 4c da 3e
       0.3129057 -0.3386566 0.3543265 0.42636266
0000c0 75 af 56 bc 87 ff 01 3e 4c f2 73 3d 68 b3 43 3e
       -0.013103356 0.12695132 0.059557244 0.19111407
0000d0 7d d0 4d 3e d1 3c 89 3e 31 93 7e 3d 6f dc 08 bf
       0.20099063 0.26804212 0.06215209 -0.53461355
0000e0 6e f0 b9 3e f4 48 c3 3c b3 36 bd 3e 54 b1 16 bd
       0.36316246 0.023838498 0.36955795 -0.036790207
0000f0 14 a8 b7 3e b5 cc bb 3d 63 0c 20 3e ee 00 80 be
       0.3587042 0.09169904 0.15629725 -0.2500071
000100 73 b5 9a 3e c7 14 37 3d f2 56 01 be 39 ac 52 be
       0.3021656 0.04469755 -0.12630823 -0.2057351
000110 95 84 b0 be ed 52 a4 3e e2 e1 92 3e 86 a3 28 3e
       -0.34476152 0.32094517 0.2868796 0.16468629
000120 9c b9 bb be 2e ce fe bd 79 05 89 be 85 06 06 3e
       -0.36665046 -0.124416694 -0.26761988 0.13088425
000130 54 38 bf 3d 02 fe 45 be 01 e5 3a bc b6 c3 02 3e
       0.093369156 -0.19335178 -0.011407138 0.1276997
000140 fe 93 22 be 8a 65 a0 3e 28 49 aa 3e dd f2 35 be
       -0.15876767 0.31327468 0.3325894 -0.17768426
000150 26 4d 73 3e 54 7a a5 3e ec b4 c9 3d e2 07 19 3e
       0.23759899 0.3231989 0.09848961 0.14944413
000160 f4 97 6e be e3 1c bb be 89 50 85 be 68 9c ad 3d
       -0.23300153 -0.36545476 -0.26038006 0.08477098
000170 71 75 5a 3e e6 77 f7 3d 96 3c e2 be 18 51 fb bd
       0.21333863 0.12083416 -0.44186848 -0.12271327
000180 2d 99 ed bc d7 e8 b0 3e 4a d0 bb 3e 3a 13 7e 3e
       -0.029003704 0.34552643 0.3668235 0.24812022
000190 ce 73 02 3d 52 f1 87 3e 0c 4e 66 3d 65 86 10 be
       0.03184872 0.265513 0.056226775 -0.14113767
0001a0 ce 0f ac be 77 68 52 be a4 d1 37 be e0 44 bb 3e
       -0.33605808 -0.20547663 -0.17951065 0.36575985
0001b0 fb 68 64 bd 34 9a 7a 3e a4 79 82 bc 0a f8 6f 3e
       -0.05576418 0.24472886 -0.015927143 0.23434463
0001c0 62 e3 bb 3e dc 89 ee 3d a5 84 38 3e 29 a9 c9 be
       0.36696917 0.11647388 0.1801935 -0.3938687
0001d0 f9 cd 85 be 2c 4c c8 3e 26 3d 7f bb 3b 17 7b be
       -0.26133707 0.39120615 -0.003894636 -0.2452058
0001e0 57 e6 cd 3e c8 a3 b6 be 05 b5 7d bc 73 29 85 be
       0.40214798 -0.3567183 -0.015485053 -0.26008186
0001f0 e9 77 d8 be 30 2b db bd 5a 85 76 3e f5 fe 5c 3c
       -0.42278984 -0.10701597 0.24074307 0.013488521
000200 c3 ba 65 3e 43 52 bd bc 19 00 dd be 13 8f dd 3e
       0.22434525 -0.023110515 -0.43164137 0.4327322
000210 0e 28 09 be 09 d1 ac be ce 1e 93 3c 06 ab aa be
       -0.13394186 -0.3375323 0.017959025 -0.33333606
000220 3a ae 86 3e 98 66 33 be 38 57 8a bc 79 ab 0f 3e
       0.263048 -0.17519605 -0.016887292 0.14030255
000230 da 94 c6 3e f9 fd d0 be e6 46 1e be 81 14 62 be
       0.3878544 -0.40818766 -0.15456733 -0.22078134
000240 d2 b8 92 bd f0 ac d3 3e 0b cb a8 be 5a 2a 96 b9
       -0.07164158 0.41342878 -0.3296741 -0.00028641784
000250 ae ce 92 bc 08 5a df 3e 4b 0a cd 3e 51 be 9a 3e
       -0.017920818 0.43623376 0.40046915 0.30223325
000260 f8 bc af bd 31 03 66 3b 32 d2 bf be a4 cb 44 3e
       -0.08580965 0.0035097117 -0.37465054 0.19218308
000270 9f 79 c7 be 1f 89 b0 be db d3 8e 3e 3b 3c b5 be
       -0.38959977 -0.34479615 0.27896008 -0.35397515
000280 2d 91 b3 3e d7 26 b4 be 31 13 32 bd 02 04 c4 3d
       0.35071698 -0.35185882 -0.043475334 0.09571077
000290 7c 9c df 3d e4 e6 8d bd 0c 50 84 3d 25 0b 1b bd
       0.10918519 -0.069288045 0.0646058 -0.037852425
0002a0 a4 24 cb 3e db c5 b8 bd fd 0e 9b be aa b7 72 bd
       0.39676392 -0.09022113 -0.30284873 -0.059257187
0002b0 ef 45 88 bd c1 ad a6 3d e9 ae 6d be 0f 6f 26 3e
       -0.06653964 0.0813861 -0.23211254 0.16253303
0002c0 6f a2 be 3d 7c 0e a9 3d 0a 12 15 be 44 71 7c be
       0.093083255 0.08254716 -0.14557663 -0.24652582
0002d0 83 d4 b0 3e 82 06 a1 3e ef 16 bf be 9d 62 20 bd
       0.34537134 0.31450278 -0.37322184 -0.039156545
0002e0 f2 b3 21 be 3c 85 91 3e fb 98 4c be 93 54 f9 bd
       -0.157913 0.28421962 -0.19980232 -0.121743344
0002f0 1c fb 8f 3e f6 ca 45 bd f3 37 09 3e 65 86 59 3c
       0.2812127 -0.04828926 0.13400249 0.013276671
000300 b4 2c 00 3e 41 f2 c3 3e ef 83 b7 be c7 98 5f 3e
       0.12517053 0.38270763 -0.35842845 0.21835624
000310 98 81 10 3e e9 64 00 3e 26 75 cb bd 80 f9 ff 3d
       0.14111936 0.12538494 -0.09934454 0.1249876
000320 31 67 d5 bd ed 7e 09 be 26 01 d4 be 33 b0 a7 3e
       -0.10420073 -0.13427325 -0.41407126 0.32751617
000330 4c 6e f3 bd 6c a1 cc be e4 d4 d8 be ff 7c a7 3e
       -0.11886272 -0.39966905 -0.42349923 0.32712552
000340 41 31 2f 3e 97 b2 a0 3e 3c 8c eb be 3d 1b 5f 3e
       0.17108633 0.31386253 -0.46005428 0.21787734
000350 62 c9 b1 3e 8d 40 df 3d 5b 04 79 be 8d 86 80 be
       0.34723955 0.10900984 -0.24318068 -0.25102654
000360 ae 5c 16 be c2 b6 d7 be c5 c8 d5 bd ca 48 ab be
       -0.14683792 -0.4213162 -0.104386844 -0.3345397
000370 3d 3a 81 3c 83 5d c5 3e 83 a5 5e 3d b2 8a 87 be
       0.01577484 0.38547906 0.054357063 -0.26473004
000380 c5 46 9c be 4c fc 88 3e c3 c2 bb be 2b 63 d5 be
       -0.30522743 0.26754987 -0.3667203 -0.41677222
000390 9f 83 da be b4 cf a4 be d7 75 ac be e4 a0 ef 3e
       -0.42678544 -0.32189715 -0.33683655 0.46802437
0003a0 7f ce 8b 3e 71 14 7a be e3 2d a9 be 0b 2a 9e 3e
       0.27305982 -0.2442186 -0.3304282 0.3089145
0003b0 a8 2a dd bc c2 fa 83 3e aa bd 40 3e 9d 7f bf be
       -0.02699788 0.2577725 0.18822351 -0.3740205
0003c0 7a 9c b7 be c5 89 a4 be 39 a1 10 bd c7 0b 21 3e
       -0.3586157 -0.3213636 -0.035310004 0.15727149
0003d0 97 4d a1 3e 42 70 d0 bd 5a 17 0f be ec 6c eb 3d
       0.3150451 -0.101776615 -0.13973752 0.114953846
0003e0 05 b1 2d 3e 1e 41 99 3e 43 59 7e be 55 68 56 be
       0.16962059 0.29932493 -0.24838738 -0.20938237
0003f0 b3 2b 05 be e0 1d 32 3e a5 98 3b be 4c ce 06 be
       -0.13004951 0.17394209 -0.18319948 -0.13164634

bias f4 [256]
000000 87 50 1c 3f 5a d6 a6 be 50 66 2e 3e 28 ca 40 3d
       0.61060375 -0.32585412 0.17031217 0.04706779
000010 32 a2 8b be 09 43 72 3e 16 cb 81 be dd 7b a9 3e
       -0.27272183 0.23658384 -0.25350255 0.33102313
000020 0b 98 de 3e 8c dd 13 bf 42 44 7e be 79 74 14 bf
       0.43475375 -0.5775993 -0.24830726 -0.57990223
000030 cf 15 fa be d8 17 0c 3f a7 59 1d be 4c 03 f3 3e
       -0.48844764 0.5472388 -0.15366231 0.47463453
000040 95 5f 0c 3e de 49 b6 3e 6c d3 2e 3d ce a2 6b be
       0.13708337 0.3560323 0.042682096 -0.23011324
000050 7e fa c4 be ac 80 b6 be 63 8b f8 be b5 58 03 3e
       -0.3847236 -0.35645044 -0.48543844 0.12826808
000060 1e d7 38 be c3 37 1a be e8 17 db 3e 8d 3f 27 3f
       -0.1805081 -0.15060334 0.42791677 0.65331346
000070 63 cb c4 3d 73 5b de be e1 21 06 3e 31 cc bc be
       0.096091054 -0.43429145 0.13098861 -0.36874536
000080 b5 33 b8 bd d0 d9 a0 3e 3e 41 dd 3e 98 dd 16 be
       -0.08994237 0.31416178 0.43213838 -0.14732969
000090 a0 41 72 be 65 27 99 3d f2 a4 f9 3e 66 7c 8f be
       -0.23657846 0.07478217 0.48758656 -0.28024596
0000a0 11 01 bf be b0 43 98 be 4f c8 c4 3e 7a 0f 70 3d
       -0.373055 -0.2973914 0.38434073 0.05860851
0000b0 e6 81 9f be bd 0a 13 be d9 fd 3e be fa 89 1d be
       -0.31153792 -0.14359565 -0.18651523 -0.15384665
0000c0 2f 0c 8a 3e 97 02 d5 3e 31 db 17 3f 60 02 c4 be
       0.2696242 0.41603538 0.59318835 -0.38283062
0000d0 39 95 97 be e6 47 f6 3e d5 28 e0 be 8c ea 15 3f
       -0.29606035 0.4810173 -0.43781152 0.58561015
0000e0 fa 7c ff be c5 68 08 3f 1d 11 b4 3e e2 46 9b be
       -0.49900037 0.53284866 0.35169306 -0.30327517
0000f0 67 6d 53 bd 86 a9 b1 be 85 17 a4 be f6 00 52 be
       -0.051618006 -0.3469965 -0.32049194 -0.20508179
000100 8a 87 04 3f e8 eb da be ac 76 74 3d 56 a5 93 3e
       0.51769316 -0.42758107 0.059683487 0.2883708
000110 2f fc 0d bf 29 a0 13 3f 8e eb d4 3e 23 50 e4 3e
       -0.55462927 0.5766626 0.41585964 0.4459239
000120 a5 91 01 3f 8d df b3 be 95 47 24 be 0e 57 b8 3e
       0.5061286 -0.35131493 -0.16042931 0.36003917
000130 60 a5 b4 3e d7 81 9f 3d 69 35 9f bd e5 f7 e7 be
       0.3528242 0.07788437 -0.07773859 -0.45306316
000140 40 1b b5 be 95 dc e6 3e dc 5e 1a bf 40 4e 03 bf
       -0.35372353 0.45090166 -0.60300994 -0.51291275
000150 24 60 83 be 4d 90 a7 bd 6e 87 b0 bd 53 5a 88 be
       -0.25659287 -0.0818182 -0.08619581 -0.26631412
000160 81 1a 8b 3d 4e 5e 19 3f c6 37 d3 3e 2c da 87 be
       0.067921646 0.5990952 0.4125349 -0.2653364
000170 f7 fd e6 3d 9a f1 89 3e 63 a3 a4 3e 81 d6 d3 be
       0.11278909 0.2694214 0.32155904 -0.4137459
000180 cf 50 4a 3e fb 9c 7f 3e bb 38 03 3f d5 bc 9d bd
       0.19757389 0.24962227 0.5125844 -0.077020325
000190 bd 2c 60 be 72 27 ab be f3 75 82 3e 6a 28 d5 bc
       -0.21892066 -0.33428532 0.25480613 -0.026020247
0001a0 60 88 04 3f c4 96 a4 3e c0 c4 2c 3e e5 bd 0f 3e
       0.5177059 0.32146275 0.16871929 0.14037283
0001b0 42 56 76 3e 91 1c ef ba 1b 2d b0 be 05 8f 33 be
       0.24056342 -0.0018242766 -0.34409413 -0.17535026
0001c0 ad e2 e2 3e f3 28 9d be 8d 14 c3 be 44 3d 0d 3f
       0.44313565 -0.30695304 -0.38101617 0.5517161
0001d0 08 de 3b bc 27 f3 ae 3e 66 87 d7 3e c7 2d 6c be
       -0.011466511 0.34169886 0.42095488 -0.23064338
0001e0 8c 1a a2 3d e8 de af be 42 9a 03 bf e0 9a a0 3e
       0.0791522 -0.3434975 -0.51407254 0.3136816
0001f0 5c 1f 60 3e d4 84 23 3e 0b 34 33 be 50 0c a5 be
       0.21886963 0.15968639 -0.17500322 -0.32235956
000200 bb 48 9a be 7c 15 f6 3e 68 d6 dd 3e b3 6e e9 be
       -0.30133614 0.48063266 0.4332764 -0.4559227
000210 8f 99 db 3c bc 37 c9 3e 81 6c f6 3d 81 56 f8 bd
       0.02680662 0.39300334 0.12032414 -0.12125874
000220 2b 12 91 3e bd dc 8e 3d b5 05 0d 3f 3a 23 c9 bb
       0.28334174 0.06975696 0.55086833 -0.0061382325
000230 9e d3 6f be f2 0f b1 3e 8f 66 bd be 83 07 14 be
       -0.2342057 0.34582478 -0.36992308 -0.1445599
000240 77 09 d8 3e 2e a7 52 be e0 91 bb 3d b2 cf e3 3e
       0.4219472 -0.20571586 0.09158683 0.44494396
000250 76 54 25 3f 44 0f 4d be 01 96 4f be 2e 78 b7 3e
       0.64582 -0.20025355 -0.20272066 0.35833877
000260 fb e6 93 be 35 12 bf be dd 75 81 be fe b8 db be
       -0.28887162 -0.37318578 -0.25285235 -0.42914575
000270 ae 8d 1d 3c e8 28 88 3d d7 d5 3e be 75 17 29 3e
       0.009616299 0.06648427 -0.18636261 0.16512854
000280 2d 63 81 be cd 13 8c be 79 cd e0 be a7 a6 64 be
       -0.25270978 -0.27358857 -0.43906763 -0.22329198
000290 b1 49 d2 3e 8d b6 87 bb 9f 3d 6a 3e b4 8c 25 be
       0.41071847 -0.004141635 0.22875069 -0.16166955
0002a0 ea 96 ec bd 40 1f f0 be 80 fa e7 3e 0d 65 d8 3e
       -0.11552222 -0.46898842 0.45308304 0.42264596
0002b0 eb 31 dd 3c 32 71 b4 3e 86 2e 1c 3e 72 67 01 3f
       0.027001342 0.3524261 0.15252122 0.5054847
0002c0 c6 aa aa bc 67 e7 86 3e 2d 52 16 be c7 21 6a be
       -0.020833384 0.2634842 -0.14679785 -0.22864448
0002d0 50 84 95 be 5a ec 86 3e a8 21 e7 be cf e7 43 3e
       -0.2920251 0.26352197 -0.45142865 0.19131397
0002e0 d7 38 57 bd 86 d4 3d be b2 1d 9e be 9b 10 c6 be
       -0.05254444 -0.18538103 -0.3088203 -0.38684544
0002f0 ab 44 e1 3d 2f 5d a1 be 7d 5b 1a 3f be 53 9c be
       0.109994255 -0.31516406 0.6029585 -0.3053264
000300 2a 5a e0 3e 13 25 cf be 8d 38 dc be 33 3d 02 be
       0.4381879 -0.40457973 -0.43011895 -0.12718658
000310 22 92 6d 3e 0c 36 a7 3e 72 44 06 bf a3 60 fb be
       0.23200276 0.32658422 -0.5244819 -0.49097165
000320 47 97 88 be 6a 95 ed 3d 00 5b fe be 41 34 90 be
       -0.26677915 0.11600764 -0.49678802 -0.28164867
000330 6e 15 38 3e e8 7f 03 3f 44 16 33 3e ff d9 d5 3e
       0.17976925 0.51367044 0.17488962 0.4176788
000340 a0 6e d1 3d ac d7 9a 3d 44 37 92 bd 98 f0 9e 3a
       0.10226178 0.075606674 -0.07139447 0.0012126146
000350 0d 6a 42 be a4 3c a7 3e 10 f3 98 be 5a 56 41 bd
       -0.18985768 0.32663453 -0.29872942 -0.047201492
000360 2c 5a 2f be cb 7b 12 3f 90 d2 12 3e 50 91 82 3e
       -0.17124242 0.57220143 0.14338136 0.2550149
000370 9a 51 f0 be d4 fb d2 3e cf e6 0f 3e 1c fc 4d 3c
       -0.46937257 0.41207755 0.1405289 0.012572315
000380 cb 7d 9d be c7 2f 1e be da ec 09 bf 7e 5f bf be
       -0.30760035 -0.15447913 -0.5387703 -0.37377542
000390 e9 38 db 3e 47 34 41 3e a4 ef ae 3e fc f6 c9 be
       0.42816857 0.18867598 0.34167206 -0.39446247
0003a0 b9 55 14 be 47 19 ed be 54 e3 ca 3e 66 9d b0 3e
       -0.14485826 -0.46308348 0.39626563 0.34495085
0003b0 39 f0 f7 3e 72 e2 e7 bc 0b a9 09 bf e5 7e 04 3f
       0.48425463 -0.02830622 -0.53773564 0.51756126
0003c0 c2 48 b3 3e 8e 42 70 3e 67 c1 0f be e0 4e a9 3e
       0.35016447 0.23462889 -0.14038621 0.3306799
0003d0 5b dd 02 3f 90 54 a8 3d 03 20 bd bd 05 78 a4 be
       0.5111901 0.08219254 -0.092346214 -0.32122818
0003e0 58 e0 1b 3e 65 cd 76 3e 8f 7e ae be cc 6d 59 be
       0.15222299 0.2410179 -0.34080932 -0.2123329
0003f0 77 ad 14 bf cb fe d7 be 03 08 ab be d8 d1 ed 3e
       -0.58077186 -0.4218658 -0.3340455 0.4644916

weight f4 [128, 256]
000000 87 47 c2 bc b6 e9 d7 bc 54 2e c2 bc b8 dd aa 3c
       -0.023715748 -0.02635656 -0.023703732 0.020857677
000010 90 5d 2d bd da 37 1b bd a6 a7 0f bd 7f 29 da 3c
       -0.042325556 -0.03789506 -0.03507199 0.026631115
000020 64 9f ca bc fd 42 16 bd 66 e6 64 3c 92 1a 00 3b
       -0.024734206 -0.03668498 0.013970947 0.0019547087
000030 2d ec 86 3c 96 81 35 3d 60 cd 39 bd 87 c6 09 bb
       0.01647004 0.044313036 -0.045361876 -0.0021022873
000040 24 bf 45 bd 45 62 59 bd 70 c5 d9 3b 13 89 70 bd
       -0.04827799 -0.053072233 0.006645851 -0.058724474
000050 a4 ba 82 bd df fe 18 3c 1f e7 83 bd 23 cd 3a bc
       -0.06383255 0.00933811 -0.06440567 -0.0114014475
000060 48 14 a6 3c a6 14 24 bd 13 a8 5a 3d 9d af c6 bc
       0.020273343 -0.040058754 0.053382944 -0.02425366
000070 f9 76 69 bd 40 36 76 bd 83 13 12 bd fb 4b 16 bd
       -0.056998227 -0.06011033 -0.03566314 -0.036693554
000080 f7 99 c8 3c 77 57 ee bc cc 0c 5b bd 39 d6 ed 3c
       0.024487479 -0.02909444 -0.053479 0.029032813
000090 8c ec 80 3c 32 ea 73 bd e7 21 bd 3b 2f eb 97 3c
       0.015737794 -0.059549518 0.0057718637 0.018544761
0000a0 fb 43 e6 bc d8 13 67 3b b8 3f b6 bc 80 d0 70 bb
       -0.028108587 0.003525963 -0.02224718 -0.003674537
0000b0 1c c7 de 3c 64 45 d5 3c 2d 3b 4e bd a2 bd 13 3d
       0.027194552 0.026034065 -0.050349403 0.03606952
0000c0 33 ad c8 3c 47 f7 a0 bc 22 cd 48 bd 4d 5b 41 bd
       0.02449665 -0.019649161 -0.049023755 -0.04720621
0000d0 31 6e 89 3c 39 11 b8 bc b6 11 08 3d b3 02 2b bd
       0.016776176 -0.02246915 0.033220015 -0.04175062
0000e0 83 3e 58 3d b0 5a bd bc af b9 0b 3d f5 30 0e bd
       0.05279399 -0.023114532 0.03411263 -0.034714658
0000f0 1c 37 3f bd 95 68 b5 3c 99 1c a1 3c ec 86 5b 3d
       -0.046683416 0.022144595 0.019666957 0.05359547
000100 9c e6 bc 3c 7a 9c 2b 3d bc 8e 5d 3d 24 f3 ad 3b
       0.023059182 0.041897275 0.0540912 0.0053085256
000110 b4 a9 b6 3b d2 57 8a 3c 28 7d 10 bd 21 97 59 bd
       0.0055744294 0.01688758 -0.03527561 -0.053122643
000120 f2 70 84 bd 35 37 0a bd d4 66 f0 bc 1a 51 4b bd
       -0.06466855 -0.033744056 -0.029345907 -0.04963789
000130 e9 a2 bd bb 80 6d 05 3d 75 ec 8e bc 36 06 77 3b
       -0.0057872427 0.03257513 -0.017446736 0.003769291
000140 e9 06 8a 3b 58 39 80 bc 5b fd ea bb e6 4a 3d bd
       0.0042122495 -0.015652344 -0.0071713156 -0.046214007
000150 26 55 86 3c 37 af 8e 3c 13 a1 59 bd b0 8a 59 bd
       0.016398024 0.017417533 -0.053132128 -0.05311078
000160 61 87 cd 3c d6 a9 77 bd 43 33 36 3c 47 de c1 3c
       0.025088968 -0.060464703 0.01112062 0.02366556
000170 48 a2 75 bd 00 44 45 3c 42 5c 2e 3d de 4c 3d bd
       -0.059969217 0.012040138 0.042568453 -0.046215884
000180 3e 82 7f bd 51 1a 80 bd 04 c7 1c bd 40 17 89 bd
       -0.062380068 -0.062550195 -0.038275734 -0.06693888
000190 d6 86 13 3d 27 c8 33 3c 37 78 18 3d 2a ce 35 bd
       0.03601726 0.010973013 0.03722402 -0.044386066
0001a0 00 c2 72 3c 46 82 2c 3c 5e ec a7 3c a1 de 62 3c
       0.014816761 0.0105291065 0.02049845 0.013847024
0001b0 d4 d3 cb 3c d3 8f ed bb ea 78 39 3d 5b 31 72 bd
       0.024881281 -0.007249811 0.04528133 -0.0591291
0001c0 a6 97 07 3d 74 7f ac b7 e5 04 10 bb f2 72 7a bc
       0.033103608 -2.0563348e-05 -0.0021975574 -0.015286194
0001d0 a2 6d 5f 3d 1b d5 5d bc dc 97 fb 3c 54 78 b7 bc
       0.054547913 -0.013539578 0.03071206 -0.022396244
0001e0 47 c0 f7 3c e0 e1 6f bb b4 2d 1e 3d df e4 94 bc
       0.030243052 -0.0036603138 0.038617805 -0.01817554
0001f0 90 10 4c 3c 6d ab 0c bd dd c9 a5 bb a5 4c ad 3b
       0.012455121 -0.034343172 -0.0050594644 0.0052886778
000200 4a b1 0b 3d 42 85 5f bd f3 fd 85 bd 98 52 b7 bc
       0.034104623 -0.054570444 -0.065425776 -0.022378251
000210 1b 49 5d 3d 4a 91 5e bd 58 f8 60 3d e9 69 85 bd
       0.054024797 -0.054337777 0.05492434 -0.065143414
000220 22 65 5c 3b c6 cb 15 3c a0 e5 d1 3c 37 a6 39 3d
       0.0033629616 0.009142822 0.025622189 0.04532453
000230 60 d9 04 bd e9 ae 4c 3a ba a1 22 3d a0 54 70 bb
       -0.032433867 0.0007808046 0.039705016 -0.0036671534
000240 50 d9 d6 3c 70 9a 16 bc d2 16 34 3d 2c 5b de 3c
       0.02622667 -0.009192094 0.043967076 0.027143084
000250 27 cb e4 3c 08 4d 84 bc fc c5 00 bd 93 c2 17 bd
       0.027928902 -0.016150013 -0.031438813 -0.037050795
000260 b0 ff 91 bb 94 dc 2b bd b9 85 39 bb 56 3e 12 3d
       -0.004455529 -0.041958407 -0.0028308465 0.03570398
000270 31 1d 22 3d f7 16 3a 3c dc df 4a 3d 11 78 3e 3d
       0.03957862 0.011358014 0.049529895 0.046501223
000280 1c d7 1e bc e4 cf 10 3d 00 98 13 bd 5a f6 a2 bc
       -0.009694841 0.03535451 -0.03603363 -0.01989286
000290 9c 52 bb bc f8 e1 86 bc 90 a2 ce bb 10 72 41 bd
       -0.02286654 -0.016465172 -0.006306 -0.04722792
0002a0 21 cc e8 bc 39 58 64 bd f7 e4 38 3d b0 22 6b 3d
       -0.028417649 -0.0557482 0.045140233 0.057406127
0002b0 12 f1 fc 3c 8b ab a1 3c e4 e4 a8 bc 80 54 51 3d
       0.03087667 0.019735118 -0.020616956 0.051105976
0002c0 0d f3 00 bb 83 5d 46 3d 5e 8e 48 3d ee a5 b3 3b
       -0.001967612 0.048429023 0.048963897 0.005482427
0002d0 c9 c2 00 3c 4f f6 cf 3c f1 f3 5e 3d 93 15 32 bd
       0.00785894 0.025386004 0.05443186 -0.043477606
0002e0 e6 e7 0f bd 80 68 33 3d 14 39 82 bd e3 d1 71 3c
       -0.035133265 0.04380083 -0.06358543 0.014759514
0002f0 ad 5a 7d bd 99 78 0f bd d1 dd 0b 3d 9d ff ad bc
       -0.061854053 -0.03502712 0.034147087 -0.02124005
000300 c3 89 c2 3c ee b4 78 3d 24 ae 81 bb 48 f2 8b 3c
       0.02374733 0.060719423 -0.0039575268 0.017083302
000310 68 09 5c bc c1 29 59 3d a3 60 d3 3c d3 0a 87 bd
       -0.013429977 0.053018335 0.025802916 -0.065938614
000320 f1 c0 36 b9 63 2e 85 3a af bb 8a 3c 63 b4 5f bd
       -0.00017428749 0.0010160919 0.016935198 -0.05461539
000330 85 89 41 bd dd 10 7d 3c 08 29 ae bc e5 23 36 3d
       -0.04725029 0.015445915 -0.0212598 0.044467825
000340 83 99 ff 3c a3 b6 89 bd ec 65 07 bd b4 75 81 bd
       0.03120113 -0.06724288 -0.033056185 -0.06321278
000350 54 df 9a 3b 71 e5 ee bc 49 36 a6 3c 96 22 38 bd
       0.00472633 -0.02916214 0.020289557 -0.04495486
000360 53 bc 9b bc 51 ee ac bc 32 ba 24 bd 39 27 d9 3c
       -0.019010698 -0.021109732 -0.040216632 0.02650796
000370 5f 0c 69 bd cd 12 3a 3d 39 30 3e 3d bf 84 39 bc
       -0.056896564 0.045428086 0.046432707 -0.011323153
000380 4d 12 e7 3c c7 30 06 3d 4a 27 16 bd 95 82 e1 bc
       0.028206969 0.03276136 -0.036658563 -0.027528087
000390 f1 43 3d 3c 4d 22 ac bc bc cb 00 3c bc ad 33 3d
       0.011551843 -0.02101245 0.007861074 0.043866858
0003a0 a6 5e 1e 3d 8d d1 29 3c 50 d6 71 bd 67 a4 bb 3c
       0.038664483 0.010364902 -0.059042275 0.022905542
0003b0 2e c2 94 bb e5 78 39 bd d5 9a cd bc b9 f8 7b 3a
       -0.0045397496 -0.04528131 -0.025098244 0.00096119527
0003c0 35 e3 6b bd e8 a5 96 bc 34 21 6b 3d 4b 1b 80 bd
       -0.05758973 -0.018389657 0.05740471 -0.06255206
0003d0 ba d7 86 bd e3 9f 3d bd 08 73 ff 3c f9 a5 06 bd
       -0.06584115 -0.046295058 0.03118278 -0.032873128
0003e0 88 a5 2a 3d e2 ba b7 3c e0 1f 04 3d 38 f4 37 bd
       0.04166177 0.02242798 0.03225696 -0.04491064
0003f0 da 60 8b bc 1d ee 44 bd b7 0c 99 3b 1d d7 fa bc
       -0.017013956 -0.048078645 0.004670705 -0.030620152

bias f4 [128]
000000 be 34 71 bd e0 e5 fe 3b fe d6 cf bd bb 00 a5 3d
       -0.05888819 0.007778868 -0.101484284 0.0805678
000010 c8 8e a7 3d e8 07 6e bc 3a 15 4f 3d aa ce ee 3c
       0.0818153 -0.014528252 0.050557353 0.02915128
000020 cd 4c 2c bd 6e 4f 90 3b e5 66 a6 bd 7f 15 e5 3c
       -0.04206543 0.004404 -0.08125094 0.027964352
000030 83 f7 3a be 7a 9c 05 3e a6 ed 52 bd 44 5d 5b 3e
       -0.1825848 0.13047972 -0.05149617 0.21422297
000040 d0 a2 0b 3d 55 9f 86 bd 4c 3e 20 be b6 d5 0e 3d
       0.034090817 -0.06573359 -0.15648764 0.03487178
000050 22 d1 b0 bd fc 96 b9 3c 43 71 f1 3c 72 1f 69 3d
       -0.08633639 0.022655003 0.029472953 0.056914754
000060 94 1b 05 3d c2 96 dc 3c 80 28 03 bb 0b 67 11 3e
       0.032497004 0.026927356 -0.0020013154 0.14199464
000070 6c 06 e8 bd e7 fa 28 bd c2 46 76 3d f9 96 76 3d
       -0.1132935 -0.041254904 0.060126074 0.060202572
000080 b8 c8 90 3d 0c 30 8d 3d df fe 65 3d 95 a0 52 bd
       0.07069534 0.0689393 0.056151267 -0.051422674
000090 66 2a f1 3c 6e 08 81 3d 92 97 22 be ed 77 0f 3e
       0.029439162 0.06300436 -0.15878132 0.14010592
0000a0 43 e9 99 3c f7 2a 26 be 65 78 1c 3e 01 ab 0a 3d
       0.018787986 -0.16227327 0.15280302 0.03385449
0000b0 b9 66 b6 3c 6d 67 19 3d ab 2f 46 bc e5 dc 36 be
       0.022265779 0.03745215 -0.012096326 -0.17857702
0000c0 6b 45 23 3e e1 ce 97 bd 46 af aa bb 77 95 14 3e
       0.1594445 -0.07412506 -0.0052088825 0.14510141
0000d0 18 15 2b 3c dc 43 8e bd b1 17 39 3e cb 31 45 bd
       0.010442041 -0.06946537 0.18075444 -0.04814319
0000e0 82 0c 00 bd 79 f6 b3 3d 02 82 34 3d cb 38 92 bd
       -0.03126193 0.08787245 0.044069298 -0.07139739
0000f0 ea 14 1a 3c 3d 2d 70 bc 7b 1a e1 bd d6 0b 11 3e
       0.0094044 -0.014659223 -0.10991379 0.14164671
000100 eb b8 3a bc fb 9f 52 3e 32 ed 25 3e cd 73 b4 bc
       -0.011396627 0.2056884 0.16203764 -0.022027874
000110 c9 ad cb 3c bb 5a 7a 3e c3 43 e7 3d 86 11 2b 3e
       0.02486314 0.24448673 0.112922214 0.16705903
000120 9b 74 e7 3b f7 24 91 3d 29 ae 4a 3d 94 43 af 3b
       0.007063461 0.070871286 0.0494825 0.005348632
000130 85 67 63 bd b6 39 7a bc d4 04 0c 3b 26 e1 a0 3d
       -0.055518646 -0.015272548 0.0021365182 0.07855444
000140 2b e4 28 3d 98 6c 7f bd e5 93 25 bb 2b b8 39 3d
       0.041233223 -0.062359422 -0.0025265154 0.045341652
000150 5c 32 99 3c 36 ff 4c be 7b ea 16 3c 2d 6c 3f be
       0.018700771 -0.2001923 0.009211178 -0.1869361
000160 64 14 ca bd a9 b4 c0 3c e2 b2 c5 3d a3 7c fb 3d
       -0.098671705 0.023523645 0.0965326 0.12279632
000170 4f f0 ec bd 6d 09 53 3d 0f b2 47 bd bb e8 01 3e
       -0.11569273 0.05152266 -0.048753794 0.12686436
000180 08 6d 02 3d 47 1a d5 3d f5 9d 23 3e e5 0f 02 be
       0.03184226 0.10405403 0.15978225 -0.12701376
000190 0d 61 b5 3c e9 5c a4 3c 75 b7 bd bc 79 b1 f8 3d
       0.022141004 0.020063834 -0.023158768 0.12143225
0001a0 7d e9 3c be f4 40 80 bd f4 3a 2f 3e 8a 05 2d 3d
       -0.18448444 -0.06262389 0.17112333 0.04224161
0001b0 08 2a 03 bd 30 56 d7 3c 99 37 4f bd d4 42 80 bd
       -0.032022506 0.026286215 -0.05059013 -0.062627465
0001c0 7f 44 64 bd cd 73 bd bc 53 9a 2a 3e 76 2d 15 3d
       -0.055729385 -0.023126507 0.16660433 0.036420308
0001d0 1f b0 29 3d 51 94 93 ba 98 8b 07 3c d3 7e 1c 3e
       0.041427728 -0.0011259412 0.008273028 0.15282755
0001e0 19 79 da bc e0 8d 63 3e 07 f3 87 bc f9 f2 85 bd
       -0.026669072 0.2222209 -0.016595377 -0.06540484
0001f0 4e 26 5e be 78 02 1f bd 1f 05 4e bc f9 4c b9 3c
       -0.216943 -0.038820714 -0.012574463 0.022619711

weight f4 [128, 128]
000000 80 b7 8c bd 01 5b 85 3d f1 d0 70 bd b4 81 a8 bb
       -0.06870937 0.06511498 -0.058793012 -0.005142415
000010 b5 1b 5c bd f1 8a 4f 3b 1e db ac 3c c2 9b 95 3d
       -0.05373736 0.003166851 0.021100577 0.07305099
000020 f9 db f5 bc 76 3d 0d 3c 6c 85 c8 bd 9f 9f 55 3c
       -0.030012118 0.00862061 -0.09791073 0.013038545
000030 00 99 3b 3d e3 54 8c bd 7f e4 74 3d e4 11 94 3d
       0.04580021 -0.06852128 0.059788223 0.07229975
000040 7f 97 40 3d ae ff e0 bc 5e 39 d0 bc 03 a4 c0 3c
       0.047019478 -0.027465668 -0.02541798 0.023515707
000050 9f 17 a2 bc 7f 6b ad bc 18 ea 27 bd d5 34 ab 3d
       -0.019786654 -0.021169422 -0.040994734 0.08359686
000060 34 9d 3a bd 13 78 40 bd db ee 2f bc 60 5b 50 bd
       -0.045560077 -0.04698951 -0.0107381 -0.050868392
000070 d1 de 8f 3d 49 c4 ae bc c6 06 9b bd c8 9c a7 bd
       0.07024921 -0.02133383 -0.07569651 -0.081842005
000080 f0 9b 2b 3d d3 01 b5 3c 6c 7f f7 3b 77 24 1b 3d
       0.04189676 0.022095596 0.0075530317 0.037876572
000090 2f 5f 4c 3b d6 a2 bd bc c5 f3 21 3d 23 cd 96 3d
       0.0031184664 -0.023148935 0.039539117 0.073633455
0000a0 f8 82 1e 3d 3a b2 79 bd c7 4d ae bd 57 3a a1 3d
       0.03869912 -0.060960986 -0.085109286 0.078724556
0000b0 02 aa 1d 3d 7e 7e c8 3b 3f 23 74 bd d7 a8 38 bd
       0.03849221 0.0061185947 -0.059603926 -0.045082893
0000c0 ec a4 47 bc b8 f6 0c bd 23 77 35 3d 6a c6 32 3d
       -0.0121853165 -0.034414977 0.04430307 0.043646254
0000d0 1d f2 92 3d 06 c6 c8 bc 37 62 b5 3a 97 58 4e bd
       0.07175086 -0.024508487 0.0013838474 -0.050377455
0000e0 e9 ba a8 bd 1c 6d 6e bd 7d aa 22 bd 4a 74 52 bd
       -0.08238775 -0.058209524 -0.03971337 -0.051380433
0000f0 5a c9 87 bd 51 a5 85 3d 5b 9a 75 bd 28 9f 60 bd
       -0.06630202 0.06525672 -0.059961658 -0.054839283
000100 97 21 c1 bc bf 06 1f bd 5b ed d1 3b 8b 6e 3b bc
       -0.023575587 -0.038824793 0.006406469 -0.01143993
000110 c7 c3 14 3d e2 45 1a bc 16 bd 7c 3d 37 48 b5 bd
       0.03631952 -0.009416075 0.061703764 -0.088516645
000120 28 b0 6c bb d4 fb 85 bd 1c 3f eb bc 0d 00 fb bc
       -0.003611574 -0.06542173 -0.028716616 -0.030639673
000130 82 ea 3b bc fd df 48 bd e3 b2 f1 bc ea e6 9d bd
       -0.011469485 -0.049041737 -0.029504245 -0.07710059
000140 77 82 b0 bc d0 ed 9a bd 4b 1b 86 3d 0e e2 67 bd
       -0.021546585 -0.075648904 0.065481745 -0.056612067
000150 1d 00 17 b9 97 fc cc 3c 38 62 d7 bc 69 fd c7 bd
       -0.00014400524 0.025022788 -0.026291952 -0.09765131
000160 5a fc 4b bd c6 28 21 3d 64 0c 29 bc e2 3f 98 3b
       -0.049801208 0.039345525 -0.010317896 0.0046462873
000170 f1 13 3e bd f1 56 9d bd c8 2e 56 3d 62 ba c3 3b
       -0.046405736 -0.076825984 0.052290708 0.0059731463
000180 ab bc 8b 3d 1f 6b 32 bd 9a 20 4b 3d db 4c 26 bd
       0.06823095 -0.04355919 0.04959164 -0.04060064
000190 6e 76 3b 3d 55 43 9b 3c 73 1c b4 3c 24 49 27 bc
       0.04576724 0.018953005 0.021986222 -0.010210309
0001a0 00 52 86 bd 6e e3 87 3d 61 19 0b bd 70 7c 86 3d
       -0.06558609 0.06635176 -0.03395975 0.06566703
0001b0 2d dc e7 bc 5e 4f ae bd 87 c9 9b bb 54 ab 8e bd
       -0.02830323 -0.08511232 -0.0047542485 -0.06966272
0001c0 58 35 29 3d d8 36 6a bd a5 05 8f bd 94 83 92 3d
       0.04131064 -0.05718121 -0.069834985 0.07154003
0001d0 05 28 0f 3d b0 45 8c 3d 24 bb e7 3c 03 ef 13 3d
       0.034950275 0.06849229 0.028287478 0.03611661
0001e0 1c a1 ce 3c fa 72 5b 3d 81 e4 a0 3d b6 f6 d6 bc
       0.025223307 0.053576447 0.07856084 -0.026240688
0001f0 4b 73 27 bc 1e 09 aa bc 41 f1 2d bd 49 51 91 3d
       -0.010220359 -0.0207563 -0.042466406 0.07095582
000200 35 a5 a2 3d aa 8d a7 3d e3 39 1d bd b1 fe bd 3d
       0.07941667 0.08181317 -0.038385283 0.09277094
000210 f0 04 d9 3c 22 a5 f8 bc e1 22 07 3d 72 f7 4f bd
       0.026491612 -0.030352179 0.032992247 -0.05077309
000220 87 42 fe 3c 31 7c 7b bd be 2c 22 bd 02 79 75 3d
       0.031037582 -0.061397735 -0.03959345 0.059929855
000230 a5 07 91 bd 28 e8 15 bd 3d 37 97 bd 10 b3 90 3d
       -0.07081536 -0.036598355 -0.07383583 0.070654035
000240 c2 65 94 bd 08 65 2a bd 7c 0f 35 bd 08 b3 70 bd
       -0.07245971 -0.041600257 -0.04420422 -0.058764488
000250 c6 fd fe bc 76 73 9f bb c7 d1 ab 3c a1 49 a8 bb
       -0.031126868 -0.004866059 0.020974053 -0.0051357304
000260 d5 39 ae bd 6b 89 69 3d 26 fa 53 3d cb 3f 12 3d
       -0.08507124 0.057015818 0.051752232 0.03570537
000270 3f b5 ab bc 2b e6 95 bd 38 30 ea bc 7e b0 52 bd
       -0.020960448 -0.07319292 -0.028587446 -0.051437847
000280 9c 08 f1 bb e9 2a 44 bd 5b fb 44 3c 51 5e 34 bd
       -0.0073557626 -0.047892485 0.012022818 -0.04403526
000290 a1 80 96 3d 32 8d ad bc 43 d8 6f 3d c5 21 58 bd
       0.07348753 -0.021185491 0.058555853 -0.05276658
0002a0 24 b4 50 3d c3 ca f3 bb 35 a2 e5 bb 60 9e b2 3d
       0.050953045 -0.0074399426 -0.007007862 0.08721614
0002b0 4d ea 8d 3d 2f 34 ae 3d 46 c5 74 bd 35 08 84 bd
       0.06929455 0.08506047 -0.059758447 -0.06446878
0002c0 16 20 fd bc d5 40 36 bc 16 39 82 3d 2b 4e 80 3d
       -0.030899089 -0.011123856 0.063585445 0.06264909
0002d0 6b 28 ff 3c ac fd 4f 3c 89 83 aa 3c ae 98 a5 bc
       0.031147202 0.012694757 0.020814674 -0.020214405
0002e0 0c 1e 66 bd 83 f2 e0 bc 9b e6 34 bd 6a b1 a5 bc
       -0.056181 -0.027459389 -0.044165235 -0.0202262
0002f0 96 e6 65 3d a7 fc 41 bd a9 db 60 bd f4 bb 81 bd
       0.056128107 -0.04736009 -0.054896984 -0.06334677
000300 82 28 ed 3c 98 c1 a3 3c 50 90 f9 3c 21 19 1d bd
       0.02894998 0.019989774 0.030464321 -0.038354043
000310 22 48 99 bd 20 19 70 bd f1 d2 82 3c 76 32 70 3c
       -0.07484461 -0.05861771 0.015969725 0.014660468
000320 fd 03 e1 bc 7d 6b d7 3c e6 c6 51 3d 25 c1 aa 3d
       -0.027467722 0.026296372 0.051215075 0.08337621
000330 c7 a0 06 bd 04 81 a2 bb 20 6a bc 3d 66 aa 51 3c
       -0.032868173 -0.0049592275 0.09199929 0.012796974
000340 2b 8f aa 3d 99 a2 1a 3d 80 42 dd 3c 1e f5 9b bd
       0.083280884 0.03775272 0.027009249 -0.07615112
000350 c8 b4 88 bd a4 c1 5d 3d bc 26 ed bc 15 33 ae 3c
       -0.06675106 0.05413975 -0.028949134 0.021264592
000360 40 ed 73 bd c2 8c ca 3c 38 ec dd 3b 7f 3a 4b bd
       -0.05955243 0.024725322 0.0067725442 -0.049616333
000370 70 53 1c bd f6 13 85 bd d3 22 50 bd d7 e9 6e bd
       -0.03816551 -0.06497948 -0.05081446 -0.058328476
000380 ed 1e 20 bd 7c 5a 6d bd a3 1e 8d 3d e9 17 f3 3c
       -0.039091993 -0.05794762 0.06890609 0.029674487
000390 35 d7 49 bc 95 1b 8a bd 44 fa 41 3d 2d 63 9c bd
       -0.012319376 -0.06743542 0.047357813 -0.07636104
0003a0 44 42 93 bd d2 8a 41 3d 75 4f 1f bd 55 be 85 bd
       -0.071903735 0.04725153 -0.038894136 -0.065304436
0003b0 39 de 65 bd 4b c4 c4 bc f9 99 a7 3c 66 94 96 bb
       -0.05612013 -0.024019381 0.020459162 -0.004595327
0003c0 97 e9 28 3b a9 24 a9 3d 71 41 7a bd 44 aa 3e 3d
       0.0025773996 0.082589455 -0.061097566 0.046549097
0003d0 1f 31 33 3d 7d 22 0c bc 9a ab 84 3d d2 87 b1 bc
       0.043748017 -0.0085531445 0.06478043 -0.02167121
0003e0 3b 4f e9 bc bd 81 44 bd 6e 43 b1 3d ed 3d 9a bd
       -0.028480163 -0.04797529 0.08655439 -0.07531343
0003f0 7c c2 8c bd de 9d 49 3d ee 80 a5 3c d3 8a 86 3d
       -0.068730325 0.04922282 0.02020308 0.06569447

bias f4 [128]
000000 3f 81 bc bd 1c 9a 86 bd 08 c5 9a 3d 10 3d 0c 3e
       -0.09204339 -0.06572363 0.07557112 0.13695168
000010 68 07 8f bd 73 f3 81 3d 2d aa cc 3c 43 01 97 bc
       -0.069838345 0.063452624 0.02498349 -0.018433219
000020 ca c8 e9 3c 13 d1 65 bd 4b c4 22 bd 2f e0 a7 bd
       0.028538126 -0.05610759 -0.03973798 -0.081970565
000030 bd fd fd 3b 99 22 38 bd 2c 26 14 be 77 75 11 bd
       0.007751195 -0.04495487 -0.14467686 -0.035512414
000040 1f 89 ae 3b 91 68 6a bc a9 5f 15 bd 7d c4 b1 bd
       0.0053264047 -0.014307157 -0.03646818 -0.08680055
000050 de 80 15 3e dc 4a 12 3e fa a8 42 3e 93 a3 3b 3e
       0.1459994 0.14286369 0.19009772 0.18324117
000060 2e a3 ef b9 f6 56 32 bd 0c bf 7d bc e3 2d ea 3b
       -0.0004570721 -0.043539964 -0.015487444 0.0071465834
000070 ac 8a 9a bd bb ea f6 bd b3 12 c5 3d 00 a7 5f bd
       -0.07545981 -0.1205649 0.09622707 -0.054602623
000080 2a a9 cc bd 44 e3 c0 bd 0f b6 97 3c 0a 1d 73 3d
       -0.09993203 -0.094183475 0.01851943 0.059353866
000090 83 6e 09 3d 1e 98 7b 3d 6b 6c fe 3c 20 8f f8 39
       0.033552658 0.061424367 0.031057557 0.00047408883
0000a0 03 3e 0c 3e 58 9e 03 bd 5a 62 26 3e 43 5e ec bb
       0.1369553 -0.03213343 0.16248456 -0.0072133853
0000b0 98 bc dc 3b 03 66 23 bd af aa 1d bd ab 20 d8 3d
       0.0067363493 -0.039892208 -0.038492855 0.10553106
0000c0 22 bd 10 be ca 29 e4 3d 85 b3 80 bd 64 a8 15 3e
       -0.14134648 0.11140783 -0.06284241 0.14615017
0000d0 95 31 19 3d 07 9d b9 bc 57 cb 23 bd dd 14 4a 3d
       0.0374008 -0.022657884 -0.03998884 0.049336303
0000e0 7e ca 26 be d3 81 a2 bd 9c 4c b8 3c 9a 6c ad 3d
       -0.16288182 -0.07934918 0.022497468 0.0846798
0000f0 74 d7 8a 3d c3 75 4d 3c 32 cb 8d 3d b4 29 e5 3d
       0.06779376 0.012540284 0.06923522 0.11189595
000100 27 8a 9d 3d 75 e0 9b 3c 55 29 40 bd 20 24 7e bd
       0.07692366 0.019027928 -0.046914417 -0.06204617
000110 89 d5 aa bc 07 e2 35 bd b5 0c 0b 3e c8 49 86 bc
       -0.020853775 -0.04440501 0.13579066 -0.016392604
000120 77 d1 d3 bd a6 8f 24 3e 65 54 a5 3d 1e c3 d0 bc
       -0.103426866 0.16070423 0.080727376 -0.025483664
000130 0d 7d 88 3d 6c c6 fb 3d ca 3c 7b bd fa a1 66 bd
       0.066644765 0.12293705 -0.06133727 -0.056306817
000140 52 2a 44 bb 19 9e 9a 3c 9a 5e c8 bd 06 88 76 3d
       -0.0029932451 0.018874215 -0.09783669 0.060188316
000150 9e b8 a0 3d be 33 88 3d 6e ac 9f bc 5f a1 d1 bc
       0.07847713 0.06650494 -0.0194914 -0.025589643
000160 90 d1 26 bd 4d 83 d6 bc 68 c6 07 be 53 f8 85 3d
       -0.040727198 -0.026185656 -0.1325928 0.06541505
000170 09 ed ad bc 2a 7f cf bd e5 2d 04 bd 38 e5 01 be
       -0.021231191 -0.101316765 -0.03227033 -0.12685096
000180 29 b1 b9 bc 21 85 cf bd 5c a2 14 be 95 7e 43 bd
       -0.022667484 -0.10132814 -0.1451506 -0.04772814
000190 ef 9c 88 3c cf f2 64 bd 55 bc ac 3c c3 e2 9e bd
       0.016676394 -0.055895623 0.021085897 -0.07758095
0001a0 6d 3d ee 3d 50 64 fd 3d 75 08 6a 3c 3e d1 45 3e
       0.1163281 0.12372649 0.014284243 0.19318101
0001b0 7d 12 8b bd e5 79 65 bc 59 d4 0f 3e e1 47 2d 3e
       -0.06790636 -0.014006113 0.14045848 0.16921951
0001c0 91 dd 51 bd 88 43 36 bd 04 94 89 3b 39 e8 d4 3c
       -0.051236693 -0.044497997 0.004198553 0.025989639
0001d0 4c c5 a0 bd ed c7 81 3e 04 2d 27 3d 63 89 56 be
       -0.078501314 0.25347844 0.040814415 -0.20950846
0001e0 29 9d 60 3d 81 66 5e 3e 02 c7 d6 3c 29 09 19 bb
       0.05483738 0.2171879 0.026217941 -0.0023351407
0001f0 f1 1a 7c bd 52 d6 0c 3d 51 bf 27 bd 5a 5a 1e bd
       -0.06154913 0.03438408 -0.040953938 -0.038660385

weight f4 [128, 128]
000000 4a ca cb bc 9c e1 84 3d de 31 64 bd f8 c8 9d bb
       -0.024876732 0.06488344 -0.05571162 -0.004815217
000010 21 6f b1 bc f2 b2 9e bc b9 c9 d7 3d ac b7 4a 3c
       -0.021659436 -0.019372437 0.105365224 0.012372892
000020 1b 07 88 3c f7 bb c1 3c 42 17 40 3d eb 9d 00 bd
       0.01660495 0.023649199 0.04689718 -0.031400602
000030 42 da 89 bd b9 eb 42 bd 0d 3e 85 bd 4b 3c c7 3c
       -0.067310825 -0.047588084 -0.06505976 0.024320742
000040 01 24 15 bd 9d c9 81 bd 3b fa a5 3c f3 5a a7 3d
       -0.03641129 -0.06337283 0.02026092 0.08171644
000050 a1 b0 d8 3d 39 b9 93 3d 30 81 9d 3d 41 df 5b 3d
       0.10580564 0.07213063 0.07690656 0.05367971
000060 17 75 4c bd 6d b7 98 3d 2d 43 ac bc 3b f4 af 3d
       -0.049916353 0.07456861 -0.021028126 0.08591505
000070 c1 35 44 3d cf 23 59 bd c2 54 a5 3d 57 33 a3 3c
       0.047902826 -0.053012665 0.08072807 0.019921942
000080 59 c6 3a 3d cc 0f 38 3c 80 78 5a bd 02 34 7b bd
       0.045599315 0.011234235 -0.053337574 -0.061328895
000090 62 c2 b0 bd 51 b4 f9 bb 24 a1 04 bd 13 1a b3 3d
       -0.086308256 -0.0076203723 -0.03238024 0.08745208
0000a0 2b 2e c3 3d 2f df c6 3c d9 73 a4 3c b2 c6 4f 3d
       0.0953029 0.024276344 0.020074772 0.0507266
0000b0 55 28 80 bd f9 7b 89 3d d6 03 5e 3d 38 54 4f 3d
       -0.06257693 0.06713099 0.054202877 0.050617427
0000c0 6e b5 b0 bd f2 64 91 3d 52 ea 1a 3c 73 20 68 3c
       -0.08628355 0.07099332 0.00945528 0.014167893
0000d0 de 08 f0 3b 0f b6 90 bd 25 9c 9a bc 89 21 a1 bc
       0.007325276 -0.07065975 -0.018873284 -0.019669311
0000e0 8c 7f 91 3c 0f b1 01 bd cf f9 86 bc e4 7e 2a bd
       0.017761014 -0.031662997 -0.01647654 -0.04162492
0000f0 a3 a9 27 bd 0d eb 32 3d 2e e4 9e bd 3c 71 8e bd
       -0.040933263 0.043681193 -0.077583656 -0.069551915
000100 78 2a 0e 3d 46 13 c3 bd 10 2a 5d bd cf ce 14 bd
       0.03470847 -0.095251605 -0.053995192 -0.03633004
000110 6c 24 50 bd f0 ad 31 3a 32 bb 10 bd ab 6c 90 3d
       -0.050815985 0.0006777933 -0.035334773 0.07051977
000120 a2 df 68 3c 17 f2 1c 3d 02 4c f0 bc 2a b1 1e 3d
       0.0142134745 0.038316812 -0.029333118 0.038743176
000130 41 c4 57 bd a7 1a 7e bd 70 35 ae bd e8 ec 22 3d
       -0.052677397 -0.062037136 -0.08506286 0.039776713
000140 4c 4f 71 bc 9b d5 0c 3d 50 12 5f bb e5 19 ad 3d
       -0.0147283785 0.034383398 -0.0034038015 0.084522046
000150 5e 79 41 bd 21 4d 04 3d 3c 49 79 3b e3 65 4b be
       -0.047234885 0.03230012 0.0038038036 -0.19863085
000160 18 f3 53 bd 18 dc 60 3d b5 52 62 3d 0b 34 45 3d
       -0.051745504 0.054897398 0.055254657 0.048145335
000170 93 71 3f 3d 28 b1 50 bd eb 5c 7e bd 80 f9 8c bc
       0.046739172 -0.0509502 -0.062100332 -0.017208815
000180 66 3a 9c 3d 75 f3 c6 3c ee ff bb bd aa 57 bc bc
       0.07628326 0.024286011 -0.09179674 -0.02299102
000190 77 74 5c bd b8 db 5b bc 7c 95 02 3d 35 cc 56 bd
       -0.053822007 -0.013419084 0.03188084 -0.05244084
0001a0 18 87 57 3d 14 63 b0 3d 24 3f 92 3d 66 ca ad 3d
       0.05261907 0.08612648 0.07140949 0.0848587
0001b0 5d 93 69 bd 7e 83 c6 3c cc 4c b9 3d 08 9b 86 3d
       -0.057025302 0.024232622 0.09047851 0.065725386
0001c0 60 53 54 3d 2e d0 cd bd 14 d5 b6 3c 5d 01 a3 3d
       0.051837325 -0.10049473 0.0223184 0.079592444
0001d0 da 50 13 3d 4c 79 ac 3c 96 71 46 3d 5f 64 de bd
       0.035965778 0.021053933 0.048448168 -0.10858988
0001e0 88 13 a1 bd 1d 69 f7 3c d2 06 22 3c 68 a9 c1 3d
       -0.078650534 0.03020149 0.009889321 0.0945614
0001f0 76 9e 25 3d 86 3e 93 bd d6 61 8e 3d 5e fd a4 bc
       0.040434323 -0.0718966 0.069522545 -0.020140346
000200 37 ee 68 bc 5c 52 b0 3a 14 ab 99 3d 2e f4 b7 3c
       -0.014216951 0.0013452279 0.07503334 0.022455301
000210 96 39 a8 3d 42 42 bc 3d 07 cf aa bd 4b e4 1c 3d
       0.08214109 0.09192325 -0.083402686 0.038303655
000220 7e 9b a4 3d e1 8a 7f 3d 0f d2 9a 3d 41 bb a0 bb
       0.0803747 0.062388305 0.07559597 -0.004905135
000230 a5 70 74 bd 7f 1e 61 bc c5 47 1f 3d fd 36 d7 3d
       -0.05967774 -0.013740181 0.038886804 0.10508535
000240 31 8d 90 3d 8b cf 83 bd 41 e1 3b 3d ab cd a1 3d
       0.0705818 -0.0643607 0.045869116 0.07900556
000250 1f 26 62 bd cb 56 95 bd 22 18 30 3d 0f 74 8b 3d
       -0.055212136 -0.07291945 0.042991765 0.06809246
000260 51 89 9a 3d 69 8a ea bc a9 72 4b bd db 1e b3 3c
       0.07545722 -0.028630452 -0.049669895 0.021865299
000270 f0 f2 71 3d fa dd 45 bd d8 4e b2 3c 8e 8a 8c bd
       0.059069574 -0.048307396 0.021766111 -0.06862365
000280 9c d0 d9 bc da dd c0 3d 30 64 a4 3c c6 fc 55 3d
       -0.02658873 0.09417315 0.020067304 0.052243017
000290 2e 0e 8a bd b4 1b af 3d 5e db db bc 73 c9 90 3d
       -0.06740986 0.08550206 -0.026838 0.070696734
0002a0 d5 37 2b bc 9c 80 05 3d 57 17 3b bd 08 7b 8a bd
       -0.010450323 0.032593355 -0.045676555 -0.067617476
0002b0 d6 91 07 3d ff 42 87 3d 52 6e 29 bd 92 f5 1d 3d
       0.033098064 0.06604575 -0.041364975 0.038564272
0002c0 b9 87 6b bd 36 09 83 bc 91 26 06 3d 65 3c 79 3c
       -0.057502482 -0.015995603 0.032751624 0.015212153
0002d0 e3 80 a3 3c c7 a3 ee bb 5a 1a b9 bc e2 d8 1c bd
       0.019958919 -0.0072827074 -0.022595573 -0.038292773
0002e0 78 aa c0 bc 02 85 bf bc e7 03 4d bd e5 8b ad bb
       -0.023518786 -0.023378853 -0.05005255 -0.0052962177
0002f0 7e 76 e6 bd 62 aa 53 bd ba b1 2b bb 27 ce 05 be
       -0.11253069 -0.05167616 -0.0026198463 -0.13066922
000300 88 80 5d bd 90 82 31 3d dc 2e fe 3c 26 c6 8a 3d
       -0.054077655 0.043337405 0.031028204 0.06776075
000310 3d 4e b0 3d e3 12 b8 bd cd 0d 84 bd 9e e1 5e bd
       0.08608673 -0.08987977 -0.06447945 -0.054414384
000320 7f 63 75 bd 35 43 1b 3d 58 61 1c bd 3d 85 aa bc
       -0.05990934 0.03790589 -0.03817877 -0.020815486
000330 c2 d9 5f 3d 3d 02 45 bd e8 e7 73 3d d7 ee 05 bd
       0.05465103 -0.048097838 0.059547335 -0.03269848
000340 d3 2c fe bc 1b 73 1b bd a4 b6 b6 3d 04 21 b0 3d
       -0.031027233 -0.03795157 0.08921555 0.08600047
000350 18 88 9d bd 77 c0 89 3d 72 82 b4 3c 20 dc 35 be
       -0.076919734 0.06726163 0.022034857 -0.17759752
000360 c5 c4 b1 3d b2 87 b8 3d d7 eb c1 3d 89 e6 b0 bd
       0.08680109 0.09010257 0.09468811 -0.08637721
000370 a8 27 8e bd 77 32 8f bd 89 cd b3 3b a2 3c ae bd
       -0.069411576 -0.06992047 0.005487148 -0.085076585
000380 3f df e2 3d b8 c7 8d bd 07 11 86 bd 9c a0 b3 3d
       0.11077737 -0.06922859 -0.065462165 0.08770868
000390 ca 03 bd 3b 74 1a 92 bd 92 18 ce 3c 13 98 12 3c
       0.005768274 -0.07133952 0.0251582 0.00894739
0003a0 07 d4 83 bd 8f 67 9f 3d 8b c6 8e bc a0 c6 82 3d
       -0.064369254 0.07783424 -0.017428657 0.06385541
0003b0 83 46 23 bd 3e 75 14 bd ce 01 2c bd 99 ac cd 3d
       -0.039862167 -0.036244623 -0.04199391 0.10042686
0003c0 2b 42 13 3d 38 e6 2b 3d cb 15 34 bd d0 72 36 38
       0.035951775 0.0419676 -0.043966096 4.349911e-05
0003d0 3e 35 1e bd 20 a1 9c bd 0f 44 a7 bd 55 e1 5a 3d
       -0.038624994 -0.0764792 -0.08167278 0.05343755
0003e0 52 64 fa 3c 9a 19 3c 3c f9 ee c3 3d a5 75 06 bd
       0.030565415 0.011480713 0.09567065 -0.03282704
0003f0 29 7f 89 bc 9e bb a7 3d 54 19 b1 bc 79 7a 6d 3d
       -0.016784268 0.08190082 -0.021618523 0.057978127

bias f4 [128]
000000 21 62 18 3e d0 27 9d 3d da 5e d7 3d 4e 65 11 3d
       0.14881183 0.07673609 0.105161384 0.035497002
000010 5c 0e 4d bd 75 e2 65 3d 24 27 c2 bd bb 23 67 3e
       -0.050062522 0.05612417 -0.09480122 0.22572224
000020 07 c5 25 3e 94 00 99 3d 8e d2 a1 3d b1 b3 76 bd
       0.16188441 0.074708134 0.07901488 -0.06022996
000030 17 ac 09 3d f9 a9 bf 3b 1d 69 24 3d 90 ec 6a bd
       0.033611383 0.0058491197 0.040139306 -0.05735451
000040 bf c2 39 3d c2 b7 1d 3e 34 13 85 3d ce 67 dc bc
       0.04535174 0.1540213 0.06497803 -0.026904967
000050 35 00 b0 3d ca 0c 69 bd 28 82 91 3a bb cd 98 3d
       0.085937895 -0.056896962 0.0011101412 0.07461115
000060 2a 85 dd bc 0c a1 0e 3e 63 9b 9e 3d 64 7c 53 bd
       -0.027041037 0.13928622 0.077444814 -0.0516323
000070 ad 8e 83 bd f3 5a 1e 3c 11 1c 86 3d 50 a0 4d 3c
       -0.064236976 0.009665239 0.06548322 0.0125504285
000080 1c 09 88 3d a6 5f af bd c5 6a 8d bd db b6 8a 3d
       0.066423625 -0.08563165 -0.0690513 0.06773158
000090 4c 21 3b bd 3f 35 80 bd 8e b9 a4 bd 0a 4a c1 3d
       -0.04568605 -0.06260156 -0.08043204 0.0943795
0000a0 b1 72 69 bc 95 29 7b bc 0b e7 86 bc 8b 51 32 3d
       -0.014248536 -0.015329738 -0.016467592 0.043534797
0000b0 db c3 05 3c 75 22 7e 3d 95 d8 98 bd 2e 9e 49 3c
       0.008164371 0.06204458 -0.07463185 0.012305779
0000c0 e6 9d 9a bd b0 b8 95 3d 3b 10 a0 3d 9f e1 c2 bd
       -0.07549648 0.07310617 0.07815596 -0.0951569
0000d0 aa 45 0a be f1 2b e2 3c 1c 10 ad bd 29 ff 56 3d
       -0.13503137 0.027608844 -0.08450338 0.052489433
0000e0 3a 31 a2 3d 6f da 75 bc 53 04 51 3d f6 e9 28 3e
       0.079195455 -0.015005692 0.051029515 0.16495499
0000f0 67 f1 68 3d 98 91 f5 bd 20 64 9b 3d 25 64 2e 3d
       0.056870844 -0.119906604 0.07587457 0.042575974
000100 ca 54 1f 3e db f0 ae bd 3c 7f 91 bc 9f 37 a5 bd
       0.15559688 -0.08542033 -0.017760865 -0.080672495
000110 06 1b a4 bd 17 39 3f 3d 62 47 37 bc c6 17 00 3e
       -0.08012967 0.046685304 -0.011186453 0.12509069
000120 ae 5d 5f 3d b9 cc 36 3c 87 9c 10 3e 4d 81 2d bd
       0.0545327 0.011157208 0.1412221 -0.04235964
000130 49 66 5a 3d 65 13 39 3d ec 75 11 3e 62 3e c8 bc
       0.053320203 0.04518451 0.1420514 -0.024443809
000140 72 cd 59 3d 45 38 ba bd a5 87 8a 3d b6 67 f5 3d
       0.053174444 -0.09092764 0.067641534 0.11982672
000150 69 bc 1c 3d 86 cf 5d bd 8c 80 9e bc 61 fb 88 3d
       0.03826562 -0.054152988 -0.019348405 0.06688572
000160 bf 7c a7 bd 5a d4 e4 bb 5f 1d ca 3c 75 93 a7 bb
       -0.0817809 -0.006983322 0.024672208 -0.005114014
000170 b2 18 61 3d b8 82 09 bd 07 8d c8 bd ba 7b ab 3d
       0.054955192 -0.03357193 -0.09792524 0.08373208
000180 17 03 5a bd 8f 2e 14 3e e7 5e fe bd 63 5b e7 bc
       -0.053225603 0.14470886 -0.12420445 -0.028241819
000190 82 7b 90 bd b5 e4 a5 bd 8d ec 46 3d 70 cd 8e 3d
       -0.07054807 -0.08100263 0.048565436 0.06972778
0001a0 28 12 b8 bd 8f 26 70 bd 38 98 aa bd a4 d2 41 3c
       -0.08987838 -0.058630522 -0.08329815 0.011830006
0001b0 33 a7 56 3d 7b 59 48 3d 43 78 9d bd ac 68 5e 3e
       0.052405547 0.04891346 -0.07688954 0.21719617
0001c0 a9 1b 40 bd 70 5e 40 bd d7 e9 8e bc d8 cf fa bb
       -0.04690138 -0.046965063 -0.017445488 -0.0076541714
0001d0 d3 32 40 3a 7f 58 78 3d 11 47 1e 3e 96 cb c8 38
       0.0007331792 0.06063127 0.15456797 9.574664e-05
0001e0 41 4b 95 3c bc b1 42 3e 84 35 e5 bb bb 43 af 3d
       0.01822436 0.19013113 -0.006994905 0.085578404
0001f0 17 5c 16 bd 9f 54 e4 ba f6 73 3d bd 5f b4 df bd
       -0.036708917 -0.0017420239 -0.046253167 -0.10923075
