IO_DynaPlex/DeepControlledLearning/PolicyWeights/random_leadtimes_l_exponential_d10_h1_b9/_gen.pth (torch, 280956 bytes, 10 tensors)

weight f4 [256, 2]
0.4395096 -0.5214757 -0.25995022 -0.3457514 -0.32571346 -0.17101024 -0.5318171 -0.16903001
0.7391848 -0.17815635 0.25834075 -0.15038295 0.17024012 -0.08800908 -0.8481276 -0.025718331
-0.2925727 -0.559824 0.19648588 0.3775131 -0.4017383 -0.65574867 0.52886814 -0.6445892
0.1389488 0.17171264 0.4115856 -0.21991523 -0.67444205 -0.43921137 0.17577384 0.06465857
0.25753886 0.5570801 0.2410499 0.053863827 0.5133088 0.07758163 -0.19034848 0.41590267
-0.122947246 -0.13450399 -0.4111166 0.4635008 0.63080335 0.47969708 -0.15853752 0.21378934
-0.19313487 0.06821749 -0.6398803 -0.6142561 0.12191873 0.19443208 0.6245453 0.3761276
-0.16824128 -0.050194956 -0.3035812 0.34900272 0.2862942 0.32010666 0.013717014 0.11252211
0.05472944 0.10677485 0.42977977 -0.37220788 -0.3196821 0.049553763 -0.086907394 0.05827941
-0.66173697 0.51549196 0.7132945 -0.30413973 0.6723535 -0.037993904 -0.6152126 -0.6387727
0.006809914 0.05137448 -0.22933722 0.46845248 -0.4339346 0.3349857 -0.55472684 -0.66362995
-0.23290735 -0.115452774 0.13013154 -0.11678286 0.42029572 -0.57044435 0.3778761 0.024803618
-0.06683824 -0.50405127 -0.56223243 -0.5985308 -0.24316615 -0.70319563 -0.1846286 0.09411561
-0.22028767 0.12089361 0.1441437 0.30176413 -0.22364846 -0.66697437 0.06911972 0.06861439
-0.055596143 0.47235116 -0.045825843 0.1516539 -0.15544859 0.37726045 -0.54743004 0.19794692
-0.2419637 -0.629277 -0.7049137 -0.6664627 -0.1501758 -0.17352481 0.7355223 -0.6552453
-0.10059061 0.17495458 0.0077409428 -0.19151393 -0.27982488 -0.6117603 -0.6523602 -0.51587373
0.6260256 0.0506263 -0.7049647 -0.0026293178 0.07120513 0.33577818 -0.49312624 0.20025104
0.34332258 0.11248972 0.2543963 -0.30843002 0.34499893 0.20034766 -0.31853014 0.36915708
-0.5809995 0.07102296 -0.27868077 -0.075142436 0.5324241 -0.6391881 0.80104035 -0.47693723
-0.30749345 -0.11948791 0.12070845 0.45413032 0.6647233 0.27739885 0.13671349 -0.13310705
0.0064898776 0.08107045 0.095364995 -0.40208244 -0.015565505 -0.37323067 -0.2735906 0.3322994
0.41884398 0.52939475 0.26961973 0.3056903 0.6357874 0.33332184 0.61911166 -0.29076982
0.40298405 0.21361516 0.4145993 0.26964578 0.576571 -0.037688576 -0.016354663 -0.20927647
-0.22503726 0.32636386 0.057285067 -0.47329426 0.40261716 -0.53890485 -0.38893664 0.14247753
0.3212501 0.2808987 0.50876516 0.051431525 -0.2621199 0.33427444 -0.32465172 0.18119179
-0.48126185 0.21084584 0.17802685 0.06157575 -0.5270805 0.48942682 -0.1738732 -0.30895275
-0.090977654 0.25210935 0.5153756 0.45897874 -0.02770865 0.011025627 -0.029498558 0.07182988
-0.38038042 0.56296027 -0.6084249 0.16621234 -0.3651216 0.2806656 -0.5607031 -0.6742294
-0.6407172 -0.5190659 -0.19253837 0.5616746 -0.542895 0.28928912 -0.44937906 0.2039209
-0.42508292 -0.09782005 -0.36566058 -0.6570843 -0.47900686 0.51364386 0.21001077 -0.68038017
0.32949 -0.47449237 0.64787465 0.38201258 -0.54559237 0.30368966 -0.39304247 0.013354101
00000000: 6707 e13e 6e7f 05bf 3218 85be 5406 b1be
00000010: eac3 a6be 4f1d 2fbe 2a25 08bf 3416 2dbe
00000020: 373b 3d3f 9e6e 36be 3d45 843e fdfd 19be
00000030: 6d53 2e3e 1b3e b4bd e41e 59bf 40af d2bc
00000040: 17cc 95be a050 0fbf 9833 493e 6649 c13e
00000050: a4b0 cdbe 25df 27bf e763 073f cc03 25bf
00000060: 9848 0e3e 70d5 2f3e 59bb d23e 7531 61be
00000070: 3ca8 2cbf 50e0 e0be 0ffe 333e b66b 843d
00000080: 22dc 833e cd9c 0e3f c9d5 763e 51a0 5c3d
00000090: 3568 033f 1ee3 9e3d b6ea 42be 32f1 d43e
000000a0: c4cb fbbd 6abb 09be e07d d2be fa4f ed3e
000000b0: 547c 213f db9a f53e a957 22be 98eb 5a3e
000000c0: 26c5 45be 9db5 8b3d 32cf 23bf e33f 1dbf
000000d0: 87b0 f93d 3419 473e 33e2 1f3f cc93 c03e
000000e0: 7147 2cbe 3a99 4dbd ff6e 9bbe 7cb0 b23e
000000f0: 2795 923e 05e5 a33e 54bd 603c fe71 e63d
00000100: fa2b 603d c6ac da3d 180c dc3e 0892 bebe
00000110: 5fad a3be e3f8 4a3d 81fc b1bd 64b6 6e3d
00000120: 9867 29bf 48f7 033f 789a 363f 34b8 9bbe
00000130: 5c1f 2c3f 7f9f 1bbd 937e 1dbf 9c86 23bf
00000140: b325 df3b 0c6e 523d 60d7 6abe 01d9 ef3e
00000150: ad2c debe 3f83 ab3e 9402 0ebf a7e3 29bf
00000160: 447f 6ebe 8172 ecbd 3441 053e da2b efbd
00000170: 0031 d73e a408 12bf fa78 c13e f530 cb3c
00000180: 7de2 88bd 8109 01bf 77ee 0fbf 5139 19bf
00000190: 8c00 79be a104 34bf 480f 3dbe afbf c03d
000001a0: 1793 61be 1297 f73d 689a 133e d480 9a3e
000001b0: 1a04 65be d5be 2abf a48e 8d3d b485 8c3d
000001c0: c8b8 63bd 03d8 f13e e1b3 3bbd 294b 1b3e
000001d0: ea2d 1fbe 4828 c13e 6024 0cbf 99b2 4a3e
000001e0: 55c5 77be 4c18 21bf 3975 34bf 4d9d 2abf
000001f0: afc7 19be 7db0 31be 304b 3c3f 28be 27bf
00000200: 7302 cebd 4b27 333e bca7 fd3b 3a1c 44be
00000210: 3545 8fbe 539c 1cbf 1401 27bf 4d10 04bf
00000220: 3743 203f 865d 4f3d 9178 34bf a250 2cbb
00000230: ffd3 913d 1eeb ab3e 0b7b fcbe 9c0e 4d3e
00000240: fac7 af3e 0361 e63d 3b40 823e 8aea 9dbe
00000250: b3a3 b03e f027 4d3e 6216 a3be 2802 bd3e
00000260: 62bc 14bf 7c74 913d 3faf 8ebe 47e4 99bd
00000270: f24c 083f d5a1 23bf fb10 4d3f 1e31 f4be
00000280: c86f 9dbe 14b6 f4bd fe35 f73d c583 e83e
00000290: 4e2b 2a3f 3907 8e3e 9ffe 0b3e 374d 08be
000002a0: 0aa9 d43b 4408 a63d b94e c33d c0dd cdbe
000002b0: 7606 7fbc 1718 bfbe 1114 8cbe 2623 aa3e
000002c0: b872 d63e 6a86 073f 990b 8a3e 7083 9c3e
000002d0: f7c2 223f 29a9 aa3e 1a7e 1e3f c8df 94be
000002e0: ed53 ce3e efbd 5a3e 5c46 d43e 030f 8a3e
000002f0: 289a 133f 565f 1abd 37fa 85bc 924c 56be
00000300: 2b70 66be 2a19 a73e bfa3 6a3d a053 f2be
00000310: d623 ce3e abf5 09bf b422 c7be a1e5 113e
00000320: e57a a43e f4d1 8f3e 6f3e 023f dda9 523d
00000330: 9434 86be 0526 ab3e c038 a6be 578a 393e
00000340: f467 f6be f9e7 573e ac4c 363e db36 7c3d
00000350: bfee 06bf 2796 fa3e d10b 32be 0e2f 9ebe
00000360: 7e52 babd 7a14 813e a8ef 033f 43ff ea3e
00000370: 40fd e2bc d5a4 343c f6a6 f1bc 8b1b 933d
00000380: 39c1 c2be 2a1e 103f bcc1 1bbf 9133 2a3e
00000390: 38f1 babe 67b3 8f3e 3d8a 0fbf 4c9a 2cbf
000003a0: 0b06 24bf 81e1 04bf c728 45be e8c9 0f3f
000003b0: 2bfb 0abf b41d 943e 0315 e6be a4d0 503e
000003c0: 78a4 d9be e155 c8bd dd37 bbbe ad36 28bf
000003d0: 6340 f5be 2a7e 033f 100d 573e 652d 2ebf
000003e0: eab2 a83e aaf0 f2be 1ddb 253f 2797 c33e
000003f0: f1ab 0bbf 367d 9b3e dd3c c9be 29cb 5a3c

bias f4 [256]
-0.4378675 -0.35071218 -0.6469944 0.67493093 -0.5359458 0.6238321 -0.084356755 0.020492677
-0.098132275 -0.81141615 0.5249191 -0.3996955 0.4976601 0.49607196 0.10577206 -0.84797096
-0.013511262 -1.0238054 -0.7450724 0.24527489 -0.19320014 0.5051717 0.36736903 -0.9117737
0.98506445 0.3386806 -0.5120503 -0.22004701 0.062076405 0.546258 -0.75061566 0.14895695
-1.0056987 -0.46448317 -0.29602748 0.3623777 0.76407987 -0.6077477 -0.6909418 0.6808581
-0.7542008 -0.12183356 1.0345575 -0.61637014 0.33298033 0.36564696 -0.1397826 -0.60124826
-0.015263144 -0.335352 0.28374168 -0.5819903 0.78041893 0.66479635 0.16987692 0.411078
0.65992326 -0.4571139 -0.87098765 -0.4649429 -0.70484155 0.26823628 0.6613554 -0.58681923
-0.7563026 0.22953384 -0.12660298 -0.03957631 0.69815195 -0.00023952071 0.24701002 0.7930241
0.68940943 -0.36276406 0.21579777 0.32065314 0.2396786 -0.41312796 -0.59660095 0.68231
0.36482945 0.35133988 -0.17732581 0.32265761 -0.79878217 -0.6354885 0.22509038 -0.6432366
0.31522262 0.9400354 -0.7364481 -0.25413862 -1.0012504 -0.29949018 0.64293647 0.124694824
-0.9213536 0.2075739 -0.039088883 -0.4658994 0.45408326 0.49518123 0.5872201 0.359406
0.5368218 -0.6461611 0.31845957 0.41224447 0.09361361 0.46121785 0.6573121 -0.8878185
0.5521862 1.0286437 0.341225 0.6350453 -0.5077807 -0.5732142 -0.503844 -0.41954076
-0.1352521 -0.6976964 -0.24283992 -0.5859302 0.6490791 0.53278095 -0.4585954 0.91045856
0.031244863 -0.6810331 -0.3093938 0.050946772 -0.10838339 -0.23454042 0.5000217 -0.3723938
0.21817893 -0.6035161 -0.09830751 0.22745483 0.7782207 0.8338707 0.35513118 0.64985615
0.7071886 -0.15205501 -0.07652625 -0.095541224 0.4141079 -0.64447224 -0.46415678 -0.034060303
-0.80512977 0.479499 -0.05960441 0.502409 -0.27829158 0.046174906 -0.48742375 -0.27668282
0.44294465 0.816397 -0.5764982 0.4324177 0.09238536 -0.18770967 -0.9863297 -0.3604541
-0.3845735 -0.15058514 0.48174664 0.5868424 0.9581253 0.52442145 -1.0464369 -0.91286695
0.81514204 -1.0111877 0.4624299 0.075319745 -0.94720703 0.15912189 -0.100918025 -0.890538
-0.25730252 0.538103 0.5408161 0.48961934 -0.7042152 0.56933975 -0.22484146 0.049146667
-0.8023581 0.059088133 0.33908352 0.5368823 -0.8708391 0.13971782 -0.108646184 -0.5525747
0.23769537 -0.2519707 -1.0503683 -0.4967553 -0.22473979 1.0000702 -0.60071313 0.1821462
0.63482696 0.5102478 -0.5302225 0.7001041 -0.17402646 -0.53657645 0.5633082 0.30179787
0.8027318 -0.61817205 -0.654652 0.28309402 -0.77011764 -0.038334075 0.46268633 -0.2843689
-0.49114963 0.1828678 0.45415926 0.79595757 0.6238382 0.21643367 0.814405 0.15669473
-0.5894931 0.90471524 -0.1818135 -0.17901601 0.7671514 -0.840786 -0.10023479 0.24974056
0.9254774 0.95414156 -0.3311426 0.44240668 -0.22388808 -1.0032092 0.5313468 0.778733
-0.49128768 -0.4334043 -0.004014953 -0.68772346 -0.5765459 -0.88645416 -0.794992 0.21773715
00000000: 2b30 e0be 8c90 b3be 6da1 25bf 46c8 2c3f
00000010: be33 09bf 76b3 1f3f 3cc3 acbd 42e0 a73c
00000020: 93f9 c8bd f8b8 4fbf 1961 063f e3a4 ccbe
00000030: 4ecd fe3e 25fd fd3e 069f d83d a014 59bf
00000040: 575e 5dbc 0e0c 83bf 11bd 3ebf 5729 7b3e
00000050: 42d6 45be ef52 013f cb17 bc3e 006a 69bf
00000060: 2f2d 7c3f 8b67 ad3e ba15 03bf 0154 61be
00000070: d443 7e3d 90d7 0b3f 5928 40bf 2c88 183e
00000080: bcba 80bf bdd0 edbe ea90 97be 9289 b93e
00000090: bd9a 433f 5a95 1bbf 90e1 30bf b74c 2e3f
000000a0: 4e13 41bf e083 f9bd 616c 843f 6fca 1dbf
000000b0: 667c aa3e 1436 bb3e 2b23 0fbe 68eb 19bf
000000c0: 4412 7abc 42b3 abbe 9746 913e 51fd 14bf
000000d0: 89c9 473f 1830 2a3f 37f4 2d3e d178 d23e
000000e0: bbf0 283f d50a eabe 0cf9 5ebf ff0c eebe
000000f0: 7f70 34bf 4456 893e 964e 293f c939 16bf
00000100: 0c9d 41bf eb0a 6b3e 36a4 01be c51a 22bd
00000110: 16ba 323f da27 7bb9 32f0 7c3e a103 4b3f
00000120: 237d 303f 36bc b9be 17fa 5c3e a62c a43e
00000130: 4f6e 753e 8285 d3be d7ba 18bf deab 2e3f
00000140: edca ba3e d2e2 b33e e694 35be 6133 a53e
00000150: fd7c 4cbf 60af 22bf 187e 663e 27ab 24bf
00000160: dc64 a13e 29a6 703f dd87 3cbf 751e 82be
00000170: f928 80bf c756 99be 7c97 243f 0060 ff3d
00000180: d4dd 6bbf 418e 543e aa1b 20bd 5e8a eebe
00000190: 9a7d e83e 6588 fd3e 0e54 163f 1004 b83e
000001a0: 276d 093f d06a 25bf 220d a33e b511 d33e
000001b0: 7eb8 bf3d bf24 ec3e 9b45 283f 1348 63bf
000001c0: 135c 0d3f 99aa 833f 0bb5 ae3e 5492 223f
000001d0: eafd 01bf 2abe 12bf ecfb 00bf 0cce d6be
000001e0: 877f 0abe 3b9c 32bf 07ab 78be 86ff 15bf
000001f0: 0c2a 263f 5564 083f 04cd eabe d013 693f
00000200: 3af5 ff3c 2f58 2ebf dd68 9ebe 90ad 503d
00000210: 1cf8 ddbd 5d2b 70be 6c01 003f 66aa bebe
00000220: 4c6a 5f3e 0880 1abf 7355 c9bd ebe9 683e
00000230: 7939 473f 8d78 553f c1d3 b53e f95c 263f
00000240: 500a 353f 4fb4 1bbe cbb9 9cbd 1eab c3bd
00000250: f305 d43e 22fc 24bf f5a5 edbe d182 0bbd
00000260: fc1c 4ebf e580 f53e c123 74bd e09d 003f
00000270: 3c7c 8ebe e621 3d3d 9b8f f9be 5fa9 8dbe
00000280: a4c9 e23e 65ff 503f 6395 13bf da65 dd3e
00000290: 8934 bd3d f736 40be 1a80 7cbf 718d b8be
000002a0: d1e6 c4be fe32 1abe 7fa7 f63e 4e3b 163f
000002b0: b347 753f 7c40 063f a5f1 85bf a6b1 69bf
000002c0: 26ad 503f 996e 81bf 9dc3 ec3e 3d41 9a3d
000002d0: 297c 72bf d9f0 223e 1cae cebd 4cfa 63bf
000002e0: 28bd 83be 1ec1 093f ed72 0a3f 63af fa3e
000002f0: 7347 34bf 40c0 113f d73c 66be 044e 493d
00000300: 5767 4dbf 6606 723d 5b9c ad3e 1e71 093f
00000310: 50ef 5ebf 3012 0f3e e481 debd 8975 0dbf
00000320: 6a66 733e 4e02 81be 7872 86bf b656 febe
00000330: 3022 66be 4d02 803f 56c8 19bf 8984 3a3e
00000340: 0584 223f 9a9f 023f a9bc 07bf 063a 333f
00000350: fe33 32be 135d 09bf f734 103f 4085 9a3e
00000360: d57f 4d3f 8640 1ebf 4697 27bf b3f1 903e
00000370: 6e26 45bf 3104 1dbd 39e5 ec3e cd98 91be
00000380: f777 fbbe b241 3b3e 9087 e83e e0c3 4b3f
00000390: dcb3 1f3f caa0 5d3e d97c 503f 9574 203e
000003a0: 05e9 16bf 6b9b 673f 512d 3abe f94f 37be
000003b0: 0964 443f c03d 57bf e647 cdbd fdbb 7f3e
000003c0: 16ec 6c3f 9f42 743f 868b a9be 2183 e23e
000003d0: eb42 65be 2969 80bf 5806 083f 0c5b 473f
000003e0: 0f8a fbbe 2be7 ddbe de8f 83bb a50e 30bf
000003f0: 8398 13bf a9ee 62bf 9984 4bbf 7df6 5e3e

weight f4 [128, 256]
0.038144104 0.006525688 0.055690266 -0.03118334 -0.041191924 0.04412833 -0.077693924 -0.16171484
-0.02220282 -0.00051207934 -0.023240432 -0.05517687 0.051592045 0.069640145 0.01453355 -0.14026673
-0.03570147 -0.33838576 -0.013990743 0.053083465 0.001275219 0.023852933 -0.018381301 -0.023161268
0.13748202 -0.04213939 0.025975052 0.040204994 -0.027452491 0.03168185 -0.0035124666 0.0026049966
-0.15893832 0.0007411018 -0.10723193 0.039937273 0.020318529 -0.15790206 -0.16801496 0.020263419
-0.226909 -0.002472061 0.0031893074 0.061486274 0.00918486 0.020613382 0.044677123 -0.25148886
-0.019264087 0.0013473481 0.0070276633 -0.108305454 0.051681302 0.05278752 0.040400237 0.08006232
0.048511963 -0.075512126 -0.012392272 -0.07455676 0.059323348 0.015925601 0.023681998 0.04015232
-0.005175022 -0.036944404 0.04993753 0.05792796 0.07111969 -0.076606914 -0.024766186 0.093324214
0.019725066 -0.0097434595 -0.032164402 -0.024223287 0.009656186 0.017656282 0.06147317 -0.2057402
-0.03498759 0.05626056 0.021239989 0.030911788 -0.16763574 0.04891058 -0.038109943 -0.059937123
0.03859527 0.03207006 0.009885441 -0.2256116 -0.03481968 0.013085831 0.11316943 0.045661315
-0.017354831 0.0055009127 -0.0285929 -0.0571386 -0.027698461 0.06364072 0.05207783 0.028872108
-0.016249169 -0.09240422 0.05733772 0.055418126 -0.032172147 -0.0006194273 0.20514478 -0.2703929
-0.019758575 0.026794335 0.026703216 -0.060555503 -0.05310964 -0.04694043 0.031260237 -0.08762479
-0.054573327 -0.03248869 0.05722087 -0.016052268 -0.02358602 0.05993926 -0.02153525 0.18250918
-0.014726358 -0.11970924 -0.03856378 0.0457154 0.027635736 -0.07727171 0.02277609 -0.05273076
-0.0028116826 0.0043601547 0.053156096 -0.03033775 0.14265998 -0.044258475 -0.03523603 -0.0620661
0.0035509889 0.027015442 0.03308194 0.029913817 -0.03739582 -0.08175268 -0.042918336 -0.054140247
-0.01344284 0.047903515 -0.046084322 -0.007221572 0.034800597 0.0073143467 -0.07790113 -0.10053067
-0.070257604 0.060577016 -0.014248528 0.047274366 -0.18846828 -0.046527177 -0.016952073 -0.06396626
0.006872581 -0.066859975 0.02429182 -0.04457047 -0.0007225996 -0.049196392 -0.07585886 -0.0004720388
0.030206755 -0.000107564876 -0.010156013 -0.020081699 -0.14753348 0.05564022 0.013659698 -0.14555296
-0.0054068854 -0.018846022 0.05806761 0.022028193 -0.17157304 0.028228242 -0.012471721 -0.0014123763
-0.24333274 -0.048038304 0.028666513 -0.02024214 -0.019470142 0.00046058 -0.024066754 0.011151872
-0.0059122145 0.025044188 -0.04744573 0.011699029 -0.011871268 0.1041239 -0.08884358 -0.056641936
-0.053276338 0.08739626 0.0070892423 -0.1650718 -0.0076257437 -0.04862775 0.057065934 0.014243942
0.14449313 -0.027169995 0.011652544 -0.070632964 0.012341201 -0.016346313 -0.046494536 -0.0612857
0.004857287 0.03489709 0.02390311 0.20811415 -0.008002162 0.024781145 0.10603813 0.03624797
-0.04902654 0.056464344 0.011922032 -0.039816197 0.12063922 -0.004640186 0.0124816075 0.056290783
0.01799622 0.008801196 -0.13707493 -0.0134526435 0.017373525 -0.18429586 0.07466316 0.014826669
-0.04183927 -0.031883597 -0.007830732 0.025952037 0.022372939 -0.066665955 -0.057166394 -0.028561583
00000000: fe3c 1c3d 70d5 d53b 7a1b 643d 3474 ffbc
00000010: ddb8 28bd e8bf 343d fe1d 9fbd 9398 25be
00000020: b0e2 b5bc 103d 06ba b862 bebc 2401 62bd
00000030: 2e52 533d 7e9f 8e3d 201e 6e3c 15a2 0fbe
00000040: b43b 12bd e640 adbe 6e39 65bc 0c6e 593d
00000050: 4025 a73a 3a67 c33c 6294 96bc b3bc bdbc
00000060: 16c8 0c3e 5a9a 2cbd a2c9 d43c fead 243d
00000070: 0ce4 e0bc d4c4 013d 6931 66bb 97b8 2a3b
00000080: bac0 22be 8046 423a 6a9c dbbd 4495 233d
00000090: 0b73 a63c 14b1 21be 1d0c 2cbe 78ff a53c
000000a0: d55a 68be 4d02 22bb b303 513b 08d9 7b3d
000000b0: 187c 163c 65dd a83c 5cff 363d 26c3 80be
000000c0: b8cf 9dbc 8099 b03a 5048 e63b 40cf ddbd
000000d0: c6af 533d ba37 583d b87a 253d b7f7 a33d
000000e0: 7bb4 463d 1aa6 9abd f508 4bbc 37b1 98bd
000000f0: 0afd 723d 6876 823c c000 c23c c276 243d
00000100: 3b93 a9bb 0453 17bd 4c8b 4c3d de45 6d3d
00000110: 33a7 913d 16e4 9cbd 75e2 cabc c420 bf3d
00000120: 7696 a13c 08a3 1fbc d2be 03bd ea6f c6bc
00000130: fb34 1e3c e8a3 903c 4acb 7b3d 8fad 52be
00000140: 264f 0fbd 7971 663d 7cff ad3c b83a fd3c
00000150: b4a8 2bbe 7656 483d 2c19 1cbd a180 75bd
00000160: 1316 1e3d e55b 033d 8bf6 213c ba06 67be
00000170: 159f 0ebd f465 563c 60c5 e73d 5c07 3b3d
00000180: b82b 8ebc 0041 b43b a83b eabc 2a0a 6abd
00000190: e2e7 e2bc 1156 823d 904f 553d 3385 ec3c
000001a0: fa1c 85bc 6c3e bdbd f5da 6a3d 1efe 623d
000001b0: f1c6 03bd 1061 22ba 7911 523e f070 8abe
000001c0: bcdc a1bc cb7f db3c b4c0 da3c 0c09 78bd
000001d0: 7e89 59bd 9c44 40bd bc0a 003d a074 b3bd
000001e0: 4888 5fbd dc12 05bd 6e60 6a3d 0c80 83bc
000001f0: 7837 c1bc df82 753d b16a b0bc b0e3 3a3e
00000200: d246 71bc 1e2a f5bd 0ef5 1dbd 1240 3b3d
00000210: 5764 e23c a140 9ebd ec94 ba3c 36fc 57bd
00000220: 3544 38bb a1df 8e3b 35ba 593d e086 f8bc
00000230: 7515 123e 6048 35bd a853 10bd 0639 7ebd
00000240: b5b7 683b 7d4f dd3c ee80 073d d20d f53c
00000250: 5c2c 19bd f36d a7bd 23cb 2fbd 2ac2 5dbd
00000260: 5c3f 5cbc 7a36 443d eac2 3cbd f0a2 ecbb
00000270: 128b 0e3d 30ad ef3b a18a 9fbd 06e3 cdbd
00000280: 38e3 8fbd 9b1f 783d a872 69bc c4a2 413d
00000290: d4fd 40be 4893 3ebd 13df 8abc be00 83bd
000002a0: 6333 e13b e2ed 88bd a4ff c63c 868f 36bd
000002b0: d76c 3dba 2882 49bd e45b 9bbd fa7b f7b9
000002c0: 2874 f73c 7494 e1b8 6865 26bc 6082 a4bc
000002d0: 0413 17be 00e7 633d edcc 5f3c d60b 15be
000002e0: 3e2c b1bb f962 9abc 4dd8 6d3d 7874 b43c
000002f0: d8b0 2fbe ea3e e73c 3056 4cbc 7c1f b9ba
00000300: 382c 79be d0c3 44bd 09d6 ea3c d8d2 a5bc
00000310: d97f 9fbc 007a f139 a427 c5bc 57b6 363c
00000320: 40bb c1bb 7829 cd3c 7456 42bd 49ad 3f3c
00000330: b57f 42bc e93e d53d 9ff3 b5bd 6001 68bd
00000340: 4a38 5abd cffc b23d e04c e83b 9508 29be
00000350: 60e1 f9bb e42d 47bd f8bd 693d 6c5f 693c
00000360: 02f6 133e 9c93 debc 50ea 3e3c 04a8 90bd
00000370: c032 4a3c b4e8 85bc 0e71 3ebd b706 7bbd
00000380: e029 9f3b 40f0 0e3d 74d0 c33c e01b 553e
00000390: 801b 03bc d401 cb3c 852a d93d c078 143d
000003a0: 0ed0 48bd 2847 673d a054 433c 4f16 23bd
000003b0: b211 f73d b40c 98bb a87f 4c3c 2a91 663d
000003c0: cf6c 933c e432 103c 5f5d 0cbe 7a68 5cbc
000003d0: ec52 8e3c 0eb8 3cbe 00e9 983d 8feb 723c
000003e0: a85f 2bbd 6098 02bd 784c 00bc 5e99 d43c
000003f0: 7447 b73c 2988 88bd 4f27 6abd fbf9 e9bc

bias f4 [128]
0.30297023 0.02835244 0.0190726 0.0068767252 0.008147273 -0.24996288 0.05601295 -0.004745428
0.0014696545 -0.082182944 -0.12956631 0.017597236 -0.014003049 -0.020076089 -0.051677927 0.008928045
0.041036356 0.17240974 -0.028187178 -0.004464723 -0.17099085 -0.38849908 0.25463307 0.0118331015
-0.34897658 0.046097048 -0.22150424 -0.044286594 -0.017751416 0.3871533 -0.09754558 0.19264364
-0.04579776 -0.014840526 -0.04788675 0.026478965 0.38057145 0.26165888 -0.021306962 -0.20037216
-0.0261938 0.03759782 -0.043386742 -0.0011989763 -0.046318 -0.01025339 0.030573323 0.048933983
-0.06414521 0.02275881 0.023987181 0.029425 -0.047820844 -0.15978643 -0.053331047 -0.0035978262
0.11958818 -0.08908393 0.045072686 -0.020761676 -0.003984294 0.026374152 -0.03275711 -0.036655996
-0.0065432265 -0.026406348 -0.054341424 0.09733014 0.062315404 -0.04971321 -0.33314112 -0.04756363
0.052471906 -0.0010066313 0.056472473 0.04682499 0.0102837905 -0.0661613 -0.064770795 -0.038392216
-0.037744995 -0.027131887 0.039616667 0.05031787 -0.0046480363 -0.05359043 -0.24047737 -0.05068525
0.010493443 0.054393783 -0.030955408 0.042718183 0.011970229 -0.337132 -0.050458428 -0.011895082
-0.058147654 0.15950017 0.029457338 0.28632927 -0.2666753 -0.04080982 -0.07416689 -0.012389531
0.04487493 -0.032432966 -0.28171635 -0.3673092 -0.002624041 -0.010363672 -0.05860121 -0.031388693
0.030979734 -0.012880825 -0.05747022 0.04017952 -0.30289385 -0.0614623 -0.31038392 0.016781071
-0.24004595 -0.31033683 0.035258856 0.05304633 -0.019997634 -0.28498587 0.23564705 -0.028895646
00000000: ea1e 9b3e 6043 e83c 243e 9c3c 2756 e13b
00000010: 247c 053c 45f6 7fbe d66d 653d 897f 9bbb
00000020: 6ca1 c03a 884f a8bd 08ad 04be 1428 903c
00000030: 0b6d 65bc 9c76 a4bc 3cac 53bd ef46 123c
00000040: bd15 283d 2e8c 303e cce8 e6bc d04c 92bb
00000050: 3a18 2fbe 5ae9 c6be 445f 823e a0df 413c
00000060: 0fad b2be 42d0 3c3d 02d2 62be dc65 35bd
00000070: 6b6b 91bc f538 c63e fac5 c7bd 6044 453e
00000080: 6f96 3bbd ad25 73bc e624 44bd 6aea d83c
00000090: 43da c23e 27f8 853e f08b aebc 5c2e 4dbe
000000a0: 6194 d6bc 2c00 1a3d 4cb6 31bd f826 9dba
000000b0: f1b7 3dbd d6fd 27bc e874 fa3c 006f 483d
000000c0: 905e 83bd af70 ba3c c480 c43c b30c f13c
000000d0: cadf 43bd 0e9f 23be a871 5abd 82c9 6bbb
000000e0: a6ea f43d a371 b6bd 239e 383d 6414 aabc
000000f0: ae8e 82bb 9b0e d83c 522c 06bd 9924 16bd
00000100: 9068 d6bb 2052 d8bc 1d95 5ebd 0655 c73d
00000110: 703e 7f3d 14a0 4bbd 7991 aabe 15d2 42bd
00000120: c8ec 563d f1f0 83ba ae4f 673d 90cb 3f3d
00000130: 587d 283c 937f 87bd 8da6 84bd 2841 1dbd
00000140: 7f9a 1abd b143 debc 1645 223d 1c1a 4e3d
00000150: 8e4e 98bb a481 5bbd b33f 76be 569b 4fbd
00000160: b1ec 2b3c 04cc 5e3d 3296 fdbc 43f9 2e3d
00000170: c81e 443c 919c acbe 7fad 4ebd 97e3 42bc
00000180: 3c2c 6ebd 0354 233e 8450 f13c c099 923e
00000190: aa89 88be 3328 27bd cfe4 97bd 76fd 4abc
000001a0: c6ce 373d 6ed8 04bd 203d 90be f40f bcbe
000001b0: 1af8 2bbb 64cc 29bc d307 70bd 6e91 00bd
000001c0: 36c9 fd3c 190a 53bc e565 6bbd 4893 243d
000001d0: e714 9bbe e5bf 7bbd a4ea 9ebe 7578 893c
000001e0: 9bce 75be 78e4 9ebe 976b 103d 1c47 593d
000001f0: 14d2 a3bc abe9 91be 764d 713e 90b6 ecbc

weight f4 [128, 128]
-0.07333175 -0.035281338 0.026337638 0.038530428 0.055350665 -0.004571171 -0.06366846 -0.010020371
-0.036398046 0.072162285 -0.011794564 0.038935784 -0.05905571 -0.03578912 0.0041296114 -0.069048926
-0.0412764 0.039289936 -0.08726659 -0.017526481 -0.043936633 -0.09935379 0.05811971 -0.07770434
0.023595825 -0.005426354 0.026452867 0.06502719 -0.0655916 -0.10812283 -0.08068265 0.024199741
-0.011585536 0.05381849 -0.08711207 -0.02998559 -0.11638069 0.040458303 -0.08442149 0.05374551
-0.0065005086 -0.02563229 -0.014934938 -0.086303756 0.040795155 -0.022375887 0.06427886 0.035061922
-0.027518995 0.03881022 -0.06737382 0.07440599 0.03011347 0.017298818 -0.016945394 0.06774213
-0.047846075 -0.039946944 0.06940553 0.027930241 0.0098996665 0.07765768 0.062204264 0.04176306
0.016947638 -0.009448543 -0.025243191 -0.028901666 0.020699887 0.05432186 -0.055010047 -0.074941024
0.05840573 0.047923137 -0.0486733 0.033425096 0.080336146 0.05691578 0.051510476 0.004108496
-0.046399318 -0.050815254 0.021240178 -0.07047517 2.9787285e-05 0.076102234 -0.08706888 0.025051592
-0.057924815 0.056366835 -0.010537661 -0.05995208 0.027609937 0.007216418 0.044039138 -8.491536e-05
-0.010685111 0.01262431 -0.040816862 -0.08810937 0.013906095 0.020684065 -0.022746067 -0.018297717
-0.04722667 -0.07425914 0.04669961 -0.062354196 0.041074853 0.033216275 0.0052759107 -0.0073805135
-0.025311531 -0.0058414442 0.06513291 -0.08135306 -0.0064326944 0.042820957 -0.05108666 0.059294704
0.02126064 0.005121731 0.05557694 0.018620403 -0.04333856 0.0010460514 -0.093345456 0.035949044
0.03233379 0.040368702 0.06767727 -0.082802616 -0.044733915 -0.020678567 0.052109536 0.0672953
0.08740298 -0.023480048 -0.0025544174 -0.03080709 -0.044936374 -0.053891044 -0.079978615 0.047125354
-0.046719782 -0.02087843 -0.017443176 0.025410766 0.057008117 -0.0030004126 0.063838944 -0.012317901
-0.018434456 -0.0045480663 0.09280566 -0.06669212 -0.034689996 0.047635686 -0.023065211 -0.07563136
-0.0070606926 0.03901755 -0.06775467 0.059795707 0.019606486 -0.018799797 -0.023799852 -0.036722537
-0.034338996 0.012145099 0.07446159 0.09190778 -0.05952196 -0.07114753 -0.03325749 -0.032777194
-0.030891072 0.026590442 0.007421544 -0.08055731 -0.05126075 0.080523804 0.0766305 0.049030375
0.053838152 0.05081276 0.09359425 0.019726705 0.014180511 -0.06454323 -0.0062343427 0.08613253
0.04850315 0.06882023 0.0467073 0.072807394 0.009914888 0.082834266 0.05794664 -0.064052664
0.028726121 -0.013976022 0.07355361 0.06231247 -0.037162784 -0.021032358 -0.046120755 -0.016525863
0.001716723 -0.02564618 -0.05039153 0.04561022 0.051468752 0.03586373 -0.01606743 0.039255586
-0.048771087 0.07732214 -0.06119871 0.010490218 0.03473717 0.08630956 -0.012928269 0.0839288
-0.013637129 -0.04180982 0.03045309 -0.07909622 0.025931718 -0.020033423 0.077563435 -0.0728009
-0.028727755 -0.010741324 -0.011024474 0.081622034 0.005904548 -0.07265855 -0.030471014 -0.05012378
0.034713548 0.0298861 0.0727558 0.039970018 0.12952672 -0.01761229 0.04544019 -0.06472232
-0.047015917 0.07868095 0.0029330705 0.016082209 0.06656232 0.055375997 -0.07032626 0.057863086
00000000: f52e 96bd 2a83 10bd 08c2 d73c 15d2 1d3d
00000010: 61b7 623d c3c9 95bb 9c64 82bd 7b2c 24bc
00000020: 1e16 15bd d2c9 933d fd3d 41bc 217b 1f3d
00000030: 66e4 71bd 9d97 12bd b151 873b 8669 8dbd
00000040: 7111 29bd 7cee 203d d3b8 b2bd b293 8fbc
00000050: e6f6 33bd 007a cbbd ef0e 6e3d 7423 9fbd
00000060: 084c c13c 8ecf b1bb afb3 d83c fa2c 853d
00000070: e454 86bd 816f ddbd f23c a5bd 893e c63c
00000080: 43d1 3dbc c770 5c3d d067 b2bd 57a4 f5bc
00000090: 0059 eebd 9bb7 253d 2de5 acbd 4024 5c3d
000000a0: 3802 d5bb cffa d1bc acb1 74bc 06c0 b0bd
000000b0: d218 273d a34d b7bc a3a4 833d 179d 0f3d
000000c0: 846f e1bc 77f7 1e3d 49fb 89bd 2b62 983d
000000d0: 86b0 f63c 40b6 8d3c 11d1 8abc 63bc 8a3d
000000e0: 3ffa 43bd 689f 23bd 7d24 8e3d f6cd e43c
000000f0: 3632 223c fd0a 9f3d e6c9 7e3d be0f 2b3d
00000100: c6d5 8a3c 10ce 1abc cfca cebc 30c3 ecbc
00000110: cf92 a93c 9980 5e3d 3752 61bd ae7a 99bd
00000120: d93a 6f3d 0d4b 443d a75d 47bd c1e8 083d
00000130: 4787 a43d 8520 693d a6fc 523d 90a0 863b
00000140: 360d 3ebd a823 50bd e2ff ad3c 4955 90bd
00000150: b5df f937 7ddb 9b3d 2b51 b2bd ff38 cd3c
00000160: 9242 6dbd e9e0 663d 27a6 2cbc 5090 75bd
00000170: 3c2e e23c b477 ec3b 6262 343d 9614 b2b8
00000180: 9b10 2fbc 32d6 4e3c 952f 27bd af72 b4bd
00000190: 64d6 633c a171 a93c f655 babc 18e5 95bc
000001a0: c170 41bd 2d15 98bd 1748 3f3d 1d67 7fbd
000001b0: 1b3e 283d ca0d 083d 8ce1 ac3b 3cd8 f1bb
000001c0: 215a cfbc 9669 bfbb 6764 853d 6f9c a6bd
000001d0: 5ac9 d2bb 0765 2f3d 3f40 51bd 01df 723d
000001e0: cb2a ae3c 32d4 a73b a5a4 633d d189 983c
000001f0: c683 31bd a91b 893a e72b bfbd 4e3f 133d
00000200: 7070 043d a759 253d 619a 8a3d 6b94 a9bd
00000210: e93a 37bd 1966 a9bc cf70 553d 1ed2 893d
00000220: 5500 b33d 3b59 c0bc 0368 27bb 275f fcbc
00000230: 340f 38bd dbbc 5cbd d4cb a3bd 8406 413d
00000240: 3e5d 3fbd 3e09 abbc fee4 8ebc 3d2a d03c
00000250: 5881 693d 92a2 44bb febd 823d 05d1 49bc
00000260: db03 97bc f207 95bb e510 be3d e195 88bd
00000270: 1917 0ebd a31d 433d 41f3 bcbc 9de4 9abd
00000280: 625d e7bb ded0 1f3d f6c2 8abd 58ec 743d
00000290: c89d a03c 0802 9abc e8f7 c2bc 5f6a 16bd
000002a0: 0ca7 0cbd 3dfc 463c 517f 983d 253a bc3d
000002b0: 4ccd 73bd ccb5 91bd 0139 08bd 6141 06bd
000002c0: 460f fdbc 33d4 d93c 6c30 f33b 3bfb a4bd
000002d0: cbf6 51bd aae9 a43d 74f0 9c3d 13d4 483d
000002e0: 6585 5c3d 0a21 503d 58ae bf3d e699 a13c
000002f0: 6055 683c 3e2f 84bd 7549 ccbb 4066 b03d
00000300: 3dab 463d 9ff1 8c3d 2750 3f3d 0b1c 953d
00000310: 0e72 223c 03a5 a93d 7559 6d3d 0b2e 83bd
00000320: 0b53 eb3c affb 64bc 46a3 963d 5c3b 7f3d
00000330: 0138 18bd 0d4c acbc 1ee9 3cbd 3f61 87bc
00000340: aa03 e13a f017 d2bc 5967 4ebd c8d1 3a3d
00000350: e6d0 523d d9e5 123d d89f 83bc 77ca 203d
00000360: 31c4 47bd 125b 9e3d 80ab 7abd 2adf 2b3c
00000370: 9048 0e3d 11c3 b03d 17d1 53bc dde2 ab3d
00000380: 446e 5fbc c640 2bbd c278 f93c 33fd a1bd
00000390: c16e d43c 221d a4bc 94d9 9e3d a318 95bd
000003a0: 7856 ebbc 61fc 2fbc ff9f 34bc 7429 a73d
000003b0: f07a c13b 02ce 94bd 599e f9bc 984e 4dbd
000003c0: cb2f 0e3d b2d3 f43c fe00 953d 9ab7 233d
000003d0: a7a2 043e a647 90bc 7e1f 3a3d 238d 84bd
000003e0: c393 40bd 7a23 a13d c238 403b d6be 833c
000003f0: d351 883d f1d1 623d 3707 90bd d801 6d3d

bias f4 [128]
0.03579142 -0.3005237 0.05502616 0.15217255 0.049955714 0.02303358 0.024354918 -0.04235894
-0.02771858 0.09779003 -0.005332513 0.027208617 -0.31589606 -0.19327979 -0.23564701 -0.2495053
0.025118334 -0.109106176 0.008499204 0.063799195 -0.07744741 -0.09718831 -0.3292769 0.20035481
-0.13893846 -0.029823218 -0.020819863 0.043459613 0.029651048 0.19749212 0.01673512 -0.037846334
0.18991517 0.047978465 -0.022429615 -0.20636882 -0.08615383 -0.26783666 0.10659158 -0.2781171
0.10478417 -0.13511439 -0.08249635 -0.064175144 -0.26835445 -0.118279815 0.24102664 -0.17670149
0.001123728 0.03191805 0.25060213 -0.044695746 0.049356777 -0.058051746 -0.18364874 -0.0325817
-0.21596022 -0.31729248 -0.13573481 -0.014433562 -0.253937 -0.35760906 0.08792293 -0.14090465
0.099875174 -0.0893301 -0.024314452 -0.18493588 -0.28067833 -0.32059732 0.3206892 -0.22076252
-0.07828238 -0.16378433 -0.23655875 -0.30338097 0.054517772 -0.18308128 0.3995832 -0.009291916
0.030244531 -0.10271377 -0.35029536 0.022354627 0.3751722 -0.055073153 -0.054796025 -0.05473737
0.37915674 -0.009571356 -0.2549704 -0.10446426 0.20193578 -0.254722 -0.011378207 -0.07035075
-0.027942855 -0.07093155 -0.009422357 0.07348518 -0.035138413 0.014409276 -0.19461651 0.18975
-0.28529647 -0.090332836 0.00492766 -0.11105387 -0.2513404 -0.07931197 0.06841568 0.064393945
-0.11014879 -0.036443017 0.033103365 -0.090079 0.03377569 -0.2758636 -0.107385896 0.032435417
-0.047503944 -0.09509386 -0.081893116 -0.21509597 -0.07040105 -0.16355464 -0.06679695 -0.21637894
00000000: 069a 123d 3ede 99be 1c63 613d 1fd3 1b3e
00000010: 5d9e 4c3d ebb0 bc3c f783 c73c 9180 2dbd
00000020: 1312 e3bc 2446 c83d 5cbc aebb 9be4 de3c
00000030: 21bd a1be 23eb 45be 734d 71be 517e 7fbe
00000040: f7c4 cd3c 0f73 dfbd 3f40 0b3c 27a9 823d
00000050: bf9c 9ebd aa0a c7bd fb96 a8be d029 4d3e
00000060: e245 0ebe d24f f4bc 6b8e aabc b502 323d
00000070: c1e6 f23c 603b 4a3e 1718 893c c204 1bbd
00000080: 1f79 423e 1185 443d 50be b7bc 5952 53be
00000090: 6b71 b0bd e321 89be b04c da3d 5d65 8ebe
000000a0: 1599 d63d 6d5b 0abe d9f3 a8bd 426e 83bd
000000b0: c165 89be b03c f2bd b0cf 763e 3cf1 34be
000000c0: 0e4a 933a 80bc 023d ec4e 803e e312 37bd
000000d0: 552a 4a3d abc7 6dbd 6a0e 3cbe 6374 05bd
000000e0: ad24 5dbe 2974 a2be 11fe 0abe bf7a 6cbc
000000f0: 0804 82be 8918 b7be f010 b43d 4f49 10be
00000100: 5b8b cc3d b3f2 b6bd 1a2f c7bc d55f 3dbe
00000110: 12b5 8fbe 5525 a4be 6031 a43e 920f 62be
00000120: 8352 a0bd 14b7 27be 753c 72be c054 9bbe
00000130: 074e 5f3d a979 3bbe 2b96 cc3e 1f3d 18bc
00000140: 61c3 f73c 995b d2bd ea59 b3be 0d21 b73c
00000150: 9216 c03e 6394 61bd cc71 60bd 4b34 60bd
00000160: d520 c23e 2dd1 1cbc 7b8b 82be 5cf1 d5bd
00000170: 41c8 4e3e ec6a 82be a96b 3abc 0e14 90bd
00000180: 6ae8 e4bc 8f44 91bd 3b60 1abc 667f 963d
00000190: 4ced 0fbd e214 6c3c 8d49 47be d34d 423e
000001a0: 6112 92be 6c00 b9bd 3578 a13b 3670 e3bd
000001b0: b0af 80be 506e a2bd 851d 8c3d f9e0 833d
000001c0: b095 e1bd 4645 15bd 6597 073d 577b b8bd
000001d0: 6158 0a3d fe3d 8dbe 23ed dbbd 00db 043d
000001e0: 7f93 42bd 92c0 c2bd 94b7 a7bd 1e42 5cbe
000001f0: 6d2e 90bd de7a 27be d7cc 88bd 7192 5dbe

weight f4 [128, 128]
-0.057105307 -0.10217532 -0.00733953 -0.004721613 0.024743158 0.019395666 -0.06832649 -0.044175975
0.03480797 0.026878735 -0.033615693 -0.034139562 0.060366046 0.06057287 -0.04505089 -0.083543
0.037929095 0.08909307 0.027194923 0.021191126 -0.076960795 -0.034646094 0.07211308 -0.10356951
0.00075739884 -0.0014072126 -0.050822604 -0.07360524 0.036974885 -0.044493638 0.043301277 0.0019575602
0.026567252 0.066920735 0.08164636 -0.01843905 -0.066252984 -0.05136613 0.009490935 0.033190414
-0.060101025 -0.06008916 0.012079256 0.013186636 0.041292965 0.03713323 0.057721853 -0.06487036
-0.07448693 0.0032304607 0.070986584 -0.059410233 0.03980695 0.046868715 -0.09371342 0.047035083
-0.05824745 -0.051082555 0.08012989 0.044378854 -0.0180652 0.09730329 0.05254837 -0.067984216
0.060980413 0.02014802 0.08315813 0.039844718 0.04073902 -0.03874645 0.0968974 0.067951046
-0.080976054 -0.04347456 0.054598935 -0.01084572 -0.040077217 0.075247444 0.00712754 0.081361115
0.09969928 -0.10140235 0.016586656 -0.11484967 0.059738528 -0.03383 -0.008897009 0.1701006
0.082864724 0.004825434 0.06102872 -0.016278552 -0.04672757 0.077337295 -0.049454074 -0.050014835
0.095258005 -0.032801066 0.061273016 -0.053461317 -0.139903 -0.04006489 0.031095672 0.039934114
0.021655003 -0.013545601 0.04790359 -0.06319346 -0.08222297 0.0026265443 -0.031323463 0.02584679
-0.09607037 -0.012707655 -0.10160423 -0.06795861 0.03318658 0.047657423 -0.05854739 -0.10011689
0.08678833 -0.0360744 -0.04766853 -0.012112937 0.07433581 0.05496988 -0.0028248045 -0.0030539013
-0.011127466 0.07395657 -0.0030252796 -0.071708 0.00047926125 -0.0481175 -0.031085294 0.018223297
-0.060208056 -0.15175004 -0.066130534 -0.026544996 0.09642953 0.11723136 0.0543441 0.02347579
-0.08483029 -0.020743335 0.032967933 0.031973984 0.064433664 0.05653019 0.07750102 0.07739832
0.06429826 0.049171142 -0.053788144 -0.006357115 -0.028405651 0.005471364 0.015817232 0.004971586
-0.057134654 0.0015014032 -0.06513459 -0.012195794 0.07311478 0.032996215 0.069242336 0.02282372
0.042639196 0.00943772 -0.037524577 0.12277864 0.064574026 0.20578904 -0.0683417 0.007343487
-0.060966425 -0.01550394 -0.09907419 0.043780096 0.04180602 -0.045406647 -0.03495975 0.0047209244
0.037623063 -0.03717178 -0.037651766 0.023611449 -0.02850097 0.030491536 0.0016391447 0.074369304
-0.014232042 -0.06853273 -0.021307841 0.032627426 -0.04043705 -0.07060408 -0.109978035 -0.08915609
0.014202898 0.013434408 0.025423951 0.083260626 -0.07362696 0.036721814 -0.14917392 0.009995781
-0.026665187 0.0104613565 0.05451034 -0.04136084 0.032218937 0.045635384 0.017845055 -0.022099998
-0.11705735 -0.032033056 -0.069502346 0.04301351 0.030839916 0.102578215 0.113481015 -0.07962508
0.05736662 -0.023304036 0.027388897 -0.024785688 0.094005734 -0.052199263 0.044751287 0.033386115
-0.03853265 -0.02760418 -0.018016335 -0.016325234 0.030708184 0.0032922383 0.049436808 -0.030866522
0.073184 0.04252848 0.12780261 -0.07674864 -0.062182408 0.09696215 0.0013277009 0.0155669395
-0.031177472 -0.054215346 -0.0620263 0.087003425 -0.015328815 -0.037282385 -0.014219443 0.003374769
00000000: 41e7 69bd 4b41 d1bd 7180 f0bb c3b7 9abb
00000010: 2ab2 ca3c a9e3 9e3c c2ee 8bbd def1 34bd
00000020: cd92 0e3d cb30 dc3c 9cb0 09bd edd5 0bbd
00000030: 6342 773d 421b 783d 4887 38bd 9818 abbd
00000040: 8a5b 1b3d 6d76 b63d e3c7 de3c 0399 ad3c
00000050: 9f9d 9dbd 10e9 0dbd 06b0 933d 401c d4bd
00000060: 2d8c 463a 3872 b8ba 5d2b 50bd 58be 96bd
00000070: fa72 173d f63e 36bd ae5c 313d 694a 003b
00000080: 91a3 d93c bd0d 893d 3536 a73d 7e0d 97bc
00000090: a5af 87bd 4b65 52bd de7f 1b3c acf2 073d
000000a0: 7e2c 76bd 0d20 76bd 12e8 453c c30c 583c
000000b0: d022 293d 0419 183d c06d 6c3d c0da 84bd
000000c0: 9b8c 98bd 23b6 533b 6a61 913d 2558 73bd
000000d0: 9d0c 233d 69f9 3f3d d2ec bfbd dca7 403d
000000e0: e194 6ebd f13b 51bd 241b a43d 9ac6 353d
000000f0: 78fd 93bc f346 c73d f63c 573d 4f3b 8bbd
00000100: 99c6 793d 760d a53c cf4e aa3d 3734 233d
00000110: f5dd 263d 99b4 1ebd 2572 c63d eb29 8b3d
00000120: c6d6 a5bd 6112 32bd 22a3 5f3d 3fb2 31bc
00000130: 0228 24bd 551b 9a3d 248e e93b a8a0 a63d
00000140: 232f cc3d 09ac cfbd bde0 873c 4e36 ebbd
00000150: 63b0 743d 5391 0abd c3c4 11bc da2e 2e3e
00000160: fbb4 a93d ad1e 9e3b 40f9 793d 995a 85bc
00000170: 6965 3fbd 0463 9e3d 5b90 4abd 5bdc 4cbd
00000180: a116 c33d 695a 06bd 6af9 7a3d 41fa 5abd
00000190: bb42 0fbe 151b 24bd 5abc fe3c f491 233d
000001a0: d565 b13c 5eee 5dbc 8e36 443d 936b 81bd
000001b0: 8464 a8bd 1a22 2c3b 084d 00bd a6bc d33c
000001c0: 8bc0 c4bd c533 50bc e115 d0bd e22d 8bbd
000001d0: a7ee 073d 6e34 433d 63cf 6fbd 160a cdbd
000001e0: 14be b13d c0c2 13bd 1440 43bd 5775 46bc
000001f0: 603d 983d 1928 613d 5b20 39bb f623 48bb
00000200: fa4f 36bc 8b76 973d c543 46bb a5db 92bd
00000210: 5b45 fb39 db16 45bd 96a6 febc 0649 953c
00000220: b99c 76bd 5d64 1bbe 726f 87bd e474 d9bc
00000230: d87c c53d ff16 f03d eb97 5e3d 4d50 c03c
00000240: 81bb adbd eded a9bc 6209 073d 27f7 023d
00000250: ccf5 833d 338c 673d dbb8 9e3d 0383 9e3d
00000260: ceae 833d ae67 493d f550 5cbd 594f d0bb
00000270: f8b2 e8bc 2149 b33b 2493 813c b0e8 a23b
00000280: 0706 6abd bbca c43a 4965 85bd ded0 47bc
00000290: 34bd 953d 0a27 073d edce 8d3d cff8 ba3c
000002a0: 70a6 2e3d aba0 1a3c 5fb3 19bd 5e73 fb3d
000002b0: 633f 843d 5dba 523e bcf6 8bbd a2a1 f03b
000002c0: eeb7 79bd 3d04 7ebc 69e7 cabd c252 333d
000002d0: ca3c 2b3d 52fc 39bd f431 0fbd fcb1 9a3b
000002e0: a41a 1a3d 7041 18bd bd38 1abd cc6c c13c
000002f0: de7a e9bc 63c9 f93c 92d8 d63a ef4e 983d
00000300: 832d 69bc e35a 8cbd c88d aebc 56a4 053d
00000310: 52a1 25bd df98 90bd 2a3c e1bd 7897 b6bd
00000320: 46b3 683c fe1b 5c3c e445 d03c 8c84 aa3d
00000330: bbc9 96bd 9d69 163d 0cc1 18be 58c5 233c
00000340: f370 dabc 1c66 2b3c 3c46 5f3d fc69 29bd
00000350: 01f8 033d 2bec 3a3d cb2f 923c 0e0b b5bc
00000360: c4bb efbd 1835 03bd 3f57 8ebd ef2e 303d
00000370: fea3 fc3c 8714 d23d bc68 e83d 7912 a3bd
00000380: 43f9 6a3d 1be8 bebc ae5e e03c 5b0b cbbc
00000390: 1486 c03d e5ce 55bd 204d 373d e1bf 083d
000003a0: 69d4 1dbd 2922 e2bc fe96 93bc 7fbc 85bc
000003b0: bb8f fb3c 98c2 573b 407e 4a3d cadb fcbc
000003c0: 7ee1 953d 5832 2e3d b0de 023e 642e 9dbd
000003d0: fbb2 7ebd 1794 c63d 4006 ae3a 7a0c 7f3c
000003e0: e667 ffbc e910 5ebd 4a0f 7ebd da2e b23d
000003f0: b625 7bbc 6ab5 18bd abf8 68bc 3a2b 5d3b

bias f4 [128]
0.06202366 -0.17661825 -0.064753845 -0.076619454 -0.0939765 -0.043985695 -0.019237168 -0.28940985
0.22201657 -0.25058424 0.047941245 0.3307756 -0.25788444 -0.010616728 -0.15841517 0.299501
3.0635285e-05 0.036657058 0.1579203 -0.04455335 -0.08586634 -0.20630586 -0.03961229 0.18664268
0.0019771338 -0.05113688 0.028292188 0.10559325 0.13863009 -0.1936261 0.14000972 -0.26640823
-0.20403147 -0.15689185 0.10161471 -0.00053734856 0.331005 -0.19228347 -0.33654347 -0.0671497
-0.08876907 -0.0486154 0.008764821 0.024643557 0.11657305 0.015316792 0.012160619 0.29540944
-0.23664853 -0.0877106 -0.0810418 -0.1972125 -0.15822916 -0.113028325 -0.2213763 -0.16540217
0.12077803 -0.13924466 0.12458962 -0.0810572 0.049114022 -0.10675375 -0.0959655 0.048237417
-0.1766408 0.069529936 -0.24626018 -0.15771429 -0.21074797 0.00027725764 0.04903354 -0.1975166
-0.07522729 -0.027403736 -0.2861224 0.16324514 0.04753702 0.33153838 0.05798313 -0.10626525
-0.08236 -0.054613415 -0.03873371 0.0023182987 -0.2348678 -0.033910606 -0.096185565 -0.09805693
0.020823034 0.032201968 -0.055942953 0.012519276 -0.11647493 0.24544868 -0.27955112 0.008468976
0.00013029149 0.04333786 -0.08334237 -0.07566248 -0.009533367 -0.13295296 -0.08228594 0.13024667
-0.28081834 -0.17519945 -0.17125645 -0.24520272 -0.21883504 -0.050447483 0.024074364 0.009181344
-0.16917509 0.16688803 0.033066306 -0.21414545 -0.14266916 -0.061381835 -0.2607733 0.058788955
-0.07749939 0.03803705 -0.050432812 0.06258764 0.28583866 0.062627956 -0.11746874 0.008240967
00000000: 850c 7e3d 6adb 34be aa9d 84bd a9ea 9cbd
00000010: c076 c0bd 582a 34bd 4497 9dbc 872d 94be
00000020: 5058 633e 944c 80be 0a5e 443d 6b5b a93e
00000030: 6e09 84be c9f1 2dbc 9637 22be 3258 993e
00000040: 637e 0038 b625 163d dcb5 213e 937d 36bd
00000050: b1da afbd d841 53be 7f40 22bd 421f 3f3e
00000060: cd92 013b e874 51bd 05c5 e73c 4641 d83d
00000070: 0cf5 0d3e ec45 46be b55e 0f3e a966 88be
00000080: a0ed 50be 42a8 20be 601b d03d dadc 0cba
00000090: 7d79 a93e f5e5 44be 6d4f acbe c885 89bd
000000a0: 8fcc b5bd f120 47bd 539a 0f3c 49e1 c93c
000000b0: dabd ee3d 48f3 7a3c 553d 473c e83f 973e
000000c0: fe53 72be 9da1 b3bd 3ef9 a5bd 13f2 49be
000000d0: d306 22be 657b e7bd 78b0 62be 305f 29be
000000e0: 795a f73d 2796 0ebe d828 ff3d 5101 a6bd
000000f0: c92b 493d b6a1 dabd 8f89 c4bd 9994 453d
00000100: 53e1 34be b665 8e3d a12b 7cbe db7f 21be
00000110: 51ce 57be e45c 9139 65d7 483d cb41 4abe
00000120: c410 9abd cd7d e0bc a37e 92be bc29 273e
00000130: 2eb6 423d 66bf a93e b87f 6d3d 98a1 d9bd
00000140: 5cac a8bd 51b2 5fbd 3da7 1ebd 99ee 173b
00000150: 2f81 70be d9e5 0abd f0fc c4bd 12d2 c8bd
00000160: 1195 aa3c 36e6 033d 7024 65bd a61d 4d3c
00000170: 688a eebd e656 7b3e 5321 8fbe 76c1 0a3c
00000180: db9e 0839 0a83 313d 68af aabd eef4 9abd
00000190: d731 1cbc d224 08be 8885 a8bd 625f 053e
000001a0: 6cc7 8fbe 7c67 33be da5d 2fbe 6c16 7bbe
000001b0: 4b16 60be 05a2 4ebd 9a37 c53c 596d 163c
000001c0: 3c3c 2dbe b2e4 2a3e 8970 073d f248 5bbe
000001d0: dd17 12be 856b 7bbd 1484 85be b0cc 703d
000001e0: 00b8 9ebd bdcc 1b3d a392 4ebd f32d 803d
000001f0: 7259 923e 1643 803d 7393 f0bd 1f05 073c

weight f4 [7, 128]
-0.04114536 0.07641269 0.046550907 -0.029849907 -0.1691661 -0.012214991 -0.016686836 0.07232931
-0.2366317 0.08931297 0.019061016 -0.1746944 0.080529176 -0.11855108 0.072429575 -0.1432452
-0.09168773 -0.060349498 -0.33610117 -0.09819121 0.04032148 0.07371765 0.022608338 -0.06251503
-0.024454746 0.05730275 0.0022047688 -0.026306203 -0.117457576 0.1116708 -0.006354049 0.08424235
0.07582097 0.09468257 -0.123285234 -0.048654884 -0.19665867 0.13904426 0.12483185 -0.06701865
-0.013688393 0.017951567 -0.052544657 -0.098239094 0.005440698 -0.0908604 0.06874616 -0.16788046
0.09684487 -0.05490492 -0.03710205 0.07224633 0.059401423 0.044695225 0.03631036 0.08130609
-0.11197779 -0.16256933 0.04316179 0.07031734 0.04848839 0.095895916 0.0434975 0.04631878
0.08341857 0.0016718776 0.1370925 0.04889267 0.100288376 -0.018665435 -0.036310438 0.11204009
0.06573397 0.039596662 0.119842075 -0.08936268 -0.1545255 -0.24316552 -0.22605063 0.058455527
-0.019259565 -0.05269651 -0.008425819 -0.07545636 0.07815025 0.012733972 -0.02739894 0.03383712
-0.01084164 0.050898757 0.00868997 -0.035095498 0.056895632 -0.053848006 0.15765974 -0.0703536
-0.16026655 0.076620415 0.053071674 -0.021121563 -0.077598 0.099466965 -0.042249877 -0.1118029
0.07654123 0.08079082 0.08297878 0.06867484 0.11764311 0.01892536 0.019911435 0.03512034
0.0988785 -0.111565255 -0.19716813 0.094708934 0.041927245 0.018864466 0.052741874 -0.041119926
0.028757976 -0.037521444 0.034846406 -0.000133663 -0.16338447 -0.08920428 0.09739614 -0.008210931
-0.014108756 -0.008918688 -0.013246105 0.03165369 0.05354922 0.0090550585 0.037556577 -0.030578656
-0.02482652 0.06428985 -0.04668424 -0.052570425 -0.027057758 -0.08013674 -0.011627318 0.011761013
0.033726424 0.06714734 -0.13422674 -0.13578945 0.03996045 -0.035386994 -0.030417414 -0.033202454
0.030676287 0.06803653 -0.03594185 -0.16429746 -0.09353292 0.072203845 0.050251156 -0.014061296
0.06348341 0.03789926 -0.037858866 0.0013619584 -0.036040317 0.10837402 0.0023487424 0.084845394
-0.03353288 -0.04886527 -0.0112080965 -0.15569001 0.120687224 -0.08521099 -0.06179954 -0.060411595
-0.01624871 -0.09075544 0.08462529 0.050171327 0.060057968 -0.0033599662 0.036599062 0.033686873
-0.024934284 -0.023449628 0.097088866 0.04866837 0.029887605 0.072154716 0.043712795 -0.0073658833
0.0006817955 -0.016163258 0.012795696 0.04341615 -0.02691643 0.025678799 -0.08159878 0.013829078
0.053844713 -0.022260841 -0.00087108166 -0.09051805 -0.07450701 -0.08131645 0.0015510968 0.071720734
-0.08279597 -0.062173378 -0.04127367 0.066083975 -0.0008451195 0.068396404 -0.05948948 0.00543283
0.008040267 0.09579218 -0.045092598 -0.03577774 0.046086986 0.063964345 0.001820563 -0.011226341
-0.013063982 0.012511335 0.0597393 0.0037119316 -0.021164333 0.011208524 0.036032505 -0.08904121
-0.06575153 0.052357964 -0.024473457 -0.025032297 -0.009064981 -0.010621616 0.043041404 0.01163599
-0.0013252152 -0.06840451 -0.0068779103 0.04044678 0.045233138 0.006392399 -0.0628811 -0.013025309
0.057427786 0.052207533 0.03481121 0.05016137 -0.061698668 0.06511468 0.04489895 0.002455979
00000000: 0988 28bd 427e 9c3d 2aac 3e3d cb87 f4bc
00000010: e139 2dbe 6321 48bc d5b2 88bc 6421 943d
00000020: 954f 72be b8e9 b63d d925 9c3c 17e3 32be
00000030: 7bec a43d e9ca f2bd f555 943d dfae 12be
00000040: c7c6 bbbd 0931 77bd 7415 acbe 7918 c9bd
00000050: 2328 253d 47f9 963d 1f35 b93c e107 80bd
00000060: 5255 c8bc 4ab6 6a3d e27d 103b 1b80 d7bc
00000070: 998d f0bd a9b3 e43d a035 d0bb 4187 ac3d
00000080: 0648 9b3d efe8 c13d f87c fcbd 584a 47bd
00000090: e460 49be 9e61 0e3e d7a7 ff3d 1341 89bd
000000a0: 4845 60bc 2a0f 933c 1139 57bd 9431 c9bd
000000b0: e247 b23b 0415 babd c9ca 8c3d dbe8 2bbe
000000c0: 9a56 c63d fbe3 60bd 52f8 17bd e2f5 933d
000000d0: e84e 733d 5712 373d 2cba 143d cf83 a63d
000000e0: 9d54 e5bd 9378 26be 6bca 303d 8a02 903d
000000f0: c39b 463d 1465 c43d 6f2a 323d c3b8 3d3d
00000100: 5bd7 aa3d e722 db3a fa61 0c3e ae43 483d
00000110: fe63 cd3d 41e8 98bc 41ba 14bd 4675 e53d
00000120: 889f 863d 1c30 223d c36f f53d c803 b7bd
00000130: ef3b 1ebe 6200 79be d179 67be 106f 6f3d
00000140: 3cc6 9dbc 4cd8 57bd 720c 0abc dd88 9abd
00000150: 3d0d a03d 26a2 503c be73 e0bc cb98 0a3d
00000160: 22a1 31bc 377b 503d 6060 0e3c 4cc0 0fbd
00000170: 650b 693d ba8f 5cbd 8e71 213e 8c15 90bd
00000180: ea1c 24be 2aeb 9c3d af61 593d 2107 adbc
00000190: b3eb 9ebd 56b5 cb3d 350e 2dbd ebf8 e4bd
000001a0: a6c1 9c3d a875 a53d c7f0 a93d 65a5 8c3d
000001b0: dfee f03d 5b09 9b3c 4e1d a33c 58da 0f3d
000001c0: d080 ca3d 537c e4bd 71e6 49be c2f6 c13d
000001d0: e7bb 2b3d a789 9a3c dd07 583d 5e6d 28bd
000001e0: d995 eb3c 16b0 19bd 1bbb 0e3d e327 0cb9
000001f0: 424e 27be bcb0 b6bd a177 c73d 2487 06bc
00000200: 6928 67bc b01f 12bc 3106 59bc 4da7 013d
00000210: 6d56 5b3d ab5b 143c edd4 193d 1780 fabc
00000220: fc60 cbbc 66aa 833d f937 3fbd 1654 57bd
00000230: 3ba8 ddbc bb1e a4bd 8280 3ebc 44b1 403c
00000240: b824 0a3d 8b84 893d bc72 09be 640c 0bbe
00000250: 92ad 233d f4f1 10bd f12d f9bc 4cff 07bd
00000260: d64c fb3c bc56 8b3d c337 13bd 983d 28be
00000270: 308e bfbd 9cdf 933d 28d4 4d3d 5a61 66bc
00000280: 9703 823d 413c 1b3d e611 1bbd be83 b23a
00000290: 039f 13bd 33f3 dd3d 5ced 193b 6cc3 ad3d
000002a0: c659 09bd f326 48bd 2aa2 37bc 346d 1fbe
000002b0: dd2a f73d 1983 aebd 8421 7dbd 2672 77bd
000002c0: 041c 85bc fddd b9bd 0650 ad3d 7380 4d3d
000002d0: 58ff 753d e132 5cbb e6e8 153d 3ffb 093d
000002e0: fc42 ccbc 6f19 c0bc 87d6 c63d 7c58 473d
000002f0: dad6 f43c dac5 933d 300c 333d 825d f1bb
00000300: 86ba 323a cf68 84bc 0aa5 513c 22d5 313d
00000310: d87f dcbc 585c d23c 431d a7bd 5b93 623c
00000320: 468c 5c3d 5e5c b6bc 4d59 64ba 8761 b9bd
00000330: 2297 98bd 3d89 a6bd 2c4e cb3a 52e2 923d
00000340: ef90 a9bd 83a9 7ebd 940e 29bd 0957 873d
00000350: 028b 5dba 6a13 8c3d 3eab 73bd e205 b23b
00000360: 53bb 033c b12e c43d 04b3 38bd ae8b 12bd
00000370: b5c5 3c3d bdff 823d f59f ee3a b0ee 37bc
00000380: 500a 56bc 58fc 4c3c 32b1 743d e143 733b
00000390: d360 adbc f5a3 373c d296 133d 3d5b b6bd
000003a0: bda8 86bd 4e75 563d 8f7c c8bc 8810 cdbc
000003b0: 4985 14bc 4906 2ebc 2f4c 303d e1a4 3e3c
000003c0: d8b2 adba aa17 8cbd 1860 e1bb 86ab 253d
000003d0: 6246 393d 5477 d13b cec7 80bd 1b68 55bc
000003e0: 6639 6b3d 91d7 553d 3396 0e3d 0276 4d3d
000003f0: beb7 7cbd d85a 853d f6e7 373d 7df4 203b

bias f4 [7]
-0.21584618 0.05509011 0.004489832 0.0339168 0.043352682 0.06001636 0.050904844
00000000: c806 5dbe 2ba6 613d 711f 933b 58ec 0a3d
00000010: 9592 313d b7d3 753d 9981 503d
