IO_DynaPlex/DeepControlledLearning/PolicyWeights/perishable_systems_m5_l1_cvr1.500000_f1.000000/_gen.pth (torch, 294844 bytes, 10 tensors)

weight f4 [256, 5]
-0.04485348 -0.28568682 -0.074601255 0.0021761947 0.09004418 -0.2912381 0.07400848 -0.22466238
-0.35310003 0.3897064 -0.13522306 0.39301038 0.2617924 0.22905779 -0.06894155 -0.11009654
-0.062497884 0.3045887 -0.02070733 0.28154042 0.08673486 -0.31378913 -0.4159478 -0.07404282
0.0011747302 -0.32540348 -0.13125779 0.3941842 0.10531065 0.35480037 0.25522244 -0.3999703
-0.1293254 0.048525218 0.2370463 0.17222673 0.2614851 0.0073491368 0.11534966 -0.19748303
-0.25189778 0.2861785 0.20293643 -0.22950321 0.28792417 -0.251941 0.3172295 0.23608714
-0.27567542 -0.09510142 -0.15303688 -0.03772664 -0.45976517 0.37210768 0.29945076 0.1551289
-0.28007552 -0.34696537 -0.16746108 -0.2512351 0.30064207 0.11523271 -0.32804832 -0.40265512
-0.25788948 0.031483036 -0.31863385 -0.1182969 -0.2498965 0.33850887 -0.24031016 0.25212142
0.37779048 -0.26741013 0.2152635 -0.21006852 -0.2521294 -0.04583559 -0.18661764 -0.35770816
0.1597737 0.11800747 -0.22543113 -0.41683054 -0.36453083 0.37853348 0.10191451 -0.24924712
-0.41968265 0.27843592 -0.3422543 -0.024915567 -0.46892864 -0.25809705 0.27014527 -0.08671541
0.36413428 -0.32691666 0.189452 -0.0834698 -0.04167743 0.13034666 -0.15683652 -0.18034935
0.21801387 -0.022486653 0.22483058 -0.16066019 -0.4067966 -0.100731336 0.102099285 0.39310628
0.31915256 -0.04201782 0.35667247 0.120852664 -0.3532506 0.14965917 0.16305596 0.22382265
0.3329697 -0.3323075 0.31585622 0.06469656 0.38551873 0.2748711 0.28023842 0.16703339
0.06315292 -0.43098855 0.1128386 0.3025055 0.37694025 0.102411896 -0.2503424 0.30425066
-0.10012347 -0.071550556 0.46472916 -0.12727502 0.47144726 -0.31931153 -0.3860768 0.19199385
-0.027563725 0.32732266 -0.3544432 -0.33416572 -0.23588778 0.2485357 0.48234513 0.33507782
-0.15943563 -0.16294615 0.32514995 0.07366474 -0.07034723 0.26741767 0.090166226 0.3092929
0.27290082 0.37564403 0.115429826 0.41087693 -0.19943991 -0.10279882 -0.05996544 0.36347714
-0.31475082 0.17133527 -0.22399326 -0.23708327 -0.15699397 -0.17974518 -0.4246571 0.37598664
0.28528735 -0.16751051 0.36952582 0.18348631 -0.28765783 0.3433034 -0.20365638 -0.21433157
0.40182593 0.014401123 -0.0012859672 0.16451454 0.11549235 0.29592246 0.016063739 0.23066576
-0.02920679 0.40041098 -0.2853354 0.41346124 -0.020481804 0.14803444 0.35514045 0.2118706
-0.098578885 0.11869675 -0.37580088 0.40104383 0.14202651 0.004686738 -0.3340146 -0.12824237
0.27079847 -0.41400504 -0.09746173 0.16233753 0.20024823 0.047996067 -0.13701533 -0.10806356
0.25599107 -0.2096882 -0.4585947 0.16459279 0.17040049 0.3120523 -0.04822382 -0.045319907
-0.3011675 0.028585698 -0.24315226 0.31633964 -0.1871551 -0.40176737 -0.18244743 0.16627835
0.30436748 -0.15250379 0.020213282 0.22724643 -0.38747948 -0.35306627 0.01457964 0.22301008
-0.38942346 0.15404698 0.39532134 -0.23370525 -0.3599934 -0.007067307 0.1595186 -0.011341375
-0.18180731 0.22442691 0.06950303 0.3911905 0.31794983 0.34491795 0.40697432 0.06512872
00000000: 48b8 37bd 8b45 92be 8bc8 98bd 7d9e 0e3b
00000010: 1569 b83d 291d 95be c291 973d e50d 66be
00000020: 87c9 b4be 9987 c73e ea77 0abe a838 c93e
00000030: a709 863e 208e 6a3e 3a31 8dbd 4b7a e1bd
00000040: c8fd 7fbd 0df3 9b3e 6ba2 a9bc 1126 903e
00000050: 0ca2 b13d f8a8 a0be 1cf7 d4be c3a3 97bd
00000060: 68f9 993a 499b a6be 7168 06be 83d2 c93e
00000070: 1cad d73d 65a8 b53e 84ac 823e e8c8 ccbe
00000080: e16d 04be 61c2 463d 44bc 723e 345c 303e
00000090: 60e1 853e 07d1 f03b 713c ec3d fe38 4abe
000000a0: bff8 80be fd85 923e 91ce 4f3e e402 6bbe
000000b0: cc6a 933e 69fe 80be e86b a23e d4c0 713e
000000c0: 5425 8dbe 89c4 c2bd b3b5 1cbe 4087 1abd
000000d0: 5766 ebbe e684 be3e 9c51 993e 1cda 1e3e
000000e0: 0f66 8fbe 72a5 b1be eb7a 2bbe e3a1 80be
000000f0: c2ed 993e 21ff eb3d f3f5 a7be d028 cebe
00000100: 170a 84be 5bf4 003d fa23 a3be a545 f2bd
00000110: dee4 7fbe 0951 ad3e de13 76be 0f16 813e
00000120: c16d c13e fbe9 88be 096e 5c3e 341c 57be
00000130: 1b17 81be 1abe 3bbd b218 3fbe 8625 b7be
00000140: b89b 233e e7ad f13d 6bd7 66be d06a d5be
00000150: c9a3 babe 24cf c13e 8eb8 d03d a33a 7fbe
00000160: a5e0 d6be 278f 8e3e f53b afbe bb1b ccbc
00000170: 6a17 f0be 4c25 84be 7b50 8a3e d997 b1bd
00000180: cf6f ba3e 9f61 a7be b5ff 413e 37f2 aabd
00000190: f4b5 2abd 9879 053e c199 20be 80ad 38be
000001a0: 073f 5f3e ee35 b8bc fd39 663e 1b84 24be
000001b0: a547 d0be 3b4c cebd 6e19 d13d 3a45 c93e
000001c0: f767 a33e e11a 2cbd c69d b63e 9a81 f73d
000001d0: 43dd b4be 4140 193e 24f8 263e c431 653e
000001e0: 017b aa3e 3524 aabe e8b7 a13e a17f 843d
000001f0: b662 c53e e8bb 8c3e 697b 8f3e cd0a 2b3e
00000200: 5156 813d 88aa dcbe ed17 e73d 00e2 9a3e
00000210: 50fe c03e 54bd d13d e12c 80be bec6 9b3e
00000220: 890d cdbd 1989 92bd fbf0 ed3e 6254 02be
00000230: 8961 f13e cd7c a3be dcab c5be 099a 443e
00000240: 52cd e1bc d696 a73e 9479 b5be c517 abbe
00000250: 918c 71be 2480 7e3e f1f5 f63e 528f ab3e
00000260: 1843 23be 5bdb 26be 0e7a a63e 8add 963d
00000270: 3512 90bd f8ea 883e 12a9 b83d a45b 9e3e
00000280: a8b9 8b3e 6a54 c03e 7966 ec3d 765e d23e
00000290: fa39 4cbe 3088 d2bd 529e 75bd ad19 ba3e
000002a0: 0527 a1be 8372 2f3e 7d5e 65be f5c5 72be
000002b0: 07c3 20be 1f0f 38be a86c d9be 5281 c03e
000002c0: 2f11 923e e087 2bbe 7d32 bd3e d6e3 3b3e
000002d0: e347 93be 77c5 af3e 4c8b 50be bc79 5bbe
000002e0: 21bc cd3e b0f2 6b3c e68d a8ba 8076 283e
000002f0: 4187 ec3d 2683 973e 1a98 833c a533 6c3e
00000300: 1443 efbc ab02 cd3e 7b17 92be 31b1 d33e
00000310: 75c9 a7bc 5796 173e f8d4 b53e 9bf4 583e
00000320: bae3 c9bd 4817 f33d f968 c0be 9e55 cd3e
00000330: 666f 113e 3593 993b f603 abbe f851 03be
00000340: 19a6 8a3e 78f8 d3be 049a c7bd cf3b 263e
00000350: df0d 4d3e 8697 443d bf4d 0cbe 6e50 ddbd
00000360: 4311 833e 81b8 56be edcc eabe 038b 283e
00000370: 777d 2e3e 52c5 9f3e 5786 45bd 5ea1 39bd
00000380: a032 9abe 8e2c ea3c e8fc 78be 45f7 a13e
00000390: 96a5 3fbe 74b4 cdbe 80d3 3abe df44 2a3e
000003a0: 0ed6 9b3e f429 1cbe 5396 a53c 4ab3 683e
000003b0: b663 c6be 1ac5 b4be 71df 6e3c c15c 643e
000003c0: 8362 c7be 7ebe 1d3e 8f67 ca3e 6e50 6fbe
000003d0: 0e51 b8be de94 e7bb d858 233e 2dd1 39bc
000003e0: b22b 3abe 2bd0 653e 9b57 8e3d 1f4a c83e
000003f0: 52ca a23e 1699 b03e f05e d03e 3562 853d

bias f4 [256]
-0.11962098 0.0031910178 -0.5061519 0.44041058 -0.019131763 -0.038900387 0.33410442 0.46891034
-0.5431582 0.3508742 0.4171528 -0.02961445 -0.14967225 0.43524134 -0.5433667 0.43264794
0.31266966 -0.06767431 -0.13783881 0.22815265 -0.37227505 0.115225345 0.1164424 0.53659
0.08007897 -0.34200242 -0.12276342 -0.45744383 0.35600492 0.3692828 0.2989584 0.21970618
-0.52011436 -0.5125217 0.2833332 -0.046656817 0.50127447 0.5287138 0.51682603 0.13741806
-0.1563691 -0.20876977 0.40856394 -0.408215 -0.06555691 0.12813921 0.5478998 0.41504133
0.42405185 -0.14950252 -0.33200002 0.015981078 0.026109876 -0.39491978 0.3766787 -0.26044476
-0.04160611 0.19954367 -0.42083272 -0.36985198 0.4374156 0.3068553 0.37297755 0.13006881
0.37581658 0.25014874 -0.46390358 -0.49392468 0.43331686 0.2595781 0.48069066 -0.6028466
-0.39386886 -0.27976316 0.28985837 -0.06803104 0.23029399 -0.22172725 -0.43416038 -0.4175539
0.347308 -0.14819427 -0.09782512 0.19501625 0.35038424 -0.24606232 0.43360063 -0.25678143
0.45299628 -0.5674426 0.6344979 0.06191377 -0.35134304 0.38411424 -0.5076266 0.19360062
0.20869535 0.44466847 -0.52559817 -0.096365325 -0.60493946 -0.27083594 -0.45081437 -0.40162408
0.5721172 0.5752648 -0.41693977 0.46677756 -0.15652607 -0.10310331 0.34747455 -0.11871563
0.37579578 -0.3054429 -0.5421219 0.48035607 -0.36436075 -0.36516315 -0.41726688 0.1867223
-0.3772273 -0.23721005 0.06735868 0.07203631 0.5360025 0.28267992 -0.11671503 -0.10218633
-0.33210492 0.45119175 -0.31307214 0.05752429 -0.61783624 0.21854657 0.39501542 -0.32240754
0.2188751 0.6396521 -0.57276994 0.14781721 -0.3708199 -0.31861484 -0.17185758 -0.31896994
0.42034402 -0.22183865 -0.26099926 0.5524175 0.05963747 0.18595494 0.5013854 -0.3311856
0.33609402 -0.1769683 0.03216568 -0.3653009 -0.4150136 -0.3288489 0.026832897 0.14949547
-0.49438995 0.5513228 -0.33355808 -0.1943668 0.2739508 -0.30431315 -0.47980383 -0.49468556
-0.437553 0.50512 0.47799423 -0.61237776 -0.11316845 0.34365502 -0.12260687 0.085982
0.0031448654 0.22038737 0.30640277 -0.40147385 -0.38536933 0.4728047 0.3263445 -0.24741906
-0.23610812 0.296251 -0.25218454 0.3127349 0.2282969 0.3170129 0.55860174 -0.53658855
0.4970381 -0.16365717 -0.31443816 -0.16744658 0.54710686 -0.07105071 0.37457773 0.44458592
-0.4383719 -0.28311035 -0.43296415 0.19521227 0.45033643 0.55738163 -0.25296146 -0.3796889
-0.000948012 0.030589428 -0.17104405 0.10321371 0.09994732 -0.4894684 -0.27284113 0.38993475
-0.18381073 0.0060533816 0.579078 -0.34450495 -0.35740063 0.30148473 -0.46754146 -0.474187
0.46758994 -0.15500872 0.49340746 0.49781892 0.33545157 -0.22776718 0.25436506 0.24835525
0.26134712 -0.5601191 -0.14413817 -0.34680754 0.19105071 -0.42202932 -0.19884887 0.0057587386
0.15451244 -0.29071158 -0.18865587 -0.15804268 0.4200948 0.26110503 0.4405126 0.14386642
0.52770174 -0.043333687 0.30565757 0.34565443 -0.29758328 -0.37495103 -0.08471353 -0.38426688
00000000: d8fb f4bd 6520 513b 2c93 01bf 7f7d e13e
00000010: 37ba 9cbc 0356 1fbd bc0f ab3e 0415 f03e
00000020: 6a0c 0bbf c8a5 b33e 0d95 d53e 019a f2bc
00000030: af43 19be f4d7 de3e 141a 0bbf 0884 dd3e
00000040: 3d16 a03e d498 8abd 9e25 0dbe d9a0 693e
00000050: d69a bebe 44fb eb3d 5a79 ee3d f65d 093f
00000060: 7100 a43d f11a afbe 636b fbbd 1436 eabe
00000070: 4746 b63e a312 bd3e 1311 993e a8fa 603e
00000080: 3726 05bf 9f34 03bf 0d11 913e 381b 3fbd
00000090: 8653 003f ca59 073f b64e 043f 52b7 0c3e
000000a0: 391f 20be bec7 55be 4b2f d13e 8e01 d1be
000000b0: b442 86bd ed36 033e 2943 0c3f 4c80 d43e
000000c0: 531d d93e 3017 19be e8fb a9be c0ea 823c
000000d0: 61e4 d53c ed32 cabe 08dc c03e 0459 85be
000000e0: 2b6b 2abd 2d55 4c3e 6377 d7be 3d5d bdbe
000000f0: f0f4 df3e 231c 9d3e eaf6 be3e c230 053e
00000100: 086b c03e 7f13 803e c584 edbe b2e3 fcbe
00000110: b5db dd3e 6ce7 843e 161d f63e 2854 1abf
00000120: 2ea9 c9be 1e3d 8fbe 5168 943e dc53 8bbd
00000130: 30d2 6b3e 780c 63be 454a debe a0c9 d5be
00000140: 5bd2 b13e 3dc0 17be 8958 c8bd 57b2 473e
00000150: 9065 b33e c3f7 7bbe e700 de3e db78 83be
00000160: 21ef e73e eb43 11bf 746e 223f 4b99 7d3d
00000170: 3ce3 b3be 9faa c43e d1f3 01bf 3e3f 463e
00000180: 3cb4 553e 96ab e33e 9a8d 06bf 2f5b c5bd
00000190: 50dd 1abf 02ab 8abe 24d1 e6be aca1 cdbe
000001a0: 4676 123f 8e44 133f 2179 d5be 78fd ee3e
000001b0: 5f48 20be d427 d3bd 2fe8 b13e 2e21 f3bd
000001c0: 4e68 c03e 0363 9cbe 80c8 0abf 3bf1 f53e
000001d0: 7e8d babe aaf6 babe 01a4 d5be 2134 3f3e
000001e0: f023 c1be 31e7 72be 59f3 893d c687 933d
000001f0: 7637 093f 6cbb 903e 4a08 efbd 1147 d1bd
00000200: a809 aabe 9b02 e73e fe4a a0be 979e 6b3d
00000210: 842a 1ebf acca 5f3e 763f ca3e 9a12 a5be
00000220: cb20 603e 3dc0 233f 0da1 12bf 655d 173e
00000230: 1bdc bdbe 7c21 a3be 6ffb 2fbe 0750 a3be
00000240: 5537 d73e ac29 63be b2a1 85be 3c6b 0d3f
00000250: 6b46 743d f96a 3e3e cb5a 003f 2991 a9be
00000260: 8414 ac3e 2e37 35be 29c0 033d b808 bbbe
00000270: aa7c d4be e25e a8be aad0 db3c 5715 193e
00000280: ae20 fdbe 7e23 0d3f 20c8 aabe 1708 47be
00000290: 4743 8c3e efce 9bbe d9a8 f5be 6d47 fdbe
000002a0: f206 e0be 8b4f 013f a9bb f43e cac4 1cbf
000002b0: dcc4 e7bd 8df3 af3e 5019 fbbd 5517 b03d
000002c0: 161a 4e3b 3aad 613e d3e0 9c3e fb8d cdbe
000002d0: 214f c5be 7513 f23e a016 a73e 6c5b 7dbe
000002e0: 54c6 71be 36ae 973e 551e 81be ca1e a03e
000002f0: aac6 693e 844f a23e 8600 0f3f de5d 09bf
00000300: c77b fe3e bf95 27be 0afe a0be 1e77 2bbe
00000310: 320f 0c3f 0983 91bd a7c8 bf3e c4a0 e33e
00000320: 4872 e0be d7f3 90be 7aad ddbe bae5 473e
00000330: 7f92 e63e 90b0 0e3f 2a84 81be 9566 c2be
00000340: 0284 78ba ae96 fa3c 2c26 2fbe b661 d33d
00000350: 2eb1 cc3d 9a9b fabe d5b1 8bbe 87a5 c73e
00000360: e138 3cbe 725b c63b 753e 143f f462 b0be
00000370: 37fd b6be 355c 9a3e 9861 efbe a3c8 f2be
00000380: f367 ef3e 9bba 1ebe e79f fc3e 1fe2 fe3e
00000390: 4fc0 ab3e cd3b 69be 233c 823e d750 7e3e
000003a0: 4acf 853e f763 0fbf f598 13be c290 b1be
000003b0: cca2 433e 3a14 d8be 0a9f 4bbe cdb3 bc3b
000003c0: 8238 1e3e 26d8 94be 012f 41be f1d5 21be
000003d0: aa16 d73e 8faf 853e de8a e13e b851 133e
000003e0: 7617 073f aa7e 31bd 267f 9c3e 9ef9 b03e
000003f0: d65c 98be 95f9 bfbe 4a7e adbd a1be c4be

weight f4 [128, 256]
-0.08154164 -0.053047135 -0.0525267 0.04952566 0.014399029 0.04793713 -0.012546208 0.06236514
-0.07911466 -0.0043065557 -0.0033110348 -0.05992058 0.065222755 -0.004319518 0.0300747 -0.007907689
0.057985112 0.041960716 -0.03261267 0.06261795 -0.038953386 -0.021417335 0.059193168 -0.018337844
0.066403866 -0.07227381 0.008213932 -0.08176626 0.0020208198 -0.0073621203 -0.021429548 0.031050442
0.0049715997 -0.019116193 0.028296046 -0.023746818 0.087032996 -0.0031491257 0.053722914 0.04401616
0.040691275 0.041725855 0.030523138 0.050922092 -0.00068619166 0.041067492 0.06273422 -0.023095261
0.03933449 -0.04965503 0.050314385 0.11925448 -0.0064199786 0.033528663 0.08154622 0.038659226
0.01834296 -0.013179967 -0.02880007 -0.09485436 -0.04169021 -0.0038170677 0.039637357 0.008299376
0.111133255 0.016893666 0.010368748 -0.09251055 -0.035530977 0.09794958 0.056531303 0.0028334844
0.022794062 0.061319888 0.022786789 0.06612388 -0.014971597 0.01782943 0.0102154445 -0.10005316
-0.003958444 0.21261016 -0.048776556 0.031467862 0.041625928 0.0074834162 0.04999128 -0.021869121
0.10585518 0.0018239171 0.18628329 0.02156659 -0.023842804 -0.041341767 -0.011321289 -0.0009550939
0.04705582 0.034148544 0.00089193066 0.049061444 -0.072754644 -0.11305935 -0.0110750785 -0.08327878
0.094309784 0.065212674 -0.057432335 0.06359938 0.026839225 0.047944628 0.086388074 -0.049680296
0.074696995 -0.06401727 0.04375284 0.059984613 -0.0067534717 -0.07247366 -0.011733494 0.05580953
-0.110493556 -0.04876251 0.050414536 -0.0072472915 0.037611913 0.072886266 -0.007546345 0.00020233814
-0.0026619365 0.08281975 -0.022392647 -0.03334347 0.03594235 -0.022016095 -0.021815255 0.019122917
-0.041445326 0.18310839 0.00046272067 -0.023506626 -0.0009353415 0.015419078 -0.038121518 0.012823205
0.011710072 0.010427577 -0.03572032 0.08221837 0.084678374 -0.045668107 0.025891235 0.027029563
0.03701713 0.05883953 -0.021411343 0.04461816 -0.09324634 -0.076266885 -0.037790842 0.037006438
-0.0054251845 0.047849912 0.012528208 -0.02280097 0.037844077 0.04087931 -0.033932142 -0.077776045
-0.055978294 0.007413434 0.13559832 -0.092192695 0.038686052 -0.03590214 -0.019618377 -0.007889568
0.019681184 0.07759025 0.02679573 -0.050792173 0.022417078 0.041064534 0.029490426 -0.04175329
0.055920795 0.066323794 -0.008693389 0.11041467 -0.011563175 0.06825573 0.08483372 -0.039328016
0.011523708 0.056971792 -0.13270782 0.04300544 0.051899135 0.023975672 -0.026488634 0.017035574
-0.032941222 0.0046023717 -0.06133157 0.06470972 -0.013322345 0.06561579 0.002143874 -0.06259308
-0.05449633 0.06918426 -0.020899205 0.052847568 -0.02220382 -0.06738408 -0.017489709 -0.003934913
-0.05114815 -0.05083016 0.037387706 -0.079114206 -0.03193884 -0.050188422 -0.060647693 -0.003876989
0.032778047 0.00015318388 0.07628489 0.047509484 0.08846636 -0.008201687 -0.004890986 0.087580636
0.06554131 -0.04282755 -0.072693415 0.034756716 0.044250205 0.00047397174 0.048341032 0.0745896
-0.015224049 -0.059958007 -0.07329098 -0.11504244 0.01955136 -0.017585471 -0.0016466584 0.029209957
-0.011090798 0.0016690177 0.021772482 0.06575854 0.045930266 -0.029852571 0.053555604 -0.04335904
00000000: 4eff a6bd f447 59bd 3d26 57bd 6bdb 4a3d
00000010: e8e9 6b3c b959 443d 9c8e 4dbc 9772 7f3d
00000020: de06 a2bd 021e 8dbb f2fd 58bb 486f 75bd
00000030: 8293 853d be8a 8dbb 385f f63c 408f 01bc
00000040: cc81 6d3d 00df 2b3d dd94 05bd d73d 803d
00000050: 968d 1fbd 6873 afbc 8974 723d 3f39 96bc
00000060: c0fe 873d 4b04 94bd ba93 063c 1275 a7bd
00000070: bb6f 043b f13d f1bb 058d afbc 7f5d fe3c
00000080: cde8 a23b 9099 9cbc 1ccd e73c b088 c2bc
00000090: 5b3e b23d 9061 4ebb 8f0c 5c3d 4a4a 343d
000000a0: e5ab 263d bbe8 2a3d a90b fa3c af93 503d
000000b0: 8be1 33ba 6336 283d cc7a 803d 4632 bdbc
000000c0: 341d 213d 1363 4bbd 7516 4e3d b13b f43d
000000d0: af5e d2bb 5a55 093d b401 a73d 2359 1e3d
000000e0: fa43 963c caf0 57bc 20ee ebbc 0143 c2bd
000000f0: 5bc3 2abd c527 7abb c85a 223d 1bfa 073c
00000100: d599 e33d 9664 8a3c aee1 293c 2c76 bdbd
00000110: ee88 11bd ca99 c83d 5e8d 673d fbb1 393b
00000120: 9dba ba3c 902a 7b3d 5cab ba3c f56b 873d
00000130: 6e4b 75bc 060f 923c ae5e 273c ace8 ccbd
00000140: d6b5 81bb 7ab6 593e edc9 47bd 72e4 003d
00000150: f37f 2a3d 7237 f53b a8c3 4c3d df26 b3bc
00000160: 9aca d83d 8110 ef3a 0cc1 3e3e 6bac b03c
00000170: fc51 c3bc fc55 29bd ee7c 39bc 445f 7aba
00000180: 9abd 403d 58df 0b3d 74d0 693a a7f4 483d
00000190: 6300 95bd a98b e7bd 3f74 35bc 118e aabd
000001a0: 7d25 c13d 398e 853d 2b3e 6bbd 6440 823d
000001b0: efdd db3c 9661 443d 3bec b03d 917d 4bbd
000001c0: bdfa 983d 7d1b 83bd 2e36 333d 6db2 753d
000001d0: 3a4c ddbb 126d 94bd d73d 40bc 8998 643d
000001e0: 724a e2bd 33bb 47bd 797f 4e3d b07a edbb
000001f0: f30e 1a3d 6545 953d 5447 f7bb bb2a 5439
00000200: e273 2ebb 679d a93d c970 b7bc 2a93 08bd
00000210: 4938 133d 195b b4bc e8b5 b2bc aaa7 9c3c
00000220: 93c2 29bd c480 3b3e 5199 f239 f890 c0bc
00000230: b531 75ba 4da0 7c3c 4f25 1cbd 6c18 523c
00000240: 9adb 3f3c 6ed8 2a3c 784f 12bd 1b62 a83d
00000250: db6b ad3d 7b0e 3bbd db19 d43c 1a6d dd3c
00000260: 469f 173d b801 713d d766 afbc 88c1 363d
00000270: f0f7 bebd d031 9cbd 92ca 1abd 1094 173d
00000280: bfc5 b1bb 45fe 433d 1d43 4d3c 1ac9 babc
00000290: 6402 1b3d 1071 273d 6efc 0abd 0c49 9fbd
000002a0: 7f49 65bd 64ec f23b 49da 0a3e 86cf bcbd
000002b0: 4475 1e3d 1f0e 13bd b8b6 a0bc 3f43 01bc
000002c0: 6f3a a13c a3e7 9e3d b882 db3c 740b 50bd
000002d0: 05a4 b73c 4933 283d e895 f13c 7f05 2bbd
000002e0: 340d 653d c5d4 873d b76e 0ebc 1621 e23d
000002f0: 7973 3dbc a9c9 8b3d 4dbd ad3d 6a16 21bd
00000300: efcd 3c3c 415b 693d 8fe4 07be 7926 303d
00000310: 3094 543d a168 c43c b1fe d8bc 308e 8b3c
00000320: 60ed 06bd 7ecf 963b d036 7bbd 8886 843d
00000330: f745 5abc 9261 863d 3d80 0c3b cd30 80bd
00000340: 8b37 5fbd 7ab0 8d3d cf34 abbc b176 583d
00000350: c9e4 b5bc aa00 8abd 9446 8fbc 71f0 80bb
00000360: b980 51bd 4933 50bd da23 193d a106 a2bd
00000370: 4dd2 02bd 6092 4dbd b769 78bd 1515 7ebb
00000380: 4642 063d fc9f 2039 413b 9c3d 4e99 423d
00000390: da2d b53d 5e60 06bc 9044 a0bb 7a5d b33d
000003a0: 863a 863d f16b 2fbd 49e0 94bd 0f5d 0e3d
000003b0: b43f 353d 697f f839 3f01 463d 6fc2 983d
000003c0: 4a6e 79bc 8796 75bd 9519 96bd 5f9b ebbd
000003d0: 2c2a a03c 680f 90bc b0d4 d7ba b849 ef3c
000003e0: 2eb6 35bc f1c2 da3a 345c b23c 6aac 863d
000003f0: 6021 3c3d 618d f4bc 1f5d 5b3d 4099 31bd

bias f4 [128]
0.16845998 -0.17093563 -0.06971257 0.049226888 -0.013987966 -0.060679078 0.13374841 0.15232399
-0.026598373 0.0091764275 0.1782986 -0.011890858 -0.16931069 -0.11842208 -0.01585806 -0.08789405
-0.1923147 -0.016030634 0.08797263 0.022396863 0.2131005 -0.06683274 -0.08630654 0.018839343
-0.030255679 -0.04476584 -0.15830407 0.031017639 -0.100175485 -0.093863316 -0.17914042 0.0016020888
-0.19446957 -0.015988413 0.0058088945 -0.028559092 -0.15459515 -0.09292137 -0.06699181 0.15228072
0.0067231804 -0.036570556 -0.06681502 -0.19301732 0.014271016 -0.14914373 -0.102250196 -0.112332754
-0.061307672 0.002479978 -0.15956028 -0.10984255 -0.03845755 -0.18134782 -0.1955688 -0.05477649
-0.015551867 -0.02327768 -0.11508235 0.020906484 -0.08212496 -0.1729978 -0.022687703 -0.015159929
-0.0226421 0.031168051 -0.07466636 0.21739933 0.012947038 -0.02905917 -0.12955648 -0.17543107
-0.043566935 -0.1822664 -0.11693062 0.0064273775 -0.060390145 -0.16011685 0.006502624 -0.072361425
-0.121138416 0.16721119 -0.1422763 -0.049968712 0.014394261 -0.00892827 -0.10680066 -0.026380047
-0.2314787 0.12971926 -0.022577886 0.028157402 -0.19270459 0.02188806 -0.2030342 -0.054889075
0.048944525 -0.032846548 -0.038039193 0.120744355 -0.059892576 0.16718893 0.116724 -0.034349285
0.029368155 0.11606044 -0.058773287 -0.046645228 -0.0041290107 0.0046723047 -0.015730271 0.0133887
0.23096824 -0.058185734 0.15609193 -0.15352915 -0.12147938 0.01566007 0.039251372 0.07362719
-0.0059308633 -0.031306632 0.03481382 -0.17784669 0.15683232 -0.14303625 0.04020128 -0.0039323824
00000000: c680 2c3e c009 2fbe 77c5 8ebd 22a2 493d
00000010: c82d 65bc a08a 78bd 58f5 083e d2fa 1b3e
00000020: d5e4 d9bc ba58 163c e893 363e e0d1 42bc
00000030: c85f 2dbe 4787 f2bd c3e8 81bc cc01 b4bd
00000040: 25ee 44be ad52 83bc ff2a b43d a079 b73c
00000050: 0437 5a3e 9bdf 88bd 7cc1 b0bd f754 9a3c
00000060: c2da f7bc 635c 37bd 761a 22be b418 fe3c
00000070: ce28 cdbd 693b c0bd 9670 37be 2efd d13a
00000080: 0823 47be 22fa 82bc 8a58 be3b c2f4 e9bc
00000090: 314e 1ebe 8f4d bebd 0133 89bd 7aef 1b3e
000000a0: 204e dc3b 02cb 15bd 50d6 88bd 55a6 45be
000000b0: fbd0 693c 22b9 18be 8d68 d1bd b70e e6bd
000000c0: c11d 7bbd 2087 223b c563 23be 21f5 e0bd
000000d0: aa85 1dbd 3eb3 39be 3043 48be 505d 60bd
000000e0: 42cd 7ebc d5b0 bebc 4cb0 ebbd 1344 ab3c
000000f0: 2231 a8bd 5626 31be 90db b9bc 5a61 78bc
00000100: ed7b b9bc 2454 ff3c adea 98bd ee9d 5e3e
00000110: d01f 543c 7f0d eebc 74aa 04be 34a4 33be
00000120: 3e73 32bd 0ba4 3abe 5279 efbd c09c d23b
00000130: a85b 77bd acf5 23be f713 d53b 3a32 94bd
00000140: 6b17 f8bd 6939 2b3e e1b0 11be feab 4cbd
00000150: e8d5 6b3c e147 12bc 4eba dabd f81a d8bc
00000160: c108 6dbe 20d5 043e 42f5 b8bc 5aaa e63c
00000170: 5a54 45be 974e b33c 33e8 4fbe 5ed3 60bd
00000180: 0e7a 483d 1a8a 06bd fcce 1bbd d148 f73d
00000190: eb51 75bd 9333 2b3e fe0c ef3d d6b1 0cbd
000001a0: 7c95 f03c 19b1 ed3d 42bc 70bd 110f 3fbd
000001b0: a74c 87bb 221a 993b c5dc 80bc 475c 5b3c
000001c0: f082 6c3e 2a54 6ebd 90d6 1f3e bf36 1dbe
000001d0: 2eca f8bd 8c49 803c 0cc6 203d dac9 963d
000001e0: b057 c2bb 623b 00bd f098 0e3d 711d 36be
000001f0: a798 203e 1878 12be 19aa 243d 37db 80bb

weight f4 [128, 128]
0.077674985 0.07193012 -0.012110075 -0.016838308 -0.05129165 0.019643676 -0.031025823 0.02897855
0.03323301 -0.02188182 0.0492507 -0.026531778 -0.057968467 -0.080973916 0.02679411 -0.059524782
0.07025793 -0.06418502 -0.066957526 -0.06463324 -0.08137985 0.07701133 0.027451497 0.06401484
-0.04073832 -0.06566326 -0.058925994 -0.009381141 0.049775522 -0.037666544 -0.07480953 0.0376653
0.029038357 -0.04509053 0.00042579908 -0.063156314 0.05786854 0.080729835 -0.05623828 -0.056369595
-0.026347859 -0.052188672 -0.04269881 -0.014292386 0.05847524 -0.066933535 -0.0549002 -0.03920934
-0.05328235 0.051213276 -0.051721517 -0.04484963 0.0057079056 -0.066455565 -0.046918694 -0.0087100575
-0.06283916 0.021389715 -0.07633942 -0.063314505 -0.073162384 -0.03343264 -0.030121656 -0.009388737
-0.039804157 -0.06627632 -0.06295758 0.015860723 0.087254524 0.05885684 -0.05688107 0.07481192
-0.012815265 0.062372614 -0.06701033 -0.027231269 -0.04897504 0.06767741 -0.004204601 -0.0243458
-0.017180614 -0.08757744 -0.05521035 -0.03478685 -0.08810217 -0.05113755 -0.08738874 0.061014462
0.039946865 -0.08724778 -0.036349844 -0.058480754 0.0035315054 -0.010133809 -0.085564636 0.072702624
-0.02527518 0.019006658 -0.02983333 -0.013487771 -0.02471448 -0.06896528 -0.010333206 -0.05303638
0.044688188 0.04198727 0.0705155 0.0878409 0.00866475 0.0716574 -0.003966303 0.08634334
-0.07387378 -0.074620664 -0.011571428 0.011116252 0.06165572 0.033698186 0.05826829 0.08403949
-0.046912506 0.018798664 -0.084105566 -0.0030560996 0.04895682 0.088162705 -0.07013693 -0.055091873
0.05571149 -0.039393727 -0.059565395 -0.014558353 -0.03220936 0.061900284 -0.06659006 -0.07222647
0.050563868 0.0094223665 0.03166566 -0.038132623 -0.07770959 0.047691885 0.040367503 0.049205653
0.056052584 -0.03440684 -0.05206041 -0.05123394 -0.03854796 0.0024199116 0.011342789 -0.043764625
-0.012864957 0.03202053 -0.036662027 0.03162141 -0.07864204 -0.07799335 0.0072961464 -0.057720557
0.018862598 -0.030056857 -0.04392871 -0.075129494 -0.058278892 -0.011971023 -0.016850164 -0.08124678
0.07655881 0.072057486 0.054733537 -0.036463547 0.06968214 0.004651353 -0.08086575 0.026388373
-0.082968146 0.0615317 0.037912145 -0.059575364 -0.02181093 -0.023759257 0.028937135 0.047890693
-0.04360496 -0.0846099 -0.093162425 0.083243184 0.072829165 0.052664045 0.069179565 0.022303682
0.0040510017 -0.031979267 -0.055848442 -0.031722188 0.063966095 -0.04392181 0.05608562 -0.032384224
-0.05030617 -0.0410237 0.07888188 -0.06345481 0.046042755 -0.07172975 -0.07211799 -0.08246881
-0.08501573 0.07536141 -0.011181949 -0.05243002 0.068356864 0.06033014 0.042288065 -0.068903625
-0.010701759 0.031665158 -0.084537745 0.036662206 0.062172715 -0.0871573 -0.05312252 0.022437239
0.05536038 -0.05041383 -0.014640291 0.07661621 0.077934265 -0.088165365 0.07787739 0.020909252
-0.0151789235 0.014920008 -0.046845604 0.07335058 0.02253144 -0.054072767 -0.026030838 -0.070314355
-0.05631662 -0.07686892 0.0645792 0.00018047195 -0.04405786 0.06821573 -0.06498194 0.05719692
0.016352497 0.06675676 0.084632695 -0.04093631 -0.08457258 -0.042408247 0.027633086 -0.061075106
00000000: 1014 9f3d 1950 933d 5669 46bc 7ef0 89bc
00000010: 3117 52bd c6eb a03c de29 febc 6d64 ed3c
00000020: 561f 083d 8141 b3bc 1abb 493d 2c59 d9bc
00000030: 5870 6dbd a7d5 a5bd 527f db3c 42d0 73bd
00000040: 64e3 8f3d 7073 83bd 0721 89bd 6f5e 84bd
00000050: 7baa a6bd 1eb8 9d3d f6e1 e03c 361a 833d
00000060: 3add 26bd 767a 86bd 625c 71bd 5bb3 19bc
00000070: 6be1 4b3d 3c48 1abd bd35 99bd ee46 1a3d
00000080: d9e1 ed3c d9b0 38bd c93d df39 1958 81bd
00000090: 9007 6d3d af55 a53d 1c5a 66bd cee3 66bd
000000a0: 77d7 d7bc cac3 55bd f3e4 2ebd 9d2a 6abc
000000b0: bc83 6f3d 7314 89bd 08df 60bd f999 20bd
000000c0: 983e 5abd 03c5 513d f1d9 53bd 3fb4 37bd
000000d0: 6209 bb3b db19 88bd d12d 40bd a1b4 0ebc
000000e0: d1b1 80bd 7c39 af3c d857 9cbd 09ab 81bd
000000f0: 29d6 95bd aaf0 08bd b1c1 f6bc 38d3 19bc
00000100: af09 23bd e1bb 87bd e7ef 80bd 59ee 813c
00000110: 80b2 b23d df13 713d 20fc 68bd fe36 993d
00000120: 1ef7 51bc 6d7a 7f3d b63c 89bd 1c14 dfbc
00000130: 0d9a 48bd 749a 8a3d c0c6 89bb d870 c7bc
00000140: 5cbe 8cbc cd5b b3bd 3f24 62bd a87c 0ebd
00000150: e96e b4bd 9c75 51bd def8 b2bd 4dea 793d
00000160: 539f 233d f7ae b2bd 93e3 14bd 8489 6fbd
00000170: d470 673b 4708 26bc 833c afbd 1de5 943d
00000180: e50d cfbc dab3 9b3c 0765 f4bc d0fb 5cbc
00000190: 0576 cabc ab3d 8dbd 9b4c 29bc ad3c 59bd
000001a0: f60a 373d d8fa 2b3d 6e6a 903d eee5 b33d
000001b0: 98f6 0d3c 1dc1 923d c3f7 81bb c7d4 b03d
000001c0: 234b 97bd b8d2 98bd 1696 3dbc f120 363c
000001d0: b58a 7c3d 1c07 0a3d bbaa 6e3d e51c ac3d
000001e0: 5427 40bd a8ff 993c 8a3f acbd d848 48bb
000001f0: f286 483d a68e b43d f3a3 8fbd 04a8 61bd
00000200: bb31 643d 515b 21bd d8fa 73bd 2986 6ebc
00000210: f6ed 03bd 278b 7d3d 5f60 88bd 79eb 93bd
00000220: 0f1c 4f3d 4560 1a3c dab3 013d f430 1cbd
00000230: 3526 9fbd 9158 433d 6558 253d de8b 493d
00000240: 6597 653d 30ee 0cbd 4c3d 55bd aeda 51bd
00000250: 77e4 1dbd 6197 1e3b 1bd7 393c 8942 33bd
00000260: 8ac7 52bc f627 033d ec2a 16bd 7485 013d
00000270: 140f a1bd faba 9fbd 8314 ef3b 646c 6cbd
00000280: bc85 9a3c cc39 f6bc 97ee 33bd 7edd 99bd
00000290: d9b5 6ebd 1c22 44bc 5b09 8abc b664 a6bd
000002a0: deca 9c3d e092 933d 4630 603d cd5a 15bd
000002b0: 83b5 8e3d 616a 983b f19c a5bd 6e2c d83c
000002c0: 34eb a9bd aa08 7c3d c449 1b3d 4c05 74bd
000002d0: d6ac b2bc c6a2 c2bc 920d ed3c 0829 443d
000002e0: 1d9b 32bd f547 adbd f1cb bebd 677b aa3d
000002f0: 7527 953d 41b6 573d 04ae 8d3d 36b6 b63c
00000300: 44be 843b b1fc 02bd 56c1 64bd 20ef 01bd
00000310: a800 833d 5be7 33bd 09ba 653d 52a5 04bd
00000320: d80d 4ebd 7808 28bd d38c a13d 98f4 81bd
00000330: 5497 3c3d 0ce7 92bd 99b2 93bd 68e5 a8bd
00000340: ba1c aebd 1557 9a3d 7e34 37bc dcc0 56bd
00000350: affe 8b3d bd1c 773d 4036 2d3d 581d 8dbd
00000360: 6e56 2fbc 53b3 013d 2022 adbd 1c2b 163d
00000370: d1a8 7e3d 877f b2bd 0097 59bd 4dce b73c
00000380: 91c1 623d bb7e 4ebd d5dd 6fbc f6e8 9c3d
00000390: 009c 9f3d 0b90 b4bd 2e7e 9f3d e149 ab3c
000003a0: 05b1 78bc 0d73 743c 2de1 3fbd d438 963d
000003b0: db93 b83c 687b 5dbd a03e d5bc f900 90bd
000003c0: 42ac 66bd 746d 9dbd 1a42 843d 123d 3d39
000003d0: 0476 34bd b0b4 8b3d 4015 85bd 5147 6a3d
000003e0: acf5 853c c5b7 883d e853 ad3d d5ac 27bd
000003f0: 6434 adbd 45b4 2dbd c85e e23c e429 7abd

bias f4 [128]
-0.04658529 -0.08846637 -0.075220615 -0.015023765 -0.008611242 -0.16505887 0.04759444 0.059932664
-0.16158523 0.064866304 0.13781276 0.12174078 -0.063516036 -0.047063734 -0.13885395 -0.005662099
-0.003975069 -0.06811501 -0.09338356 -0.036159065 0.09415567 -0.08783722 -0.06192968 0.005864193
0.10715123 0.018092044 -0.041269638 0.017471438 -0.07662736 -0.14230172 0.07144929 -0.069088444
-0.060460743 0.017291095 -0.115640275 0.0021087348 -0.09863469 0.13985753 0.27100164 0.022355862
0.07725246 0.2978527 0.07526265 0.043341078 0.06299253 0.16215315 -0.16031352 0.035112493
-0.06254799 0.048308074 0.1634955 -0.10635878 0.04963672 -0.05272768 -0.17727898 -0.12759832
0.08784697 -0.034026347 -0.010080565 0.010477408 -0.09487352 0.17192331 0.1277469 0.002711122
0.0441672 0.13019457 0.00029710482 -0.11900593 -0.027215583 -0.030228043 -0.03655571 -0.15146975
-0.06760738 -0.023950027 0.17548081 0.07780494 0.004425664 -0.008714917 0.1083625 -0.026593275
0.006641121 -0.09486104 0.052698575 -0.19982864 0.039920747 0.09807277 -0.18272294 -0.0048913127
0.07276069 -0.00409643 0.107805215 0.002280186 0.08855021 0.009933454 0.22170095 -0.17985247
-0.05370599 0.016169839 0.21362022 -0.06020655 -0.046993215 -0.038980845 0.03825998 -0.084403634
-0.046680123 0.048283402 -0.028482331 0.14620483 -0.032446656 -0.03380779 0.080327444 -0.07289991
-0.05827206 -0.04376136 -0.10535614 0.016627342 -0.043064144 0.016802557 0.22949386 -0.07473451
0.19108135 -0.017335236 -0.199813 -0.012525386 0.030450579 0.05527065 -0.058671914 0.030423554
00000000: 38d0 3ebd db2d b5bd 440d 9abd 3d26 76bc
00000010: 2b16 0dbc 3105 29be 63f2 423d f47b 753d
00000020: 9976 25be a0d8 843d ca1e 0d3e 3b53 f93d
00000030: b214 82bd e7c5 40bd bb2f 0ebe 2189 b9bb
00000040: 4c41 82bb e27f 8bbd e13f bfbd 871b 14bd
00000050: b0d4 c03d 00e4 b3bd faa9 7dbd 6b28 c03b
00000060: 1b72 db3d c435 943c 5a0a 29bd 4320 8f3c
00000070: ceee 9cbd 8bb7 11be 0154 923d 3e7e 8dbd
00000080: afa5 77bd 0ea6 8d3c cfd4 ecbd b332 0a3b
00000090: fc00 cabd d036 0f3e bac0 8a3e a423 b73c
000000a0: 8a36 9e3d 2680 983e 4e23 9a3d 6a86 313d
000000b0: 3a02 813d 7a0b 263e 3a29 24be 1ed2 0f3d
000000c0: 2919 80bd b0de 453d 5d6b 273e a2d2 d9bd
000000d0: e04f 4b3d fbf8 57bd 9f88 35be 22a9 02be
000000e0: 1de9 b33d 365f 0bbd f428 25bc 6fa9 2b3c
000000f0: 0c4d c2bd aa0c 303e 15d0 023e 14ad 313b
00000100: aae8 343d ba51 053e bcc4 9b39 62b9 f3bd
00000110: 37f3 debc cda0 f7bc 71bb 15bd e31a 1bbe
00000120: bd75 8abd d932 c4bc 3eb1 333e 3258 9f3d
00000130: 2905 913b 03c9 0ebc 29ed dd3d 24da d9bc
00000140: c39d d93b 8146 c2bd 76da 573d e19f 4cbe
00000150: f083 233d 60da c83d b91b 3bbe 4e47 a0bb
00000160: 8e03 953d 583b 86bb fbc8 dc3d 2c6f 153b
00000170: d059 b53d edbf 223c 9305 633e 3f2b 38be
00000180: d0fa 5bbd 9c76 843c 42bf 5a3e 259b 76bd
00000190: f57b 40bd 61aa 1fbd 7fb6 1c3d d0db acbd
000001a0: a833 3fbd d1c4 453d c753 e9bc b8b6 153e
000001b0: c9e6 04bd 0a7a 0abd b782 a43d 8c4c 95bd
000001c0: afae 6ebd 1d3f 33bd f6c4 d7bd 1036 883c
000001d0: 0764 30bd 84a5 893c 7000 6b3e 680e 99bd
000001e0: d4aa 433e a002 8ebc c79b 4cbe 4737 4dbc
000001f0: 7e73 f93c 7a63 623d f651 70bd d13a f93c

weight f4 [128, 128]
-0.08684871 0.044433247 0.0828114 -0.05454787 -0.07055635 0.1204016 0.11394281 0.034816206
0.08962471 -0.019120952 -0.06542109 -0.08742209 -0.02077631 0.16320194 0.11342042 0.098945834
0.026406208 0.04168732 0.09138155 0.0016414872 0.051006526 -0.014138406 -0.066278085 -0.0074391076
0.008734949 0.0606967 0.09137666 -0.017059755 0.07308487 0.105402336 -0.0113321645 0.057621352
0.09668992 0.05977534 0.18430366 0.12129524 0.122390255 -0.021745458 -0.100576 -0.04704502
-0.059839312 -0.05548411 0.051068723 0.0471576 -0.14766763 -0.035816494 0.18550615 0.04215447
0.05681858 0.04164021 -0.095485404 0.17613968 -0.020216217 -0.033123784 0.13582017 0.21770227
0.08509238 0.09131868 0.038560685 -0.00802585 -0.032682735 -0.029344754 -0.044129297 0.03491529
0.076549664 0.013470489 -0.03265013 0.12027453 -0.05291423 0.04499058 0.083329216 0.13921511
0.055126823 0.055537805 0.034426603 0.033447687 0.03899753 0.11351755 0.11223981 0.012931687
-0.0070359632 -0.020371607 -0.042834125 0.16340053 -0.0076118684 -0.032587253 0.07274332 0.014251464
-0.07549746 -0.033776727 -0.15503544 -0.018972164 -0.05469732 -0.07889841 -0.10383897 0.07684364
0.092290424 -0.06730853 -0.11598669 -0.04818491 -0.022155467 0.029617304 -0.03930242 0.013493113
-0.062135678 0.031907726 0.054877628 -0.032783616 0.013830853 0.16017392 -0.018569196 -0.059097666
-0.091781385 0.14953752 0.07855288 0.052252006 -0.027111275 -0.0036494387 -0.16039136 -0.028905941
-0.046030838 0.040711027 0.1888284 0.020624276 0.060304668 -0.006078394 -0.05592085 0.062261958
-0.06412726 -0.05581022 0.032830246 -0.020990334 -0.05688416 0.06184679 0.018781664 -0.047323182
-0.00976858 0.08240681 -0.03087423 -0.00022651623 0.06624652 -0.08980616 -0.07007625 -0.018446116
0.03319664 -0.06841604 -0.045618083 -0.053187013 -0.019570997 -0.10193291 0.01714369 -0.013888835
0.011982349 0.037719253 -0.03434033 -0.0030374234 -0.06667498 0.025568938 -0.07646662 -0.06879047
0.05233115 0.049244057 0.019032596 0.06306876 0.062542975 0.0550424 -0.08560336 -0.070477955
-0.021676913 -0.029260227 0.009797026 0.009559677 0.0060233567 0.021378366 -0.013473437 0.0028451947
0.056144815 -0.06185603 0.026655346 0.038123783 -0.02763263 0.056136005 -0.03072896 -0.036247503
-0.069819264 -0.0054270523 -0.0937657 -0.05695012 -0.05497209 0.058964755 -0.035174806 0.023108466
0.0032262886 -0.10309846 -0.08960337 -0.10179823 -0.043457247 0.038166683 -0.060938198 -0.011521831
-0.06028329 3.4726614e-05 -0.053903453 0.05036638 -0.012908886 -0.097972654 0.061519787 -0.046636622
0.058443833 0.0655311 -0.041820817 0.047075152 -0.03243807 -0.013037298 0.009352793 0.037156194
-0.065324746 -0.07459941 -0.09019969 0.030625638 -0.0050913277 0.014932059 -0.045511853 -0.0656651
0.018026294 0.043033253 -0.010362542 -0.07073583 -0.027645538 0.059280805 -0.034510925 0.021080272
-0.07478158 0.027639063 0.06324037 -0.033694874 0.075757094 -0.097386114 -0.06348889 0.053527888
0.014165596 -0.051542424 0.023298929 -0.026978903 -0.07826702 0.072752446 0.023112882 0.0015482644
-0.096784756 0.0058133667 -0.027762204 0.029379392 -0.039939314 0.057898987 -0.058204606 -0.017344182
00000000: bddd b1bd a3ff 353d 0699 a93d 966d 5fbd
00000010: d97f 90bd 1d95 f63d d95a e93d 709b 0e3d
00000020: 298d b73d 8ba3 9cbc 7efb 85bd 5a0a b3bd
00000030: 1433 aabc 691e 273e f748 e83d 1da4 ca3d
00000040: d551 d83c 53c0 2a3d 4026 bb3d 2c27 d73a
00000050: 38ec 503d c6a4 67bc cebc 87bd c2c3 f3bb
00000060: 081d 0f3c 1a9d 783d b023 bb3d e6c0 8bbc
00000070: 85ad 953d 2edd d73d 8baa 39bc 5e04 6c3d
00000080: 5d05 c63d fdd6 743d 19ba 3c3e a469 f83d
00000090: bea7 fa3d 8823 b2bc cafa cdbd 47b2 40bd
000000a0: 111a 75bd 4e43 63bd 702d 513d 5428 413d
000000b0: 2f36 17be 51b4 12bd 53f5 3d3e 2aaa 2c3d
000000c0: 99ba 683d ed8e 2a3d da8d c3bd f65d 343e
000000d0: 7b9c a5bc ceac 07bd 7114 0b3e 58ed 5e3e
000000e0: ea44 ae3d 4a05 bb3d cff1 1d3d db7e 03bc
000000f0: 55de 05bd 6964 f0bc ecc0 34bd 5603 0f3d
00000100: 12c6 9c3d 53b3 5c3c 25bc 05bd 7e52 f63d
00000110: 97bc 58bd 0b48 383d 82a8 aa3d 688e 0e3e
00000120: aacc 613d 9c7b 633d e902 0d3d 7100 093d
00000130: e0bb 1f3d e47b e83d fcdd e53d 6ddf 533c
00000140: f08d e6bb 5be2 a6bc d672 2fbd 7852 273e
00000150: fb6c f9bb 367a 05bd 73fa 943d f97e 693c
00000160: 6a9e 9abd 7759 0abd 9cc1 1ebe 836b 9bbc
00000170: 4c0a 60bd 7d95 a1bd 87a9 d4bd 3360 9d3d
00000180: c302 bd3d 0ed9 89bd 6e8a edbd 8a5d 45bd
00000190: 627f b5bc fd9f f23c 93fb 20bd 3812 5d3c
000001a0: fb81 7ebd adb1 023d 5dc7 603d 1d48 06bd
000001b0: cd9a 623c a204 243e 6d1e 98bc 6510 72bd
000001c0: e1f7 bbbd 5d20 193e 55e0 a03d 3306 563d
000001d0: 7718 debc 6c2b 6fbb a23d 24be 27cc ecbc
000001e0: d58a 3cbd 9bc0 263d 3b5c 413e 3ef4 a83c
000001f0: 0702 773d 442d c7bb 430d 65bd 6506 7f3d
00000200: 2755 83bd 4299 64bd 0279 063d ecf3 abbc
00000210: 5dff 68bd 0f53 7d3d 01dc 993c f4d5 41bd
00000220: 650c 20bc e7c4 a83d f4eb fcbc fd84 6db9
00000230: 41ac 873d 4bec b7bd 2384 8fbd 4f1c 97bc
00000240: 33f9 073d b51d 8cbd 07da 3abd a0da 59bd
00000250: 5b53 a0bc 34c2 d0bd ec70 8c3c ff8d 63bc
00000260: 9d51 443c 817f 1a3d 72a8 0cbd 820f 47bb
00000270: e48c 88bd f375 d13c 889a 9cbd 05e2 8cbd
00000280: 3059 563d 23b4 493d 3fea 9b3c 322a 813d
00000290: 8816 803d 2474 613d d050 afbd bf56 90bd
000002a0: c893 b1bc 25b3 efbc b583 203c 31a0 1c3c
000002b0: 945f c53b af21 af3c b1bf 5cbc 7276 3a3b
000002c0: 1bf8 653d c05c 7dbd 505c da3c af27 1c3d
000002d0: d35d e2bc deee 653d 4dbb fbbc 4378 14bd
000002e0: 67fd 8ebd 6ad5 b1bb 3b08 c0bd 8744 69bd
000002f0: 6a2a 61bd 0785 713d 7513 10bd f74d bd3c
00000300: 2470 533b 4925 d3bd f981 b7bd 977b d0bd
00000310: 3a00 32bd ab54 1c3d 559a 79bd 10c6 3cbc
00000320: 9ceb 76bd 6ba7 1138 dec9 5cbd fa4c 4e3d
00000330: cb7f 53bc e3a5 c8bd 2cfc 7b3d 0b06 3fbd
00000340: cd62 6f3d 2b35 863d 4e4c 2bbd e0d1 403d
00000350: c8dd 04bd 649a 55bc 753c 193c 1831 183d
00000360: fbc8 85bd 93c7 98bd 9dba b8bd 9ee2 fa3c
00000370: 27d5 a6bb 98a5 743c a36a 3abd 6d7b 86bd
00000380: e1ab 933c a343 303d a7c7 29bc f2dd 90bd
00000390: e578 e2bc 6ed0 723d 545b 0dbd 89b0 ac3c
000003a0: 1627 99bd 516b e23c 2b84 813d a303 0abd
000003b0: 8926 9b3d 5f72 c7bd 7706 82bd 0f40 5b3d
000003c0: d116 683c 261e 53bd 65dd be3c dc02 ddbc
000003d0: 764a a0bd 3cff 943d 3a57 bd3c 22ef ca3a
000003e0: 1637 c6bd 0e7e be3b 906d e3bc 0dad f03c
000003f0: 6897 23bd 7d27 6d3d f467 6ebd 6315 8ebc

bias f4 [128]
-0.16895059 0.046344977 -0.08081353 0.01667412 0.049031515 0.041402135 0.06846744 0.046939313
0.06832249 -0.07336804 0.12204851 0.10032723 -0.08100617 0.022121254 -0.03310663 -0.11067649
-0.08460359 0.015984422 0.20119962 0.1437759 -0.04946767 0.018437903 0.03747963 0.04077778
-0.021031229 -0.033796273 -0.1849913 -0.020887148 0.00059345027 -0.02021669 0.034047168 -0.0981169
0.054894503 -0.0039139204 -0.09103763 -0.08237032 0.121675946 0.035803128 0.049302533 -0.09464192
0.14544532 0.017493537 0.09830098 0.003339435 -0.053546704 -0.042151522 -0.0627847 -0.0976867
-0.060065243 0.096265286 0.046581965 -0.088848196 -0.0025866237 0.062978245 -0.04835732 0.07265695
-0.04792952 -0.07807836 -0.065156154 -0.07926524 -0.04583106 0.063651636 -0.07326986 0.04833182
-0.07976421 -0.09119065 0.08535514 -0.08169218 0.012017174 -0.031228708 -0.022334768 -0.02755905
0.039343018 0.047575183 -0.026781412 0.010148665 0.0062824665 -0.05089624 -0.09161849 -0.013939975
0.041340925 0.19852492 -0.016790003 0.080127776 0.04020716 -0.015704568 0.03618763 0.051475845
0.1249503 0.2308746 0.011615468 -0.047975734 0.06264921 0.10261115 -0.03958551 0.18978904
-0.07499173 0.050718773 -0.07902611 -0.09476035 -0.09952862 0.041391656 0.16709143 0.0935533
-0.10848571 -0.077246994 -0.046187904 -0.06293482 0.097535424 0.006373697 0.03129646 -0.02971635
-0.026995804 0.055170942 0.10690826 0.18935817 0.0040613096 -0.046137523 0.0075682485 0.060994077
-0.010596838 0.0323881 -0.013523795 -0.016152788 0.043628894 0.03707315 0.084137626 -0.025273962
00000000: 6201 2dbe 3bd4 3d3d 9081 a5bd 2a98 883c
00000010: 45d5 483d 4995 293d a838 8c3d 7043 403d
00000020: a9ec 8b3d fc41 96bd 92f4 f93d 5d78 cd3d
00000030: 90e6 a5bd a237 b53c d19a 07bd 5baa e2bd
00000040: a644 adbd c3f1 823c 4607 4e3e fd39 133e
00000050: 9d9e 4abd 160b 973c 3e84 193d 9a06 273d
00000060: af49 acbc f66d 0abd 5c6e 3dbe 861b abbc
00000070: c691 1b3a 799d a5bc 0b75 0b3d 83f1 c8bd
00000080: 0fd9 603d 5840 80bb f071 babd c5b1 a8bd
00000090: 3d31 f93d 4da6 123d 74f1 493d 9fd3 c1bd
000000a0: 9eef 143e 9b4e 8f3c 0652 c93d 6cda 5a3b
000000b0: ca53 5bbd 13a7 2cbd 4495 80bd f70f c8bd
000000c0: f906 76bd bc26 c53d bbcc 3e3d 0bf6 b5bd
000000d0: 5884 29bb bdfa 803d 5312 46bd 2bcd 943d
000000e0: bf51 44bd 8ce7 9fbd 9770 85bd d055 a2bd
000000f0: 59b9 3bbd ca5b 823d 820e 96bd 96f7 453d
00000100: 6b5b a3bd 2ac2 babd adce ae3d 3b4e a7bd
00000110: aee3 443c 59d3 ffbc 67f7 b6bc 84c3 e1bc
00000120: 2526 213d 32de 423d b164 dbbc 9646 263c
00000130: 26dd cd3b 9378 50bd 7aa2 bbbd 7e64 64bc
00000140: 1a55 293d 1e4a 4b3e 308b 89bc 081a a43d
00000150: 43b0 243d dea6 80bc 7b39 143d 56d8 523d
00000160: f1e5 ff3d 646a 6c3e ce4e 3e3c 3482 44bd
00000170: 3b4e 803d cb25 d23d 6a24 22bd 0f58 423e
00000180: 4495 99bd 7dbe 4f3d 71d8 a1bd b711 c2bd
00000190: a9d5 cbbd 4c8a 293d 041a 2b3e df98 bf3d
000001a0: c22d debd ac33 9ebd 872f 3dbd f9e3 80bd
000001b0: a7c0 c73d 72da d03b b830 003d b46f f3bc
000001c0: 4e26 ddbc edfa 613d b8f2 da3d 1ce7 413e
000001d0: bc14 853b b3fa 3cbd 12ff f73b edd4 793d
000001e0: 5c9e 2dbc 62a9 043d e892 5dbc da52 84bc
000001f0: 36b4 323d 04da 173d 5950 ac3d 570b cfbc

weight f4 [28, 128]
0.054990046 -0.09268904 -0.04870301 -0.067755274 -0.06779621 0.04156001 -0.044114582 -0.0031681508
0.067479804 -0.017375885 -0.21108563 0.020417474 -0.043740205 -0.092929475 0.05952756 -0.014156728
-0.008930664 0.012143093 -0.11723353 0.018460862 -0.025837963 -0.12325379 -0.10522465 -0.004996724
-0.08444312 -0.041023847 -0.008763945 -0.112167105 -0.017792078 -0.0034758341 -0.09453492 -0.07546522
-0.009420915 -0.032991566 -0.025705507 0.010155462 -0.07437338 -0.04440613 -0.10720073 -0.062494628
-0.15779184 -0.0012575581 -0.1058218 0.01454194 -0.10963331 -0.053434104 0.03247274 0.0743208
-0.04826898 0.015975632 -0.09869909 -0.018874131 0.06921232 -0.029280106 -0.050983585 -0.047137197
-0.03830482 0.015609993 -0.08793142 0.055287696 0.07522183 -0.046020444 -0.055904277 -0.04797538
-0.07098556 -0.029709697 0.015878886 -0.055256736 0.07872591 0.07610457 0.002459958 -0.060521126
-0.09872481 -0.07591703 -0.039834514 0.015181101 0.050947476 -0.05562854 -0.08001419 -0.0064611086
-0.016955797 -0.08253255 0.040083513 0.007051837 0.036096398 -0.004682406 0.026776124 -0.09535524
-0.097314835 -0.037683506 -0.061864536 -0.017991316 -0.007474139 0.00038460124 -0.0012756375 -0.1830324
-0.06644034 -0.0051342533 -0.085245915 -0.005874287 -0.123278275 0.0646445 -0.12629859 -0.08055171
-0.01782193 0.04204701 -0.018090168 0.04234324 -0.08048882 0.037743915 0.033741225 -0.10895414
-0.122519016 -0.073750645 -0.1419416 0.018681893 0.029263854 0.05259522 -0.10851675 -0.15319939
-0.009709709 -0.05529011 -0.025673589 -0.03949642 0.072320305 0.0071675647 0.033008616 0.009880436
0.0947397 0.05307146 0.0033370142 0.022027215 0.012866314 -0.024306355 0.019115634 -0.023987317
0.048994444 0.018251678 -0.5752588 -0.0060371147 0.08528726 0.060095392 0.05307263 0.10400475
-0.060614742 0.00044325285 -0.2992505 -0.58812964 0.12105665 -0.010397924 0.05262198 0.044049848
0.03610144 0.033083737 0.07098489 0.06939231 0.04817285 -0.078674264 -0.17856166 0.10564337
-0.050887898 0.043514926 0.11106225 -0.060628682 -0.0013762403 0.1169489 0.12602517 0.097766064
-0.41435927 0.012330418 -0.18163398 -0.060768712 0.056787338 0.012791329 -0.06471421 -0.036445033
0.017540531 -0.49297488 0.024391053 0.065555006 -0.07615328 -0.03439835 0.036739897 0.06164951
0.04722899 -0.032072723 -0.0751963 -0.007900933 -0.079979815 -0.024559656 0.109643556 -0.0101754675
0.073132545 -0.040171877 0.026058901 0.058166 0.0573575 -0.039570656 0.11873228 -0.072896495
-0.016031398 0.004738447 0.030439297 0.008873353 -0.056854732 0.074426204 -0.014436575 0.010057541
-0.092695445 -0.41865337 0.05636403 -0.06253455 -0.088123426 -0.08747506 -0.05893505 0.0035204184
0.00074002467 -0.4237253 -0.065964304 -0.0018886297 0.0034778751 0.032756705 -0.06414096 -0.4237555
-0.040252924 -0.058560837 -0.03537265 -0.0019010886 0.046145365 0.051930275 -0.10140279 -0.07424022
0.08374244 0.05556071 -0.011951367 0.022402218 -0.03357052 0.1349123 -0.043766975 0.11239474
-0.025557911 -0.04764949 -0.053993035 -0.22795558 -0.033238925 0.08150298 -0.057287063 -0.091353714
0.04070532 0.06077116 -0.0060952185 0.10977429 0.001299592 -0.112910114 -0.53256094 -0.03227627
00000000: 3e3d 613d c0d3 bdbd cf7c 47bd 47c3 8abd
00000010: bdd8 8abd d43a 2a3d 7eb1 34bd c0a0 4fbb
00000020: da32 8a3d df57 8ebc d526 58be 8c42 a73c
00000030: ee28 33bd cf51 bebd 2cd3 733d 9ff1 67bc
00000040: eb51 12bc d3f3 463c 2218 f0bd 3c3b 973c
00000050: 23aa d3bc 7c6c fcbd 0580 d7bd 8fbb a3bb
00000060: 84f0 acbd 9f08 28bd a696 0fbc deb7 e5bd
00000070: b1c0 91bc d2ca 63bb 869b c1bd 828d 9abd
00000080: 2e5a 1abc 2a22 07bd 5b94 d2bc 1863 263c
00000090: 1251 98bd 34e3 35bd 0e8c dbbd 5efa 7fbd
000000a0: 2f94 21be a6d4 a4ba 1ab9 d8bd 5141 6e3c
000000b0: 6e87 e0bd b8dd 5abd 2302 053d 8135 983d
000000c0: b2b5 45bd 54df 823c c022 cabd ec9d 9abc
000000d0: 30bf 8d3d d5dc efbc 2ad4 50bd ef12 41bd
000000e0: 84e5 1cbd 0ec1 7f3c 6315 b4bd 5a75 623d
000000f0: e70d 9a3d ef7f 3cbd e2fb 64bd d581 44bd
00000100: e160 91bd c061 f3bc 7014 823c e354 62bd
00000110: 0d3b a13d b6dc 9b3d 3f37 213b 00e5 77bd
00000120: 3c30 cabd 637a 9bbd 8429 23bd 27ba 783c
00000130: 4dae 503d c1da 63bd 7bde a3bd b5b7 d3bb
00000140: e2e6 8abc d306 a9bd 9c2e 243d 1913 e73b
00000150: d1d9 133d de6e 99bb 9a59 db3c 9c49 c3bd
00000160: 004d c7bd 055a 1abd ab65 7dbd 8662 93bc
00000170: 9fe9 f4bb 4ea4 c939 4b33 a7ba d86c 3bbe
00000180: df11 88bd 3d3d a8bb 6995 aebd 177d c0bb
00000190: 5279 fcbd 5664 843d 6b54 01be 4cf8 a4bd
000001a0: 4cff 91bc 7c39 2c3d d531 94bc 1b70 2d3d
000001b0: 53d7 a4bd 5d99 1a3d 3d34 0a3d 5923 dfbd
000001c0: 40eb fabd 940a 97bd 2459 11be c50a 993c
000001d0: c0ba ef3c 166e 573d 083e debd 4de0 1cbe
000001e0: 7915 1fbc e277 62bd 6b51 d2bc 00c7 21bd
000001f0: ab1c 943d e4dd ea3b 0b34 073d 8de1 213c
00000200: e306 c23d 7661 593d cfb1 5a3b 6b72 b43c
00000210: 3bcd 523c 1f1e c7bc 6498 9c3c 0d81 c4bc
00000220: 66ae 483d 8b84 953c 2944 13bf fdd2 c5bb
00000230: 16ab ae3d 9626 763d b062 593d 7100 d53d
00000240: 2a47 78bd 6464 e839 5d37 99be aa8f 16bf
00000250: 8dec f73d 0e5c 2abc 258a 573d 9d6d 343d
00000260: 1bdf 133d d082 073d 8760 913d 8e1d 8e3d
00000270: e550 453d f91f a1bd ded8 36be 8d5b d83d
00000280: d46f 50bd b53c 323d 9b74 e33d c855 78bd
00000290: f662 b4ba e882 ef3d be0c 013e 9339 c83d
000002a0: e626 d4be 8605 4a3c 42fe 39be 9de8 78bd
000002b0: d799 683d b992 513c e288 84bd 6347 15bd
000002c0: 29b1 8f3c 3467 fcbe bfcf c73c b441 863d
000002d0: 40f6 9bbd 49e5 0cbd 937c 163d 3284 7c3d
000002e0: 2f73 413d b05e 03bd 8500 9abd ea72 01bc
000002f0: 75cc a3bd 5531 c9bc cd8c e03d 01b7 26bc
00000300: 84c6 953d 448b 24bd 7a79 d53c 793f 6e3d
00000310: b3ef 6a3d d714 22bd e929 f33d c24a 95bd
00000320: 4754 83bc f944 9b3b d55b f93c 8a61 113c
00000330: 82e0 68bd c46c 983d 6287 6cbc 62c8 243c
00000340: 1cd7 bdbd bc59 d6be f8dd 663d 1d12 80bd
00000350: 0e7a b4bd 2026 b3bd e165 71bd d2b6 663b
00000360: 37fe 413a 86f2 d8be 4b18 87bd e68b f7ba
00000370: 10ed 633b e52b 063d 565c 83bd 7bf6 d8be
00000380: 40e0 24bd 7ddd 6fbd e9e2 10bd f32d f9ba
00000390: ec02 3d3d d7b4 543d 44ac cfbd 420b 98bd
000003a0: 2881 ab3d a193 633d abcf 43bc db84 b73c
000003b0: 3e81 09bd 7326 0a3e 0045 33bd 372f e63d
000003c0: d35e d1bc 1d2c 43bd cd27 5dbd 306d 69be
000003d0: 8a25 08bd 09eb a63d d7a5 6abd a817 bbbd
000003e0: 9fba 263d 2eeb 783d 66ba c7bb 58d1 e03d
000003f0: 1257 aa3a 6b3d e7bd ea55 08bf 1f34 04bd

bias f4 [28]
-0.07742683 -0.17330709 -0.11738106 0.002701484 0.031018967 0.081535615 0.13229202 0.005921822
0.10958876 -0.033273954 0.08791399 0.06579106 -0.10160068 0.03507536 -0.096573435 -0.09715095
0.018834772 0.04316343 -0.06275492 -0.11477512 -0.05315071 -0.08707028 0.004728644 -0.007998494
0.03366835 -0.11543224 0.06537279 -0.0065931263
00000000: f591 9ebd 6a77 31be 7b65 f0bd 610b 313b
00000010: 7d1b fe3c 25fc a63d 8f77 073e d80b c23b
00000020: 1270 e03d 454a 08bd 400c b43d 77bd 863d
00000030: 0414 d0bd 2eab 0f3d 4bc8 c5bd 14f7 c6bd
00000040: 614b 9a3c 23cc 303d a785 80bd 380f ebbd
00000050: 8fb4 59bd e751 b2bd bef2 9a3b 1e0c 03bc
00000060: d3e7 093d bd67 ecbd 2be2 853d 270b d8bb
