IO_DynaPlex/DeepControlledLearning/PolicyWeights/perishable_systems_m3_l2_cvr2.000000_f0.500000/_gen.pth (torch, 291772 bytes, 10 tensors)

weight f4 [256, 4]
00000000: 6036 9d3d 2ad7 d1be 7fa2 c23e c8fa 73be
00000010: bb7d 86be c927 473e df36 84be 2253 b23e
00000020: 4448 9ebe 44e8 a0be 9930 b13e 027b bcbe
00000030: a9a9 863e 983c fabe 9d64 8d3e f63d d3bd
00000040: 7327 54be 1215 db3e 2fb3 063e 5e34 f2bd
00000050: c467 9fbe a898 debd 565d 94be 500c 6abd
00000060: ac7a 8ebe b81d d23d b0d6 bb3d 1e74 ccbe
00000070: 23c9 e0bc 42ed cfbe a0a3 52be 4c21 093f
00000080: 60db d43c 187e 53be caee 8ebe 700e 2f3d
00000090: 9549 083e 9a3c b6be 0c5a c53e 1f3e 24bc
000000a0: bc0a ba3e 17cb c43d 721a fb3d 6b41 b13c
000000b0: 98e5 98be 2bdb 3abe e466 4f3c f8e3 ce3e
000000c0: 82af 893d f331 c83e 7ffd 7dbe 98f2 e03e
000000d0: cb93 253e d96d e93e 5a65 45be 8afa 60be
000000e0: 6414 c0be e023 733d 6402 fabe 007a cbbd
000000f0: 2dc6 8a3e 58ed 63bc 47cb 093e 455c c73e
00000100: eaa1 91be 1198 363e 8189 5e3e 925a 63bd
00000110: 706b 89be 98d2 853d 0a60 e4be 0896 05be
00000120: cca5 5a3e b715 82bd 84dd d3be 0dce d0bc
00000130: 8f3f eabe ecdf a23e 8e1e 1fbe 1529 f5bd
00000140: a5eb 4bbe 48cd 7a3e f0a6 a23e 89d3 f4bd
00000150: e06c e23d 72f7 19be 28ce 823e 3ee9 89be
00000160: 2f4d 6e3e 794b fdbc 340b bebe 4294 e83e
00000170: 19b0 c8be 5691 bbbd e56b c53e 0963 a83e
00000180: 52ad 453d 970b 94be 5c55 b83e f143 ca3e
00000190: 20bf a8bc b8d0 cfbe 609b cebd 6049 ddbc
000001a0: 55c5 8dbd 95f2 b23d e01f 623e e69e 37bd
000001b0: 8820 5d3e c4da b23e 760c cfbe f795 03be
000001c0: aa58 a83c 6b05 a2bd d199 af3d d02b 473d
000001d0: 30aa ae3e 48f9 99be 1813 86bd e4d1 5bbe
000001e0: b201 3e3e 252a 6c3d b392 dd3e 357d bfbe
000001f0: 183a 5fbe 6874 b53d 9043 6fbe b2f2 cebe
00000200: c111 cd3e 6bba 73bd 6d90 5abd 99c1 f5be
00000210: cea8 3dbe f8b6 e83e b161 a53e de71 ecbc
00000220: 004b 43bc a29a b0be 8030 9dbe 90ca 93bd
00000230: f8c4 ce3e d874 dbbd 305f a6be ec7a fdbe
00000240: 19dc 1e3e 4ccb 803e 342b 8bbe d8d4 62be
00000250: 72b9 89be d665 99be 0015 ad3b 74d9 d2be
00000260: 9a25 d8be a06f 9e3e 4c17 aebe 4cf0 aa3e
00000270: 24a8 813e 54ec 3cbe a63a d4be 1e62 c8be
00000280: 6020 f6bc d68c 993e b06f 55be e082 cebe
00000290: cc72 ea3e 848a f3be 5b5f 843e 4224 8bbe
000002a0: 7219 e1bd bd44 1cbe 1539 a43e 9a38 d8be
000002b0: c8fb 8ebd 0864 de3d a085 79be 80ca 0cbc
000002c0: 2cbf a83e fc35 f2be 4c6c 48be 0a90 ecbe
000002d0: 2c59 513e 8cc9 163e 2277 84be ccf1 a5be
000002e0: 89de c43e ac61 133e 846e 9f3d 8efc c93e
000002f0: 1ce3 003f 1086 8abd 6b89 7abd 5735 d6be
00000300: ae78 0bbf e223 a73e 7f11 edbd 4ade 593e
00000310: c70c bbbe 5122 f23e 73d1 a63e ec40 eebd
00000320: b610 ffbe 1819 97be 6885 463e 8c8f bcbe
00000330: d03b 6d3e 50ef 6abd 283a 84bd 7cff fdbe
00000340: 1753 25be c98a 2b3e 3339 bfbe 5ba9 023f
00000350: a838 23be f04f e93d 7693 99be 8ce6 0dbe
00000360: 8837 a73d 38b4 f4bd 1ee5 c3be 0044 6b3b
00000370: 3e9f c23e a1ba 9d3e ce38 89be 7494 f73e
00000380: 6254 f0be 447f 373e e4c0 c13d 9da8 6dbe
00000390: 91ab 093e f5cf b7bd f028 b23e 8714 b1be
000003a0: cf65 053e dcca eebe 209b b9bc 1f6e c13e
000003b0: ecbc 0fbe ace1 96be 5c00 98be 4ae9 8abe
000003c0: c25e abbe 88c3 7b3e 3ba1 7c3c cab1 9bbe
000003d0: 8713 7a3e d81f 99be 362a b33e 893d 1d3e
000003e0: 2c48 763e d73f 1c3e 5e7d a53e daec 573d
000003f0: 2d9a 4fbd 152f 3c3c 4c33 f13e bee0 43be
0.07676387 -0.4098447 0.380146 -0.23826134 -0.262678 0.1944877 -0.25823113 0.3482905
-0.3091451 -0.31427205 0.3460739 -0.36812598 0.26301315 -0.48874354 0.27615824 -0.103145525
-0.20718174 0.42789513 0.1315429 -0.118263945 -0.31133854 -0.108689606 -0.2897746 -0.05714065
-0.27827966 0.10259575 0.09171808 -0.3993234 -0.02743966 -0.406107 -0.2057023 0.5356643
0.025983512 -0.2065357 -0.27916557 0.042738378 0.1330932 -0.3559311 0.38545263 -0.010024576
0.36336315 0.09609049 0.122609034 0.021637639 -0.29862666 -0.18247668 0.012658808 0.404083
0.067229286 0.39100608 -0.24803732 0.43935084 0.1616966 0.4559162 -0.19276944 -0.21970573
-0.37515557 0.059360385 -0.4882995 -0.09935379 0.2710432 -0.013911568 0.1345645 0.38937584
-0.28443843 0.17831446 0.21732141 -0.055506296 -0.2683978 0.06534308 -0.44604522 -0.13045514
0.21352309 -0.06351798 -0.4137994 -0.025488878 -0.45751616 0.31811464 -0.15539 -0.119707264
-0.1991411 0.24492371 0.31767988 -0.1195441 0.110559225 -0.15035799 0.2554791 -0.26935762
0.2327163 -0.030919777 -0.37117922 0.45425612 -0.39196852 -0.0915858 0.3855888 0.32888058
0.048260994 -0.28915092 0.36002624 0.3950496 -0.020598948 -0.40588927 -0.10088229 -0.027012527
-0.06922404 0.08737675 0.22082472 -0.04482927 0.21594441 0.3493253 -0.40439194 -0.12850176
0.02055009 -0.0791119 0.0857426 0.048625767 0.34114218 -0.30073 -0.065466106 -0.21466786
0.18555334 0.05765738 0.43275985 -0.37400213 -0.21799505 0.08860093 -0.23365617 -0.40419537
0.40052608 -0.059503954 -0.05336039 -0.47999266 -0.18521425 0.45452094 0.32301095 -0.02886289
-0.011919737 -0.34492975 -0.30701065 -0.0721637 0.4038465 -0.107156456 -0.32494497 -0.49507844
0.15513648 0.25155103 -0.271814 -0.22151506 -0.26899296 -0.29960507 0.0052820444 -0.4118153
-0.42216188 0.30944538 -0.3400215 0.33386457 0.25323594 -0.18449527 -0.41450995 -0.39137357
-0.030044734 0.29990262 -0.20843387 -0.40334225 0.45790708 -0.47566617 0.25854 -0.271761
-0.109911814 -0.15260597 0.320748 -0.42230684 -0.06981617 0.10858923 -0.2436738 -0.008593202
0.32958353 -0.47306812 -0.19572562 -0.46203643 0.20444173 0.14725322 -0.2587214 -0.3241104
0.3845103 0.14392728 0.07784751 0.39450496 0.5034654 -0.06763852 -0.06116621 -0.4183757
-0.5448102 0.32644564 -0.11575603 0.21276203 -0.36533186 0.47291806 0.32581672 -0.116334766
-0.49817437 -0.29511333 0.19386828 -0.36828268 0.23167348 -0.057357132 -0.06456405 -0.49608982
-0.16144978 0.16752161 -0.37348327 0.51039666 -0.15939581 0.113922 -0.29995316 -0.13857478
0.081648886 -0.119484365 -0.3826074 0.0035898685 0.38012117 0.3080645 -0.2680115 0.48355448
-0.4693938 0.17919642 0.09460619 -0.23208852 0.13444354 -0.089752115 0.34796858 -0.34585974
0.13027118 -0.46639144 -0.022656977 0.37779328 -0.14036912 -0.2946905 -0.29687774 -0.2713111
-0.33470732 0.24586308 0.0154193 -0.3040908 0.24421512 -0.29907107 0.34993142 0.15355505
0.24050969 0.15258728 0.3232221 0.052716114 -0.050684143 0.011485835 0.4710945 -0.19128701

bias f4 [256]
00000000: 0355 583e 3396 12bf 9490 853e 22fb 67be
00000010: d7d3 113f d886 a7bd b0bb a9be de92 8f3e
00000020: 80db 36be 618c ad3e faa1 c63e 7f3d d43e
00000030: 1dc9 b8be a2db 41be d2ae acbe 08b9 0abf
00000040: 9977 e83e 3814 993e b458 ce3e d3b8 db3e
00000050: ec98 d0be e08a ef3e b382 043f 8841 11bf
00000060: 6e94 b2be 2096 7a3e 54bf c6be d1f9 f9bd
00000070: e4ca 0b3f 730b a03e b719 dcbe 68d2 cabe
00000080: fada 043f ea37 163f 709a 69be 64c4 5a3e
00000090: b652 183d 7007 c83d 769a ba3e 8087 3ebe
000000a0: a04f f8be 1e9b 43be 03b8 3c3d be48 b5be
000000b0: 906a 803e 3cc7 68be 339b 8ebe a804 4f3e
000000c0: 9cec 8fbe 6497 f6be 7aad acbe dc36 74be
000000d0: d5d8 0ebf a071 463d 2012 633d a50f d6be
000000e0: 8197 31be 9349 0cbe 4084 11bf 20a0 f73c
000000f0: 2089 e2be 0eae a3be e7f9 30bf e6a1 1abf
00000100: 2401 86be 4228 96bc b93b cdbe 934b 83bd
00000110: 26ed 15bf a01c debe bf38 ce3e a425 2cbf
00000120: 8265 823e 420f afbe 588e 00be 5371 c33c
00000130: ba12 603d e6f4 a23e 96ee a23e ec56 0ebf
00000140: 7790 ea3e 249d 8c3e 1c40 263f fb7a 193f
00000150: 00aa cc3c 671f 3cbe e731 59be f316 5abe
00000160: f0b6 c7be fc38 b23e 5830 943d 9c09 8b3e
00000170: c098 9fbc 81ee e3be f680 3ebe ffd8 ce3e
00000180: da58 e6be 53d3 38be 6724 c63e f09a ccbe
00000190: e0fe bbbe b905 ef3e a6e2 793e 72b4 023f
000001a0: 94d6 183f 60e7 94be 6ba1 8cbe 16a3 fa3e
000001b0: 3b9c 46be c6f1 ebbe 18e9 983e 17a1 c1be
000001c0: 2bee 76be 8bc9 e8be f780 b5be 9a3b 28be
000001d0: 01dc 363e c0e0 103f 24bf 3d3d b9ed b13d
000001e0: 623c b5be 6708 393f 6fe3 f43d d4e5 03be
000001f0: 33cc 023e 1661 ae3e 28f9 12bf e9eb fb3c
00000200: 64a4 a5be 332f 213c 3841 c73e f831 14be
00000210: 1680 0cbf d856 12be 4d69 d13e 7192 1c3f
00000220: 69eb 133f f558 0f3e 4dd8 243e cc1b fa3e
00000230: e762 dfbe a803 333e b8b5 d93e b1bc 9dbe
00000240: d4a7 2cbf 034b 5bbe 9ecc 8dbe 8b79 93bd
00000250: e8b1 6d3e bd3a 35bc 401e 7dbe 0062 463d
00000260: c1e8 81be 34a2 7dbe fe50 dc3e 034d b13e
00000270: a1ce 283c 2f12 18bf ce29 743d a964 03bf
00000280: f9d6 23bf aa44 40be e065 3d3f 8d9d 81bd
00000290: 0d2c eb3e 6ddc 9e3e 463a efbe 62ab 18bf
000002a0: 603b edbc aeba b9be 768a 263d 121d c7be
000002b0: 46aa 993e 0a5f ae3e cf57 abbe 8b2c c03e
000002c0: 0ee7 363f 47a1 13bf 2b31 f5be 702d 7a3d
000002d0: 1f3d d73d 53fe a2be 2d3c d5be a358 c63e
000002e0: fd10 803e 637e 8dbe 7055 013f f921 89be
000002f0: 27bc 45be e96a d8be 29b4 993e 9d51 5a3e
00000300: 2c0b 6cbe c194 093b c996 9ebe e712 ee3e
00000310: 58bd 33be 5c40 6ebe 2c0b 62be 5075 0fbd
00000320: 2cfa 89bd ec2d 1fbe da68 d83e 745f 03be
00000330: 0d0b 1c3e ad32 1d3e abca 0dbe 5212 1bbf
00000340: 40b6 15bf bb1c 20bf 2f70 903e 88c3 0c3f
00000350: ec16 e3bd f422 d23e 60a1 d53e 5129 b03e
00000360: 8b00 2abf a9d1 cebe 3e7c b8be 39fb 9f3e
00000370: 2cfe e4be bc82 853e 16f5 963e 93a0 11bf
00000380: 11cd 04bf 9291 c7be 9ae1 e83d 1eb3 c5be
00000390: 801f b63c 91d1 26bd 26d4 abbe 6d87 adbc
000003a0: dcd6 0d3e f61a c03e 7889 a5be d016 09bf
000003b0: 0069 49bd 71c8 043d f65e 253f ebea 0abf
000003c0: 5c1a 47be 0ffb 333d a48b 093e 31d5 983e
000003d0: 940a e7be 7473 553e 245b b93e 1d6d c73e
000003e0: 9ebb 1dbf 34c4 0e3e 1431 ddbe 0234 fc3e
000003f0: ca1e bebe cebe 6ebe a4b4 21bf 3e9d 41bd
0.2112618 -0.57260436 0.26086867 -0.22654393 0.56963867 -0.08180016 -0.33151007 0.28041738
-0.1785717 0.33896163 0.38795453 0.41453168 -0.36090937 -0.1893144 -0.33727127 -0.54188585
0.45403746 0.29898238 0.4030205 0.42914447 -0.4074167 0.4678564 0.5176193 -0.5674062
-0.34878868 0.2447133 -0.38817847 -0.12205852 0.5460646 0.31258735 -0.4298837 -0.39613652
0.5189663 0.5867907 -0.2281282 0.2136398 0.037188254 0.097670436 0.3644597 -0.18606377
-0.4849825 -0.19102141 0.046073925 -0.3540706 0.250813 -0.22732252 -0.27852783 0.2021662
-0.28110206 -0.48162377 -0.33726102 -0.23849052 -0.5579961 0.048448205 0.055437207 -0.4180881
-0.1734295 -0.13699941 -0.5684242 0.03022772 -0.44245243 -0.3196873 -0.6913132 -0.6040329
-0.26172745 -0.018329743 -0.40084627 -0.06410899 -0.58564985 -0.43381214 0.4027767 -0.67244935
0.2546807 -0.34191328 -0.125543 0.023857748 0.05470536 0.31827468 0.31822652 -0.5560138
0.45813343 0.2746364 0.64941573 0.5995328 0.024983406 -0.18371354 -0.21210442 -0.21297817
-0.39006758 0.348091 0.07235783 0.2715577 -0.019482017 -0.44517902 -0.18603882 0.4039993
-0.44989663 -0.18049364 0.38699648 -0.39961958 -0.36717892 0.46684054 0.24402866 0.5105659
0.5970242 -0.29082775 -0.27466902 0.4895255 -0.19395535 -0.46082896 0.29865336 -0.37818214
-0.24114291 -0.45466265 -0.35449955 -0.16428986 0.17857362 0.5659294 0.046324864 0.0868792
-0.3539763 0.72278446 0.11957442 -0.12880641 0.12773208 0.34058446 -0.5741143 0.03075214
-0.32351983 0.009837913 0.38916945 -0.14472187 -0.54882944 -0.14290941 0.4090065 0.6116095
0.5778108 0.13998778 0.16098137 0.48849332 -0.43630144 0.17481863 0.42521453 -0.30808023
-0.67443585 -0.21415333 -0.27695173 -0.07200917 0.23212397 -0.011061368 -0.2471857 0.048433304
-0.2537289 -0.24768907 0.43030542 0.34629068 0.01030317 -0.59402746 0.05961018 -0.5132547
-0.639999 -0.18776193 0.73983574 -0.063288786 0.45932046 0.31027547 -0.46724147 -0.5963651
-0.028958976 -0.36275238 0.04065939 -0.38889366 0.3001272 0.34056884 -0.3346543 0.37533984
0.7144631 -0.57667965 -0.47889075 0.06107849 0.10509705 -0.3183466 -0.41647473 0.387395
0.2501296 -0.27635488 0.5052099 -0.26783732 -0.19310056 -0.42269066 0.30020264 0.21320195
-0.23051137 0.0020993205 -0.30974415 0.46498796 -0.17552698 -0.23266739 -0.22074574 -0.035023987
-0.067371696 -0.15544862 0.42267495 -0.12829381 0.1523859 0.15351363 -0.13846843 -0.6057483
-0.58481216 -0.6254384 0.2821059 0.54985857 -0.110883564 0.41042292 0.41724682 0.34406522
-0.6640708 -0.40394333 -0.3603229 0.31246355 -0.44725168 0.26076305 0.2948386 -0.5688564
-0.51875407 -0.3897825 0.11371155 -0.38613218 0.022231817 -0.0407272 -0.33560294 -0.02118274
0.13851494 0.3752057 -0.32331443 -0.53550434 -0.0491724 0.03241772 0.64598024 -0.54264706
-0.19443649 0.0439406 0.13432175 0.29850152 -0.45125258 0.20844823 0.36202347 0.38950434
-0.61614406 0.13942033 -0.43201506 0.4925843 -0.37132865 -0.23314974 -0.6316626 -0.0472691

weight f4 [128, 256]
00000000: c2d7 1dbc 5972 2fbe 4eb1 8dbc c71b c4bd
00000010: 78f1 5f3d f8dc 483c 90d5 b6bb 24ba 203d
00000020: 3e5f 20bd 506c 9b3d 35b0 583d e76d b03c
00000030: e731 223d fc04 e83c e4e9 c53c 433e 2ebd
00000040: 519e 0d3c 1a25 02bd b3e0 aabd a4a1 153c
00000050: 0000 9fbd a95b 633d 4f77 e43d 8e65 18bc
00000060: 5e77 d83a 0047 3d3d a9ea 15be bcc3 d6bc
00000070: 2b93 ba3d 1ba8 183d 3f64 47bd c83a 863c
00000080: b95a 403c 41ba a73d 3cc5 dd3c c676 1b3d
00000090: cfeb f33d e09c 08bc 857f 0a3d a61a 44bd
000000a0: 58bd e83c 5dfb fdbd 0caa 073e 7439 8ebc
000000b0: f06b 27bd b015 c23b b176 afbc a2ee bbbc
000000c0: 7ed0 d0bc 24da f13b 98df 2e3d b458 e3bc
000000d0: 1fb5 28bd 706e dc3c 14c0 6a3d fe7c d93c
000000e0: 01aa 27be 20f6 cc3c f876 1cbd 5065 f13b
000000f0: 9ab7 23ba ae09 8cbd b620 1cbd 1ef8 5ebe
00000100: a551 6bbc 613d 843c fc0f 4fbd 62c5 dd3c
00000110: 6b0d d3bc 541a cb3c 3785 fd3c 0cb8 aa3c
00000120: 21d6 a2bc ae1e 0b3d f02c 6b3c 7b0c eebc
00000130: 540b 16be b05f bf3b 6b72 dabc fc93 6cbb
00000140: c6ef 733d 5ab0 3cbc 5865 a83c 0138 fc3d
00000150: 5647 0ebd d507 00bc 0313 dfbc e044 7bbd
00000160: d434 083d d7fe 983b e69a 2ebd 18cb 3d3c
00000170: ff25 363c fef2 2cbd 0d98 03bd dd17 833d
00000180: cc13 78bd 9c35 98bd b956 6a3d c452 d5bc
00000190: 62d1 81bd c57f 923d 9c25 62bb 8acd 1b3c
000001a0: 590c eb3d 92c2 b6ba 6627 a83c 3cf5 c93c
000001b0: 2a37 4d3d e815 9cbd 947f 2ebc 8c94 20bd
000001c0: c7b2 f1bc b9eb 18bd b4a0 a2bd e635 093d
000001d0: 897f a43c c617 1b3d d68c c63c 7e9b 9cbc
000001e0: e72c c2bc 639f 2c3d 14b5 52bd 4e10 253d
000001f0: e1fa 613d 30cf e43b 1447 1dbd 6f52 733d
00000200: c90d abbc 4005 28bc 694c c53c a2d6 673d
00000210: 7416 b5bd 62a6 34bd 4cc5 dc3d 9a72 dc3d
00000220: 1dac 2b3c a1c4 e4bc f22f afbd c4aa c93c
00000230: e43c 62be f5b2 d5bc d7b6 b43d adc6 b0bc
00000240: b70b a7bd 2838 333d 50d2 a9bc c643 3c3d
00000250: 149a e2bc fd84 803d 1ccb 85bc 905a 48bc
00000260: 741e b43c 2416 16bd d368 643c 0ee5 463d
00000270: a707 b7bd c195 8dbd 27e1 86bd c907 3cbd
00000280: 3be1 aebd 62f6 5c3d da9a 063e a32d 5a3c
00000290: d4a9 6b3d 7506 673c 9382 26bd 3046 a2bd
000002a0: a04a 91bc 7004 b63d d5ce 1abd a0db fdbb
000002b0: 8006 fdbc 172e d03d 842b af3c d523 f7bc
000002c0: a6f3 083e 0b24 99bd 1499 71bc 54f2 53bd
000002d0: 71a5 7dbd 59eb 96bd 0b65 583c 92e3 823b
000002e0: 0319 1e3d cd58 56ba 3a6c 703d db35 483d
000002f0: 2b3c 75bc 15ce f0bd af39 003d 3d56 593d
00000300: b846 5e3d 2eea 1eb8 422c 0c3d e9d6 113e
00000310: 58a3 58bc d13e 87bd e4ec 6abd 8a78 093d
00000320: 9a11 0b3d ee6a 62bd 509b 4d3c 88c2 cfba
00000330: 489a 31bc c277 8abb a154 8abc 323d 86bd
00000340: b4ad 1bbd 8163 82bc 5982 263d a801 423d
00000350: e839 af3d e79d f53d b30a cf3d a3c9 003c
00000360: c7e9 6fbd a7c5 8abd 81db 86bc cc6e c53a
00000370: 7597 86bd 10e7 b5bb a19d 343d 26c1 57bd
00000380: 6f23 2bbd 9882 6f3c b6dc 433d d8d6 91bd
00000390: 68e4 a7bc 4a84 1fbd 0b03 45bd 46d8 8b3d
000003a0: 2cb9 ad3c 0c1f 5abd 38db a23c 5235 c2bd
000003b0: 74b4 98bd 0735 05bb 225c e03d 5d48 22bd
000003c0: e8dc e6bc 0432 773c c8ad 733c 022c 063d
000003d0: 5120 7f3d ecc6 d63c 8377 383d 6e5d 263e
000003e0: 703c 8a3c db21 883d 0432 b6bc 68eb 0f3e
000003f0: dcaf e53c f301 763d d940 dfbc dd2c 2abd
-0.00963396 -0.17133464 -0.01729646 -0.095756106 0.054673642 0.012259714 -0.005579658 0.039240018
-0.03915333 0.07589018 0.05290242 0.02153678 0.03959837 0.02832269 0.02415938 -0.042539846
0.008643703 -0.031773664 -0.08343639 0.009132776 -0.07763672 0.055507336 0.11155569 -0.009301556
0.0016515066 0.04621029 -0.14640297 -0.02621638 0.09110101 0.037269693 -0.048679586 0.016385451
0.01174038 0.08189822 0.027071588 0.037955068 0.11910211 -0.008338183 0.03381302 -0.047876976
0.028410599 -0.12401459 0.13248461 -0.01736138 -0.04087442 0.0059229955 -0.021418901 -0.022940937
-0.025490042 0.0073807407 0.042693704 -0.027752258 -0.041188356 0.02690813 0.057312086 0.026548859
-0.16373445 0.025019705 -0.038199395 0.0073668137 -0.00062453153 -0.06837784 -0.038117133 -0.21774337
-0.014362727 0.016142549 -0.050552353 0.027071659 -0.025763234 0.024792828 0.03094731 0.020839714
-0.019877495 0.033964805 0.014353976 -0.029058686 -0.14652759 0.0058402643 -0.026665887 -0.0036098948
0.059554838 -0.011516655 0.020556137 0.123153694 -0.034736 -0.007814367 -0.027230745 -0.06134498
0.033253506 0.004669051 -0.04262819 0.011584066 0.011117457 -0.042223923 -0.03212743 0.06401036
-0.060565755 -0.074321 0.05721161 -0.026040442 -0.06338765 0.07153276 -0.003450728 0.009509454
0.114769645 -0.0013943485 0.0205266 0.02465307 0.050101437 -0.07621366 -0.010650534 -0.039204165
-0.029504193 -0.037334178 -0.07940808 0.033498667 0.020080345 0.03786447 0.024237078 -0.019117113
-0.023703052 0.04214419 -0.05144222 0.040298752 0.055170897 0.0069827065 -0.038397864 0.059404787
-0.020880597 -0.010255158 0.024084287 0.056601174 -0.08842173 -0.044103988 0.10779819 0.10764046
0.010478047 -0.027925791 -0.08554067 0.02461756 -0.2209354 -0.02608631 0.088239364 -0.021579111
-0.08156531 0.043754727 -0.020730168 0.04596307 -0.02766136 0.062753655 -0.016332202 -0.012228623
0.021987177 -0.03664221 0.013941008 0.048558287 -0.089370064 -0.06913329 -0.06585913 -0.045905862
-0.08539053 0.053945906 0.13145009 0.013316545 0.057535008 0.014100661 -0.04065187 -0.079235435
-0.01773578 0.08887565 -0.037794907 -0.0077471286 -0.030886889 0.10165041 0.021383055 -0.030168453
0.13374195 -0.07477578 -0.014745969 -0.051744774 -0.061925355 -0.07369108 0.013207684 0.0039944137
0.03859807 -0.00081766845 0.058696963 0.048879486 -0.014967958 -0.11758057 0.03130501 0.05306076
0.05426666 -3.7888232e-05 0.034221895 0.14242138 -0.013222538 -0.06603778 -0.057354823 0.03356222
0.033952333 -0.055277757 0.012549236 -0.0015850822 -0.010840006 -0.004225702 -0.016886057 -0.06554641
-0.038007453 -0.015916588 0.040651653 0.04736486 0.085559666 0.11993008 0.101094626 0.007860574
-0.058572557 -0.067759804 -0.01646209 0.0015062927 -0.06571857 -0.0055512264 0.04409564 -0.052674435
-0.04178184 0.014618538 0.04781791 -0.07121056 -0.020494655 -0.03894452 -0.048098605 0.0682836
0.02120646 -0.053252265 0.019879922 -0.09482826 -0.07456294 -0.0020325796 0.10955073 -0.039619792
-0.028181508 0.015087608 0.014872976 0.032756813 0.06228668 0.0262179 0.04503585 0.16246578
0.016874522 0.066470824 -0.022240646 0.14054644 0.028037958 0.060060453 -0.027252601 -0.04154669

bias f4 [128]
00000000: 157e 253e f199 613e e0f9 f1bd 68ee b4bc
00000010: 9dd2 14bd 06e2 46bd 82b0 5cbe 2973 343e
00000020: a2a7 33be f2ac 2c3d 803e 1abd a815 adbc
00000030: d342 43bd 9740 67bd 87a1 3c3e 722c d53c
00000040: bfab a8bc 8a4c edbd ddcc acbd 2a8f 3ebd
00000050: 765e b43d 1b16 803d cbf4 183d 6ab4 be3c
00000060: 4ce5 50bd 499d b9bd 46d2 d8bc f668 803e
00000070: ee60 3a3e 4856 8d3d d8dd 4bbc 7a76 1bbd
00000080: 6a2b 0bbd 88c1 093c 0f95 40be 8e75 10bd
00000090: 7184 58bd 94f6 23be 18f2 d7bd d029 ff3c
000000a0: fdfd 0f3e e039 c6bb 5e86 48bd 133c 17be
000000b0: a7de d23c 98f4 04bc 56b2 4f3d f051 2e3e
000000c0: 02f9 1d3e 3c59 97bc e0aa 403d 424f a13c
000000d0: 7528 89bd 04c3 2cbc 7e78 903c 54d9 15be
000000e0: 0636 003e ffe7 543c 5940 073e 605c b73b
000000f0: b358 6bbd aefd 13be d0b6 3a3d 97e8 a53c
00000100: 47c8 043d 6c4d 33bd c069 0c3e 9997 0fbe
00000110: b8ce 3fbc 349b c8bd 7cbd 133d e18b 6c3b
00000120: 2052 243e d204 6abd 2604 2bbd cc8e 90bc
00000130: c4dc 1abd 8d43 263c 2cbf f43c 29e4 37bd
00000140: e83a aebc d0fe ddba c076 b53d c9a8 48bd
00000150: 199c 2fbe ef42 5fbb a7e7 b5bc 489b eb3b
00000160: b09a 46bd 4c46 5b3d 8750 2e3e bf41 40be
00000170: 6f68 e0bc 8812 413c e027 c5bc 92d2 a5bd
00000180: 4f14 173e 10a9 52be 3caf b7bd 7a27 2a3a
00000190: 2816 493e db8d 9a3d 8336 51bc 8104 3d3c
000001a0: 2e8d 80bd 1c41 f23d 80c4 a2bc b13b c0bd
000001b0: d4f7 033c 5928 9cbc 21f0 4dbb 8ee4 f03c
000001c0: 3297 5cbc 3e39 913d 04fa 90bd 177e 54bd
000001d0: ad4d 7ebd 3ed4 8d3c f0ea f23a 042c 9a3c
000001e0: d942 c73d bd44 8cbd 70df 0c3d d0d9 87bc
000001f0: d47e ee3d 30c3 86bb 2804 f93c 233d f4bd
0.16161378 0.2203138 -0.11815238 -0.022086337 -0.03633367 -0.048555396 -0.21551707 0.17622055
-0.17544416 0.04215712 -0.03765726 -0.02112849 -0.04767115 -0.056458082 0.18420993 0.02602217
-0.020589707 -0.11586864 -0.08437512 -0.04652325 0.088070795 0.06254216 0.037342828 0.023279388
-0.050999925 -0.09063203 -0.026467454 0.2508008 0.18201038 0.069012225 -0.012443028 -0.037954785
-0.03397695 0.008407958 -0.18806861 -0.03526836 -0.05286068 -0.16012031 -0.105442226 0.031147867
0.14061733 -0.0060493797 -0.048956268 -0.1476901 0.025740935 -0.008114956 0.050707184 0.17023444
0.1542702 -0.018475167 0.04703796 0.019691113 -0.0669717 -0.010544542 0.01763558 -0.14633685
0.12520608 0.012994765 0.1320814 0.0055957288 -0.057457637 -0.1445224 0.0455845 0.020252509
0.03241756 -0.043775007 0.13712215 -0.14022674 -0.011707 -0.09795228 0.03606938 0.0036094117
0.16046953 -0.057133503 -0.041752003 -0.017646216 -0.037808195 0.010147941 0.029876314 -0.044895325
-0.021268323 -0.0016936902 0.088605404 -0.04898909 -0.1714939 -0.0034066995 -0.022205187 0.007190142
-0.048487365 0.053533837 0.17022906 -0.1877508 -0.027393548 0.011784203 -0.024066865 -0.08096804
0.14753841 -0.20572305 -0.0896897 0.0006490868 0.19637358 0.07546588 -0.012769344 0.011536718
-0.06276928 0.11828825 -0.01986909 -0.09386385 0.008054692 -0.019062208 -0.0031423646 0.029405858
-0.013463782 0.07090996 -0.07078937 -0.05187806 -0.062085796 0.017313119 0.0018533152 0.018819816
0.09729547 -0.06849048 0.034392774 -0.016583353 0.11645284 -0.0041126236 0.03039749 -0.119257234

weight f4 [128, 128]
00000000: 5b51 d13c ac20 1a3d cc06 63bd 2d83 53bd
00000010: aaa1 e73c 1b31 adbc 83d3 383b 1724 8ebc
00000020: 8691 193d 0eab 4bbd e082 733d 3a52 6d3d
00000030: adb0 a33d 951d 88bd 23b4 88bd b023 6c3d
00000040: 9f05 c93b 21f9 a13b b88b f2bc b620 9fbd
00000050: 13f2 69bd 9229 803d caf2 e8bc 7722 31bd
00000060: 2008 913b bbfb 02bc bf71 22bd 15ed 4abd
00000070: ced3 94bd d43e 933c d683 253d d1d4 57bd
00000080: cc24 293c 3763 043d 401b 0cbd 0ad7 373d
00000090: 600c 823d 7be0 cdbc 0eaa 773c 0460 c9bd
000000a0: 4f32 313a 54e5 1fbd 254b ae3a 4b61 123d
000000b0: 7b03 97bd 0180 cb3b adc0 8d3d b5b1 b1bd
000000c0: 973b a0bd 8ad9 0bbd cefc 8f3b 096d b6bd
000000d0: af4d 2ebd a9fa 943c 7105 803d c797 88bd
000000e0: e344 963d 4b6b 733c 0991 4d3c 5759 8dbd
000000f0: 34a2 07bc 1d46 453d 489a 50bd 709f dbbc
00000100: 37dd 763d 0367 3ebd 26ee 8abd 2782 b8bd
00000110: 7f7a 76bd b037 933b 6887 6ebc 8095 ab3d
00000120: caa2 dbbc d71e 9bbd d6ec 13bc 9998 e4bc
00000130: 8d22 84bc 337f 64bd 1f2a 8abc d2da 3c3d
00000140: d2d2 8cbc fb33 c4bc 96b9 acbd 8584 f5ba
00000150: 248c f73c b474 abbd 25e9 7d3c 54d5 3cbd
00000160: 93ca 9a3d 22da 063c a918 6f3d ad7f f7bc
00000170: 35ea b9bc 2c6e 98bd 144b 843d 9dc6 d6bc
00000180: cfbd 8abc 0f95 22bd 06b2 f5bc f73d 6f3d
00000190: 2c94 37bd f617 64bd 84cc b6bc 1b4e c73c
000001a0: 8cce 573d e283 3c3d c23c a3bd 88c3 013b
000001b0: 50a1 283d 4a06 c53c a144 3cbd 205c 043d
000001c0: 7163 0abd 5fcd 9ebd 2ee4 08bd d418 1b3d
000001d0: b873 3eba f3b6 73bb aaed 023d 7f1b 963d
000001e0: 3e58 0fbd 48ff 473d 34cb d33c e4b1 2f3d
000001f0: 4735 54bd 94cf 833d bd57 9d3d 320c f43c
00000200: a85e 393d 3a69 683e 55e6 46bc 4a8d cfbd
00000210: e6b1 68bd 41f8 6d3d b62a 2a3c 3098 043e
00000220: eb86 333c 884f 883d 9823 9c3c 5464 6dbd
00000230: fc17 3dbd 1fad 86bd 9431 933d 3e30 933d
00000240: b4a8 593d 51b4 433d 93ff d93c e503 5dbd
00000250: b786 6dbb 878f 213a 6ba3 7d3d 2dd6 b83d
00000260: d65f c03d 93f1 493c 9850 a13b 4ce1 bb3d
00000270: 8699 533d f2e8 883d 398e 9fbc a00d 91bb
00000280: cbef 7fbd 7066 d8bb bc79 8bbd 3a88 7c3d
00000290: abda d1bc 6d1d d9bc 4b41 01be e86b 78bd
000002a0: 80e7 873c 8788 463d eb96 a8bd c82b 5fba
000002b0: d444 bc3d 3926 073b 51af 03ba d25b b9bb
000002c0: 76cb 963c 7d26 3c3d 1e71 d63c 31c1 4dbd
000002d0: d5f1 213d 27c1 81bc 1804 cbbd 35d1 10be
000002e0: d5ca b1bc 115f 08bd f60e be3d ecad 29bc
000002f0: 3ce1 5fbd 8932 993d 0b06 48bd 5b3b a23d
00000300: 082b 0bbb 5a89 dbbb 5f60 c73c 076d 58bd
00000310: d6bf d0bc e5bb 22be c46a 5d3d 029e b73d
00000320: 1add 963d 4e81 083d 0dc0 a73d dd10 0bbc
00000330: 1a80 8aba c4d7 073b d3a6 fe3c e2bd 8c3d
00000340: 1eea 9a3d 0a4d 40bc 05a8 973c c7af fe3c
00000350: 4560 19bc e66a 743d f99a 7e3d 8b4c bb3b
00000360: 4617 93bd 8656 5e3d 72e2 f73b f403 d7bc
00000370: 6f62 403d bb01 513d b3f8 be3c ff20 8a3d
00000380: 103a 873d d282 a5bd 9542 64bc d3a8 31bd
00000390: db53 733d dfb0 dcbd ccf3 463c e629 15bc
000003a0: 4c65 9ebd 4386 4abd 567a 013a 00db a1bd
000003b0: fc26 9bbd aac0 1dbd 9ea3 b9bd a339 8dbd
000003c0: c464 803c 9baf 753d 3dd0 033c b410 60bd
000003d0: ba63 6f3c 2e07 0f3d ac7b 5fbd 5a09 34bd
000003e0: fd0a 87bd e450 273d 196d 8c3d 3b21 a9bc
000003f0: e34b aabd c0f5 a83d 4157 80bc bd19 87bd
0.025551489 0.037628815 -0.055426404 -0.05163877 0.02827533 -0.02114158 0.0028202243 -0.017351193
0.037492298 -0.049723677 0.059450984 0.057939745 0.079926826 -0.06646267 -0.06674983 0.05765122
0.0061347033 0.0049430286 -0.029607639 -0.07769911 -0.057115626 0.06257929 -0.028436083 -0.04324576
0.0044260174 -0.0079945875 -0.039659258 -0.049542505 -0.07266961 0.017974295 0.04040893 -0.052693192
0.010323714 0.03232118 -0.034205675 0.04488281 0.063500166 -0.025131455 0.015116228 -0.09832767
0.0006759511 -0.039037064 0.0013297541 0.035737317 -0.07373711 0.0062103276 0.069215156 -0.08676473
-0.07823866 -0.03414301 0.0043941503 -0.089075156 -0.042554554 0.01818593 0.06251038 -0.06669574
0.07337358 0.014857124 0.012546786 -0.06901806 -0.008278418 0.04816257 -0.050928384 -0.026809424
0.06026956 -0.04648496 -0.067837045 -0.090091996 -0.060175415 0.0044927225 -0.014558651 0.08378124
-0.026811022 -0.075742416 -0.009028634 -0.027904795 -0.016129756 -0.05578537 -0.016865788 0.04610712
-0.01719037 -0.023950567 -0.08433835 -0.001873151 0.030218191 -0.08371869 0.0154974805 -0.046101883
0.07558169 0.008230718 0.058373127 -0.030212248 -0.022694686 -0.074428886 0.064596325 -0.026217753
-0.01693621 -0.039692935 -0.029992115 0.058408704 -0.044819042 -0.055686913 -0.022314318 0.024329236
0.052687213 0.04602421 -0.07970573 0.0019800384 0.041169465 0.02405085 -0.045963887 0.03231442
-0.03378624 -0.07754015 -0.033420734 0.037865475 -0.0007265168 -0.0037187904 0.031964935 0.07329463
-0.034996264 0.04882744 0.02585373 0.04289426 -0.05180862 0.06436077 0.076827504 0.029790971
0.045256287 0.22696391 -0.012139876 -0.101343706 -0.056810282 0.05809808 0.01038616 0.1294868
0.01095746 0.066557944 0.019059941 -0.05795701 -0.04616545 -0.06575989 0.07187191 0.07186936
0.053139403 0.047779385 0.026611125 -0.053958792 -0.0036243626 0.000616305 0.061923426 0.09025226
0.09393279 0.012325662 0.0049229376 0.09173831 0.051660083 0.06685056 -0.019476997 -0.004426673
-0.062484544 -0.0066040084 -0.06810328 0.061653353 -0.025616964 -0.02650329 -0.12622564 -0.060649782
0.01658988 0.048470046 -0.0823191 -0.0008513299 0.091928154 0.0020622148 -0.00050233776 -0.005656698
0.018407565 0.045935143 0.026176985 -0.05023307 0.03953727 -0.015839173 -0.0991289 -0.14142306
-0.021703163 -0.033293787 0.09280197 -0.010356408 -0.05465816 0.07480342 -0.048833888 0.079214774
-0.0021235365 -0.006699723 0.024337946 -0.05283835 -0.0254821 -0.15891989 0.054056898 0.089656845
0.073663905 0.03332644 0.08190928 -0.008487907 -0.0010566742 0.0020727972 0.031085407 0.06872155
0.075641856 -0.011737118 0.018512735 0.031089677 -0.009361331 0.05967226 0.062159512 0.0057159117
-0.071821734 0.054281734 0.007564836 -0.026247002 0.046968874 0.05102704 0.023311948 0.06744575
0.066028714 -0.080815926 -0.01393189 -0.043373894 0.059406143 -0.10775923 0.012143087 -0.009104228
-0.077341646 -0.04944445 0.0004939189 -0.07903099 -0.07575795 -0.038513817 -0.090644106 -0.06895759
0.015673049 0.059981924 0.008045253 -0.05470343 0.014611179 0.034918956 -0.054561302 -0.04395423
-0.06593893 0.040848628 0.06856746 -0.020645728 -0.083152555 0.08249998 -0.015666606 -0.06596706

bias f4 [128]
00000000: 95a9 54bd 10f0 093e 9098 a1bd ce72 15bd
00000010: ff82 053d 795f ca3d 2739 ef3d 6248 8fbd
00000020: 0f8b 6b3c d500 643e b51d 353e b9ea 6cbd
00000030: d4d6 b83b d99b 013d fbf7 063e 84c1 86bd
00000040: 986e e1bb 32f3 b8bd ad97 1cbc c0ea 48bd
00000050: 3866 8fbd f5a9 02be f614 27be fdea b7bd
00000060: bf79 553d f9dd 56bc b155 4f3e 6578 89bd
00000070: 6928 ecbd 8e47 09bd 212d 803d 12dd 633e
00000080: 43af 933c fa51 0bbe ef27 203d 404c 383d
00000090: 1b9d c3bd 3574 86bd b132 aabd 73f6 5fbd
000000a0: cda5 44bd 8ade f63d 706e 793d 2595 e1bc
000000b0: 32d6 03bd 7e31 913d fa74 5d3a 66e8 3bbe
000000c0: f5d2 3dbd a3dd 44bd 0bd5 653d 7bbb 353d
000000d0: 0857 e6bd cd42 3bbe d630 1ebe e0cb 333e
000000e0: d4ee 763d 8349 e8bd a937 623d 00df c9bc
000000f0: 985a 853c 9aa3 3a3c 8af2 c53d 0c37 a53d
00000100: 981c 5b3d c7b1 253e a357 033e e6f9 88bd
00000110: b7f0 eabd 52a0 04be e3c6 693e 361c acbd
00000120: b3c7 4fbe e159 273e f6ce 84bd ca53 35be
00000130: aed0 873d 625e ce3c 7cf1 113d 9890 d0bc
00000140: ad03 5bbc 1eb4 89bd 12b6 c6bb 869b acbc
00000150: 819c df3d a448 403e f475 c13b 8cc2 493d
00000160: ad95 4a3b fee2 efbc 284b 70bd 3e2e 65bd
00000170: 322b 45bd 9222 453d 0990 a3bd 3f93 4f3d
00000180: 115b aebd f558 003e 6a61 8e3d aaa3 083e
00000190: 58d6 19be 9b02 be3d 3d82 fcbd 3e2d c5bd
000001a0: 568d c63c e4a2 503e c00b 57be 897c 22be
000001b0: a8f1 79bd 1c26 b43d 8644 69bd 61ec 483e
000001c0: 17c9 1cbe cf5a 9f3a afdf 0b3c eebf c93d
000001d0: 831b 26bd a84a 71bd 2667 243d d983 b83d
000001e0: 935e 96bd 27d9 123e 1081 ae3b e571 14bd
000001f0: 8c2b e93d 5c1a febd c315 02bd 1a7b 9fbd
-0.05191954 0.13470483 -0.07890427 -0.03648644 0.03259563 0.09881491 0.11680823 -0.06996228
0.014376416 0.22265942 0.17687114 -0.057841036 0.005640844 0.03164277 0.13180535 -0.06579879
-0.006879639 -0.09030761 -0.009557647 -0.049052 -0.070019186 -0.12760146 -0.1631659 -0.08980367
0.05211806 -0.013114446 0.20247532 -0.067124166 -0.11531145 -0.033515505 0.06258608 0.222523
0.018027907 -0.1360549 0.039100584 0.044994593 -0.0955145 -0.065651335 -0.0831045 -0.05467839
-0.048009682 0.12054165 0.060896337 -0.027536938 -0.032186694 0.07089518 0.0008447912 -0.18350372
-0.046343762 -0.04806293 0.056111377 0.04436825 -0.11247069 -0.18287201 -0.15448317 0.17558241
0.060286358 -0.11342146 0.055228863 -0.024642467 0.01627855 0.011391545 0.09665401 0.0806714
0.053494066 0.16181098 0.128264 -0.06688289 -0.11471694 -0.12951782 0.22829776 -0.08403818
-0.20291023 0.1634288 -0.06484787 -0.17707744 0.06631599 0.02519149 0.035630688 -0.025459573
-0.013367576 -0.06723808 -0.006064185 -0.021070253 0.109185226 0.1877771 0.0059039537 0.0492578
0.0030911968 -0.029283043 -0.058665425 -0.055952303 -0.048136897 0.048128672 -0.07986457 0.050677534
-0.08513463 0.12533934 0.06952174 0.13343683 -0.15023172 0.09277841 -0.123295285 -0.0962777
0.024237316 0.20374638 -0.21000576 -0.15867819 -0.061021477 0.08796331 -0.056950115 0.19621421
-0.15311085 0.00121578 0.008537217 0.09851061 -0.04055358 -0.05890909 0.040137433 0.09009523
-0.07342257 0.1434065 0.005325444 -0.03624143 0.11385259 -0.124073714 -0.031759035 -0.07787152

weight f4 [128, 128]
00000000: 783d 1f3d 249c a6bd bcae 97bd 832b 2c3d
00000010: 291e 5dbd 1393 7fbd acad a3bd c220 c0bc
00000020: 4a7e 173d e560 053d 08b1 a8bd 403a 94bd
00000030: 0967 903c e056 953c 3d06 773d 11cb 6439
00000040: ce6c a1bd 57e5 b63b 80b0 9d3d 3199 803d
00000050: 247f a83d 9119 8f3d c1ef 7abd c762 993d
00000060: d1f6 d43b 73b2 edbc 3754 81bd d59f a0bd
00000070: 16e8 6e3d 2961 8bbd 2a85 aabd 23c8 de3c
00000080: b17d 1bbd 4919 8bbd 35e1 f13c e43a 95bd
00000090: 6f06 803d 9378 943d 2b40 c2bc 3cc9 103d
000000a0: 66b1 a8bd ee6b 07bd 1f22 543d fa3d 94bb
000000b0: 260f 413d 4998 02bd 587c 15bd d02f 8a3d
000000c0: 1113 2d3d 5804 19bd 6b5a a6bd 289f ed3c
000000d0: 3224 bdbb ff03 79bd 48a3 47bd 56cf 1ebd
000000e0: 702e 3f3d ab7d 613d 90b8 d13c 9d92 483d
000000f0: f344 12bd f89c d8bc cce8 2c3c bd5c 92bd
00000100: e1b0 19bd 6feb 9dbd 711c 3dbd d368 053d
00000110: 4b73 35bd 7c2f 33bd 8217 a8bd 6a63 443d
00000120: ca40 b5bb 9684 3dbd 5642 11bd cfc3 29bd
00000130: 08a9 f23c 4ef7 a8bd 9d19 ef3c cb92 aa3d
00000140: 8473 b2bc 2fba 9d3c 6511 a33c 0bf7 c23c
00000150: 62b3 f4bc 5bc7 623d 2985 94bd 63fc edbc
00000160: 06d4 a8bc ae3b 213c 386e a33d 1181 7dbd
00000170: 579f 87bc 8ab2 88bd 184f 2f3c 14a1 223c
00000180: 4a26 603d 5fba 2cbd c3d7 16bd 9b34 21bd
00000190: 7566 a1bc 5637 9f3c 819b 163d 8317 463d
000001a0: 6342 953d b2de a7bd 4620 a7bd 0213 38bc
000001b0: 9171 423d ae41 27bd ec43 8bbd 8a50 5ebd
000001c0: fe66 81bd 04ee a93d e8ad 933b 0649 883d
000001d0: 6362 a6bd 8cd7 fe3c 3cd9 3ebc 7208 8b3d
000001e0: 2a00 9abc 47b6 8e3d 0c5b f33c 50d5 873d
000001f0: 1dda 9f3d 03bc a2bc 9656 5d3c 25d5 ad3c
00000200: 98b3 0c3d 6a1e dd3c 850d d0bc e45b bb3a
00000210: ac7f 4bbc b8b9 9abc a1f8 993d 7622 85bc
00000220: 722c 44bd b2c8 75bc 1b82 6bbb aead 0e3b
00000230: 4055 9b3d b1ca 563d 8138 62bd 0a96 763d
00000240: 2d4f 00bd 8945 553d fcbd 48bc 0dee 973d
00000250: dfc2 b5bb c756 6a3c 0521 4d3b c4a9 733d
00000260: 2457 c8bc 1350 3e3d 246b 9f3c 4d06 563d
00000270: 3ce2 fc3c d91b dd3c 21de 883a 186b 4ebb
00000280: 6d41 bebd 8264 6cbd 013d 0bbd a9c5 92bc
00000290: 821c 123c ba45 d13c 3e22 973d 8d38 b1bd
000002a0: d57a 8cbd 4a4a 3eba 0bbb 6bbd 623f c8bd
000002b0: 747d 933d 4319 64bd e210 cabc 9fd7 91bd
000002c0: 254a 963d 77f4 dabc 6100 ecbc 84c7 f03c
000002d0: 278c 263d ae46 debc 06de 84bd d579 663d
000002e0: 9800 a8bb 1167 babd 47e1 0b3c ac1d 213d
000002f0: 22ad 3d3d df9e 2cbd 0879 ebbc 500d 2cbc
00000300: 3bc1 8fbd 4701 5e3d 015b 8a3d dee6 fe3c
00000310: 74c5 8cbd 4f70 a7bd 5c7c 7e3d 5976 b53b
00000320: 3a40 80bd fa0e 83bd a41f 88bc 660e 3d3d
00000330: 4d92 5cbd 1700 7c3d 8a6b 6f3b 42d7 a13d
00000340: b6b5 d1bc af28 32bd 3d33 e0bb 81b6 093d
00000350: 6ff0 de3c edc6 613d 93ea 38bd a062 a73d
00000360: 19f4 b83c ea29 d1ba 9c3b 883d d1f4 a5bd
00000370: 2c5d 8d3d 142d 65bb 7725 723d 77d6 893c
00000380: 8bd6 983d b62f a7bc eb50 1a3d 77a1 7f3d
00000390: 8693 a7bc b697 89bc 5c5e edbc 429d 49bd
000003a0: 5001 c2bd 4bb3 62bd 748b 883d b9ea 77bd
000003b0: 3e66 7bbd 1f08 3d3d 1a29 aabd de5f a73c
000003c0: afc7 493b ad0c a23d f493 4cbd 9118 bb3c
000003d0: 8926 563d 2108 57bd 6b87 c03c b85c 59bd
000003e0: 74f3 9b3d fb91 a6bd 6465 a93d 1b4a d83c
000003f0: 07c1 8fbd 48b7 0a3d aa95 71bd e5cf b43c
0.03887698 -0.0813525 -0.07406375 0.042033684 -0.05398384 -0.06239612 -0.0799211 -0.02345312
0.036985673 0.03256311 -0.08236891 -0.07237673 0.017627256 0.018229902 0.060308684 0.00021819423
-0.07882081 0.0055815387 0.0769968 0.06279219 0.08227375 0.06987298 -0.061263803 0.074895434
0.0064991494 -0.029015755 -0.06314891 -0.078429855 0.058326803 -0.06805641 -0.0832618 0.027195042
-0.037961666 -0.06791932 0.029526332 -0.07286623 0.06251227 0.0724956 -0.023712238 0.035348162
-0.08236961 -0.033061914 0.051790353 -0.0045239897 0.047133587 -0.03188351 -0.036495537 0.06747401
0.04225451 -0.03735766 -0.081227146 0.029006556 -0.005772137 -0.060794827 -0.0487397 -0.03877195
0.046675146 0.055051487 0.025600702 0.048967946 -0.035710286 -0.026442036 0.01055355 -0.07146595
-0.0375222 -0.07710921 -0.046169702 0.03257067 -0.044299405 -0.043746457 -0.08207609 0.04794637
-0.005531405 -0.046269022 -0.035463654 -0.041446503 0.029621616 -0.082502946 0.029187018 0.0832878
-0.021783598 0.019253818 0.019905755 0.02379944 -0.029870693 0.0553659 -0.07251961 -0.029051011
-0.020608913 0.009840889 0.07980007 -0.061890665 -0.016555471 -0.066746786 0.01070001 0.009926099
0.054724015 -0.042169925 -0.03682686 -0.03935681 -0.019702176 0.019435566 0.036769394 0.048362266
0.07288053 -0.08196773 -0.081604525 -0.011235001 0.047471587 -0.04083412 -0.068000644 -0.054276027
-0.06318472 0.08297351 0.004506815 0.06654553 -0.081242345 0.03110864 -0.011648472 0.0678872
-0.018798906 0.069683604 0.0297065 0.06632483 0.07805274 -0.019865042 0.013509413 0.0212198
0.03435096 0.026992042 -0.025397072 0.0014294353 -0.012420576 -0.018887386 0.07518125 -0.016251784
-0.04789395 -0.015001463 -0.0035935703 0.0021771002 0.075846195 0.052439395 -0.055229668 0.060201682
-0.031325508 0.052068267 -0.012252327 0.074184515 -0.005546912 0.014302916 0.0031300199 0.059488073
-0.024455614 0.046463083 0.019460268 0.052252103 0.030869596 0.026990818 0.0010442176 -0.0031496938
-0.09289823 -0.05771304 -0.033993725 -0.017916517 0.00891793 0.025545944 0.07379578 -0.08653364
-0.06859366 -0.0007258995 -0.057551425 -0.09777714 0.07201663 -0.055688154 -0.024666253 -0.071212046
0.07338361 -0.026727898 -0.028808774 0.029392011 0.040661003 -0.027133312 -0.0648766 0.05626853
-0.005127024 -0.091016896 0.008537597 0.039334938 0.04630769 -0.0421437 -0.028744236 -0.010501221
-0.07019278 0.054200437 0.06755639 0.031115945 -0.06873599 -0.08175718 0.062130317 0.00553779
-0.0626225 -0.06399341 -0.01661665 0.04615631 -0.05385046 0.061523523 0.0036532604 0.07902385
-0.025599342 -0.04349583 -0.0068420456 0.033621315 0.027214257 0.05512135 -0.045145582 0.08173108
0.022577332 -0.0015957926 0.066519946 -0.08103336 0.06902537 -0.0034969496 0.05911776 0.016825898
0.07462796 -0.020408493 0.037674826 0.062409844 -0.020456087 -0.016795974 -0.028975658 -0.04922224
-0.094729066 -0.05534677 0.066672236 -0.060526583 -0.061376803 0.046150323 -0.08308621 0.020431455
0.0030789187 0.07912574 -0.049945787 0.022838863 0.052282844 -0.052497987 0.023502072 -0.05306694
0.076147944 -0.08133312 0.08271292 0.026402524 -0.07019239 0.033866197 -0.05898062 0.022071788

bias f4 [128]
00000000: e1f4 a4bc 4f23 b33c 3de5 953d fdab 9ebd
00000010: a99a 653d 4a01 9d3d e8b6 c5bd 8481 873d
00000020: 912e 673d cec3 5dbd f9c0 0fbd 4fb9 9abd
00000030: 025c 4f3d 8c23 2c3d 7eaf 55bd ad62 d43d
00000040: 2fde 9c3d 61ba 90bc b452 e7bb 5211 eabd
00000050: 0ed8 cb3d 0511 243d f1d0 7fbd 784f f7bc
00000060: c3bc 303e ce04 973d e359 4e3d a5e7 e2bd
00000070: 571c acbd 214d 33bc 2386 40bd 8eab c9bb
00000080: 1309 4b3e dbfd 4f3d 7177 2abc 5234 043d
00000090: 1344 1c3e 4e4f 0bbe 4f63 e83d 35a5 8dbd
000000a0: 82db 16be 9b78 dabc 4d59 fabc 3549 8ebd
000000b0: 030d 973d a480 8d3d 7ca6 033d 44a4 093d
000000c0: a5af 8cbd b66d 95bd 3bbd 0a3b 2249 ff3c
000000d0: ce2a 9dbd cf68 5b3d 467d 5d3d bffe 863d
000000e0: 40f2 863e 4bc6 a3bd 6e3a 143c 170f 503a
000000f0: 4730 d1bd 714a 82bd a2e3 b3bd 5b69 af3c
00000100: 4c1b 3b3e 3e8e 74bc 6c9d 0abb cbd3 5b3d
00000110: bf8a 533d 33d6 483d 6952 d8bb f786 ae3d
00000120: c357 82bd f7da 0fbc 629f 823a fa8d 0d3e
00000130: 22ef babb 2b30 3abe 3aab 29bd 002a e2bc
00000140: c801 393d de6a 283d bcc2 953b 5691 a0bd
00000150: b58d 683c 0e63 9c3c b070 0fbc 3148 3b3c
00000160: a312 883d 2d2a b3bd d46d 0d3e e7a3 373e
00000170: 062a a13d 0b49 d23d 2509 9c3d 72f1 e5bc
00000180: 2a1c 653e ca86 1a3e ea87 ddbd c326 0e3d
00000190: d05a 5ebd 2491 213c 0b93 19bd 96c3 8cbc
000001a0: 1ed8 86bd 4e05 7abd 978c d63c a6a3 2fbd
000001b0: e84b 7dbd a59e 8c3d 6e2f 123c 4dda 81bd
000001c0: 6a85 713e 96a0 07bd 1c4f 273d a858 193d
000001d0: 5b2b 3e3e 89e9 933b 4903 9c3d 9e48 7a3d
000001e0: 98e9 4f3d 40ed ddbd efa5 0c3e 1a07 7d3d
000001f0: 5526 a93d 2037 8a3d 4dab cabd 3758 eebd
-0.020136299 0.021867422 0.07319114 -0.07747648 0.0560557 0.076662615 -0.09654027 0.066165
0.056440894 -0.054141812 -0.035096142 -0.07554876 0.050624855 0.042026088 -0.052169316 0.103703834
0.07659566 -0.017666997 -0.0070594195 -0.11429085 0.099533185 0.040055294 -0.06245512 -0.03018926
0.17259507 0.07373963 0.05037869 -0.11079339 -0.08403843 -0.010943682 -0.047002923 -0.006154484
0.1982768 0.050779205 -0.010404454 0.03227646 0.15260343 -0.13604471 0.113470666 -0.06916276
-0.14732173 -0.026668837 -0.03056016 -0.06947557 0.07375529 0.06909302 0.032141194 0.03360392
-0.06869439 -0.07296316 0.002116992 0.031162802 -0.0767418 0.05356675 0.05407455 0.06591558
0.26356697 -0.07996806 0.009047134 0.0007936819 -0.10214286 -0.06361855 -0.08783652 0.021412542
0.18272132 -0.014926491 -0.002115096 0.05366878 0.05164599 0.0490324 -0.006601621 0.08521836
-0.063643955 -0.008780233 0.0009965713 0.13823691 -0.0057047764 -0.18182437 -0.04142306 -0.027607918
0.045167714 0.04111754 0.0045703333 -0.07840221 0.014193942 0.019090202 -0.008754894 0.011430786
0.0664418 -0.08748279 0.13811427 0.17933618 0.078693435 0.10267838 0.07618932 -0.028069232
0.22374025 0.1509048 -0.10816939 0.034704935 -0.054285824 0.009861264 -0.037493747 -0.017183106
-0.0658419 -0.061040215 0.026190085 -0.042880677 -0.061839968 0.068661965 0.008922441 -0.06340466
0.2358605 -0.03311213 0.04084693 0.037438065 0.18571226 0.0045139235 0.07617814 0.06110441
0.05075988 -0.108362675 0.13735174 0.06177435 0.082592644 0.067487955 -0.09895954 -0.116379194

weight f4 [24, 128]
00000000: 380f 903d 1b28 1d3c ca51 043d 3f5a 953d
00000010: a10a 9dbd 3bcc 11be a3ab 03be 581e 5f3d
00000020: 7361 853d b4d6 9cbd 56ac c7be 95a2 47bc
00000030: 5b1c 613d cc15 a23d 7e6f 99bd 68b9 9ebd
00000040: 13a3 3ebd 26fb a13c 10a8 e4bd 89ee 98be
00000050: a54e 613c aaf9 d6bc dacc cdbd 0788 86bd
00000060: 816c 73bc 6da7 91bb d482 83b7 4d64 453c
00000070: 61a1 e0bd 7ab3 86bd 74aa 98bd 4073 763c
00000080: 0ada bebe a74b 0ebd 4cf8 0e3d 5dda 40bd
00000090: 2a15 bc3c 5b73 1dbd 9c33 cdbd 5174 56bd
000000a0: 84d8 9abd d524 6bbe fa3f f8bc c3a7 3d3c
000000b0: d939 2fbc 587c abbc f0eb c3bd ad12 05bd
000000c0: 7b31 c93c b043 dcbc 6476 acbd 2c19 7b3d
000000d0: a105 85bd e30b f03b d495 11bd 3f15 973d
000000e0: 27b2 d9bc b635 9e3d f973 023d 3720 5bbd
000000f0: ec09 b2bd e3cc febd fd61 123d 953f 20bf
00000100: 5aff ac3b 311c f4bd 7324 45bd 4aba da3c
00000110: cd7d 9e3c ea1f 80bd 45df 203d 4c48 c8bc
00000120: 7ad2 31bd 8c9c a33b 2e35 793d 24d9 a33c
00000130: 5212 89bc adc1 9ebb d571 923d be0d c2bc
00000140: 80ee b8ba 7439 1d3b 2f24 0cbd 2982 7f3c
00000150: ea58 4dbd 18a7 61bd 5b03 1ebe 9662 a437
00000160: 7c12 093d 80ae 2f3d c555 d6bd 2b54 3fbe
00000170: 5846 bfbd 03be e7bc 7d12 8cbd 54c0 a6bd
00000180: 46d2 d73c 4d21 7b3c 0ae2 06be d2a2 773d
00000190: ea61 30bd 654b 293d 1eca bebd ec90 b0bd
000001a0: 7be6 643d d597 b03d d552 233d 60a9 973b
000001b0: c628 12bd 4330 81bd 154e bebb 0245 4b3d
000001c0: a16b d83c cfae 66bd a7b9 bbbd 058e e3bd
000001d0: 1af4 a03c f4c2 bcbd f822 0dbd 0593 5a3c
000001e0: b470 bfbc fa1f 87bd 208b 46bd 53af f0bc
000001f0: 0985 bbbd aa5d 9b3d f129 87bd 9b2c 57bf
00000200: fed1 b43d efee 943c 4e9c 53bc 9ee9 64bd
00000210: 0fc1 19bd eda6 09be e21f b5bc aba1 a3bd
00000220: de58 f33c 683f 833a 6f32 5d3d 240d 753c
00000230: 1002 913d 01b7 863d 3406 913d 2995 44bc
00000240: e19d 26bc ee7c 0a39 5ab4 94bd a538 b43d
00000250: 36c5 cfbd fd6f c9bd c7a0 2c3d 6bef bcbc
00000260: eed1 57be c5a4 863d f911 803d 9c82 063e
00000270: 7a4f 923d 6559 613d 7497 34bd 8d93 a03c
00000280: 209a aebf e81b 31bd 87bd 923d 4db8 a53d
00000290: 3596 b8bc a4bb 143e 955c 91bd 0528 0e3c
000002a0: 4edb d53d c387 c6bd 9461 1d3d 7438 7b3d
000002b0: 9916 31bd ec6f 8cbb 148a a13d a3c1 ca3c
000002c0: a7fc 893d 0aa9 7dbd 2e0c 87bd a93b 5e3a
000002d0: 9516 483d 301f d13c 1eca 643b 2ef5 e9bb
000002e0: 4cf7 f3be 9a29 e3bd 8cd3 80bd cf0c b3bc
000002f0: 1869 ecbc fa1e 063e 03ac a73d 65ff 623c
00000300: 65fc 52bd 7d7e e03d 3db7 863d 14b8 833c
00000310: 085a 9fbd edfb e9bd 8b8f 0fbd d354 443d
00000320: 6ada aebd 9dab 66bc 469f d73b 232f 7c3d
00000330: 91c9 87bc 7e94 d03d 24dc 69bd f704 a83c
00000340: c3df 533c e8f3 18bd ed81 bcbd 6993 943d
00000350: c875 673d 557a ef3b 6f27 32bc e63e 2c3d
00000360: 60cf 43bc 55e6 2e3d 5d80 84bf c7e7 33bf
00000370: 781d 0fbe f168 22be f7ac dcbc 5e90 613d
00000380: bed4 56be 8da4 1bbe dd76 88bc ecf8 a5bc
00000390: 24b6 09bd 62e4 e83c ef10 86bc 0cb9 223d
000003a0: 9eef 993d 8e29 65bc 329b 9dba 0de1 2c3d
000003b0: 63ad 85bd d387 e3bd 84f3 d73c c2ad d0bd
000003c0: b092 56be daef 19bd 3ae4 553d 8a7b e9bd
000003d0: 1ed6 a5bd cffa eb3a 49e0 66bd 0366 babd
000003e0: b45a cfbd b2b0 b93c 3d1f 2fbe 43b4 00bd
000003f0: 6d47 9dbc 0d82 223d f381 4bbd 3269 ea3d
0.07034153 0.009592081 0.032304563 0.07292604 -0.07668043 -0.14238064 -0.12858443 0.054472297
0.065127276 -0.07658139 -0.3899867 -0.012184759 0.054958683 0.07914314 -0.074919686 -0.07750207
-0.04654224 0.019773077 -0.11164868 -0.29869488 0.0137516605 -0.026242096 -0.10048838 -0.06568914
-0.014857412 -0.0044450075 -1.5677339e-05 0.012047839 -0.109682806 -0.06577201 -0.07454386 0.015042126
-0.37275726 -0.034740116 0.034904763 -0.047083247 0.02295931 -0.03844009 -0.10019609 -0.05235702
-0.07560828 -0.22963269 -0.030303944 0.011575642 -0.010694944 -0.020933315 -0.09566486 -0.032488514
0.024559727 -0.026887745 -0.08421019 0.061303303 -0.06495214 0.0073256358 -0.035543278 0.07377099
-0.026574207 0.07725088 0.03184888 -0.05349752 -0.08693299 -0.12441423 0.03573798 -0.6259702
0.0052794637 -0.119194396 -0.048130464 0.026700158 0.019347096 -0.06256087 0.039275426 -0.024448536
-0.043413617 0.004993027 0.06084173 0.020001002 -0.016732369 -0.0048448653 0.07150618 -0.023688193
-0.0014109164 0.0023990544 -0.034214195 0.015594997 -0.050133623 -0.055090994 -0.15430968 1.9596231e-05
0.033464894 0.042891026 -0.10465578 -0.18684451 -0.09339589 -0.028288847 -0.06839464 -0.081421524
0.026345383 0.015327764 -0.13172165 0.060458012 -0.043062128 0.041331667 -0.093158945 -0.08621392
0.055883866 0.0862271 0.039873917 0.0046283454 -0.035683416 -0.06308033 -0.005807648 0.049626358
0.026418509 -0.056319054 -0.0916627 -0.111110725 0.019647647 -0.09216872 -0.034457177 0.013340716
-0.02336917 -0.06597896 -0.048472524 -0.029380476 -0.09156234 0.075862244 -0.065997966 -0.8405244
0.08829115 0.018180339 -0.012915684 -0.055886857 -0.03753763 -0.13442583 -0.02210993 -0.0798982
0.029705461 0.0010013403 0.054003175 0.014956746 0.070804715 0.06577874 0.07081261 -0.011998453
-0.010169477 0.00013207246 -0.07260962 0.087998666 -0.10145037 -0.09835813 0.042145517 -0.023063382
-0.21076176 0.06574396 0.06253428 0.13135761 0.07144065 0.055016894 -0.04408975 0.019601608
-1.3640785 -0.043239504 0.07165056 0.08091793 -0.022532562 0.14524704 -0.07097737 0.008676534
0.1044222 -0.09693863 0.038423136 0.061333135 -0.04323444 -0.004285803 0.078876644 0.024750536
0.06737643 -0.061928786 -0.0659412 0.0008477518 0.04884966 0.025527567 0.003491051 -0.0071398234
-0.4764961 -0.11091919 -0.06290349 -0.021856694 -0.028858706 0.13097754 0.081871055 0.013854836
-0.051510233 0.10961626 0.06577919 0.016078986 -0.07780844 -0.11425004 -0.035049003 0.047932457
-0.08537753 -0.014079002 0.006580266 0.06156839 -0.016575607 0.10184573 -0.057094708 0.02051018
0.012931767 -0.037341982 -0.09204469 0.07254679 0.05650881 0.0073082843 -0.0108736595 0.042052172
-0.0119512975 0.04270013 -1.0351673 -0.7027554 -0.13976085 -0.15860344 -0.026937945 0.05506932
-0.20979592 -0.1519949 -0.01665824 -0.020260297 -0.03362097 0.028429214 -0.016365496 0.039727256
0.075164065 -0.013986958 -0.0012024401 0.042206813 -0.065272115 -0.11109891 0.026361234 -0.10189392
-0.20954394 -0.037582256 0.052219607 -0.11400516 -0.0809748 0.0018003824 -0.05636624 -0.091014884
-0.10124722 0.022667263 -0.1710176 -0.03142191 -0.019199098 0.039674807 -0.049684476 0.11445846

bias f4 [24]
00000000: 4cb1 30bd 3933 91bd 213f 4ebe 45ab 713c
00000010: d09c fd3d 4450 dbbc f3a5 fbbd 80b6 4abd
00000020: a693 cfbd ea78 0abd 73f3 acbd fd6b a93c
00000030: b2ad adbc e712 55bc 29fd 223d 6042 ddbb
00000040: 7f8d 523c 18f8 043b ebd1 2d3d 5ffd a63d
00000050: a0a1 623c 5a0e 913c e9fc 1a3d 7ea9 863d
-0.043137833 -0.07089848 -0.2014127 0.0147503065 0.12383425 -0.026771672 -0.12287512 -0.04949045
-0.101355836 -0.03380672 -0.08444872 0.020681376 -0.021200988 -0.013004995 0.039792214 -0.0067522973
0.012851118 0.0020289477 0.04243652 0.081537955 0.01383248 0.017707039 0.03783885 0.06575297
