IO_DynaPlex/DeepControlledLearning/PolicyWeights/perishable_systems_m3_l2_cvr2.000000_f0.000000/cl_gen.pth (torch, 291910 bytes, 10 tensors)

weight f4 [256, 4]
0	0xbda27694	-0.07932773
1	0xbf0d1885	-0.5511554
2	0x3e244780	0.160429
3	0x3da7619b	0.08172914
4	0x3eaf8450	0.34280634
5	0x3e0c0d8f	0.13677047
6	0x3de6b90e	0.11265765
7	0xbe51c109	-0.20483793
8	0xbefd0939	-0.494211
9	0x3ecbc39b	0.39797673
10	0x3ebc7b97	0.36813042
11	0x3dba8251	0.09106887
12	0xbed477b0	-0.41497564
13	0xbe217123	-0.15765814
14	0x3ebb7896	0.36615437
15	0xbde6954e	-0.11258946
16	0x3eed3c1b	0.4633492
17	0xbe1097a9	-0.14120354
18	0xbeb450e7	-0.35217974
19	0xbd9f12b3	-0.077672385
20	0xbe42a864	-0.19009548
21	0x3eff02c9	0.49806812
22	0xbd6553d6	-0.055988155
23	0xbed266ed	-0.4109415
24	0xbc812a04	-0.015767105
25	0x3e690616	0.22756228
26	0x3ee9bb35	0.4565064
27	0x3dc657a4	0.09684685
28	0xbe721e84	-0.23644453
29	0xbe57dcb6	-0.21080288
30	0xbe386994	-0.18009025
31	0x3f00b924	0.502825
32	0x3e485258	0.19562662
33	0x3ee39de9	0.44456413
34	0x3e85e9aa	0.26154834
35	0x3e01a473	0.12660389
36	0xbe3511f8	-0.17682636
37	0x3e5fb074	0.21844655
38	0xbdb1ee42	-0.08688022
39	0xbeed6b0b	-0.4637073
40	0xbef070cc	-0.46961057
41	0xbe592f54	-0.2120946
42	0xbdfa2728	-0.122145
43	0xbd3f3700	-0.04668331
44	0x3e5ac3ee	0.21363804
45	0x3d0c88b4	0.034310058
46	0xbd6e1530	-0.058125675
47	0xbe558365	-0.20850904
48	0x3de4fdf3	0.111812495
49	0xbd943fcc	-0.07238731
50	0xbb965253	-0.0045874505
51	0xbbed8fda	-0.0072498145
52	0xbdf62eb8	-0.1202063
53	0xbd9b39a8	-0.075793564
54	0xbe10baf4	-0.14133817
55	0xbe03794c	-0.1283924
56	0x3e8b8113	0.27246913
57	0xbed0ba4d	-0.40767136
58	0x3dc5703a	0.09640546
59	0x3e3b74fd	0.18306346
60	0x3e999d00	0.30002594
61	0x3ebb4581	0.36576465
62	0xbd2689a5	-0.04065861
63	0xbec496ec	-0.38396394
64	0x3edfd0ea	0.43714076
65	0x3ebf628a	0.37379867
66	0x3e3c40c5	0.18384083
67	0x3d8c2503	0.06842997
68	0x3d035446	0.03206279
69	0xbe53cda9	-0.20683922
70	0x3d8a6ddb	0.067592345
71	0x3e2caa90	0.1686194
72	0xbe9ebf22	-0.31005198
73	0xbe6a1620	-0.22860003
74	0xbbdd20f2	-0.006748312
75	0x3ed1b585	0.409588
76	0x3e23233e	0.15931413
77	0xbb51b476	-0.0031998432
78	0x3d56272a	0.052283444
79	0x3e4ec89f	0.20193718
80	0xbec1f076	-0.3787877
81	0x3e85a963	0.26105794
82	0xbd000c9f	-0.031262036
83	0x3eb33faa	0.3500951
84	0xbe9a68c7	-0.30158064
85	0xbf14b6c4	-0.5809138
86	0xbe56657e	-0.20937154
87	0x3ece0d2b	0.4024442
88	0xbef6e712	-0.48223168
89	0xbe7223b8	-0.23646438
90	0xbee6c9ee	-0.45075935
91	0xbdd56598	-0.10419768
92	0xbe46d9cd	-0.19419022
93	0xbd3599d8	-0.04433617
94	0x3d6b218f	0.05740505
95	0x3e1d20f3	0.153446
96	0xbe5ace5e	-0.21367785
97	0x3ea4a917	0.32160255
98	0x3ee5f4d2	0.44913346
99	0xbee2baa2	-0.44283015
100	0x3ea54bd0	0.32284403
101	0x3e750d08	0.23930752
102	0x3dbb6048	0.091492236
103	0x3e13c0b5	0.1442898
104	0x3c877d58	0.01653926
105	0xbe3ab036	-0.18231282
106	0xb9ab764a	-0.00032703794
107	0x3e5b0c29	0.21391357
108	0x3c470102	0.012146236
109	0x3e879e5e	0.26488012
110	0x3e3a7157	0.18207298
111	0x3ec69bd2	0.38790756
112	0x3e16716f	0.14691709
113	0x3da977a2	0.08274771
114	0x3db07b07	0.086172156
115	0xbd6e1236	-0.058122836
116	0x3ec6aa07	0.38801596
117	0xbe6ac0c8	-0.22925103
118	0xbe698103	-0.2280312
119	0x3e2dc273	0.16968708
120	0xbe8e4041	-0.27783397
121	0xbe802af8	-0.25032783
122	0xbbac4e9e	-0.0052583953
123	0x3e7479aa	0.23874536
124	0xbe60a14c	-0.2193653
125	0xbe684834	-0.22683793
126	0xbd5475a6	-0.05187001
127	0x3e1b749f	0.15181206
128	0xbdc5396e	-0.096300945
129	0x3e907755	0.28216043
130	0xbcee25a0	-0.029070675
131	0x3e2e61e9	0.17029537
132	0xbe16437a	-0.14674178
133	0xbef5aef7	-0.4798505
134	0xbd2e59e9	-0.042566214
135	0x3e570dfb	0.21001427
136	0xbd4bff89	-0.049804244
137	0xbde921be	-0.11383389
138	0x3e6a7a1a	0.2289814
139	0xbd43cb07	-0.047801044
140	0x3ee4569e	0.44597334
141	0x3ede958c	0.4347347
142	0xbe945c92	-0.28976876
143	0xbed77703	-0.42082986
144	0x3ef4a851	0.47784665
145	0xbe96465b	-0.29350552
146	0xbeb9d749	-0.36297062
147	0xbe3e59c5	-0.18588932
148	0xbdc55626	-0.09635572
149	0x3e1f514f	0.1555836
150	0xbe5056ba	-0.20345584
151	0x3eeeed82	0.4666558
152	0x3df1afe6	0.11801128
153	0xbe6eff66	-0.23339614
154	0xbe3af04e	-0.18255731
155	0x3efb2d6c	0.49058092
156	0xbe715bdf	-0.23570202
157	0x3dd001a8	0.10156566
158	0x3e8f7dc5	0.28025642
159	0x3df69b58	0.12041348
160	0xbc1f6fe9	-0.009731271
161	0xbe7e0af3	-0.24808864
162	0x3ea57a67	0.32319948
163	0x3ee420b6	0.44556206
164	0xbe9709fb	-0.29499802
165	0x3e8d2ad0	0.27571726
166	0xbe679cf5	-0.22618468
167	0x3ee67cc2	0.45017058
168	0xbea9b9f7	-0.33149692
169	0x3e03f943	0.12888055
170	0xbd1f3dfc	-0.038877472
171	0x3e98b19a	0.29823
172	0x3eb0f74b	0.3456367
173	0xbf1585ce	-0.58407295
174	0xbedc25f6	-0.42997712
175	0xbed9facb	-0.42574152
176	0x3ef4477a	0.47710782
177	0xbed94762	-0.42437273
178	0x3ef591df	0.47962853
179	0xbe4734f0	-0.19453788
180	0xbdaff887	-0.08592325
181	0x3e4ce197	0.2000793
182	0x3ecf44d6	0.40482205
183	0xbeaf7806	-0.34271258
184	0x3eb36e9f	0.35045335
185	0xbcb0adf5	-0.021567324
186	0x3e3fa6d2	0.1871598
187	0x3d87b926	0.06627111
188	0x3e600e11	0.21880366
189	0xbe7998ba	-0.24374667
190	0xbf071fc9	-0.52782875
191	0x3da81409	0.082069464
192	0x3da9910b	0.08279618
193	0x3e270cd9	0.16313495
194	0xbebfc5a4	-0.37455475
195	0xbdf24738	-0.1182999
196	0xbec53e32	-0.38524014
197	0xbec49b7e	-0.3839988
198	0xbdb16118	-0.08661097
199	0xbe8f51f6	-0.2799222
200	0xbe8accc9	-0.27109364
201	0x3e4ae489	0.19813742
202	0x3e04e18a	0.12976661
203	0x3e8ffab9	0.28120974
204	0x3e479bd4	0.19493037
205	0xbeaa1770	-0.33221006
206	0xbdfa1980	-0.12211895
207	0xbdbf0d59	-0.09328718
208	0x3e895a83	0.26826867
209	0xbe8d83ee	-0.27639717
210	0xbdb2f154	-0.08737436
211	0x3dc9abbc	0.09847209
212	0x3da81e55	0.082089104
213	0x3e7c47ff	0.2463684
214	0x3e16970c	0.14706057
215	0xbd307007	-0.043075588
216	0x3c7c0f96	0.015384575
217	0x3e02b7a0	0.1276536
218	0x3dd5730d	0.10422335
219	0x3daae6a1	0.0834477
220	0x3e906b05	0.2820665
221	0xbf06e50c	-0.5269325
222	0x3e78cfcd	0.2429802
223	0x3e50c838	0.20388877
224	0xbec97760	-0.39348888
225	0xbda0c6c7	-0.07850414
226	0x3d81e2ff	0.06342124
227	0xbeb26b6f	-0.3484759
228	0xbeee2931	-0.46515802
229	0xbd051e32	-0.0324995
230	0x3e3ad6fc	0.18246073
231	0x3d20cf58	0.03926024
232	0xbd82128d	-0.063511945
233	0x3d69298d	0.05692439
234	0xbef7cfed	-0.48400822
235	0xbd93cd37	-0.07216876
236	0xbe8c388c	-0.27386892
237	0x3db07a33	0.08617058
238	0xbf1f81e6	-0.62307584
239	0xbda1500a	-0.07876594
240	0xbe595e5c	-0.21227401
241	0x3eb0cb67	0.34530184
242	0x3d6245e6	0.05524244
243	0x3d8ac834	0.06776467
244	0xbea3f44b	-0.32022318
245	0xbed38bed	-0.41317692
246	0x3e9f3cc8	0.3110106
247	0x3e9a3029	0.30114868
248	0x3ee4b824	0.44671738
249	0x3e626c84	0.22111708
250	0x3ce823b4	0.028337337
251	0x3e06d53d	0.13167281
252	0xbed9a420	-0.4250803
253	0x3eb37d43	0.35056505
254	0xbdf7ec3f	-0.12105607
255	0x3ec2fb59	0.38082388

bias f4 [256]
0	0x3ef1a541	0.4719639
1	0xbedc6c28	-0.43051267
2	0xbeb44d50	-0.35215235
3	0x3ed50f3d	0.41613188
4	0x3ed1300b	0.40856966
5	0x3ea7399e	0.32661146
6	0x3eda6f4c	0.42663038
7	0xbed63a7e	-0.418415
8	0xbf2a0d5a	-0.6642662
9	0x3eb916b6	0.3615014
10	0xbeee01de	-0.464858
11	0x3f0746ac	0.5284221
12	0x3e394ad2	0.18094948
13	0xbe519dac	-0.20470303
14	0x3f0902d4	0.5351994
15	0x3e155bb2	0.1458576
16	0x3e8fb0de	0.28064626
17	0xbed7fba8	-0.42184186
18	0xbe747dc4	-0.23876101
19	0xbe098d58	-0.13432825
20	0x3eff5421	0.49868873
21	0xbee4233a	-0.44558126
22	0x3e961b0d	0.29317513
23	0x3d7056be	0.058676474
24	0x3e6908b5	0.22757228
25	0x3ed269a1	0.41096213
26	0xbe8a1d2d	-0.26975384
27	0x3e291974	0.16513616
28	0xbe3bef43	-0.1835299
29	0xbea34861	-0.31891158
30	0x3e6a2463	0.22865443
31	0x3f1dd5ae	0.61654174
32	0x3ea31d75	0.3185841
33	0x3ef97e99	0.487294
34	0x3f1488b1	0.58021075
35	0x3e013b6a	0.12620321
36	0x3f1d312a	0.61403143
37	0xbecde5d2	-0.402144
38	0xbe3675a1	-0.1781831
39	0xbe17e5b5	-0.1483372
40	0xbe4d9b4b	-0.20078771
41	0x3f15df55	0.585439
42	0x3eeb10de	0.45911306
43	0x3e9c029d	0.30470744
44	0xbeeb1ee4	-0.45922005
45	0xbef78286	-0.4834177
46	0xbe665e79	-0.22496976
47	0x3da02f42	0.07821514
48	0xbd9c7b03	-0.0764065
49	0xbeda6130	-0.42652273
50	0xbf198c48	-0.5997968
51	0x3dae0754	0.084974915
52	0x3ea5f30a	0.32411987
53	0xbf06e867	-0.5269837
54	0x3f1476a9	0.5799356
55	0x3e6af007	0.22943126
56	0x3e0a59c2	0.13510802
57	0xbe211abd	-0.15732856
58	0x3eda123c	0.42592037
59	0x3ef12dd7	0.47105286
60	0x3ded620a	0.11590965
61	0x3edb956d	0.4288744
62	0xbeadd640	-0.33952522
63	0x3ec6b554	0.38810217
64	0xbe7f13e9	-0.24909939
65	0xbeda1f56	-0.42602032
66	0xbd9a33c2	-0.07529403
67	0x3f228895	0.6348966
68	0x3f14c610	0.5811472
69	0xbea23835	-0.31683508
70	0xbf1bd109	-0.6086584
71	0xbcdd8b87	-0.02704407
72	0xbdbbf77d	-0.09178064
73	0xbe9028bb	-0.28156075
74	0xbeb21e75	-0.34788862
75	0x3f09a08a	0.5376059
76	0x3f1b9de0	0.60787773
77	0x3eaf4233	0.34230193
78	0x3ebdfe34	0.37108004
79	0xbdf50923	-0.11964633
80	0xbcaa509d	-0.020790393
81	0xbe8ccd9f	-0.27500626
82	0xbe3f7851	-0.18698241
83	0xbe81947b	-0.25308594
84	0x3f123cfb	0.571243
85	0x3ee703e7	0.45120165
86	0xbe0bbaac	-0.13645428
87	0x3dad085f	0.08448862
88	0x3def3dd7	0.11681717
89	0xbd86f136	-0.06588976
90	0xbea3729e	-0.31923383
91	0xbde958e0	-0.11393905
92	0xbf0b9e65	-0.54538566
93	0xbef9e137	-0.48804638
94	0xbe9712a5	-0.29506412
95	0xbedd74fe	-0.4325332
96	0x3f291fee	0.66064346
97	0xbf184885	-0.59485656
98	0x3dae27c4	0.085036784
99	0xbeb0b34e	-0.345118
100	0x3f0459c4	0.5169947
101	0xbe952ad2	-0.29134232
102	0xbef3bd9b	-0.47605595
103	0xbee6f20c	-0.45106542
104	0xbee4bb20	-0.44674015
105	0x3ecf4f2e	0.40490097
106	0x3deacd9b	0.114649974
107	0xbf168eb5	-0.58811504
108	0x3f22e415	0.63629276
109	0xbefec2b8	-0.49757934
110	0x3f0516c7	0.5198788
111	0x3eed55c0	0.46354485
112	0xbeb0a7f1	-0.3450313
113	0xbc51c580	-0.012803435
114	0x3e99402e	0.29931778
115	0xbea60a50	-0.32429743
116	0xbeea90a8	-0.4581349
117	0xbe6d58cb	-0.23178403
118	0x3d9ef44b	0.07761439
119	0x3ebae6e9	0.36504295
120	0x3ed0efde	0.40808004
121	0xbd0395b9	-0.03212521
122	0xbee96845	-0.45587364
123	0xbe4d4512	-0.2004588
124	0x3efbd1cd	0.49183503
125	0x3c4478a0	0.01199165
126	0xbe8de568	-0.27714086
127	0x3f18bcb7	0.59662956
128	0x3ebbca54	0.36677802
129	0xbedcadcd	-0.4310135
130	0x3ed16f9c	0.40905464
131	0xbea28d26	-0.31748313
132	0x3ef10c8c	0.47079885
133	0x3f15e55b	0.58553094
134	0xbe9ce2c4	-0.30641758
135	0x3ebbc52d	0.3667387
136	0x3e2a135e	0.1660895
137	0x3ea6a4e4	0.32547677
138	0x3e1e9985	0.1548825
139	0xbec08264	-0.3759948
140	0x3db1764a	0.0866514
141	0x3b6ca84b	0.0036111053
142	0xbe2021cf	-0.15637897
143	0xbecb50bc	-0.39710033
144	0x3f08c656	0.53427637
145	0xbe46524b	-0.1936733
146	0x3eebb847	0.4603903
147	0xbec2f74e	-0.38079304
148	0x3f182492	0.594308
149	0x3ec46b93	0.38363323
150	0x3f27f6e5	0.65611106
151	0x3eac4430	0.33645773
152	0xbe25c0eb	-0.16186874
153	0x3dfc1682	0.123089805
154	0x3eae18d0	0.34003305
155	0x3f294aae	0.6612958
156	0xbe6b3579	-0.22969617
157	0xbe84231d	-0.2580804
158	0xbeb0a06c	-0.34497392
159	0xbf150844	-0.5821574
160	0x3ed9de1d	0.4255227
161	0x3dda8734	0.10670319
162	0x3edea0fd	0.434822
163	0x3f2c64c6	0.6734127
164	0xbeae9fb8	-0.3410623
165	0x3ea76705	0.32695785
166	0x3f271802	0.6527101
167	0xbe4801a4	-0.19531876
168	0x3ed2fa7c	0.4120673
169	0xbe911983	-0.28339776
170	0xbe8b2bda	-0.27181894
171	0x3f12029f	0.5703525
172	0xbe99706b	-0.2996858
173	0xbd1eaa3f	-0.038736578
174	0xbecf6856	-0.4050929
175	0xbe8c743a	-0.27432424
176	0xbef7a01e	-0.48364347
177	0xbe868703	-0.2627488
178	0xbd293dbf	-0.04131865
179	0xbcc59314	-0.024117984
180	0xbeb755a5	-0.3580753
181	0x3eaa1182	0.33216482
182	0xbee7db33	-0.45284423
183	0xbece5287	-0.40297338
184	0x3c698182	0.0142520685
185	0xbd63dc96	-0.05563029
186	0x3b846354	0.004040161
187	0xbeb3a75b	-0.3508862
188	0x3ed5a679	0.4172857
189	0x3e8d028e	0.27541012
190	0xbe5e9c2b	-0.21739261
191	0xbe9115aa	-0.2833684
192	0xbedd0447	-0.43167326
193	0xbee1d47b	-0.44107422
194	0xbe1f5b69	-0.15562214
195	0x3f1044b0	0.5635481
196	0xbf078fe6	-0.52953947
197	0x3f321f9a	0.6957947
198	0xbeb9889c	-0.36237037
199	0x3e71a3c8	0.23597634
200	0xb815d850	-3.5725825e-05
201	0x3efe222a	0.4963544
202	0xbeb6647a	-0.35623533
203	0xbdbd141d	-0.09232352
204	0x3ec06d72	0.375835
205	0xbeedb776	-0.46429032
206	0x3d7d25be	0.061803572
207	0xbea7639a	-0.32693177
208	0xbea9cd40	-0.33164406
209	0x3e3acfe5	0.18243368
210	0x3cac6be0	0.021047533
211	0x3f11f813	0.57019156
212	0x3ef2f59a	0.47453004
213	0x3f0b7ea2	0.544901
214	0xbe2a5b74	-0.16636449
215	0x3dd407ae	0.10353027
216	0xbe47e70c	-0.19521731
217	0xbeabc40d	-0.33548012
218	0xbdf5683d	-0.119827725
219	0xbe4ca820	-0.1998601
220	0xbe8b54d8	-0.27213168
221	0xbe94e098	-0.290776
222	0xbe86850a	-0.26273376
223	0x3ef87457	0.4852626
224	0xbeb23c1e	-0.3481149
225	0x3ebd7925	0.37006488
226	0x3ea26904	0.31720746
227	0xbd2494a2	-0.04018081
228	0xbea03583	-0.31290826
229	0x3f28edf3	0.6598808
230	0xbefdc267	-0.4956238
231	0xbec3dfa4	-0.38256562
232	0x3d1fabe3	0.038982283
233	0xbeb53dfd	-0.35398856
234	0x3f15f867	0.58582157
235	0xbe899289	-0.2686961
236	0xbead7c6c	-0.3388399
237	0x3f050794	0.5196469
238	0xbe9ec7fa	-0.31011945
239	0xbf09ef45	-0.5388072
240	0xbdc75a3d	-0.097340085
241	0x3da9985d	0.08281014
242	0xbec4449a	-0.3833359
243	0xbdf0841b	-0.11743947
244	0xbee8dd81	-0.45481494
245	0x3eadc271	0.3393741
246	0xbee1f20a	-0.44129974
247	0x3ef79e84	0.48363125
248	0xbecfed14	-0.40610564
249	0x3f04756a	0.5174166
250	0x3f1b4ba6	0.60662305
251	0xbe0d0700	-0.13772202
252	0x3e8a1d18	0.26975322
253	0xbda349cf	-0.07973062
254	0xbe96a990	-0.2942624
255	0xbecf813c	-0.40528286

weight f4 [128, 256]
0	0xbc3e7588	-0.011624701
1	0xbcd78938	-0.026310548
2	0x3cd87ba0	0.026426136
3	0xbd6d473e	-0.05792927
4	0x3cccb6e0	0.024989545
5	0x3bff21d0	0.007786013
6	0xbcf8b317	-0.030358834
7	0x3d012a48	0.031534463
8	0xbcc0d67a	-0.02353977
9	0xbaeb09c0	-0.0017931983
10	0x3c7c4b30	0.0153987855
11	0x3cfd6aac	0.030934654
12	0xbc83f0ef	-0.016106097
13	0x3d3ca77a	0.046058156
14	0x3d179c08	0.037014037
15	0x3c8f1f54	0.017470993
16	0xbd4531ec	-0.048143312
17	0x3c18ebee	0.009333594
18	0x3bcae763	0.006192134
19	0xbd06ecfe	-0.032940857
20	0x3d3b4ede	0.04572951
21	0xba253793	-0.00063025317
22	0xbd2a1dc2	-0.041532286
23	0xbc1b1b62	-0.009466978
24	0x3d16a062	0.036774047
25	0x3c653dec	0.013991814
26	0x3cf3f7df	0.02978128
27	0xbd8bbfeb	-0.06823715
28	0xbc8990a8	-0.01679261
29	0x3d375ad7	0.044764366
30	0x3d2ebc47	0.042660024
31	0xbcff687e	-0.031177755
32	0x3d36712d	0.044541527
33	0xbb76f05a	-0.0037679882
34	0xbd75ae2d	-0.05998056
35	0xbd447e52	-0.04797203
36	0x3d56ec88	0.052471668
37	0xbbc02861	-0.0058641885
38	0xbce5cc0e	-0.028051402
39	0xbd1e691e	-0.038674466
40	0x3d2103e7	0.039310362
41	0xbc35319c	-0.011059191
42	0xbcb772d9	-0.02239363
43	0x3d44ce4e	0.04804831
44	0xbd418c74	-0.047253087
45	0xbd0dacd2	-0.034588642
46	0xbca3e43c	-0.020006292
47	0xbce207d6	-0.027591627
48	0xbc9db98c	-0.019253515
49	0xbd78630a	-0.060641326
50	0xbd81ed94	-0.063441426
51	0x3cf13220	0.029442847
52	0x3d27d1aa	0.040971436
53	0x3b4bcf20	0.0031098798
54	0xbd83d340	-0.06436777
55	0x3ad11ef7	0.0015954663
56	0x3c84ac04	0.016195305
57	0x3d12ea4c	0.035867974
58	0x3ce95748	0.028484002
59	0x3d0f92e6	0.035052203
60	0x3c22f6ab	0.009946506
61	0xbd69e8b4	-0.05710669
62	0x3b636237	0.0034695992
63	0x3c7e9c42	0.015540184
64	0x3d23f992	0.04003293
65	0xbd5dc129	-0.05413929
66	0x3d08c676	0.033392392
67	0xbcf95898	-0.030437753
68	0xbd3b21bc	-0.04568647
69	0xbd174258	-0.036928505
70	0xbd050a61	-0.0324806
71	0x3bc09ba0	0.005877927
72	0xbb5e65e4	-0.0033935243
73	0xbc7393d8	-0.014866792
74	0x3d0b4cfa	0.034008957
75	0xbb287140	-0.0025702268
76	0xbd387d26	-0.045041226
77	0xbcfad644	-0.030619748
78	0xbd38c69c	-0.045111284
79	0xbcbdfddc	-0.023192339
80	0xbd0a9d0e	-0.033841185
81	0x3d78775c	0.060660705
82	0xbcd7f42c	-0.026361547
83	0x3ce2b960	0.027676284
84	0xbc2e3858	-0.010633551
85	0xbca8ad14	-0.020590343
86	0x3a869380	0.0010267347
87	0xbc998e50	-0.018744618
88	0xbcb04ee0	-0.021521986
89	0xbd6f621a	-0.058443166
90	0xbca3ae20	-0.01998049
91	0x3d1771fc	0.03697394
92	0xbd31be06	-0.04339411
93	0xbd6c9303	-0.05775739
94	0x3d1f78ea	0.038933672
95	0x3d6a6e1a	0.057233907
96	0xbd29bcb7	-0.041439738
97	0x3ceef6e8	0.029170468
98	0xbb923580	-0.004461944
99	0xbd26c270	-0.040712774
100	0xbced7854	-0.028988041
101	0xbc92c5d8	-0.017916605
102	0xbd81cb9b	-0.06337663
103	0xbd290930	-0.041268528
104	0xbd38f2ea	-0.045153536
105	0xbc1b557f	-0.009480833
106	0xbcac3450	-0.021021038
107	0xbd3ed7dd	-0.046592582
108	0x3d6a711c	0.057236776
109	0xbd891b15	-0.066946186
110	0xbd487ce6	-0.048947237
111	0xbd696d32	-0.056988902
112	0x3d215335	0.039385993
113	0x3cb29f2c	0.021804415
114	0x3d40afc8	0.047042638
115	0x3d09d40c	0.03364949
116	0x3d1ad6a0	0.03780234
117	0xbc3303e8	-0.010926224
118	0xbcaab1fc	-0.020836823
119	0xbc536d02	-0.012904407
120	0xbc733560	-0.014844269
121	0xbcf291ec	-0.029610597
122	0x3c6a66c0	0.014306724
123	0x3bd17d80	0.0063931346
124	0x3c876624	0.016528197
125	0xbb270038	-0.0025482308
126	0x3d034cc0	0.032055616
127	0x3d1cb16c	0.03825514
128	0xbcb038b4	-0.021511413
129	0xbd444eee	-0.047926836
130	0xbd7a4e8f	-0.061110076
131	0xbd321002	-0.043472297
132	0xbd6ad352	-0.057330437
133	0xbd103cc4	-0.0352142
134	0xbc0786bd	-0.00827187
135	0x3d37fdb6	0.044919692
136	0x3d3335bc	0.043752417
137	0x3d15b069	0.03654519
138	0xbd4cf148	-0.05003479
139	0xbd6e0bf4	-0.05811687
140	0xbd5498a0	-0.051903367
141	0xbd1fc21a	-0.03900347
142	0xbc288b18	-0.010287069
143	0x3c629479	0.013829344
144	0xbd1f39af	-0.03887337
145	0xbbb68b11	-0.005570777
146	0x3d255726	0.040366314
147	0xbce0d035	-0.02744303
148	0x3d11f7a8	0.035636574
149	0x3d41ab1e	0.04728233
150	0x3c5f7a05	0.013639932
151	0x3d07ab33	0.033122253
152	0x3baa987b	0.0052061654
153	0xbc9d658c	-0.01921346
154	0xbd171f6d	-0.036895204
155	0x3c3db57a	0.011578912
156	0x3d13d420	0.03609097
157	0x3d538a8c	0.0516458
158	0xbb50a440	-0.0031836182
159	0x3c464f25	0.01210383
160	0x3b211f25	0.0024585214
161	0xbbfb1e80	-0.007663548
162	0x3c1a7903	0.0094282655
163	0xbb8fa045	-0.0043831193
164	0xbd72389e	-0.059136026
165	0xbd3c88b3	-0.046028804
166	0x3b33face	0.0027462724
167	0x3c37d2a9	0.011219659
168	0xbd8722a4	-0.06598404
169	0xbc1f8470	-0.009736165
170	0x39bd7200	0.00036133826
171	0xbc9ca710	-0.01912263
172	0xbc1ca9ac	-0.009561937
173	0xbd8ccab8	-0.06874603
174	0x3c9de0c0	0.019272208
175	0xbbd7eac0	-0.0065892637
176	0xbc4c37f6	-0.012464514
177	0x3c8832c9	0.016625779
178	0xbc91ba68	-0.01778908
179	0x3d3febf6	0.04685589
180	0x3d7128a4	0.05887665
181	0x3cc35f65	0.023849199
182	0x3cd4aab0	0.025960296
183	0x3cade764	0.0212285
184	0xbd48c716	-0.04901799
185	0x3d4f053d	0.050542105
186	0xbcbb04c1	-0.022829415
187	0xbcf0c3d0	-0.029390246
188	0xbd144a22	-0.03620351
189	0x3c48ca50	0.012255266
190	0xbd8cfa75	-0.068837084
191	0x3ca8b744	0.0205952
192	0x3cb662b4	0.022263862
193	0xbb4649d3	-0.0030256405
194	0xbd8d8bae	-0.069114074
195	0x3cc057f4	0.02347944
196	0x3cefa173	0.02925179
197	0xbd050996	-0.032479845
198	0x3caa0304	0.020753391
199	0x3ce542f4	0.027986027
200	0x3cfd937a	0.030954111
201	0xbbd78673	-0.006577307
202	0xbd1ce329	-0.038302574
203	0x3a9cbe80	0.0011958629
204	0xbb8c4e50	-0.0042817965
205	0xbc305704	-0.010762934
206	0xbcb90d5e	-0.022589382
207	0xbce8486c	-0.028354846
208	0x3d1226a5	0.035681386
209	0x3cce6443	0.025194293
210	0xbd671859	-0.056419704
211	0x3cbbfdbc	0.022948138
212	0x3d696c8c	0.056988284
213	0x3d55bd30	0.052182376
214	0xbbd45fe0	-0.0064811558
215	0x3c656790	0.014001742
216	0x3d0b9fa8	0.034087807
217	0xbb87047b	-0.004120407
218	0xbd8f096d	-0.0698422
219	0x3d20d77c	0.039268002
220	0x3bdfc4a9	0.0068288636
221	0x3bb06c70	0.0053840205
222	0x3cef0c04	0.029180534
223	0xbd8338fa	-0.06407352
224	0xbd08d1b1	-0.033403102
225	0xbc9719a8	-0.018444851
226	0xbc7c4b16	-0.015398761
227	0x3d04ba2d	0.032404114
228	0xbccf9144	-0.025337823
229	0xbd3c0c90	-0.045910418
230	0x3d0badce	0.0341013
231	0x3cf2efc4	0.029655345
232	0x3d15d806	0.03658297
233	0x3cac5b84	0.021039732
234	0xbd1112e3	-0.035418402
235	0x3c9bb0fc	0.019005291
236	0xb9b02b36	-0.0003360153
237	0x3d06f8c8	0.0329521
238	0xbc9a26bf	-0.018817304
239	0xbce2bf39	-0.027679073
240	0xbd69d96c	-0.057092115
241	0xbd21ed9a	-0.039533235
242	0x3c84a120	0.016190112
243	0xbd1dbcf4	-0.038510278
244	0xbcc438e8	-0.023952916
245	0x3cf22689	0.02955939
246	0x3ca980e8	0.02069135
247	0x3ba15e0d	0.004924542
248	0xbcc172a4	-0.023614235
249	0xbd9177af	-0.07102906
250	0xbc99d3c0	-0.018777728
251	0x3bcd9d6d	0.00627487
252	0xba305300	-0.0006726235
253	0x3d1150b6	0.035477363
254	0xbb30f7a0	-0.0027003065
255	0x3ceb8e82	0.028754476

bias f4 [128]
0	0x3b4020a4	0.002931633
1	0xbcfb4b9f	-0.030675707
2	0x3d21cc4d	0.039501477
3	0xbd3cdaed	-0.04610722
4	0xbd79ad14	-0.060956076
5	0xbd8707b8	-0.06593269
6	0xbcc33a14	-0.023831405
7	0x3cb1b916	0.021694701
8	0xbd8bb408	-0.068214476
9	0xbe209515	-0.1568187
10	0xbd13c9e2	-0.036081202
11	0xbc7938c9	-0.015211293
12	0xbe3860b3	-0.18005638
13	0x3c35b95e	0.011091558
14	0xbd54a2fe	-0.051913254
15	0xbde41f1e	-0.11138748
16	0xbd7a65d9	-0.061132286
17	0x3e4604e7	0.19337808
18	0x3d131a4b	0.035913747
19	0x39135bf1	0.00014053263
20	0x3b6203cc	0.0034487126
21	0xbdd344a2	-0.10315825
22	0x3e15ef3d	0.14642043
23	0x3e35e4a9	0.17763008
24	0xbb90be36	-0.004417206
25	0xbd673d22	-0.056454785
26	0x3c65326c	0.013989072
27	0xbc16c90c	-0.009203207
28	0x3d34c02f	0.044128593
29	0xbe006aa5	-0.12540682
30	0x3df8822f	0.121342055
31	0xbca579e7	-0.02019973
32	0x3dfb7661	0.12278438
33	0x3e31175b	0.17294066
34	0x3d91eae2	0.071248785
35	0xbd6e6c00	-0.058208466
36	0xba940d34	-0.0011295439
37	0x3e514c75	0.20439322
38	0x3bbc1a01	0.0057404046
39	0x3cb44ce8	0.022009328
40	0x3e1adaa0	0.15122461
41	0xbd7a88fc	-0.061165795
42	0xbcc4fa29	-0.024045067
43	0x3b1b929f	0.0023738516
44	0xbde912c9	-0.11380536
45	0xbd690ddc	-0.056897983
46	0x3e14b389	0.14521612
47	0x3dcafc59	0.09911413
48	0x3e21a7c8	0.1578666
49	0xbcced0f3	-0.02524612
50	0xbd5e8709	-0.054328
51	0xbd7f19e6	-0.062280558
52	0x3c1867df	0.009302109
53	0x3e3bfe68	0.18358767
54	0xbd6db0a6	-0.058029793
55	0xbd4847de	-0.048896663
56	0x3c5910d4	0.013248641
57	0x3e00f1bd	0.12592216
58	0xbe54ac80	-0.20768929
59	0x3d0acbff	0.033885952
60	0xbd16e82f	-0.03684252
61	0xbc868fc4	-0.016425975
62	0xbd8c3418	-0.068458736
63	0xbdc976f7	-0.09837144
64	0xbd42a70b	-0.047522586
65	0x3e2ec5cf	0.17067645
66	0xbcf49c62	-0.029859725
67	0xbd87da27	-0.06633406
68	0xbd04f4ac	-0.0324599
69	0x3e1a97ff	0.15097044
70	0xbd865f9c	-0.06561205
71	0xbd3482c4	-0.04407002
72	0x3e5d714e	0.21625254
73	0x3c14b654	0.009076674
74	0x3d6ce54a	0.057835855
75	0xbd00161f	-0.031271096
76	0x3df5bb5e	0.11998628
77	0x3e2a84b1	0.1665218
78	0xbdfe9036	-0.1242985
79	0xbcdfc7c6	-0.02731694
80	0x3d1cdcd0	0.03829652
81	0x3e4cc48c	0.19996852
82	0xbbfff075	-0.007810647
83	0x3d0c94ab	0.03432147
84	0x3d7f9ce2	0.062405474
85	0xbd6a9217	-0.05726823
86	0xbd67d38e	-0.05659824
87	0xbd8f46ec	-0.06995949
88	0x3e06bf04	0.13158804
89	0xbddaa552	-0.106760636
90	0xbd6b9b08	-0.057520896
91	0x3e7b398c	0.24533671
92	0xbe13e50f	-0.14442848
93	0x3d1a892d	0.037728477
94	0x3ca04908	0.019566074
95	0x3cdb0ce5	0.026739547
96	0xbca5df7d	-0.02024817
97	0x3c3e2244	0.011604849
98	0x3dafa000	0.085754395
99	0xbbaead89	-0.0053307456
100	0xbd1e555e	-0.03865563
101	0x3d1106c3	0.03540684
102	0xbe1de578	-0.15419567
103	0x3cc79693	0.024363792
104	0xbcba191f	-0.022717057
105	0xbe21063a	-0.15725031
106	0x3e4e8937	0.20169531
107	0x3d46e31d	0.048556436
108	0xbc2254d2	-0.009907918
109	0x3e2f2df5	0.17107375
110	0x3e48a658	0.19594705
111	0x3e36be3c	0.17846006
112	0x3e2881b1	0.16455723
113	0x3cb65e35	0.022261718
114	0x3e33f306	0.17573175
115	0xbdb12f7d	-0.08651636
116	0xbb59c528	-0.0033229087
117	0xbd35647b	-0.04428528
118	0x3e0da550	0.13832593
119	0x3e0ba81b	0.13638346
120	0xbddeee1a	-0.10885258
121	0x3e226ec2	0.15862563
122	0x3e53704f	0.20648311
123	0x3de6c4a2	0.112679735
124	0x3e2e455a	0.17018643
125	0x3e2080e4	0.15674168
126	0xbd8818ef	-0.06645381
127	0x3e069b5a	0.131452

weight f4 [128, 128]
0	0x3d52bebc	0.05145143
1	0x3ccc08a7	0.02490647
2	0xbda11322	-0.078649774
3	0x3da56f4f	0.08077871
4	0xbda9cf36	-0.082914755
5	0x3cc1974a	0.02363171
6	0xbce861de	-0.02836698
7	0xbde820ce	-0.11334382
8	0x3c65cf32	0.01402645
9	0x3e023f11	0.1271937
10	0x3cfac33e	0.030610677
11	0x3d09d577	0.03365084
12	0x3d9ee782	0.07759
13	0xbc2e7a45	-0.0106492685
14	0x3cca015f	0.024658857
15	0x3e109abd	0.14121528
16	0xbcacf37a	-0.021112192
17	0xbc92e1c6	-0.017929923
18	0x3dfe947e	0.124306664
19	0xbd0eab76	-0.034831487
20	0xbb88db88	-0.004176561
21	0xbe69637c	-0.22791857
22	0x3d6ba484	0.05752994
23	0x3cfe9eed	0.031081641
24	0xbd9e4e72	-0.07729806
25	0x3b1afe2d	0.0023650036
26	0xbd04b878	-0.032402486
27	0x3d110588	0.035405666
28	0x3d64a531	0.0558216
29	0x3e226e5b	0.1586241
30	0xbd71f701	-0.059073452
31	0xbc9bcb01	-0.019017698
32	0xbc4f14ad	-0.012639207
33	0x3d66ece4	0.05637826
34	0x3dcce55f	0.100046866
35	0x3ce80a59	0.028325247
36	0x3e0ac76e	0.13552639
37	0xbce29113	-0.027657067
38	0x3d970bbe	0.073752865
39	0xbc8d06d5	-0.017215172
40	0x3c422242	0.011848988
41	0xbde6f92e	-0.11277996
42	0xbc2211aa	-0.009891907
43	0xbc849c53	-0.016187822
44	0xbdcf89b6	-0.10133688
45	0x3d35dba5	0.044398922
46	0xbcf471ea	-0.029839475
47	0x3c9b62f3	0.018968081
48	0x3ddd2db7	0.10799735
49	0xbd3a20a6	-0.045441292
50	0xbd22c0ed	-0.03973477
51	0xbb874c6d	-0.0041289837
52	0xbd149625	-0.036276
53	0xbe947e58	-0.29002643
54	0x3d5552ef	0.052081045
55	0x3dab3e3d	0.083614804
56	0xbcbb4732	-0.022861097
57	0xbdf9d3de	-0.121986136
58	0xbe3ad94a	-0.18246952
59	0x3db883d2	0.09009518
60	0x3d69ede5	0.05711164
61	0xbd0e6098	-0.034760088
62	0x3d8140b7	0.063111715
63	0x3d39e149	0.045380864
64	0x3d8c047c	0.06836793
65	0x3d2419ca	0.040063657
66	0xbd4b0ee6	-0.049574755
67	0xbcd7475f	-0.02627915
68	0xbda98e4d	-0.08279095
69	0xbcc8ebde	-0.024526533
70	0xbe6354ec	-0.22200364
71	0x3d5de287	0.05417111
72	0xbcf7e4ad	-0.030260408
73	0x3e00c68f	0.12575744
74	0xbbef5e94	-0.0073049758
75	0xbcb32d96	-0.021872323
76	0x3d291768	0.041282088
77	0xbd3bd9e5	-0.045862097
78	0xbd770130	-0.060303867
79	0x3d83cea7	0.064359
80	0xbccf179d	-0.025279814
81	0x3df57654	0.1198546
82	0xbdc64144	-0.09680417
83	0x3d336a34	0.043802455
84	0xbd81d7fa	-0.063400224
85	0x3de27853	0.11058106
86	0x3ddfa210	0.10919583
87	0xbd468ebf	-0.048475977
88	0x3d9d320b	0.076755606
89	0xbcdb12c6	-0.02674235
90	0x3d500dab	0.050794285
91	0xbe75b649	-0.23995318
92	0xbcfb1033	-0.030647373
93	0xbcda3e90	-0.02664116
94	0xbd8b1d40	-0.06792688
95	0x3cd46093	0.025924956
96	0xbcf2df76	-0.02964757
97	0xbcc3c399	-0.02389698
98	0x3d92c5ca	0.071666315
99	0xbd4ef35b	-0.05052505
100	0x3c3b0a8e	0.011416091
101	0x3dadb648	0.08482033
102	0xbcd52b0b	-0.026021501
103	0x3d6c4098	0.05767879
104	0xbd73682e	-0.059425525
105	0xbddee6ef	-0.10883891
106	0x3c2f7e29	0.010711231
107	0xbd649dbc	-0.05581449
108	0xbd7fa926	-0.062417172
109	0x3d962049	0.07330377
110	0x3d520adc	0.051279888
111	0x3c96988a	0.018383283
112	0xbe9c21aa	-0.30494434
113	0x3b3f8433	0.0029223084
114	0xbe003942	-0.12521842
115	0xbdc850b9	-0.097810216
116	0x3d61833f	0.055056807
117	0x3d596ffc	0.053085312
118	0x3be0bb89	0.0068582934
119	0xbd982513	-0.07428946
120	0x3cb935a2	0.022608582
121	0xbd12f539	-0.035878394
122	0xbdb73cce	-0.089471444
123	0xbd686f1c	-0.056746587
124	0xbdca4099	-0.09875602
125	0x3d17e42b	0.037082832
126	0xbdd6925d	-0.10477135
127	0x3e09ff3c	0.1347627
128	0xbdba70aa	-0.0910352
129	0xbd33a176	-0.043855153
130	0xbc4999a7	-0.0123047
131	0x3d0337d1	0.032035653
132	0x3dac6021	0.08416773
133	0x3d155846	0.036461137
134	0x3d6e7479	0.058216546
135	0xbd3bd953	-0.045861553
136	0xbc0d72ed	-0.0086333575
137	0xbdad5c87	-0.08464914
138	0x3d99079b	0.07472154
139	0x3cf10dbd	0.029425496
140	0xbd66147f	-0.05617189
141	0x3d12fc86	0.035885356
142	0x3d20c5e7	0.039251234
143	0xbd0169b8	-0.031594962
144	0xbd9e5b36	-0.07732241
145	0x3dbef994	0.09324947
146	0x3c651268	0.013981439
147	0x3d898849	0.067154475
148	0xbb9b829f	-0.004745796
149	0x3d2ae4a0	0.04172194
150	0x3d2dfa17	0.042474832
151	0xbd134dc2	-0.035962828
152	0xbd5e51a6	-0.054277085
153	0x3d0b39d5	0.0339907
154	0x3d8a0c74	0.067406565
155	0x3da39a81	0.07988454
156	0xbd759db3	-0.059964847
157	0xbde0fb8a	-0.10985477
158	0x3dac0d5b	0.08400985
159	0x3b87295d	0.004124804
160	0x3d95b005	0.07308964
161	0xbd40cb89	-0.047069106
162	0x3c0ee03f	0.008720457
163	0x3daf8c79	0.08571715
164	0xbccef356	-0.025262516
165	0xbd43d8b2	-0.04781408
166	0x3dabbdea	0.083858326
167	0x3d782c32	0.060589023
168	0xbca27fdb	-0.019836357
169	0x3a2f6f4c	0.0006692305
170	0x3db3a44e	0.08771573
171	0xbd253f84	-0.040343776
172	0xbd60f3d4	-0.054920033
173	0x3d8c9ea5	0.068661965
174	0x3c9e9cd2	0.019361887
175	0x3dd1415f	0.10217547
176	0x3e16b6a7	0.14718114
177	0xbbbb54d0	-0.0057168975
178	0x3da3c308	0.07996184
179	0xbd39d5bb	-0.045369845
180	0x3d538f94	0.0516506
181	0x3e5bb269	0.21454777
182	0x3d7359f4	0.059411958
183	0xbccfc998	-0.025364682
184	0x3b1e27d4	0.0024132626
185	0xbd6ebdbc	-0.058286414
186	0xbda513bc	-0.08060405
187	0xbc7550f9	-0.014972919
188	0xbbda5e99	-0.006664109
189	0xbc295bdb	-0.010336841
190	0x3bae2e9f	0.0053156163
191	0xbd45f0f0	-0.04832548
192	0x3d3f80e3	0.046753775
193	0xbd030e05	-0.031995792
194	0xbd343364	-0.043994322
195	0xbd933a73	-0.07188883
196	0x3d536bc2	0.051616438
197	0x3d62dae8	0.055384547
198	0xbbd077ef	-0.0063619534
199	0xbd41f650	-0.047354043
200	0x3dd22665	0.102612294
201	0xbdcee316	-0.10101907
202	0xbdb212b7	-0.08694976
203	0xbd27d38d	-0.040973235
204	0x3d8e0902	0.06935312
205	0xbcf88b7a	-0.030339945
206	0x3acbf178	0.0015559634
207	0x3d2822d7	0.04104885
208	0xbc24900b	-0.010044108
209	0x3dff87a0	0.1247704
210	0xbd039887	-0.032127883
211	0x3db02433	0.086006545
212	0x3cdd804f	0.027038721
213	0x3b6ad2e0	0.0035831258
214	0x3d5edc35	0.054409225
215	0x3daf7a7b	0.08568283
216	0x3e027aa1	0.12742092
217	0xbcfb1335	-0.030648807
218	0xbd4d1229	-0.050066147
219	0x3e03153f	0.12801073
220	0x3c1e2a56	0.009653648
221	0x3d4b2d73	0.04960389
222	0x3da50dde	0.080592856
223	0x3cdd4d0a	0.027014274
224	0xbd28738d	-0.041125823
225	0xbd96a228	-0.073551476
226	0xbe043cd1	-0.12913825
227	0x3c6dc3dc	0.014512029
228	0xbc4badab	-0.012431542
229	0x3d29ad40	0.04142499
230	0xbd7c12c0	-0.06154132
231	0xbd2473a9	-0.040149365
232	0x3d38614a	0.045014657
233	0xbd4e1e2b	-0.05032174
234	0x3e3f9d94	0.18712455
235	0xba33df37	-0.000686157
236	0xbd59f661	-0.05321348
237	0x3d1de6ab	0.03855006
238	0x3db1d955	0.08684031
239	0x3e1e8285	0.15479477
240	0x3d997ea4	0.07494858
241	0x3d894311	0.06702245
242	0x3dd75ac3	0.10515358
243	0xbd8d2fce	-0.06893884
244	0x3d931129	0.071810074
245	0xbd37cc44	-0.044872537
246	0x3e025539	0.12727822
247	0xbcf752f2	-0.030190919
248	0x3d6349e4	0.05549039
249	0x3db5d6a7	0.08878832
250	0x3e22bc48	0.15892136
251	0x3cc05e5f	0.0234825
252	0x3e06c43f	0.131608
253	0xbcda828a	-0.026673574
254	0x3d905248	0.07046944
255	0x3c2c4380	0.01051414

bias f4 [128]
0	0xbca0d552	-0.019632969
1	0x3e641fa4	0.22277695
2	0xbd32dc54	-0.043667153
3	0x3de167c3	0.11006119
4	0xbb84e9be	-0.0040561846
5	0x3c91fb15	0.01781992
6	0x3d038c67	0.03211632
7	0x3cbc075b	0.022952726
8	0xbe4dfaa2	-0.2011514
9	0x3e2ef83e	0.17086884
10	0xbc405499	-0.01173892
11	0xbe4cc2c0	-0.19996166
12	0x3e0162d7	0.1263536
13	0x3e448cc8	0.19194329
14	0xbd8bb8b5	-0.068223394
15	0x3de55496	0.11197774
16	0xbc831e8b	-0.016005775
17	0xbdbc3dc1	-0.09191466
18	0x3c827898	0.015926644
19	0x3e25b602	0.16182712
20	0xbd61a6db	-0.055090766
21	0x3dedf969	0.11619837
22	0xbc159e09	-0.009131917
23	0x3d5be417	0.05368432
24	0xbe2c6eaa	-0.1683909
25	0xbd8378bf	-0.06419515
26	0x3d99f31f	0.07517075
27	0xbba41a1b	-0.005007995
28	0xbd4d7d0f	-0.050168093
29	0x3d530281	0.05151606
30	0x3e3c70d5	0.18402417
31	0xbddc4f3e	-0.10757302
32	0x3e78bb21	0.24290134
33	0xbd099365	-0.033587832
34	0xbd845611	-0.06461728
35	0xbe1a46f2	-0.15066126
36	0x3baf7f6b	0.0053557656
37	0xbdb3f94a	-0.087877825
38	0x3e5549d5	0.20828946
39	0xbe05839b	-0.13038485
40	0x3da26418	0.079292476
41	0x3e49042c	0.19630498
42	0x3d4249a3	0.047433507
43	0x3e40ac8b	0.1881582
44	0x3e01a616	0.12661013
45	0xbe00b1c4	-0.12567812
46	0xbb1e2716	-0.0024132184
47	0xbe0c63d1	-0.13709952
48	0xbc8f5642	-0.017497186
49	0x3df760fd	0.12079046
50	0x3bdaeacc	0.006680822
51	0xbe2bcee8	-0.16778147
52	0xbde3973f	-0.11112832
53	0xbc83182a	-0.016002733
54	0x3d89c5bc	0.06727168
55	0xbd00a240	-0.031404734
56	0x3e37c5db	0.1794657
57	0xbd988ba2	-0.07448508
58	0x3d972234	0.073795706
59	0x3d589d15	0.05288418
60	0xbcbc5543	-0.022989875
61	0xbdd91c18	-0.106010616
62	0x3d959305	0.073034324
63	0x3c434eaf	0.011920615
64	0x3e5c2de8	0.21501887
65	0xbbd935a3	-0.0066287084
66	0x3bee47a8	0.0072717257
67	0x3d19121a	0.03737078
68	0x3e21be5b	0.15795271
69	0xbe15508b	-0.14581506
70	0x3d0e4c86	0.034740947
71	0x3bfb345a	0.007666153
72	0xba9964ac	-0.0011702976
73	0xbd81db44	-0.0634065
74	0xbd8dd5f0	-0.06925571
75	0xbd0d415a	-0.034486152
76	0xbdcde04c	-0.10052547
77	0x3d5e5041	0.054275755
78	0x3c812e58	0.015769169
79	0x3e2e3c7a	0.17015257
80	0xbdcbda6e	-0.099537715
81	0xbdcb896b	-0.0993832
82	0x3e1ed18d	0.15509625
83	0x3d87cbad	0.06630645
84	0x3e2fdf55	0.17175038
85	0xbd0eee41	-0.034895185
86	0x3c4d10cd	0.012516213
87	0x3c64c49a	0.013962889
88	0x3d4219dc	0.047387943
89	0x3e0cc00f	0.1374514
90	0xbcb7275a	-0.022357631
91	0xbc1c30f4	-0.009533156
92	0x3d8a4203	0.06750872
93	0xbc9121ea	-0.017716367
94	0xbdaba9a3	-0.08381965
95	0xbd2b1a64	-0.041773215
96	0x3d8c776f	0.06858718
97	0x3cdc9a02	0.026928905
98	0x3d5cfc4a	0.05395154
99	0x3d847e38	0.06469387
100	0x3d6464fd	0.055760372
101	0xbd309848	-0.043113977
102	0x3e37e17f	0.17957114
103	0xbce8b830	-0.02840814
104	0x3d6b2960	0.057412505
105	0xbc9cbd4e	-0.019133236
106	0x3da8ce6b	0.08242496
107	0x3b811e3b	0.0039403713
108	0x3cb53e4f	0.022124438
109	0x3e233cf3	0.15941219
110	0xbe249321	-0.1607175
111	0x3e606d99	0.21916808
112	0x3cfa1e86	0.030532133
113	0x3e1f28cc	0.15542907
114	0xbd877313	-0.066137455
115	0xbdfda942	-0.12385799
116	0xbda3b0d5	-0.079927124
117	0xbd707863	-0.05870856
118	0x3e41cf0b	0.18926637
119	0xbd99acce	-0.07503663
120	0x3d462e1f	0.04838383
121	0xbe60ebbe	-0.21964929
122	0x3cc3af0d	0.023887182
123	0x3c53c9aa	0.012926498
124	0xbcd770b1	-0.026298853
125	0xbc3ca62d	-0.011514229
126	0xbb62160f	-0.0034498011
127	0x3e0056ab	0.12533061

weight f4 [128, 128]
0	0xbc3e02c7	-0.011597342
1	0x3d85c24d	0.065312006
2	0x3ce774a7	0.028253866
3	0xbb1b062c	-0.0023654802
4	0xbd481bed	-0.048854757
5	0xbd611aee	-0.054957323
6	0xbdfcfbe4	-0.12352732
7	0xbcfab131	-0.03060207
8	0xbd1fd388	-0.03902009
9	0x3d4f1391	0.05055577
10	0xbd8ed34a	-0.06973894
11	0xbe01a262	-0.126596
12	0x3d180308	0.037112266
13	0xbb78bb9d	-0.0037953623
14	0x3cf6c318	0.030122325
15	0xbe96be9a	-0.29442292
16	0xba87013c	-0.001030005
17	0xbde70571	-0.11280335
18	0x3c8b72b9	0.017022477
19	0xbd8f7e7d	-0.070065476
20	0x3b0fb616	0.00219286
21	0xbd436eb1	-0.047712985
22	0x3be49ca0	0.006976679
23	0xbdad9f20	-0.08477616
24	0xbd66d5a3	-0.056356084
25	0x3d8f2f1e	0.06991409
26	0x3e0fdc72	0.14048937
27	0xbe53cdef	-0.20684026
28	0xbc3f6c81	-0.011683584
29	0x3d904c55	0.07045809
30	0xbd7c8b31	-0.06165618
31	0xbd928356	-0.071539566
32	0xbd90e06c	-0.07074055
33	0xbdf3d59c	-0.11905977
34	0x3e3e9f10	0.18615365
35	0xbc832ee9	-0.01601358
36	0xbb4a0233	-0.0030824065
37	0x3d3ad0af	0.045609172
38	0xbcd5bbff	-0.02609062
39	0x3d70854e	0.05872088
40	0x3cfeb2a5	0.031091044
41	0x3db90929	0.0903495
42	0x3c508c40	0.012728751
43	0x3dd2f7ea	0.10301192
44	0x3dca0813	0.09864821
45	0xbd9a462c	-0.075329155
46	0x3dac575f	0.08415102
47	0x3aa97b9f	0.0012930519
48	0xbdaf6324	-0.085638314
49	0x3d5807e1	0.05274189
50	0xbc812b04	-0.015767582
51	0xbe0828d5	-0.13296826
52	0x3c0a9937	0.008459381
53	0x3c904633	0.017611599
54	0x3d88adca	0.06673773
55	0xbd7b71d4	-0.06138785
56	0xbd1a6eae	-0.03770321
57	0xbd06afe8	-0.0328826
58	0x3d50a32e	0.05093687
59	0xbb7eb8af	-0.0038867404
60	0xbd4ae2b9	-0.049532626
61	0x3d1e8406	0.038700126
62	0xbd16a7b4	-0.036781028
63	0xbad66b49	-0.0016358878
64	0x3e848bff	0.2588806
65	0x3d8863ec	0.066596836
66	0x3d389258	0.04506144
67	0x3d6469d7	0.055765
68	0x3dea477a	0.11439414
69	0xbca8968a	-0.020579595
70	0x3d46e3a5	0.048556942
71	0xbd0020a4	-0.03128113
72	0x3d492f4d	0.049117375
73	0xbd16b2a2	-0.03679145
74	0x3d9a8c38	0.07546276
75	0xbde9cd4f	-0.11416113
76	0x3ca621b4	0.020279743
77	0x3d88df50	0.066832185
78	0xbc19e40f	-0.009392752
79	0x3d5350a0	0.051590562
80	0xbd2188b7	-0.039437022
81	0xbdd18d13	-0.10231986
82	0x3db1a711	0.086744435
83	0x3df7fd2c	0.121088356
84	0x3dd61c0e	0.1045457
85	0xb9b1c056	-0.00033903372
86	0xbdbaf9d1	-0.0912968
87	0xbd94c4ba	-0.07264085
88	0x3d28f545	0.041249532
89	0x3da5d120	0.08096528
90	0xbd06c6b0	-0.032904327
91	0x3d8ceada	0.06880732
92	0x3c43b791	0.011945621
93	0x3d7b181e	0.061302297
94	0x3ccfb06a	0.025352675
95	0x3cb56e86	0.022147428
96	0x3c9c9eeb	0.019118747
97	0xbd25381d	-0.040336717
98	0x3d0782e1	0.0330838
99	0xbd87debd	-0.06634281
100	0x3d9568a4	0.07295349
101	0x3d07cbe5	0.033153433
102	0xbc2206fe	-0.009889362
103	0xbd8595ef	-0.06522738
104	0xbd9a3833	-0.075302504
105	0x3b5e5834	0.0033927085
106	0xbd0a6245	-0.033785123
107	0x3d743519	0.05962095
108	0x3abbe47b	0.001433506
109	0x3bd38ade	0.0064557632
110	0xbd8b8be4	-0.068137914
111	0x3d73c686	0.0595155
112	0xbd1e6cd5	-0.03867801
113	0x3c27c00c	0.010238659
114	0xbbf461c0	-0.007457942
115	0x3cdd7d19	0.02703719
116	0x3db38790	0.08766091
117	0xbde0a2a0	-0.10968518
118	0x3d2b7ba4	0.04186596
119	0xbdbda325	-0.09259633
120	0x3dcd405e	0.10022043
121	0xbd83d6a5	-0.064374246
122	0x3d96682f	0.0734409
123	0x3db0158b	0.08597859
124	0xbd75a142	-0.05996824
125	0xbba8aef0	-0.0051478073
126	0xbd6c2c8d	-0.057659674
127	0x3df2550b	0.11832627
128	0x3c89b47e	0.016809698
129	0xbc4bc218	-0.012436412
130	0xbd627317	-0.05528554
131	0x3d777da8	0.06042257
132	0x3d2f9f55	0.04287656
133	0xbd6e55f6	-0.058187447
134	0xbd0b3482	-0.033985622
135	0xbd8a4977	-0.067522936
136	0x3db356d6	0.08756797
137	0xbd2f374b	-0.04277734
138	0xbd5de6f8	-0.054175347
139	0xbe11fed7	-0.1425737
140	0x3d31f809	0.043449435
141	0x3d41634a	0.04721383
142	0x3ca9e043	0.02073682
143	0xbea01aca	-0.31270438
144	0xbdaaf6c3	-0.08347847
145	0xbe261c76	-0.16221794
146	0xbca3f770	-0.020015448
147	0x3d619cf3	0.05508132
148	0xbd49c8e3	-0.049263846
149	0x3dbb63f8	0.09149927
150	0x3d9e9da8	0.07744914
151	0xbdc12c01	-0.09432221
152	0xbd81978c	-0.063277334
153	0xbd6be938	-0.05759546
154	0x39b58f7a	0.0003462991
155	0xbdc1954f	-0.094523065
156	0x3cfd6579	0.030932175
157	0xbc40774e	-0.011747194
158	0xbcb548ca	-0.022129435
159	0x3ce59bce	0.028028395
160	0x3d8d1b54	0.06889978
161	0xbddc21c3	-0.10748627
162	0xbe2b6c75	-0.16740592
163	0x3d60fd28	0.05492893
164	0x3d270dd4	0.040784672
165	0x3d739963	0.059472453
166	0xbd8a3348	-0.06748062
167	0xbb8eb8f7	-0.0043555456
168	0xbd6a51e1	-0.057206992
169	0xbab3217f	-0.0013666599
170	0xbd1a67b3	-0.03769655
171	0x3de2093e	0.11036919
172	0x3df27b61	0.11839939
173	0xbe12b2ee	-0.14326069
174	0x3ca1ebe6	0.019765805
175	0xbcca186b	-0.024669847
176	0xbd198abc	-0.037485823
177	0x3d53c149	0.051698003
178	0xbd509884	-0.0509267
179	0xbe03b57a	-0.12862197
180	0xbcbb274a	-0.022845883
181	0x3c7a03d7	0.015259705
182	0xbcd3be8f	-0.025847701
183	0xbd0b0431	-0.033939544
184	0xbd9753ef	-0.07389056
185	0xbe49508e	-0.19659635
186	0x3ab16a73	0.0013535753
187	0xbd01e300	-0.031710625
188	0x3c4a8d96	0.012362858
189	0xbdbe3c15	-0.092888035
190	0x3c5b842f	0.013398214
191	0xbd223f3a	-0.03961108
192	0x3e17e269	0.14832462
193	0xbc9606d3	-0.0183138
194	0x3ac64230	0.0015125927
195	0xbe05bf20	-0.1306119
196	0x3defd233	0.11710014
197	0xbd936082	-0.07196142
198	0xbcaf3a31	-0.021390053
199	0xbd7e28bc	-0.062050566
200	0xbd3098f9	-0.043114636
201	0xbd232af0	-0.03983587
202	0x3d9cfe62	0.07665707
203	0xbd9d9a94	-0.07695499
204	0x3d895c7f	0.06707095
205	0x3c0926ad	0.008371037
206	0x3dad7808	0.0847016
207	0x3d9b12a3	0.07571914
208	0xbd709d1f	-0.058743592
209	0xbdb80ea5	-0.08987168
210	0xbcaeaaf8	-0.021321759
211	0x3cce4521	0.025179448
212	0x3d639038	0.05555746
213	0xbd8c7332	-0.06857909
214	0x3d3f7bdf	0.046748992
215	0xbc730f3d	-0.014835176
216	0x3daa4bd8	0.08315247
217	0x3d22691d	0.039651025
218	0xbd3a4ebc	-0.045485243
219	0x3d03e86e	0.032204084
220	0x3c92f17c	0.017937414
221	0xbc4db917	-0.012556336
222	0xbda41210	-0.08011258
223	0x3d158056	0.036499344
224	0x3bea368e	0.0071476167
225	0x3debaf17	0.11508005
226	0xbdac5dc3	-0.08416321
227	0xbc7e5275	-0.015522589
228	0xbdd20370	-0.10254562
229	0x3e1185cb	0.14211194
230	0x3d8d5616	0.06901185
231	0x3d39be1b	0.045347314
232	0x3dc79332	0.09744872
233	0xbe00c449	-0.12574877
234	0xbc7dada2	-0.015483292
235	0x3dd44037	0.103638105
236	0xbc43e38c	-0.011956107
237	0x3d8fdef8	0.0702495
238	0x3dbb0eb2	0.09133662
239	0x3d30b00d	0.043136645
240	0xbcdcafed	-0.026939357
241	0x3cd2ed3b	0.025747886
242	0x3d4f88d3	0.050667595
243	0xbdbdc93f	-0.092669
244	0xbe0f8f57	-0.14019524
245	0xbd759845	-0.05995967
246	0x3dc206e2	0.09473969
247	0xbd0d5526	-0.034505032
248	0xbd0e7535	-0.034779746
249	0xbdba3436	-0.0909199
250	0xbda5e468	-0.08100206
251	0x3d81d7fd	0.063400246
252	0xbd1a855f	-0.03772485
253	0xbb7fd324	-0.0039035762
254	0xbb8bb22c	-0.004263183
255	0x3c915c12	0.017744098

bias f4 [128]
0	0x3dbf19c1	0.09331084
1	0x3dff2411	0.12458051
2	0xbd221341	-0.039569143
3	0xbd94fce6	-0.07274799
4	0xbd3b9a5b	-0.0458015
5	0xbe0e760c	-0.13912219
6	0xb97bdc0c	-0.00024019199
7	0x3e4aa627	0.19789945
8	0xbd872d1e	-0.06600402
9	0xbcaa4a38	-0.020787343
10	0xbdc258d1	-0.09489597
11	0x3ddbb981	0.107287414
12	0x3baf3349	0.00534669
13	0x3b9d25f5	0.0047957846
14	0xbdc0b0f6	-0.094087526
15	0x3d40ab05	0.047038097
16	0x3cfdd59e	0.03098565
17	0xbd8a0bba	-0.06740518
18	0xbe354c3c	-0.17704862
19	0x3e163338	0.14667976
20	0xbc95ab2a	-0.018270094
21	0xbcc72b8d	-0.024312759
22	0x3e593273	0.21210651
23	0xbde90c96	-0.11379354
24	0x3c0d07e5	0.008607839
25	0x3d284acb	0.041086953
26	0x3bbd6011	0.0057792743
27	0x3b902a26	0.0043995557
28	0x3dc048ed	0.093889095
29	0x3d404d4d	0.04694872
30	0x3d94ad32	0.07259597
31	0xbd6a383c	-0.057182536
32	0xbdabfc9d	-0.083977915
33	0x3d63c17e	0.05560445
34	0xbd707cc3	-0.058712732
35	0x3d8cc977	0.06874364
36	0x3d0802d6	0.03320583
37	0xbd487f5b	-0.04894958
38	0xbda667cb	-0.08125266
39	0xbdbe922d	-0.093052246
40	0x3e049797	0.12948452
41	0xbdfdf617	-0.124004535
42	0x3d1cdc2e	0.038295917
43	0x3c901657	0.017588777
44	0xbc88af86	-0.016685259
45	0x3d998a20	0.074970484
46	0x3df7e754	0.12104669
47	0xbdc0de1b	-0.09417363
48	0xbcaa2653	-0.020770228
49	0xbd8f189c	-0.06987116
50	0x3d2c2e6b	0.042036455
51	0xbb0cdd77	-0.0021494308
52	0x3d80c3be	0.06287335
53	0xbd816bce	-0.0631939
54	0xbd6235ca	-0.05522708
55	0xbdd11fb2	-0.102111235
56	0x3bc95538	0.006144192
57	0x3befa044	0.0073128063
58	0xbc77a2ad	-0.0151144685
59	0xbd230fa8	-0.039809853
60	0xbde4f2f0	-0.11179149
61	0x3c2affb3	0.01043694
62	0xbc8b5349	-0.017007487
63	0x3b484d40	0.0030563623
64	0xbc2d21ee	-0.0105671715
65	0x3c973f7f	0.018462894
66	0xbd3ec48e	-0.046574168
67	0xbccfbeea	-0.02535959
68	0x3dbf726c	0.09347996
69	0xbd331892	-0.043724604
70	0x3c05e290	0.0081716925
71	0x3c9a1e06	0.018813144
72	0x3e049b84	0.1294995
73	0x3dc391a0	0.0954926
74	0xbd1df5c6	-0.038564466
75	0x3b8dcf51	0.0043276926
76	0x3cb15ac9	0.021649735
77	0xbcd7d1b1	-0.026345106
78	0x3c2e4c87	0.010638363
79	0xbdaa220e	-0.08307277
80	0xbd786833	-0.060646247
81	0xbd3cb363	-0.046069514
82	0x3e0d6d30	0.13811183
83	0xbe674c22	-0.22587636
84	0x3dc31a3b	0.095264874
85	0xbdcae618	-0.09907168
86	0x3e190b8f	0.14945816
87	0xbca8f3d8	-0.020624086
88	0x3e1a1425	0.15046747
89	0x3d9f9820	0.077926874
90	0xbc78b7f4	-0.015180577
91	0x3db2ed67	0.08736687
92	0xbd9bbe3b	-0.07604643
93	0x3d9f6491	0.077828534
94	0x3e0df2a8	0.13862097
95	0xbd092cbb	-0.033489924
96	0x3d30c251	0.043154065
97	0x3d732e91	0.05937058
98	0xbd12a890	-0.035805285
99	0x3d491dc5	0.049100656
100	0x3de528c6	0.111894175
101	0x3d3f3375	0.046679933
102	0xbcb79894	-0.022411622
103	0x3e1e610a	0.15466705
104	0x3d82b03f	0.063812725
105	0x3dbb3689	0.09141261
106	0x3e41de82	0.18932536
107	0x3d953b88	0.07286745
108	0x3db89b87	0.090140395
109	0x3e3130ac	0.17303723
110	0xbd98044b	-0.07422694
111	0xbe1df246	-0.15424451
112	0x3d0d0162	0.034425147
113	0xbde4d47d	-0.111733414
114	0xbe0acc5c	-0.1355452
115	0xbdeea115	-0.11651818
116	0x3d4b7622	0.049673207
117	0xbdf33497	-0.11875265
118	0x3e042809	0.12905897
119	0x3c8e5a95	0.017377177
120	0x3bc8d3fb	0.0061287857
121	0x3c4abb6b	0.0123737855
122	0xbdc4dcbb	-0.096124135
123	0x3d7233cf	0.05913144
124	0x3c3f1b5c	0.011664238
125	0x3dd9657a	0.10615058
126	0xbccf90c4	-0.025337584
127	0x3ab3663e	0.0013687087
