DeepControlledLearning/PolicyWeights/perishable_systems_m4_l2_cvr2.000000_f0.000000/cl_gen.pth (torch, 294982 bytes, 10 tensors)

weight f4 [256, 5]
-0.007798962 -0.36700892 0.18089688 0.15100922 0.33979562 -0.015609015 0.025510143 -0.14378177
-0.2949023 0.41454864 0.3357039 0.09896598 -0.3155354 -0.055283137 0.3585646 -0.00890752
0.5285585 -0.02198006 -0.20701744 0.008258141 -0.1286217 0.5196858 -0.02854254 -0.31413102
0.055634983 0.22356765 0.485633 0.10189159 -0.23565577 -0.23588428 -0.18504582 0.3838942
0.2082794 0.37571493 0.21435699 0.19064759 -0.16989909 0.14028212 -0.05496857 -0.22302774
-0.40435606 -0.19855577 -0.13429718 -0.059058495 0.08322382 0.0052850908 -0.31057617 -0.3409976
0.07169532 -0.031462725 0.04338236 0.00055858085 -0.037009705 0.006779338 -0.02994675 -0.1151719
0.21644953 -0.25840044 0.06829874 0.17310904 0.14934139 0.21712871 -0.15207896 -0.31249097
0.40551466 0.31404555 0.26297143 0.13965468 -0.012125047 -0.2776214 0.009705363 0.13383526
-0.4317759 -0.27371374 -0.07594511 0.21521613 0.14454865 0.0034221495 0.021448167 0.13774721
-0.41715765 0.17646527 -0.037415776 0.31984854 -0.34912992 -0.43013182 -0.12437563 0.38159224
-0.35145846 -0.15966187 -0.44869003 -0.16674848 -0.11444195 0.0017989225 0.1252712 0.3310267
-0.18026158 0.32830748 0.42083317 -0.39528668 0.28989238 0.23213705 0.09381757 0.13759562
-0.015919102 -0.29449245 -0.022804257 0.13771018 0.052965265 0.29138425 0.23932397 0.4440809
0.22551851 0.10821395 0.12466282 -0.028129093 0.37979168 -0.12028373 -0.2619077 0.13400838
-0.18330081 -0.2692403 0.00571145 0.24777251 -0.17684217 -0.21844907 -0.013057371 0.122629814
-0.081218876 0.21468878 0.06341676 0.2991089 -0.09521454 -0.33305964 -0.049679145 0.23911709
-0.043399055 -0.03603277 0.25187954 0.01885748 0.39366418 0.47878638 -0.1416721 -0.25846285
0.3926094 -0.22384673 -0.46283558 -0.13674475 -0.027622752 0.17722993 -0.13983376 0.4521927
0.106769904 -0.18082936 -0.052638873 0.3943693 -0.19508259 0.11873131 0.30797333 0.11673994
-0.016547477 -0.17833821 0.2816487 0.37176317 -0.35509938 0.27189326 -0.14892115 0.43510953
-0.25418687 0.2219731 0.03955926 0.39004162 0.30461955 -0.32299516 -0.21226627 -0.56951463
0.31414175 -0.53264856 0.3711737 -0.23941563 -0.22650343 0.066688165 0.20270163 -0.356467
0.20850396 0.011405286 0.11494859 -0.073905826 0.11474226 -0.30245903 -0.47225824 0.019836308
-0.036057036 0.07226261 -0.42322612 -0.09390959 -0.34456924 -0.34345898 -0.07746721 -0.25037003
-0.23402879 0.15412855 0.102560565 0.20161742 0.06750737 -0.22059761 -0.13465731 -0.08452061
0.24543366 -0.22206064 -0.06802258 0.057915024 0.10493528 0.18066086 0.088959485 -0.09279563
-0.028054437 0.13279909 0.09742636 0.044155084 0.40301895 -0.4329619 0.39384156 0.39252326
-0.22563161 -0.08601856 0.021192202 -0.28160143 -0.31957147 -0.00881962 0.2747466 0.09897689
0.067060664 -0.058102928 -0.25522265 -0.09764394 -0.2928787 0.09531003 -0.4181934 -0.19230287
-0.27974406 0.28490666 -0.030765017 0.01639434 -0.37447527 -0.37159598 0.33715636 0.34843296
0.458716 0.2398295 -0.02738626 0.11750404 -0.5688006 0.3159045 -0.12159008 0.38777468
00000000: 6f8e ffbb 98e8 bbbe 083d 393e 29a2 1a3e
00000010: b1f9 ad3e f4bc 7fbc a6fa d03c 873b 13be
00000020: 6ffd 96be b83f d43e 62e1 ab3e adae ca3d
00000030: db8d a1be 9270 62bd c795 b73e d9f0 11bc
00000040: 9c4f 073f 870f b4bc 61fc 53be 274d 073c
00000050: 68b5 03be 210a 053f 0bd2 e9bc c8d5 a0be
00000060: 82e1 633d ebee 643e e3a4 f83e 8aac d03d
00000070: bf4f 71be a68b 71be a77c 3dbe c88d c43e
00000080: 3247 553e b55d c03e 6680 5b3e 1f39 433e
00000090: 07fa 2dbe 1ea6 0f3e b926 61bd 6261 64be
000000a0: c207 cfbe 3452 4bbe 3385 09be 52e7 71bd
000000b0: 4071 aa3d 8e2e ad3b d703 9fbe 3d97 aebe
000000c0: ffd4 923d 0fdf 00bd b4b1 313d ba6d 123a
000000d0: 7d97 17bd 3525 de3b e352 f5bc 3fdf ebbd
000000e0: f2a4 5d3e 104d 84be 36e0 8b3d 7f43 313e
000000f0: f3ec 183e fd56 5e3e 96ba 1bbe d1fe 9fbe
00000100: 9e9f cf3e 94ca a03e 31a4 863e a301 0f3e
00000110: 22a8 46bc 6424 8ebe 3e03 1f3c 1c0c 093e
00000120: bb11 ddbe 3524 8cbe 1c89 9bbd 9e61 5c3e
00000130: 9004 143e 2446 603b 11b4 af3c 9b0d 0d3e
00000140: b095 d5be 50b3 343e 4941 19bd 30c3 a33e
00000150: 28c1 b2be 3d3a dcbe a6b8 febd 0f60 c33e
00000160: 5df2 b3be 677e 23be b3ba e5be 1dc0 2abe
00000170: 8b60 eabd d3c9 eb3a 1847 003e 557c a93e
00000180: 7e96 38be eb17 a83e 7277 d73e 0463 cabe
00000190: c66c 943e 56b5 6d3e 6d23 c03d dee5 0c3e
000001a0: c768 82bc b7c7 96be fecf babc e603 0d3e
000001b0: 1bf2 583d 5130 953e 5811 753e 925e e33e
000001c0: 53ee 663e 479f dd3d 384f ff3d fc6e e6bc
000001d0: 0e74 c23e 5157 f6bd c418 86be 7e39 093e
000001e0: 35b3 3bbe ddd9 89be 1d27 bb3b 14b8 7d3e
000001f0: 1d16 35be 1db1 5fbe 95ee 55bc 5725 fb3d
00000200: 1556 a6bd 60d7 5b3e a5e0 813d cd24 993e
00000210: d7ff c2bd cb86 aabe 5c7c 4bbd 1cdb 743e
00000220: 35c3 31bd 1997 13bd 5bf6 803e 007b 9a3c
00000230: 5a8e c93e 7d23 f53e 7e12 11be 3e55 84be
00000240: 1904 c93e 1438 65be c9f8 ecbe d106 0cbe
00000250: 1c49 e2bc c37b 353e 9530 0fbe cd85 e73e
00000260: 2eaa da3d 552b 39be dc9b 57bd c6ea c93e
00000270: bbc3 47be 6729 f33d aeae 9d3e 5a15 ef3d
00000280: 938e 87bc 4b9e 36be 4234 903e be57 be3e
00000290: 96cf b5be 9835 8b3e c97e 18be adc6 de3e
000002a0: c824 82be eb4c 633e e408 223d 89b3 c73e
000002b0: 18f7 9b3e 9f5f a5be 545c 59be b6cb 11bf
000002c0: 30d7 a03e a85b 08bf 7b0a be3e 5f29 75be
000002d0: 84f0 67be ce93 883d 0491 4f3e d882 b6be
000002e0: 1082 553e 3ddd 3a3c 2b6a eb3d f05b 97bd
000002f0: fdfd ea3d e9db 9abe d5cb f1be c17f a23c
00000300: 8bb0 13bd 6bfe 933d 18b1 d8be ac53 c0bd
00000310: 616b b0be dbd9 afbe 21a7 9ebd 8030 80be
00000320: 3ea5 6fbe e0d3 1d3e 460b d23d cc74 4e3e
00000330: 4e41 8a3d 57e4 61be 9be3 09be 2419 adbd
00000340: f652 7b3e dd63 63be 6c4f 8bbd 4e38 6d3d
00000350: 4fe8 d63d 29ff 383e 6430 b63d a30b bebd
00000360: 6bd2 e5bc 7cfc 073e 7987 c73d f6db 343d
00000370: 8058 ce3e 2fad ddbe 9aa5 c93e cff8 c83e
00000380: f90b 67be 802a b0bd 459b ad3c 102e 90be
00000390: df9e a3be 2b80 10bc 96ab 8c3e 65b4 ca3d
000003a0: 1a57 893d 56fd 6dbd 8bac 82be 8cf9 c7bd
000003b0: 32f4 95be e831 c33d 721d d6be 0beb 44be
000003c0: 9d3a 8fbe 49df 913e eb06 fcbc 6c4d 863c
000003d0: 39bb bfbe d441 bebe c29f ac3e ce65 b23e
000003e0: d3dc ea3e dd95 753e 2659 e0bc f5a5 f03d
000003f0: eb9c 11bf 3cbe a13e 3804 f9bd 678a c63e

bias f4 [256]
-0.20871918 -0.16824979 0.49241295 -0.41559935 0.2142676 0.007373671 -0.29896513 0.58317244
-0.02589937 0.22928856 0.41211355 0.4538035 -0.091214575 0.5462893 0.5470608 0.23693152
-0.3366917 0.27811182 0.33446208 -0.31347093 0.6403843 -0.12354825 -0.5330617 0.10614426
0.5300449 0.24555345 0.34531704 -0.55355847 -0.14038455 0.6799558 0.515009 -0.35671726
0.46587393 -0.120747566 -0.3328268 -0.42317015 0.2678186 0.1989149 -0.18106778 -0.20420751
0.5942268 0.2202532 -0.29015136 0.566792 -0.49679136 -0.25841495 -0.027703758 -0.09042255
-0.20111053 -0.6345347 -0.4654707 0.49008572 0.47097948 0.049391314 -0.48369533 0.111886375
-0.10390208 0.07244387 0.14821061 0.21626905 0.36774403 -0.49584526 0.25498793 0.30651453
0.1611483 -0.35321417 0.06290442 -0.31895098 -0.3095587 -0.24254012 -0.36128294 0.32257903
0.08086285 -0.09001747 0.37598544 0.36702883 -0.14123806 -0.37759116 -0.5201038 -0.37489158
-0.3166436 0.6364269 -0.34726238 0.052546527 -0.15039842 -0.33392048 -0.16214152 -0.32044297
-0.24820831 -0.42838964 0.108554505 0.59322786 -0.39538833 -0.36407098 0.1841076 0.47654644
-0.2238981 0.33448562 -0.06547388 -0.07672007 -0.24429171 -0.11422011 -0.5657612 -0.3450183
-0.39314887 0.25968277 -0.07100408 -0.44866958 0.6381699 -0.5659957 -0.29097968 -0.33515328
0.42311186 0.36743772 0.66879755 0.2987295 0.5406972 -0.21035217 0.042853285 0.27086902
0.066605255 -0.33327588 0.056038167 0.04946907 0.33699015 0.27334794 0.41549435 0.06927033
-0.20179513 -0.118517004 -0.39713764 -0.58053416 -0.56107026 -0.23975886 0.21145833 0.50779337
0.51266164 0.5303465 -0.31656995 -0.45187724 -0.35983855 -0.33685854 -0.18755694 0.17894323
-0.22765711 -0.048287127 0.67135686 -0.12546043 0.61034846 0.5796487 0.3761037 0.40497178
0.34746042 -0.107469626 -0.19277811 -0.07766469 0.33365756 0.57081723 -0.17255177 0.073317
0.28434956 0.008648088 0.09660051 0.17668125 -0.44207096 -0.21629173 0.3258489 0.14716332
-0.550853 0.124351695 -0.0037886896 -0.29243237 -0.12790303 -0.5436676 0.34663802 -0.078569986
0.07287931 0.5115181 -0.13925555 0.54108804 0.6733419 0.16258334 0.13984756 -0.029965388
-0.38618943 0.7722153 -0.15671796 -0.3487082 -0.3960139 0.074697904 -0.42648417 0.37058756
0.18023004 0.23327006 -0.5521925 -0.0012162967 0.34576282 -0.16255474 0.4089161 0.42303598
0.117984496 -0.14781728 -0.30070788 0.19725835 -0.21354668 -0.14921355 0.1773455 -0.30522949
0.50623876 0.46670157 -0.38340786 -0.078952596 0.6536843 0.5178035 0.16577855 0.25470832
0.04538587 -0.07509765 -0.4978368 0.44066575 -0.115682654 0.19291669 0.34846643 -0.38588974
-0.35968047 -0.084461145 -0.24383298 0.6404603 -0.38813132 -0.44601092 0.379431 0.3015723
0.5130097 0.5144992 -0.3898344 -0.06559275 0.022679493 0.41570798 -0.10446013 -0.18791798
-0.40851793 -0.40675208 0.064809084 -0.31714642 0.065994725 0.56488293 0.41005373 -0.09228053
-0.1689697 -0.56934345 0.0576374 0.32679114 0.06647662 0.45358613 -0.06419891 0.3081162
00000000: 7bba 55be ac49 2cbe 8d1d fc3e 70c9 d4be
00000010: f768 5b3e d69e f13b f511 99be ca4a 153f
00000020: ea2a d4bc 9fca 6a3e 8c00 d33e ef58 e83e
00000030: b5ce babd 9ed9 0b3f 2d0c 0c3f 2d9e 723e
00000040: db62 acbe ac64 8e3e 9d3e ab3e 437f a0be
00000050: 3af0 233f dd06 fdbd bb76 08bf 2962 d93d
00000060: 06b1 073f 5d72 7b3e 65cd b03e 02b6 0dbf
00000070: f8c0 0fbe 9511 2e3f a1d7 033f a5a3 b6be
00000080: 0787 ee3e 804a f7bd 4668 aabe c2a9 d8be
00000090: 851f 893e 59b0 4b3e d569 39be c61b 51be
000000a0: 3f1f 183f 0e8a 613e b88e 94be 4819 113f
000000b0: 705b febe f74e 84be fef2 e2bc 752f b9bd
000000c0: ebef 4dbe de70 22bf 2d52 eebe 84ec fa3e
000000d0: 3924 f13e 8c4e 4a3d eaa6 f7be af24 e53d
000000e0: 9dca d4bd 745d 943d 86c4 173e a275 5d3e
000000f0: f248 bc3e 6edf fdbe c78d 823e 79ef 9c3e
00000100: 0f04 253e 7dd8 b4be 08d4 803d 8b4d a3be
00000110: 7a7e 9ebe 705c 78be 14fa b8be 1429 a53e
00000120: 6c9b a53d 145b b8bd 2a81 c03e 34eb bb3e
00000130: b6a0 10be a153 c1be 8625 05bf caf1 bfbe
00000140: 1c1f a2be e0ec 223f 60cc b1be 073b 573d
00000150: 0b02 1abe a0f7 aabe 6d08 26be 1a11 a4be
00000160: 522a 7ebe e355 dbbe d351 de3d c8dd 173f
00000170: 5770 cabe 8367 babe b486 3c3e e5fd f33e
00000180: 8b45 65be b341 ab3e 2b17 86bd 691f 9dbd
00000190: 9b27 7abe 3cec e9bd bad5 10bf 3da6 b0be
000001a0: cf4a c9be 24f5 843e 966a 91bd 05b8 e5be
000001b0: 1a5f 233f 18e5 10bf 4afb 94be 3699 abbe
000001c0: 1ea2 d83e cc20 bc3e 5136 2b3f 13f3 983e
000001d0: 226b 0a3f 8f66 57be ed86 2f3d 58af 8a3e
000001e0: 5668 883d 23a3 aabe 4788 653d 14a0 4a3d
000001f0: f989 ac3e 43f4 8b3e adbb d43e 9add 8d3d
00000200: 62a3 4ebe 0bb9 f2bd a055 cbbe e39d 14bf
00000210: 4da2 0fbf 5983 75be 8888 583e bffe 013f
00000220: cb3d 033f cac4 073f 7515 a2be 745c e7be
00000230: c23c b8be b978 acbe ed0e 40be e53c 373e
00000240: f21e 69be b9c8 45bd 0bde 2b3f b378 00be
00000250: cc3f 1c3f db63 143f aa90 c03e 7658 cf3e
00000260: 55e6 b13e 0919 dcbd a067 45be aa0e 9fbd
00000270: 2ad5 aa3e 1421 123f 69b1 30be 3927 963d
00000280: 4496 913e b6b0 0d3c 7dd6 c53d eeeb 343e
00000290: 2057 e2be 947b 5dbe abd5 a63e fbb1 163e
000002a0: b404 0dbf 1aac fe3d aa4b 78bb b2b9 95be
000002b0: 03f9 02be cd2d 0bbf 8a7a b13e 4de9 a0bd
000002c0: bf41 953d daf2 023f 0299 0ebe bf84 0a3f
000002d0: 2260 2c3f 3f7c 263e 3334 0f3e f979 f5bc
000002e0: 9fba c5be e7af 453f ac7a 20be e289 b2be
000002f0: 55c2 cabe 37fb 983d 225c dabe a7bd bd3e
00000300: 398e 383e 59de 6e3e 7d5c 0dbf 256c 9fba
00000310: d307 b13e c074 26be 735d d13e 2c98 d83e
00000320: dba1 f13d 6a5d 17be 62f6 99be 18fe 493e
00000330: fbab 5abe 70cb 18be 0f9a 353e 0a47 9cbe
00000340: dd98 013f 82f3 ee3e 094e c4be e6b1 a1bd
00000350: db57 273f c58e 043f dac1 293e 2169 823e
00000360: 89e6 393d cccc 99bd 77e4 febe f19e e13e
00000370: 07eb ecbd f48b 453e 316a b23e 5793 c5be
00000380: 0a28 b8be f7f9 acbd 5aaf 79be 35f5 233f
00000390: 26b9 c6be 8b5b e4be c844 c23e af67 9a3e
000003a0: 9b54 033f 38b6 033f 6098 c7be 7e55 86bd
000003b0: 58ca b93c add7 d43e 31ef d5bd 926d 40be
000003c0: 4329 d1be cf41 d0be a0ba 843d 0461 a2be
000003d0: 3e28 873d 2b9c 103f 90f2 d13e 93fd bcbd
000003e0: 6506 2dbe 7ec0 11bf 3215 6c3d 2b51 a73e
000003f0: e524 883d 713c e83e b87a 83bd 68c1 9d3e

weight f4 [128, 256]
-0.044408638 0.038052164 -0.0864941 -0.08745995 -0.030233318 -0.03877799 -0.011094093 0.21468563
-0.07618722 -0.07485783 0.07416348 0.054670118 -0.16483593 0.049583506 -0.084575206 0.057114262
0.102065034 -0.21752632 -0.054121748 0.038858984 0.021064134 0.00719093 0.047420733 -0.07202889
-0.0972413 -0.063616365 -0.1212421 -0.07888562 -0.09081193 -0.034948494 -0.026585856 0.03639653
0.106754206 0.032518614 -0.009225159 0.07498535 -0.13629614 0.03857892 0.20361854 -0.015681043
0.057610303 -0.00087484275 0.061491787 0.081813596 0.00069566944 0.026700042 0.033727393 0.056915134
0.029728703 0.030543415 -0.03535144 0.03021933 -0.07736683 0.014864058 -0.040258624 -0.021872198
0.06898909 0.0050385594 -0.07322553 -0.01902713 -0.07137411 -0.0717092 -0.07082356 -0.015482343
-0.043543298 -0.020288602 0.013142828 0.020663176 -0.10965437 0.035775453 0.0057599368 0.010080185
0.020874012 -0.03416613 -0.059604153 0.031793967 -0.10103525 0.034562375 0.05127582 0.008999481
-0.110147074 -0.08567347 -0.035653494 -0.0025394042 -0.06046286 -0.13685806 0.04060062 0.037113905
0.058011413 -0.28222787 -0.12855665 -0.038088925 -0.05557765 -0.0046065683 -0.08537098 0.008519238
-0.024195664 0.046602376 -0.1499449 0.23217195 0.108063675 -0.09926279 -0.060191046 -0.0906082
-0.11612929 -0.1659209 0.040565055 0.001925298 -0.062049564 -0.118342444 -0.054507084 -0.054551736
-0.047881205 0.11029036 -0.03281081 0.025651358 -0.014369189 0.0028012982 0.015840081 -0.017306356
-0.035385225 -0.05988693 0.018016102 -0.005358958 -0.022582456 0.034816753 0.0044460045 0.042177185
-0.098173186 0.00294571 -0.018373352 -0.033701725 0.023844669 -0.06610129 -0.012294937 0.07586206
-0.08676731 -0.053864222 0.032636743 0.12134157 -0.10627187 -0.038810026 0.012668958 -0.2738448
-0.10732157 -0.15065297 0.044221908 0.051589232 0.03472972 0.018125469 0.03206131 -0.045203578
0.11116435 -0.06648792 -0.017940143 -0.030505158 0.007744794 0.037285212 -0.029336868 0.057765994
-0.12824579 -0.16622369 0.0020214622 -0.099900775 0.017634608 0.13297744 -0.055077698 -0.0841833
-0.03695416 0.11980309 -0.03681135 0.058200683 -0.025975041 -0.0727261 0.009247431 -0.03716959
0.029263945 -0.09072306 -0.060952023 -0.0022244137 -0.0041976655 -0.055055406 0.040061146 0.008703621
-0.20775352 -0.11630109 -0.008217278 -0.09366237 -0.12245225 -0.039665334 0.07030658 0.052990533
-0.07052813 -0.20352893 -0.0009932645 -0.073240794 0.072303616 -0.06802938 0.024536643 -0.025544843
-0.038038388 -0.12672013 0.055119142 0.169802 0.040686868 0.023244424 0.020460747 0.03852062
-0.06331008 0.0145765105 -0.029528212 0.0353366 0.022479765 0.029324595 -0.19789363 -0.009279086
0.07267821 0.08464903 0.017270204 -0.028993804 0.06919353 0.015425695 0.10325625 -0.017427549
0.019883923 0.0036811174 -0.07045309 0.07461989 -0.084304124 -0.054873895 -0.0026543066 0.08791211
-0.0436803 -0.09546045 -0.079973534 -0.021879679 -0.06460273 0.09193834 0.038398515 0.032901604
0.0141040385 -0.06520934 0.0070106266 0.014353109 -0.0058032414 0.05902895 -0.105328865 -0.003885409
-0.022365041 -0.04962779 -0.02236939 -0.016319871 -0.086519 0.021764232 -0.055543695 -0.05203689
00000000: d5e5 35bd 96dc 1b3d d223 b1bd 341e b3bd
00000010: ddab f7bc abd5 1ebd 00c4 35bc 8dd6 5b3e
00000020: 0c08 9cbd 104f 99bd 06e3 973d c6ed 5f3d
00000030: c0ca 28be 1318 4b3d c435 adbd a5f0 693d
00000040: 7907 d13d 38bf 5ebe c4ae 5dbd 992a 1f3d
00000050: b18e ac3c e5a1 eb3b 3e3c 423d e283 93bd
00000060: 7226 c7bd 4c49 82bd c74d f8bd c98e a1bd
00000070: 9bfb b9bd 2726 0fbd 95ca d9bc 8714 153d
00000080: f3a1 da3d 3d32 053d 1f25 17bc eb91 993d
00000090: 3791 0bbe ee04 1e3d 6181 503e 8875 80bc
000000a0: c8f8 6b3d b455 65ba d0de 7b3d e38d a73d
000000b0: 965d 363a 0cba da3c bc25 0a3d d81f 693d
000000c0: 9c89 f33c 2f36 fa3c accc 10bd 878e f73c
000000d0: 8072 9ebd 6188 733c 3ae6 24bd 532d b3bc
000000e0: 274a 8d3d 801a a53b 44f7 95bd c9de 9bbc
000000f0: 972c 92bd 46dc 92bd f10b 91bd a7a9 7dbc
00000100: 755a 32bd 4834 a6bc 0455 573c d245 a93c
00000110: 7892 e0bd 4889 123d dabd bc3b 5c27 253c
00000120: faff aa3c c9f1 0bbd 7c23 74bd 643a 023d
00000130: 92eb cebd 4791 0d3d 9806 523d 8f72 133c
00000140: ca94 e1bd 9275 afbd 6609 12bd 226c 26bb
00000150: e7a7 77bd 8524 0cbe d64c 263d c004 183d
00000160: 609d 6d3d 2c80 90be 5ba4 03be 2203 1cbd
00000170: 64a5 63bd b2f2 96bb fbd6 aebd 4694 0b3c
00000180: fc35 c6bc 22e2 3e3d 288b 19be 7cbe 6d3e
00000190: 7d50 dd3d 4a4a cbbd e38a 76bd cb90 b9bd
000001a0: 31d5 edbd 2be7 29be 8b27 263d 485a fc3a
000001b0: af27 7ebd 865d f2bd d242 5fbd a471 5fbd
000001c0: 151f 44bd eadf e13d a164 06bd cc22 d23c
000001d0: bf6c 6bbc fc95 373b 0fc3 813c 0fc6 8dbc
000001e0: 19f0 10bd ff4b 75bd 8196 933c 339a afbb
000001f0: d8fe b8bc 039c 0e3d caaf 913b fcc1 2c3d
00000200: 060f c9bd d00c 413b b683 96bc d20a 0abd
00000210: e555 c33c 1d60 87bd b470 49bc 915d 9b3d
00000220: 0fb3 b1bd bba0 5cbd 1bae 053d ee81 f83d
00000230: 11a5 d9bd 43f7 1ebd 7691 4f3c 6335 8cbe
00000240: 69cb dbbd c644 1abe 0822 353d 3b4f 533d
00000250: c040 0e3d dd7b 943c b852 033d 6327 39bd
00000260: 22aa e33d d22a 88bd 35f7 92bc f4e5 f9bc
00000270: 0ac8 fd3b 61b8 183d df53 f0bc 099c 6c3d
00000280: dd52 03be 8b36 2abe 827a 043b c798 ccbd
00000290: 7476 903c 3d2b 083e 2799 61bd 4b68 acbd
000002a0: 3f5d 17bd 535b f53d 80c7 16bd d763 6e3d
000002b0: 9cc9 d4bc 6cf1 94bd 8982 173c 243f 18bd
000002c0: f1ba ef3c 03cd b9bd d4a8 79bd 78c7 11bb
000002d0: 928c 89bb c781 61bd 2817 243d a299 0e3c
000002e0: 57bd 54be 442f eebd c3a1 06bc 0fd2 bfbd
000002f0: 3fc8 fabd 1e78 22bd e5fc 8f3d 9a0c 593d
00000300: 0d71 90bd e369 50be 6d30 82ba 45ff 95bd
00000310: eb13 943d fd52 8bbd 1201 c93c 6b43 d1bc
00000320: 24ce 1bbd ecc2 01be 9cc4 613d 93e0 2d3e
00000330: 46a7 263d 176b be3c 4c9d a73c ccc7 1d3d
00000340: b7a8 81bd 51d2 6e3c 26e5 f1bc 1cbd 103d
00000350: 7c27 b83c 223a f03c a1a4 4abe 4f07 18bc
00000360: 50d8 943d 785c ad3d 3e7a 8d3c 6a84 edbc
00000370: 56b5 8d3d 0ebc 7c3c 0378 d33d 38c4 8ebc
00000380: 9ce3 a23c e73e 713b b649 90bd 50d2 983d
00000390: a4a7 acbd 73c3 60bd e0f3 2dbb 440b b43d
000003a0: 1dea 32bd c580 c3bd 2ac9 a3bd 033d b3bc
000003b0: 704e 84bd 2b4a bc3d c347 1d3d d5c3 063d
000003c0: a014 673c 798c 85bd 66b9 e53b 4d29 6b3c
000003d0: 1e29 bebb 57c8 713d a9b6 d7bd 59a2 7ebb
000003e0: e436 b7bc 8246 4bbd 0340 b7bc 40b1 85bc
000003f0: e030 b1bd e74a b23c c981 63bd a224 55bd

bias f4 [128]
-0.016038595 0.14535464 -0.06476184 0.12948863 0.048935924 0.18623528 0.2744283 -0.06236545
0.20316783 0.1835913 -0.07062571 -0.12490587 -0.04234594 0.029652901 -0.096790865 -0.12709706
0.13155286 0.20382512 0.010195222 0.023244664 -0.17625064 0.13605003 -0.17344363 -0.2520826
0.26270285 0.27132913 -0.1265342 0.04821769 -0.22749938 0.10178173 0.25164768 -0.18284415
0.12931512 -0.19425029 0.02459102 -0.018565461 0.19542518 -0.06478425 0.118959054 0.020275053
-0.057038292 -0.0004916042 0.056652144 -0.18392667 -0.041664146 -0.1276942 0.17896993 0.28819245
-0.11938205 -0.18132342 0.2666057 -0.025072057 0.15723069 0.00772757 -0.15701911 -0.15738732
-0.13766609 -0.18979436 0.21910943 -0.0013646059 0.030144606 -0.0191356 0.121569894 0.22166479
-0.0018648527 -0.06555941 0.20252979 -0.0550782 0.23635788 0.012943956 -0.008863215 -0.051181816
0.028116005 0.16184539 -0.066337004 0.21908939 -0.020486616 -0.21392308 -0.050912127 0.014603768
-0.18217054 0.019269763 -0.03351583 0.25052994 -0.14099999 0.09157262 -0.11721288 0.055032384
0.22593884 -0.024390288 -0.044814058 -0.09982026 0.083198115 -0.16893496 0.30096766 0.015016921
-0.041067153 0.17432563 -0.11076715 -0.13351066 -0.16429047 0.012358582 -0.15967514 -0.17076588
-0.09354298 0.19294527 -0.04778535 -0.17125279 0.113007545 0.21884477 0.007370852 -0.14915118
0.2104764 -0.042016946 0.32011446 -0.040282737 -0.122707814 0.26049295 0.24740213 -0.026005315
0.2872125 -0.056169707 0.015282247 0.21004868 0.23062131 -0.061954636 0.040480934 -0.14715867
00000000: 5f63 83bc d9d7 143e dba1 84bd ab98 043e
00000010: 0971 483d 76b4 3e3e de81 8c3e ea72 7fbd
00000020: 3a0b 503e 5cff 3b3e 36a4 90bd a6ce ffbd
00000030: f072 2dbd a4ea f23c 4a3a c6bd bb25 02be
00000040: cbb5 063e 88b7 503e dc09 273c 986b be3c
00000050: 0c7b 34be b350 0b3e 359b 31be f810 81be
00000060: fd80 863e a7eb 8a3e 2e92 01be ea7f 453d
00000070: 99f5 68be f172 d03d f7d7 803e 7f3b 3bbe
00000080: 2f6b 043e 8ce9 46be 1b73 c93c 9816 98bc
00000090: 8a1d 483e 9bad 84bd cea0 f33d de17 a63c
000000a0: fca0 69bd 00df 00ba 140c 683d 4657 3cbe
000000b0: 06a8 2abd 45c2 02be e543 373e f68d 933e
000000c0: 947e f4bd d9ac 39be 8b80 883e ea63 cdbc
000000d0: 1501 213e 8e37 fd3b 9ec9 20be 242a 21be
000000e0: 57f8 0cbe 7459 42be 395e 603e 93dc b2ba
000000f0: d2f1 f63c 43c2 9cbc a3f9 f83d 18fc 623e
00000100: 136e f4ba 0344 86bd f863 4f3e ae99 61bd
00000110: cd07 723e e312 543c 0537 11bc 06a4 51bd
00000120: 8953 e63c ccba 253e b2db 87bd f858 603e
00000130: 8cd3 a7bc a70e 5bbe 3c89 50bd a444 6f3c
00000140: ea8a 3abe 9fdb 9d3c e547 09bd 7645 803e
00000150: 4d62 10be 6d8a bb3d 4e0d f0bd a369 613d
00000160: 835c 673e 24ce c7bc f28e 37bd 916e ccbd
00000170: c663 aa3d 49fd 2cbe 6f18 9a3e 8809 763c
00000180: 0836 28bd 6b82 323e e3d9 e2bd 05b7 08be
00000190: c33b 28be a67b 4a3c e181 23be 40dd 2ebe
000001a0: 7693 bfbd 7293 453e 92ba 43bd e45c 2fbe
000001b0: 8070 e73d d818 603e 3087 f13b 16bb 18be
000001c0: 2087 573e f619 2cbd 0be6 a33e 83ff 24bd
000001d0: 3c4e fbbd 555f 853e fc56 7d3e 1909 d5bc
000001e0: 840d 933e 3512 66bd 6462 7a3c 0017 573e
000001f0: fe27 6c3e 25c4 7dbd 56cf 253d c3b0 16be

weight f4 [128, 128]
-0.018192604 0.008234543 0.12787788 0.032187358 -0.0059999987 -0.032785155 -0.046545863 -0.055895187
0.11077885 0.12656313 -0.07764567 0.0917554 0.029039875 0.071571946 -0.16374291 0.00027513932
0.065138236 -0.0664296 0.052114036 0.072024256 0.12594783 -0.056424096 -0.2175698 -0.13774794
0.2429202 -0.06638951 -0.11254576 -0.044665717 0.035950664 0.095898025 0.084004715 -0.17977782
-0.08238809 -0.21037924 0.025761502 -0.16399373 0.0978015 0.013116047 -0.029156286 -0.057512622
-0.04647867 -0.06278882 -0.04935519 0.035057638 0.05167424 -0.08549483 0.111237384 0.040384315
-0.040168423 -0.010834114 0.10759408 0.03317001 -0.039753843 0.036171027 -0.23697256 -0.12835509
-0.038952876 -0.18455394 0.004918768 -0.055418354 -0.003141493 0.08017377 -0.082129955 -0.0430231
0.07750859 0.030258486 -0.014241125 0.007848671 -0.06238786 0.036416803 -0.06948429 0.078225784
-0.09165638 0.030617174 0.00040222076 0.11818285 -0.11257036 -0.046394195 0.12606792 -0.07657671
-0.14728656 0.048360627 0.08600334 -0.031057477 -0.20591147 0.0840836 -0.1923377 -0.055442277
0.09622008 -0.08466342 -0.033615977 -0.22194886 -0.13894342 -0.15257029 -0.031383205 -0.06453247
0.0035339133 0.040023755 -0.15758215 -0.078695424 -0.10148194 0.015481348 0.10968697 -0.101103954
0.10113499 0.08296847 -0.047544133 -0.16046453 -0.050634015 -0.06722209 -0.05169684 0.0059467903
-0.0038239497 -0.09757431 0.07066506 -0.07920907 0.12479292 0.02915954 0.043908235 -0.0871355
0.03289711 -0.023479288 -0.077136815 -0.0633221 0.15105715 0.08164246 -0.062340878 -0.18952629
-0.0016943974 -0.009449146 -0.105246365 0.110269554 -0.041418813 0.082830235 0.07309398 -0.09457645
-0.044391762 0.07354584 0.081040256 0.092072085 0.029104128 0.07029685 -0.03398787 0.0032788508
0.0052481806 -0.067122065 0.031030856 0.0832089 0.12457493 -0.1190674 0.13896641 0.09399632
-0.13063224 -0.0074183424 0.09165413 0.06397916 0.08376223 -0.110710055 -0.13829021 0.10140825
-0.028652506 -0.043918163 0.017862087 0.07591008 -0.05917568 0.05777927 -0.10866147 0.0035821034
-0.08242342 0.08307809 -0.03568915 0.06844689 0.054436933 0.13493052 -0.045899075 -0.05698247
0.0077980403 0.06694327 -0.04220098 -0.010559166 0.013140906 0.09624939 0.08383872 0.18836461
0.06837771 -0.016628517 0.030176211 -0.07061844 -0.1380579 -0.059022762 -0.0357065 -0.11889541
0.024909886 0.022259817 0.041891973 -0.017204449 -0.07812535 -0.078065075 -0.03779229 -0.05366544
0.05542718 -0.04941531 -0.08569256 -0.035725698 -0.0014587303 0.07210006 -0.23764056 0.032956988
0.1848067 0.047501374 0.07234643 -0.01946917 0.012639582 0.03234454 0.06970045 0.011034986
-0.011012836 0.0119292755 -0.07669252 0.13620293 0.0047463747 0.13060066 -0.08061953 0.079356216
-0.054887917 0.0030330473 0.013761946 -0.0060153757 0.00031428612 -0.052026253 -0.008432954 0.14949149
0.039473582 0.08421907 0.09555623 0.053658802 0.0413563 -0.07705164 -0.05291394 -0.013672016
-0.10694016 -0.025152598 -0.030132987 0.0655589 0.13430847 0.0018471376 0.018812096 0.04670926
0.011112657 0.12107011 -0.027051523 -0.007510673 -0.07370291 0.06544599 0.07332114 0.06449137
00000000: a808 95bc 2dea 063c 6bf2 023e e4d6 033d
00000010: a39b c4bb ba49 06bd e0a6 3ebd 5af2 64bd
00000020: 06e0 e23d c499 013e b104 9fbd 41ea bb3d
00000030: 08e5 ed3c 5094 923d 39ac 27be 9340 9039
00000040: 3267 853d 3e0c 88bd 8775 553d 7481 933d
00000050: 78f8 003e f41c 67bd 9eca 5ebe cc0d 0dbe
00000060: 13c0 783e 39f7 87bd 647e e6bd 66f3 36bd
00000070: 0141 133d 2f66 c43d aa0a ac3d ad17 38be
00000080: 16bb a8bd a86d 57be c909 d33c f9ed 27be
00000090: 274c c83d b0e4 563c 2ad9 eebc 5b92 6bbd
000000a0: 6b60 3ebd 6d97 80bd ab28 4abd 9998 0f3d
000000b0: 5ea8 533d ea17 afbd 6dd0 e33d 066a 253d
000000c0: a587 24bd 9181 31bc 495a dc3d 47dd 073d
000000d0: edd4 22bd 1228 143d efa8 72be 846f 03be
000000e0: 0d8d 1fbd b5fb 3cbe 9e2d a13b 5bfe 62bd
000000f0: 82e1 4dbb 2532 a43d c033 a8bd fd38 30bd
00000100: d3bc 9e3d a5e0 f73c 9c53 69bc b697 003c
00000110: 6a8a 7fbd c929 153d c84d 8ebd d734 a03d
00000120: 57b6 bbbd ded0 fa3c 28e1 d239 da09 f23d
00000130: 4a8b e6bd d707 3ebd f317 013e 40d4 9cbd
00000140: 4ad2 16be cb15 463d 8522 b03d 406c febc
00000150: 75da 52be 0634 ac3d 2df4 44be 7117 63bd
00000160: 090f c53d 0464 adbd e8b0 09bd 9046 63be
00000170: 2f47 0ebe 633b 1cbe ad8b 00bd 9a29 84bd
00000180: 3a99 673b f3ef 233d 375d 21be 112b a1bd
00000190: c3d5 cfbd 7ba5 7d3c 90a3 e03d 970f cfbd
000001a0: dd1f cf3d 60eb a93d a3bd 42bd d050 24be
000001b0: 9d65 4fbd bcab 89bd 11c0 53bd 4bdd c23b
000001c0: 3b9b 7abb 0ad5 c7bd d8b8 903d 5d38 a2bd
000001d0: 6e93 ff3d fddf ee3c 1fd9 333d 1974 b2bd
000001e0: 1fbf 063d a357 c0bc e8f9 9dbd 04af 81bd
000001f0: baae 1a3e 2934 a73d 2659 7fbd 2e13 42be
00000200: 8b16 deba 97d0 1abc 688b d7bd 01d5 e13d
00000210: c6a6 29bd e6a2 a93d 4cb2 953d 4cb1 c1bd
00000220: 23d4 35bd 349f 963d 6ff8 a53d 4a90 bc3d
00000230: c86b ee3c cbf7 8f3d dd36 0bbd fde1 563b
00000240: eef8 ab3b 4b77 89bd 6c34 fe3c 6e69 aa3d
00000250: 2421 ff3d 9cd9 f3bd 364d 0e3e 2581 c03d
00000260: 75c4 05be 9115 f3bb 29b5 bb3d 8107 833d
00000270: 888b ab3d f4bb e2bd f39b 0dbe 21af cf3d
00000280: a9b8 eabc 88e3 33bd 8353 923c be76 9b3d
00000290: 3362 72bd f5a9 6c3d e889 debd b9c1 6a3b
000002a0: 9ccd a8bd d824 aa3d c92e 12bd e22d 8c3d
000002b0: 43f9 5e3d 3a2b 0a3e ab00 3cbd 7366 69bd
000002c0: b486 ff3b 8e19 893d efda 2cbd 5a00 2dbc
000002d0: f44c 573c 661e c53d a3b3 ab3d a7e2 403e
000002e0: 9d09 8c3d 8738 88bc 1a34 f73c 67a0 90bd
000002f0: 0d5f 0dbe dac1 71bd fb40 12bd 707f f3bd
00000300: d10f cc3c 385a b63c eb96 2b3d 58f0 8cbc
00000310: 2f00 a0bd 95e0 9fbd 17cc 1abd 4bd0 5bbd
00000320: 9c07 633d b567 4abd 957f afbd 1c55 12bd
00000330: de32 bfba 32a9 933d 0c58 73be e8fd 063d
00000340: f83d 3d3e cd90 423d 5d2a 943d cf7d 9fbc
00000350: 4016 4f3c b57b 043d 1cbf 8e3d 16cc 343c
00000360: 2f6f 34bc 0273 433c f810 9dbd c878 0b3e
00000370: 7a87 9b3b 2ebc 053e da1b a5bd 8385 a23d
00000380: 27d2 60bd 17c6 463b c979 613c a11c c5bb
00000390: c5c6 a439 7b19 55bd 5f2a 0abc 4c14 193e
000003a0: 0daf 213d 0c7b ac3d fcb2 c33d 55c9 5b3d
000003b0: 3965 293d 40cd 9dbd 4abc 58bd 9700 60bc
000003c0: 7103 dbbd d20c cebc 74d9 f6bc bf43 863d
000003d0: 2988 093e a71b f23a d31b 9a3c 3652 3f3d
000003e0: dd11 363c 9bf3 f73d 289b ddbc 171c f6bb
000003f0: 8df1 96bd 8c08 863d 6529 963d 0d14 843d

bias f4 [128]
0.017719299 -0.1729787 0.054332733 -0.09861319 0.285954 -0.044192035 0.029153928 0.14558987
0.18255363 0.11426617 -0.18003626 -0.19058645 0.17038995 -0.042638432 0.06952015 -0.08273932
0.1370544 -0.09723829 0.15067352 -0.04420646 -0.18678701 0.24915881 0.058326177 0.15270396
-0.065820485 0.01650199 -0.19815119 0.026664734 -0.08201976 -0.014684937 -0.07209419 -0.14718242
0.2754842 -0.21042393 -0.20752105 0.16066413 0.027266573 0.090728864 -0.120381735 -0.023288656
-0.23528619 0.07062629 -0.16022576 0.019169934 0.23333141 -0.040544838 0.1202788 -0.005213328
-0.22289883 0.01766112 -0.20562862 -0.08776015 0.047156025 0.0134766 -0.021354144 -0.04240429
0.113643385 -0.08780129 0.14702016 0.099995025 -0.027378645 0.08973793 -0.021472087 -0.031594515
-0.057481658 0.014454294 0.034544285 0.10745796 0.14407258 -0.10035886 0.12916875 -0.06454477
-0.07333973 -0.0023901542 0.16553639 -0.039086565 0.22743662 0.18601374 0.032337107 0.039381556
-0.07752652 0.10962486 -0.030848442 0.13833828 0.09175809 0.214905 0.0048716166 -0.06578301
0.048343245 0.077026404 -0.035685956 0.13719858 0.21227045 -0.025474854 -0.08756269 0.021550333
-0.031937495 0.0920969 0.08988748 -0.12887721 -0.07782207 0.050687 -0.065192215 0.2061072
-0.13363585 0.15165134 0.08946086 0.2898016 0.030174527 0.1234942 0.21257424 0.0065465015
-0.066792294 0.16294517 -0.019987777 -0.0172375 -0.047241475 0.1501543 0.05158264 -0.16523317
-0.12398758 0.13492814 -0.08571752 0.16569406 -0.02349713 -0.02655154 0.05439921 -0.040176023
00000000: 1028 913c 5421 31be 008c 5e3d b6f5 c9bd
00000010: 9068 923e b502 35bd 38d4 ee3c 8315 153e
00000020: 57ef 3a3e 6204 ea3d 6d5b 38be 1829 43be
00000030: b47a 2e3e a3a5 2ebd 9560 8e3d 3c73 a9bd
00000040: fd57 0c3e de24 c7bd 294a 1a3e d511 35bd
00000050: 1845 3fbe 7d23 7f3e 6ee7 6e3d 6d5e 1c3e
00000060: e4cc 86bd 2e2f 873c 25e8 4abe 0070 da3c
00000070: faf9 a7bd 1799 70bc 1ea6 93bd fdb6 16be
00000080: 440c 8d3e 5f79 57be 6680 54be 2385 243e
00000090: 265e df3c 0ed0 b93d b38a f6bd dac7 bebc
000000a0: ddee 70be 84a4 903d 3912 24be 440a 9d3c
000000b0: 6eee 6e3e 5812 26bd bb54 f63d 91d4 aabb
000000c0: 973f 64be 0eae 903c 4f90 52be 98bb b3bd
000000d0: ad26 413d f5cc 5c3c e3ee aebc 1fb0 2dbd
000000e0: ddbd e83d 2ad1 b3bd 748c 163e 31ca cc3d
000000f0: 2e49 e0bc 85c8 b73d 3be6 afbc 4069 01bd
00000100: e371 6bbd b4d1 6c3c 4f7e 0d3d eb12 dc3d
00000110: c387 133e f288 cdbd d044 043e 0c30 84bd
00000120: 2433 96bd 22a4 1cbb 5f82 293e 3c19 20bd
00000130: 25e5 683e 637a 3e3e ea73 043d 8e4e 213d
00000140: 39c6 9ebd 0083 e03d dfb5 fcbc 8da8 0d3e
00000150: aaeb bb3d 0e10 5c3e 15a2 9f3b 3eb9 86bd
00000160: 9103 463d 05c0 9d3d 702b 12bd c97d 0c3e
00000170: 6d5d 593e a4b0 d0bc 1154 b3bd 538a b03c
00000180: e4d0 02bd 4d9d bc3d ed16 b83d 63f8 03be
00000190: 2d61 9fbd 2c9d 4f3d 7f83 85bd c40d 533e
000001a0: d6d7 08be 7d4a 1b3e 4137 b73d e060 943e
000001b0: 9230 f73c 87ea fc3d 10ad 593e 0984 d63b
000001c0: 66ca 88bd 19db 263e 68bd a3bc a835 8dbc
000001d0: 4780 41bd 0cc2 193e 5148 533d e232 29be
000001e0: 33ed fdbd 9a2a 0a3e ab8c afbd b4ab 293e
000001f0: 0e7d c0bc 9d82 d9bc b5d1 5e3d 9d8f 24bd

weight f4 [128, 128]
0.07754745 0.0026088478 0.015906515 -0.0455295 0.03786963 0.011645532 -0.043729987 0.082992725
-0.017023113 -0.08422036 -0.04483232 -0.07284163 -0.067068525 -0.07701925 -0.07409382 -0.0031348614
0.06807804 0.019143583 -0.04325198 -0.040276267 0.047371868 -0.0698693 -0.070899144 -0.083360165
-0.030162686 0.024038212 0.0011117496 0.08247368 -0.009610356 -0.07735207 -0.073605254 0.057654075
-0.022915505 0.021870768 -0.059250325 -0.06879127 0.07057752 -0.039636414 0.08171559 -0.080182895
0.0096778115 -0.027179122 -0.025329782 -0.0021131271 -0.08777097 -0.047266066 0.03923306 0.074844584
-0.024907997 -0.077750355 -0.031564396 0.051480815 0.0005842396 -0.00070152374 -0.08315827 0.07393826
-0.010214731 0.053099316 -0.043695416 0.0104881795 0.006569798 -0.010754895 0.009402192 0.043024525
-0.054328572 0.062307086 -0.007921774 -0.002572022 0.08373207 -0.07493123 -0.07022458 -0.031815097
0.019510597 0.04911703 -0.07116716 0.06712877 0.053511873 -0.06859758 0.043449417 -0.0069858083
-0.055976987 -0.05621826 0.033669524 -0.037682768 0.04078897 -0.027768683 -0.033173013 0.010117151
-0.017101347 0.008147122 0.054629415 -0.028140545 0.038031165 0.011301825 -0.056386497 -0.022499736
0.034295775 0.05523805 -0.033609487 -0.061309755 0.06243005 -0.086206466 0.06978401 -0.0014537713
-0.007860418 -0.005819837 -0.016640503 -0.021370592 -0.025629919 0.07178092 0.024756279 0.028694628
0.03708892 -0.061635055 -0.03719724 0.075890064 -0.08098625 0.03839969 0.07596174 -0.05065107
0.07386408 0.069766745 0.023816057 -0.03484361 -0.06208586 -0.010876173 -0.013382404 -0.0517459
0.07167426 0.048903544 0.005389761 -0.13014337 -0.1661883 -0.07278748 -0.14859256 -0.15628657
-0.16418283 -0.11315319 0.10446675 0.15426917 -0.117757194 0.05686719 -0.13903464 -0.06183043
-0.13646986 -0.022441095 -0.062000785 0.011732819 0.016553357 0.010642149 -0.042118702 0.0048364103
0.019486293 -0.032513436 0.09868664 0.04586132 0.12297215 -0.1540732 0.12795892 -0.016903492
-0.038212404 0.031128319 0.17520031 0.06122657 -0.059976026 -0.107017644 -0.07379254 -0.049638595
0.1327485 -0.043701734 0.049036577 -0.0072537675 -0.09161383 -0.01997121 0.013833506 0.059128165
0.029208533 -0.036558196 0.09433165 -0.03468183 0.06583876 -0.07960657 -0.04450259 -0.028615942
-0.17439032 -0.010418374 -0.10509158 -0.06888609 0.0709995 -0.25019112 0.036080316 -0.005921261
0.13029926 0.063275255 -0.029887788 -0.22302042 0.0878284 0.0530958 -0.15862927 0.0027899053
-0.016734844 -0.27269247 -0.0135726305 0.026710821 -0.08146433 -0.1089026 0.0964197 -0.062394354
0.07589272 -0.107252724 0.026270967 0.09901246 -0.035935566 0.05404527 0.10722733 0.07845366
0.0334266 -0.013329551 -0.048873592 0.05009117 -0.08805091 0.065101005 0.02193407 0.043039843
0.0068249446 0.013447249 -0.2718795 -0.053632796 0.04606103 -0.027732767 0.13710256 -0.052303873
0.059916034 -0.028253028 -0.071186066 -0.07809794 0.04439518 0.043222893 -0.20798612 0.014293231
0.015164152 0.023695175 -0.053665686 0.050327554 0.114975534 -0.17125471 0.040205725 0.15945506
0.044836532 -0.0209462 -0.0017673648 0.016379025 0.003523108 -0.06775433 0.14180692 0.050360493
00000000: 33d1 9e3d 34f9 2a3b 614e 823c 247d 3abd
00000010: 2f1d 1b3d e7cc 3e3c 371e 33bd 17f8 a93d
00000020: 0e74 8bbc b97b acbd 18a2 37bd fe2d 95bd
00000030: 395b 89bd 45bc 9dbd 80be 97bd 3f72 4dbb
00000040: 806c 8b3d 01d3 9c3c fd28 31bd baf8 24bd
00000050: 0109 423d a317 8fbd 9233 91bd bcb8 aabd
00000060: bd17 f7bc c9eb c43c 20b8 913a f6e7 a83d
00000070: c174 1dbc c36a 9ebd 5abe 96bd ae26 6c3d
00000080: 4cb9 bbbc 532a b33c 78b0 72bd 70e2 8cbd
00000090: f28a 903d cb59 22bd 815a a73d ee36 a4bd
000000a0: af8f 1e3c c0a6 debc 6780 cfbc 647c 0abb
000000b0: 44c1 b3bd 109a 41bd d8b2 203d 1e48 993d
000000c0: db0b ccbc 943b 9fbd ab49 01bd 8cdd 523d
000000d0: a827 193a 76e6 37ba e24e aabd f16c 973d
000000e0: b05b 27bc ab7e 593d f7f9 32bd 9dd6 2b3c
000000f0: 7647 d73b 4d35 30bc a70b 1a3c 7c3a 303d
00000100: a387 5ebd b735 7f3d 54ca 01bc 5e8f 28bb
00000110: b87b ab3d 8b75 99bd e8d1 8fbd 8c50 02bd
00000120: b0d4 9f3c f02e 493d 17c0 91bd cf7a 893d
00000130: 442f 5b3d e37c 8cbd 04f8 313d 35e9 e4bb
00000140: 2048 65bd 1e45 66bd 0ee9 093d 3f59 1abd
00000150: 5612 273d 267b e3bc 6de0 07bd 68c2 253c
00000160: 2018 8cbc 827b 053c 18c3 5f3d 0087 e6bc
00000170: 91c6 1b3d 4a2b 393c 87f5 66bd 5e51 b8bc
00000180: ba79 0c3d 4b41 623d 1aaa 09bd f01f 7bbd
00000190: a7b6 7f3d 048d b0bd ebea 8e3d 788c beba
000001a0: fcc8 00bc 55b4 bebb aa51 88bc 6111 afbc
000001b0: d6f5 d1bc e001 933d aecd ca3c ff10 eb3c
000001c0: 8dea 173d 0a75 7cbd 225c 18bd 406c 9b3d
000001d0: 1edc a5bd fe48 1d3d d491 9b3d 7f77 4fbd
000001e0: 0d46 973d dee1 8e3d e419 c33c 2cb8 0ebd
000001f0: be4d 7ebd fa31 32bc df41 5bbc 82f3 53bd
00000200: f4c9 923d 154f 483d 989c b03b 4e44 05be
00000210: 442d 2abe 9a11 95bd a628 18be 9609 20be
00000220: 8b1f 28be dcbc e7bd aaf2 d53d bdf8 1d3e
00000230: af2a f1bd 92ed 683d 195f 0ebe e841 7dbd
00000240: c1be 0bbe 63d6 b7bc 89f4 7dbd 023b 403c
00000250: e89a 873c 685c 2e3c a984 2cbd c07a 9e3b
00000260: b8a1 9f3c cf2c 05bd 391c ca3d 14d9 3b3d
00000270: d3d8 fb3d 5dc5 1dbe aa07 033e 3179 8abc
00000280: 9c84 1cbd d100 ff3c b667 333e b6c8 7a3d
00000290: 6ca9 75bd 112c dbbd 8b20 97bd d751 4bbd
000002a0: 39ef 073e 9700 33bd 94da 483d 03b1 edbb
000002b0: 08a0 bbbd aa9a a3bc eea5 623c 6030 723d
000002c0: bc46 ef3c 0cbe 15bd f430 c13d 890e 0ebd
000002d0: 79d6 863d c508 a3bd 5948 36bd fb6b eabc
000002e0: 6093 32be d4b1 2abc 413a d7bd 2614 8dbd
000002f0: 3068 913d 0d19 80be f4c8 133d 2307 c2bb
00000300: 2b6d 053e 7596 813d 3cd7 f4bc 775f 64be
00000310: 60df b33d fb7a 593d b66f 22be d8d6 363b
00000320: 8317 89bc 599e 8bbe bd5f 5ebc a7d0 da3c
00000330: c5d6 a6bd 5408 dfbd b177 c53d 3991 7fbd
00000340: a46d 9b3d 51a7 dbbd 3636 d73c 0bc7 ca3d
00000350: 2c31 13bd 935e 5d3d 019a db3d 50ac a03d
00000360: 55ea 083d 3064 5abc ad2f 48bd 662c 4d3d
00000370: 0954 b4bd ad53 853d 14af b33c 8c4a 303d
00000380: c9a3 df3b da51 5c3c ca33 8bbe 10ae 5bbd
00000390: 7eaa 3c3d d42f e3bc 9d64 0c3e 963c 56bd
000003a0: 846a 753d e572 e7bc 00ca 91bd d0f1 9fbd
000003b0: b8d7 353d 7d0a 313d 50fa 54be 282e 6a3c
000003c0: 1073 783c 621c c23c 8dd0 5bbd 4424 4e3d
000003d0: 4b78 eb3d 655d 2fbe c2ae 243d 3048 233e
000003e0: 83a6 373d 5d97 abbc eca6 e7ba 4e2d 863c
000003f0: f2e3 663b c8c2 8abd d535 113e ce46 4e3d

bias f4 [128]
-0.054582782 -0.11666709 0.017059602 -0.033173844 -0.023480954 0.070665 -0.061382398 -0.10311724
0.21550305 -0.10071868 -0.048184063 0.03955255 -0.029196795 0.055874266 -0.043800257 -0.0567511
-0.0051279147 0.13014475 0.10119139 -0.034593523 0.021846907 -0.06339399 -0.1025222 0.04695258
-0.08841421 -0.08441258 -0.025217488 0.18868656 -0.12366541 0.040065575 -0.13593242 0.20561764
0.057909817 -0.02637823 -0.048934277 -0.075316384 -0.08635607 -0.104408644 0.06285168 0.17486818
-0.0033694592 -0.049658656 0.04524711 0.005588597 -0.09682124 -0.17115477 -0.110582486 0.021719057
0.009850812 0.19662975 -0.17080641 -0.09377204 -0.11908424 -0.07811548 0.028382609 0.038203023
0.013820548 0.09633003 -0.024442842 -0.08865145 0.02678174 0.04256235 -0.06297619 0.12356571
0.08816118 -0.08553681 -0.09265073 0.1883732 -0.10226191 -0.00478301 -0.07885705 0.18522362
-0.05986711 -0.10302069 -0.041517284 -0.058658786 0.04564155 -0.17922898 -0.065557785 -0.04935821
-0.05346633 -0.0038508044 0.039635707 0.055130217 -0.033575304 0.06833957 0.15954223 0.12601608
-0.003403801 -0.006634288 -0.12977299 0.09518526 -0.009580081 -0.038634047 -0.04817395 -0.021982668
-0.0065394267 -0.06334841 0.06542394 0.04243998 -0.0064667864 -0.093299106 -0.14335842 -0.07874025
-0.010694326 -0.0039203158 0.08256242 0.015984727 0.03320772 0.18804795 -0.11584567 0.033101585
-0.078290164 0.118410625 -0.055795915 0.24675542 0.029856436 -0.041314922 0.062451143 0.023778321
0.109965764 -0.08112736 0.06700089 0.18543194 0.041894585 0.011611384 -0.10205695 0.059293542
00000000: 3292 5fbd 28ef eebd 94c0 8b3c 4ce1 07bd
00000010: 215b c0bc d0b8 903d 1c6c 7bbd 222f d3bd
00000020: d5ac 5c3e 9845 cebd a75c 45bd db01 223d
00000030: 1e2e efbc 6adc 643d e667 33bd d773 68bd
00000040: 1108 a8bb aa44 053e 6e3d cf3d f0b1 0dbd
00000050: 49f8 b23c b5d4 81bd 29f7 d1bd 5951 403d
00000060: 8212 b5bd 81e0 acbd e894 cebc 0d37 413e
00000070: 4a44 fdbd cd1b 243d de31 0bbe 6e8d 523e
00000080: d832 6d3d 2817 d8bc 4f6f 48bd 7a3f 9abd
00000090: 74db b0bd 33d4 d5bd 62b8 803d a510 333e
000000a0: 25d2 5cbb e066 4bbd 0955 393d 8d20 b73b
000000b0: 374a c6bd 3243 2fbe 1279 e2bd 2aec b13c
000000c0: 4d65 213c 4f59 493e e0e7 2ebe 8e0b c0bd
000000d0: 70e2 f3bd 02fb 9fbd a582 e83c c67a 1c3d
000000e0: 946f 623c ae48 c53d 5b3c c8bc e48e b5bd
000000f0: 6165 db3c dc55 2e3d a9f9 80bd 0510 fd3d
00000100: d98d b43d ec2d afbd aabf bdbd e7e4 403e
00000110: b16e d1bd ccba 9cbb ce7f a1bd 43ab 3d3e
00000120: 3737 75bd 83fc d2bd 070e 2abd 3244 70bd
00000130: a2f2 3a3d cd87 37be 2943 86bd d62b 4abd
00000140: 83ff 5abd c75d 7cbb 0d59 223d 39d0 613d
00000150: 4286 09bd 9ef5 8b3d 0a5f 233e 5c0a 013e
00000160: 4e12 5fbb 7164 d9bb 36e3 04be 7df0 c23d
00000170: c6f5 1cbc bc3e 1ebd 0c52 45bd ff14 b4bc
00000180: b048 d6bb d0bc 81bd fdfc 853d 8bd5 2d3d
00000190: 56e7 d3bb 9a13 bfbd 8dcc 12be 9142 a1bd
000001a0: 4137 2fbc fe75 80bb 7c16 a93d 67f2 823c
000001b0: d104 083d a48f 403e 7f40 edbd 8795 073d
000001c0: 9856 a0bd 4581 f23d 428a 64bd 74ad 7c3e
000001d0: 7c95 f43c d639 29bd c5cc 7f3d c1ca c23c
000001e0: bb35 e13d 1a26 a6bd c337 893d dfe1 3d3e
000001f0: a899 2b3d ad3d 3e3c 3c03 d1bd c9dd 723d

weight f4 [28, 128]
-0.06987529 0.11169012 0.061544634 -0.014428634 0.0634477 0.048522826 0.021629386 0.06799569
-0.22798496 0.01827307 -0.15139876 -0.03738193 0.17455469 0.058144104 -0.006963923 0.009483936
0.025172573 0.031188203 0.09130371 -0.023213703 -0.0064410004 -0.1609387 0.060924504 -0.020654107
-0.045170765 -0.08340252 0.11232355 -0.15824027 0.06296596 0.06759913 0.07270141 -0.1836103
0.016869234 0.025086302 -0.039382033 -0.04842677 -0.009632716 -0.052849047 -0.25492823 -0.052585322
0.0699885 0.09843222 -0.078894086 0.059849136 0.053896926 0.096826926 -0.0018845907 -0.015324387
0.00391772 -0.124502786 0.052064534 -0.048781518 0.13315587 0.021527767 0.08492383 -0.10200081
0.038509235 -0.0027630671 0.012479466 0.14287272 0.045685347 -0.056086697 -0.05690382 -0.1536873
0.041733425 -0.17749868 0.006963185 -0.04936521 0.065346405 0.07841947 -0.17222026 0.022689437
0.05619922 -0.015769016 0.08663242 0.023025135 -0.020453062 0.101212285 -0.17383732 -0.06803069
-0.017508136 0.028865162 -0.16857445 -0.08104203 0.013143031 -0.14831561 -0.23709877 0.021628164
0.0018727818 -0.008795636 -0.20806144 -0.014324212 -0.037675407 0.011247203 -0.030480761 0.0069644004
-0.02439784 0.080254845 0.04571199 0.0038598424 -0.002173687 -0.05573222 0.18215293 0.063333176
-0.008386918 -0.0012735319 -0.06056016 -0.054837637 -0.053390484 -0.16779338 -0.02884982 0.013482646
-0.018526347 -0.066769145 -0.27409863 -0.28861395 -0.0643742 0.061016023 -0.01057415 0.030352164
0.072715715 0.118754275 0.011954579 -0.14640394 -0.0749447 0.084706895 -0.060813807 -0.082069784
0.041115966 0.09295444 0.029354751 0.06148941 -0.08065082 0.014058788 -0.03982924 0.05874858
-0.010265186 -0.018941974 -0.103459984 0.0031136258 -0.05636324 -0.064896315 -0.051435176 -0.07726572
-0.09298703 -0.16534898 -0.21302113 -0.051283408 0.05813593 0.055771567 0.055160895 0.045325514
-0.0033959483 -0.4572623 -0.0014552829 0.021956116 0.003678396 0.03656515 -0.1204895 -0.06421131
-0.01271993 0.057182144 -0.07724759 0.050505817 -0.05383159 -0.009401773 -0.263815 -0.33335853
-0.033364907 0.08082152 0.094088465 -0.043528996 -0.0667319 0.11581561 0.054400224 0.042838823
0.05748734 0.02898119 0.09584795 -0.0672756 0.09315452 -0.07543316 0.09158392 0.00965857
0.04448583 -0.046017367 0.014334674 -0.09519582 0.037724655 -0.022438865 -0.010954697 -0.05987179
-0.045836985 -0.250501 -0.07308617 0.006148762 0.026641896 0.056845795 -0.061542794 -0.24877454
0.08412642 0.07663274 -0.054771673 0.015927682 0.0038218636 0.02093136 -0.20161375 0.05002241
-0.08037729 0.08050805 -0.04121524 -0.22785114 0.05791389 -0.08289744 -0.04476818 -0.032852057
-0.02139387 0.03352662 -0.253038 -0.028068516 0.013144471 0.030369097 0.0019086079 -0.14645794
0.007106012 -0.035348233 -0.07395896 0.074719384 0.05838844 -0.05803465 0.0907977 0.054251853
-0.043451633 -0.03425873 -0.2467957 -0.070365 0.07689629 0.024544835 -0.0018887346 -0.14573881
0.039117485 -0.14401168 0.18375704 -0.14372283 -0.05818486 -0.01865333 -0.0032056535 0.109567866
0.039792843 0.064291425 0.00583953 -0.031316154 0.012579777 -0.011119613 0.07744583 0.0720234
00000000: c71a 8fbd cabd e43d 3a16 7c3d 1466 6cbc
00000010: def0 813d dfbf 463d 1c30 b13c 5341 8b3d
00000020: e474 69be 68b1 953c 4708 1bbe cb1d 19bd
00000030: 77be 323e 8328 6e3d 9f31 e4bb 8362 1b3c
00000040: b636 ce3c 677e ff3c 71fd ba3d aa2a bebc
00000050: 070f d3bb 1dcd 24be f98b 793d cd32 a9bc
00000060: fb04 39bd f1ce aabd e409 e63d bd09 22be
00000070: 4cf4 803d 6a71 8a3d 7ae4 943d 5704 3cbe
00000080: 5931 8a3c ca81 cd3c 0e4f 21bd 265b 46bd
00000090: 8ad2 1dbc 3e78 58bd f485 82be b563 57bd
000000a0: 2156 8f3d d596 c93d 3993 a1bd 5e24 753d
000000b0: 06c3 5c3d 324d c63d 5f04 f7ba 2313 7bbc
000000c0: 3860 803b 51fb febd 9f41 553d 21cf 47bd
000000d0: 035a 083e 005b b03c 8cec ad3d cde5 d0bd
000000e0: dcbb 1d3d 9314 35bb ad76 4c3c 3a4d 123e
000000f0: 8f20 3b3d 2abb 65bd fb13 69bd 3460 1dbe
00000100: abf0 2a3d 37c2 35be 6e2b e43b 2d33 4abd
00000110: 56d4 853d 639a a03d 825a 30be 33df b93c
00000120: 2731 663d 062e 81bc 576c b13d 359f bc3c
00000130: 2e8d a7bc 6348 cf3d 6902 32be ad53 8bbd
00000140: 396d 8fbc a276 ec3c c89e 2cbe 5df9 a5bd
00000150: de55 573c 0ce0 17be 05ca 72be 8c2d b13c
00000160: 2178 f53a 921b 10bc 0f0e 55be 1ab0 6abc
00000170: 8751 1abd 3046 383c cab2 f9bc a035 e43b
00000180: fbdd c7bc a75c a43d 7f3c 3b3d 69f5 7c3b
00000190: 6b74 0ebb 7847 64bd 4c86 3a3e d3b4 813d
000001a0: 4969 09bc a4ec a6ba ee0d 78bd 6e9d 60bd
000001b0: fbaf 5abd 07d2 2bbe 7556 ecbc 51e6 5c3c
000001c0: 91c4 97bc 43be 88bd a856 8cbe 35c5 93be
000001d0: 9fd6 83bd f0eb 793d 333f 2dbc 1aa5 f83c
000001e0: faeb 943d 7135 f33d 23dd 433c eaea 15be
000001f0: 9b7c 99bd cf7a ad3d e617 79bd 3414 a8bd
00000200: 3769 283d e65e be3d 6079 f03c 52dc 7b3d
00000210: 422c a5bd d556 663c fc23 23bd 5aa2 703d
00000220: 502f 28bc 332c 9bbc d4e2 d3bd f90d 4c3b
00000230: 24dd 66bd 5ce8 84bd b1ad 52bd 7d3d 9ebd
00000240: fc6f bebd 3e51 29be 3622 5abe 8d0e 52bd
00000250: f11f 6e3d ba70 643d 64f0 613d 3fa7 393d
00000260: 8f8e 5ebb 491e eabe 31bf beba 50dd b33c
00000270: 3f11 713b 57c5 153d 33c3 f6bd 3881 83bd
00000280: 4167 50bc d337 6a3d fc33 9ebd 30df 4e3d
00000290: 837e 5cbd e509 1abc c212 87be f8ad aabe
000002a0: a4a9 08bd c185 a53d 74b1 c03d 764b 32bd
000002b0: bcaa 88bd bc30 ed3d c5d2 5e3d c377 2f3d
000002c0: d877 6b3d f669 ed3c ee4b c43d cac7 89bd
000002d0: ccc7 be3d b37c 9abd 5a90 bb3d fb3e 1e3c
000002e0: c636 363d b57c 3cbd fbdb 6a3c 07f6 c2bd
000002f0: 2b85 1a3d b6d1 b7bc 547b 33bc 1f3c 75bd
00000300: 90bf 3bbd ab41 80be 34ae 95bd 8e7b c93b
00000310: 1b40 da3c 23d7 683d 4c14 7cbd c1be 7ebe
00000320: 794a ac3d a0f1 9c3d 4358 60bd c57a 823c
00000330: 3b78 7a3b 3e78 ab3c d673 4ebe 4ce4 4c3d
00000340: d99c a4bd 68e1 a43d 50d1 28bd cf51 69be
00000350: 1d37 6d3d 22c6 a9bd d75e 37bd e18f 06bd
00000360: 3242 afbc 3653 093d 328e 81be f2ef e5bc
00000370: e85b 573c 9dc8 f83c 412a fa3a 12f9 15be
00000380: 8dd9 e83b 4fc9 10bd cc77 97bd 7a06 993d
00000390: b828 6f3d beb5 6dbd 25f4 b93d 3137 5e3d
000003a0: 57fa 31bd e252 0cbd 03b8 7cbe 861b 90bd
000003b0: cd7b 9d3d 4012 c93c 6b8f f7ba 8e3c 15be
000003c0: a839 203d cc77 13be ce2a 3c3e 142c 13be
000003d0: 3f53 6ebd dece 98bc f115 52bb 1e65 e03d
000003e0: d2fd 223d 39ab 833d 8759 bf3b 5e45 00bd
000003f0: 691b 4e3c 0a2f 36bc eb9b 9e3d 0181 933d

bias f4 [28]
-0.24731466 -0.07228667 0.039931845 0.021757726 0.001738175 0.005594129 0.14853294 0.015849156
-0.04965943 0.012649571 -0.023293002 -0.013039266 0.008931559 0.018252756 0.0031196326 0.033789653
-0.049091235 -0.057068374 -0.041427035 -0.10386963 -0.0943113 -0.10804459 -0.010276799 -0.025646834
0.004435592 -0.045673415 -0.066088066 0.04313828
00000000: 0e40 7dbe 090b 94bd 938f 233d 423d b23c
00000010: 7ad3 e33a f54e b73b 0519 183e 17d6 813c
00000020: b067 4bbd 2540 4f3c f7d0 bebc a5a2 55bc
00000030: ac55 123c ce86 953c c072 4c3b 0567 0a3d
00000040: e413 49bd 87c0 69bd 65af 29bd 9ab9 d4bd
00000050: 4826 c1bd 7b46 ddbd 0560 28bc 4f19 d2bc
00000060: 7158 913b 0c14 3bbd 2e59 87bd c4b1 303d
