DeepControlledLearning/PolicyWeights/perishable_systems_m5_l1_cvr1.000000_f0.500000_DCL0/_gen.pth (torch, 295356 bytes, 10 tensors)

weight f4 [256, 5]
000000 1a 21 52 be 7c 8b 14 bd 5f 0e 8c 3e e5 14 f1 3d
       -0.2052044 -0.036265835 0.27354714 0.117715634
000010 e5 22 ba bd 4c 21 c0 3e 0b aa 8c 3e 86 11 cd 3e
       -0.09088687 0.37525403 0.27473482 0.40052432
000020 15 fd ee 3d 4e 01 46 be 45 e0 1f be 19 25 b3 be
       0.11669365 -0.19336435 -0.15612896 -0.3498924
000030 79 1f 7b bd a0 ba 9e 3d 61 48 05 3e c8 3d 6f 3e
       -0.06130931 0.0775044 0.13015892 0.23363411
000040 94 3e 8a be 98 79 fb be 8f 54 18 be c0 fa a0 be
       -0.27000868 -0.49116206 -0.14876007 -0.31441307
000050 f0 15 84 be 3f c5 17 3c 2f 9c 72 bd 26 bc af be
       -0.25797987 0.009263336 -0.05923098 -0.34323233
000060 ef 0d 96 be 2f 79 fa be 15 7c b0 be b4 59 5b 3e
       -0.29307505 -0.4892058 -0.34469667 0.21420938
000070 7d 45 9b be 38 8f b3 bd 4a e8 e3 3e d2 c3 d0 bd
       -0.30326453 -0.08767551 0.4451316 -0.101936
000080 b8 6e 3a 3d 87 cf ea be 12 7e a6 be 7c 66 1c 3d
       0.045515746 -0.45861456 -0.3251806 0.038183674
000090 18 bb f9 bc eb 7f a3 3c fd 2c 48 bd 6c 65 ce 3e
       -0.030484721 0.019958457 -0.04887103 0.40311754
0000a0 83 4d b5 3c 87 d3 c9 be 3a bd cc 3d 01 a2 b4 be
       0.022131687 -0.39419195 0.099970296 -0.3527985
0000b0 67 2c 9e 3e ed 4e 89 be c4 c3 c4 3e 0e 57 e2 3e
       0.3089325 -0.26818028 0.38430607 0.44207042
0000c0 b7 76 c6 3c 98 4c eb 3d 6a fa 9b 3d cc 05 6d 3e
       0.02422653 0.114892185 0.07616122 0.23146743
0000d0 61 93 7e 3e d3 23 8e 3e f7 cb 92 3d 0c 63 a9 be
       0.24860908 0.27761707 0.071678095 -0.3308338
0000e0 2b 1f e2 3e 21 c6 09 3e a5 8c c8 3e 14 a8 0a 3d
       0.44164404 0.13454486 0.39169803 0.033851698
0000f0 a8 a0 ce 3e 70 d6 0e 3d 3d 3c dc 3d 96 39 c3 be
       0.40356946 0.034872472 0.10753677 -0.38129872
000100 68 53 6d 3e 93 d7 10 3d 6a bb 3a be ee 13 67 be
       0.23176348 0.035361838 -0.18235555 -0.22566196
000110 84 06 ca be 2c 20 92 3e 3e 43 97 3e 19 20 bd 3d
       -0.39458096 0.2854017 0.2954349 0.09234638
000120 ad 08 c5 be df ed c4 bd 63 d6 95 be 0a 78 fa 3d
       -0.38483182 -0.09615683 -0.29265127 0.12229927
000130 dc c2 8f 3d e6 20 54 be 08 c5 ad 3b 8b 7a dd 3d
       0.07019588 -0.20715675 0.005303029 0.10814389
000140 45 ea 63 bd 2b 55 a9 3e 25 ca 9f 3e ad 1a 1f be
       -0.05564334 0.3307279 0.31208912 -0.1553752
000150 88 d7 6d 3e be 22 af 3e 24 30 84 3d f4 9f 1a 3e
       0.2322675 0.34206194 0.064544946 0.1510008
000160 2d 65 86 be 4c c0 96 be 99 c3 3c be d1 b7 e0 3d
       -0.26249066 -0.29443586 -0.1843399 0.1097256
000170 3a b2 94 3e 57 f5 68 3e 65 78 a8 be 03 cc d3 bc
       0.29042226 0.2274984 -0.32904354 -0.025854116
000180 bd a9 2c 3d 6f a1 cb 3e 88 ef d0 3e 9e a8 98 3e
       0.042154063 0.39771602 0.40807748 0.29816145
000190 5a 96 92 3d c9 50 97 3e 04 ca a6 3d 2d 3a 14 be
       0.071575835 0.29553822 0.08144 -0.14475317
0001a0 f7 c1 95 be 5c ed 44 be 3f 43 86 be c0 66 bb 3e
       -0.29249546 -0.1923117 -0.2622318 0.3660183
0001b0 d2 04 61 bd 3a 3e 5b 3e e2 df 84 3c 16 e9 7e 3e
       -0.054936238 0.21410456 0.016220037 0.24893603
0001c0 c2 9b d3 3e 33 20 fc 3d b3 62 3d 3e d7 6a d9 be
       0.4132977 0.12310829 0.18494682 -0.42464325
0001d0 a8 0f 56 be 3c 51 df 3e 6b d3 9e 3d ee c0 e9 bd
       -0.2090441 0.43616664 0.077551685 -0.114137515
0001e0 19 55 db 3e 8d 95 ad be 86 ca 48 3c d0 a0 80 be
       0.42838362 -0.3390316 0.012255317 -0.2512269
0001f0 81 09 d3 be 66 d0 8a bd 66 e1 93 3e 1f 24 77 3d
       -0.41218188 -0.0677803 0.28882903 0.060337182
000200 d6 63 82 3e 34 a2 0e 3d cb 71 e3 be 1b df d0 3e
       0.25466794 0.034822658 -0.44422755 0.40795216
000210 87 d3 05 be 46 2e b0 be 9a c2 73 3d 2b be dd be
       -0.13068973 -0.34410304 0.05951176 -0.4330915
000220 f7 63 74 3e bb b8 57 be cd 19 ba bb c0 f3 ed 3d
       0.23866259 -0.21066563 -0.005679345 0.11618757
000230 94 1c de 3e 76 b8 88 be e5 98 22 be a8 1b 19 be
       0.43381178 -0.26703233 -0.15878637 -0.14951956
000240 00 dc a6 bd 38 1e c5 3e 84 25 c0 be eb f6 38 3d
       -0.081474304 0.38499618 -0.37528622 0.045157354
000250 d5 5f e5 bc 96 9a dc 3e 95 cb a7 3e e7 9c 87 3e
       -0.027999798 0.4308669 0.32772508 0.26486894
000260 4c f0 ae bd 7d 2e c1 3c 14 c9 c5 be 62 98 44 3e
       -0.08541927 0.023581738 -0.38629973 0.19198754
000270 1d f5 b8 be 01 ef 89 be 2d b7 98 3e c4 10 ba be
       -0.36124507 -0.26940158 0.29827252 -0.36340916
000280 e6 b4 ae 3e a3 d4 ac be b7 d3 55 bb 9f 84 f6 3d
       0.3412239 -0.3375598 -0.0032627413 0.12037014
000290 11 ee ff 3d db 30 06 bd f7 ef de 3d a0 33 9c bc
       0.124965794 -0.032761436 0.108856134 -0.019067585
0002a0 3e 7e df 3e 24 89 f1 bc f6 02 eb be 65 5c 4e bd
       0.43651003 -0.029484339 -0.45900697 -0.050381083
0002b0 9d 47 42 3c 63 84 81 3d c9 e3 72 be 00 9c 2e 3e
       0.011857894 0.06324079 -0.23719706 0.17051697
0002c0 ac db 9d 3c f6 c5 be 3a d7 6c 17 be 91 68 40 be
       0.019269787 0.0014554847 -0.14787613 -0.18789889
0002d0 7c 61 ca 3e 93 53 84 3e 5b 3e d3 be df c8 4d bc
       0.395275 0.25845012 -0.4125851 -0.012560098
0002e0 a9 46 18 be f5 3d 7f 3e d8 a8 00 be b4 8e c3 bd
       -0.14870705 0.24925978 -0.12564409 -0.09548703
0002f0 d5 f8 95 3e a5 58 ad 3c cf 22 d3 3d a8 f0 c9 3c
       0.29291406 0.021160433 0.103093736 0.024650887
000300 12 1b 13 3e 2c 20 c5 3e d5 91 b1 be db bf 85 3e
       0.14365795 0.38501108 -0.34681574 0.26122937
000310 05 ca 0d 3e 35 c4 1d 3e 59 d8 85 bd a1 a1 03 3e
       0.13846596 0.15406878 -0.06535406 0.12854625
000320 56 ea de bd 3d 97 a0 bd 3a df be be 45 0f 9f 3e
       -0.1088454 -0.078413464 -0.37279683 0.31066337
000330 f2 58 c2 bd 5f 98 b5 be e7 df be be 29 97 bb 3e
       -0.09489621 -0.35467812 -0.372802 0.36638764
000340 54 2c 5a 3e a4 8a b6 3e 7f cc 05 bf 93 ff 6c 3e
       0.21305972 0.3565265 -0.5226516 0.23144369
000350 d6 3d b0 3e 4c 67 1f 3e bd b1 52 be 8d 86 80 be
       0.34422177 0.15566748 -0.20575614 -0.25102654
000360 ae 5c 16 be c2 b6 d7 be c5 c8 d5 bd ca 48 ab be
       -0.14683792 -0.4213162 -0.104386844 -0.3345397
000370 cf c7 88 3d f6 30 c6 3e dc dc 8c 3d b1 4d 71 be
       0.066787355 0.3870923 0.06878063 -0.23564793
000380 29 35 a8 be ac af af 3e b4 03 99 be a1 ca e3 be
       -0.32853058 0.34313715 -0.29885638 -0.4449053
000390 80 06 04 bf 27 6a 9c be 36 ad 98 be fb ec cf 3e
       -0.5157242 -0.30549738 -0.2981965 0.4061049
0003a0 08 77 81 3e 85 0a a0 be 5f b9 c4 be 15 d3 a4 3e
       0.25286126 -0.31258026 -0.38422677 0.32192293
0003b0 33 53 e7 3c a4 04 85 3e 2c a1 68 3e aa cb c4 be
       0.028237915 0.25980103 0.22717732 -0.38436633
0003c0 d0 28 ae be 1c 6b aa be fe 70 4e bc f5 4a 2b 3e
       -0.34015512 -0.33284843 -0.012600182 0.16727813
0003d0 f5 e0 a4 3e 0a 8d c9 bd 75 08 ec bd 03 a9 0e 3e
       0.3220288 -0.09841354 -0.115250506 0.1393166
0003e0 c4 8c 52 3e cc 4e 9f 3e 36 61 38 be d8 0d 7a be
       0.2056151 0.31114805 -0.18005833 -0.24419343
0003f0 ec e2 0c be b1 16 29 3e c1 74 59 be 3f af dd bd
       -0.13758439 0.16512562 -0.21235944 -0.10824441

bias f4 [256]
000000 74 40 0f 3f 18 57 8e be bd f1 56 bd e1 25 1d 3e
       0.5595772 -0.27800822 -0.052476633 0.15346481
000010 32 a2 8b be 66 c7 13 3e 00 b8 7e be b5 6e be 3e
       -0.27272183 0.14431533 -0.24874878 0.37193838
000020 ed 81 e3 3e d5 a1 05 bf 80 0a 73 be cc 20 0f bf
       0.44435063 -0.5220006 -0.23734474 -0.5590942
000030 29 54 e7 be 7d 40 fc 3e bc 9a 20 be 99 b6 cb 3e
       -0.45181397 0.4926795 -0.15684026 0.39787748
000040 9e 3d f2 3d f0 c4 d2 3e 6d 3f 54 3e aa 68 63 be
       0.11828159 0.41165876 0.2072732 -0.22207895
000050 b6 a3 d1 be 74 32 b7 be 08 f7 f0 be 1c 85 b0 3e
       -0.40945214 -0.3578068 -0.4706347 0.34476554
000060 40 63 dd bd 03 94 76 be 0d 68 e7 3e 60 69 16 3f
       -0.10809946 -0.240799 0.45196572 0.5875454
000070 42 9d 11 3e 68 21 bf be 73 22 40 3d 5a e0 d1 be
       0.14220145 -0.37330174 0.046907853 -0.4099148
000080 34 96 10 be 1b e9 a3 3e c0 11 ec 3e 53 2c 2e be
       -0.14119798 0.32013783 0.46107292 -0.17009096
000090 6e a9 88 be 85 36 1c be 1a bb d6 3e 7b 3d 8b be
       -0.26691765 -0.15255173 0.41939622 -0.27195343
0000a0 7a 03 f6 be 7c e3 9d be 32 0b cb 3e 1e ae 09 3e
       -0.48049527 -0.3083762 0.3965698 0.13445327
0000b0 7c 2c b2 be 50 e1 bc bc 02 ad 6a be 7f 50 02 be
       -0.34799564 -0.023056656 -0.2291756 -0.1272602
0000c0 a5 79 6e 3e 2a b8 bc 3e a8 46 0c 3f 18 cc a7 be
       0.23288591 0.36859256 0.5479531 -0.327729
0000d0 9d 68 25 be fa d9 c0 3e d5 28 e0 be 60 a8 0c 3f
       -0.16153188 0.37666303 -0.43781152 0.5494442
0000e0 e2 46 d3 be 8a 02 d2 3e 5a 83 fc 3e 68 5a 8d be
       -0.41265017 0.41017562 0.49318963 -0.27608037
0000f0 0c 29 0a be 7f 51 b6 be fb e5 81 be 3e 43 09 be
       -0.1349222 -0.35609052 -0.25370774 -0.13404557
000100 ef 55 02 3f de b4 b7 be 66 0e 96 3c b3 79 8c 3e
       0.50912374 -0.35880178 0.018317413 0.274366
000110 63 e9 ff be 97 1f 0c 3f f8 10 a6 3e 0c 5a ca 3e
       -0.49982747 0.547357 0.3243482 0.39521825
000120 c0 66 02 3f a1 b7 f4 be db 22 1c 3d 73 b0 fb 3e
       0.50938034 -0.47796348 0.03811918 0.49158058
000130 ca 81 8a 3e de 4a 3b 3e a0 6d 92 bd 14 c7 d8 be
       0.27052146 0.18290278 -0.071498156 -0.42339385
000140 4e 1b ae be 63 db bd 3e cb 90 0e bf 7b 38 fa be
       -0.34005207 0.3708144 -0.55689687 -0.48871216
000150 35 27 6b be c3 a1 e0 3b 55 9e a7 3d 3f 7f ab be
       -0.22964175 0.006855221 0.08184496 -0.3349552
000160 29 cc 9f 3e af 1f 08 3f ca dd b3 3e 13 84 6e be
       0.3121045 0.53173345 0.3513015 -0.2329257
000170 a3 24 3a 3e a0 e4 7c 3e 05 58 c5 3e 8e b7 e1 be
       0.18178038 0.24696589 0.38543716 -0.44085354
000180 46 7c 4a 3e 0d 96 81 3e 89 8d 04 3f 06 67 b6 bd
       0.19773969 0.25309792 0.51778466 -0.08906369
000190 bd 2c 60 be 7b 2d 77 be 18 0f 11 3e 81 70 4c 3e
       -0.21892066 -0.24138443 0.14165914 0.19964792
0001a0 04 ae eb 3e d9 9c 87 3e ff e8 14 3e e1 2f 11 3e
       0.460312 0.26486853 0.14542006 0.1417842
0001b0 aa 11 7a 3e 32 97 0d 3d 99 7b b0 be 1d c9 e1 bd
       0.24420801 0.03456802 -0.34469298 -0.110246874
0001c0 0f 20 c5 3e 33 37 8e be 67 c6 82 be d3 23 f4 3e
       0.3850102 -0.2777649 -0.25541994 0.47683582
0001d0 d7 f7 52 3d d1 04 92 3e a7 55 ef 3e 36 ee 3d be
       0.05150589 0.285193 0.46745035 -0.18547902
0001e0 00 e8 d2 bd e8 de af be e8 b9 0a bf 33 80 9f 3e
       -0.10298157 -0.3434975 -0.5418992 0.31152496
0001f0 af 41 82 3e 28 52 c2 3d 89 d4 5f be 8b cf c3 be
       0.25440738 0.09488326 -0.2185842 -0.3824428
000200 3c ad 9f be 3b 32 09 3f 9d 4e a2 3e 3c eb f1 be
       -0.31186855 0.5359227 0.31700602 -0.47249782
000210 1c 91 e5 3d 6a 69 c6 3e b7 fa fe 3d 99 41 d9 bd
       0.11209318 0.387523 0.12450164 -0.10608215
000220 7d be d1 3e d4 50 46 3d ec 52 00 3f 87 7b 27 be
       0.40965644 0.048416927 0.5012653 -0.16355716
000230 62 19 35 be 5d 49 ae 3e 9b ef e4 be 83 07 14 be
       -0.17685464 0.34040347 -0.44714054 -0.1445599
000240 c7 93 c6 3e d3 5d 4f be c4 96 9c 3e 4d 6c f7 3e
       0.3878462 -0.20250635 0.30583775 0.48324814
000250 d4 09 14 3f 83 81 70 be 4c 1d 34 be b7 ae a4 3e
       0.57827497 -0.23486905 -0.17589301 0.32164547
000260 fb e6 93 be d4 ab db be 69 0d 99 be 1c e8 ec be
       -0.28887162 -0.42904532 -0.29893044 -0.46270835
000270 c1 01 ec 3c 21 ac b4 3c 89 b2 84 be f1 3a 78 3e
       0.02880943 0.022054734 -0.25917462 0.24241234
000280 50 28 6a be 38 12 a3 be 04 09 c6 be 7e 03 ed bd
       -0.2286694 -0.31849837 -0.38678753 -0.11572932
000290 dc 18 0a 3f 07 df 81 bc 45 62 b5 3e ae 83 de bd
       0.5394418 -0.015853418 0.35426536 -0.1086496
0002a0 a8 0b 77 bd 19 42 dd be c8 bf ea 3e bb dc ba 3e
       -0.06031385 -0.4321449 0.45849442 0.3649653
0002b0 54 76 fa bc 38 8c a9 3e 9c d9 94 bd ba 62 fc 3e
       -0.030574001 0.3311479 -0.07268068 0.49294072
0002c0 c2 c9 0f 3d 71 c9 60 3e 4c 2c 00 be a0 79 31 be
       0.03510452 0.21951844 -0.12516898 -0.17331553
0002d0 53 b8 88 be 89 4c 6f 3e 6b 70 e6 be 7b a4 2c 3e
       -0.26703128 0.2336904 -0.45007643 0.1685962
0002e0 a2 5d db bc 91 bf 99 be 34 a6 8d be 6e 70 af be
       -0.026778046 -0.30028966 -0.27665865 -0.34265465
0002f0 b6 cb 84 bc ab b3 88 be 12 cc 15 3f 0c ea 70 be
       -0.016210418 -0.26699576 0.5851451 -0.23526782
000300 6f 56 d9 3e c7 80 b3 be d4 03 dc be 33 3d 02 be
       0.42448756 -0.35059187 -0.4297167 -0.12718658
000310 a4 e5 a3 3e cb 0a 46 3e 64 9f fb be 5f e5 f1 be
       0.3201114 0.19340055 -0.49145043 -0.4724531
000320 fb 5f ba be 54 44 59 3e 8e c2 e8 be ea ce 98 be
       -0.36401352 0.21217471 -0.45460933 -0.29845363
000330 0f cc 31 3e a9 d6 04 3f 85 94 d3 3d b9 df ee 3e
       0.17362998 0.51890045 0.10331062 0.46655062
000340 e2 cf ea 3d 65 ee 2b 3d d1 a9 8f bc c8 20 76 3c
       0.11465432 0.041975398 -0.01753703 0.015022464
000350 b7 ff 6f be 4c 66 ad 3e 24 99 a0 be 55 b3 82 bc
       -0.23437391 0.3386711 -0.31366837 -0.015954653
000360 b7 5f 14 be d4 f1 06 3f 6e d8 dc 3e b4 31 58 3d
       -0.14489637 0.5271275 0.43133873 0.052781776
000370 61 8e e4 be cc 3e 0f 3f d4 a6 1e 3e bb f5 18 bd
       -0.44639876 0.55955195 0.15493327 -0.03734372
000380 56 9d a0 be 98 47 a2 be 49 d7 f4 be 1a a6 d8 be
       -0.31370038 -0.31695247 -0.478205 -0.42314225
000390 f2 47 dd 3e 3d 80 7a 3e 67 b0 ac 3e 83 9a c8 be
       0.43218952 0.24462982 0.33728334 -0.39180383
0003a0 74 48 36 be 69 5b cd be 26 fb bb 3e b8 77 a4 3e
       -0.17801076 -0.40108803 0.3671505 0.32122588
0003b0 6e 67 ee 3e 27 70 eb 3a ef d0 07 bf 4e 57 d4 3e
       0.46563286 0.0017962501 -0.5305318 0.41472858
0003c0 e1 df a4 3e 8f 80 6f bd 67 c1 0f be 7e 69 12 3e
       0.32202056 -0.058472212 -0.14038621 0.14298055
0003d0 48 f5 ee 3e 37 b9 4d 3e 9c 3a 70 bd 2f d3 82 be
       0.4667151 0.20090185 -0.058649644 -0.25551745
0003e0 db 19 8d 3d 3f 0e 6d 3e 37 68 e9 be cc 6d 59 be
       0.06889697 0.23149966 -0.45587322 -0.2123329
0003f0 14 70 0a bf 43 c6 d0 be b1 9f c3 be 2c 8b c4 3e
       -0.5407727 -0.40776262 -0.38207772 0.3838743

weight f4 [128, 256]
000000 95 89 c6 bc e1 51 da bc 23 c9 e1 bc 5f a1 b5 3c
       -0.024235526 -0.026650371 -0.02756173 0.022171674
000010 90 5d 2d bd a1 b8 14 bd b3 85 d9 bc b1 1e d7 3c
       -0.042325556 -0.03630889 -0.02655301 0.026259752
000020 b5 ff d7 bc 60 46 12 bd 4d dd 33 3c 82 9c 6c ba
       -0.026367048 -0.035711646 0.010978055 -0.0009026007
000030 78 c5 0d 3c 2f 43 26 3d d2 69 70 bd cb cc 9d ba
       0.008653037 0.040591415 -0.058694668 -0.0012039182
000040 21 9b 3a bd 86 7d 58 bd fa 88 63 3b 9b 3a 7e bd
       -0.0455581 -0.052854083 0.0034719096 -0.06206761
000050 28 f4 83 bd 35 cf 18 3c 85 4e 84 bd 1f d0 05 bc
       -0.064430535 0.009326746 -0.06460289 -0.008167296
000060 7c 49 6d 3c c2 47 2c bd 17 58 4b 3d b2 89 f7 bc
       0.014482852 -0.04206062 0.049644556 -0.030217025
000070 b4 10 68 bd ea f8 7a bd 92 ff 0d bd c1 13 f0 bc
       -0.056656554 -0.06127254 -0.03466756 -0.029306294
000080 27 73 b7 3c 19 5f f5 bc 99 56 57 bd 9d 83 fb 3c
       0.022393776 -0.029952573 -0.05257282 0.030702407
000090 56 3d 3d 3c 76 65 56 bd 74 b5 b9 3b 9f b4 82 3c
       0.011550268 -0.052342854 0.005667383 0.015955267
0000a0 90 64 97 bc a6 74 29 3b bf 11 c3 bc 80 d0 70 bb
       -0.01848057 0.0025856881 -0.023812173 -0.003674537
0000b0 5b fb e7 3c e0 3c ce 3c 60 fa 40 bd 8a 30 1a 3d
       0.028318098 0.025175512 -0.047113776 0.037643947
0000c0 0f 5e a5 3c 33 24 b8 bc 3f 4a 2b bd ad 80 2f bd
       0.020186452 -0.022478199 -0.041818853 -0.042847324
0000d0 7b ac 37 3c 51 18 b8 bc b6 11 08 3d 97 82 30 bd
       0.011210556 -0.022472532 0.033220015 -0.04309329
0000e0 f2 b7 51 3d 80 b1 d3 bc ab d1 09 3d c4 15 14 bd
       0.051200815 -0.025841475 0.03364722 -0.03615357
0000f0 f8 ac 57 bd 6f 34 7d 3c 9d 88 aa 3c 38 13 52 3d
       -0.05265519 0.015454396 0.020817095 0.05128786
000100 d6 e0 d0 3c 7a 41 29 3d ee f3 4d 3d 6b 76 9e 3b
       0.025497835 0.04132221 0.050281458 0.004835894
000110 3e 74 b2 3b 90 0d 5f 3c 67 9d 21 bd c3 dc 5b bd
       0.005445986 0.013614073 -0.03945675 -0.05367733
000120 cd 6d 8e bd 24 66 c6 bc e0 73 02 bd 5f 11 62 bd
       -0.069545366 -0.024218626 -0.03184879 -0.055192348
000130 a9 b6 11 bc 80 6d 05 3d 5f 21 8c bc e7 70 73 3b
       -0.008893647 0.03257513 -0.017105756 0.0037146152
000140 b7 88 d8 3b 3f ae 8f bc 13 90 07 bc 61 a5 32 bd
       0.0066080946 -0.017539142 -0.008274096 -0.04361475
000150 c8 63 6f 3c c4 61 c2 3b 2d 51 84 bd b8 d8 57 bd
       0.014611192 0.0059320647 -0.064607956 -0.052696913
000160 44 3d 81 3c 4b 25 82 bd db 00 2c 3c 5b 2e a0 3c
       0.015776284 -0.06354769 0.010498251 0.019553354
000170 48 a2 75 bd 6e 31 06 3c 91 1b 45 3d 10 88 70 bd
       -0.059969217 0.008190496 0.048121992 -0.05872351
000180 d3 75 84 bd 17 76 88 bd e1 89 27 bd f1 53 7b bd
       -0.06467786 -0.06663149 -0.040902976 -0.06135935
000190 d6 86 13 3d d0 d6 2b 3c 38 83 13 3d a6 81 38 bd
       0.03601726 0.010488227 0.03601381 -0.045045517
0001a0 13 c2 80 3c eb e0 f0 3b 3c 63 7b 3c 71 8a 82 3c
       0.015717542 0.007351031 0.015343484 0.015935155
0001b0 c7 fa b3 3c d6 ad 3a ba 05 c8 2d 3d 87 4c 4e bd
       0.021970166 -0.00071212405 0.04242708 -0.05036595
0001c0 16 33 39 3d c3 63 7d bb 43 44 85 bc 65 e3 21 bc
       0.045214735 -0.00386642 -0.016267901 -0.009880875
0001d0 b5 dd 7b 3d aa a3 a0 bc 9c d1 f9 3c db e8 ee bc
       0.061490733 -0.019609291 0.030495457 -0.029163769
0001e0 fd 47 e8 3c e0 e1 6f bb ef f8 18 3d 90 99 9e bc
       0.02835464 -0.0036603138 0.037346777 -0.019360334
0001f0 05 61 09 3c 8e bb 1b bd 13 27 de bb 75 7f 44 3c
       0.008384948 -0.038020663 -0.0067795604 0.011993279
000200 fd 78 2a 3d 1f c3 69 bd 8b f7 81 bd 6c f0 c1 bc
       0.04161929 -0.057070848 -0.06346043 -0.023674212
000210 e8 98 38 3d 10 45 3b bd f1 3c 5b 3d d0 62 8d bd
       0.045067698 -0.04572016 0.053524915 -0.069036126
000220 b7 09 12 3a 89 4e 81 3c 6c c2 b1 3c e5 8a 31 3d
       0.00055709056 0.015784519 0.021699153 0.04334535
000230 b7 c6 00 bd 75 84 a6 bb 21 0d 18 3d a0 54 70 bb
       -0.03143951 -0.005081708 0.037121896 -0.0036671534
000240 88 a9 c1 3c 70 9a 16 bc 37 71 2f 3d 27 fc e0 3c
       0.02364041 -0.009192094 0.04283258 0.027463986
000250 2b eb 02 3d b8 66 8b bc cb ee 01 bd 76 bb 01 bd
       0.031962555 -0.017016754 -0.03172187 -0.031672917
000260 b0 ff 91 bb 7e 6f 31 bd db 9e a3 bb 5f 0e fd 3c
       -0.004455529 -0.043319218 -0.0049933023 0.030890642
000270 3c f4 ef 3c 69 fb b5 3b 7c 78 37 3d aa df 37 3d
       0.029291265 0.005553652 0.044792637 0.044891037
000280 89 27 44 bc 12 84 16 3d 5f 9f bd bc 60 8a a8 bc
       -0.011972317 0.036747046 -0.023147283 -0.020573795
000290 f4 d5 e8 bc e6 07 4b bc 69 3e 08 bc 6b 11 46 bd
       -0.028422333 -0.01239202 -0.008315661 -0.048356455
0002a0 5e 77 96 bc 03 b1 6e bd f7 74 3a 3d a1 0f 51 3d
       -0.018367466 -0.05827428 0.045521703 0.051040296
0002b0 82 50 f2 3c 36 49 90 3c a0 04 ac bc 71 44 59 3d
       0.029579405 0.017613035 -0.0209983 0.053043786
0002c0 8b 21 84 ba 56 b7 32 3d 18 b6 1d 3d 51 75 0e 3a
       -0.0010080797 0.043631874 0.038503736 0.00054343516
0002d0 7a d4 92 3c c8 2c e4 3c 38 c7 57 3d 3c 45 27 bd
       0.017923582 0.027853385 0.052680224 -0.04083751
0002e0 31 0e 1c bd 0d 69 3c 3d c1 a8 87 bd 6c 34 53 3c
       -0.03809947 0.04599862 -0.06623984 0.012890916
0002f0 c7 b2 7f bd bf c9 06 bd e8 98 04 3d bd 2a b5 bc
       -0.062426355 -0.032907244 0.032372385 -0.022115106
000300 88 c6 eb 3c 09 98 5e 3d 57 ad b3 bb 48 f2 8b 3c
       0.02878119 0.05434421 -0.00548331 0.017083302
000310 fa cb f4 bb f9 63 47 3d 1c 75 ac 3c 96 2d 86 bd
       -0.007470605 0.048679326 0.021051936 -0.065516636
000320 ed 58 b6 3a 4d bb 7b ba 54 59 3f 3c 92 94 6b bd
       0.0013912 -0.00096028 0.011679012 -0.057514735
000330 18 0d 66 bd fc 82 70 3c 94 6c e0 bc a8 d7 40 3d
       -0.05616483 0.014679667 -0.027395524 0.047080666
000340 a0 64 ee 3c 58 78 94 bd b1 95 0d bd 54 a5 82 bd
       0.029100716 -0.07249516 -0.034566585 -0.0637919
000350 76 98 27 3c 6f 02 eb bc 1c 11 93 3c a6 a5 5f bd
       0.010229221 -0.028687684 0.017952494 -0.054601334
000360 2a d1 0b bd f3 6e cb bc 13 d3 19 bd cc 93 b6 3c
       -0.03413502 -0.024833178 -0.03755481 0.022287272
000370 ee 9d 76 bd 77 75 45 3d b3 1f 31 3d 05 9e ac bb
       -0.060209207 0.048207726 0.04324312 -0.005267861
000380 ff 18 e2 3c 12 64 08 3d 54 9a 27 bd 32 7f 03 bd
       0.02759981 0.03329856 -0.040918663 -0.032103725
000390 2a 15 7d 3c c1 75 cd bc 6a b1 09 3c 9c c6 49 3d
       0.01544694 -0.025080564 0.008404115 0.049261674
0003a0 b1 5d e9 3c 4c d9 c7 3b 9e f7 73 bd 3c 8b a7 3c
       0.028487058 0.006098902 -0.059562318 0.020452134
0003b0 71 66 3c 3c c7 a8 4c bd 9b 9b f1 bc be da 96 3b
       0.011499033 -0.049965646 -0.029493144 0.004603713
0003c0 d0 39 5e bd a4 9e bc bc 34 21 6b 3d d3 19 8c bd
       -0.054254353 -0.023024864 0.05740471 -0.06840863
0003d0 12 7f 8a bd 26 f1 11 bd 9d 07 dd 3c 87 52 16 bd
       -0.06762518 -0.035630368 0.02698117 -0.036699798
0003e0 79 a8 27 3d 95 ab 98 3c ac 42 f7 3c 38 f4 37 bd
       0.040932152 0.018636504 0.030183159 -0.04491064
0003f0 34 c3 9b bc 34 48 42 bd 49 06 74 3b 15 1c d5 bc
       -0.019013979 -0.04743214 0.0037235192 -0.026014367

bias f4 [128]
000000 ad 6f 70 bd e0 e5 fe 3b 88 44 8e bd 30 ff f7 bd
       -0.058700252 0.007778868 -0.06946665 -0.1210922
000010 f4 e0 66 bd e8 07 6e bc 8c cf 69 3e 7f 59 1f be
       -0.056366876 -0.014528252 0.22833079 -0.15561484
000020 16 af 82 bd e2 5e cb 3b cb 32 01 bd 8b 79 0e be
       -0.06381051 0.0062063793 -0.03154258 -0.13913552
000030 6b e8 e9 3c 4f 8f 24 3e a6 ed 52 bd 1c 8b 08 3d
       0.028553208 0.16070293 -0.05149617 0.03333579
000040 9d 29 9e 3d 8d 1c 47 3d a5 91 0b be 32 bf 48 3e
       0.07722781 0.048611213 -0.13629778 0.19604185
000050 8f 6e 22 3e 7e 9b 13 3e 50 63 ef bb 78 45 5f 3e
       0.15862487 0.14414784 -0.00730554 0.21803844
000060 af d6 39 3e 59 aa 41 3d 22 dc 04 3d c7 63 24 be
       0.18148302 0.047281597 0.032436498 -0.16053687
000070 86 d9 bd bd 14 74 ba ba 3f ed 30 bd 09 5f 85 bb
       -0.09270005 -0.0014225268 -0.043195006 -0.004070167
000080 57 14 e2 3c 83 33 79 bd 12 93 6c 3c 39 c8 45 bd
       0.02759759 -0.06084014 0.014439361 -0.04828665
000090 06 b8 12 3e 8c 82 24 3c 5e 9a f3 bc 38 3e 9a bd
       0.14328012 0.01004089 -0.029736694 -0.075313985
0000a0 d3 e0 64 3c 7f f5 06 be 85 67 45 3d 6b cc 08 3e
       0.013969618 -0.13179587 0.048194427 0.1335923
0000b0 33 8d c5 3c 10 6c 1c 3d e8 04 54 bc 5d e4 26 be
       0.02411518 0.038188994 -0.012940623 -0.16298051
0000c0 b1 51 1f 3e 74 99 55 bd 8e be 88 3d ee 52 77 bc
       0.15558507 -0.052148297 0.066769704 -0.015095456
0000d0 83 53 ff 3d 8a ce 8e bd 11 b3 c3 3b 77 dd a8 3d
       0.124671005 -0.06972988 0.005972274 0.08245366
0000e0 0a fc 1b bd 93 05 33 be fa 37 6b bd 44 4d 90 bd
       -0.03808216 -0.17482595 -0.05742643 -0.07045987
0000f0 08 87 d3 3b 40 dd a0 bc 12 ef 0b 3e 63 73 fd 3d
       0.006455306 -0.01963675 0.13665417 0.12375524
000100 30 49 f7 bb c3 c2 b2 bd 45 b4 27 3e 96 1e 22 3e
       -0.0075465664 -0.08728554 0.16377361 0.1583198
000110 ae 9c dc bc 84 51 87 3d 34 04 f5 3d 0a 77 12 3e
       -0.02693018 0.06607345 0.11963692 0.14303222
000120 16 31 64 bc 8a c9 c6 3a 6d 12 24 bd f8 f4 12 3e
       -0.013927719 0.0015166264 -0.040056635 0.1435126
000130 73 98 6b bd 82 e8 4c bd f4 64 ba bd 62 62 6f 3d
       -0.057518434 -0.050026424 -0.091012865 0.058443435
000140 b8 43 81 bc 98 6c 7f bd 72 97 40 bb a8 3e 29 3e
       -0.015779361 -0.062359422 -0.0029387143 0.16527808
000150 5c 32 99 3c f7 3f 8b 3d 05 62 37 3c d8 62 1d be
       0.018700771 0.0679931 0.011192803 -0.15369737
000160 85 56 a0 3b 3e cd 03 3d 15 46 44 bd ba a2 59 bd
       0.0048931264 0.032178156 -0.047918398 -0.053133704
000170 34 e1 7c ba 35 b0 50 3d f2 0c 91 3d 95 ce da 3d
       -0.0009646595 0.050949294 0.07082547 0.10683934
000180 3b 02 e4 3c 51 a4 44 3c be 13 a1 3b 39 01 ce bd
       0.027833095 0.012002067 0.0049156835 -0.10058827
000190 4d 21 1f bc 97 1d a1 3c 37 83 0f be 29 6a d7 3d
       -0.009712529 0.01966743 -0.14014898 0.10518295
0001a0 b1 f4 11 be 37 2d 51 bd 43 72 53 bd e8 96 2c 3d
       -0.14253499 -0.05106851 -0.05162264 0.042136103
0001b0 29 03 06 bd cf c7 81 3d 4b a1 35 bd e0 14 3b bd
       -0.032717858 0.063369386 -0.044343274 -0.045674205
0001c0 5d 61 28 3d c3 bc d1 bc e3 ee 8a bc 5f 3c 8d bd
       0.041108478 -0.025602704 -0.016959613 -0.068962805
0001d0 d7 bd 1c 3d 04 c8 10 3e 98 8b 07 3c 0e 4d af 3c
       0.038266983 0.141388 0.008273028 0.021399047
0001e0 4e 72 d4 bc e3 bc 57 3e ca c2 65 bc 0c db 15 3e
       -0.025933411 0.21068148 -0.014023492 0.14634341
0001f0 90 da 31 be 78 02 1f bd 03 d6 b5 bc f8 0e b4 3c
       -0.17368531 -0.038820714 -0.022196775 0.021979794

weight f4 [128, 128]
000000 80 b7 8c bd 01 5b 85 3d 0d dc 6c bd d8 14 e6 3b
       -0.06870937 0.06511498 -0.057827044 0.0070215277
000010 2f 23 58 bd f1 8a 4f 3b 9c 27 22 3c 92 7b ae 3d
       -0.05276793 0.003166851 0.009897139 0.08519663
000020 f9 db f5 bc 76 3d 0d 3c c3 9d af bd c2 a0 66 3c
       -0.030012118 0.00862061 -0.085750125 0.014076414
000030 70 76 3f 3d 7e 66 8a bd 7f e4 74 3d 6e f8 ac 3d
       0.04674381 -0.0675783 0.059788223 0.08445822
000040 7f 97 40 3d 76 10 d9 bc 9d 7c 59 bc 60 bf 49 3c
       0.047019478 -0.026497107 -0.013274339 0.012313694
000050 15 4c 9a bc b4 85 a5 bc 18 ea 27 bd 94 43 94 3d
       -0.018835107 -0.020205356 -0.040994734 0.07239452
000060 9a 7e 68 bd 13 78 40 bd db ee 2f bc a5 90 1e bd
       -0.05676136 -0.04698951 -0.0107381 -0.038712163
000070 42 c6 a8 3d 7a ee a6 bc 1b 09 99 bd c8 9c a7 bd
       0.0824094 -0.020377386 -0.0747244 -0.081842005
000080 f0 9b 2b 3d f7 37 0c 3d f5 8e 0b 3c 77 24 1b 3d
       0.04189676 0.03423306 0.00851797 0.037876572
000090 fe 5c 04 bc 03 aa 0c bd 9a 80 53 3d 47 b2 af 3d
       -0.008078812 -0.034341823 0.051636316 0.085789256
0000a0 f8 82 1e 3d 71 ad 75 bd 02 65 95 bd 44 4c 8a 3d
       0.03869912 -0.05997986 -0.07294656 0.06752828
0000b0 02 aa 1d 3d 7e 7e c8 3b 3f 23 74 bd 62 ac 34 bd
       0.03849221 0.0061185947 -0.059603926 -0.04410971
0000c0 3b 0a 38 bc b8 f6 0c bd f5 9b 07 3d 76 8f 64 3d
       -0.011232908 -0.034414977 0.033107717 0.055800878
0000d0 bf 04 78 3d 06 c6 c8 bc c0 01 5e 3c bd 3a 7c bd
       0.0605514 -0.024508487 0.013550222 -0.061579455
0000e0 e9 ba a8 bd 44 a6 3c bd 7d aa 22 bd 4a 74 52 bd
       -0.08238775 -0.046057 -0.03971337 -0.051380433
0000f0 5a c9 87 bd 51 a5 85 3d eb bd 91 bd 81 ad 5c bd
       -0.06630202 0.06525672 -0.07116302 -0.053876404
000100 ab 17 b9 bc 2d 6f da bc 92 36 f1 3b d2 76 b9 bc
       -0.022594294 -0.02666434 0.0073612416 -0.022639666
000110 3c ba 18 3d 4d b0 33 3b 7c 53 80 3d 34 4f b3 bd
       0.037286982 0.0027418316 0.062659234 -0.08755341
000120 28 b0 6c bb d4 fb 85 bd ab 4d e3 bc 3b 60 2b bd
       -0.003611574 -0.06542173 -0.027746996 -0.04183982
000130 82 ea 3b bc f6 8d 44 bd 63 3a 8e bc ea e6 9d bd
       -0.011469485 -0.047986947 -0.017361825 -0.07710059
000140 77 82 b0 bc d0 ed 9a bd 4b 1b 86 3d c9 e1 8a bd
       -0.021546585 -0.075648904 0.065481745 -0.06781346
000150 1d 00 17 b9 5e b8 d4 3c 38 62 d7 bc 00 22 af bd
       -0.00014400524 0.02596682 -0.026291952 -0.08551407
000160 60 15 49 bd c6 28 21 3d 9b 30 19 bc ee a6 89 3c
       -0.04909265 0.039345525 -0.009349967 0.016803231
000170 bc 69 3a bd f1 56 9d bd e3 21 5a 3d 3d 4c ab bb
       -0.045510992 -0.076825984 0.053254973 -0.005227594
000180 ab bc 8b 3d b1 72 2e bd 0b ea 7c 3d db 4c 26 bd
       0.06823095 -0.042589847 0.06174664 -0.04060064
000190 6e 76 3b 3d 55 43 9b 3c c8 e2 0b 3d 1a bc 17 bc
       0.04576724 0.018953005 0.034151822 -0.0092611555
0001a0 62 0e 5b bd 11 c9 a0 3d 03 26 06 bd 70 7c 86 3d
       -0.053480513 0.078508504 -0.032751095 0.06566703
0001b0 2d dc e7 bc 9a 5f ac bd 5a 5c 78 bb 54 ab 8e bd
       -0.02830323 -0.08416672 -0.0037896843 -0.06966272
0001c0 53 2a 2d 3d d8 36 6a bd 06 50 6c bd 94 83 92 3d
       0.04227669 -0.05718121 -0.057693504 0.07154003
0001d0 05 28 0f 3d 46 ac 6a 3d 24 bb e7 3c 7b 03 18 3d
       0.034950275 0.0572932 0.028287478 0.037112694
0001e0 1c a1 ce 3c 5b 67 5f 3d 81 e4 a0 3d a7 25 cf bc
       0.025223307 0.054541927 0.07856084 -0.025286509
0001f0 27 7e f8 3a 1e 09 aa bc 41 f1 2d bd 49 51 91 3d
       0.0018958495 -0.0207563 -0.042466406 0.07095582
000200 8a 59 96 3d aa 8d a7 3d e3 39 1d bd 5e b2 b1 3d
       0.07341297 0.08181317 -0.038385283 0.08676599
000210 0b d5 a7 3c 22 a5 f8 bc e1 22 07 3d 96 8b 68 bd
       0.020487329 -0.030352179 0.032992247 -0.056773745
000220 87 42 fe 3c 31 7c 7b bd a6 c2 3a bd be e0 5c 3d
       0.031037582 -0.061397735 -0.045595787 0.05392527
000230 cc 53 9d bd 02 7f 2e bd 3d 37 97 bd 95 66 84 3d
       -0.076819986 -0.042601593 -0.07383583 0.064648785
000240 c2 65 94 bd 08 65 2a bd fe a6 4d bd 08 b3 70 bd
       -0.07245971 -0.041600257 -0.050208084 -0.058764488
000250 58 17 18 bd 96 1c 32 bc c7 d1 ab 3c a1 49 a8 bb
       -0.037131637 -0.010871073 0.020974053 -0.0051357304
000260 d5 39 ae bd fe f0 50 3d 28 62 3b 3d ad 4d f3 3c
       -0.08507124 0.051011078 0.045747906 0.029700125
000270 ca cc dc bc 4b 32 a2 bd 94 b0 0d bd 7e b0 52 bd
       -0.02695312 -0.07919749 -0.034592226 -0.051437847
000280 b3 e6 5a bc e9 2a 44 bd 71 30 c5 3b 51 5e 34 bd
       -0.013360667 -0.047892485 0.0060177376 -0.04403526
000290 a1 80 96 3d b1 bc de bc d6 43 57 3d c5 21 58 bd
       0.07348753 -0.027189584 0.052554928 -0.05276658
0002a0 f5 1b 38 3d 40 48 5c bc 35 a2 e5 bb 60 9e b2 3d
       0.044948537 -0.01344496 -0.007007862 0.08721614
0002b0 d5 9e 81 3d 2f 34 ae 3d 46 c5 74 bd 79 54 90 bd
       0.06329123 0.08506047 -0.059758447 -0.07047362
0002c0 dc 26 17 bd 6f 24 8c bc 16 39 82 3d 68 04 68 3d
       -0.036902294 -0.017107217 0.063585445 0.056644827
0002d0 b7 f7 cd 3c ac fd 4f 3c 89 83 aa 3c ce c3 d6 bc
       0.025142534 0.012694757 0.020814674 -0.026216414
0002e0 0c 1e 66 bd 32 12 09 bd 19 7f 4d bd a1 e2 d6 bc
       -0.056181 -0.033464618 -0.050170038 -0.026231112
0002f0 96 e6 65 3d 01 95 5a bd a9 db 60 bd a0 05 8e bd
       0.056128107 -0.053364757 -0.054896984 -0.06934667
000300 cf f7 bb 3c d1 26 65 3c 50 90 f9 3c af b1 35 bd
       0.022945313 0.013986305 0.030464321 -0.044358905
000310 e0 93 a5 bd 20 19 70 bd f1 d2 82 3c 12 d1 0d 3c
       -0.080848455 -0.05861771 0.015969725 0.008655803
000320 fd 03 e1 bc 43 3a a6 3c 3d 2e 39 3d cc 74 9e 3d
       -0.027467722 0.020291453 0.045210112 0.07737121
000330 1a 39 1f bd 95 a1 33 bc bb 1d b0 3d 66 aa 51 3c
       -0.038872816 -0.010963817 0.08599421 0.012796974
000340 2b 8f aa 3d 99 a2 1a 3d 80 42 dd 3c 1e f5 9b bd
       0.083280884 0.03775272 0.027009249 -0.07615112
000350 c8 b4 88 bd 42 29 45 3d 9a 2a 0f bd 15 33 ae 3c
       -0.06675106 0.04813505 -0.034952737 0.021264592
000360 87 42 86 bd c2 8c ca 3c 1f 2e 49 3a 7f 3a 4b bd
       -0.06555658 0.024725322 0.0007674414 -0.049616333
000370 70 53 1c bd f6 13 85 bd 94 b9 68 bd d7 e9 6e bd
       -0.03816551 -0.06497948 -0.056817606 -0.058328476
000380 ed 1e 20 bd 78 f9 82 bd c8 d2 80 3d 09 e6 c1 3c
       -0.039091993 -0.06395239 0.06290203 0.02366926
000390 35 d7 49 bc 95 1b 8a bd 46 64 29 3d 2d 63 9c bd
       -0.012319376 -0.06743542 0.041355394 -0.07636104
0003a0 81 8e 9f bd 84 f2 28 3d 1e e8 37 bd 48 0a 92 bd
       -0.07790852 0.041246906 -0.0448991 -0.07130867
0003b0 39 de 65 bd 4e f3 f5 bc 14 e1 6c 3c 2c a9 2d bc
       -0.05612013 -0.030023243 0.01445796 -0.010599416
0003c0 2a a2 60 bb a9 24 a9 3d 71 41 7a bd 44 aa 3e 3d
       -0.0034276345 0.082589455 -0.061097566 0.046549097
0003d0 1f 31 33 3d 7d 22 0c bc 9a ab 84 3d c4 b7 e2 bc
       0.043748017 -0.0085531445 0.06478043 -0.027675517
0003e0 3b 4f e9 bc e3 19 5d bd 4d f7 a4 3d ed 3d 9a bd
       -0.028480163 -0.053979766 0.080549814 -0.07531343
0003f0 cf 0e 99 bd de 9d 49 3d ee 80 a5 3c 2e 7d 74 3d
       -0.07473528 0.04922282 0.02020308 0.059689693

bias f4 [128]
000000 e6 8c ba bd 78 e6 92 bd 1a d2 1d bb df ab 64 bc
       -0.091089055 -0.07172865 -0.002408153 -0.013956993
000010 73 82 c8 bc cb 0a 7f 3d 9a 29 d5 3c 19 e8 16 bd
       -0.024476266 0.062266152 0.026020814 -0.03684244
000020 2a 7c 82 bc 49 3f 60 bd 6a 95 34 bd 7d 7a 56 bd
       -0.015928347 -0.054747853 -0.044087805 -0.052362908
000030 52 3b f2 bb ee 82 e8 bb 56 dd 01 bd d5 fc 52 be
       -0.0073923254 -0.007095686 -0.031705223 -0.2060426
000040 88 eb 8d bc 23 ae 31 bc 8b 45 06 3e 28 e2 7d 3c
       -0.017324224 -0.01084474 0.13112466 0.015495814
000050 52 b9 a5 bb a6 50 bd 3d c5 b7 5c 3e 34 39 09 3e
       -0.0050574923 0.09243898 0.21554478 0.13400728
000060 ed ab ef 3d 27 60 3a bd 31 47 a3 3d 9e 76 0f be
       0.11702714 -0.045501854 0.07972563 -0.14010093
000070 d2 c5 00 be 80 04 63 bd 44 83 9a 3d 67 76 ef bc
       -0.12575462 -0.055424213 0.07544568 -0.029231263
000080 4d 0d a2 3d 6c d8 75 bd 0f b6 97 3c 1e 01 50 3d
       0.07912693 -0.06002085 0.01851943 0.050782315
000090 cd 6c 46 3d 8f c8 cc 3d 92 ce 1e 3d d8 3a b5 bb
       0.048443604 0.09999191 0.03877122 -0.0055306964
0000a0 ab 84 ec 3d 1e 0b 92 bc 1c b7 5c bd f1 4a 15 3c
       0.11548742 -0.017827567 -0.053885564 0.009112106
0000b0 cf 62 2c 3b 56 a1 98 bc 95 4d 28 bd d9 0d 34 3c
       0.0026304012 -0.018631618 -0.041089613 0.01098963
0000c0 93 7a 16 3d 43 05 d7 3d ee c8 cc 3d 8d 3b f3 3d
       0.03673799 0.104990505 0.09999262 0.11876593
0000d0 9e 5e 69 3c bf de 8d bd 73 c7 29 3d aa d6 a4 3c
       0.01424375 -0.06927251 0.041449975 0.020121891
0000e0 cd e8 e0 bd 05 ff 86 bd 1e 75 b1 3c 5d 99 5f 3e
       -0.10981903 -0.0659161 0.021662291 0.21835847
0000f0 04 b9 5f 3d b5 8a ad 3d ae d0 65 3d a6 b3 cf 3d
       0.054619804 0.08473722 0.056107216 0.10141687
000100 a6 31 5f 3d 4e 1d 83 3c 5c 7d 15 bd ea 3d 76 bd
       0.054490708 0.016005185 -0.036496505 -0.06011764
000110 e8 a4 e4 bc 90 31 56 bd d9 47 58 3e 1b b1 1e be
       -0.027910665 -0.05229336 0.21121158 -0.15497248
000120 94 37 b1 bd 3c 5e 4d 3e 23 97 90 3b 65 8c e0 bc
       -0.08653179 0.20055479 0.004412548 -0.027410695
000130 0c be 65 3c 33 b9 2c 3e 94 7a 90 3d c8 30 44 bd
       0.0140223615 0.16867523 0.0705463 -0.047898084
000140 54 6e cf ba 6d 82 0b 3d fb 86 6b bd a2 5e 8e 3d
       -0.0015825727 0.03405993 -0.057501774 0.069516435
000150 cb eb ff 3d c1 55 68 3d 53 95 ae bd a0 eb 81 bd
       0.12496146 0.056722406 -0.08524575 -0.0634377
000160 d0 28 8a bd 2b ed 0c 3b 05 b0 cf bc 9e b6 58 3d
       -0.067460656 0.0021503668 -0.025352487 0.052908532
000170 41 7d e3 bc f4 ad bf bd 8d 6e 31 3c bf c9 ae bd
       -0.027769687 -0.09359351 0.01082958 -0.08534574
000180 0b 7b 96 3c e3 d1 ac bd 52 eb dc bd 91 b9 29 bd
       0.018369218 -0.0843847 -0.10787071 -0.041436736
000190 77 76 9c bd 42 08 29 be 8b 01 23 bb 85 0d c1 bd
       -0.07639783 -0.16507056 -0.0024872746 -0.09426407
0001a0 94 ff 2f bd cc c4 cf 3d 46 09 d1 3c 53 b9 fe 3d
       -0.042968348 0.10144958 0.025517117 0.124376915
0001b0 03 87 63 bb ae 3e 9c bc 55 13 b7 3c 28 56 09 3d
       -0.0034717924 -0.019072857 0.022348085 0.03352943
0001c0 43 3a c6 3d 60 6f 0c bd 04 94 89 3b d5 4d d0 3d
       0.09679081 -0.034285903 0.004198553 0.10171095
0001d0 cb 45 35 bd f5 38 71 3e ac 54 ba 3c 45 0d 9b bd
       -0.044256013 0.23556884 0.022745453 -0.0757089
0001e0 b1 61 55 3d 72 76 8b 3d 02 bd e7 3d 80 24 10 be
       0.05209512 0.06809701 0.11315347 -0.14076424
0001f0 e3 21 2c be 4f 80 00 3e 88 3a 6f bd 83 d6 11 bd
       -0.16809802 0.12548946 -0.05840543 -0.035604965

weight f4 [128, 128]
000000 9d c8 ca bc 41 3c 71 3d 31 96 89 bd b2 18 ae bc
       -0.024753863 0.058895353 -0.067181 -0.02125201
000010 37 1a 06 bb 37 82 d7 ba 14 0c c9 3d 92 3f 82 3c
       -0.0020462403 -0.0016442005 0.09816757 0.015899453
000020 fa 54 7b 3c 01 e2 a8 3c 38 2f 45 3d 7c 71 f4 bb
       0.015340084 0.02061558 0.048140734 -0.0074598175
000030 50 33 9a bd 9d db 09 be 36 79 a1 bd bc fa 1f bb
       -0.07529318 -0.13462682 -0.07884447 -0.0024410924
000040 07 cf 6f bc 5f 2d 86 bd 07 d1 4d 3d 3c 2c ce 3d
       -0.0146367615 -0.065516226 0.050248172 0.10067031
000050 34 0e 92 3d 7a 40 7e 3d 29 32 cc 3d 32 72 3a 3d
       0.07131615 0.06207321 0.09970505 0.04551906
000060 01 a2 b9 bc 53 dc 66 3d 10 2a a5 bb f1 26 99 3d
       -0.022660257 0.05636246 -0.0050404146 0.074781306
000070 14 05 1a 3d a4 06 ea bc 54 5f b9 3d 0e 04 a0 bd
       0.0376025 -0.02856762 0.090513855 -0.07813273
000080 09 35 93 3d e9 1e 9c 3c 80 78 5a bd 5b f1 89 bd
       0.0718785 0.019057708 -0.053337574 -0.06735488
000090 91 db 91 bd c0 11 26 3a a2 d2 f3 bc 7e ce a6 3d
       -0.07121957 0.00063350424 -0.029763523 0.08144854
0000a0 68 ef d0 3d cb 91 90 3c af c4 32 bc dd f9 0f 3d
       0.10201913 0.017647645 -0.010911151 0.035150398
0000b0 b2 7c 6f bd 88 4d 9b 3d eb 6e 6e 3d ac 2a 2e 3d
       -0.058468528 0.07583147 0.05821125 0.042521164
0000c0 ef 97 2c bd 93 a7 c3 3d 2d ca 4b 3d 57 e9 8f 3c
       -0.042137083 0.095534466 0.049753357 0.01756732
0000d0 f2 84 65 3c 8c 8e b2 bd 93 99 fb bc 2f a7 4e 3d
       0.014008747 -0.08718595 -0.030712878 0.050452407
0000e0 20 3a 28 3d 23 5d 04 bc c8 9c b8 bc d7 53 a9 bc
       0.041071057 -0.008078846 -0.022535697 -0.02066986
0000f0 97 be 08 bd 8e 79 72 3d f1 28 a9 bd d9 f3 b3 bc
       -0.033384886 0.059197955 -0.08259762 -0.021966862
000100 dc 95 54 3d 4c fc 01 bd b5 67 a7 bd f0 17 ec bc
       0.05190073 -0.03173475 -0.081740774 -0.028820008
000110 83 85 72 bd 10 15 3a 3d 08 25 40 3c c7 fb 49 3d
       -0.059209358 0.045430243 0.011727579 0.04931238
000120 f1 0b 27 3c 9e f9 7e 3d 41 7e 53 bd 44 0b 17 3d
       0.010195718 0.062249772 -0.051634077 0.036875978
000130 8a 99 7c bd e0 5a ba 3b 13 a6 cc bd 4c 10 57 3d
       -0.061669864 0.0056871027 -0.09992614 0.052505776
000140 3e 4b 9c bc 18 66 44 3d c0 59 f9 bd e2 59 c5 3d
       -0.019078847 0.047948927 -0.121753216 0.096362844
000150 4e 70 43 bd 6e ec 19 3d 17 b1 09 bc 2f ae 90 bd
       -0.047714524 0.037578993 -0.008404038 -0.07064473
000160 97 39 49 bd 4c 92 87 3d 86 bd dc 3d c7 4a 98 3d
       -0.049127188 0.06619701 0.10778336 0.07436138
000170 d4 4d 4e 3d f2 64 5e bd 06 cf 1d be 71 38 2f bc
       0.05036719 -0.054295488 -0.15411004 -0.010694609
000180 9f 87 c6 3d 94 33 0c 3d b4 d4 a2 bd 5e 25 8b bc
       0.096938364 0.034228876 -0.07950726 -0.016985592
000190 80 1a 81 bd 7f 0f 1c bd 00 b4 a0 3c 9e 3d 44 bd
       -0.063038826 -0.038100716 0.01961708 -0.047910325
0001a0 2c e7 0b 3b df 39 c2 3d 7e f0 c4 3d 53 9b 89 3d
       0.0021347506 0.09483694 0.09616183 0.06719079
0001b0 9d fc 24 bd 68 db bc 3c b5 14 76 3d e6 9c 0e 3d
       -0.040279973 0.02305384 0.06007834 0.0348176
0001c0 a8 7f 02 3e aa ab dc bd 14 d5 b6 3c c8 f9 ca 3d
       0.1274401 -0.1077493 0.0223184 0.09910923
0001d0 f7 08 42 3d 0f 88 e3 3c e2 30 b2 3d 41 37 66 bd
       0.04737183 0.027774839 0.0870073 -0.056205038
0001e0 c0 3d 67 bd 53 ab 64 bc 66 f5 58 3c df d5 a6 3d
       -0.056455374 -0.0139568625 0.013242101 0.081462614
0001f0 ab 5e af 3c 41 77 8e bd 6b 44 8f 3d 24 05 47 bd
       0.021407446 -0.0695634 0.069954716 -0.048588887
000200 b0 29 72 bc 81 6a 98 bb 48 29 a2 3d 0b 57 c9 3c
       -0.014780447 -0.004651368 0.0791803 0.024577638
000210 02 18 af 3d 97 cb ad 3d e9 8c 87 bd 04 ef 49 3d
       0.08549501 0.08486097 -0.06618673 0.04930021
000220 ff b8 8b 3d 2f 0e 8b 3d 12 99 bd 3d 80 e0 0e bb
       0.068223946 0.06789815 0.092577115 -0.0021801293
000230 32 9f a2 bd b1 16 a9 bd 35 08 c9 bc 77 e0 9d 3d
       -0.0794052 -0.08256281 -0.024540046 0.07708829
000240 a2 ce 8e 3d f8 7c 79 bd 2e 3c 80 3d 9a 09 93 3d
       0.06973006 -0.060910195 0.06261478 0.07179566
000250 e5 dd 33 bd 4a c6 9c bd 4d f0 7c 3d 6b 61 b9 3d
       -0.043912787 -0.07655008 0.061752606 0.09051784
000260 ff 76 ad 3d d2 be 1e bd d7 28 1b bd 1d e3 71 3c
       0.08469962 -0.0387562 -0.037880745 0.014763621
000270 7d 4e 7a 3d 03 09 27 bd 02 c8 7e 3c 70 1a 21 be
       0.06111001 -0.04078008 0.015550615 -0.15732741
000280 d0 5b 1e bc 20 4a c2 3d 30 64 a4 3c 0c 06 eb 3c
       -0.0096654445 0.094867945 0.020067304 0.028689407
000290 98 6b 61 bd a5 1c bb 3d 56 54 09 bd 71 14 9d 3d
       -0.05503425 0.09136323 -0.033527695 0.076699145
0002a0 19 a7 63 ba 95 a9 0b 3d df 64 8f bd 3f 0d 2f bd
       -0.0008684262 0.034097273 -0.070016615 -0.04273724
0002b0 78 d2 16 3d cd 62 80 3d 5b e2 17 bd a7 30 05 3d
       0.036821812 0.06268845 -0.037081104 0.0325171
0002c0 05 b9 71 bd 5b f0 6d bc 3e 3c 5d 3d b6 63 09 3d
       -0.05901434 -0.014522637 0.05401253 0.033542357
0002d0 da 5c ef 3b b2 8b 4a bc be 38 99 bd 7c fb b0 bb
       0.00730477 -0.0123624075 -0.07481526 -0.005401073
0002e0 1d 9c 7c bc e4 35 f2 bb 8d 90 56 bd b7 53 c7 3c
       -0.01541808 -0.007391678 -0.052383948 0.02433191
0002f0 35 a3 a5 bd 76 ec 52 bd 18 4e 8a bc 95 35 b4 bd
       -0.0808777 -0.051495038 -0.016882941 -0.087992825
000300 cc bc 6c bd a5 d3 a6 3d f9 ac 6a 3c 2e 7b 98 3d
       -0.05779724 0.08145837 0.014323466 0.0744537
000310 a8 94 aa 3d 6e fb f0 bc e7 af 97 bd f2 b9 6a bd
       0.08329135 -0.029416766 -0.074065976 -0.057306238
000320 81 a2 89 bd a5 e7 b2 3d e9 5d 66 bd 2e a2 b2 bc
       -0.06720448 0.08735589 -0.056241903 -0.021805849
000330 5d d0 32 3d 7f 84 62 3d 7e c3 96 3c 23 4a 08 bd
       0.043655742 0.05530214 0.018403765 -0.033273827
000340 a8 5b 45 bd b0 78 fb bc bd e4 d2 bc f1 07 ba 3d
       -0.048183113 -0.030697197 -0.025743837 0.09083546
000350 4c 04 e1 bd 54 e3 80 3d 66 20 b1 3c fd d3 67 bd
       -0.10987148 0.062933594 0.021621894 -0.056598652
000360 e0 64 bd 3d 71 18 ad 3d 30 38 db 3d 27 15 52 bd
       0.09247756 0.084519275 0.10704076 -0.051289704
000370 6e f6 96 bd 65 5f af bd 4d a1 97 bd b8 d7 b6 bd
       -0.073712215 -0.08563117 -0.074038126 -0.08927864
000380 81 f6 c2 3d b8 c7 8d bd 23 62 8f bd 31 8c bf 3d
       0.09519673 -0.06922859 -0.0700114 0.09352911
000390 7c 05 dc b8 49 8c a5 bd 08 fc aa 3c 2a 38 c7 3c
       -0.00010491439 -0.08083398 0.020872131 0.024318773
0003a0 18 86 8f bd b1 b7 a9 3d c6 2f f5 39 5d 0b 4a 3d
       -0.07007998 0.082869895 0.00046765635 0.049327243
0003b0 77 65 2a bd c1 ac 19 bd 03 82 11 bd 3f 49 9e 3d
       -0.04160067 -0.037518267 -0.03552438 0.07728814
0003c0 8b 4d 61 3d 6b d4 0b 3c cb 15 34 bd 44 6a bd 3c
       0.05500559 0.008534531 -0.043966096 0.02312196
0003d0 12 2d 32 bd 43 b2 80 bd b2 8e b3 bc 6c 61 89 3d
       -0.043500014 -0.06284001 -0.021918628 0.06708035
0003e0 71 5d 05 3d 51 7a 19 bd ca 4d be 3d d7 8a 36 bd
       0.032559816 -0.037470166 0.09292181 -0.044566
0003f0 0f 08 f2 bc 1d 62 92 3d d4 55 de bc a8 e7 79 3d
       -0.029544858 0.0714762 -0.027140535 0.06101194

bias f4 [128]
000000 ee 94 16 3e f9 aa b3 3d 40 5a 10 3e e9 f5 d1 3c
       0.1470525 0.08772845 0.14096928 0.025629954
000010 d2 81 4e 3c ab ba 6e 3d 68 ca be bd 72 93 8f 3d
       0.012604194 0.05828349 -0.0931595 0.07010545
000020 bb fa 1c 3e 81 f5 9b 3d e0 48 92 3d be c1 51 3c
       0.15330021 0.076151855 0.07142806 0.012802539
000030 17 ac 09 3d 80 25 ff 3a a6 8f e7 3c 2c 29 8c 3d
       0.033611383 0.0019466132 0.02826674 0.068437904
000040 be 4d 36 3d 11 52 16 3e 68 8d 03 3d 12 17 5f 3d
       0.044507734 0.14679743 0.032117277 0.05446536
000050 7f 8a 6f bd 12 6c 66 bd da b7 7a bb 7b 23 99 3d
       -0.05848169 -0.056255408 -0.0038256557 0.074774705
000060 24 94 ba bc 0e de e8 3d aa 84 de 3d 6a be 53 3c
       -0.022775717 0.113704786 0.108651474 0.012923816
000070 75 d6 7d bd 01 40 a8 3b 66 de 2e 3d 84 8c bf 3c
       -0.0619721 0.005134583 0.042692564 0.023382433
000080 ab ca 01 3e 75 ea a4 bd 76 69 8b bd f1 75 33 3d
       0.12674968 -0.08052532 -0.068072245 0.04381365
000090 cc b0 e3 bd 34 86 86 bd 05 d1 ef bd 3b cc 8a 3d
       -0.11117706 -0.06568566 -0.11709789 0.06777235
0000a0 bb 89 cd bc 8c 8d de bc b8 67 1a bd b9 cb e2 3d
       -0.025090089 -0.027167104 -0.03769657 0.11074013
0000b0 ad 22 c9 3c f5 6a 0c 3d 95 d8 98 bd b0 0d a2 3c
       0.024552668 0.03428169 -0.07463185 0.019781917
0000c0 d3 e9 93 bd fa 24 8c 3d d7 ba 9a 3d 9b b3 1c b9
       -0.07222333 0.0684299 0.07555168 -0.00014944228
0000d0 38 08 e6 bd a9 49 fa bc 94 6d 0e bd d0 ce 86 3d
       -0.11232036 -0.030552702 -0.03477247 0.06582415
0000e0 2e 7f 8b 3d d7 c3 fe bc 0c 0a c5 3d 7b 83 2d 3d
       0.06811367 -0.031099243 0.09621057 0.042361718
0000f0 1e f1 06 b9 6b 0a 1b be b9 58 9a 3d 8f 3f 04 3d
       -0.00012869059 -0.15140693 0.07536454 0.032287177
000100 f4 c7 1f 3e db f0 ae bd 15 9f 8f bc fa 9b 9d bd
       0.1560362 -0.08542033 -0.01753191 -0.07695766
000110 ce 2b 98 bd 60 3c 31 3d b7 83 16 bd 42 22 f2 3c
       -0.0743023 0.04327047 -0.036746707 0.029557351
000120 76 7f d3 3c b9 cc 36 3c 52 87 15 3e 55 5b 19 bd
       0.025817614 0.011157208 0.14602402 -0.037440617
000130 bf 83 04 3d f5 e0 7e 3d 23 ed ef 3d 9e f9 c9 bc
       0.032352205 0.062226254 0.11715152 -0.02465516
000140 0c fd 81 3d 79 d2 64 bd 62 22 8c 3d 94 67 d6 3d
       0.06347093 -0.055864785 0.068424955 0.10468975
000150 95 53 6b 3d 1a 6b 47 bd a4 ea 96 bc cd 31 2d 3d
       0.057452757 -0.048686124 -0.018422432 0.04228382
000160 bf 7c a7 bd 1e 7c 35 3c e8 9e bd 3c 16 8d b9 bd
       -0.0817809 0.011076955 0.023147061 -0.09060113
000170 a1 d9 5e 3d a8 39 1e bd 4e 21 b7 bd ee 2d d7 3d
       0.054406766 -0.038629204 -0.08941899 0.10506807
000180 0e a2 94 bd 5f e0 8f 3d 09 dc db bd 5d 6c 1e bd
       -0.07257472 0.07025217 -0.10735328 -0.038677562
000190 79 80 92 bd 2e 6c 9d bd 14 d4 53 3d 68 99 49 3e
       -0.071534105 -0.07686649 0.051715925 0.19687426
0001a0 2e 17 a6 bd 3e f9 95 bd a0 28 be bd dd 1f 90 3c
       -0.0810989 -0.0732293 -0.09285092 0.017593319
0001b0 41 84 34 3e d0 94 31 3d 71 c6 89 bd e7 70 bb 3d
       0.17628576 0.04335481 -0.06727303 0.09152394
0001c0 18 3b 76 bd 07 9f 56 bd 86 14 d5 3d 7e 96 37 bd
       -0.06011495 -0.052397754 0.10404305 -0.044821255
0001d0 fb f9 04 bc 59 56 95 3d 21 47 cb 3d 69 1e 95 3c
       -0.008116241 0.0729186 0.09925676 0.018202977
0001e0 cb 98 62 3b 97 af 25 3e 10 df 00 bc 61 75 31 3d
       0.0034575935 0.16180263 -0.007865682 0.043324832
0001f0 0f f7 28 bb c0 e0 a4 bd cc 7a 4e bd bd 40 19 be
       -0.0025782024 -0.0805068 -0.050410077 -0.14966102
