IO_DynaPlex/DeepControlledLearning/PolicyWeights/lost_salespoisson_p4_l8_N5000/_gen.pth (torch, 287612 bytes, 10 tensors)

weight f4 [256, 8]
0	0x3d47a2f9	0.048739407
1	0x3eb6f3c8	0.35732865
2	0x3ebb97f4	0.3663937
3	0xbdb8d456	-0.09024875
4	0xbeb27518	-0.3485496
5	0xbec2f4ef	-0.38077495
6	0xbdaf2c9a	-0.08553429
7	0x3cb9befd	0.022674078
8	0x3e18dc86	0.14927873
9	0xbebcd6bc	-0.3688258
10	0x3e5be371	0.21473481
11	0x3c1ee022	0.009696992
12	0xbe01c468	-0.1267258
13	0xbe04cd8a	-0.12969032
14	0xbd9ce140	-0.076601505
15	0xbd66dbc4	-0.05636193
16	0x3d6a5a85	0.057215232
17	0xbe19dede	-0.15026423
18	0x3e6e965c	0.23299545
19	0x3d33ec5a	0.043926574
20	0x3e0b4c81	0.13603403
21	0xbe24662a	-0.16054597
22	0x3d4fe3ba	0.050754286
23	0xbe4727c6	-0.19448766
24	0x3e895766	0.26824492
25	0xbe4ebb4b	-0.20188634
26	0xbd66738e	-0.056262545
27	0xbdfa8b68	-0.12233621
28	0x3e6ba413	0.23011808
29	0xbdae6542	-0.08515407
30	0x3b8e47d8	0.0043420605
31	0xbea2730b	-0.31728396
32	0xbe8b8e20	-0.2725687
33	0x3e84a88c	0.2590984
34	0x3e9a0b98	0.3008697
35	0x3dec3c67	0.11534958
36	0x3e4ca4f2	0.19984797
37	0xbe0bea29	-0.13663544
38	0xbd22d9c3	-0.039758455
39	0x3e309be1	0.17246963
40	0x3c354f5f	0.011066287
41	0xbcead182	-0.028664354
42	0xbdce7ee9	-0.100828
43	0x3d3b49c1	0.045724634
44	0x3e5814cd	0.21101685
45	0x3cdc80d5	0.0269169
46	0xbef33829	-0.47503784
47	0x3eb33961	0.35004714
48	0x3a90bf39	0.0011043317
49	0xbd182f27	-0.037154343
50	0xbea08543	-0.3135167
51	0x3c9c31d4	0.019066729
52	0xbe7af8b1	-0.2450893
53	0xbbd4742e	-0.0064835763
54	0xbe2c2030	-0.16809154
55	0xbd0b30ec	-0.033982202
56	0xbe717ce7	-0.23582803
57	0xbd5e8632	-0.054327197
58	0x3eb3fc0f	0.35153243
59	0x3e01185f	0.12606953
60	0x3e84022e	0.25782913
61	0x3e774667	0.2414795
62	0xbcfa00aa	-0.030517895
63	0xbe0a3b3a	-0.13499156
64	0xbe7aa5c9	-0.24477305
65	0xbe43bfc6	-0.19116125
66	0xbe0634a6	-0.13106021
67	0x3e023594	0.12715751
68	0xbe0e9d1b	-0.13927118
69	0x3c68b537	0.014203361
70	0xbcd383c3	-0.025819665
71	0xbea216e7	-0.31658098
72	0xbd0feea3	-0.03513969
73	0x3e442a57	0.19156776
74	0xbc9c93e9	-0.019113498
75	0xbe7add6e	-0.24498531
76	0x3ded99a8	0.11601573
77	0xbe86ce11	-0.2632909
78	0x3e74046f	0.23829816
79	0xbd6e9cee	-0.05825513
80	0xbeb492f6	-0.35268372
81	0xbe4a35c9	-0.1974708
82	0xbeb33cce	-0.35007328
83	0x3eb41b00	0.3517685
84	0x3e666019	0.22497596
85	0xbe07f7ac	-0.13278073
86	0x3daf8a12	0.08571257
87	0xbd815964	-0.06315878
88	0xbea52c14	-0.3226019
89	0xbe18a546	-0.14906797
90	0xbe9f980a	-0.31170684
91	0x3ea7d005	0.32775894
92	0x3dacd7cd	0.08439598
93	0xbccb961a	-0.024851847
94	0xbd76ccb2	-0.060253806
95	0xbe578fcb	-0.21050946
96	0xbe0bf855	-0.1366895
97	0x3e9b8ed2	0.303824
98	0x39671898	0.00022039039
99	0x3e7dd2ab	0.24787395
100	0x3e4cde17	0.20006596
101	0x3d64ca5e	0.055857055
102	0xbe48330b	-0.19550721
103	0xbe5336d4	-0.20626384
104	0xbd1bc60a	-0.03803066
105	0xbea087c8	-0.31353593
106	0xbe4e9c0d	-0.20176716
107	0x3d0968cb	0.033547204
108	0xbe8c0418	-0.27346873
109	0xbdad1235	-0.08450738
110	0xbe431cf3	-0.19054012
111	0xbbab020a	-0.005218749
112	0x3e6d77cd	0.23190232
113	0x3ec5d106	0.38636035
114	0x3e6fdda1	0.23424388
115	0xbe2cfffe	-0.16894528
116	0x3e855186	0.2603876
117	0xbe90a4ce	-0.28250736
118	0xbeb84254	-0.35988104
119	0xbea06193	-0.31324443
120	0xbe4aac5b	-0.19792311
121	0x3ccdad61	0.025107088
122	0xbe17d7c5	-0.14828403
123	0xbd912605	-0.0708733
124	0xbe07965e	-0.13240954
125	0xbd86aae7	-0.06575566
126	0xbea61e42	-0.3244496
127	0x3d0ca948	0.034341127
128	0x3e609280	0.21930885
129	0xbe28adc9	-0.16472544
130	0x3e61adda	0.22038975
131	0xbe02e61f	-0.12783097
132	0x3da602a1	0.0810597
133	0xbea7a914	-0.32746184
134	0xbe887daf	-0.2665839
135	0xbc68fe21	-0.014220745
136	0xbe25c3f5	-0.16188033
137	0xbe52c571	-0.2058313
138	0x3e4af341	0.19819357
139	0x3e77903c	0.24176115
140	0x3e9526ac	0.29131067
141	0xbdd73533	-0.10508194
142	0xbe8b69f5	-0.27229276
143	0x3eca4b95	0.3951079
144	0xbd589d29	-0.052884255
145	0xbd94dc3f	-0.07268571
146	0xbceb6384	-0.028733976
147	0xbe2f5cd0	-0.17125249
148	0xbe32f32a	-0.17475572
149	0x3e6b8964	0.23001629
150	0xbbf3b083	-0.0074368133
151	0x3e38c43b	0.18043606
152	0x3db99d5e	0.090632185
153	0xbeab13dc	-0.3341359
154	0xbe828d58	-0.25498462
155	0x3e5ea143	0.21741204
156	0x3e1b557a	0.15169325
157	0x3b421244	0.0029612938
158	0xbe8525d5	-0.26005426
159	0x3ec9bc58	0.39401507
160	0x3cfff6de	0.031245645
161	0x3d79edcd	0.0610178
162	0x3d8b2aa6	0.06795244
163	0xbd8e6d55	-0.06954447
164	0x3e19be24	0.15013939
165	0xbe361468	-0.17781222
166	0x3dba6a2a	0.091022804
167	0xbd2711b4	-0.040788367
168	0xbe326fc7	-0.17425452
169	0x3dc1dc2e	0.09465824
170	0x3e806df3	0.25083885
171	0xbe23a4eb	-0.1598088
172	0xbe837ef1	-0.25682786
173	0x3e256ee1	0.16155578
174	0x3e454a9b	0.19266741
175	0x3daacac7	0.08339458
176	0x3e8f9c9f	0.2804918
177	0xbe045a28	-0.12925017
178	0xbe91db4b	-0.2848762
179	0xbed24738	-0.4106996
180	0x3eb9a274	0.36256754
181	0xbccb9b12	-0.024854217
182	0xbd405114	-0.046952322
183	0xbe9b0021	-0.30273536
184	0x3e0f5a99	0.13999404
185	0xbe42e7f6	-0.19033799
186	0x3e6f540a	0.23371902
187	0x3e0798f9	0.13241948
188	0x3e706116	0.23474535
189	0xbd96aa7c	-0.07356736
190	0xbda0c376	-0.07849781
191	0xbedeefc3	-0.435423
192	0xbd234d67	-0.03986874
193	0x3dc091c1	0.094028
194	0x3d990236	0.07471125
195	0xbdca63b2	-0.098822966
196	0x3e35594b	0.17709844
197	0x3ba8931e	0.005144491
198	0x3dec74af	0.11545693
199	0xbd9a8d07	-0.0754643
200	0xbd699d39	-0.057034705
201	0xbe937dfc	-0.28807056
202	0x3e1ea010	0.15490746
203	0xbcdc2fc2	-0.026878241
204	0x3dbb8381	0.09155942
205	0xbe08daa1	-0.1336465
206	0x3e81ddd6	0.2536456
207	0x3e9e35f0	0.30900526
208	0xbe18de51	-0.14928557
209	0x3e3ab21c	0.18232006
210	0x3cc3f2d6	0.023919504
211	0x3a8115cc	0.0009848415
212	0xbe034630	-0.12819743
213	0x3e8beeb4	0.27330554
214	0xbe03f487	-0.12886249
215	0x3baf0ab8	0.005341854
216	0x3e42f195	0.19037469
217	0xbd77c67f	-0.060492035
218	0xbba88710	-0.005143054
219	0xbe220f13	-0.15826063
220	0xbe9ab4e9	-0.30216148
221	0x3c39890c	0.011324178
222	0x3e85c83c	0.2612933
223	0x3e685303	0.22687916
224	0x3e061c1e	0.13096663
225	0xbd9a7929	-0.07542641
226	0xbec91aaa	-0.39278156
227	0x3d9125c1	0.07087279
228	0x3c1de8d5	0.009638031
229	0xbda48dd0	-0.08034861
230	0x3e3adf3c	0.1824922
231	0xbe3e80c3	-0.18603806
232	0xbe5b63ec	-0.21424836
233	0xbe07ad92	-0.13249806
234	0xbcb6f146	-0.022331845
235	0xbe8b9e01	-0.27268985
236	0x3bd37270	0.006452851
237	0x3e989d64	0.2980758
238	0xbe600a4e	-0.21878931
239	0xbd19e81f	-0.037574884
240	0xbbf9647b	-0.007610855
241	0x3e2288ef	0.15872549
242	0x3d6df93b	0.058099013
243	0x3cfc4bb6	0.03079782
244	0x3c9b017c	0.018921606
245	0xbe4bafb7	-0.19891249
246	0xbe0f0234	-0.13965684
247	0xbb647f34	-0.0034865858
248	0x3ea18401	0.31546023
249	0xbd71e0cd	-0.059052277
250	0xbd0b8b57	-0.03406843
251	0xbeb81688	-0.3595469
252	0xbe2c2ebb	-0.16814701
253	0xbe43e40c	-0.19129962
254	0x3e8127fd	0.2522582
255	0xbd8de99f	-0.06929325

bias f4 [256]
0	0xbdb9e7bb	-0.09077402
1	0x3e1590ba	0.1460599
2	0xbe616d5c	-0.22014374
3	0xbdb49cd6	-0.088189766
4	0xbeadc956	-0.3394267
5	0x3e8877db	0.26653942
6	0xbe9f08fa	-0.31061536
7	0xbcc98c47	-0.024603022
8	0xbeb15317	-0.34633705
9	0x3eae08bb	0.33991036
10	0x3dc64fb4	0.09683171
11	0xbeb2ad36	-0.34897774
12	0x3ec46594	0.38358748
13	0xbe81f375	-0.25381055
14	0x3ebf9d11	0.3742452
15	0x3e9e7380	0.30947495
16	0xbea5b396	-0.32363576
17	0xbe9b4fdc	-0.30334365
18	0x3e61bf73	0.22045688
19	0x3d66125f	0.056169864
20	0xbf0d7cf4	-0.5526879
21	0xbed6dc11	-0.41964772
22	0xbe936b1c	-0.28792655
23	0x3ede39a7	0.4340336
24	0xbe8cf22e	-0.27528518
25	0xbed0cd62	-0.40781695
26	0xbd6261f1	-0.055269185
27	0xbf001c4e	-0.5004319
28	0xbd8b6d32	-0.06807937
29	0xbc124dae	-0.008929653
30	0x3ef12c84	0.47104275
31	0xbea6a776	-0.32549638
32	0xbe6763ad	-0.22596617
33	0x3e13156b	0.14363639
34	0x3ebed2e5	0.37270275
35	0x3ea622f6	0.32448548
36	0x3e8ecc17	0.27890083
37	0xbe12b38b	-0.14326303
38	0x3e963377	0.2933614
39	0x3d49997d	0.049218643
40	0x3eca80db	0.39551434
41	0xbe8bcd86	-0.2730524
42	0x3d3d61e4	0.046235934
43	0xbe9c8bdb	-0.3057545
44	0xbe977451	-0.2958093
45	0xbe11f446	-0.14253339
46	0xbe7272c2	-0.23676589
47	0xbec1c3a3	-0.3784457
48	0x3cd574e7	0.02605672
49	0xbe1cdf33	-0.15319519
50	0xbe364a1a	-0.17801705
51	0xbb39df79	-0.002836196
52	0xbdb7b614	-0.089702755
53	0x3e8d47fb	0.2759398
54	0x3ef84b31	0.48494866
55	0xbe1b4b0e	-0.1516535
56	0x3e97bc2c	0.2963575
57	0x3dd604ab	0.10450109
58	0xbe34eb37	-0.17667852
59	0x3eaa370f	0.3324513
60	0x3ec266ac	0.37968957
61	0xbe65d0b3	-0.22442894
62	0x3de3aa4a	0.111164644
63	0xbe6921ce	-0.22766802
64	0xbd30d542	-0.04317213
65	0xbe0dbc41	-0.13841344
66	0xbecb3e99	-0.39696196
67	0xbeecfab9	-0.46285036
68	0x3ea7ad23	0.3274928
69	0xbe8b8d34	-0.27256167
70	0x3d43b20c	0.04777722
71	0xbd2bcc3c	-0.04194282
72	0x3c50333a	0.012707526
73	0x3e3806d9	0.17971362
74	0xbc1cc77d	-0.009569046
75	0x3b86304d	0.0040951134
76	0xbef43527	-0.47696802
77	0xbdba979a	-0.09110947
78	0x3ca26794	0.01982478
79	0x3eae7816	0.34075993
80	0xbe859682	-0.2609139
81	0x3d552092	0.052033015
82	0x3e8ae312	0.27126366
83	0xbd6abf0f	-0.057311114
84	0xbc998092	-0.018738065
85	0x3eabe29a	0.3357132
86	0xbecae3a6	-0.39626807
87	0xbe41219d	-0.18860479
88	0xbc1050bd	-0.008808312
89	0xbec87259	-0.3914974
90	0xbe1d5c92	-0.15367344
91	0x3eeadc75	0.4587132
92	0x3d316cf2	0.04331679
93	0xbc2c5355	-0.010517915
94	0xbd7b818b	-0.06140284
95	0x3ef34d8c	0.475201
96	0xbe36f8ef	-0.17868398
97	0xbdb3e545	-0.08783964
98	0x3e035c0b	0.1282808
99	0xbea92efd	-0.33043662
100	0x3e82fb7c	0.25582492
101	0x3db7ef27	0.089811616
102	0x3dbfd156	0.093660995
103	0xbf08bc81	-0.53412634
104	0xbe9338fb	-0.2875441
105	0x3eff17e9	0.4982293
106	0xbef7acc4	-0.48373997
107	0xbf09b6ae	-0.5379437
108	0xbe3107c4	-0.17288119
109	0x3c2ce93b	0.010553653
110	0xbd93bbb0	-0.07213533
111	0xbe8d990f	-0.27655837
112	0xbd8f8e8c	-0.070096105
113	0x3e7edce4	0.2488895
114	0xbd76db79	-0.0602679
115	0xbe93baf6	-0.28853577
116	0xbf021697	-0.5081572
117	0x3d74859b	0.05969773
118	0xbf03df62	-0.5151273
119	0x3e713b65	0.23557813
120	0xbeff3246	-0.49843043
121	0x3d8527d8	0.0650174
122	0xbe2299a7	-0.15878926
123	0x3d644982	0.055734165
124	0x3e5f6ea9	0.21819557
125	0xbec6076a	-0.3867753
126	0x3e6f5f96	0.23376307
127	0x3e963b49	0.29342106
128	0xbdb5827e	-0.0886278
129	0x3c2496c8	0.010045715
130	0x3dc97e01	0.098384865
131	0xbc8aac52	-0.016927872
132	0xbe5a6b25	-0.21329935
133	0xbeceb33f	-0.4037113
134	0xbdad6592	-0.084666386
135	0xbe7dfda2	-0.24803784
136	0xbcdfd73c	-0.027324311
137	0x3d54c791	0.051948134
138	0xbebc90f2	-0.36829334
139	0x3e7c82d7	0.24659286
140	0x3dddc610	0.10828793
141	0x3ef43b46	0.47701472
142	0x3eede78d	0.46465722
143	0x3e86d2fb	0.2633284
144	0xbe60aec9	-0.21941675
145	0xbeaace33	-0.33360443
146	0xbf085448	-0.53253603
147	0xbe24d324	-0.16096169
148	0x3ea65c27	0.32492182
149	0xbe6070c6	-0.2191802
150	0xbe14df8d	-0.14538403
151	0x3eb3526a	0.35023814
152	0xbdf05995	-0.117358364
153	0xb8f89022	-0.00011852408
154	0xbde0b102	-0.109712616
155	0x3e255ca8	0.16148627
156	0x3d229885	0.039696235
157	0xbe010473	-0.12599353
158	0x3e9866ca	0.29765922
159	0xbe9ec0de	-0.3100652
160	0xba86eb56	-0.0010293524
161	0x3c50459c	0.012711909
162	0x3e61955e	0.22029635
163	0xbd80fd66	-0.06298332
164	0x3ebe2a67	0.37141725
165	0x3de8df6c	0.11370739
166	0x3e33ef37	0.17571722
167	0x3eb64564	0.35599816
168	0xbe18c17f	-0.14917563
169	0xbe96e644	-0.29472554
170	0xbbf75c7b	-0.0075488663
171	0xbe93e671	-0.2888675
172	0xbd677cd0	-0.056515515
173	0x3eb67b72	0.35641056
174	0xbe1040e1	-0.1408725
175	0x3cc45793	0.02396754
176	0xbe9f2b89	-0.31087902
177	0x3ef5ce1f	0.4800882
178	0x3ea6a388	0.3254664
179	0x3e301b2c	0.17197865
180	0x3dd66d96	0.104701206
181	0xbe655212	-0.22394589
182	0xbeb60295	-0.35548845
183	0xbe579854	-0.21054202
184	0x3d8d43ee	0.06897722
185	0x3ec7cd8f	0.39024016
186	0x3e8cddcf	0.27512977
187	0xbd91bca7	-0.07116061
188	0xbe85e36b	-0.2615007
189	0xbe3b73a5	-0.18305834
190	0x3e3849f5	0.17996962
191	0x3dead94c	0.11467227
192	0xbd7fe232	-0.062471576
193	0xbdce1038	-0.10061687
194	0xbecada4f	-0.3961968
195	0xbec8142c	-0.3907789
196	0x3e185674	0.14876729
197	0xbe837219	-0.25672987
198	0x3e371167	0.17877732
199	0xbd5bfce6	-0.05370798
200	0xbec6c511	-0.38822225
201	0xbf156bec	-0.583678
202	0xbe609116	-0.21930346
203	0x3d07fb79	0.033198807
204	0x3ee05ff5	0.4382321
205	0x3eb1be99	0.34715727
206	0xbe5c8a74	-0.2153719
207	0xbee58f9a	-0.44836122
208	0xbe26c957	-0.16287743
209	0x3e625672	0.22103289
210	0x3d6188b8	0.055062026
211	0x3e7f5a98	0.24936903
212	0xbeaad711	-0.33367208
213	0x3e20c088	0.15698445
214	0x3f0b6c64	0.54462266
215	0xbe204159	-0.15649928
216	0xbdc12ba5	-0.09432153
217	0x3eabdc17	0.33566353
218	0x3e99b5bb	0.30021462
219	0x3c8b362e	0.016993608
220	0xbede6194	-0.4343382
221	0xbcce7328	-0.025201395
222	0x3e414854	0.18875247
223	0xbeed88ec	-0.46393526
224	0xbe243cf1	-0.16038872
225	0xbcbdf048	-0.023185864
226	0xbf058b86	-0.5216602
227	0x3d803582	0.06260206
228	0xbdb8d517	-0.09025019
229	0x3e369ac6	0.17832479
230	0xbe8404f7	-0.25785038
231	0x3eb3353d	0.35001555
232	0xbe73f5e7	-0.23824273
233	0x3e205b78	0.15659893
234	0x3ebab7fd	0.36468497
235	0x3ed8c730	0.42339468
236	0xbe10c1e6	-0.14136466
237	0xbf0844f0	-0.5323019
238	0xbe31c83d	-0.17361541
239	0x3d5fd802	0.05464936
240	0xbe0a6286	-0.13514146
241	0xbe3a66be	-0.18203256
242	0xbeb96bd2	-0.36215073
243	0xbe6e3f76	-0.23266396
244	0x3e65c3db	0.22437994
245	0xbda2689f	-0.07930111
246	0x3df73126	0.12069921
247	0x3c39b242	0.011334004
248	0xbf00921d	-0.5022295
249	0x3e990aee	0.2989115
250	0x3dad180f	0.084518544
251	0x3e0dae5c	0.13836044
252	0x3e6ebec6	0.23314962
253	0xbd05fd87	-0.032712486
254	0x3ed54ffe	0.41662592
255	0xbe20af3e	-0.1569185

weight f4 [128, 256]
0	0x3d1233a0	0.035693765
1	0x3d680b58	0.056651443
2	0xbc112278	-0.008858316
3	0xbd13725e	-0.03599774
4	0xbd09e1fe	-0.03366279
5	0xbd1b5ece	-0.03793221
6	0x3d39dfe0	0.04537952
7	0x3d536418	0.05160913
8	0xbd28b068	-0.04118386
9	0xbd19be7c	-0.037535176
10	0x3d7e199c	0.06203614
11	0x3d07e288	0.03317502
12	0xbd54bac8	-0.05193594
13	0x3d6055cc	0.054769322
14	0xbd13372a	-0.03594128
15	0xbd745622	-0.059652455
16	0xbd0253ce	-0.031818204
17	0x3cf0dab0	0.029401153
18	0x3bb55ad0	0.0055345073
19	0xbd135e18	-0.035978407
20	0x3d0b0afe	0.03394603
21	0x3c181c50	0.009284094
22	0x3d1b5446	0.037922166
23	0xbd7c02e6	-0.0615262
24	0xbd35cafc	-0.044383034
25	0x3af59540	0.0018736497
26	0xbce206d0	-0.02759114
27	0xbcd37c64	-0.02581615
28	0x3d0e650e	0.034764342
29	0xbb9ccd10	-0.0047851875
30	0x3cb8e5c8	0.022570506
31	0x3d39170c	0.045187995
32	0xbd3c3d4e	-0.045956902
33	0x3c595148	0.013264008
34	0x3c8cef24	0.017203875
35	0x3cdf27b0	0.027240604
36	0xbd1a3ef0	-0.037657678
37	0x3ba9c040	0.0051803887
38	0xbb257e40	-0.0025252253
39	0xbd260446	-0.04053142
40	0xbd5f3368	-0.054492384
41	0xbd1f24de	-0.03885352
42	0xbd646700	-0.05576229
43	0xbb87c1b0	-0.0041429624
44	0xbd796ce8	-0.060894877
45	0x3d51118e	0.051042132
46	0xbd33f4a8	-0.043934494
47	0xbc63da20	-0.0139069855
48	0xbd1d114c	-0.038346574
49	0xbd56a38a	-0.052402057
50	0x3c8d2dd8	0.017233774
51	0x3aba6080	0.0014219433
52	0x3cddf7bc	0.027095668
53	0xbc97d534	-0.01853428
54	0x3ccc9308	0.024972454
55	0x3c47cec8	0.012195297
56	0xbd6afc58	-0.05736956
57	0x3d2e2bf8	0.0425224
58	0xbc7c9de8	-0.015418507
59	0x3ae66700	0.0017578304
60	0xbd5f3a38	-0.05449888
61	0xbcb375c8	-0.021906748
62	0x3d34dad0	0.04415399
63	0x3d15af22	0.036543973
64	0x3d6c50da	0.057694294
65	0x3c20bc60	0.009810537
66	0x3c1d9970	0.009619102
67	0x3cfd3978	0.030911192
68	0x3d26f230	0.04075831
69	0xbcea7cec	-0.02862402
70	0xbcd22d78	-0.025656447
71	0x3ca8c0e4	0.02059979
72	0x3c87a430	0.016557783
73	0x3c0fe640	0.008782923
74	0xbca2aa90	-0.019856721
75	0xbbac3fd0	-0.0052566305
76	0x3d2603d2	0.040530987
77	0xbcdc7f70	-0.026916236
78	0x3c8b0478	0.016969904
79	0xbd62c6e0	-0.055365443
80	0xbc42d490	-0.011891499
81	0xbcbb4bc4	-0.022863276
82	0xbd77be84	-0.060484424
83	0xbc5dcdc0	-0.013537824
84	0xbce740f0	-0.028229207
85	0x3d2620b4	0.040558532
86	0x3af5d6c0	0.0018756017
87	0xbcc286b4	-0.023745872
88	0xbce4c738	-0.027927026
89	0xbc0db588	-0.008649237
90	0xbc60bff8	-0.013717644
91	0xbb016520	-0.0019744113
92	0xbb939f30	-0.0045050606
93	0xbba6c280	-0.005089104
94	0xbcf6bc44	-0.030119069
95	0x3d44a75e	0.048011176
96	0xbd383aea	-0.04497806
97	0xbd43cdd8	-0.04780373
98	0x3c55cef8	0.0130498335
99	0xbc054ff8	-0.008136742
100	0xbd640672	-0.05567021
101	0x3d4958a8	0.049156815
102	0x3d54bec4	0.05193974
103	0x3d6c2050	0.057648003
104	0x3d43f658	0.047842354
105	0x3d57cdec	0.052686617
106	0x3b373760	0.002795659
107	0x3d2f1648	0.04274586
108	0xbc0c9c30	-0.00858216
109	0x3cddd1d4	0.027077593
110	0x3d3fdee6	0.046843432
111	0xbd59b09a	-0.053146936
112	0x3d4e7138	0.050400943
113	0xbd645d30	-0.055752933
114	0x3d6c3990	0.057672083
115	0x3c6ee128	0.014580049
116	0x3d1477b2	0.036246963
117	0xbd20ec1e	-0.03928768
118	0xbc510a18	-0.012758754
119	0xbc10e7a8	-0.008844294
120	0xbd0cf418	-0.034412473
121	0xbccf8f10	-0.025336772
122	0xbcb444b8	-0.022005424
123	0x3c7bb298	0.015362404
124	0xbd726e4a	-0.05918721
125	0xbd51e8c8	-0.051247388
126	0xbceff79c	-0.029292874
127	0x3c9e591c	0.0193296
128	0x3cc968b8	0.024586067
129	0xbd461fa4	-0.04837002
130	0x3d0950c0	0.033524275
131	0x3cd3f2ec	0.02587267
132	0x3cda8f18	0.02667956
133	0xba15d100	-0.00057150424
134	0xbcd29ffc	-0.025711052
135	0xbc9d10ec	-0.019173108
136	0xbbcd0dd0	-0.00625775
137	0xbd48ac48	-0.048992425
138	0xbcdcb9e8	-0.026944116
139	0xbc5cbac8	-0.0134722665
140	0x3c4e3f78	0.012588374
141	0x3d39575a	0.04524932
142	0xbc2bbd10	-0.010482088
143	0xbd05712a	-0.032578625
144	0xbd1ce870	-0.038307607
145	0xbd63e214	-0.055635527
146	0x3d255620	0.04036534
147	0xbd218fbc	-0.039443716
148	0xbd778908	-0.060433418
149	0xbccc68f8	-0.024952397
150	0x3d18313a	0.03715632
151	0xbd111bde	-0.035426967
152	0xbd438606	-0.047735237
153	0x3c9bd9d4	0.019024767
154	0x3cbd6080	0.023117304
155	0xbd7c8084	-0.061646
156	0x3ccdf75c	0.025142364
157	0x3bdc5460	0.0067239255
158	0x3d6041ac	0.05475013
159	0xbd32b2ae	-0.043627433
160	0xbbc29640	-0.0059383214
161	0xbcc825a8	-0.024432018
162	0x3bfebe80	0.007774174
163	0x3cc7694c	0.024342202
164	0xbc6e3d40	-0.01454097
165	0x3b3e3340	0.0029022247
166	0x3d261144	0.04054381
167	0xbd52e6fa	-0.051489808
168	0x3c87f5fc	0.016596787
169	0xb8eafc00	-0.00011204928
170	0x3ca41934	0.020031549
171	0xbd106acc	-0.0352581
172	0xbcea1bb4	-0.028577663
173	0xba847dc0	-0.0010108277
174	0x3d1da0f8	0.03848359
175	0x3c1cc2b8	0.009567909
176	0x3d4de3d6	0.05026611
177	0xbd1d9a3c	-0.038477167
178	0xbd5a7460	-0.05333364
179	0xbd387616	-0.04503449
180	0x3d185084	0.03718616
181	0xbc60af98	-0.01371374
182	0x3bd12930	0.0063830838
183	0x3c83b28c	0.016076349
184	0x3bede1b0	0.00725957
185	0xbc8862c4	-0.016648658
186	0xbcedf984	-0.029049642
187	0x3cc83258	0.024438068
188	0x3d3f29c6	0.046670698
189	0xbd1d5e48	-0.03841999
190	0x3ca293d4	0.01984588
191	0x3d40a062	0.047027953
192	0x3c8797cc	0.016551875
193	0xbb9c91b0	-0.0047781095
194	0x3d7896f4	0.060690835
195	0x3d1ad5f2	0.03780169
196	0x3bebcf40	0.007196337
197	0x3ca62f1c	0.020286135
198	0xbd1a7f98	-0.03771934
199	0xbc978334	-0.01849518
200	0x3c29b5a8	0.010358252
201	0xbc1b5810	-0.009481445
202	0x3c3395d0	0.010961011
203	0xbcd93050	-0.026512295
204	0x3d63cb10	0.055613577
205	0xbd0da4b8	-0.034580916
206	0x3d65bf56	0.056090675
207	0xbd325868	-0.043541342
208	0x3ceaf388	0.028680578
209	0xbc500300	-0.012696028
210	0xbd4c4944	-0.04987456
211	0x3c7a5f40	0.015281498
212	0xbd2e0844	-0.04248835
213	0x3d085348	0.03328255
214	0xbca50eb8	-0.02014862
215	0x3cd79518	0.02631621
216	0xbb279460	-0.0025570616
217	0x3d6a7c46	0.057247423
218	0x3d4ca56c	0.049962446
219	0x3d65a0b4	0.05606146
220	0xbcec2ab0	-0.028828949
221	0xbd1c16da	-0.03810773
222	0xbd16de6c	-0.03683321
223	0x3d60ff82	0.05493117
224	0xbd7ed0e8	-0.062210947
225	0xbcd12818	-0.025531814
226	0x3c06a178	0.008217208
227	0x3c6978e8	0.014250018
228	0xbd05e5de	-0.03268992
229	0xbd6d81d0	-0.057985127
230	0xbbc93a30	-0.0061409697
231	0x3b725ac0	0.003698036
232	0xbd6fea04	-0.058572784
233	0xbd32632e	-0.043551616
234	0x3cbe0bb4	0.02319894
235	0xbb50d260	-0.0031863675
236	0x3d180a3c	0.037119135
237	0xbd59d066	-0.05317726
238	0xbd759108	-0.059952766
239	0x3c572400	0.013131142
240	0x3cd9ad14	0.026571788
241	0x3d518684	0.051153675
242	0xbcbe7b5c	-0.023252182
243	0xbd6bb5fc	-0.0575466
244	0x3d2b93d0	0.04188901
245	0x3d195262	0.037432082
246	0xbd7762f0	-0.06039709
247	0xbd57662e	-0.05258768
248	0xbd5c88f0	-0.05384153
249	0x3ca55de8	0.02018638
250	0xbc2e0ec8	-0.010623641
251	0x3aea2a40	0.0017865375
252	0xbcccf658	-0.02501981
253	0x3c9d98f0	0.019237965
254	0x3ba924c0	0.0051618516
255	0xbcb03d08	-0.021513477

bias f4 [128]
0	0x3c1782d8	0.009247504
1	0xbd19210f	-0.037385043
2	0xbd687fba	-0.056762435
3	0xbd153a8c	-0.036432788
4	0xbdfb6d58	-0.12276715
5	0x3e2d0ba5	0.16898973
6	0x3d24522a	0.04011742
7	0xbd70ff46	-0.058837198
8	0x3c3de3ff	0.011590003
9	0xbcaa6aa1	-0.020802798
10	0xbe3083ae	-0.17237732
11	0x3ddb9750	0.1072222
12	0xbe34e3e7	-0.17665063
13	0xbc67c308	-0.01414562
14	0xbbdd97af	-0.006762467
15	0x3d3c4970	0.045968473
16	0xbd2973c5	-0.041370172
17	0xbd5fb64a	-0.054617204
18	0xbe2aa359	-0.16663875
19	0x3e10ad17	0.14128529
20	0xbd76c606	-0.060247444
21	0x3c8639cd	0.016384983
22	0xbd752b5a	-0.059855796
23	0x3d1a828d	0.03772216
24	0xbd8180f6	-0.063234255
25	0x3da248ee	0.079240665
26	0xbcc916f2	-0.024547074
27	0x3d57ae9c	0.052656755
28	0xbda39b05	-0.07988552
29	0xbd781ca3	-0.060574185
30	0xbe0858cc	-0.13315123
31	0x3d6e3a96	0.05816134
32	0x3e368ebc	0.17827886
33	0xbe5acaa8	-0.2136637
34	0xbc77ee12	-0.015132444
35	0x3d35012e	0.04419058
36	0xbcb0c1d3	-0.021576798
37	0xbda49124	-0.08035496
38	0x3cf4f0b2	0.029899929
39	0xbd49b560	-0.04924524
40	0xbda02992	-0.07820429
41	0x3e033a95	0.12815316
42	0xbced9373	-0.029000973
43	0xbc522f69	-0.012828686
44	0x3d46a730	0.048499286
45	0x3c784385	0.015152817
46	0xbc4ba912	-0.012430446
47	0xbd630f42	-0.055434473
48	0x3d2feb1a	0.04294882
49	0x3cae99a7	0.021313502
50	0xbdf12666	-0.11774902
51	0x3cc99bf4	0.024610497
52	0x3b8e7b7b	0.004348216
53	0x3d976c3d	0.07393692
54	0xbd2ca47e	-0.04214906
55	0xbe12ffe0	-0.14355421
56	0x3b49211f	0.0030689908
57	0x3bf7b0b6	0.0075589074
58	0x3e4819ff	0.19541167
59	0xbd56df0e	-0.052458815
60	0xbd282e73	-0.041059922
61	0xbd84813b	-0.06469961
62	0xbd864f5b	-0.065581046
63	0xbca17349	-0.019708293
64	0x3e6f3891	0.23361422
65	0xbd056387	-0.03256562
66	0x3ca423e2	0.020036642
67	0x3c148777	0.0090655
68	0xbe2e495c	-0.17020172
69	0xbda380ca	-0.07983549
70	0x3ca70226	0.020386767
71	0xbd098b92	-0.03358037
72	0xbd861ab9	-0.06548066
73	0x3d19ff3c	0.037596926
74	0x3b8bc770	0.004265718
75	0x3d06f963	0.032952677
76	0x3d89d242	0.067295566
77	0x3ddc1668	0.10746461
78	0xbd8370d0	-0.06418002
79	0xbd7a7ba3	-0.061153065
80	0xbdcc57ff	-0.099777214
81	0xbd285502	-0.041096695
82	0xbd5c7d95	-0.0538307
83	0xbc848180	-0.016175032
84	0x3be5c110	0.0070115402
85	0xbd82256a	-0.063547924
86	0x3e159b67	0.14610063
87	0xbce8b014	-0.028404273
88	0xbcba2611	-0.02272323
89	0x3c34f04c	0.011043619
90	0xbbe37b4b	-0.006942188
91	0xbb96d3bd	-0.004602878
92	0x3d3590f5	0.044327695
93	0xbd64ead5	-0.055888016
94	0xbd82223f	-0.06354188
95	0xbd9be85f	-0.07612681
96	0x3cab47c8	0.020908251
97	0x3d5f74ec	0.054554865
98	0xb822fdf8	-3.8860337e-05
99	0x3d634992	0.055490084
100	0xbc9fb721	-0.019496502
101	0x3e3b0f08	0.18267453
102	0xbd0ce2b0	-0.034395874
103	0xbd77da6b	-0.060511034
104	0x3cb14e9e	0.021643933
105	0x3d174253	0.036928486
106	0xbca04a1b	-0.019566586
107	0xbd12d90d	-0.035851527
108	0x3e27ab15	0.16373856
109	0xbd23ab16	-0.039958082
110	0x3b932b8e	0.004491276
111	0xbd39ff3a	-0.04540942
112	0xbd978e1e	-0.074001536
113	0xbd7a2b7d	-0.06107663
114	0xbdd8f516	-0.105936214
115	0xbd472eee	-0.04862874
116	0xbc85512f	-0.016274063
117	0x3d2e0cd3	0.0424927
118	0xbd7186a5	-0.058966298
119	0xbd2bb8c7	-0.041924264
120	0x3ddbd382	0.10733701
121	0xbd13f6e7	-0.036124136
122	0xbcd871c7	-0.02642144
123	0x3c19bc5e	0.009383289
124	0x3c97aa17	0.018513722
125	0xbd47df76	-0.048797093
126	0xbda497e4	-0.08036783
127	0xbd285d98	-0.041104883

weight f4 [128, 128]
0	0xbae0e93b	-0.0017159352
1	0x3cd12c2e	0.025533762
2	0x3da549f1	0.08070744
3	0x3d3fcb27	0.0468246
4	0xbc48db52	-0.012259321
5	0xbda51a85	-0.08061699
6	0xbd7c0af9	-0.0615339
7	0x3be0b746	0.0068577854
8	0xbd1de240	-0.038545847
9	0xbd124808	-0.035713226
10	0x3d9a092c	0.07521281
11	0xbd8ede2f	-0.06975972
12	0xbe04813e	-0.12939927
13	0xbcb194ab	-0.021677336
14	0x3d375d26	0.044766568
15	0x3d972ee7	0.07381993
16	0xbd8f85b1	-0.070079215
17	0xbd56ebec	-0.052471086
18	0x3c1d44cf	0.009598925
19	0xbd93f51c	-0.07224485
20	0x3cb30c23	0.021856373
21	0x3cda3bf1	0.02663991
22	0x3a0f2684	0.00054607564
23	0x3d137e6b	0.036009233
24	0xbd7134e5	-0.058888335
25	0xbddad891	-0.10685838
26	0x3d470da6	0.048597
27	0xbc373a1b	-0.011183287
28	0xbd88f705	-0.0668774
29	0xbd2673cc	-0.040637776
30	0xbe4805ec	-0.19533509
31	0xbd0d9ad3	-0.03457148
32	0xbd8d300c	-0.0689393
33	0xbe89081b	-0.26763996
34	0xbd7cb75e	-0.06169831
35	0xbd0b34fa	-0.03398607
36	0x3c58d579	0.01323449
37	0xbd7b07aa	-0.061286606
38	0xbd1c3c28	-0.038143307
39	0xbd9da67c	-0.0769777
40	0x3a4798c3	0.0007614011
41	0x3c9fb5f1	0.019495936
42	0x3d01a6f9	0.03165338
43	0xbd57eaf7	-0.052714314
44	0xbe4b70e5	-0.19867285
45	0xbd541d20	-0.05178559
46	0xbc8212a6	-0.015878033
47	0xbd00c5cb	-0.03143863
48	0x3d8696ae	0.065717086
49	0xbc0818f2	-0.008306729
50	0x3cc2658c	0.023730062
51	0xbe12ac8c	-0.14323634
52	0x3ca40e31	0.020026298
53	0xbe0b485e	-0.13601825
54	0x3b6159df	0.0034385843
55	0x3e140984	0.14456755
56	0xbca04675	-0.019564847
57	0x3d936aec	0.07198128
58	0xbd393ec2	-0.045225866
59	0xbd155483	-0.03645755
60	0x3da86db4	0.08224049
61	0x3cc32b84	0.02382446
62	0x3ca10efb	0.019660464
63	0x3d5a5393	0.05330236
64	0xbd162113	-0.036652636
65	0x3d838d13	0.06423392
66	0xbe55ca4d	-0.20877953
67	0xbd94b6cc	-0.07261428
68	0xbda672d5	-0.08127371
69	0x3da2d577	0.079508714
70	0xbb2dfa01	-0.002654672
71	0xbd9cc090	-0.07653916
72	0xbdb6fb9b	-0.08934709
73	0x3d40f966	0.047112845
74	0x39bcaa9c	0.00035985268
75	0xbcaa2bad	-0.02077278
76	0x3c739a79	0.014868372
77	0xbdd00194	-0.10156551
78	0x3c4ef8b4	0.012632538
79	0x3d42f244	0.047594324
80	0xbdff4933	-0.124651335
81	0x3d8d0012	0.06884779
82	0x3bc604af	0.006043039
83	0xbe888f71	-0.26671937
84	0x3b63032a	0.0034639337
85	0x3d51e60a	0.051244773
86	0x3d280d8e	0.04102855
87	0xbd1bb481	-0.03801394
88	0xbcbd44d9	-0.023104118
89	0xbd417ce0	-0.04723823
90	0x3d856802	0.065139785
91	0xbd8bbb11	-0.068227895
92	0xbcbaaf50	-0.022788674
93	0xbc20943d	-0.009800968
94	0xbd25aa59	-0.04044566
95	0x3d1993a2	0.03749431
96	0xbccf359c	-0.025294118
97	0x3b9383aa	0.0045017796
98	0xbc9007a4	-0.017581768
99	0x3d914c2f	0.07094609
100	0x3d341eef	0.043974813
101	0xbe68a922	-0.22720769
102	0x3d03471d	0.03205024
103	0xbcc7e349	-0.02440037
104	0xbd49d01e	-0.04927074
105	0x3da0f75d	0.07859681
106	0xbe0009c6	-0.12503728
107	0x3d827f1b	0.063719
108	0x3e18cfb9	0.1492299
109	0xbd19be81	-0.037535194
110	0xbc90e579	-0.017687546
111	0xbd2ef312	-0.04271228
112	0xbd3cbebd	-0.04608034
113	0xbd8ca7b2	-0.06867923
114	0x3e62948e	0.22126982
115	0xbd490aab	-0.04908244
116	0x3d50e9db	0.051004272
117	0xbc78958c	-0.0151723735
118	0xbc1264ed	-0.008935195
119	0xbca03fa6	-0.0195616
120	0xbd3f992b	-0.04677693
121	0x3c5f77ee	0.013639433
122	0xbd883466	-0.06650619
123	0xbda78f3c	-0.08181617
124	0xbd84ce7a	-0.06484695
125	0xbc88f994	-0.01672057
126	0x3a831c3d	0.0010002922
127	0x3d78bce6	0.060727023
128	0xbd76e0ac	-0.060272858
129	0xbc93cb8c	-0.018041395
130	0xbda52e30	-0.0806545
131	0xbd077755	-0.03307279
132	0x3d2b94de	0.041890018
133	0xbbc978c1	-0.006148428
134	0x3c0e7749	0.008695432
135	0xbdc5bc5f	-0.096550696
136	0x3d3a75a8	0.045522362
137	0x3d4692c4	0.04847981
138	0x3e4e945e	0.20173785
139	0x3cce24c3	0.025164014
140	0x3e13079e	0.14358374
141	0x3c275ec8	0.010215469
142	0x3c5e5ea7	0.013572372
143	0x3d568592	0.052373476
144	0xbcf26a78	-0.029591784
145	0xbb178a5a	-0.0023123235
146	0x3e2ecac7	0.17069541
147	0x3d56be7b	0.05242775
148	0xbd5382db	-0.051638465
149	0x3cee7a75	0.029111126
150	0xbd8fe3a9	-0.070258446
151	0x3cdc0fc1	0.02686298
152	0x3dc6ad04	0.09700969
153	0x3d500069	0.05078164
154	0x3da5d871	0.080979235
155	0xbd7db2c3	-0.06193806
156	0xbb7bb107	-0.0038405077
157	0x3b9d1b10	0.004794486
158	0xbc32c92a	-0.010912219
159	0x3d2fd391	0.042926375
160	0xbe1063aa	-0.14100519
161	0x3e03c267	0.12867127
162	0xbd361bd3	-0.04446013
163	0xbd800637	-0.062511854
164	0x3cde1cc0	0.027113318
165	0x3cb736ca	0.022364993
166	0xbb6680f2	-0.0035172072
167	0xbd4b422a	-0.049623646
168	0x3e01c62c	0.12673253
169	0x3d481751	0.04885036
170	0x3dd023a2	0.101630464
171	0xbafba9dd	-0.0019200403
172	0xbd589aa0	-0.052881837
173	0xbd0cad51	-0.034344975
174	0x3d2665b1	0.040624324
175	0x3ce7a555	0.028277079
176	0xbb1938fb	-0.002337991
177	0xbd0b2560	-0.03397119
178	0x3ddad1b1	0.10684527
179	0x3c95345a	0.01821344
180	0x3d5d77d7	0.054069366
181	0xbd4409c4	-0.047860876
182	0x3cf106e0	0.029422224
183	0x3d951fc5	0.0728145
184	0xbdb73497	-0.089455776
185	0xbbfb84b4	-0.0076757316
186	0xbd19d314	-0.037554815
187	0x3dca78a8	0.098862946
188	0xbc33c085	-0.010971193
189	0xbcaf74ae	-0.021417942
190	0x3ce4d196	0.02793197
191	0xbdbc5f5e	-0.09197877
192	0xbd86c8f0	-0.065812945
193	0xbc61a636	-0.013772538
194	0xbcd646cc	-0.026156805
195	0xb9fe0ea7	-0.00048457572
196	0x3de8abd6	0.113609
197	0x3cc315c8	0.023814097
198	0x3d2616f4	0.040549234
199	0x3dc7ea2b	0.09761461
200	0xbbc38871	-0.005967193
201	0xbd7217aa	-0.0591046
202	0x3cbbf232	0.022942636
203	0x3c9b3870	0.01894781
204	0x3dfc6d7b	0.12325569
205	0xbe0af367	-0.13569413
206	0xbdc9cfbd	-0.09854076
207	0x3b2876ad	0.0025705502
208	0x3bee61aa	0.007274826
209	0x3d91ebe6	0.07125072
210	0x3d5ddd72	0.054166265
211	0x3e3fd335	0.18732913
212	0xbd9bb974	-0.07603732
213	0xbbce3c81	-0.0062938337
214	0xbdc369b5	-0.095416464
215	0x3d8919b2	0.06694354
216	0xbcf2d54d	-0.029642725
217	0xbccba04d	-0.02485671
218	0x3d93950a	0.07206161
219	0x3b394df8	0.0028275233
220	0xbd7fe721	-0.06247628
221	0x3da80f38	0.08206028
222	0x3d2f9196	0.04286345
223	0xbd54fb15	-0.051997263
224	0x3c589f45	0.013221567
225	0xbca6e1d2	-0.020371351
226	0x3d53c40d	0.05170064
227	0xbd8a6d91	-0.067591794
228	0xbd3d8b4a	-0.046275415
229	0xbc08616b	-0.0083240075
230	0xbdabdd4f	-0.08391821
231	0xbd753b00	-0.05987072
232	0xbd89803c	-0.06713912
233	0xbd0b7dec	-0.034055635
234	0x3dd07af2	0.101797
235	0x3d965ced	0.07341943
236	0x3c2d877a	0.010591382
237	0xbd054356	-0.03253492
238	0xbcb7cef0	-0.022437543
239	0xbc014a72	-0.007891284
240	0x3ade2c6a	0.0016950492
241	0xbdb3dfda	-0.08782931
242	0xbd9fac55	-0.077965416
243	0xbcf05211	-0.029336007
244	0xbc114d87	-0.008868582
245	0x3a4950c5	0.0007679577
246	0xbd06186a	-0.032738127
247	0x3c9d49a1	0.019200148
248	0x3deaaf76	0.11459248
249	0xbd2ea22c	-0.042635128
250	0xbd2da7b5	-0.042396266
251	0xbdb216bd	-0.08695743
252	0x3d12e18d	0.035859633
253	0x3d26da99	0.040735815
254	0x3ca4c3bb	0.020112863
255	0x3dd6790f	0.10472309

bias f4 [128]
0	0x3db3a02a	0.08770783
1	0xbe780faf	-0.24224733
2	0xbe5c93f7	-0.21540819
3	0xbd79b32b	-0.060961884
4	0xbdd968fc	-0.10615727
5	0xbd7fbb32	-0.062434383
6	0xbe31f53f	-0.1737871
7	0xbdb61980	-0.088915825
8	0x3dd50d83	0.10402968
9	0xbc975feb	-0.018478354
10	0xbe7eb12d	-0.24872275
11	0xbd86c639	-0.06580777
12	0xbdc47abf	-0.095937245
13	0xbc8d4616	-0.017245334
14	0xbdb584a6	-0.08863191
15	0xbdac2b86	-0.08406739
16	0x3d830df5	0.063991465
17	0x3db96ac6	0.090535685
18	0xbbd90c93	-0.0066238134
19	0x3d43e0e9	0.047821913
20	0x3c897680	0.016780138
21	0xbd643bc7	-0.05572107
22	0x3e96666e	0.29375023
23	0x3d357450	0.044300377
24	0xbd95f420	-0.07321954
25	0x3e113c7a	0.14183226
26	0x3d6bcc00	0.057567596
27	0xbd797be1	-0.060909156
28	0xbd5c2822	-0.05374921
29	0x3d2aa64e	0.041662507
30	0x3dd5622d	0.10419116
31	0xbc31fcbc	-0.010863479
32	0xbd8ccbf9	-0.06874842
33	0xbde8ce2a	-0.11367448
34	0xbdf79001	-0.120880134
35	0x3e24fd8e	0.16112348
36	0x3cd200a0	0.025635064
37	0x3da95fb1	0.08270205
38	0xbde945d5	-0.113902725
39	0x3d337796	0.043815218
40	0x3e5d73e1	0.21626236
41	0x3de36056	0.11102359
42	0xbe1dc548	-0.15407288
43	0xbded8b6e	-0.1159886
44	0xbd62dc42	-0.055385835
45	0xbb496028	-0.003072748
46	0x3e067bae	0.13133118
47	0x3dc6d5de	0.09708761
48	0x3deaa5d9	0.11457414
49	0x3d5e17cd	0.054221917
50	0x3e538a07	0.20658122
51	0xbc83d067	-0.016090585
52	0xbe02ee7d	-0.12786289
53	0xbc6c72aa	-0.014431635
54	0x3dd84bde	0.105613455
55	0xbb2175be	-0.002463683
56	0xbd2b487b	-0.04181717
57	0xbde7f7c7	-0.11326557
58	0x3d1c2236	0.038118564
59	0xbd97c1d1	-0.074100144
60	0xbd9e4abc	-0.07729098
61	0x3d926abe	0.07149266
62	0xbdebfc2c	-0.11522707
63	0x3e750fda	0.23931828
64	0x3dba9e43	0.09112217
65	0xbad5a790	-0.0016300548
66	0xbe9a991a	-0.30194932
67	0xbd7f5541	-0.062337164
68	0x3e98919b	0.29798588
69	0x3e7787a9	0.24172844
70	0x3c473717	0.012159131
71	0xbdc14d90	-0.09438622
72	0xbe9332de	-0.28749746
73	0x3d613b21	0.05498803
74	0x3e4000c0	0.18750286
75	0xbdb2b1a4	-0.087252885
76	0x3d25e443	0.04050089
77	0x3c9ee19b	0.019394686
78	0x3cda12f4	0.026620366
79	0xbd1fa7a1	-0.038978223
80	0xbd72ea19	-0.059305284
81	0x3d0f7ac2	0.03502918
82	0xbd4f499d	-0.050607312
83	0xbe78e130	-0.24304652
84	0x3e49691c	0.19669002
85	0x3e2b46ad	0.1672618
86	0xbdcf6075	-0.101258196
87	0xbddfed07	-0.10933881
88	0xbba6295d	-0.005070849
89	0xbc97388c	-0.01845958
90	0xbe342ede	-0.17596003
91	0x3d4358c1	0.047692064
92	0x3d83fca0	0.06444669
93	0xbc8c1cd8	-0.017103598
94	0xbc1b473a	-0.009477431
95	0x3e576b29	0.21036972
96	0xbde5a321	-0.11212755
97	0xbdc514b2	-0.09623088
98	0x3e2f110a	0.17096344
99	0xbe818912	-0.2529989
100	0xbdc27a2d	-0.094959594
101	0x3d7e7df1	0.062131826
102	0xbd7b6834	-0.061378673
103	0xbdd95518	-0.106119335
104	0x3d03dd1c	0.03219329
105	0x3d940abc	0.0722861
106	0x3c80d51c	0.015726618
107	0x3e47cc2c	0.19511479
108	0xbd3b654e	-0.04575091
109	0xbdfd5311	-0.12369359
110	0x3e26d0a1	0.16290523
111	0x3e4d65bc	0.2005834
112	0x3d2ce336	0.042208873
113	0x3dbf98c6	0.09355311
114	0xbdb6747e	-0.08908938
115	0xbe7fe849	-0.24990954
116	0xbde4a850	-0.111649156
117	0xbd9c74dc	-0.07639477
118	0xbd48d002	-0.049026497
119	0x3e09abbc	0.13444418
120	0x3e2d0404	0.16896063
121	0xbde4178a	-0.11137302
122	0x3e80090d	0.25006905
123	0xbc184812	-0.009294527
124	0x3ed34920	0.41266727
125	0xbe2b8896	-0.16751322
126	0xbdb0a98b	-0.08626088
127	0x3dd274dc	0.102761954

weight f4 [128, 128]
0	0x3de5724c	0.11203441
1	0xbc83a20d	-0.016068483
2	0x3bb63279	0.005560216
3	0x3b463e90	0.0030249692
4	0xbd49d04d	-0.049270917
5	0xbe19bea3	-0.15014128
6	0xbdb0cae9	-0.08632452
7	0x3d77aac1	0.060465578
8	0xbe1f987f	-0.15585516
9	0x3d790eb9	0.060805056
10	0x3cabf378	0.020990118
11	0xbd4b69c2	-0.049661405
12	0x3da29df2	0.07940282
13	0x3d0ab204	0.033861175
14	0x3d9419de	0.07231496
15	0xbc78e3d7	-0.01519104
16	0xbddc0ace	-0.10744248
17	0xbd62ec77	-0.05540129
18	0x3d55f5f7	0.052236523
19	0x3d837af9	0.064199395
20	0xbdd37c8d	-0.103264906
21	0x3d239f95	0.03994711
22	0xbd846b09	-0.06465728
23	0x3cc945e1	0.024569454
24	0x3e05384e	0.1300976
25	0xbda96196	-0.08270566
26	0xbc4acda6	-0.012378132
27	0x3d02421c	0.031801328
28	0x3d68e86c	0.05686228
29	0xbd19c0e8	-0.037537485
30	0xbc8ca850	-0.017170101
31	0xbd9b7e49	-0.07592446
32	0xbd57770f	-0.052603777
33	0xbe486981	-0.19571497
34	0xbd82ca0a	-0.06386192
35	0xbdefb0a2	-0.11703612
36	0x3d4c5c56	0.049892746
37	0xbd0af09f	-0.03392088
38	0xbd8ba33b	-0.06818243
39	0xbd77f66b	-0.060537737
40	0xbda52ee7	-0.080655865
41	0xbda46c22	-0.08028437
42	0x3dda5fea	0.106628254
43	0xbcf6e50b	-0.030138513
44	0xbce384b8	-0.027773246
45	0xbb2addda	-0.0026072175
46	0xbd9dc9f5	-0.07704536
47	0x3ced0b91	0.02893618
48	0xbca88ee3	-0.020575946
49	0xbdb11b1a	-0.08647747
50	0xbd4dd335	-0.05025025
51	0xbba14dd7	-0.0049226093
52	0x3ca4a62c	0.020098768
53	0x3da58fb1	0.080840476
54	0x3bfab26c	0.007650664
55	0xbdf0eef8	-0.1176433
56	0xbd4be286	-0.049776576
57	0x3c6b451a	0.014359737
58	0xbdca422f	-0.09875905
59	0xbc81bb7e	-0.015836474
60	0x3d8bf22d	0.06833301
61	0x3e01f0d1	0.1268952
62	0x3d9346af	0.07191216
63	0xbd332429	-0.043735657
64	0x3d84d6d9	0.064862914
65	0xbd6c1cfb	-0.057644825
66	0xbdeb27da	-0.114822105
67	0xbd9a41ab	-0.075320564
68	0x3d4590f8	0.048233956
69	0xbd419761	-0.047263507
70	0xbc401798	-0.011724375
71	0xbda46b48	-0.08028275
72	0xbdad41bc	-0.084598035
73	0x3b7d5180	0.0038653314
74	0xbc8d7e79	-0.01727222
75	0xbd523a0c	-0.05132489
76	0x3d2c2dd8	0.042035908
77	0x3d948afb	0.07253071
78	0xbd63eacc	-0.05564384
79	0xbd86fd3c	-0.065912694
80	0x3d9161e3	0.070987485
81	0xbdb973f2	-0.09055318
82	0x3ce1855b	0.02752941
83	0xbce4e0fd	-0.027939314
84	0xbdc87bb1	-0.09789217
85	0x3d82b549	0.06382234
86	0x3e80efbe	0.2518291
87	0x3d92592a	0.07145913
88	0xbce8ca1a	-0.028416682
89	0xbb5752dd	-0.0032855787
90	0x3dd14629	0.1021846
91	0x3cfe899b	0.031071475
92	0xbde2e701	-0.11079217
93	0x3d482ee1	0.048872832
94	0x3e67475b	0.22585814
95	0x3dba7b70	0.09105575
96	0xbde3a697	-0.11115759
97	0x3dd80714	0.10548225
98	0x3c76867d	0.015046713
99	0xbd2ca171	-0.04214615
100	0x3c0f846c	0.008759599
101	0x3cf30dc9	0.02966966
102	0x3baa48ad	0.005196652
103	0xbd7a6756	-0.061133705
104	0xbb80afaa	-0.003927191
105	0xbda57815	-0.080795445
106	0x3d995ff7	0.07489007
107	0x3c4dfe65	0.012572859
108	0xbda42862	-0.08015515
109	0x3daee57f	0.08539867
110	0xbd3d96f0	-0.046286523
111	0xbcb7e328	-0.022447184
112	0x3d48f0db	0.049057823
113	0x3c7d96f9	0.015477889
114	0x3cd02f9c	0.025413327
115	0xbc16e771	-0.009210453
116	0xbd7761e5	-0.060396094
117	0x3e217ee5	0.15771063
118	0xbdd4959c	-0.10380098
119	0xbd7f6011	-0.062347475
120	0x3c546ed3	0.012965876
121	0xbdf1261b	-0.11774846
122	0x3da16a9a	0.07881661
123	0x3da42d70	0.08016479
124	0xbd79296c	-0.06083052
125	0xbe011dfa	-0.12609091
126	0x3cf9848b	0.03045871
127	0xbcfebafc	-0.03109502
128	0x3c885acc	0.016644858
129	0xbd06860d	-0.032842685
130	0xbdfcefe5	-0.12350444
131	0x3ddfb86e	0.10923849
132	0xbe3bcd6e	-0.18340084
133	0xbc2a3a02	-0.010389807
134	0x3dab3f8e	0.083617315
135	0xbd46ab90	-0.04850346
136	0xbd6cd7b3	-0.057822894
137	0xbd26dae4	-0.040736094
138	0x3e5559ec	0.20835084
139	0x3da5140c	0.08060464
140	0x3d15c7a6	0.036567353
141	0xbd6be189	-0.057588134
142	0xbc08fbe1	-0.008360834
143	0x3c0f1cc1	0.008734883
144	0x3cda7eef	0.026671855
145	0xbda1f0ba	-0.07907243
146	0xbd328943	-0.043587934
147	0x3deed1c9	0.11661107
148	0x3e0cb1f3	0.13739757
149	0x3c860701	0.016360762
150	0x3d0175df	0.03160655
151	0x3d4a7046	0.04942348
152	0x3d7fe660	0.062475562
153	0x3dcf9cac	0.10137305
154	0x3c855b7d	0.016278977
155	0xbcb3f680	-0.021968126
156	0x3d8f4b28	0.06996757
157	0x3d2e60d7	0.042572822
158	0xbd827705	-0.063703574
159	0x3c67b5ad	0.014142436
160	0xbccf3473	-0.025293564
161	0x3d757c84	0.0599332
162	0xbd0a1ebb	-0.033720713
163	0x3e3aa270	0.18226027
164	0xbe81977c	-0.25310886
165	0x3d12219c	0.035676584
166	0x3cb0fec5	0.021605859
167	0xbd2fdc4f	-0.042934712
168	0xbd7014cb	-0.05861358
169	0x3ce12c44	0.027486928
170	0x3ce22f6b	0.027610501
171	0xbd8292d1	-0.06375659
172	0xbd2d588b	-0.04232077
173	0xbe1ae5c2	-0.15126708
174	0xbb969c27	-0.0045962515
175	0xbe931076	-0.28723496
176	0x3d387b42	0.045039423
177	0x3dc5345d	0.09629128
178	0x3d80b5b4	0.06284657
179	0xbbde0dbb	-0.006776539
180	0x3de8b72f	0.113630645
181	0x3d79dbdc	0.06100069
182	0xbd06afd1	-0.032882515
183	0xbd87beb9	-0.06628174
184	0x3dc164d3	0.09443059
185	0x3d152129	0.036408577
186	0xbd950aa7	-0.072774224
187	0x3daa1323	0.08304431
188	0xbd5d26f8	-0.05399224
189	0xbdb99677	-0.09061902
190	0x3cb8e4bc	0.022570007
191	0x3e200265	0.15625913
192	0xbd88dc89	-0.06682689
193	0xbd42f940	-0.047600985
194	0xbc20d6f3	-0.009816873
195	0xbcabcc55	-0.020971457
196	0x3def098f	0.11671745
197	0x3daa0a36	0.08302729
198	0x3d7d2c15	0.061809618
199	0xbd8d1f7f	-0.06890773
200	0xbcd000c3	-0.025390988
201	0x3d7e3297	0.062059965
202	0x3d124ccd	0.035717774
203	0xbdd634ea	-0.10459311
204	0x3d4c017f	0.049806114
205	0xbda82ee4	-0.08212069
206	0x3cba0476	0.022707205
207	0x3bfe9e23	0.007770316
208	0xbc7eff7a	-0.01556384
209	0xbd0b8bfc	-0.034069046
210	0x3c6a3b30	0.014296338
211	0xbe00f745	-0.12594326
212	0xbd61051b	-0.05493651
213	0x3d96d707	0.07365232
214	0xbe4cc39b	-0.19996493
215	0x3c81e26f	0.015855042
216	0xbd0ed7f6	-0.034873925
217	0x3c62299f	0.013803869
218	0xbd5c69c2	-0.053811796
219	0x3c847604	0.016169555
220	0x3d75e433	0.06003208
221	0x3d80d47e	0.0629053
222	0x3d1b46b2	0.037909217
223	0x3cc05ef2	0.023482773
224	0x3dbf61ce	0.09344827
225	0x3d62bc9f	0.055355664
226	0x3dc662cc	0.09686813
227	0xbcdfb75a	-0.027309109
228	0xbd6338fd	-0.05547427
229	0x3d81e1d2	0.063419
230	0xbcc111a8	-0.02356799
231	0xbda75617	-0.08170717
232	0x3ce4ad30	0.027914613
233	0xbd0cf844	-0.034416452
234	0x3c50adf6	0.012736788
235	0xbcd318f4	-0.025768735
236	0xbcaaa3a3	-0.020829981
237	0xbda8b9c6	-0.082385585
238	0x3e1caa5b	0.1529936
239	0xbc00ca4f	-0.007860734
240	0xbc860b27	-0.01636274
241	0x3d8327d0	0.06404078
242	0xbc8124d7	-0.015764637
243	0xbcadf1fd	-0.021233553
244	0x3cfa0604	0.030520447
245	0xbd6f1e18	-0.05837831
246	0xbc3208e5	-0.010866378
247	0x3d898fd0	0.06716883
248	0xbe0b52ac	-0.13605756
249	0xbd3dd48d	-0.046345282
250	0x3c0c903b	0.008579309
251	0x3c297023	0.010341677
252	0x3d82baa6	0.063832566
253	0x3ca70686	0.020388853
254	0x3d9a267e	0.07526873
255	0xbd4faf8c	-0.050704524

bias f4 [128]
0	0x3bed0a7b	0.0072339154
1	0x3da58983	0.08082869
2	0xbddcdeb7	-0.10784667
3	0x3d96d548	0.07364899
4	0x3cad744e	0.021173622
5	0x3e739c16	0.23790011
6	0x3c8eca58	0.01743047
7	0xbc20b5e7	-0.009808994
8	0xbdfd2276	-0.123600885
9	0xbd141332	-0.03615112
10	0x3c8064d6	0.015673082
11	0x3e6e343c	0.23262113
12	0xbdd122a7	-0.102116875
13	0xbd2e75c7	-0.04259279
14	0x3e047e56	0.12938818
15	0x3e4e994f	0.2017567
16	0x3d14dae4	0.036341563
17	0xbdc0903e	-0.09402512
18	0xbdbe1ef9	-0.09283251
19	0x3d413186	0.04716637
20	0xbcb1f187	-0.021721615
21	0xbd875d73	-0.06609621
22	0x3e14bc1e	0.14524886
23	0x3e61308c	0.21991175
24	0x3d1687a7	0.036750462
25	0xbdee1ab4	-0.11626187
26	0xbd9febdb	-0.07808658
27	0x3ce3a14b	0.027786871
28	0xbda7f857	-0.08201664
29	0x3dfce8bf	0.1234908
30	0x3d414c97	0.047192182
31	0xbdbf90d5	-0.093537964
32	0xbd7a4f98	-0.061111063
33	0xbc61900a	-0.013767252
34	0x3cd9a7a9	0.026569204
35	0xbd9dd0bd	-0.07705829
36	0xbd01dae0	-0.031702876
37	0xbcb0de80	-0.021590471
38	0x3d5282e2	0.05139435
39	0xbd2bc26b	-0.04193346
40	0xbc3edceb	-0.011649351
41	0xbdd1d58f	-0.10245811
42	0x3d348c7d	0.044079293
43	0x3c3529eb	0.011057357
44	0xbddf9a9e	-0.10918163
45	0xbe6ed059	-0.23321666
46	0x3c2e310f	0.010631814
47	0x3d87dc0f	0.0663377
48	0x3de72525	0.11286382
49	0x3defe4b4	0.117135435
50	0x3d4bb85c	0.049736366
51	0x3ccf4954	0.02530352
52	0x3dbeee07	0.09322744
53	0xbd53e091	-0.051727835
54	0xbd33e1b5	-0.043916423
55	0x3de724b3	0.11286297
56	0xbd2dcdbc	-0.04243253
57	0x3dd277a4	0.10276726
58	0xbda67f1d	-0.08129714
59	0x3e40912b	0.18805377
60	0x3d265221	0.040605668
61	0xbde31184	-0.11087325
62	0xbe3abb84	-0.18235594
63	0x3c82affa	0.015953053
64	0xbdcdcb48	-0.100485384
65	0x3d44be41	0.048033003
66	0x3be92833	0.007115388
67	0xbc0c3aba	-0.008558923
68	0x3e57e799	0.21084441
69	0x3dae24e5	0.08503131
70	0xbd25f115	-0.040513117
71	0x3ba2d23f	0.004968911
72	0xbd9ec961	-0.07753254
73	0xbc97e838	-0.018543348
74	0x3d42f92f	0.04760092
75	0xbcfbc4af	-0.030733434
76	0xbda086ee	-0.07838236
77	0xbc7757d8	-0.015096627
78	0xbdc9412f	-0.09826886
79	0xbe480b60	-0.19535589
80	0xbdc86ac9	-0.09785993
81	0x3b0ff592	0.002196644
82	0x3d550a7d	0.052011956
83	0x3cfe6425	0.031053612
84	0xbd4105b9	-0.0471246
85	0x3bd1cba3	0.006402449
86	0x3bc00719	0.005860221
87	0x3d1fb3c2	0.03898979
88	0x3c41da6a	0.011831859
89	0xbdae3eb6	-0.08508055
90	0x3d262af9	0.040568326
91	0x3e53a62c	0.20668858
92	0x3e5cba71	0.21555497
93	0xbdd3279a	-0.10310288
94	0x3cd83384	0.026391752
95	0xbcde7a7f	-0.02715802
96	0x3e296931	0.16544034
97	0xbdeb3df7	-0.11486428
98	0xbc6c1bc8	-0.01441092
99	0xbb946392	-0.0045284713
100	0xbd9e8c13	-0.07741561
101	0xbc4ab6be	-0.012372671
102	0x3cfed054	0.031105198
103	0xbd073959	-0.033013675
104	0xbce29851	-0.02766052
105	0x3e50015e	0.20313022
106	0xbd932bab	-0.071860634
107	0xbd647af2	-0.055781312
108	0xbda5b3d4	-0.0809094
109	0x3d129c3f	0.03579354
110	0x3d6552a7	0.055987027
111	0xbde635de	-0.11240743
112	0x3ba5cb1f	0.0050596143
113	0x3db2b844	0.08726552
114	0x3bf220b4	0.0073891524
115	0xbb92c9ea	-0.0044796364
116	0xbde4730d	-0.11154757
117	0x3d9ddd6b	0.07708248
118	0xbd2aa43b	-0.04166053
119	0x3e607421	0.219193
120	0xbd65f884	-0.056145206
121	0xbd5a89f7	-0.05335423
122	0x3e1fbc2b	0.15599124
123	0x3e972f5e	0.29528326
124	0xbd7f44ba	-0.062321402
125	0x3d078831	0.033088867
126	0xbd03ddeb	-0.03219406
127	0x3cbb3b72	0.022855494
