IO_DynaPlex/DeepControlledLearning/PolicyWeights/perishable_systems_m5_l2_cvr1.000000_f0.500000/l_gen.pth (torch, 298593 bytes, 10 tensors)

weight f4 [256, 6]
00000000: 046a 8dbd efbe c0be db29 ac3e 1358 2dbe
00000010: bbcd afbd 0f79 72be 00c8 a7be 83fe 0b3e
00000020: 3b89 c1be 487e 5d3e 9fd8 e73d 49e2 8d3e
00000030: 4085 663e 3fea e1be b7f1 87be e494 16be
00000040: 3a30 833d 6fff 913e 6930 2b3e 32a0 5a3e
00000050: 0ae4 b6bc b502 4a3e bf98 b3be 2398 51be
00000060: 3533 c43e 992c b2bd 9dd9 363e 09b0 033e
00000070: bdec a73c e8a8 40bd 6826 3bbe bb6f 24bb
00000080: af0c 66be ebd3 623e 3795 c2be 3248 c43d
00000090: c95d e43d 503c 2dba bc60 d93d 0bb1 2ebe
000000a0: db99 183e e8fb f9bc c07b 173e 3ec9 d1be
000000b0: cf23 2cbe 6d62 b93d d509 67be 934e 4c3e
000000c0: 9d5e 893e 9f86 4d3e d1dd 933e 0d08 9fbe
000000d0: a172 9f3e 7f71 3bbe 7201 643e 4455 dbbd
000000e0: f713 48be 2c52 833e 37ac 94be 3b09 693e
000000f0: 77e9 ab3e ff7e 813d 8f4f 8e3a f910 183c
00000100: eb90 77be ed9f 3dbe e9a7 993e e73a cb3e
00000110: 966e 5f3e 3533 73be af8c 243e a3ad fdbd
00000120: a272 c83d ab21 78bd b82f 603e 0ef8 453d
00000130: 7fa0 91be 3dc9 31bc 3d6d 86be 4dc1 c53d
00000140: 374f 143e 17ea 063e e6bd 463e a0b3 8f3e
00000150: 0e67 8cbb 3849 753e 0616 d1be 26e4 c23a
00000160: 2491 92be d387 423d 4a89 423e 4079 ee3b
00000170: 2a2a d0be c2ac 1f3d cd3f 9a3e b2c3 62bd
00000180: 41ee 94bd fdd6 c5bd 8275 92be ae47 633e
00000190: bfe8 57be e421 99be d855 70be 3405 823e
000001a0: 6983 f6bd 7517 b9bd cc72 febe 2e1c d1be
000001b0: 2373 5abc db98 92bb e6de c4bb fbde 063e
000001c0: f105 f83d 6b44 32be e96b a33e 1fb9 a1bc
000001d0: 62d9 80be 1a56 ca3d 52f7 c8be b649 62be
000001e0: 3dce 94be 5889 0fbe 003c ab3e ca3e ae3d
000001f0: 76f7 8cbd 5421 2c3c a182 2ebc 51b7 393d
00000200: 98f8 e3bc 4601 08be cbf2 963d 3fa5 56bd
00000210: 486c 843c 0226 8b3e fb90 adbd fd88 a83e
00000220: f2fe 22be d394 5dbd 2b5a 8b3e 2fc0 81be
00000230: 1fd1 89bd 93a0 bfbd 4e30 bf3e eed2 8ebe
00000240: 6377 b1be 6965 adbe 6583 54be 346b 7a3e
00000250: 0138 453e c51f c9be ca36 2e3b f4d7 1bbe
00000260: de55 c43d 3477 b83e aadb cfbd 047b 903d
00000270: 901c 0d3e f274 9f3e 9295 de3d 7dc5 403e
00000280: 5d9d 18be e360 913e 173f ae3d ea1c a1be
00000290: d4cb b43e 3506 df3d 6833 003e 87eb 933d
000002a0: d6e9 e73d b2da babe af4a 51be 72c3 debc
000002b0: 9f85 323e 3fdb d6be 6dd0 6fbe 820b 70be
000002c0: ab16 a93e 8360 573e d2ad c03d 4bcf 5f3e
000002d0: d42d 4ebe 6ecf 17be 4a62 cb3c 7009 b1be
000002e0: bb21 a63e 8113 93be 1913 d8bc 2bed 09bd
000002f0: be8e 5cbe 8bd4 2e3e 91aa 663e 14b0 b4be
00000300: be34 79be ba4a e63d 8354 17be f41b 6e3e
00000310: e1c6 573e 7a00 abbe aef4 b9be b4ff 1c3e
00000320: c504 63be 4292 a1be bf77 513d 7676 0fbe
00000330: c323 e9bd 53be 86be 537f 88bd 4790 a83c
00000340: e450 653d c968 833e ed77 cf3d 9050 b73e
00000350: 4af0 abbe 701c 403e c741 6fbe a187 6b3e
00000360: 21a5 0c3d 0638 3e3c 642c 823e 17d4 c1be
00000370: 8d0a 063e c44e debe 294e bebe 0a6d e3be
00000380: dfae 0ebe eaaa d2be 175f 6d3e 3b5f be3e
00000390: 39f1 c2be d621 743d 78ee 063e a48d b03d
000003a0: f6b0 63be 6a28 283e 2674 6a3d 8a2e a33d
000003b0: 4f6c 253d 2fcb 273d 38ae a1be 13c2 bf3e
000003c0: 9f9a 563c e4cc bc3e 7a05 973d d2f2 963e
000003d0: 79f3 33be 6d89 e2bd e45f 453d ada7 803e
000003e0: 2929 6abe b5f2 94bd fb4d a03e 61d7 be3d
000003f0: e244 2d3d 589f cc3d b606 d23d 896e 1e3e
-0.069049865 -0.3764567 0.33625683 -0.16928129 -0.08584162 -0.23678993 -0.32769775 0.13671307
-0.3780001 0.21630204 0.11320614 0.27711704 0.22511768 -0.44124028 -0.265516 -0.14705235
0.06405683 0.28515193 0.16717686 0.21350172 -0.022325534 0.19727595 -0.35077474 -0.20468192
0.38320318 -0.086999126 0.1785645 0.12860121 0.020498628 -0.04703608 -0.1827637 -0.002509101
-0.22465776 0.22151153 -0.38004467 0.09584083 0.111507006 -0.00066084135 0.10614154 -0.17059724
0.14902441 -0.030515626 0.147933 -0.40973848 -0.16810535 0.09051976 -0.22562344 0.19951849
0.26829997 0.20070885 0.2888017 -0.3106083 0.31142142 -0.18305014 0.22266176 -0.107096225
-0.19538866 0.2564863 -0.2903764 0.22757427 0.33576557 0.06323051 0.001085745 0.00928139
-0.24176376 -0.18518038 0.30010918 0.39693376 0.21819529 -0.23750003 0.16069292 -0.12386634
0.097874895 -0.060578983 0.21893203 0.048332267 -0.2844276 -0.010851202 -0.26255217 0.0965601
0.14483343 0.13175236 0.19408378 0.2806673 -0.004284746 0.23953712 -0.40837115 0.0014869019
-0.28626359 0.047492813 0.18997684 0.0072776377 -0.4065717 0.038983114 0.301268 -0.05536241
-0.07272006 -0.096601464 -0.28605276 0.22195312 -0.2108488 -0.2990867 -0.23470247 0.25394595
-0.12036783 -0.09037677 -0.49696958 -0.40841812 -0.013333115 -0.004473788 -0.006008017 0.13170998
0.12110508 -0.17408912 0.31918266 -0.019741593 -0.2516585 0.09879704 -0.3925119 -0.22098431
-0.29063597 -0.14017236 0.33444214 0.0850807 -0.06883137 0.010505993 -0.010651262 0.04534084
-0.0278285 -0.13281736 0.07370528 -0.052403685 0.016164914 0.27177435 -0.084749185 0.32917014
-0.15917566 -0.054097008 0.2721723 -0.25341937 -0.0672934 -0.09356799 0.3734154 -0.27895302
-0.34661397 -0.33866432 -0.20753248 0.24454957 0.19259645 -0.3928205 0.002658295 -0.15219098
0.0958669 0.36028445 -0.101493195 0.07054713 0.13780427 0.3114391 0.10868372 0.18825336
-0.1490378 0.2839423 0.08508127 -0.31467372 0.3531176 0.10889856 0.1251961 0.07222658
0.113238975 -0.36494976 -0.20438646 -0.027192805 0.17433785 -0.41964146 -0.23419352 -0.2344189
0.33025107 0.2103291 0.094081536 0.2185642 -0.2013467 -0.14825222 0.024827141 -0.34577513
0.3244761 -0.28725818 -0.026376294 -0.033673447 -0.21538827 0.17073266 0.22526003 -0.35290587
-0.24336526 0.11244722 -0.14778332 0.23252851 0.2107196 -0.333988 -0.36319488 0.15331918
-0.22169788 -0.31556898 0.05113959 -0.14010033 -0.11383774 -0.2631708 -0.0666491 0.02057661
0.055985346 0.25665882 0.10130296 0.35803652 -0.33581764 0.18760848 -0.23364936 0.23000957
0.034337167 0.011610037 0.25424492 -0.37857124 0.13089962 -0.43419468 -0.37169006 -0.44419128
-0.13933896 -0.41146022 0.23180805 0.3718203 -0.38074663 0.05960258 0.13176906 0.08620766
-0.22235474 0.16421667 0.057239674 0.07967861 0.040386494 0.040965255 -0.3157823 0.37452754
0.013098388 0.3687507 0.073740914 0.29482132 -0.17573346 -0.11061368 0.04818715 0.25127926
-0.22867264 -0.07272855 0.31309494 0.09318424 0.04230202 0.0999133 0.10255186 0.15471853

bias f4 [256]
00000000: 46f4 5d3b ae06 eb3e 7706 b0bd 6565 883d
00000010: 507c 4c3e 7c38 8fbb aad0 cabd 69d8 893e
00000020: 0e63 ff3e 8aa7 a83e 4cee dd3e b0ca 35bd
00000030: 0870 99be 5f18 fdbe 7a1c 9e3e 609c d73e
00000040: 8588 b43e 84d0 f63e abb1 a7bd 8d58 4dbc
00000050: d785 b9be 9ea6 96bd 5426 8ebe 6f9d cfbe
00000060: 4b1f f8bd ad36 d3be e4ac b7be e869 89bd
00000070: 195d b13d 3dc4 d9be 5a73 de3e f6b8 c13e
00000080: 2bcf ee3e 3d1b 6f3e a385 973e c0d3 47be
00000090: 3ff4 b5be 9a58 c63c 3600 b33e c415 e0be
000000a0: e7f1 cf3e 6b01 8cbe fdc8 fcbe eb56 273e
000000b0: 2f4e ac3e 35f6 48be 035c d33e ccbc a0be
000000c0: 5741 6abc a751 6a3e f390 8c3e 168c 8cbe
000000d0: 8f3a 853e 0454 b2bd 2c1f 98bd 711d 04be
000000e0: 780a f53e 36d3 523e 2332 033d 8e3f 1c3f
000000f0: c300 073f 13f3 e83e 3a9c e23c 76b7 fbbe
00000100: adf6 1dbe dd2d 8fbd a999 cfbe a550 823d
00000110: b2d4 b63e 0e0c 63be 26a4 e8be 87bd c3be
00000120: 9635 d3be 6ab6 a7bc 4f7d a7be b4f5 c9be
00000130: 308a 14bf d06b 533e dab0 363e f54e 96be
00000140: ee43 58bd be9d 8dbd 690f 8ebe cdcd 023f
00000150: 0f69 a7be e7af ab3e 7137 9c3e dff1 01bf
00000160: 8fe3 1cbe f1d6 b93e 94d4 b3be 2124 963e
00000170: adce 9fbe 081c 91bd 7be5 d53e ccac 6bbe
00000180: 58d7 d83e 4a35 7bbe a980 063f 6fe0 3dbd
00000190: 586e afbe 8e71 84be 82fb c0be f1c7 ffbd
000001a0: 1fb4 ae3e 7e20 ee3d b8aa 6d3e b4cb 8b3d
000001b0: 82df 85be 3aed b5be 8a89 643d 78f3 953d
000001c0: 067b bebe b2e4 523e 7f83 5bbe 8d13 e73e
000001d0: a9f0 1d3f 2ce3 d9be 2d81 723e 0914 0dbe
000001e0: 1ff8 463d e541 04bf 2b56 c63e df8e 19be
000001f0: af38 9b3e 218c abbd d817 933c 26f9 f23d
00000200: 8ded 093f c003 783e e019 b73e f3e2 49be
00000210: f949 af3e b083 9a3d 46fe d5be d904 4abc
00000220: 3edf ef3c 5f70 9e3e c52c 01bf afa8 95bd
00000230: 12d6 df3e c7cd 8d3e 9c7b 113f 953e 5ebe
00000240: 7518 07be c0e7 ef3e f6f1 12be c56b b2be
00000250: 1425 8ebe 8d46 d8be c0ff 053f 73eb d1be
00000260: d4be fc3e f93e 173f 0844 aebd 616c 203f
00000270: b91e a8bd daff a1bc 90be 0a3f b816 673b
00000280: dbf8 fa3e 25a9 c7be ffc8 b3be 4568 2f3e
00000290: 9690 073f 536c fcbd c8fc b63e 3983 7cbe
000002a0: afa2 1bbe 68fe 13bf 7a21 cdbe 248d 0f3f
000002b0: 07ca 533e fd61 8dbd 61a1 893d 664f ae3c
000002c0: 3e09 fdbe 4832 183f a440 b43e 64f0 36be
000002d0: 98b3 243e 22d0 da3e d626 42be 0bb6 38be
000002e0: 91e5 70be e2d3 bd3e 36ec ef3e bf81 f13e
000002f0: a2d1 c8be 0d7b 0bbe 6734 a03e b0b5 1bbe
00000300: 51d5 4cbe 22f4 103f 0701 663e c272 293f
00000310: 2a73 d33e 8cbb ccbe 2317 0a3e 53a9 a73e
00000320: 22f4 893e 82f0 17be 96e8 08bf 1f8b 623e
00000330: d7e1 b2be 3132 0a3f 3ccc df3d 5f9b 16bf
00000340: 8e1f 40be 6fe4 28be af94 e53e 4301 083e
00000350: b319 fcbe cff9 063f c079 123f d761 84be
00000360: fa4e 683e 5991 c1be 4169 33be 78e5 1b3d
00000370: c0ac 023f b718 afbd a177 ec3e 0da3 ed3e
00000380: 821f 31bd 698f 663e 8fde fd3e 402f 1a3f
00000390: 98e1 8bbe de08 aa3e 99c5 c9be 702f 6b3d
000003a0: 09ed a1be cd5e ca3e 7cd0 b5be 4e6c 97be
000003b0: ccf1 09bf ffff 71be 9ad2 ab3e 5092 0cbe
000003c0: 91b8 9a3e 5a18 df3e 3e0f 3fbe 0a15 163e
000003d0: 7d8f 2fbe 7e0f 13bf ccba 63be 715b c0be
000003e0: ec72 f7be 187e cabd 4713 1c3e 4497 2d3d
000003f0: 3592 d43e dc00 b63e e8a4 bebe 6943 d9bd
0.0033867522 0.45903534 -0.08594983 0.066599645 0.19969296 -0.004370747 -0.09903081 0.2692292
0.4988026 0.32940322 0.4334587 -0.04438275 -0.29968286 -0.49432656 0.308811 0.42111492
0.35260406 0.4820596 -0.08188184 -0.012533319 -0.36234924 -0.073559985 -0.27763617 -0.405498
-0.12115344 -0.41252652 -0.35874093 -0.06709653 0.08660335 -0.4253253 0.4344738 0.37836426
0.46642432 0.23350234 0.29594144 -0.1951437 -0.35537907 0.02421217 0.34961098 -0.43766606
0.40614244 -0.27344832 -0.49372092 0.1634175 0.336534 -0.1962517 0.41281137 -0.3139404
-0.014297805 0.2288271 0.27454337 -0.27450627 0.2602124 -0.08707431 -0.074278206 -0.12901856
0.4785955 0.20588383 0.032030236 0.61034477 0.5273554 0.4549795 0.027662385 -0.49163407
-0.1542613 -0.069911696 -0.4054692 0.06363038 0.3570915 -0.22172567 -0.45437735 -0.38230535
-0.4125182 -0.020472724 -0.3271279 -0.3944527 -0.5802336 0.20646596 0.17840901 -0.29357114
-0.052799158 -0.069148526 -0.27746132 0.5109528 -0.3269734 0.3353264 0.30511048 -0.5075969
-0.15321182 0.362968 -0.35123122 0.2932444 -0.3121237 -0.07085425 0.41776642 -0.23015136
0.42351794 -0.24532047 0.5254007 -0.046356615 -0.34263873 -0.25867885 -0.37691885 -0.12489308
0.34121796 0.11627291 0.23209655 0.06825963 -0.26147085 -0.35532552 0.05579523 0.073218286
-0.37203234 0.20595053 -0.2143688 0.45132104 0.61695343 -0.4255613 0.23682089 -0.13777174
0.04857647 -0.5166305 0.38737616 -0.14995907 0.30316684 -0.08376337 0.017955706 0.118639275
0.538781 0.2422018 0.3576193 -0.1971548 0.34236124 0.07544649 -0.41795558 -0.012330257
0.029281255 0.30945107 -0.5045894 -0.073075645 0.4371801 0.27696058 0.5682924 -0.2170356
-0.13192923 0.468565 -0.14350113 -0.34847847 -0.27762663 -0.42241326 0.5234337 -0.40999946
0.4936434 0.59080464 -0.0850907 0.62665373 -0.08208985 -0.01977532 0.54197025 0.0035261344
0.49017987 -0.38996235 -0.35114285 0.1712962 0.52954996 -0.12325349 0.35739732 -0.24659432
-0.15198778 -0.5781007 -0.40064603 0.5607474 0.20682536 -0.069034554 0.06720234 0.021278095
-0.49421114 0.59451723 0.35205567 -0.17865139 0.16084135 0.42736918 -0.18960127 -0.18038194
-0.23525073 0.37075716 0.46859902 0.471693 -0.39222437 -0.13621159 0.3128998 -0.15206027
-0.20003249 0.5662252 0.2246133 0.6619073 0.412988 -0.39986837 0.13485388 0.32746372
0.2694407 -0.1483784 -0.534799 0.22123383 -0.34937927 0.53982836 0.109276265 -0.5883083
-0.18762037 -0.1649339 0.4484 0.13281731 -0.49238357 0.5272493 0.57217026 -0.25855896
0.22686377 -0.37806204 -0.1752062 0.038060635 0.51044846 -0.08549636 0.4618502 0.4641346
-0.04324294 0.22515644 0.4958386 0.6022835 -0.27320552 0.3320989 -0.39408568 0.057418287
-0.31626156 0.39525452 -0.35510623 -0.29574817 -0.5388458 -0.23632811 0.33559114 -0.13727689
0.30218938 0.43573266 -0.18658158 0.14656463 -0.1714458 -0.57445514 -0.22239226 -0.37569764
-0.48329866 -0.09887332 0.15241729 0.042380586 0.41517797 0.3554753 -0.37235188 -0.106085606

weight f4 [128, 256]
00000000: cff5 913d c34c 773d a3d8 0f3d 8cfc 2abd
00000010: 6b9c 433c 3641 373c 8556 80bc 8f82 8c3d
00000020: 02bc 773d cbc4 45bd 9852 ac3d 4dfc d4ba
00000030: 4fad 053d bf32 9cbd 616e d43d fda3 cf3d
00000040: adc8 d13d 6ea0 7c3c d700 343d 8f35 b8bc
00000050: 9ea9 0ebd 37ab 083b a8cf fbbc 0ffd f9bc
00000060: 12a5 7f3d 505d 063d 6883 c6bd 733a 2ebd
00000070: 0ef5 043e 56dd 5bbc 086f bd3d fba2 d23d
00000080: 9da2 cb3d b4ed 61bd 63cc 6f3d 7888 73bd
00000090: b024 7c3d be2c cfbc d8ac 893c 3ba0 abbd
000000a0: aad6 9e3d cf77 81bd caa2 11bd 1f8c a53c
000000b0: faab cbbc 60a3 16bd eb4f 18bd e682 b1bd
000000c0: a9c9 613d ac9e 0e3c c33f 323d 28b3 8e3b
000000d0: edcb 8bbc 131d 0b3d d627 eabc 3e3b da3d
000000e0: 74d4 383d 5a75 9f3d 8daa 3d3d 3f52 883d
000000f0: b271 5e3e 6b29 213d c7a8 863d 3695 c9bc
00000100: 5889 033b ebff f53b c311 fdbc 4882 623b
00000110: 5111 303d 9f91 bb3b 76ed d0bc c1bd c1bd
00000120: 739b e03c e93b 493d bafc 22bd 2ae9 85bd
00000130: 664f 193d 1b28 a63d 02bc d43d fa88 163c
00000140: 7885 c03c a032 8ebd f224 96bd d2d7 ee3d
00000150: d6b4 39bd 70f5 ab3d 1524 693d f7d1 5dbd
00000160: 84d6 3f3d 9987 debc 0e19 d13d 5818 0ebd
00000170: dc00 9bbd 8a99 5abc 878b 063d dee4 ddbd
00000180: e34b 873b 3b98 b5bd 7b21 233d a19b 69bc
00000190: aaaa f2bc 4dee bdbc a06d eebb f92c 64bc
000001a0: 0f35 39be e360 5b3d af8f 773d 6e88 ed3c
000001b0: e1c9 633d e70a 0dba 8f32 34bc e35b 78bc
000001c0: 496a d73c 0851 923c 8ef8 283d c130 96bc
000001d0: 21ad 4f3d 6914 2ebc 56e7 82bb 7844 3d3d
000001e0: da68 4bbd bf92 4abc a031 c43d 3b55 3abd
000001f0: aa34 3b3e 1e96 913c f20d 213d e49c 943c
00000200: f286 773d 2c9a 40bd d149 503d e549 623d
00000210: 0a71 823c 188e cd3d 9fdf 8bbd cebf abbb
00000220: a237 8e3d e4f8 233d 7426 ad3c 15ca e6bc
00000230: 16c4 833c 04db 673d 5a31 0a3d 9695 f33c
00000240: b1dc 283d 29c4 b2bc 6bbd 3abc eea0 223c
00000250: f8e5 abbc 3b39 a23c bd11 793b 6db1 82bd
00000260: 22c0 6a3d 1390 253d 2bb7 28bd 27d5 7a3d
00000270: 574a 5fbc 4a03 833b 0592 713d b368 dbbd
00000280: ba81 fe3c 1710 9cbc 01e8 bebc 545e a13d
00000290: ab49 5d3d aa4b 97bc 1958 b43d 653d 84bd
000002a0: e321 8cbd 9b9b 41bd 215d bb3c a634 84bb
000002b0: 7d10 aa3c bf88 01bc ae0f debc 6f4c 393d
000002c0: 20ca 65bd e8b2 493e 920d 313d 8873 86bc
000002d0: b7a2 c5ba b030 09bd 5ec4 91bd dbfc 97bd
000002e0: a752 0f3d 6a2d 78bd ff8e 333d 4b2c 8f3d
000002f0: f619 d8bc 481f 2fbd 441d 913d 8419 a7bd
00000300: 4f50 973b fb39 d53d 5be0 1abc d65b 603d
00000310: 00f0 c03d c890 c0bd 3f4a 7ebd 126e 5b3d
00000320: 0a22 e23d 80fe 3abc 1cd4 13bc 9885 8ebc
00000330: 167d 29bb f2ef a13d ef87 623c ba50 d9bc
00000340: 9676 55bc be2f fd3b 7519 913d 8d8c 903d
00000350: fcd8 87bd 6a44 363c 6b5c bd3d e0e9 98bc
00000360: 62ee 993d 4c93 453d 5e2b 053d 155d 723d
00000370: 956d 053e bac9 963b 718e 5e3d 553f d13d
00000380: 7270 803c efe0 bb3d 0982 053e 321d 043e
00000390: e73e 873b fdf8 073d de56 1cbd e849 513d
000003a0: 520c b63b f894 62bc 30c3 00bd 7bcf 96bd
000003b0: d8c8 823c 02bf 873c 21d1 98bc d779 0b3e
000003c0: 17ef 793d 726e 523c 7b71 f43c 6ad3 7abd
000003d0: a684 9bbc 179d 0fbd d336 5f3d 0362 9cbc
000003e0: edc5 2cbd c387 053c 62fe 5c3d b606 ccbc
000003f0: b9fe cf3d d0fc 8b3c 700b 1c3d 67ae 903d
0.071269624 0.06037594 0.03511871 -0.041744754 0.011939148 0.011184981 -0.015666256 0.068608396
0.060482033 -0.04828338 0.08414191 -0.0016249508 0.032635983 -0.076268665 0.103726156 0.101387
0.10243354 0.015419109 0.043946113 -0.022486476 -0.03482973 0.0020854005 -0.030738667 -0.030516176
0.062413283 0.032803833 -0.096930325 -0.04253621 0.12984106 -0.01341947 0.09249693 0.10284992
0.099431254 -0.055158332 0.058544528 -0.05945632 0.061558425 -0.02528989 0.016806051 -0.08380171
0.07755788 -0.0632168 -0.03555564 0.020208417 -0.024862278 -0.0367769 -0.03718559 -0.08667545
0.05512396 0.0087048225 0.04351784 0.004354853 -0.017065013 0.033963274 -0.028583448 0.10655831
0.045124486 0.07786055 0.046305228 0.06656312 0.21723059 0.03934614 0.065751605 -0.024607282
0.0020070877 0.0075073144 -0.030892259 0.0034562517 0.042985264 0.0057241465 -0.025503855 -0.09460021
0.027417874 0.0491294 -0.0397918 -0.06538613 0.037429236 0.08113118 0.10387422 0.009187931
0.023501143 -0.0694325 -0.073312655 0.11662258 -0.045338474 0.08396423 0.056919176 -0.054155316
0.046835437 -0.027164267 0.10209857 -0.034691185 -0.07568523 -0.013342271 0.032847907 -0.108346686
0.0041289194 -0.08866926 0.03982685 -0.014258296 -0.029622395 -0.02318492 -0.007276252 -0.013926738
-0.18086646 0.053559195 0.06043976 0.028995719 0.05561245 -0.0005380348 -0.010998382 -0.015158626
0.026295798 0.017860904 0.041252665 -0.018333795 0.050702218 -0.010624983 -0.0039948625 0.046207875
-0.04966054 -0.012364089 0.09579778 -0.04549144 0.18281808 0.017771777 0.03931994 0.018141218
0.06043143 -0.04702203 0.050851647 0.055246253 0.015923042 0.10036868 -0.06829762 -0.0052413708
0.06944205 0.040032282 0.0211365 -0.028172532 0.016084712 0.056605354 0.03373847 0.029734414
0.041226093 -0.021822052 -0.0113977 0.009926064 -0.020983681 0.01980268 0.0038004958 -0.063814975
0.05731214 0.040420603 -0.041190308 0.061238434 -0.013628564 0.003998195 0.058977146 -0.10713329
0.031067718 -0.019050641 -0.023303987 0.0787932 0.054025333 -0.018468697 0.08805866 -0.064570226
-0.06842401 -0.047267538 0.022871556 -0.0040345965 0.020759815 -0.007906138 -0.027107086 0.04523891
-0.056100965 0.19697154 0.043225832 -0.016412511 -0.00150784 -0.033493698 -0.07117532 -0.07421275
0.034990933 -0.060590185 0.043837544 0.0699087 -0.026379567 -0.04275444 0.0708566 -0.081591636
0.004617728 0.104114495 -0.009452905 0.05477508 0.09420776 -0.09402615 -0.062082525 0.053571768
0.11041649 -0.011413217 -0.009022739 -0.017397687 -0.002586191 0.07907094 0.013826354 -0.026527751
-0.013028761 0.0077266386 0.07084934 0.07058058 -0.06633183 0.01112471 0.09246143 -0.018666208
0.07516171 0.048236176 0.03251206 0.0591708 0.13030083 0.0046016844 0.05433506 0.10217158
0.015678618 0.09173762 0.13037886 0.12901762 0.0041273716 0.033196438 -0.03816878 0.051095873
0.005555668 -0.013829462 -0.031436145 -0.073637925 0.01596491 0.016570572 -0.018654408 0.13620697
0.06101903 0.012843715 0.029839268 -0.061236776 -0.01898415 -0.035061922 0.054495644 -0.019089704
-0.042180944 0.008150044 0.053953536 -0.024905544 0.10156006 0.017088324 0.038096845 0.070645146

bias f4 [128]
00000000: e625 143e 33e0 223e 9b64 babc 39fb b7bb
00000010: 30bc e4bc 4f65 08bd d4aa 043d c117 773e
00000020: db9a 2fbd acba a3bb 53a7 d73d 4ee4 9b3d
00000030: 1034 03be aeb8 593e e219 e6bd 4ae2 b3bc
00000040: 9899 00bd 3bfc 7a3c 9798 c7bc 104b 0f3d
00000050: 1e73 23be 685a 543d 5cbb 83bd 01ac d8bc
00000060: 69aa 0d3d 512c 393d 1744 5e3e ffc1 373e
00000070: ecd4 0abe fbc7 1e3d fa30 7bbc ecea 3c3e
00000080: 3f12 613d 4a3e a5bd 232e fcbb c13b 603e
00000090: bbe4 0a3e fe15 173c b462 803e 75cf b63c
000000a0: bd40 99bd 189f 953c 6c8f a93d 7b29 473c
000000b0: a89f 13be 97ff c93d c75a 15be 91d5 753e
000000c0: ff57 5b3e ef04 57be 055f 153d c50d 82bd
000000d0: dae4 ab3d fdb9 9b3d 0ede 4dbe 16fc fbbd
000000e0: 8c91 083e 7539 1ebc 88c2 9fbc 77bd 493e
000000f0: f835 26bd 64fe 0c3e ba2b 753e b87b 383d
00000100: 4adb 72bb f996 5f3e 7409 f0bd 5d38 673e
00000110: c034 3cbe 19f6 03be 74bc f2bd 070c 103e
00000120: f732 1d3d de98 26bd c4c8 563d 18c6 aebd
00000130: 2dc9 2cbe de49 273e 4aac 103d 7f66 85bc
00000140: 1874 5d3e 94c4 85bd d063 baba 7799 803b
00000150: b6d4 db3d 6093 04be 41e3 b23d f71d 22be
00000160: d323 7b3e 37d9 723c bd8b 02bd 349a acbd
00000170: 28ec ca3c 820d 553d de58 06bd 6a40 99bd
00000180: ee22 0b3e e2fb 183e 2c9a 043d 4e12 363d
00000190: 28ee 20bd 2bb1 d5bb 1f0b 833e c51e 573e
000001a0: 667b 3e3e 14bf 53bd d80e 9dbd 54db 403e
000001b0: f8f9 14be 89d9 51bc 1a71 683c a058 bf3c
000001c0: e98d 463e a243 12bd daa1 333d e71f 2dbe
000001d0: 4e15 0d3e 8f58 9dbd d559 ca3d 6ad9 0fbe
000001e0: 6a7d 12bb b7f2 d03d bfcb 53be 52c9 0d3e
000001f0: a5ba 3c3e 0f08 f1bc 4a39 37bd 0002 b3bd
0.14467582 0.15905838 -0.02275305 -0.005614665 -0.027921766 -0.03329974 0.032389477 0.24130155
-0.04287229 -0.0049966183 0.105299614 0.07611905 -0.12812829 0.21261856 -0.112354055 -0.021958489
-0.03139648 0.0153189255 -0.024364753 0.034983695 -0.15961882 0.05184403 -0.0643222 -0.026449205
0.034586344 0.04520828 0.21705662 0.17945097 -0.13557786 0.038764935 -0.015331501 0.1844899
0.05494904 -0.08068521 -0.0076959296 0.21897794 0.13563816 0.009221552 0.25075305 0.02231572
-0.07483051 0.018264338 0.08279309 0.012155886 -0.14416373 0.09863203 -0.1458541 0.2400725
0.21420287 -0.20997976 0.03646757 -0.063502826 0.08393259 0.07603834 -0.20104238 -0.12303941
0.13336772 -0.0096572535 -0.01950194 0.19701181 -0.040578812 0.13768917 0.23942462 0.045039862
-0.0037056976 0.21834935 -0.11720553 0.22580095 -0.18379498 -0.12886848 -0.11852351 0.14067088
0.038378682 -0.04067313 0.05243756 -0.08533877 -0.16873617 0.16336772 0.035320558 -0.016284226
0.21626318 -0.06531635 -0.001422042 0.0039245444 0.10733931 -0.12946844 0.087347515 -0.15831743
0.24525385 0.014822296 -0.031871546 -0.084278494 0.024770811 0.052014835 -0.032799594 -0.07482989
0.13587543 0.14939836 0.032373592 0.04445105 -0.039289623 -0.006521364 0.25594422 0.21007831
0.1860176 -0.0516959 -0.07668847 0.18833667 -0.1454848 -0.012808212 0.014187122 0.02335769
0.19390072 -0.03570903 0.043855526 -0.16906701 0.13777658 -0.07682907 0.09880415 -0.1404778
-0.0022352585 0.10202544 -0.20683192 0.13846329 0.18430574 -0.029422788 -0.04473237 -0.08740616

weight f4 [128, 128]
00000000: b263 f23c a620 953d cabb 443d 9ebb ccbc
00000010: e527 513d 1ed3 1f3d 6961 c0bc e572 8c3c
00000020: 0bb8 90bc a764 70bd 4488 c33d 5505 0abc
00000030: 6155 65bd 66a1 8e3d 5197 edbd b3c2 913d
00000040: 46ea 8fbc 6d36 1dbd 6def cdbb eed2 28bd
00000050: dae7 973d bd08 83bd bcb3 5e3c c238 99bc
00000060: 98e5 b03c 48fe 6abd f82f 863d b6a8 d23d
00000070: e8ea 103c f067 b73c 0669 98bd bbbf c0bc
00000080: 5330 723c 1f56 7e3d a524 863d 08f9 1d3e
00000090: 1cc0 943d a560 873d 752c 3e3d 5116 7fbd
000000a0: 6657 e9bc 2245 7ebd e194 83bc 04d1 4e3c
000000b0: 6acf 9cbd c047 d6bc 2c5c bcbd 4d76 003c
000000c0: 100b b73d 60a8 f7bd c900 8c3d c1dd d5bc
000000d0: 0ef6 6dbd 655e 1ebe 622c e5bc f8ee f5bd
000000e0: a672 3e3d 075b 893d 4327 583c 1f30 c43c
000000f0: af72 2a3d bbe7 0b3d 0603 ef3d c02e 02bc
00000100: 5950 20bd 7d2e f53d deeb 953d 36a6 693d
00000110: a28f 63bd a3c0 aabd 1ddb 813d f25b a7bc
00000120: 4907 8a3d 0c2b 77bd 3d76 54bd 3dda b93b
00000130: 2ae3 70bd fec4 f13d 82e2 0f3d 3f75 89bd
00000140: c3ab 60bc 9992 233d ff35 02bd 4e88 18bd
00000150: 5823 07bd 39ed bfbc 7e85 f0bb 9d08 fdbc
00000160: 04dc da3c 56a9 e23c 3726 09bd 4ba7 c33c
00000170: e5cd a13c a0cf 843d 3403 46bc dd13 aabd
00000180: ca7e 6c3d 065f 46bc 4438 b93d 9098 5e3d
00000190: fb75 1f3d 0481 af38 a1e1 ec3d 6206 873d
000001a0: 1564 013e 7fa1 72bd 7b2c 883d acfb a93d
000001b0: f541 333c bf36 aabc 3be9 c23d 33f8 1b3b
000001c0: aead a4bc c61d ecbc 1886 08bc 12c7 a0bd
000001d0: cdf1 6abc b09a 8abd 249b 873d 25e5 26bd
000001e0: cdee d73a 225f 943d 0a10 3f3d f0ac 003c
000001f0: 1164 8ebc 58b6 1e3d 1b03 c8bc fcf7 9dbd
00000200: 44b8 19bd f66f 4fbd 3095 603b 4bf8 90bc
00000210: 7e21 553d 4566 873d bcc0 f3bb 8497 313d
00000220: fd3d 873d 4158 ba3d 464b a03d 800d 4fbd
00000230: 6e85 a73d 14c7 a73c 089f cd3d ec6b 91bd
00000240: 271c bcbc e2e2 d43d bc6d f13d 0661 47bd
00000250: 1004 423d 338c 323d 04e6 963c d24d 853d
00000260: 1e1c 82bd 65b6 363d fc40 d8bc c0aa b1bd
00000270: 122e e5bb 77b8 dabd 0ebf 6fbb 282e d13d
00000280: 5ebc 8abc 6e90 8a3d 4535 e53c e7bb 253d
00000290: 085c da3c a362 6d3c 0b42 5abc 14ef 86bd
000002a0: cd2d 903d 3e10 43bd 7e6d e53c b1d3 38bd
000002b0: e7bc 6c3d 9775 793d e175 1b3d 97c1 38bc
000002c0: aba8 873d dea6 023e 1bbd 2cbd 6be8 10bb
000002d0: ef18 e93d 55bf cfbb 704f bbbc fd5b 51bd
000002e0: f066 843d 7db5 ae3c 0156 913d 919c 4e3c
000002f0: ad57 f7bc 5775 833d b67c 90bc 9953 84bc
00000300: e2c6 c63d 6ea0 a53d 0bec 0d3c 4c7d 8b3d
00000310: 3a4b 2bbd fcdc b3bc 7b7e 6fbb 0515 6a3d
00000320: 09c2 84bd 9193 b63d 06e5 b93c fe66 c33d
00000330: 48c5 4b3d f015 1dbd 3229 623c 47f5 9d3d
00000340: 3429 923b 4aa4 ac3b 1de8 90bd 6a1f 83bd
00000350: 0ceb 9f3d aab9 343c b60e 703b 67fd ccbc
00000360: 26c2 de3c 1f8e 2c3d 5b13 28bd b39d d3bd
00000370: 9259 77bc 3212 71bc be01 443d 8d47 b83d
00000380: 64e8 9a3d 659c e63d 3911 fabb ecb7 90bd
00000390: c021 7e3d a832 c13d 8257 43bd fd9d 70bd
000003a0: 8f6f 333d 0af3 84bc 0fe4 91bd c999 05bc
000003b0: 3476 033c 58f9 43bd d273 84bd d859 6cbd
000003c0: 7dc6 fd3c 8f67 b23d 2640 88bc a017 ef3d
000003d0: f277 093d b75b 103d 1b0f 8a3d 8f70 983d
000003e0: ccb0 333a 6984 843d ba3e 063d b1b7 0dbe
000003f0: 7c2c 8b3d bbf9 583d c65c cebc a2b3 44bd
0.029588554 0.07281618 0.048030652 -0.024991807 0.051063437 0.039019696 -0.023483949 0.01714463
-0.017665884 -0.05868974 0.09547475 -0.008424123 -0.055989627 0.06964378 -0.11601127 0.07117214
-0.017567765 -0.038381983 -0.0062846453 -0.041216783 0.07417269 -0.06398151 0.013592657 -0.018703822
0.021593854 -0.057371408 0.06552118 0.10286085 0.0088450685 0.022388428 -0.07441907 -0.023528924
0.014782029 0.06209385 0.06549958 0.15427029 0.072632045 0.0661023 0.046429116 -0.062277142
-0.028484058 -0.06207765 -0.016062202 0.012623075 -0.076567486 -0.02615726 -0.09197268 0.007840705
0.08937657 -0.12092662 0.06836087 -0.026106717 -0.058095984 -0.15465696 -0.027975265 -0.1200847
0.046496056 0.06706815 0.0131929545 0.023948727 0.041613277 0.034156542 0.116704985 -0.007945716
-0.039139125 0.119717576 0.07320379 0.057043277 -0.0555569 -0.08337524 0.06340621 -0.020429585
0.06739671 -0.060343787 -0.051870573 0.005671768 -0.05881039 0.118051514 0.035128124 -0.06711816
-0.013712826 0.03993473 -0.031789776 -0.037239365 -0.03299269 -0.023428546 -0.0073401323 -0.030887896
0.02671624 0.027668636 -0.03348371 0.023883482 0.019751498 0.06484914 -0.012085725 -0.0830457
0.057738103 -0.012107616 0.09043935 0.054344714 0.038930874 8.368681e-05 0.11566473 0.06593014
0.12635835 -0.059236046 0.06649109 0.08299956 0.010941018 -0.020778058 0.095171414 0.0023799061
-0.020102348 -0.02882279 -0.008332752 -0.0785047 -0.014339876 -0.067677855 0.066213876 -0.040745873
0.0016474366 0.07244708 0.046646155 0.0078537315 -0.0173817 0.038748115 -0.024415543 -0.07713315
-0.037529245 -0.050643884 0.003426861 -0.01769652 0.052033894 0.06611303 -0.007438747 0.043357387
0.0660362 0.09098864 0.07826857 -0.050549984 0.081797466 0.02048067 0.100400984 -0.071006626
-0.022962643 0.10394837 0.11788508 -0.048676513 0.047367156 0.043590736 0.018420227 0.06508984
-0.06353019 0.04460754 -0.026398174 -0.08675146 -0.0069940174 -0.10679715 -0.0036582383 0.10213882
-0.016935524 0.06765829 0.027979502 0.0404624 0.026655212 0.014488849 -0.01332141 -0.06588569
0.07039986 -0.04762291 0.028006312 -0.04512376 0.05779734 0.060903158 0.037954215 -0.011276624
0.06623968 0.12758967 -0.042172533 -0.0022111188 0.11381709 -0.006339947 -0.022865027 -0.051113117
0.06464946 0.021326775 0.07096482 0.0126105705 -0.030193174 0.06418865 -0.017637592 -0.016153144
0.09705903 0.0808724 0.008662234 0.06811008 -0.04181979 -0.02195596 -0.0036543894 0.057148952
-0.06482322 0.08914865 0.022692215 0.095411286 0.04974869 -0.038351 0.013803767 0.077127986
0.004460478 0.005268608 -0.07075522 -0.06402476 0.078085035 0.011030594 0.0036629862 -0.025023175
0.027192187 0.042127725 -0.041034084 -0.10332813 -0.015097039 -0.014713811 0.047853224 0.08998022
0.07563856 0.11260299 -0.0076314476 -0.0706633 0.062043905 0.0943349 -0.047690876 -0.05874442
0.043807562 -0.016229171 -0.07123577 -0.008154341 0.008023787 -0.047845215 -0.064674035 -0.05770287
0.030978436 0.087111585 -0.01663215 0.11674428 0.033561654 0.035243716 0.067411624 0.07443344
0.0006854653 0.06470568 0.032774664 -0.13839604 0.06795594 0.052972537 -0.025190722 -0.048022874

bias f4 [128]
00000000: 0c77 343e abf5 513c d533 21bc 84cc a0bd
00000010: cf07 343c 4ecc 0bbd 00af f83d f132 3c3e
00000020: e0f6 81bd 699b 51bd 23ea 0abd 0279 a4bd
00000030: 5782 5c3c 1a20 c33d 937d 02be b0f4 5e3e
00000040: 997b 883d 4c70 e0bc e3ca a33d ec74 45bd
00000050: 0f57 403e e606 edbd 7cad 6a3a b631 15bd
00000060: b44f 33bd dbba 88bd bd3a 09be bfa7 61bd
00000070: 5977 f8bd 98e8 813d 2bc7 893c 9b68 fb3d
00000080: 9dc8 04be b52c eebc 7242 9f3d 37eb b8bd
00000090: 49aa fdbd f982 d5bd e498 203e d736 293e
000000a0: 1c10 693d 1a01 4f3d f2c3 27bd 0bb4 f2bd
000000b0: 105d f23c 8751 383d 8f51 ad3d 40e9 bbbd
000000c0: dec5 493e 8275 f73d ad2a 293e 8aa6 bf3d
000000d0: df91 4a3e 4b3d 34bd 93d1 e83c 279b 843e
000000e0: 4dd4 7bbd 7b2b 5bbd e438 0c3e 42e2 babd
000000f0: a5d5 343e e6d6 23bc 26a7 0cbe 5c4d a43c
00000100: 9980 643d f006 7a3d a48e 483d ee42 bebc
00000110: 4570 dc3d fc4f 473d c2a6 acbd 2050 373d
00000120: 3c96 463e ee4d 983d cd03 89bd 7512 c7bd
00000130: 111c 0dbd 43ce 8f3c 3ebf d2bc ebc9 d43d
00000140: 1970 60bd 80c2 183e eac3 e33d dbef b9bd
00000150: 52a4 dcbd c8cf 503e ca5b ddbd c395 0c3d
00000160: e931 42bd 7344 053e 1c62 913c e0d2 533d
00000170: 1a0c 063d 23a5 3e3e 0ed0 493e 994a 873e
00000180: 24f2 b93d b940 4cbd f0d3 1fbe 9403 68bd
00000190: 271a a43b bfa5 683d d79f a9bd e5d2 4d3e
000001a0: 6779 453d d45f 323d ad3d 37be 2602 6f3d
000001b0: f3e2 973e c843 373e cf9e c43b b1e0 333e
000001c0: 0496 85bd 8252 12bd 8be8 9dbd 0208 93bc
000001d0: 572a b23d 68fd 55bd 6273 75bc 1f4e f6bd
000001e0: e21f 46be 1cb4 82bd 9d3a 80bd e652 4e3e
000001f0: bde9 d73d 0b4b 06be 53e3 75bd 77ca b23d
0.17623538 0.012814919 -0.009839018 -0.07851508 0.01098819 -0.034130387 0.121427536 0.18378808
-0.06345916 -0.0511736 -0.033914696 -0.08030893 0.01345881 0.09527607 -0.12743215 0.21773028
0.066641994 -0.027397297 0.07997682 -0.04820721 0.1878321 -0.115735814 0.0008952243 -0.03642436
-0.043777183 -0.06676265 -0.13401313 -0.055091616 -0.12132139 0.06343192 0.016818604 0.12275811
-0.12967153 -0.029074052 0.07776345 -0.09029239 -0.12385995 -0.10425372 0.15683323 0.16524826
0.05690013 0.05053816 -0.040958352 -0.11850747 0.029585391 0.044999626 0.08462822 -0.09175348
0.19704387 0.1208296 0.16520186 0.09357937 0.19782208 -0.044003766 0.028420245 0.25899622
-0.061481763 -0.053508263 0.13693577 -0.091251865 0.17659624 -0.009999966 -0.13735637 0.02005642
0.055786703 0.061041772 0.048964158 -0.023225274 0.10763601 0.048660263 -0.08430244 0.044754148
0.19393247 0.07436739 -0.06690178 -0.09720317 -0.034450594 0.017554408 -0.025725957 0.10390075
-0.054794405 0.14917946 0.11121352 -0.09078952 -0.10773529 0.20391762 -0.10808523 0.03432251
-0.04741088 0.13014393 0.017746978 0.051714778 0.032726385 0.18617682 0.19708273 0.264241
0.09079388 -0.04986641 -0.15608191 -0.056644037 0.0050080004 0.056798693 -0.0828244 0.20099981
0.04821148 0.04354842 -0.17894621 0.05835166 0.29665336 0.1789695 0.006000377 0.17566182
-0.06522754 -0.035723217 -0.0771037 -0.017948154 0.08699482 -0.05224362 -0.014981123 -0.12026619
-0.193481 -0.063820094 -0.062611796 0.2014881 0.10542629 -0.13114564 -0.060031246 0.08730023

weight f4 [128, 128]
00000000: 4f2f 35bd 35ca 54bb 386d a03c 8ac1 9ebd
00000010: 5a62 99bd b7c0 eebc 8965 0fbd 870b 89bd
00000020: 0a20 0fbd 21db d93c 6913 4f3d 912d efbc
00000030: 12f8 93bd 624f 6a3a 42ee 42bc 6773 f83c
00000040: d045 893d 3d4a 163d ec95 4a3d 1ad8 833d
00000050: 75cf 213c df7b afbc 328d a13c 6783 edbb
00000060: 8911 8cbd 02ea b8bd 444a 77bd f79e 9fbd
00000070: 10b2 82bd 82d0 a5bd d275 1b3b 1203 5c3d
00000080: 3198 b2bd cacc 0ebd 36d0 853c 17ad 823d
00000090: 2f63 5f3d a679 8a3c f011 c53c 2208 a7bd
000000a0: 939b 803d 9b87 be3d 1b10 c5bb 8ffc c53c
000000b0: 5627 b1bd 664a 843b 76fd b03d f5c7 70bc
000000c0: b089 3fbc 98f7 b7bc f42d 0ebc 6b21 72bc
000000d0: a7cf a73d aa20 323c df84 d63c dc16 68bc
000000e0: a713 bb3d c0ea 2e3c 16fc b43c 432f 07bd
000000f0: 365e afbd 11d4 18bd e9eb 9d3c fcab 94bd
00000100: d148 153d 6ca3 113d ed7e 873d 5173 0ebc
00000110: 6a00 b03c 5fa6 7d3d 99f9 abbc e545 94bc
00000120: ed45 8ebd f0b1 a03d bc5b 5c3c b539 3fbb
00000130: 75b6 39bd 3055 debc 2f8d 1dbd 5a7c 2dbd
00000140: 063d 2e3d 44d8 1ebd df38 55bc e48e 7d3c
00000150: 6bd9 9a3d 2341 8c3d ea67 263d b7dd 16bd
00000160: 3591 383d c540 463d 0dd1 aebc cef9 ab3d
00000170: 12fd 9ebd 6cbe 953d 6741 9bbc 67d6 8abd
00000180: 36fc 03bc 2a3f b43d 328b 2ebc 58f1 53bc
00000190: dabd 873d 540e 243d b136 563d 805f ea3c
000001a0: 179e 843b 8051 aabd d98d dbbc 6478 b33d
000001b0: 5ef4 c23c 3c9b 293b 63e0 84bc 9be8 4c3d
000001c0: d1c5 273d b210 643c 3b93 983d 734d cdbd
000001d0: a86b 5cbd 71e0 be3d ef10 0c3c d750 ac3c
000001e0: 0b09 a63d b2f8 213c 479c 4d3c 8fe9 b5bd
000001f0: d6ee f93c 149b a9bc 93ce b6bd f63a 79bd
00000200: 09cd 993d 5b6c 04bd 0e01 c73c 2a6c f4bc
00000210: 48e0 98bd e3ee 8ebd 63f6 aebd f07a 653d
00000220: 8665 5f3d 0d19 83bd 5c3f 403d be1c b4bd
00000230: 6d9f a1bd 0a7b 9e3d 5279 0e3c 4a9d 00bd
00000240: 58e6 323d c137 c5bc 82d3 cbbc 14b1 30bd
00000250: b600 a3bd 10c2 273d c1fe 1cbc 934d 413d
00000260: addf 723d f9f6 f1bc 7189 6a3d 576b ae3c
00000270: 5010 4bbd c02b 83bd 2dd3 433d 1f3a 3a3d
00000280: 68c7 9dbd 0e58 70bd ca47 2dbd dd50 883d
00000290: ce79 a83d 257c 86bc 83af 0c3d edbb 39bd
000002a0: c67a 693d f248 a6bd 7285 8bbc f097 8cbd
000002b0: 960c 823d 4e73 5abc 1587 943d 5952 fa3b
000002c0: 54ca 8ebd 5cf6 33bd f29e 7c3d eab4 a53d
000002d0: b0ab 83bd 9451 98bc e1af c4bc c08b adbd
000002e0: 211d 863c 1d34 86bd 8a46 8ebb b785 cd3c
000002f0: fbd5 1dbd e649 8ebd a1ee cebc 08d6 4a3b
00000300: 15ec 6c3c 00e2 92bd 8394 88bd ed79 30bd
00000310: a33d a7bc f2e2 803d 1bf5 383b 059a a9bd
00000320: b043 75bd bbeb 873d bffd 8abd 28e1 85bd
00000330: 4c89 44bb 6ee0 723d 88ed ab3c cd28 16bc
00000340: 90d9 5ebd 1166 4e3d d703 713d f05a 44bc
00000350: 71b5 e33b d1d5 8bbd 621c 7fb9 6138 dd3c
00000360: de3f 38bc cd18 4d3c 9aa5 6f3d ab6f 5d3d
00000370: 8aee 223d 5eaf 433d 6791 83bd aab1 963d
00000380: 683c 49bd 2d70 283d eae3 863d 60af 65bc
00000390: 4a3a 89bd 3006 a83d 8d86 98bd 9f8c 793d
000003a0: 2fce 3a3d cfee 0a3d d048 a6bd e3a1 17bd
000003b0: 3322 d8bc cbac 0abd 3115 0dbd 2237 f8bc
000003c0: b15e 143d 8f2d 343d 4e6e cf3b f2bc 5cbd
000003d0: 4901 19bd 59e6 923c 139d 1ebd b5e1 95bd
000003e0: d6a4 63bd 8910 903d 6829 12bd 36b7 b3bd
000003f0: 38d4 743d 195b 963d ef31 73bd 3596 853d
-0.04423457 -0.0032469158 0.01958333 -0.077517584 -0.07489462 -0.029144628 -0.03500894 -0.06691652
-0.034942664 0.026593747 0.05055562 -0.029196532 -0.0722505 0.00089382206 -0.011897625 0.030328466
0.06702769 0.036691893 0.049459383 0.064377025 0.009876122 -0.021421371 0.019720647 -0.0072483304
-0.06839282 -0.090290084 -0.06037356 -0.07793992 -0.06381619 -0.0809641 0.002372135 0.053713866
-0.087204345 -0.03486327 0.016334634 0.063806705 0.05453795 0.01690371 0.024056405 -0.08155848
0.062796734 0.093032084 -0.006013883 0.02416828 -0.08650081 0.0040371893 0.08642094 -0.014696111
-0.011690542 -0.02245693 -0.008677948 -0.014778475 0.081939034 0.0108720455 0.026186405 -0.014165606
0.09134608 0.010676086 0.02209286 -0.033004057 -0.08562891 -0.037311617 0.01927753 -0.07259366
0.036446396 0.035556242 0.06616006 -0.008694486 0.021484572 0.061926242 -0.02099304 -0.018099735
-0.06946931 0.07846439 0.013449606 -0.0029178683 -0.04534002 -0.02714023 -0.03846472 -0.04235492
0.042538665 -0.038780466 -0.013014047 0.015475962 0.075610004 0.06848361 0.040626444 -0.036832538
0.045060355 0.048401613 -0.021339918 0.08397256 -0.07763113 0.07311711 -0.018952085 -0.06779175
-0.008055737 0.0880111 -0.010653304 -0.012935959 0.06628008 0.040052727 0.05229825 0.028609991
0.004047166 -0.08316326 -0.026801037 0.08763197 0.023798164 0.002587988 -0.016220277 0.050026517
0.040960137 0.013919996 0.07449957 -0.10024538 -0.053813607 0.093201526 0.008548959 0.021034641
0.081071936 0.009885954 0.012549466 -0.088824384 0.030509394 -0.02070383 -0.0892612 -0.060847245
0.075098105 -0.0323299 0.024292495 -0.029836733 -0.07464653 -0.06979158 -0.08543088 0.056025445
0.05454018 -0.064012624 0.046935424 -0.08794545 -0.07891736 0.077383116 0.008695917 -0.031400003
0.043676704 -0.024074437 -0.024881128 -0.043137625 -0.0795912 0.040956557 -0.009582222 0.04719312
0.059295345 -0.029536711 0.05725998 0.021291418 -0.049576104 -0.06404829 0.047808815 0.045465585
-0.07704049 -0.058677725 -0.04230479 0.066560484 0.082263574 -0.016416619 0.03434707 -0.045345236
0.05700185 -0.08119382 -0.017031405 -0.06864917 0.06350057 -0.013333155 0.07252327 0.007639211
-0.06972185 -0.04393612 0.06167502 0.08091147 -0.06429231 -0.018593587 -0.024009647 -0.08473921
0.016371312 -0.065529086 -0.004341905 0.025088174 -0.038534146 -0.06947689 -0.025260272 0.0030950326
0.014460583 -0.07172012 -0.06668951 -0.043085027 -0.020415133 0.062932864 0.0028222266 -0.0828133
-0.059879005 0.06636759 -0.067866795 -0.06537086 -0.0029989062 0.059296064 0.020987287 -0.009165001
-0.054406703 0.050390307 0.058841553 -0.011984572 0.0069491197 -0.068278916 -0.00024329268 0.027004423
-0.011245696 0.01251812 0.05850754 0.054061573 0.03977827 0.047774665 -0.06424218 0.073581055
-0.049129874 0.041122604 0.0658644 -0.014018863 -0.06700571 0.08204305 -0.074475385 0.060925122
0.04560679 0.033919152 -0.08119357 -0.03701962 -0.026383495 -0.033856194 -0.034444038 -0.030299727
0.036223117 0.04398876 0.006330288 -0.05389113 -0.03735474 0.017932104 -0.038724016 -0.07318441
-0.05557712 0.07034404 -0.03568402 -0.08775179 0.0597727 0.07341594 -0.059373792 0.0652279

bias f4 [128]
00000000: f805 973b 60d8 89bd d58a 52bb 33f6 dabd
00000010: bfce f5bd 9aad 183e 3c97 3e3d c81a 283e
00000020: 84a5 6b3d 77fb 883d 8fad c13d e643 14bd
00000030: d493 b6bd 4557 18bd 15b5 103c d36a 8cbd
00000040: f104 a83d fbc5 03be cc6d 463c 0afd e23d
00000050: ea00 863d 3461 b53d 4af4 323e 1687 743d
00000060: ee52 99bd d100 8f3c 411d 84bd 6ea6 72bd
00000070: 55ab 26bd eb07 64bc d0ae 66bd 949e 0d3c
00000080: a155 533d 227d 993b c55d 0cbd 1931 8d3d
00000090: 243a a6bd 09f7 6c3d d115 b43d 39c4 b03c
000000a0: b00c 5cbd 5ed7 d43d 729b 693d ed82 a2bd
000000b0: f1e4 75bd 923d a6bc dcfb f03c 6979 263e
000000c0: 1e22 013d ef57 8bbd 5a72 cb3c 5d84 d7bc
000000d0: 64ba bcbd 36ef 123e 559c 373b ed18 8e3c
000000e0: 5523 b1bc 5b91 3a3e 8e3f 183d 183a cfbc
000000f0: dbb6 823d 73ab 1d3e 4ec3 243c 8d6f cb3c
00000100: a55e 953d 9d3b dd3d 26e3 813d 893d bfbc
00000110: b615 953d 8ac6 3d3e 87f8 4a3e 3cbe 063e
00000120: 85d0 20bd 0556 6a3d a5f1 fd3c 02cf 8dbd
00000130: 2b09 be3c 3e20 8a3d 72bd b93c 16ea 2a3d
00000140: 0138 573d 14fa 0e3e 2196 a3bd 0537 e5bc
00000150: a544 f3bc 33ce 74bc 3153 87bd d244 5a3e
00000160: 6616 dbbb 78a8 313d 84e8 8cbd 7f7d 1cbd
00000170: 7e91 c4bd ee09 9b3d c3fd 193e 5e1d d1bc
00000180: d0cd 59bd 4501 35bd 2d0b 97bd 4531 e33c
00000190: ae26 093e 4c09 2d3d 7957 24bc 1e3e 393e
000001a0: 8296 1fbc 21e0 bfbd 10aa 5e3d 0c72 b3bb
000001b0: eb85 ea3d 4f47 4a3d 534f 963c 8423 cbbd
000001c0: 5f68 b7bd 0ea9 3b3d 4c74 853d 03e8 873c
000001d0: 08c8 b6bc 0b4e f5bd c6a6 83bd 1a92 873d
000001e0: 3f13 9f3d 9bfe c33c 4f79 423d ccfb 443e
000001f0: 4f4d 853d 16b4 abbd a5bd 1ebb 09f9 cbbd
0.004608866 -0.067307234 -0.0032126207 -0.1069149 -0.12002324 0.14909974 0.046530947 0.16416466
0.057530895 0.06688588 0.09456932 -0.036197565 -0.08914915 -0.0371926 0.008832236 -0.068563126
0.082040675 -0.12868492 0.012111139 0.110834196 0.06543143 0.08856431 0.17476001 0.05969914
-0.07486521 0.017456444 -0.06450892 -0.05924075 -0.04069074 -0.013917903 -0.056319058 0.008643765
0.051595334 0.0046841064 -0.034269113 0.0689413 -0.08116558 0.05785278 0.08793224 0.021577941
-0.053723037 0.103926405 0.05703301 -0.07935128 -0.06003279 -0.02029303 0.02941697 0.16257252
0.031526677 -0.068038814 0.0248348 -0.026308233 -0.09215239 0.14349064 0.0028016765 0.01734587
-0.021623293 0.18219511 0.037169985 -0.025296256 0.06382533 0.15397434 0.01005633 0.024833465
0.07293443 0.10802386 0.06342153 -0.023344772 0.07279532 0.18532768 0.19821368 0.13158506
-0.03926136 0.05721094 0.030999014 -0.06924249 0.023197731 0.06744431 0.022673342 0.041727148
0.052543644 0.13962585 -0.07987619 -0.027980337 -0.029695818 -0.01494174 -0.066076644 0.21315315
-0.0066860197 0.043373555 -0.06880286 -0.03820562 -0.09598063 0.07570253 0.15038209 -0.025526699
-0.053174794 -0.044190664 -0.073751785 0.027733454 0.13393661 0.042245194 -0.010030621 0.18090102
-0.009740474 -0.09368921 0.054361403 -0.005476242 0.11451324 0.04938441 0.018348372 -0.099188834
-0.08955454 0.04581552 0.065163225 0.016590124 -0.02231218 -0.11977776 -0.06428294 0.066196635
0.07767343 0.023925116 0.04747897 0.19236678 0.06508886 -0.08383958 -0.0024221924 -0.09959609

weight f4 [33, 128]
00000000: 8c8a 213d ae72 bebc d382 c5bc ed41 c03c
00000010: 7be5 153e 4a8f 743a 26c4 963c e45e adbd
00000020: 273a a2be 15f6 793d 3b2d 02bd 3bd8 863c
00000030: 68bd c73c 9d86 173e f0a1 40be 142d bcbc
00000040: e501 86be 68bc 083e f155 513d f85c b3bc
00000050: cd0b b7bc 458a f5bc fec7 d2be e77e fa3c
00000060: f363 acba fc02 893c c0ee 123e 68b5 bcbc
00000070: d6b8 803d c099 a03d 1d15 513c 260a 13bd
00000080: 73b8 c93d 3b9e 71bd af0e 8e3d 3e2d 6fbd
00000090: 2acf 15bd ab92 acbe 152d 99be b505 97bd
000000a0: 9fe4 70bd 1539 92bd 9390 61bd c7c5 3fbd
000000b0: 82c7 ae3d 1a5f 1dbe bde6 33be a0e4 2dbe
000000c0: b72c 4cbd e015 6ebd af4a 65bd 9a17 a3bc
000000d0: 29e2 d6bc 694c 7b3c 41e5 6a3d 512e 2abd
000000e0: 809e 723d 92db 94be 2f3d cf3d 2082 903d
000000f0: 28a2 2d3d c4ce d5bd 4ac5 1fbd 2b79 3b3d
00000100: 6307 64bd 19b9 073c 9bee 803c 8329 2d3d
00000110: c30e b5bc bee7 e63b b5c1 8abe dd29 80bd
00000120: cffb 63bd 2f45 90bd 3a5d bbbc 2ae9 923b
00000130: f8d6 eb3c 0818 333d 7e4d 7cb9 a9ce 823d
00000140: 2144 0fbd eb06 89be d949 093d 0105 563d
00000150: 923d 703d 40b9 71bd 2976 f4bc cb65 8bbe
00000160: 0b8a 093e 3397 21bd 8669 d83d 06a3 db3d
00000170: 9067 d43d b35a 873d 4035 df3c bc49 8f3d
00000180: 7874 963c 4dc9 dc3d 7757 613d 3ee2 3d3c
00000190: 40a3 bfbd b655 7fbd 5764 89bb cce0 b2be
000001a0: 4f66 4abc 41db 973d a795 67be 366e bd3d
000001b0: ee01 7dbd 0423 3c3d 14de 47bd fcf7 683e
000001c0: 6039 7d3d 2195 03bd 10ac 933c 600e 813a
000001d0: 981b 783d c33b 053e 9d10 5cbc 45b6 b839
000001e0: 9012 b8bd 7735 07bd b0d3 b43d ae7e cfbd
000001f0: 36c6 473d 2f3b 15bc b49f 403d 413b 8d3d
00000200: 7383 303d f292 a2bd ee6a 80bd db2b db3d
00000210: b89c 893d 1021 20be e28e 8ebd 9e3f 83be
00000220: bbd5 16be 7707 3cbc 93cf d6bd 53dd 4b3d
00000230: bf34 8f3d 14b9 8dba a29d 81bd d7f4 1c3d
00000240: c2bc 7bbd e234 be3d 8d1b 103d cf4a 973d
00000250: fbe1 363d 9f7d 923d 1215 6cbe a346 7d3d
00000260: c278 143d fccd 7a3c bfcb b33d bb30 473d
00000270: ec27 293d b6c3 b4bb ea08 0dbd 5b95 87bd
00000280: 390a 2c3d 947d 81bc fc68 fc3b ddc4 69bc
00000290: 2f36 8b3c 0783 d5bd fba9 17be b1b4 853a
000002a0: c1c4 b83c 1108 ba3c b86a c4bd eb5d 1e3d
000002b0: d2e1 333d ad52 2cbd 2568 67bd 5ddb 52bd
000002c0: d660 403d bc45 003a 0c81 713d 2230 ca3b
000002d0: ea30 0bbc 1e35 09be 8c5e c2bc ad02 42bd
000002e0: 7f71 77bc 3e78 1ebe 3eeb 9e3c 7d96 f73d
000002f0: 8a63 28bc 5c87 11be b0ca 863d 6d32 35bd
00000300: 8786 883d 9a7b 643b d6d4 4ebc 7a26 31bd
00000310: 6b3f 81bc 38e3 43be a33a d8bd d180 75be
00000320: 067e e13c a2ed 0e3d 6a70 d1be eaca 8cbc
00000330: 85fd 053d 1747 5f3d c580 18bb 37b9 883c
00000340: e5ad 7bbd 3cf7 dcbd 5c79 9c3d 02e0 3a3d
00000350: f843 aabb 9ff4 a0bd 1659 9d3d 9c5e 17be
00000360: beb1 0b3e 112d 2dbc 283c 6a3b 6166 d23d
00000370: 5198 a53c d3e7 083d 18a6 c9bd e388 473d
00000380: 2afc a3bd 5b73 fe3d b493 753c b76a 033d
00000390: caf0 bdbe ffb5 e8bb 2428 50bd 84dc b1bd
000003a0: 5959 8c3d 0913 643d c7c7 dcbd d2d5 a63b
000003b0: da6c 8fbc 6c78 2b3d 6798 e8bc 8a14 003e
000003c0: 4d03 78bd 6cd9 c83c e5d3 ebbd 8a63 78bd
000003d0: 9539 cb3d 9f8e ac3d 3ad8 873d 5925 4ebd
000003e0: 2604 a6bd 1f26 7abc b4fb 0abe 1cd7 44be
000003f0: 96f5 973d 76ac 8c3d 01bf 8ebd 60fe dc3c
0.03943877 -0.023248043 -0.024110233 0.023468936 0.14638321 0.0009329213 0.018404078 -0.084653646
-0.31684992 0.061025698 -0.031781416 0.016460529 0.024382308 0.14797445 -0.18811774 -0.022970714
-0.2617332 0.13353121 0.05110735 -0.021894917 -0.022344494 -0.029973159 -0.41168207 0.03057809
-0.0013152346 0.016725056 0.14348888 -0.02303572 0.06285255 0.078418255 0.012761381 -0.03589835
0.09849634 -0.05898879 0.069363944 -0.058392756 -0.03657452 -0.3370565 -0.29917207 -0.073741354
-0.05881178 -0.07139794 -0.055069517 -0.046819475 0.08534147 -0.1536831 -0.17568488 -0.16981745
-0.04984733 -0.05812633 -0.055979427 -0.019908715 -0.026230888 0.015338042 0.05734754 -0.041548077
0.05923319 -0.2907377 0.10119092 0.070560694 0.042390972 -0.10439828 -0.03900651 0.04576985
-0.055671107 0.008283877 0.015738776 0.042275917 -0.022101765 0.007046669 -0.27100912 -0.06257985
-0.055660065 -0.07044446 -0.022871602 0.0044833617 0.028789029 0.04372409 -0.00024061461 0.063870735
-0.034977082 -0.2676309 0.033517692 0.052250866 0.058652468 -0.05901456 -0.0298415 -0.272261
0.13431565 -0.039450835 0.10567002 0.10724454 0.103713155 0.066090964 0.027247071 0.069964856
0.018366084 0.107805826 0.055015054 0.011589585 -0.09357309 -0.0623376 -0.0041928696 -0.3493713
-0.012353494 0.07414866 -0.22615682 0.09249537 -0.06176942 0.04593183 -0.048795775 0.22750849
0.061822295 -0.032124642 0.018026382 0.0009846203 0.06057319 0.13011079 -0.013431695 0.00035231016
-0.089879155 -0.033009972 0.08829439 -0.10131584 0.048773013 -0.009108349 0.047027305 0.068960674
0.04309411 -0.07938184 -0.06270395 0.10701724 0.06719345 -0.15637612 -0.069608465 -0.25634474
-0.14729969 -0.011476389 -0.104888104 0.049771618 0.069924824 -0.0010812604 -0.06328894 0.038319435
-0.06145931 0.0928743 0.035182524 0.073873155 0.044649106 0.071528666 -0.23054913 0.061834943
0.036247976 0.0153079 0.08779096 0.048630457 0.041297838 -0.0055164946 -0.03443233 -0.06620284
0.042001937 -0.01580695 0.007702945 -0.014268127 0.01699361 -0.10425382 -0.14810936 0.0010200945
0.022554757 0.022708924 -0.095906675 0.038663786 0.04391653 -0.042071033 -0.056495804 -0.051478732
0.04696735 0.0004893204 0.05896096 0.0061702887 -0.008495549 -0.13399169 -0.023726724 -0.047365833
-0.015102743 -0.15475556 0.019399282 0.1208925 -0.010277638 -0.14211792 0.06581628 -0.044237543
0.06666284 0.0034863711 -0.012623986 -0.043249585 -0.01577731 -0.19129646 -0.10558059 -0.23974921
0.027525913 0.034894593 -0.40906078 -0.0171866 0.03271248 0.054511156 -0.0023270112 0.01668988
-0.061445136 -0.10789344 0.07640335 0.045623787 -0.005196091 -0.07859158 0.076830074 -0.14782184
0.13642022 -0.010569827 0.0035741422 0.102734335 0.020214232 0.03342421 -0.09846133 0.04871453
-0.08007081 0.12424346 0.014988828 0.032084193 -0.3709777 -0.0071017738 -0.05081953 -0.08684638
0.06852979 0.055682216 -0.10780292 0.0050914073 -0.01750796 0.04186289 -0.028392984 0.12507835
-0.060550023 0.024517737 -0.11515025 -0.060641803 0.09923092 0.0842564 0.06633039 -0.050328586
-0.0810626 -0.015267878 -0.1357258 -0.19222683 0.07419889 0.06868832 -0.06970025 0.026976764

bias f4 [33]
00000000: 3e83 35bd 34f8 163c 72f3 91bd 5bfd 893d
00000010: 3583 6dbb 02b8 d33d 0656 483d 3388 e2bc
00000020: 8a18 a83d af5a 9a3c d06c 6dbc 29e2 74bd
00000030: 881d 43bc b99c c7bd 1276 083d 620b ddbd
00000040: cf46 a9bd 09ee b0bd b4f5 6f3d 07fe 78bb
00000050: b63b 363c bb11 cabc 6133 7dbd cc88 163d
00000060: d322 b4bd 8bcb abbb 208e c43c 3f8f aabc
00000070: 1cf5 683d becf 55bd e18e 093d 7104 903d
00000080: be28 4fbc
-0.044314615 0.00921445 -0.07126512 0.06737777 -0.0036241536 0.10337831 0.048910163 -0.027652835
0.082078055 0.01884207 -0.014491275 -0.059785996 -0.011908896 -0.09746689 0.033315726 -0.10793187
-0.08265459 -0.086391516 0.05858393 -0.003799321 0.011122635 -0.024666658 -0.061816577 0.036751553
-0.08795705 -0.00524277 0.023993552 -0.020820258 0.05687438 -0.05220007 0.033583526 0.07032097
-0.012643991
