DeepControlledLearning/PolicyWeights/perishable_systems_m5_l2_cvr1.000000_f0.500000_DCL0/cl_gen.pth (torch, 298630 bytes, 10 tensors)

weight f4 [256, 6]
000000 12 bd 6c 3c 43 33 9e be 4c 54 09 3e 14 a9 9b 3d
       0.014449375 -0.30898485 0.13411063 0.076006085
000010 73 60 8a 3e 82 24 96 3c 61 05 7a 3c 3b 78 0d be
       0.2702671 0.018327955 0.0152600715 -0.13815396
000020 c1 8b a3 be 6d 6f ab 3e 5e d5 a2 3e 59 eb b6 3d
       -0.3194256 0.3348345 0.3180341 0.08931608
000030 8d 4b 8d be 30 5a 0a be 57 57 9d 3e 7d 06 73 bd
       -0.27596703 -0.13510966 0.30730698 -0.05933236
000040 63 3a ae 3e 32 87 19 be bd e8 53 be 0a 6c ac bd
       0.3402892 -0.14992979 -0.20694251 -0.08419044
000050 ab dd 6f be 07 f2 b0 3e f6 bc e3 bd c2 4e cc be
       -0.23424403 0.34559652 -0.11120026 -0.39903837
000060 34 b4 c6 bc 1f 5d 5e 3e 16 00 b5 3e 59 92 26 3d
       -0.02425585 0.2171521 0.35351628 0.04066691
000070 8e c5 79 be a2 75 72 be c4 ab fa bd 94 c1 b9 3e
       -0.24391767 -0.23677686 -0.12239793 0.362805
000080 e4 cb 43 3e 7b 4d ac 3e ec d5 51 3e 82 d9 9a 3d
       0.19120747 0.33652863 0.20491761 0.075610176
000090 0b 09 00 be 74 0c 91 3d f3 10 fd bd ea 11 c1 be
       -0.1250345 0.07082453 -0.123567484 -0.3770898
0000a0 a6 51 c4 be aa 54 31 be 0b 59 69 bd a6 05 db 3c
       -0.38343543 -0.17317453 -0.056969684 0.026736092
0000b0 be 1f 39 3e f8 ee b9 3d 20 22 72 bd 59 31 62 bd
       0.18078515 0.09078783 -0.059114575 -0.055222843
0000c0 06 05 78 3d bc fd fc bc 0b 18 bd bc 5f 4d c6 bc
       0.060551666 -0.030882709 -0.023082754 -0.024206815
0000d0 d6 01 c9 bd 53 7b 7d bd 4f 2d 49 be b4 4b 63 bd
       -0.09814803 -0.06188519 -0.1964619 -0.055492118
0000e0 94 e1 26 3e 9d e1 90 be 50 b2 1c bc 12 13 77 3d
       0.16296989 -0.2829713 -0.009563997 0.06032092
0000f0 ad 7e 68 3e 8c 3f 78 3e 43 43 06 be 31 ad 9d be
       0.22704573 0.24242991 -0.13111596 -0.30796197
000100 6d 46 bc 3e 11 69 8a 3e 6c c3 25 3e fc 66 02 3e
       0.3677248 0.27033284 0.16187829 0.12734598
000110 91 48 10 bd 3e fd 34 be 5c c0 53 3c 47 24 c8 3d
       -0.035225455 -0.17674729 0.01292428 0.09772544
000120 ef 9e b7 bd 4d 32 18 be e6 ae 4c bd 6f 9c 9c 3e
       -0.08965861 -0.14862938 -0.049971484 0.305881
000130 f4 ec 4c 3e 16 fc b8 3d d5 58 ac 3d b2 d4 3e 3e
       0.20012265 0.090324566 0.08415381 0.18635824
000140 77 89 a4 be 39 b6 75 3e f6 65 09 bd df 27 8f 3e
       -0.32136127 0.23995294 -0.033544503 0.27960107
000150 a8 3a ca be 87 96 0f bf 5d b2 45 be be d1 8c 3e
       -0.39497876 -0.5608906 -0.19306321 0.2750377
000160 14 06 c5 be 09 eb 32 be cc 2b b0 be 45 2e 24 be
       -0.384812 -0.17472471 -0.34408414 -0.16033275
000170 54 dc b3 bd e0 74 b7 3c de d2 fc 3d 25 1b 51 3e
       -0.08782259 0.022394598 0.12344907 0.20420511
000180 29 11 58 be 1d 73 75 3e c5 7b 9e 3e 8e 72 e4 be
       -0.21100296 0.23969693 0.30953804 -0.44618648
000190 7e 94 76 3e 3f b6 6a 3e f4 86 af 3d f0 94 12 3e
       0.24080083 0.22921084 0.08570662 0.14314628
0001a0 a9 73 94 3d fd b3 de bd 92 be 71 3d 7f e0 3c 3e
       0.07248623 -0.10874174 0.059019633 0.18445013
0001b0 41 80 6c 3d 53 14 85 3e ca 27 3e 3e ac f4 ad 3e
       0.0577395 0.2599207 0.18569866 0.33975732
0001c0 17 9e 4f 3e 5b 24 87 3d 40 67 10 3e ca 97 d0 bc
       0.2027515 0.06598731 0.14101887 -0.025463004
0001d0 11 fc 99 3e 35 8d 44 be c2 b6 18 be c0 b3 1f 3e
       0.30075124 -0.19194491 -0.14913467 0.15595913
0001e0 b3 2a a3 be 11 c1 a6 be 32 a6 8a bd 09 d5 34 3e
       -0.31868514 -0.32569173 -0.067699805 0.17659391
0001f0 79 8d 61 be 01 5a 30 be 69 2d b6 bd a1 cc 7a 3d
       -0.22026624 -0.17221834 -0.0889538 0.061230306
000200 02 2b ac bd 05 aa 56 3e 53 d7 16 bd 2d 89 13 3e
       -0.084066406 0.20963295 -0.036826443 0.14407797
000210 8e a2 91 bd a7 0c c5 be 27 ed 0f 3d 44 f7 5c 3e
       -0.07111083 -0.38486215 0.035138275 0.215787
000220 fa 37 16 3c 15 35 e4 bc 52 a5 4a 3e eb cb 5f bb
       0.009168619 -0.027857343 0.19789627 -0.0034148644
000230 a1 2b de 3e 89 cd b8 3e 3f 88 26 be ce 2a 8f be
       0.4339266 0.3609431 -0.16262911 -0.27962345
000240 76 c7 a6 3e 64 f4 ec bd 87 10 b2 be d8 d2 43 be
       0.32574052 -0.11570051 -0.34778234 -0.191234
000250 60 7c 53 3c 9a a6 3e 3e 9e cd 2c be 0e 04 9f 3e
       0.012908071 0.18618241 -0.16875312 0.3105778
000260 c5 5a b8 3d 43 5d 60 be 53 d5 2c be 1c 7d ba 3e
       0.09001688 -0.21910577 -0.16878252 0.36423576
000270 dc 06 20 be 59 ca f7 3d 1b a9 90 3e 3a bd 22 3e
       -0.15627617 0.12099142 0.28254017 0.15892497
000280 15 dd ec 3d ae ff 25 bd 71 ad a2 3e dc e2 b9 3e
       0.115656056 -0.04052704 0.3177295 0.36305892
000290 b9 e0 82 be b3 12 91 3e ea e1 02 be 1b 7b c2 3e
       -0.25562075 0.2833458 -0.12781492 0.37984547
0002a0 89 30 bd be 03 93 24 3e c6 ab 0a bd 77 b6 8b 3e
       -0.36951092 0.16071706 -0.033855222 0.27287647
0002b0 1b 6d 59 3e e1 b8 a5 be 62 74 07 bf e2 58 f9 be
       0.21233027 -0.32367614 -0.5291196 -0.48700625
0002c0 cd 30 9b 3e e2 d6 c1 be 6f f5 9d 3e 1f 96 5d be
       0.3031067 -0.37859255 0.30851313 -0.21639298
0002d0 78 95 22 be f9 b6 8d 3d a9 2d 89 3e 45 c3 df be
       -0.1587733 0.06919665 0.26792648 -0.43703666
0002e0 42 6b 8c 3e f5 1c 6b 3c e7 2f 64 3e 2f 3f c2 3d
       0.2742558 0.014350166 0.22283898 0.094847076
0002f0 b9 da 35 3e 3f 3f 44 be 18 87 7d be b7 e7 dc 3d
       0.17759217 -0.19164751 -0.24758565 0.107863836
000300 4b 96 25 3e c8 05 55 3e 5f cf 38 be 6c be 99 bd
       0.16170613 0.20802987 -0.18047856 -0.07507023
000310 5d eb 37 be 65 95 a9 be 35 33 03 39 4a c2 25 be
       -0.17960878 -0.3312179 0.0001251221 -0.16187397
000320 47 58 fa bd e2 67 4a 3e d4 83 cf 3d f4 b8 52 3e
       -0.12223869 0.1976619 0.10132566 0.20578367
000330 a8 72 ca 3d 5d 81 ce be 73 01 f3 bd 4d 0d 04 bd
       0.0988515 -0.4033307 -0.11865511 -0.032239247
000340 04 e0 82 3e 95 08 17 be 24 78 43 bd d5 23 7f 3d
       0.25561535 -0.14749368 -0.047721997 0.06229003
000350 10 4f ce 3d 7a cb 13 3e f3 2a 40 3d ef bb 3a bd
       0.10073674 0.14433089 0.04691596 -0.045589384
000360 c7 aa 97 3c 2e 11 ca 3d 7a 91 79 3d fd b3 cf 3d
       0.01851405 0.09866558 0.060929753 0.10141752
000370 3e 87 bb 3e 75 65 ce be b6 36 8d 3e 9f 48 a6 3e
       0.3662662 -0.4031178 0.27580804 0.3247728
000380 37 6a 82 be cd 43 b4 bd bf 44 86 bd da 09 a8 be
       -0.2547166 -0.088019945 -0.06556081 -0.32820016
000390 88 52 c7 be 35 94 2e bd 17 a4 13 3e 1d d7 7d 3d
       -0.38930154 -0.04262181 0.14418064 0.061972726
0003a0 d3 c6 ea bc 40 00 62 bd 48 28 8e be 1a 8d b6 bd
       -0.02865926 -0.05517602 -0.27765107 -0.08913632
0003b0 44 ec 74 be f9 90 af 3c 39 d1 98 be 51 01 4d be
       -0.23918253 0.021431433 -0.29847124 -0.20020033
0003c0 15 46 5c be 72 a7 90 3e cf 33 1d 3d da 0d b1 3d
       -0.21511109 0.2825275 0.038379487 0.0864522
0003d0 22 cd 74 be 94 4d 96 be 89 59 90 3e d1 79 74 3e
       -0.23906377 -0.29356062 0.2819331 0.23874594
0003e0 fd 5d 96 3e d2 c1 07 3e bd ed 11 bd c3 30 30 3d
       0.29368582 0.1325753 -0.035627116 0.043015253
0003f0 76 b2 c1 be 1d d0 6a 3e 30 21 5a be 0a 4c 69 3e
       -0.37831467 0.22930951 -0.21301723 0.22782913

bias f4 [256]
000000 58 cd 06 3e d2 95 04 3f 1b 1e b5 bd 3a 9d af be
       0.1316427 0.5179111 -0.08843633 -0.34299642
000010 d5 d6 19 be 48 1f 1d bf 45 33 84 be a5 35 11 3f
       -0.15023358 -0.61375856 -0.25820366 0.5672248
000020 3c 0e 9f be b0 47 93 3d da 2d 99 3e d8 1d 17 3f
       -0.31065547 0.07191408 0.29917794 0.5902991
000030 1c a6 12 bf d7 82 92 be e0 ee 66 3e 05 15 fe 3e
       -0.5728471 -0.28615448 0.22552061 0.49625412
000040 3c 8b f7 3e 80 4d 05 bf a3 4e eb bd e1 e3 ca be
       0.48348415 -0.5207138 -0.11489608 -0.39626983
000050 90 42 a9 bd ff 58 06 3e ee 5e bd 3e 79 c4 d1 be
       -0.08264649 0.13119887 0.36986488 -0.4097021
000060 ff d3 9f be 18 a3 8d be 67 a6 ff be 24 cc b1 be
       -0.31216428 -0.27663493 -0.49931642 -0.3472606
000070 78 45 cc be 2a 9d cd bd ee ce e7 be 9a 04 0b 3f
       -0.3989675 -0.10039742 -0.45275062 0.54303896
000080 f1 7b d4 3e 72 ce d1 3e 59 31 a0 3e 90 19 7e 3e
       0.4150081 0.40977818 0.3128765 0.24814439
000090 b2 4d 03 bf d4 06 5a be c2 b9 24 3e da c5 d1 bd
       -0.5129043 -0.21291667 0.16086486 -0.10242815
0000a0 09 e9 4f 3e a7 07 9c 3d f6 29 85 3e 05 1c 10 3f
       0.2030374 0.07618647 0.26008576 0.56292754
0000b0 89 7a d4 3e 7d f7 a1 3e 75 2d b6 be e0 23 fd be
       0.41499737 0.3163413 -0.35581556 -0.49441433
0000c0 0f 1e 2a be 58 d4 c4 3b 78 38 e3 3e b7 dc 0a be
       -0.16613029 0.0060067587 0.4437902 -0.13560759
0000d0 32 38 c4 be 77 80 d3 3e f1 e7 e0 3d 94 88 95 be
       -0.38324124 0.41308948 0.10981739 -0.29205763
0000e0 6a 08 b6 3d 00 56 86 3c 09 fd cf be d7 55 d2 3e
       0.088883236 0.01639843 -0.40622738 0.41081116
0000f0 ff 7c a6 3d 7e 4a d1 3c 64 ec 9f be 4a 41 11 3e
       0.0812931 0.025548216 -0.3123504 0.14185062
000100 b6 6e e8 be d9 16 a4 3e 75 1a c2 bd ec fd ce 3e
       -0.45396966 0.3204868 -0.094777025 0.40428102
000110 7c 30 bd be c2 18 a8 bd 13 f9 46 3e f4 ce ce 3b
       -0.36951053 -0.08207847 0.19430952 0.006311292
000120 69 f0 b7 3e 8d b9 e9 bd e1 bb a0 be d5 28 bf 3d
       0.35925606 -0.11412344 -0.3139334 0.0933396
000130 67 72 62 be 20 b0 33 be fe 72 84 3e a9 1e bd 3e
       -0.22113954 -0.17547655 0.25868982 0.36937454
000140 e7 6d 9d be 04 d3 86 be 95 19 b9 be 3d 8a 94 be
       -0.3074791 -0.26332867 -0.3615233 -0.29011717
000150 6c 37 e8 3e a1 3a c4 be 62 03 00 3f f4 ef 23 3e
       0.45354784 -0.3832598 0.5000516 0.16009504
000160 ed 4d a5 3e f5 51 57 3e 8e c2 8c be 3e 33 a6 bd
       0.32286015 0.21027358 -0.27492183 -0.081152424
000170 1d 89 6f be 67 af aa 3e 62 52 89 be 80 af c8 3d
       -0.23392148 0.33336946 -0.26820666 0.09799099
000180 5b 3f a9 be 82 2c de 3e 78 fc b8 3e 08 33 19 3f
       -0.3305615 0.43393332 0.36130118 0.5984349
000190 1b b1 d8 3e 21 c9 43 be 58 2f e0 bc 20 b9 d8 3e
       0.4232262 -0.19119693 -0.027366325 0.4232874
0001a0 5c c9 b2 3e 26 f4 c0 be 92 8c 03 3f 3e 98 ff 3e
       0.3491925 -0.3768627 0.5138637 0.4992084
0001b0 5f 37 d0 be 5f c8 77 be aa 82 01 3f 98 44 04 bf
       -0.40667245 -0.2419753 0.5059 -0.51667166
0001c0 c4 ab 29 be 7d 88 e6 3e b6 a9 c6 3d 7c 8d 8c be
       -0.1656943 0.45026007 0.097003385 -0.27451694
0001d0 25 1b b4 be 32 fa 80 be 8d 04 93 3e 3d 11 1e 3f
       -0.3517696 -0.25190884 0.2871441 0.61745054
0001e0 10 03 1a be 83 71 01 3d f0 f1 db 3e 65 07 97 be
       -0.15040231 0.031602394 0.4295802 -0.2949783
0001f0 40 b6 9a 3e 25 7b 8b be 5c 5f 91 3c 19 16 84 3e
       0.3021717 -0.2724239 0.017745666 0.2579811
000200 f6 62 9a bd fe 83 23 be c9 ee a4 bd bb 2d 9d be
       -0.075384066 -0.1596832 -0.08053357 -0.30698952
000210 7f 46 e7 bd db ba aa be bf 90 23 be 56 fa ac 3e
       -0.11292743 -0.33345684 -0.15973185 0.3378474
000220 94 b1 d7 be 40 36 e2 3c 5e 03 0e 3f 71 83 53 3d
       -0.4212767 0.027613759 0.5547389 0.051639024
000230 4d 08 8d be 5f 5f 43 3e 1a 1c 19 bd 5b 92 8b be
       -0.27545395 0.1907935 -0.037380315 -0.27260098
000240 cd a4 a1 be c8 0f fc be 35 d0 c7 3e 20 28 a4 bd
       -0.31571046 -0.4923079 0.39026037 -0.08015466
000250 66 1a 8c bd ab db 9c bd 74 ba 56 3c ca ee d5 3e
       -0.068409726 -0.07659086 0.013105977 0.41783744
000260 08 ba c7 3e 0f b3 75 be b4 03 cd 3d ca 1b c8 be
       0.39009118 -0.23994087 0.10010472 -0.390837
000270 51 cf 18 3f 39 b4 3c be 4b 7e c1 bd 98 d6 ab 3e
       0.5969134 -0.18428124 -0.094479166 0.3356216
000280 5e f9 06 bf 4d 09 c2 be 8c 2e c9 3e 39 62 0c bf
       -0.52724254 -0.3789772 0.39293325 -0.54837376
000290 55 e5 59 be 12 ef cc 3e 9c 21 4d bc 92 24 14 bf
       -0.2127889 0.40026146 -0.01252022 -0.578683
0002a0 19 81 76 3e a8 01 91 3e 6b d5 e3 be 4a c6 7a 3d
       0.24072684 0.28321576 -0.44498762 0.06122426
0002b0 67 eb 3e bd 20 2e b4 be 8d 36 a2 be c7 b0 77 be
       -0.046611216 -0.3519144 -0.31682244 -0.24188529
0002c0 9a dd 63 be ec 75 5c be 7e c0 ee bd f9 d4 13 3f
       -0.22252503 -0.21529359 -0.11657809 0.57746845
0002d0 49 2f e2 be 95 ba d0 bd ec 9b 91 3d fa bb c7 3e
       -0.441767 -0.10191838 0.07109818 0.39010602
0002e0 80 52 bf be b5 d2 aa be 77 e8 18 3e e8 d8 20 be
       -0.3736763 -0.33363882 0.14932428 -0.15707743
0002f0 b8 d5 5b be 5d ff 9d be 2b ec 69 be 3f 7d b9 3e
       -0.21468246 -0.3085889 -0.22843997 0.36228368
000300 a7 7d ce be 24 c4 e2 be 1f 52 08 3f d4 5c a6 be
       -0.4033024 -0.44290268 0.53250307 -0.32492697
000310 89 e3 8d 3e 4b 45 15 bf 3b 42 b9 bd a6 6e 5a be
       0.27712658 -0.5830886 -0.090458356 -0.21331272
000320 d1 96 46 be 68 d1 23 3e ac a5 02 3f cf 96 d0 3e
       -0.1939347 0.15997851 0.51034045 0.40740058
000330 74 68 ec 3e 98 07 cf 3e 61 b2 6d 3e c3 f8 ee 3e
       0.4617344 0.4043548 0.23212577 0.46674165
000340 b5 2b a1 be 43 a1 02 3e 65 5f e5 3e 27 44 cb bd
       -0.31478658 0.12756829 0.44799343 -0.099251084
000350 2a a5 83 be 03 44 35 3e 7c 97 d0 be b2 27 80 bd
       -0.25711948 0.17701726 -0.40740573 -0.06257571
000360 93 a8 02 3f cc 6d 91 3e 81 10 20 be 9b 8e 8e be
       0.51038474 0.2840408 -0.15631296 -0.27843174
000370 6b cd 20 3f 84 20 ef 3e 57 c1 a1 3e 83 20 60 be
       0.6281344 0.46704495 0.3159282 -0.21887402
000380 aa 21 0c 3f 3a a0 0b be fb 08 7c be 16 3d 58 3e
       0.5473887 -0.1363534 -0.24612801 0.21117052
000390 83 50 91 be bb 52 dc 3e 31 d6 09 be c4 4e 06 3f
       -0.28381738 0.43031868 -0.13460614 0.52463937
0003a0 4e 23 c5 be 14 1c 2c be 91 04 b6 be b2 43 2e 3e
       -0.38503498 -0.16807586 -0.3555036 0.17018011
0003b0 ac c9 4d be d3 39 0c 3f d2 1f 23 bb 7a ad 08 bf
       -0.20096463 0.5477573 -0.0024890793 -0.53389704
0003c0 70 d0 d1 3d a8 9b 09 3f 27 77 a5 3e a5 c4 8f 3e
       0.102448344 0.5375314 0.3231747 0.28079715
0003d0 4a 11 2b be 67 75 df 3d dd c9 e2 be e0 44 33 be
       -0.16705814 0.109110646 -0.44294634 -0.17506742
0003e0 00 30 aa be 43 04 5d be 4c fc b1 3c 9a 28 11 be
       -0.33239746 -0.21583657 0.02172675 -0.14175645
0003f0 cc 74 09 3e 37 9e b7 3d ec 8d a4 be 18 36 ce be
       0.1342346 0.08965724 -0.32139528 -0.40275645

weight f4 [128, 256]
000000 9d 89 23 3c 3c 48 30 3d 3b 48 56 3d c9 5a 52 bd
       0.00998154 0.043037638 0.052314978 -0.05135611
000010 73 d9 90 bd 2b b0 bd 3c 30 57 bb 3b 0c 47 b3 3d
       -0.07072725 0.023155292 0.0057171807 0.087537855
000020 d4 72 10 bd b6 3e 33 bb d4 d0 9e bc 4f 1b bc 3d
       -0.03526576 -0.002735061 -0.019386686 0.09184896
000030 a8 a0 94 bd c6 6d 86 bc 9b 12 7b 3b 49 0e e3 3b
       -0.07257205 -0.016409766 0.003831065 0.006929193
000040 8c e6 a4 3c 7b 58 06 3b cc df 04 3d 00 c6 c7 bd
       0.020129465 0.0020499516 0.03243999 -0.097545624
000050 ad d7 13 bb 22 d4 b3 3c 62 8a bc 3d d7 b1 c5 bc
       -0.0022558973 0.021951739 0.09206082 -0.024132652
000060 c6 5b 08 bd e2 36 81 bd 39 5b cc bd 21 08 66 3c
       -0.033290647 -0.06309296 -0.09978337 0.014040024
000070 65 a7 1c bd de b9 06 bc d6 a8 f0 3c 93 be 50 3d
       -0.038245577 -0.008223025 0.029377382 0.050962996
000080 7b 30 b1 bd ba 68 c4 3c d7 d8 9c 3c bd d2 00 bc
       -0.08651825 0.023975719 0.019146366 -0.007862744
000090 31 2c 92 3c 57 9f 72 bd 20 ab 57 3d 3c 79 5c 3d
       0.017843338 -0.05923399 0.052653432 0.053826556
0000a0 50 e5 85 bd 7a 37 39 3d 37 58 7c 3c 3a bc 8b bb
       -0.065378785 0.045218922 0.015401891 -0.0042643817
0000b0 c2 b6 a9 3b d7 6e b4 bc c7 05 c2 bd 9c 83 43 bd
       0.005179257 -0.022025509 -0.09473758 -0.047732934
0000c0 06 44 f6 bd dd dd bf bc 24 03 e1 bc 68 5b 0d 3d
       -0.12024693 -0.023421222 -0.027467318 0.034511
0000d0 de 63 33 bd 3f 06 82 3a ac b9 11 3d 8f bf 88 bd
       -0.043796413 0.0009920074 0.03557746 -0.06677162
0000e0 dd b0 20 3d 19 41 10 be 0f 63 7f bc 8f 73 7c 3d
       0.03923117 -0.14087333 -0.015587582 0.061633643
0000f0 2a 77 97 3d ec 12 4b 3c e0 61 85 3c 02 37 16 bd
       0.073957756 0.012394648 0.016282022 -0.036673553
000100 6b 42 bb bd b8 b7 28 bd d1 8e 8f bd be e3 e0 bb
       -0.091435276 -0.041190833 -0.07009662 -0.0068630865
000110 2a ff ad bb e9 91 29 bd 3a 13 59 3d e1 f2 98 bd
       -0.005309959 -0.041398916 0.05299685 -0.074682005
000120 18 ff 18 3d be 0d d5 bc 2a 76 94 3d b7 2b 13 3d
       0.03735265 -0.02600753 0.072491005 0.03593036
000130 7f 54 d3 bc 89 a7 17 3d 0b 54 51 3d fa d3 50 3d
       -0.025797127 0.03702501 0.05110554 0.050983407
000140 32 ae 21 bd 79 ed de bd d1 3c 0f 3c c1 74 5d bd
       -0.039472766 -0.10885138 0.008742527 -0.054066423
000150 d1 de ed 3d 33 e4 01 3c 24 d7 6c bb 70 9e d8 bd
       0.116147645 0.007927942 -0.0036138976 -0.105770946
000160 70 23 76 3c 64 26 79 3d dc a3 32 3d c6 0b 57 3b
       0.015023097 0.060827628 0.0436133 0.0032813414
000170 a8 5a 30 bd 95 0b 53 bd d5 20 27 bd e2 02 c6 3d
       -0.043055207 -0.051524717 -0.040802795 0.096685186
000180 da e9 bc 3c a7 04 b5 3d e6 01 25 bd 9a 2d bc 3d
       0.023060728 0.08838778 -0.040285014 0.09188385
000190 32 2d b1 3d de 3b 26 bc 72 a8 7c 3d 55 5c 89 3d
       0.086511984 -0.010146109 0.06168408 0.06707064
0001a0 3e ea f1 3b 6c cd 16 3c c8 13 30 3b ba 3f 77 3c
       0.00738266 0.00920425 0.002686726 0.015090877
0001b0 be ac 55 3a cf 73 de bc ea 98 9d bd fd 24 db bd
       0.0008151046 -0.027154831 -0.07695182 -0.10700414
0001c0 03 ab c4 bb 1d c8 0f 3d 46 bd 98 bb 71 e3 6a 3d
       -0.0060018315 0.035102952 -0.004661235 0.05734581
0001d0 b9 79 50 bc 3c 9c e7 bc 61 b6 6f 3b 6c 65 c4 3c
       -0.012724333 -0.02827274 0.0036577212 0.023974143
0001e0 39 d3 d6 3d 8f af 1f bd b6 fc d2 3b 14 e7 ac bc
       0.10489506 -0.038985785 0.006438817 -0.02110628
0001f0 bc 66 b5 bc 06 ed 6a bb 2c ad 83 bc 11 7d 9d bd
       -0.022143714 -0.0035846843 -0.016073786 -0.0768987
000200 9a 3d 5b bd 16 fa 82 3b 55 af 15 3c e6 53 bf 3c
       -0.053525545 0.0039970977 0.009136041 0.023355436
000210 25 d3 b1 bc 28 61 a3 bd 40 72 33 bd 52 bf 7a bd
       -0.021707127 -0.079775155 -0.04381013 -0.061217614
000220 5b 85 22 3d 66 18 03 3d 96 ed b2 3d 9d 8c 1d bc
       0.03967796 0.03200569 0.08736722 -0.009616044
000230 e5 9b 0e be b2 c9 db bd f2 ee 2f 3c d8 72 18 bd
       -0.13926657 -0.1073183 0.010738121 -0.0372189
000240 c7 92 01 3d 7c 53 bf 3c 3d 4c a6 3d 75 76 a1 bd
       0.03163412 0.023355238 0.0812001 -0.07883922
000250 78 78 ec bc ac 92 9a 3c 6c e8 27 3d fc 27 8d 3d
       -0.028866038 0.018868767 0.04099314 0.06892392
000260 6b 29 ae 3c 58 14 17 bd 7a 4a 01 bd 83 d9 ee 3b
       0.021259984 -0.036884636 -0.031565167 0.007289113
000270 dc 05 d1 3c 30 c0 02 3d 35 ab 4c 3c 18 08 01 3d
       0.02551549 0.031921566 0.012491991 0.03150186
000280 79 03 cd bc 9c f9 8b bd 0e ed a7 3d cb 10 b3 3c
       -0.02502607 -0.068347186 0.081995115 0.021858593
000290 7e 76 0d bd 7a 20 f2 39 1f a3 ea bd 4d 0c 4a ba
       -0.03453683 0.00046182034 -0.11456894 -0.00077075214
0002a0 42 d1 ca 3b 58 62 5d bd ae 60 d1 bd 2d 96 88 bc
       0.0061894963 -0.054048866 -0.10223518 -0.016673172
0002b0 2a 55 cd bc 3d bf cb bc 71 c3 74 bd e4 4d 5b bd
       -0.025065023 -0.024871463 -0.0597567 -0.05354108
0002c0 d3 e8 5b bc 5e 60 3d 38 76 d4 3d bc 66 26 bd bc
       -0.013422209 4.515086e-05 -0.011586299 -0.023089599
0002d0 bf fb 83 bd 67 d0 19 bd 27 37 0b be 0f de 4a 3d
       -0.06444501 -0.037552264 -0.13595258 0.049528178
0002e0 a6 8a 81 bb 6f 9a 77 3c a1 86 db bd 2b 2f 6b 3d
       -0.0039532958 0.015112503 -0.10719038 0.05741803
0002f0 70 83 bb 3c 22 71 9c 3c 2c 88 99 bb 7b 35 38 3d
       0.022889823 0.019096915 -0.0046854224 0.044972878
000300 dd a6 2b 3c 65 e7 9d bc 6f 30 9b 3d 2f 6e 1d 3c
       0.010476795 -0.019275377 0.07577597 0.009608789
000310 89 62 45 3c 09 63 0d 3d 56 a8 04 bd 63 99 b2 bd
       0.012047418 0.034518275 -0.0323871 -0.087206624
000320 84 ee c5 3c 43 17 9e bd 84 5e 58 bd f9 d6 50 3c
       0.024161585 -0.077192806 -0.052824512 0.012746566
000330 a3 c4 bf 3d 8a 22 14 3d a3 8f 1d 3c 5b ca 78 3d
       0.09363677 0.03616575 0.009616765 0.060739856
000340 84 eb 82 3c 99 86 b1 bc 57 10 9a 3d 60 49 9e 3d
       0.015981443 -0.021670626 0.07522648 0.07728839
000350 19 33 0c bd 30 60 86 bd 5c 37 b6 bd e5 f4 ea bc
       -0.034228418 -0.06561315 -0.08897278 -0.028681228
000360 bc a0 13 bd bf 72 2b bc 91 61 25 bd 53 3e 87 bc
       -0.03604196 -0.010464369 -0.04037625 -0.01650921
000370 eb 85 47 3c 0e 63 3e bd a2 43 20 3d 5e 10 e6 3c
       0.012177925 -0.046481185 0.039127 0.028083976
000380 88 5c bf 3d 7e 7b bc bb f8 04 2d bd 4f dd 89 bc
       0.09343821 -0.005752026 -0.042241067 -0.016829161
000390 e0 0e 0d be f6 cf 3c bd 30 87 6c 3c 2e 8b 53 3d
       -0.13775206 -0.046096765 0.014436528 0.051646404
0003a0 85 8b 6e bd 64 eb 7f bd 7c f5 41 bd b7 79 67 3d
       -0.058238525 -0.062480345 -0.047353253 0.05651256
0003b0 d4 ba 87 bc 6a a5 e6 bb e0 ef 51 3d cb f1 91 3c
       -0.016568579 -0.007038762 0.051254153 0.017815491
0003c0 a7 08 bd 3d 5e d5 d3 3c c1 4d 0f 3d 00 e9 24 3d
       0.09230166 0.025858577 0.03498626 0.04026127
0003d0 9a a1 77 bd dc e6 32 3c 2c 57 ae bc d0 2b 99 bb
       -0.06045685 0.010919299 -0.021281801 -0.0046744123
0003e0 7b f1 11 bd 6b 2b ba 3b 09 53 1d bd 37 f6 89 bc
       -0.035630684 0.0056814454 -0.038409267 -0.016841037
0003f0 06 e5 1b bd 61 f7 91 bd 48 74 5e bd 82 a2 2c 3d
       -0.03806021 -0.07127262 -0.054310113 0.042147167

bias f4 [128]
000000 26 ea a0 3d 72 f9 2e 3e 5c 72 9f bd 02 45 40 3d
       0.0785716 0.17087343 -0.07785484 0.04694081
000010 2a 9e 0d be 19 be c4 3c 79 8d 81 3c dd 7a 24 3d
       -0.13829866 0.024016427 0.01581453 0.040156234
000020 c6 44 53 3d 45 a5 e3 3c b1 79 4a bc 75 a3 38 3d
       0.05157926 0.027788768 -0.012358115 0.04507776
000030 8f 83 b3 3d 7f 5e 3f 3e 12 6e aa bc 9f 22 03 bd
       0.08765327 0.18688391 -0.020804439 -0.03201544
000040 6d c6 22 be a5 ad 5d bd 90 e8 55 3e b6 2f 8a 3e
       -0.15896006 -0.05412068 0.20889497 0.26989526
000050 12 d4 58 3e aa 46 86 3d 9d cb 8c 3c 87 c1 4a 3e
       0.21174648 0.06556447 0.017186934 0.19800387
000060 c8 63 4e 3d 73 da 26 be 37 43 1b 3d 95 37 e0 3c
       0.050388128 -0.1629427 0.037905898 0.027370254
000070 6f ef bc bd 09 b5 70 bd d4 a1 68 be 65 67 1c 3e
       -0.09225356 -0.0587664 -0.22717983 0.15273817
000080 85 9c 0b 3e 18 28 7e bd f4 1d 1c be 11 fe 44 3c
       0.13633926 -0.062049955 -0.15245801 0.012023465
000090 64 c2 dc 3d 13 89 26 3e e0 bb 5c 3d 45 e2 89 bc
       0.107792646 0.16263227 0.05389011 -0.016831527
0000a0 b6 66 8a bd ae 9e 70 3d 53 2f 0c 3e 3c 75 91 3c
       -0.06757872 0.05874508 0.13689928 0.017756097
0000b0 75 dd 5a 3e 5a b8 f0 3d fc 9a de 3d 2c 96 1a be
       0.21373542 0.11753912 0.10869405 -0.15096349
0000c0 15 0f 93 bd 8f 0e 44 3d 7e 44 17 bd f1 93 8b bd
       -0.07180611 0.047865447 -0.036930554 -0.06815327
0000d0 ee 39 cc 3c 3b 96 99 bd e3 0f 19 bd 14 17 6c 3c
       0.024929967 -0.07499357 -0.037368666 0.014409799
0000e0 7f 66 0a 3e cc 6b 3c be dc 08 e5 3c 59 d8 73 bd
       0.13515662 -0.18400496 0.027958326 -0.059532497
0000f0 0c 9f b5 bd 67 79 1f be 49 59 21 be 4a 0e cc bc
       -0.088682264 -0.15573655 -0.15756716 -0.024909157
000100 20 be 0d 3c a9 6e 83 3c 18 ab 79 3d 7e af e7 3d
       0.008651286 0.016043978 0.060954183 0.11312769
000110 a5 58 87 bd ea 2e ee 3d 86 51 b8 bd 82 fc 5f be
       -0.066087045 0.11630042 -0.08999924 -0.21873668
000120 f6 56 ae 3c 6d 53 3c bd c3 3a 8f bd 35 d5 7f 3c
       0.0212817 -0.045978 -0.0699363 0.015614797
000130 6e a7 c9 3d 65 69 fa 3b f5 d6 68 be ae 7a 6e 3e
       0.09846388 0.0076419585 -0.2273825 0.23288986
000140 83 63 2e 3e 8a ce b8 3c 8b 9a 3c 3e f9 0a 34 be
       0.17030148 0.022559423 0.18418328 -0.1758231
000150 6b 30 ee bc 5f 84 f5 3d 0f a6 f5 3d fe bf 4d 3d
       -0.029075822 0.119881384 0.11994564 0.050231926
000160 40 eb 8f bc d5 21 2b 3e 96 15 07 be 1a d5 5f 3d
       -0.01756823 0.16712125 -0.13191828 0.05464659
000170 3b 55 3b be fc e7 43 3c 3c eb 0b 3e f1 50 47 3d
       -0.18294232 0.011957165 0.13663954 0.048661176
000180 d7 2f 4f bd 68 b8 18 be b7 4a ea bc 4a 17 cc 3d
       -0.050582733 -0.14914095 -0.02860008 0.099653795
000190 82 d4 04 bd 82 75 8a bd 2f 82 17 3d 55 09 d2 3d
       -0.032429226 -0.06760694 0.036989387 0.10255686
0001a0 8c 36 07 be 9b 47 c0 3c c3 dc 3b 3d 67 56 e2 bc
       -0.13204402 0.023471644 0.04586483 -0.02762909
0001b0 43 b5 6c 3c f0 98 e7 bd 98 41 46 be 7f 0b 02 bd
       0.014447513 -0.113084674 -0.1936096 -0.031749245
0001c0 60 6a 3c be ee 2c ab bc 8e b3 c0 3c be ac f2 3c
       -0.18399954 -0.020895448 0.023523118 0.029623386
0001d0 40 77 2b bd cc dd 06 3e 2c a3 b2 3b 96 b1 28 be
       -0.041861773 0.13170546 0.0054515805 -0.16473994
0001e0 d8 65 8f 3d 0f 01 db bd 35 7c 9a bc 48 55 4a ba
       0.07001847 -0.10693561 -0.018858055 -0.00077183964
0001f0 29 7a 1b 3d e1 17 4d bd 40 c4 92 bd c3 79 46 be
       0.037958298 -0.0500716 -0.07166338 -0.19382386

weight f4 [128, 128]
000000 bb 0b d2 bc ed 00 b9 bd 62 8d 2f bd 3d fe 24 bd
       -0.02564036 -0.0903338 -0.042859443 -0.040281523
000010 4a 30 00 bd 11 a4 b8 3c 1f a0 85 bd d7 7d a0 3d
       -0.031296052 0.02253917 -0.06524681 0.07836502
000020 30 d7 fb 3c 11 c4 85 bd 26 76 30 bc ff 1a f1 bc
       0.030742258 -0.06531537 -0.010770356 -0.029431818
000030 13 3d 96 3b 2f 7c ae bd 4b 65 b8 bb 80 ef 81 3d
       0.0045849173 -0.0851978 -0.0056273094 0.06344509
000040 b8 e3 13 bd 74 f6 9b 3b fa 69 ac 3c ea d1 df bd
       -0.03610584 0.004759604 0.021046627 -0.1092871
000050 d2 94 17 3c c6 01 b4 bc 2f 05 81 bd a3 66 cd bd
       0.00925179 -0.021973502 -0.06299817 -0.10029342
000060 9f 3e 5f bd 82 a0 5d 3d 9b 47 92 bd a1 d8 42 bd
       -0.05450308 0.05410815 -0.07142564 -0.047569875
000070 96 8c 79 3d d9 34 0f bd 61 ff 7d bd e6 18 49 3d
       0.06092509 -0.03496251 -0.062011126 0.04909601
000080 cd cd 13 3d 6e 81 8d bd ff 75 8f bc 71 5c 72 3d
       0.03608494 -0.069094524 -0.01751232 0.05917019
000090 c0 9a b7 bd 30 e8 bd bc a8 45 ca bd ad 96 8b 3c
       -0.08965063 -0.023182005 -0.09876567 0.017039621
0000a0 5e cc a4 bd b2 64 b0 bd f3 ec 8e bd a2 b2 15 bd
       -0.080467924 -0.08612956 -0.06978788 -0.03654731
0000b0 89 7c a8 bd fe 70 b3 bd c2 ae 77 bd 96 c3 1c 3d
       -0.08226878 -0.08761786 -0.060469396 0.038272463
0000c0 51 e4 63 ba 87 f9 fe bc 5b f8 82 3d 8c 6a d5 bd
       -0.00086933846 -0.031124843 0.06395026 -0.10420713
0000d0 b8 e9 db bc b5 1c 75 bc 1c 8e 2e 3d bc cc 32 bd
       -0.026844844 -0.014960458 0.042615995 -0.04365228
0000e0 46 b6 85 bd ad 21 55 3d b3 d5 b6 3c de 1e b1 3c
       -0.065289065 0.05203407 0.022318697 0.021621164
0000f0 97 34 23 bd 20 fe 79 bd 2a 30 b6 3c 08 d2 c2 3d
       -0.039845075 -0.061033368 0.022239763 0.095127165
000100 7d ad 9c 3d 48 ad b6 3c 66 a4 be bc bb 10 5c bd
       0.07650278 0.022299424 -0.02327175 -0.053726893
000110 be c1 b3 3c 67 00 6f 3d 95 bf 6b bc 37 f6 6c 3d
       0.02194297 0.058349993 -0.014388938 0.057851996
000120 5d 09 b1 bc 85 c5 75 bd a0 4a 45 3b 75 2b dc bc
       -0.02161091 -0.060002822 0.0030104294 -0.02687619
000130 41 30 64 3d 47 75 af 3d 73 61 1e bd b4 7e 02 bc
       0.05571008 0.08567291 -0.038667154 -0.007964779
000140 d6 11 bb bd 8f 0c 2d 3d 63 b8 45 bd 75 82 91 3b
       -0.09134261 0.042248305 -0.048271548 0.0044406005
000150 96 48 6c bd 63 10 c1 3b ca e9 bd bd f2 07 c3 bd
       -0.05768641 0.005891846 -0.09273107 -0.09523
000160 59 36 48 3d ab 8a 86 3d 3f bd 3a 3d 3c fa d0 3c
       0.048879955 0.065694176 0.045590635 0.025509946
000170 b2 cd 31 ba c1 91 ce bc 5f c2 47 bd 96 24 80 3d
       -0.0006782665 -0.025215985 -0.04876935 0.06256978
000180 2c 28 67 3c 5a ad 63 3d 16 cb 41 3d 4b ce b2 bd
       0.014108699 0.055585243 0.04731282 -0.087307535
000190 d1 59 49 3b 54 05 91 3d 8a 9f a9 bb 6b 6b a0 bc
       0.00307237 0.070810944 -0.0051764892 -0.01958247
0001a0 54 89 7d bd f6 0e 80 bd 6e 89 2e 3d 45 a2 04 3d
       -0.061898544 -0.062528536 0.042611532 0.032381315
0001b0 ba 73 6c 38 df fc 72 bd a2 e6 26 bc e2 64 5d 3d
       5.6374563e-05 -0.059323188 -0.010186823 0.054051287
0001c0 de 48 d0 bd 82 c2 37 3d 82 c5 a1 3c a1 92 32 bc
       -0.10170148 0.04486323 0.0197475 -0.010899217
0001d0 0f 3a 89 3d b0 40 1b 3d 8d be 7e bd 0d b1 3f bc
       0.06700527 0.037903488 -0.062193442 -0.011699927
0001e0 c4 4f 27 bc ea 7d a6 bd f0 6e b8 bd 25 a0 60 bd
       -0.010211889 -0.08129485 -0.09005535 -0.054840226
0001f0 ae 03 ae bd b3 a0 99 bd 33 9e 7f 3d 21 38 b2 bd
       -0.084967956 -0.07501354 0.06240673 -0.08702112
000200 40 48 47 bb 9d 78 82 3d 11 c7 21 bd 33 84 96 3c
       -0.0030408055 0.063706614 -0.039496485 0.018373584
000210 ab 77 5e 3b dc 7c 80 bd 16 98 e9 3c 85 12 72 3c
       0.003394584 -0.06273815 0.028514903 0.014774923
000220 e7 3e 41 3d 66 7b 84 3d 2e e1 99 bc 0b 4a 5a 3c
       0.04717913 0.06468849 -0.018784132 0.013323317
000230 a5 46 0c bd 2c 6e d9 3d 4b e8 46 bd 72 6e 91 3d
       -0.03424706 0.10616717 -0.048561376 0.07101144
000240 53 91 da 3b 1f 9c e8 bc ad 13 2a bd 34 8a f7 3d
       0.006670156 -0.028394757 -0.04152267 0.12086907
000250 08 e4 59 bc e9 42 7e bd 64 a1 b1 bc 4c 7c 94 3d
       -0.013298996 -0.06207553 -0.021683402 0.0725027
000260 54 55 83 3d 10 0e 78 bd 26 d9 b9 bb 7f dd 1b bc
       0.064127594 -0.060560286 -0.005671638 -0.009513258
000270 9e 5e 8b 3c 69 4d 50 bc 0d 24 c1 bd 06 a9 f9 3c
       0.01701289 -0.0127137685 -0.09430704 0.030476104
000280 6d 2f df 3d 84 47 a0 bd 3c b1 95 3d bb d0 e3 bc
       0.108977176 -0.078261405 0.073091954 -0.027809491
000290 02 3f 85 bc 25 cb d4 3d 65 5d 0b bd 52 3d b1 3c
       -0.016265396 0.10390309 -0.034024615 0.021635685
0002a0 65 37 c3 bc 04 0b 33 3c 4f 1f 30 3d ad aa 98 3b
       -0.023830125 0.010927919 0.04299861 0.004659018
0002b0 e4 f3 a4 3d da cc 55 3d d0 02 15 3c 37 cf 23 bd
       0.08054331 0.052197315 0.009094909 -0.039992537
0002c0 6b c2 34 3c 01 22 71 3d 5b ba a0 bd 27 43 22 3d
       0.011032681 0.05887032 -0.078480445 0.039614823
0002d0 70 d2 58 3d f0 c3 d1 bc e1 10 63 bd 80 36 8d 3d
       0.052935064 -0.025606126 -0.05543602 0.06895161
0002e0 b9 51 a3 3d 04 fa 75 3d 91 6f 5a 3b f8 1b 56 bd
       0.07974572 0.060052887 0.003333066 -0.052272767
0002f0 c4 ee c0 3d e1 61 6a bd f5 98 ee bc 4f 5b 1c 3d
       0.09420541 -0.05722225 -0.02912567 0.038173016
000300 1f cd 87 bd ff 31 89 bd 0d cb b9 bc c1 fa 9d 3d
       -0.066309206 -0.06698989 -0.02267983 0.07713843
000310 b3 c2 a7 bd e1 81 e4 3c 00 dd cb bd fe b7 a6 bd
       -0.08191433 0.027893962 -0.09954262 -0.081405625
000320 70 ad b6 3d 8f e7 a0 3d 66 55 e8 bb 98 66 68 bc
       0.08919799 0.07856666 -0.0070902584 -0.0141846165
000330 18 39 32 bd 3d 3e 21 3d 5a 99 cc bc a4 a3 90 3d
       -0.04351148 0.039365996 -0.024975467 0.07062462
000340 66 fe 8f 3d 2c dc 29 bd 7b 91 32 bd 43 1c a5 bc
       0.070309445 -0.041469738 -0.043595772 -0.020155078
000350 fe 34 ad 3d 87 0c a4 3d d9 63 9c 3d d0 ff a1 3d
       0.08457373 0.08010202 0.07636232 0.079101205
000360 a0 80 b0 bd 8c d5 91 bc 43 52 ba 3c 75 f4 47 bc
       -0.08618283 -0.017802022 0.022744304 -0.012204279
000370 11 24 93 bd 4e 74 ec 3c 0c eb 49 3d 0b 45 98 bd
       -0.071846135 0.028864052 0.049296424 -0.07435044
000380 51 4a 43 3d dc e5 9f bd e5 4c dd 3c 0a aa 8b 3b
       0.047678296 -0.07807514 0.027014205 0.0042622136
000390 e2 76 aa bc a0 ef b6 3d c6 ba 8b bd 7f f3 85 bc
       -0.02080864 0.089324236 -0.068227336 -0.01635146
0003a0 d4 7b df 3a 42 5a 99 3d f2 04 63 bd b0 a2 a8 3b
       0.0017050453 0.074879184 -0.055424638 0.005146347
0003b0 7f e4 86 bc 09 80 85 bd c8 97 5a bd 74 52 32 bc
       -0.016466377 -0.065185614 -0.053367406 -0.010883916
0003c0 da 3b 91 3d 4a 5d 48 3d 5f 05 9c bb c5 06 c2 3d
       0.07091494 0.048917092 -0.0047613825 0.094739474
0003d0 a0 e4 57 bd f6 f6 7e 3d 12 37 f4 3c e0 ec 68 bd
       -0.05270827 0.06224724 0.029811416 -0.056866527
0003e0 5b f0 95 bc 23 51 9f 3d 3b a4 55 3d 4c 66 b8 3c
       -0.018303087 0.077791475 0.052158576 0.022509716
0003f0 2d 6f 29 3c c0 ff 66 3d e8 2b 48 bd a8 37 94 bd
       0.010341448 0.056396246 -0.048869997 -0.07237178

bias f4 [128]
000000 7f 2a 73 3d e0 d5 7b 3d c8 c8 5e bc 42 83 af bd
       0.0593667 0.061483264 -0.013597675 -0.08569957
000010 f5 32 06 be 4b b9 af bd 79 af ba bc 04 4b 5d bd
       -0.13105376 -0.08580264 -0.02278875 -0.05402662
000020 7c ad 57 bc 3a 1d 6a 3e 86 d2 13 3d cf a0 52 bd
       -0.0131639205 0.22862712 0.036089443 -0.05142289
000030 94 6b cc bb b0 a0 39 3c 89 c4 63 bd 35 c2 4c be
       -0.0062384102 0.011329815 -0.055607352 -0.19995959
000040 1b 2c ce bd a7 8c c9 bd 12 f4 9d bd 11 fd 60 3c
       -0.10067006 -0.098412804 -0.07712568 0.013732211
000050 ac 9e 49 be 6f b7 43 3d 03 cd 4b bd 8c 4b dd bc
       -0.19689435 0.047782358 -0.04975606 -0.027013563
000060 79 c3 81 bd 7b 93 ca 3b dc c2 2b 3d 64 a6 11 3c
       -0.063361116 0.006182132 0.04193388 0.008889768
000070 78 46 11 3e 6f b9 01 3e 90 a6 a8 3d a7 d9 86 bb
       0.14187038 0.12668394 0.08234894 -0.0041153017
000080 66 01 8a bc 45 13 16 bc 29 29 38 3e 13 12 dd 3d
       -0.01684637 -0.009159868 0.17984451 0.10794463
000090 4d 02 ff bd 22 aa c2 bd 86 4a f3 3d 38 bd 88 bd
       -0.12451611 -0.095051065 0.118794486 -0.066767156
0000a0 c0 96 59 b7 19 b8 8c bd 0b 17 04 3c ce 67 52 be
       -1.2969307e-05 -0.06871051 0.0080621345 -0.20547411
0000b0 51 0c 8c bd 93 00 03 3e 5f 01 40 bd 91 b9 54 3e
       -0.06838287 0.12793188 -0.046876308 0.20773913
0000c0 d9 ee af bd 39 f2 58 3d 9a cd 3d 3e 31 4e 0a 3e
       -0.085904785 0.052965377 0.18535462 0.1350639
0000d0 d1 c9 74 3e 18 b3 c3 bd 68 2e 34 be 87 e0 2c bd
       0.23905112 -0.09555644 -0.17595828 -0.042206313
0000e0 f7 19 cc 3d 39 0f 28 bd a2 65 e5 3d 10 62 ad bd
       0.0996589 -0.041030142 0.112010255 -0.084659696
0000f0 f3 70 f0 3d 0b 33 1d 3d 99 51 5f 3e 22 ab 57 bd
       0.11740293 0.038378756 0.21808471 -0.05265344
000100 84 76 03 3e ff 9b 38 3d f6 22 86 bd 65 be 66 bd
       0.12838179 0.045070644 -0.06549637 -0.056333918
000110 28 6f c7 3a fb 90 41 3e 50 4c a8 bd a4 5d c4 3c
       0.0015215622 0.18902962 -0.082176805 0.023970433
000120 07 77 05 bd c2 37 2c be 40 e0 66 bb ca d1 51 bd
       -0.032584216 -0.16818145 -0.0035228878 -0.05122546
000130 b9 fe 7c bd f3 2c fc 3c 0c f9 92 3d 28 e8 aa bd
       -0.06176636 0.030783152 0.07176408 -0.083450615
000140 c5 5e 8b bd 18 72 36 bd c9 7f bf bc 7d dc 67 3e
       -0.06805185 -0.044542402 -0.023376362 0.22642703
000150 18 88 e6 bc bd 62 bc 3d 4e 7e 26 3d ba 1e ba bd
       -0.028141066 0.0919852 0.040647797 -0.09087892
000160 f6 92 88 bd 5b b5 1d bc a1 63 d6 3b 94 2f 97 bd
       -0.066686556 -0.009625758 0.0065426384 -0.07382122
000170 d9 76 89 bd 70 0c 3c 3e 78 96 ef bc 8a 8e 2e 3e
       -0.067121215 0.1836412 -0.029246554 0.17046562
000180 3c 2f fa 3d 21 dd c0 3c 45 e3 8f bd f6 f6 d8 bd
       0.122160405 0.023542942 -0.0702577 -0.10593979
000190 ec 7d 41 3e 71 fa 4c bc 65 08 19 3e cd 08 e4 bb
       0.18895692 -0.012510882 0.14944609 -0.006959057
0001a0 94 ad 56 3d 62 ec b2 3d 5f 95 5a be 03 4d f0 bc
       0.05241163 0.08736493 -0.21346043 -0.029333597
0001b0 c6 1b 60 bd 1b 6b 0d 3d cd 74 fb bc 1f 67 c3 3d
       -0.054713987 0.03452597 -0.030695343 0.09541153
0001c0 ca 56 72 bd c8 4c 3d 3e 6f a9 49 bd d4 61 71 3e
       -0.0591648 0.18486321 -0.04923385 0.23572475
0001d0 43 5c b2 3c 30 9b 31 be 0f 32 18 3e 03 d3 cd 3a
       0.02177251 -0.17344356 0.14862846 0.0015703145
0001e0 23 2a be bc 63 50 73 3d e1 81 9f bd eb 6f 9a bc
       -0.023213452 0.059402835 -0.07788444 -0.018852195
0001f0 bd 8c 08 3e 9d 41 b3 bc 79 6e 9a 3d e0 5a 5c 3c
       0.13334937 -0.021881873 0.07540602 0.013449401

weight f4 [128, 128]
000000 02 69 ac bd 79 54 66 bd 1c 1e 32 bd e7 2a e7 3c
       -0.08418466 -0.056232903 -0.043485746 0.0282187
000010 a4 e4 3f bd 65 48 c3 ba 2a d6 dd bb 0b ee 28 3d
       -0.046848908 -0.0014898895 -0.006769915 0.04124264
000020 e6 8f 00 3d ff 5d 0e 3d ec 06 e9 3c cb 6f 8e bd
       0.031387232 0.03475761 0.028445683 -0.069549166
000030 70 2f ef bc af fc 00 bc be 59 46 3c bf 50 91 3d
       -0.029197425 -0.007872744 0.012106357 0.07095479
000040 cd e8 8d bd de fe 4d 3d b4 99 3a bd 12 f5 66 3d
       -0.06929169 0.05029189 -0.04555674 0.05638606
000050 9c 31 16 3d c8 c6 d3 bc 45 77 b8 bc af 03 a3 bd
       0.036668405 -0.025851622 -0.02251781 -0.07959687
000060 a0 1b 57 bd f0 24 45 bd 98 7c ac 3c c2 ad 39 3d
       -0.05251658 -0.04813093 0.021055505 0.045331724
000070 4e 30 6e bc 21 3f 76 bd b4 53 65 bd d3 12 69 3c
       -0.014537884 -0.0601188 -0.05598803 0.014225679
000080 fd ab 1f bd fa 57 55 3d c2 f4 97 bd 57 e7 04 3e
       -0.03898238 0.052085854 -0.07419731 0.12978874
000090 64 a0 3e 3d c7 e5 06 3d e5 58 28 bd df d5 84 bd
       0.04653968 0.032933977 -0.0411004 -0.06486105
0000a0 48 db 01 bd 1e aa 71 bd d4 6c 6c 3b ae cd 25 bd
       -0.031703264 -0.059000127 0.0036075609 -0.040479355
0000b0 94 3d 5f 3c 4c 48 95 bd 14 76 a8 3d 97 9c ec bc
       0.013625521 -0.0728918 0.082256466 -0.028883262
0000c0 9f 46 60 bc df 02 53 3d f4 59 51 3d cd 5f ea 3d
       -0.013688712 0.05151641 0.051111177 0.11444054
0000d0 83 96 2f bd 3f b0 3b bd b3 cb 1d 3d ec d4 9f 3d
       -0.04286815 -0.04582238 0.03852434 0.078042835
0000e0 86 0a c3 3c f3 be b2 3d c3 99 73 3d a6 cc 70 bd
       0.023808729 0.08727827 0.05947281 -0.058788918
0000f0 2d 84 85 bd a1 3c 73 bd 9d 75 aa bd 66 68 12 3d
       -0.06519351 -0.059383992 -0.08323214 0.035744093
000100 5f 0b 2d bd 17 23 19 3d fb 1f 01 bd f1 cc 99 3d
       -0.042247172 0.03738698 -0.03152464 0.075097926
000110 33 53 a3 3d f2 5e 03 bb 3b 2a 3c bd 14 74 c9 bc
       0.07974853 -0.0020045605 -0.04593871 -0.024591483
000120 ea ca 74 3d 2e e1 ad 3c 86 75 af 3d 17 c0 ea 3c
       0.059763826 0.021225538 0.08567338 0.028656049
000130 78 66 ad bd 01 51 e0 3a 3a 89 9e bd 9c ed 4e bd
       -0.0846681 0.0017113985 -0.07741018 -0.05051957
000140 fa b1 79 3d 31 4e a1 3d dd 47 f0 bb f0 01 b6 3d
       0.060960747 0.07876242 -0.0073327855 0.08887088
000150 ce 2a 19 bd b8 a4 b0 3d bf 23 b9 bd 4b 22 9d bc
       -0.037394337 0.086251676 -0.09040021 -0.019181391
000160 c9 23 79 bd 87 5a 98 3c e2 f1 24 bd c4 2e 89 3d
       -0.060825143 0.018597854 -0.04026974 0.06698373
000170 44 02 d3 3b 41 a3 6b 3d b0 02 ab 3d 9c 41 58 3b
       0.006439479 0.057528738 0.08350122 0.003299809
000180 54 0b ce bc 99 f9 e4 3b e5 03 b3 bd ef bb d9 bd
       -0.025151886 0.006987762 -0.08740977 -0.106315486
000190 b3 52 aa bd 15 a3 9d 3d d1 6f 4b 3c 23 86 51 3d
       -0.08316555 0.07697121 0.012416796 0.051153313
0001a0 c6 a7 04 bc b4 fe 87 bd 21 7b ab 3d 1b 70 b2 bb
       -0.008096641 -0.06640378 0.08373094 -0.005445493
0001b0 50 0e ba 3d bd ba f4 3b fb 02 82 3d 16 e7 c3 bc
       0.09084761 0.00746855 0.06348225 -0.023913901
0001c0 b8 df 87 3c fc 1d 2b 3d 1b d6 ad bb f4 48 e6 bc
       0.01658617 0.041776642 -0.0053050644 -0.028110959
0001d0 73 46 c8 3d af 7c a0 3d fb 46 5a bc 6c d4 e5 3c
       0.09779062 0.078362815 -0.013322587 0.028055392
0001e0 c3 54 3e 3d 61 6c 94 3d 90 9a 08 3c d2 f7 39 3d
       0.046467554 0.07247234 0.008337632 0.045402355
0001f0 ad 72 1f bd f9 de ab bc 2c 8f 03 3c 38 98 9a 3d
       -0.038927723 -0.020980345 0.00802974 0.07548565
000200 e5 5c 57 bd fe 4c a3 bd ae 8f 5c bd d9 27 51 3c
       -0.052578826 -0.079736695 -0.05384796 0.012765848
000210 28 cd aa bd 39 bb 8a bd d6 99 1a 3d ca d1 6c bd
       -0.08339912 -0.06773991 0.037744366 -0.057817258
000220 e6 44 a6 3d 9d 98 b7 bd 0c 08 0e 3c 36 82 d4 bc
       0.0811861 -0.089646555 0.008668911 -0.025940996
000230 bb d8 b0 3c d5 7e a9 3c 69 2f 94 3d 1e cc 9e bd
       0.02158772 0.020690361 0.07235605 -0.07753776
000240 40 0d 2e bd fb 71 56 bd 36 7b 42 3b 5d aa 3c 3d
       -0.042493105 -0.052354794 0.002967549 0.04606091
000250 79 e8 93 bd e1 f9 30 bc 9c b8 3b bd 17 ca a5 bd
       -0.07222075 -0.010801763 -0.045830354 -0.08095186
000260 a2 73 31 3d f5 d1 63 bd 50 66 1f 3d e6 a3 41 3d
       0.043323167 -0.055620153 0.038915932 0.047275446
000270 70 62 0c bc a5 2e 38 bd be 61 20 3d fb ea 92 3d
       -0.008568391 -0.04496636 0.039155714 0.07173725
000280 67 35 52 3c 7a 51 3b bd 96 c3 ad bd 53 d4 e3 bc
       0.012830115 -0.045732 -0.08484571 -0.027811205
000290 f9 83 4a bc 6e 8a 15 bd 55 29 b4 bd f0 17 23 bd
       -0.012360566 -0.03650897 -0.08796946 -0.03981775
0002a0 ee fb 4b 3d 9f 47 76 bd 84 49 9c 3c eb 58 89 bd
       0.049800806 -0.060126897 0.019078024 -0.06706413
0002b0 8b 6f c2 bb 04 85 c8 3b ef 22 51 bd af 8b 91 3d
       -0.005933707 0.0061193723 -0.051058706 0.07106721
0002c0 10 4f 72 bd 68 74 7f bb 1c e1 40 bd 94 dd 02 3c
       -0.05915743 -0.0038979296 -0.04708968 0.007987399
0002d0 1f 35 8c bd e9 48 48 bd 8e ec 0a bd 03 01 18 3c
       -0.068460695 -0.048897658 -0.033917002 0.009277585
0002e0 70 12 4e 3d 16 ee 88 3d 86 c6 a9 3d 5f 4d 16 bd
       0.050310552 0.06686036 0.082898185 -0.03669488
0002f0 13 16 42 bd b5 35 7f bd 19 e2 99 bd 71 46 9d bd
       -0.047384333 -0.06230708 -0.07513828 -0.07679451
000300 9a 28 fe bc 6c 4d 28 3d fa 64 88 3d ab a7 b0 bd
       -0.03102522 0.04108946 0.06659885 -0.0862573
000310 1e 52 1d bd 74 5d 38 bd d4 6e 98 3c d5 30 8a bd
       -0.03840839 -0.045011 0.018607534 -0.06747595
000320 b9 ec 87 3c 5e 2c 25 bc c7 8f d4 bc fa 6e b0 3b
       0.01659237 -0.010081379 -0.025947465 0.005384323
000330 1e 1d 7e 3c 4e df 89 bd 2b 31 85 3d f8 31 82 bd
       0.015509872 -0.06732045 0.06503519 -0.06357187
000340 05 ef 54 bc 9a 76 3c 3a e0 26 de 3c b3 36 93 3d
       -0.01299644 0.0007189304 0.027118146 0.071881674
000350 6d 51 0d bd 16 f8 c6 bd ce 15 75 3c 43 29 84 3d
       -0.03450148 -0.097152874 0.014958812 0.064531825
000360 6c ad 1b 3d 11 ab ab bd 1f de 4a bc f4 d1 a7 bc
       0.038007185 -0.08382238 -0.012382059 -0.020485856
000370 e2 7b 22 bd af 34 c1 bd df cc 6a bd 35 f4 f2 3c
       -0.039668925 -0.09433877 -0.057324287 0.029657463
000380 ec f9 cd 3c 5b 0e 15 3d 7f bb 88 bd ed 9f 60 3d
       0.025143586 0.036390644 -0.06676387 0.054840017
000390 51 f1 bf bd f6 0d ab bd ce 75 c4 bd e5 4d 39 3d
       -0.09372199 -0.08352272 -0.09592782 0.0452403
0003a0 06 86 33 bd d3 b8 cb 3b 49 5b 90 3d de 7e 83 3d
       -0.043828987 0.006217101 0.07048661 0.06420682
0003b0 7c da 71 3d af c6 95 bd 2e 35 7a 3d 76 c8 60 bd
       0.059046254 -0.073132865 0.061085872 -0.054878674
0003c0 37 c4 24 3d 46 b2 0a 3d 31 c1 29 3d ec 11 8b 3d
       0.040226188 0.03386142 0.041444007 0.06790528
0003d0 cf 48 db 3c a7 67 b0 bd 12 76 af bd fe 64 95 bd
       0.026768116 -0.0861352 -0.08567442 -0.07294653
0003e0 d1 a3 24 3d e4 dc 51 3d 0a e2 51 bd 97 91 82 bb
       0.04019529 0.05123605 -0.05124096 -0.003984641
0003f0 0e b3 85 bb e2 bd b0 bc 3c bb 81 bc 03 9e fd 3c
       -0.004080183 -0.021574918 -0.01583635 0.030959135

bias f4 [128]
000000 5b e4 23 3d 1b a1 bc 3c 76 e0 0c 3d 8a 17 84 3d
       0.0400127 0.02302604 0.03439375 0.06449802
000010 d6 37 ac bd 2a 00 1c 3e 6b d2 fa bc 56 0a 78 bd
       -0.08409087 0.15234438 -0.030617913 -0.060556732
000020 6b 0d 5f 3d 67 d2 b7 bd 65 0e fb ba c5 06 6c 3e
       0.054456156 -0.08975678 -0.001915407 0.23049457
000030 7b 5d 7f bd ad 5f 62 bd 33 e8 8e 3d 60 74 7b bd
       -0.06234501 -0.055267025 0.06977882 -0.06139028
000040 5e f9 ac bd d2 bf e2 bd 0b 2e 58 3d d8 28 ac 3d
       -0.084460005 -0.11071743 0.052778285 0.08406228
000050 b6 fa f7 3c b9 88 33 bd d3 a2 91 3d 32 04 80 3d
       0.030270915 -0.04383156 0.071111344 0.062508
000060 8e 89 89 bd 95 17 2a bd ad cd 33 bd f6 3b e0 3c
       -0.067156896 -0.041526396 -0.04389732 0.027372342
000070 86 1a 60 3c 19 15 c2 3c 7b 58 bc bd 82 08 67 bd
       0.013678199 0.0236917 -0.09196564 -0.056404598
000080 4a b6 01 be 61 f7 84 3c 15 6f a2 bd f0 db 9e 3b
       -0.12667194 0.01623124 -0.079313435 0.004847996
000090 53 ae 55 bd 8b d0 21 3c 67 bf 3e 3d cc 71 d3 bd
       -0.0521682 0.009876381 0.046569254 -0.103244394
0000a0 21 6a 5c bd 06 46 40 3d a4 6c 69 3e 8e 64 50 bd
       -0.05381215 0.04694178 0.2279535 -0.050877146
0000b0 b4 c8 26 be 1b 2c b2 3d 32 e7 4b 3d 36 9d d8 3d
       -0.162875 0.08699819 0.049781032 0.105768606
0000c0 b1 e3 11 3e 17 f2 37 bd 75 bf ae 3c bf eb 38 3c
       0.14247014 -0.04490861 0.021331528 0.011286675
0000d0 b0 49 e9 3d f1 2a ca bd 6b 3c 60 3d d8 15 32 3d
       0.11391008 -0.09871472 0.05474512 0.043477863
0000e0 de d0 0f 3e 67 6c 5e 3c a4 45 16 3d 9d db d4 bd
       0.1404452 0.01357565 0.03668751 -0.103934504
0000f0 37 70 28 bc 57 00 64 bd 8a 30 66 bc 09 78 64 bc
       -0.01028066 -0.055664387 -0.014049659 -0.013944634
000100 d0 e3 0b be ad b1 52 bd 55 c5 1f bd f7 02 39 3d
       -0.13661122 -0.051438976 -0.03900655 0.045168843
000110 e5 f0 07 be 90 3e c2 bc ab 8c c3 3d fe 9d d3 3b
       -0.13275488 -0.023711473 0.09548315 0.006458043
000120 83 dc 94 3d 4f 09 0f 3e b8 89 ed bb c9 87 73 3c
       0.07268622 0.13968395 -0.0072490834 0.014863917
000130 d6 7f 31 bc 4d 21 81 bd d3 e5 06 be e7 2c 17 3e
       -0.010833701 -0.0630518 -0.13173608 0.14763223
000140 1d 14 b5 bd ac d9 01 3d 80 87 d0 3b 86 82 a6 bd
       -0.08841727 0.03170173 0.006363809 -0.08130364
000150 2d 18 90 3d df 63 35 bd 17 41 06 bc b5 4d ea 3c
       0.07035861 -0.044284698 -0.00819423 0.028601507
000160 ce d9 8b 3b 82 3d 23 bd 00 bc 44 bc fb 0b d8 bc
       0.0042679077 -0.03985358 -0.012007713 -0.0263729
000170 68 2a b5 3d 48 5e ec 3d 91 c3 40 bb 5e 06 a6 bd
       0.08845979 0.1154142 -0.0029413442 -0.08106683
000180 b7 c9 6b 3d b2 c1 1f be 89 87 a9 bd 6c b4 47 3d
       0.057565417 -0.15601233 -0.082778044 0.048756048
000190 e8 73 35 3d 16 19 08 be a5 d8 25 3e 6c f9 9a 3d
       0.04429999 -0.1329082 0.16195925 0.07567105
0001a0 ac d8 ec bd d7 62 45 bd 08 83 ab bd e2 28 39 be
       -0.115647644 -0.048189964 -0.083746016 -0.18082002
0001b0 e5 ee 6b 3d 21 8f fd 3d b4 24 ac 3c 3d d3 70 3b
       0.057600874 0.12380815 0.021013595 0.0036747002
0001c0 9e 2e 6a bc 0b 12 91 bd 0a 0e d8 3d da 60 08 bd
       -0.014293341 -0.070835195 0.10549553 -0.03329549
0001d0 1a 39 b1 3a 38 e4 d1 3a 85 18 ab bc 36 b8 8c 3e
       0.0013521046 0.0016013449 -0.020885715 0.27484292
0001e0 bf c2 bf 3d 0b 30 fb 3d e6 b8 93 3d 38 d8 87 3d
       0.09363317 0.12265023 0.07213001 0.06633037
0001f0 56 1d 2e 3d 99 7f 28 be 83 9c 5a 3d e3 14 cb 3c
       0.042508446 -0.16454925 0.053371917 0.024790233
