IO_DynaPlex/DeepControlledLearning/PolicyWeights/perishable_systems_m5_l1_cvr1.000000_f0.500000/_gen.pth (torch, 295356 bytes, 10 tensors)

weight f4 [256, 5]
000000 99 a3 58 be 13 7d 1d 3d 92 b7 85 3e 73 c2 fc 3d
       -0.21156158 0.03844936 0.26116616 0.12341776
000010 43 4c eb bd 2c 87 c0 3e 86 74 95 3e 99 61 d7 3e
       -0.11489155 0.37603128 0.29190463 0.4206665
000020 3d ad 0c 3e 18 57 50 be 67 cd 42 be 30 26 af be
       0.1373796 -0.20345724 -0.19023667 -0.34208822
000030 a3 fd 95 bd 26 3d f3 3c 5b 0a e0 3d cd 33 53 3e
       -0.07323768 0.029692244 0.10939475 0.20625229
000040 1a ad b3 be b2 74 83 be c1 8d 36 be 06 f7 d9 be
       -0.35093004 -0.2567497 -0.17827512 -0.42571276
000050 f0 15 84 be 3f c5 17 3c 2f 9c 72 bd 26 bc af be
       -0.25797987 0.009263336 -0.05923098 -0.34323233
000060 ef 0d 96 be 29 5b d7 be ba ba a4 be 06 58 87 3e
       -0.29307505 -0.42061737 -0.3217371 0.26434344
000070 bc 3c a4 be cb 56 79 bd 59 e9 eb 3e d5 19 be bd
       -0.32077587 -0.060873788 0.46076468 -0.09282271
000080 f6 5e 02 3d fc be ce be 1e e8 bb be 94 24 23 3d
       0.031828843 -0.40380085 -0.3670053 0.039829805
000090 c1 c6 d6 bc ff 58 42 3c bd f6 84 bd 96 bf d4 3e
       -0.02621782 0.011862039 -0.06492374 0.41552418
0000a0 68 32 9c bd e1 60 cc be 16 1b ae 3d 10 80 c1 be
       -0.07626802 -0.39917663 0.0850126 -0.37793016
0000b0 31 36 a4 3e 5e 88 71 be 82 66 ca 3e da 4e e5 3e
       0.32072595 -0.23587176 0.39531332 0.4478672
0000c0 83 50 08 bb f3 6c 0c 3e 20 84 d4 3d 66 81 62 3e
       -0.0020799942 0.13713436 0.10376763 0.22119674
0000d0 d0 cb 77 3e c3 1c 8b 3e 47 bb a8 3d 3e 47 bf be
       0.24198842 0.2717038 0.08238845 -0.3735904
0000e0 a6 81 e5 3e b0 e3 e6 3d 95 06 cd 3e b0 dd be 3b
       0.44825476 0.11273897 0.40044084 0.005824767
0000f0 81 35 a8 3e 5a 16 05 3d da d9 09 3e 73 a4 a5 be
       0.3285332 0.03249202 0.1346201 -0.32352027
000100 60 19 86 3e 62 9e 9b 3d 33 0f 39 be c9 90 5c be
       0.26191235 0.075985685 -0.18072204 -0.21539606
000110 76 34 a4 be 25 66 a2 3e 14 bd a0 3e d4 1b 15 3e
       -0.32071275 0.31718555 0.31394255 0.14561397
000120 0f fa ab be 46 87 0c be 75 08 89 be 6a 53 db 3d
       -0.33589217 -0.13723478 -0.26764265 0.10709269
000130 01 81 b5 3d 63 76 3c be fd 47 b8 bc 30 5b 0c 3e
       0.08862496 -0.18404536 -0.022495264 0.1370666
000140 d0 b3 e7 bc aa da bd 3e 79 c9 b8 3e 50 67 1f be
       -0.028283983 0.3708089 0.3609121 -0.15566754
000150 c1 f2 77 3e 53 30 95 3e 9b ce 78 3d 6d 14 37 3e
       0.24213697 0.2913843 0.06074391 0.17878886
000160 b1 49 8c be 0f 8e b2 be 7c 42 fb bd c0 12 2b 3e
       -0.27399972 -0.34874007 -0.1226854 0.16706371
000170 60 d2 9b 3e 55 60 79 3e ed a5 b6 be a4 53 b8 bc
       0.3043394 0.24353154 -0.35673466 -0.02250082
000180 e1 aa 5d 3c 29 e6 c5 3e 0a 82 c6 3e 73 16 9a 3e
       0.01352951 0.3865216 0.38771087 0.30095252
000190 37 3b bd 3d 71 15 ad 3e 26 3c 05 3e 8f ad 0f be
       0.0923981 0.3380542 0.13011226 -0.14031051
0001a0 ec dd 66 be 71 6b e9 be 0b 5a 9b be 32 b0 a8 3e
       -0.22545594 -0.45589784 -0.30342135 0.32946926
0001b0 25 bc 01 be 2c 1a 45 3e 58 48 4f 3d 62 b4 83 3e
       -0.12669428 0.19248265 0.0506061 0.2572356
0001c0 04 d6 d9 3e d3 28 07 3e 0e 7f 45 3e 9d 79 be be
       0.42546093 0.13199167 0.19286749 -0.3720216
0001d0 92 7a 6a be 8e 46 d3 3e cd 51 23 3d 7d 4e 4a be
       -0.2289832 0.41264766 0.039872933 -0.19756503
0001e0 e5 c2 ea 3e f7 57 a1 be a6 e1 e0 bc 83 71 6f be
       0.45851818 -0.31512424 -0.027451348 -0.23383145
0001f0 5b 60 d6 be 3f 82 82 bd 92 ec 90 3e 14 99 85 3d
       -0.41870388 -0.06372499 0.2830549 0.06523338
000200 29 9e 88 3e dd b1 39 3d 00 aa ba be 0d 37 cd 3e
       0.26683167 0.04533564 -0.36457825 0.40081063
000210 93 54 16 be cf 3c af be cf 36 9e 3d 1c f1 ae be
       -0.146807 -0.3422608 0.07725298 -0.34168327
000220 10 de 82 3e f5 33 47 be cd 39 63 bc 88 60 10 3e
       0.25560045 -0.19453414 -0.013868761 0.14099324
000230 52 8f de 3e 5b a6 2d be a2 c9 1a be 2f 08 56 be
       0.4346872 -0.16957991 -0.1511598 -0.2090156
000240 67 ad fd bd bd dc af 3e af 2a df be 6b 76 ac bc
       -0.123865895 0.34348097 -0.43587252 -0.02105256
000250 2c 17 5b bd cd 86 d9 3e 25 71 ad 3e 50 6d 8a 3e
       -0.053488895 0.42485657 0.33875385 0.27036524
000260 59 62 86 bd 0e ea 05 bd 36 04 b5 be 40 1b 5b 3e
       -0.06561727 -0.032693915 -0.35354775 0.21397114
000270 0c bb cd be aa c8 88 be dc 99 88 3e 2a 48 d0 be
       -0.40181768 -0.26715595 0.26679885 -0.40680057
000280 d1 e4 c2 3e 5d e0 76 be ab 7d a4 bc 41 d2 60 3d
       0.38065198 -0.24109025 -0.020079454 0.054888014
000290 10 93 93 3d 72 91 2b bd c7 55 fb 3d 94 2d e6 bc
       0.07205784 -0.041886754 0.1227222 -0.028097905
0002a0 d6 f4 d9 3e 6e c4 8f bd 78 e6 b7 be ab 2c b2 bd
       0.42569607 -0.07019888 -0.3591802 -0.08699926
0002b0 47 f4 ed bc 7d 48 0d 3e 9d d1 0d be 58 4b 18 3e
       -0.029047145 0.13797183 -0.13849492 0.14872491
0002c0 14 4c 80 3d d8 14 a5 bc 5d 2e 65 be c4 22 e1 bd
       0.06264511 -0.02015154 -0.22380967 -0.10992959
0002d0 1c 08 b5 3e df d3 a3 3e 10 52 ac be 54 62 50 3d
       0.3535775 0.31997582 -0.3365636 0.050875023
0002e0 60 25 e7 bd 21 3d 83 3e af c5 26 be ef 6d ae bd
       -0.112864256 0.25632575 -0.16286348 -0.08517062
0002f0 e5 ed 97 3e 7c 61 84 3c db f4 2d 3e c0 48 7c 3d
       0.29673687 0.016159765 0.16987936 0.061592817
000300 eb 23 06 3e 4f d3 cf 3e f5 31 b6 be ff d5 85 3e
       0.13099639 0.40590903 -0.3558499 0.2613983
000310 4b 97 e5 3d c3 78 2e 3e 0e 86 80 bd ef 2f 13 3e
       0.112104975 0.17038254 -0.06275569 0.14373754
000320 10 75 19 be 05 82 8e 3d bb 71 cb be eb 1b a5 3e
       -0.14986062 0.06958393 -0.39735207 0.32247862
000330 3c 02 d8 bd f8 ea c2 be 96 8c ef be 2f b2 b8 3e
       -0.10547301 -0.38069892 -0.46786946 0.36073443
000340 13 1f 4f 3e c7 35 b6 3e 24 73 0c bf 5b 6b 88 3e
       0.20226698 0.35587904 -0.5486319 0.26644406
000350 ab df ae 3e 99 7b 39 3e 8c 36 39 be 8d 86 80 be
       0.3415502 0.18113555 -0.18087214 -0.25102654
000360 af 00 a4 bd c2 b6 d7 be 00 ec 62 be ca 48 ab be
       -0.08007943 -0.4213162 -0.2216034 -0.3345397
000370 d0 ea 20 3e 53 a8 d6 3e 94 9d c6 3d 1f ca 92 be
       0.15714574 0.41925296 0.096980244 -0.2866983
000380 8e 87 92 be 9e bb be 3e 0d 37 c1 be f6 95 8e be
       -0.28619045 0.37252516 -0.37737313 -0.27848786
000390 27 b3 d2 be 38 53 c2 be 5d 59 b7 be 68 87 e4 3e
       -0.41152307 -0.37954116 -0.35810366 0.44634557
0003a0 39 e7 9b 3e 89 99 b0 be 6b 13 aa be 9a 3f b2 3e
       0.30449846 -0.34492138 -0.3321794 0.3481415
0003b0 eb df 15 3d 89 3e 4e 3e 89 fb 67 3e 8e c1 9e be
       0.036590498 0.20141043 0.22654547 -0.31007046
0003c0 44 73 ba be 26 32 95 be 3e 81 c8 bc 73 ce 1c 3e
       -0.36416066 -0.29139823 -0.02447569 0.15313129
0003d0 85 a9 a8 3e 67 fc 87 bd b6 41 f9 bd c0 06 02 3e
       0.32941833 -0.06639939 -0.121707365 0.12697887
0003e0 d9 3b 43 3e 3f 61 9e 3e 8e ec 6b be fb e5 22 be
       0.19065799 0.30933568 -0.23039457 -0.15908043
0003f0 be ef a1 bd 44 7e 6b 3e ab 92 10 be 16 8d 31 bd
       -0.07907055 0.22997385 -0.1411845 -0.04334744

bias f4 [256]
000000 23 80 1b 3f 1a 2c 96 be c3 d8 1d bc 48 be 34 3e
       0.60742396 -0.29330522 -0.0096342 0.17650712
000010 32 a2 8b be b8 ab 56 3e 33 7a 85 be 6f 67 cb 3e
       -0.27272183 0.20963943 -0.26069793 0.3972735
000020 16 2e e6 3e 24 27 0a bf 96 3c 83 be 07 d0 11 bf
       0.44957036 -0.53965974 -0.2563216 -0.5695805
000030 4e a7 00 bf 77 3a 09 3f 41 3a e3 bd 9d c1 ee 3e
       -0.50255287 0.53604835 -0.110950954 0.4663209
000040 83 fa 53 3d 50 5c c9 3e 45 a7 6d 3e 91 b9 78 be
       0.05175258 0.3932824 0.2320834 -0.24289538
000050 ea 44 be be c3 a7 67 be a6 cf f2 be b8 ba 94 3e
       -0.37161952 -0.2262259 -0.47424048 0.29048705
000060 67 0c 14 be 9d 63 64 be 1e cc f5 3e 42 61 22 3f
       -0.14457856 -0.22303624 0.48007292 0.63429654
000070 65 3a 28 3e 09 6e c3 be 86 17 31 3d bb d3 df be
       0.16428526 -0.38169888 0.043235324 -0.43716225
000080 f3 a3 9c bc fd 88 b4 3e 20 1b 01 3f 24 ff 22 be
       -0.019121146 0.35260764 0.50432014 -0.15917641
000090 be c8 87 be 85 da 19 be 93 f0 e6 3e 5e 6a 94 be
       -0.26520342 -0.15024765 0.4510542 -0.28987402
0000a0 ee 04 01 bf 15 08 8c be 4d 42 cd 3e 3c 25 5c 3e
       -0.5039815 -0.27349916 0.40089646 0.21498579
0000b0 31 fa 9f be 6a 34 5e bc e1 e5 4f be 6e 9e d2 bc
       -0.31245568 -0.013562301 -0.20302536 -0.02571031
0000c0 62 08 8a 3e c2 36 d1 3e 43 2e 21 3f 07 94 a7 be
       0.2695952 0.4086209 0.62961215 -0.32730123
0000d0 d4 7f e1 bd d3 50 d8 3e d5 28 e0 be 77 d3 0b 3f
       -0.110107094 0.42249164 -0.43781152 0.54619545
0000e0 12 89 d8 be 2d 8a 09 3f 4f 0c 02 3f a0 98 5d be
       -0.42292076 0.53726465 0.5080003 -0.21640253
0000f0 99 c8 02 be b7 47 c0 be b9 66 87 be 99 4e dd bd
       -0.12771834 -0.37554714 -0.2644556 -0.10806007
000100 b8 20 fa 3e 5f 56 c0 be 48 b1 39 3d 77 e9 9b 3e
       0.48853087 -0.37565896 0.045335084 0.30451557
000110 7a e0 02 bf 21 dd 16 3f 94 18 d0 3e 26 f6 cd 3e
       -0.51123774 0.58931166 0.40643752 0.4022686
000120 04 27 12 3f 8c 98 f3 be 19 5d 76 3d b1 b1 fe 3e
       0.57090783 -0.47577322 0.06014738 0.49744943
000130 67 da c3 3e 73 6d 3c 3e 3e 1d a1 bd aa 7c d7 be
       0.38252565 0.18401127 -0.07866906 -0.420873
000140 68 8e a4 be d9 de c9 3e 58 29 17 bf dc 20 f5 be
       -0.32139897 0.39427832 -0.5904746 -0.47876632
000150 5a 95 77 be ae be 0f 3d 83 0e d5 3d 34 71 93 be
       -0.24178067 0.035093956 0.104031585 -0.28797305
000160 54 f9 b7 3e 38 25 11 3f ce f8 cb 3e a7 6f 84 be
       0.3593241 0.56697416 0.3983826 -0.25866434
000170 39 c4 8b 3e 21 33 83 3e 37 70 e1 3e ab bb f1 be
       0.27298144 0.25624946 0.44030926 -0.47213492
000180 df c4 4c bc c1 8d 5d 3e ea a4 04 3f 51 fe bb bc
       -0.01249811 0.21636106 0.5181414 -0.022948416
000190 bd 2c 60 be d2 7a 64 be 88 0e 36 3e 18 6b 4b bd
       -0.21892066 -0.22312477 0.1777898 -0.04966268
0001a0 c4 ea e3 3e 3b f3 94 3e b5 25 54 3e 0a 17 4c 3e
       0.4451505 0.2909182 0.20717509 0.19930664
0001b0 53 60 22 3e a5 d2 85 3d e9 4e b1 be c2 44 d4 bd
       0.15857057 0.06534318 -0.34630516 -0.10364677
0001c0 7d 2b f2 3e 63 15 98 be 3a 0d 87 be 36 c3 ec 3e
       0.47298804 -0.29703817 -0.2637728 0.46242684
0001d0 8e 08 02 3d 5d 03 95 3e 43 ea f6 3e de 42 06 be
       0.03174644 0.29104128 0.48225603 -0.13111445
0001e0 a1 46 16 bd e8 de af be 3c cf 02 bf f4 6f ca 3e
       -0.03668845 -0.3434975 -0.51097465 0.39538538
0001f0 bc 71 96 3e 72 ed 04 3e e4 e9 66 be e4 95 d9 be
       0.29383647 0.12981203 -0.2255016 -0.4249717
000200 6d 2d a4 be 15 72 0e 3f 6e e6 b6 3e fe 84 f3 be
       -0.32065907 0.55642825 0.3572268 -0.47562402
000210 d6 1d 0c 3e 42 67 c6 3e fb 9a d7 3d 18 64 c7 bd
       0.13683257 0.38750654 0.10527607 -0.09735888
000220 0a 12 93 3e 59 ec e6 3d 94 79 09 3f c6 6b 2c be
       0.287247 0.112755485 0.5370114 -0.16837987
000230 18 5a 10 be 86 b5 c7 3e c6 25 ed be 83 07 14 be
       -0.14096868 0.3900568 -0.4631788 -0.1445599
000240 ca 04 ca 3e 34 e3 55 be 86 9f 9c 3e 7c 37 13 3f
       0.3945678 -0.20887452 0.30590457 0.5750654
000250 40 81 21 3f db d4 5a be 4b 83 39 be ea 3f 9c 3e
       0.63087845 -0.2137026 -0.1811649 0.30517513
000260 fb e6 93 be 87 5a d1 be 58 7b 82 be d2 6a f2 be
       -0.28887162 -0.4088938 -0.2548473 -0.47347122
000270 8f 74 e5 3d a3 4c 30 bc 80 03 71 be 70 c5 b4 3e
       0.112038724 -0.010760459 -0.23536491 0.35306883
000280 29 67 3b be 16 75 95 be d6 d9 c5 be 9e 75 a2 bd
       -0.18301071 -0.29190892 -0.38642758 -0.0793259
000290 fb 11 1e 3f ec 05 e1 3d c0 fd b4 3e a3 bd 01 be
       0.61746186 0.10987458 0.35349846 -0.12669997
0002a0 ea ad 6c bd 92 40 db be 13 6d ef 3e 43 6c e1 3e
       -0.057783045 -0.428227 0.46762905 0.4402791
0002b0 c0 8f 9e bd af 0a be 3e 73 4e 2c be 40 e8 ee 3e
       -0.07742262 0.37117526 -0.16826801 0.46661568
0002c0 40 0e f1 3c 74 85 99 3e 2b 2e 64 bd 87 1a 02 be
       0.02942574 0.2998463 -0.05570809 -0.12705432
0002d0 b2 27 88 be f7 ab 76 3e fd 55 e6 be 4b 19 6a 3e
       -0.26592785 0.24089037 -0.4498748 0.22861211
0002e0 7e 5c 2d 3c 2d ca a1 be e9 2c 69 be a8 85 98 be
       0.010581134 -0.3159956 -0.22771038 -0.29789472
0002f0 fe 42 2c 3e bd d8 8a be 24 34 1b 3f 0f 0b 90 be
       0.1682243 -0.27118483 0.60626435 -0.28133437
000300 03 f2 c9 3e 22 f1 b6 be 78 fc db be 33 3d 02 be
       0.39442453 -0.35730845 -0.42966056 -0.12718658
000310 a4 13 b5 3e d4 92 98 3e 5d 56 04 bf 2d 51 f3 be
       0.35366547 0.2979952 -0.5169428 -0.4752287
000320 f4 ec b2 be 79 df 6a 3e b3 2d fa be 58 b4 90 be
       -0.34946406 0.2293681 -0.4886299 -0.2826259
000330 37 cf 24 3e 90 b5 0b 3f 6b 99 20 3e 47 26 cb 3e
       0.16094671 0.5457392 0.15683524 0.3967764
000340 cb 4f 11 3e 45 e4 53 3d 58 74 20 bd 81 d5 7b 3c
       0.14190595 0.051731367 -0.039173454 0.0153707275
000350 53 dd 73 be 42 1e cc 3e e2 e5 a2 be 59 2d 33 3d
       -0.23814897 0.39866835 -0.31816012 0.04374442
000360 be 26 32 be 6d d4 11 3f df fc e8 3e b2 08 84 3e
       -0.17397591 0.5696476 0.45505425 0.25787884
000370 ca b7 e8 be 83 de 16 3f 96 a2 56 3e 41 3f 86 bd
       -0.4545272 0.58933276 0.20960459 -0.065550335
000380 37 c7 8b be 00 d0 86 be 5f 74 01 bf 36 36 be be
       -0.27300426 -0.26330566 -0.50568193 -0.37150735
000390 49 b4 e8 3e 92 64 8e 3e 29 82 bc 3e 0e 26 c2 be
       0.45450047 0.27811104 0.36818054 -0.37919658
0003a0 be e2 38 be d1 cb dc be c7 21 d8 3e 48 de ba 3e
       -0.18055245 -0.4312425 0.4221327 0.36497712
0003b0 71 ff fc 3e 6f 46 ef 3c f5 62 0a bf b7 09 c2 3e
       0.49413636 0.02920839 -0.54057246 0.37898037
0003c0 d9 5a ad 3e 7f b3 3a bd 67 c1 0f be aa 42 96 3e
       0.33858374 -0.045581337 -0.14038621 0.29347736
0003d0 1f be f3 3e ba 16 f6 3d c5 9b 8a bd 94 71 76 be
       0.47605988 0.120160535 -0.06767992 -0.24066764
0003e0 f4 a0 18 3e 8d ec 94 3e 8c 32 d1 be cc 6d 59 be
       0.14905149 0.29086724 -0.40858877 -0.2123329
0003f0 45 a5 0c bf e7 ab c7 be 00 f8 aa be 59 a3 d9 3e
       -0.5493968 -0.3899834 -0.33392334 0.42507437

weight f4 [128, 256]
000000 ac ae 84 3d 31 44 48 bd ac 7d bd bb 24 49 47 bd
       0.064786285 -0.048893157 -0.0057828035 -0.048653737
000010 90 5d 2d bd 41 10 8f bc 3a 93 6e 3b ec f9 7d 3d
       -0.042325556 -0.017463805 0.0036403672 0.062005922
000020 cf a0 ac 3c 13 7c cc bd ba ba 4a bb a7 2d 8d bd
       0.021072773 -0.09984603 -0.0030934052 -0.06893473
000030 b4 6c 6c bd 3d da b3 3d 17 60 a4 bd d3 6b 79 3d
       -0.057720855 0.0878186 -0.0802614 0.060893845
000040 fc a2 d0 bc b7 f9 49 bd b5 41 ab 3c 3c d8 6c bd
       -0.025468342 -0.049310412 0.020905355 -0.057823405
000050 51 c7 d0 bd 26 e3 45 bb 94 e7 c4 bd d6 0a a5 3c
       -0.101942666 -0.0030195205 -0.096144825 0.020146769
000060 22 33 37 3d 6e ef 93 bd e2 6d b3 3d db 00 39 3d
       0.0447265 -0.07223402 0.08761193 0.04516683
000070 cb b7 15 bd d0 77 8e bd 47 12 07 bd 0c 14 5e bd
       -0.03655223 -0.06956446 -0.032976415 -0.054218337
000080 2c 68 36 3d cc b6 bd 3a 68 00 14 3d d5 88 6b 3d
       0.04453294 0.0014474033 0.0361332 0.05750354
000090 71 df 55 bc 63 c9 95 bd 53 7c 49 3d 16 30 ec bc
       -0.013053761 -0.07313802 0.04919083 -0.028831523
0000a0 1c 95 e4 bd 57 0d 50 3b 21 3d be 3c 11 12 2f be
       -0.11161253 0.0031746232 0.023222508 -0.17096736
0000b0 16 0e 5c bc 9e 9d 82 bd 22 1c 64 bd 29 37 51 3d
       -0.013431093 -0.06377719 -0.055690892 0.051077995
0000c0 74 28 4f 3d d0 34 73 3c bd 59 7f 3d bb 8f 86 bd
       0.05057569 0.014844134 0.06234144 -0.06570383
0000d0 04 66 27 3c 7a 9a 74 bc b6 11 08 3d 65 ce 28 3d
       0.0102171935 -0.014929408 0.033220015 0.04121246
0000e0 78 47 42 ba 41 15 f9 3d 36 85 b1 3d 17 a7 48 bd
       -0.00074111624 0.12162257 0.08667986 -0.048987474
0000f0 40 87 3b bd 11 17 09 bd 9b 4a 89 bb 3d d8 56 3d
       -0.04578328 -0.033469263 -0.004189802 0.052452315
000100 e3 98 87 3d f3 86 91 bc 72 0c b3 3d 78 83 02 3d
       0.06620958 -0.017764544 0.08742608 0.03186366
000110 6c ad 8a bd 5d 49 0a 3e c0 d0 00 bc 6b ed 70 bc
       -0.06771359 0.13504548 -0.00786227 -0.014705042
000120 37 0c 6e 3c ac c2 e5 bd e4 f2 c7 bc b6 ba 44 be
       0.014529279 -0.11218771 -0.024407811 -0.1921185
000130 00 5b f1 3c 42 b0 89 3c b3 62 1a bc 81 a6 74 bd
       0.029462337 0.01680768 -0.009422946 -0.059729103
000140 a0 6e 19 bc bd f7 19 3c 9f 86 3b bd 51 d6 92 bd
       -0.009364754 0.009397444 -0.04578268 -0.07169784
000150 57 b7 8d 3b e1 2d 87 3c 4e f2 81 bd 55 9b 83 bd
       0.0043248343 0.016501369 -0.06345044 -0.064261116
000160 f8 f7 8f 3d a8 ed b5 3c d5 07 60 3d 4a d1 bc 3c
       0.07029718 0.02220805 0.05469497 0.023049016
000170 72 d4 6c be 46 47 0f 3d 36 4c 14 be 80 33 25 be
       -0.23127916 0.03498008 -0.14482197 -0.16132927
000180 e3 62 6a bd f4 6b 30 bd 9a ed 8c 3b 22 d6 98 bd
       -0.057223212 -0.043071702 0.0043007853 -0.074627176
000190 d6 86 13 3d 3e 1b 56 bc 5f 25 57 3d 4a 19 fb bc
       0.03601726 -0.0130680185 0.052525874 -0.030651707
0001a0 62 d5 4f 3d 64 1c 09 3d 4d 06 35 3d 53 73 f2 3b
       0.050740607 0.03347434 0.044195462 0.0073990016
0001b0 35 63 2e 3d 30 18 09 3c 2b 4c 15 3d 78 87 e6 bd
       0.04257508 0.008367583 0.036449593 -0.11256307
0001c0 62 1b 79 3d d6 05 df bc ef 13 21 bd 34 1f 95 bc
       0.06081713 -0.027224462 -0.03932565 -0.018203355
0001d0 6b f6 97 3d c4 e9 5e 3c 9b d9 a4 3d 41 97 13 bd
       0.074200474 0.013605539 0.080493174 -0.03603292
0001e0 45 f2 04 3d e0 e1 6f bb cb 22 e3 bc 40 ce 14 3d
       0.03245761 -0.0036603138 -0.027726552 0.036329508
0001f0 53 62 41 3d d2 11 84 bc 0f 09 ec 3b 83 58 b4 bd
       0.04721291 -0.016121779 0.0072032283 -0.08805945
000200 8a 81 4c 3c 72 ff 82 bd 32 cf 0c bd 1c 0d d7 bd
       0.012482056 -0.063963786 -0.034377284 -0.10500547
000210 69 12 5e 3d 36 83 f5 bc 05 d4 bc bc c1 c7 90 bd
       0.054216776 -0.029969793 -0.023050318 -0.0706935
000220 8c f0 fc 3c 34 b4 a3 3c 5a 9c 8c 3d c2 93 6f 3c
       0.03087642 0.019983388 0.06865759 0.014622631
000230 5a 9b d0 bc dc 9a 1c 3d 5a cd 12 bc a0 54 70 bb
       -0.025464702 0.038233623 -0.008960092 -0.0036671534
000240 3a 08 5f 3d 05 f7 08 bd 7d 32 91 3d 3e 4e 9c 3d
       0.054451205 -0.0334387 0.07089708 0.07632111
000250 af 7f 0d 3e fd 1c 90 bd cb a9 d1 bc 9c 07 e2 bb
       0.13818239 -0.07036779 -0.025593659 -0.0068978798
000260 b0 ff 91 bb b9 ea 00 be 49 1f 47 bd 36 d3 36 3c
       -0.004455529 -0.1258954 -0.04861382 0.011158755
000270 f8 2e 0e 3d 43 46 c2 3b 0a 09 d4 3c d5 6c c2 3d
       0.03471276 0.005928786 0.025883216 0.09493414
000280 a2 90 d4 bc c7 8e 18 3c 90 94 6c bd 06 7c 32 bd
       -0.025947873 0.0093113845 -0.057758868 -0.04357531
000290 e0 2f d0 3d 45 db 1d bc b9 0b be 3c 77 8d 3b bd
       0.101653814 -0.009634797 0.02319895 -0.04578921
0002a0 ff 02 9a bb de 89 f7 bd 68 90 e8 3d bc 5e f9 3d
       -0.004700064 -0.12086843 0.11355668 0.12176272
0002b0 03 ba 15 3b 5a 1e 52 3d bc 99 f8 bc ad d8 dd 3d
       0.0022846467 0.051298477 -0.030346744 0.10832343
0002c0 e3 90 95 3c b7 dc a7 3d f4 e8 16 3d 4f ab c8 bc
       0.018257564 0.08196395 0.036843255 -0.024495749
0002d0 94 56 0c bc 83 0f 80 3d 03 90 22 3d 78 36 81 bd
       -0.008565564 0.062529586 0.03968812 -0.06309217
0002e0 ef 46 b8 bc 95 5b 20 bb d2 cb a1 bd 91 d5 47 bc
       -0.022494761 -0.002446865 -0.07900204 -0.012196914
0002f0 fc 53 18 bd db 38 20 bd 56 d1 c5 3d 7d fa c6 bc
       -0.03718947 -0.03911672 0.09659068 -0.024289364
000300 52 81 a8 3d be bc 82 3d 37 72 64 bd 48 f2 8b 3c
       0.08227791 0.06383656 -0.055772986 0.017083302
000310 09 a0 31 bd 39 2e b9 3d 03 c8 98 bb 5d 01 cc bd
       -0.043365512 0.090420194 -0.004662515 -0.099611975
000320 b2 dd 8a bd 1b de 94 3c 8c 31 ee bb f2 3b bc 3c
       -0.06780566 0.018172314 -0.00726909 0.022977803
000330 07 ab b4 bc c7 ca 92 3d 9a 0b 09 bd 7a cb d1 3d
       -0.022054208 0.07167583 -0.03345833 0.10243888
000340 bb 63 29 3d be 9e 51 bd 0f 1a 8b 3c d1 2b 3c bd
       0.041354876 -0.05117678 0.0169802 -0.045940224
000350 6a 9d fd bb 73 7c 41 3c 7a 5c 92 3c c5 d7 88 bd
       -0.0077397125 0.011809456 0.017866362 -0.0668178
000360 6e ff ad bd fc 7c a3 3c 3b e0 cb 3b 1a 52 50 3d
       -0.08495985 0.019957058 0.0062217987 0.05085955
000370 45 48 8d bd 25 9b c5 3d c7 ce a7 3d 09 cf 38 bd
       -0.0689855 0.09648732 0.081937365 -0.04511932
000380 75 29 72 bc 6c 87 a7 bc c4 5a 93 bd de 0d 09 3d
       -0.014780392 -0.020450316 -0.071950465 0.03346049
000390 2a 4c f0 3d 4e 22 e7 3a 1e e1 de 3c 9c c6 49 3d
       0.11733277 0.0017634125 0.027206954 0.049261674
0003a0 87 33 87 3c 53 3b 03 bc 33 4f 9f 3c 60 7f 80 3d
       0.016504062 -0.008009749 0.019446945 0.06274295
0003b0 8f c2 29 3e 85 f5 02 bd 10 bb 48 bd 4d 62 fb 3c
       0.16578124 -0.031972427 -0.04900652 0.030686522
0003c0 eb fe 25 bd 86 a1 73 bc 34 21 6b 3d c6 42 12 bd
       -0.04052631 -0.014870053 0.05740471 -0.03570821
0003d0 e4 40 12 bd fd d4 a3 bd c2 dd 83 bc 8f e4 88 bd
       -0.035706416 -0.07999609 -0.016096953 -0.06684219
0003e0 24 3a 73 3d 7a ee 30 3d 02 d7 13 bd 38 f4 37 bd
       0.05938162 0.04319618 -0.03609372 -0.04491064
0003f0 ae d6 75 bd 06 c4 a8 bd 31 cc 77 bd ae 31 b3 3d
       -0.060019188 -0.082405135 -0.060497466 0.0874971

bias f4 [128]
000000 72 3f c7 3d e0 e5 fe 3b c6 08 bd bd 93 11 61 bd
       0.09728898 0.007778868 -0.09230189 -0.0549484
000010 7d 1d 34 3d e8 07 6e bc db e4 76 3e a0 09 2c bd
       0.043973435 -0.014528252 0.24110739 -0.042001367
000020 90 1d 3e bd 3f 1c 17 3b dc 6a 00 bd d7 39 04 be
       -0.04641491 0.0023057607 -0.03135191 -0.12912689
000030 17 2b 02 3e bb ee 3c 3e a6 ed 52 bd 7e 22 4d 3e
       0.1271175 0.18450443 -0.05149617 0.20032689
000040 fd 5b 0a 3d cc db 6a bd 78 39 1c bc 15 d6 58 3e
       0.033779133 -0.05733852 -0.009535186 0.21175416
000050 c1 f1 02 3e 39 59 74 3d d4 b1 e0 bd 6c 4c 5f 3e
       0.12787534 0.0596554 -0.10971418 0.21806496
000060 df 4e e0 3c 1b 54 e1 3d 45 cb e0 ba 23 f0 16 be
       0.027381359 0.1100237 -0.0017150423 -0.14740042
000070 74 e0 21 bd 09 a7 a4 bb 23 f0 52 bd a1 3d c1 bb
       -0.039520696 -0.005024795 -0.051498543 -0.0058972393
000080 75 e3 e6 3c fc 95 f1 3d ea 36 5e bc 34 e2 d6 3d
       0.028184632 0.117961854 -0.013562897 0.104923636
000090 75 8f 1c 3e e4 3c 94 bd 1f f9 fc bc 7f 5b 9f 3d
       0.152891 -0.072381765 -0.030880509 0.07781123
0000a0 8f 09 6b 3c ea c9 09 be 58 42 37 bd 7e 0a 49 3e
       0.014345541 -0.1345593 -0.044741005 0.19632909
0000b0 b3 1f 9c bd 19 dd c2 bd 1e 09 54 bc 7c a9 49 be
       -0.07623234 -0.09514827 -0.012941627 -0.1969356
0000c0 39 cf 25 3e 22 df 59 bd 80 2a 9b 3d c9 df 98 bc
       0.1619233 -0.05319131 0.075764656 -0.018661397
0000d0 e0 a5 0a 3c cd 93 8f bd 4d 81 2e 3e 49 0f a8 3d
       0.008462399 -0.07010613 0.17041512 0.082060404
0000e0 85 6a 53 bd 79 cd 7c bd 55 9b 00 bd 19 f2 93 bd
       -0.051615257 -0.06171939 -0.031398136 -0.07223911
0000f0 1c dc bd 3b 7d d7 90 bc 42 bc 32 3e 34 76 dc 3d
       0.0057940613 -0.017680878 0.17454627 0.10764733
000100 44 b6 28 bb 83 3e 5b 3d 3c cf 2d 3e 8a 82 8b bc
       -0.0025743404 0.053526413 0.16973585 -0.01703002
000110 08 32 63 bb 62 ac 6c 3e 55 fb ce 3d 16 7a 2b 3e
       -0.0034667272 0.23112634 0.101065315 0.16745791
000120 21 f9 a4 bd fc e6 2e 3e 7a 67 65 bc 5b 56 32 3e
       -0.0805533 0.17080301 -0.0140017215 0.17415754
000130 9c d3 af 3d 51 5d e9 bd a6 2d 6b bc 5b 0b 3f 3d
       0.08585283 -0.11394752 -0.014354145 0.04664169
000140 16 01 18 3e 98 6c 7f bd 37 ce 1e bb 40 fc 52 3e
       0.14844164 -0.062359422 -0.00242318 0.20604038
000150 5c 32 99 3c 7f ec 8f 3d c5 8b 37 3c a6 16 ec 3d
       0.018700771 0.0702753 0.011202757 0.11527757
000160 e7 77 80 bd 7b 39 a5 3c b0 55 00 bd 25 c9 f4 3d
       -0.062728696 0.02016901 -0.031331718 0.11952428
000170 67 f0 19 bd 36 0d 97 bd 8c 8b 28 bc 3f b5 50 bd
       -0.03758278 -0.07375567 -0.010287177 -0.0509541
000180 f4 14 47 3e e9 84 0b 3d 57 57 23 3e 68 8e c5 bd
       0.19441587 0.0340623 0.15951286 -0.096463025
000190 88 62 b5 3c f0 6d 95 3c 41 21 c4 3c 83 89 cf 3d
       0.02214171 0.018240899 0.023941638 0.1013365
0001a0 cc bb 23 be 1c 38 d2 bd 00 b0 2d 3e 29 ec 2c 3d
       -0.15989608 -0.10264608 0.1696167 0.042217407
0001b0 f3 2d 09 bd 14 1a 87 3d 6c e8 17 3e 1d b9 85 bd
       -0.033491086 0.06596771 0.14834756 -0.06529448
0001c0 30 b6 0a bd 35 36 cf 3d 01 7f 87 bc ff 5e ac bd
       -0.033865154 0.10117761 -0.016540052 -0.084165566
0001d0 6c db 58 3e 5e 76 2c 3e 98 8b 07 3c 04 45 d0 3d
       0.21177453 0.16842028 0.008273028 0.10169414
0001e0 16 9a 1c 3e 91 a8 45 3e e5 f2 8a bc fb 82 d9 3d
       0.15293154 0.19302584 -0.016961524 0.10620686
0001f0 23 6c 31 be 78 02 1f bd 6d 44 63 bc 68 d8 a8 3c
       -0.17326407 -0.038820714 -0.013871294 0.020611003

weight f4 [128, 128]
000000 86 e5 29 bc 01 5b 85 3d a4 5d 86 bd ae e9 10 3c
       -0.010369664 0.06511498 -0.06560829 0.008844776
000010 40 09 f8 bc f1 8a 4f 3b 7b 49 15 3e 92 7b ae 3d
       -0.030277848 0.003166851 0.14578812 0.08519663
000020 f9 db f5 bc 76 3d 0d 3c c3 9d af bd 3b ca 76 3c
       -0.030012118 0.00862061 -0.085750125 0.015062864
000030 c2 1f 0d 3e 42 66 c4 bc 7f e4 74 3d e2 11 10 3e
       0.13781646 -0.023974542 0.059788223 0.14069322
000040 7f 97 40 3d 4b d2 b3 bc 9d 7c 59 bc bc 51 2e 3e
       0.047019478 -0.021950861 -0.013274339 0.17023367
000050 61 c6 19 3c c8 79 5f 3b b1 42 90 ba 4b cb 00 3e
       0.009385676 0.0034099687 -0.0011006204 0.1257755
000060 34 9d 3a bd 0d 20 21 ba db ee 2f bc 4f cf c0 bd
       -0.045560077 -0.00061464385 -0.0107381 -0.09414541
000070 42 c3 a8 3d 70 91 cc bb 17 79 a2 bd c8 9c a7 bd
       0.082403675 -0.0062429234 -0.07933252 -0.081842005
000080 f0 9b 2b 3d 3d 34 1b 3e 4f 20 39 3c b3 75 6e 3d
       0.04189676 0.15156646 0.011299207 0.058217715
000090 8a e1 a0 3d a3 8a b5 bd 9a 80 53 3d 77 13 b5 3d
       0.07855518 -0.088643335 0.051636316 0.08841603
0000a0 f8 82 1e 3d 2c 80 8b bd d6 ec d5 bd c2 61 17 3e
       0.03869912 -0.06811556 -0.104455635 0.14783385
0000b0 5e a0 07 3c 07 4d b6 bd 3f 23 74 bd 7a b9 ea bd
       0.008277981 -0.089014105 -0.059603926 -0.11461158
0000c0 3d 85 7a 3d 5e 01 87 bd 39 e8 88 3d 76 8f 64 3d
       0.061162222 -0.06592058 0.06684918 0.055800878
0000d0 d6 ea ab 3d 06 c6 c8 bc 7f b6 d7 3d 17 c9 55 3b
       0.08394401 -0.024508487 0.10532855 0.003262108
0000e0 e9 ba a8 bd 44 a6 3c bd 24 d5 de bc 4a 74 52 bd
       -0.08238775 -0.046057 -0.027201243 -0.051380433
0000f0 5a c9 87 bd 51 a5 85 3d db 54 88 3c 3b 87 79 bc
       -0.06630202 0.06525672 0.016642025 -0.015229995
000100 eb 3c 6a bc 59 80 a3 bc f1 b6 c9 3d 14 b4 a4 bc
       -0.014296751 -0.019958662 0.098493464 -0.0201054
000110 ce d8 4a 3d e2 8a f3 3d 45 0f c1 3d 92 9f 22 3d
       0.049523167 0.11891724 0.094267406 0.03970296
000120 14 d0 f6 bc 64 45 83 3d 02 97 36 bc 1e 90 87 3d
       -0.030128516 0.064097196 -0.0111444015 0.06619285
000130 7f 15 88 3c 27 83 27 bd ca e5 85 bc ea e6 9d bd
       0.016611813 -0.04089656 -0.016344924 -0.07710059
000140 09 86 9d 3d d0 ed 9a bd 4b 1b 86 3d 2d 91 7a 3d
       0.07691581 -0.075648904 0.065481745 0.061173607
000150 1d 00 17 b9 61 be c5 3d 38 62 d7 bc 4b de 08 bd
       -0.00014400524 0.096554525 -0.026291952 -0.03341512
000160 ca c5 71 bd c6 28 21 3d 60 b6 05 3c bb f4 c9 3d
       -0.059026517 0.039345525 0.008161157 0.09861132
000170 ea 08 03 bd 11 d3 22 be 42 ff 91 3d 62 ba c3 3b
       -0.031990923 -0.15900828 0.07128765 0.0059731463
000180 5d 99 fa 3d 18 b9 9e bc 5d 3f fc 3d 09 ba 9a bd
       0.12236283 -0.019375369 0.12316773 -0.07555015
000190 6e 76 3b 3d 55 43 9b 3c 95 a9 f3 3c 31 22 51 3d
       0.04576724 0.018953005 0.029743949 0.051057998
0001a0 eb 5f d8 bd 23 7c 88 3d a0 0f 65 3d 70 7c 86 3d
       -0.1056517 0.06664302 0.055923104 0.06566703
0001b0 2d dc e7 bc a2 23 5d bd 4f a8 74 3d 54 ab 8e bd
       -0.02830323 -0.05398906 0.059730824 -0.06966272
0001c0 58 0d 61 3d 53 29 8d bc 06 50 6c bd 36 20 aa 3c
       0.054944366 -0.017231619 -0.057693504 0.020767312
0001d0 66 79 e3 3d e6 bf 42 3e 24 bb e7 3c 53 19 89 3d
       0.11107139 0.19018516 0.028287478 0.06694283
0001e0 99 45 b6 3d b2 7b e5 3d 81 e4 a0 3d a1 ce 6d bb
       0.088999934 0.11205234 0.07856084 -0.003628649
0001f0 55 84 42 bd 1e 09 aa bc 41 f1 2d bd 49 51 91 3d
       -0.047489483 -0.0207563 -0.042466406 0.07095582
000200 8a 59 96 3d aa 8d a7 3d e3 39 1d bd 5e b2 b1 3d
       0.07341297 0.08181317 -0.038385283 0.08676599
000210 0b d5 a7 3c 22 a5 f8 bc e1 22 07 3d 96 8b 68 bd
       0.020487329 -0.030352179 0.032992247 -0.056773745
000220 87 42 fe 3c 31 7c 7b bd a6 c2 3a bd be e0 5c 3d
       0.031037582 -0.061397735 -0.045595787 0.05392527
000230 cc 53 9d bd 02 7f 2e bd 3d 37 97 bd 95 66 84 3d
       -0.076819986 -0.042601593 -0.07383583 0.064648785
000240 c2 65 94 bd 08 65 2a bd fe a6 4d bd 08 b3 70 bd
       -0.07245971 -0.041600257 -0.050208084 -0.058764488
000250 58 17 18 bd 96 1c 32 bc c7 d1 ab 3c a1 49 a8 bb
       -0.037131637 -0.010871073 0.020974053 -0.0051357304
000260 d5 39 ae bd fe f0 50 3d 28 62 3b 3d ad 4d f3 3c
       -0.08507124 0.051011078 0.045747906 0.029700125
000270 ca cc dc bc 4b 32 a2 bd 94 b0 0d bd 7e b0 52 bd
       -0.02695312 -0.07919749 -0.034592226 -0.051437847
000280 b3 e6 5a bc e9 2a 44 bd 71 30 c5 3b 51 5e 34 bd
       -0.013360667 -0.047892485 0.0060177376 -0.04403526
000290 a1 80 96 3d b1 bc de bc d6 43 57 3d c5 21 58 bd
       0.07348753 -0.027189584 0.052554928 -0.05276658
0002a0 f5 1b 38 3d 40 48 5c bc 35 a2 e5 bb 60 9e b2 3d
       0.044948537 -0.01344496 -0.007007862 0.08721614
0002b0 d5 9e 81 3d 2f 34 ae 3d 46 c5 74 bd 79 54 90 bd
       0.06329123 0.08506047 -0.059758447 -0.07047362
0002c0 dc 26 17 bd 6f 24 8c bc 16 39 82 3d 68 04 68 3d
       -0.036902294 -0.017107217 0.063585445 0.056644827
0002d0 b7 f7 cd 3c ac fd 4f 3c 89 83 aa 3c ce c3 d6 bc
       0.025142534 0.012694757 0.020814674 -0.026216414
0002e0 0c 1e 66 bd 32 12 09 bd 19 7f 4d bd a1 e2 d6 bc
       -0.056181 -0.033464618 -0.050170038 -0.026231112
0002f0 96 e6 65 3d 01 95 5a bd a9 db 60 bd a0 05 8e bd
       0.056128107 -0.053364757 -0.054896984 -0.06934667
000300 cf f7 bb 3c d1 26 65 3c 50 90 f9 3c af b1 35 bd
       0.022945313 0.013986305 0.030464321 -0.044358905
000310 e0 93 a5 bd 20 19 70 bd f1 d2 82 3c 12 d1 0d 3c
       -0.080848455 -0.05861771 0.015969725 0.008655803
000320 fd 03 e1 bc 43 3a a6 3c 3d 2e 39 3d cc 74 9e 3d
       -0.027467722 0.020291453 0.045210112 0.07737121
000330 1a 39 1f bd 95 a1 33 bc bb 1d b0 3d 66 aa 51 3c
       -0.038872816 -0.010963817 0.08599421 0.012796974
000340 2b 8f aa 3d 99 a2 1a 3d 80 42 dd 3c 1e f5 9b bd
       0.083280884 0.03775272 0.027009249 -0.07615112
000350 c8 b4 88 bd 42 29 45 3d 9a 2a 0f bd 15 33 ae 3c
       -0.06675106 0.04813505 -0.034952737 0.021264592
000360 87 42 86 bd c2 8c ca 3c 1f 2e 49 3a 7f 3a 4b bd
       -0.06555658 0.024725322 0.0007674414 -0.049616333
000370 70 53 1c bd f6 13 85 bd 94 b9 68 bd d7 e9 6e bd
       -0.03816551 -0.06497948 -0.056817606 -0.058328476
000380 ed 1e 20 bd 78 f9 82 bd c8 d2 80 3d 09 e6 c1 3c
       -0.039091993 -0.06395239 0.06290203 0.02366926
000390 35 d7 49 bc 95 1b 8a bd 46 64 29 3d 2d 63 9c bd
       -0.012319376 -0.06743542 0.041355394 -0.07636104
0003a0 81 8e 9f bd 84 f2 28 3d 1e e8 37 bd 48 0a 92 bd
       -0.07790852 0.041246906 -0.0448991 -0.07130867
0003b0 39 de 65 bd 4e f3 f5 bc 14 e1 6c 3c 2c a9 2d bc
       -0.05612013 -0.030023243 0.01445796 -0.010599416
0003c0 2a a2 60 bb a9 24 a9 3d 71 41 7a bd 44 aa 3e 3d
       -0.0034276345 0.082589455 -0.061097566 0.046549097
0003d0 1f 31 33 3d 7d 22 0c bc 9a ab 84 3d c4 b7 e2 bc
       0.043748017 -0.0085531445 0.06478043 -0.027675517
0003e0 3b 4f e9 bc e3 19 5d bd 4d f7 a4 3d ed 3d 9a bd
       -0.028480163 -0.053979766 0.080549814 -0.07531343
0003f0 cf 0e 99 bd de 9d 49 3d ee 80 a5 3c 2e 7d 74 3d
       -0.07473528 0.04922282 0.02020308 0.059689693

bias f4 [128]
000000 fc 26 6f 3d 78 e6 92 bd d1 df 49 bd 86 46 5d bc
       0.058386788 -0.07172865 -0.049285714 -0.013505584
000010 ac dd df 3d 50 3e 87 3d f4 75 e5 3c 0f bc b2 3d
       0.109309524 0.06603682 0.028010346 0.087272756
000020 f6 92 8d bd ef a2 5e 3d a8 b3 a4 3c f7 e4 32 bc
       -0.06912796 0.054354604 0.020105198 -0.010918847
000030 fe d6 17 3c 9b 00 33 bd f5 f8 56 bd 4c ff 40 be
       0.009267567 -0.04370175 -0.052483518 -0.18847388
000040 03 f9 25 bc 30 bd dd bd 5c 28 e3 3d 69 f8 cf bc
       -0.01013017 -0.108271 0.11091682 -0.025387006
000050 19 a4 29 bb 22 82 14 3e 64 51 38 3e 85 85 44 3e
       -0.0025885163 0.14502767 0.17999798 0.19191559
000060 24 46 10 3e 2c 72 05 bd 11 38 e3 3d b2 3d 4c bd
       0.14089257 -0.032579586 0.11094678 -0.049863525
000070 ef ed db bd 24 ff b7 bd e7 9b 0a 3e e3 06 67 bd
       -0.107387416 -0.08984211 0.13536035 -0.056403052
000080 38 8c c8 3d 8e 48 70 bd 0f b6 97 3c 1c 34 25 3e
       0.097923696 -0.058662944 0.01851943 0.1613316
000090 72 3a 4b 3d 1f 28 90 3d 3f 32 1c 3d a1 3e b5 bb
       0.049616285 0.070389025 0.038133856 -0.0055311476
0000a0 ec af f5 3d 81 03 11 bd dc af f2 bc de b0 3d 3c
       0.11996445 -0.035403732 -0.029624872 0.011577813
0000b0 49 c7 44 bd eb 7c bb 3c d1 12 13 be 8d 63 3b 3d
       -0.048041616 0.022886714 -0.14362647 0.045749236
0000c0 94 27 92 3d bb ca 45 3c c9 0c 25 3d d9 3e fa 3d
       0.07136455 0.0120722605 0.040295396 0.122190185
0000d0 01 6b ac 3d d9 71 7c bd e3 a3 a0 3d ec b7 08 3e
       0.08418847 -0.06163201 0.07843759 0.1335141
0000e0 a7 6e f4 bd 0d 46 ad 3d 47 dd aa 3c a0 9e 64 3e
       -0.11935168 0.08460627 0.020857466 0.22326136
0000f0 6e 1e 81 bd bd 67 1c 3d 34 1c 87 3d 4e bd 44 3e
       -0.06304632 0.03818487 0.06597176 0.19212839
000100 3d 95 26 ba 71 1b 8a bd aa 92 27 bd ed 2b 89 bd
       -0.00063546357 -0.06743515 -0.040911354 -0.06697831
000110 26 b8 c4 bc 57 e9 5c bd ad fa 91 3d 41 38 0d be
       -0.02401359 -0.053933468 0.07127891 -0.1379099
000120 a8 86 31 3d 99 33 30 3e 28 23 27 3a 60 9e d2 bc
       0.04334131 0.17207183 0.0006375783 -0.025710285
000130 11 30 f7 3c e4 3d 4a 3e 78 01 50 3d ee 20 07 3e
       0.030174287 0.19750172 0.05078265 0.13196155
000140 b7 16 1d bb fa 0c 18 3e 74 99 4c bd b2 ac e0 3c
       -0.0023969838 0.148487 -0.04995103 0.027426098
000150 c1 57 90 3d 0b 80 fb bc 80 2e 4a bd d8 e7 85 bd
       0.07047988 -0.030700704 -0.049360752 -0.06538361
000160 54 97 19 bd a1 c0 98 bd b5 93 ff bc 5b 57 7e 3d
       -0.037497833 -0.07458616 -0.031198362 0.062095027
000170 66 6c eb 3d 5b 71 4c bd 79 c4 ce bc f1 70 a0 bd
       0.11495285 -0.04991279 -0.02524017 -0.07834042
000180 61 92 1b bd e3 d1 ac bd f3 ce 4c bd 1b 8e 66 bd
       -0.037981395 -0.0843847 -0.05000205 -0.056287866
000190 41 18 03 bd 43 a6 52 bd a7 2d a1 3d 4d 1d 16 be
       -0.032005552 -0.05142809 0.078700356 -0.14659615
0001a0 5d b9 d5 bd a5 6c b6 3d ff 01 1a 3d e4 11 37 3e
       -0.10435746 0.08907441 0.03759956 0.17877918
0001b0 99 d1 b3 3b 3e 81 64 bc 92 4a 09 3e 3e 3f e2 3d
       0.0054876325 -0.013946829 0.13407353 0.11047219
0001c0 cf b2 4d bd f4 7a 0f bd 66 82 77 bc 95 8c 6d bc
       -0.050219353 -0.035029367 -0.015106773 -0.014498849
0001d0 60 66 e3 bc 07 be 76 3e 26 49 e2 3c 9b 00 9b bd
       -0.027758777 0.24095927 0.02762277 -0.07568475
0001e0 d5 24 6c 3d 17 df 68 3e b3 45 9c 3c b8 10 fa bd
       0.057652313 0.22741352 0.019076204 -0.1221022
0001f0 be 3f 01 be c5 1c 0b 3e 71 d1 ba 3c fe b8 ba bc
       -0.12621972 0.13585193 0.022804948 -0.02279329

weight f4 [128, 128]
000000 50 df c0 3c 41 3c 71 3d 7b 8d 9b bd e3 39 a1 bc
       0.023543984 0.058895353 -0.07595345 -0.019680923
000010 20 ca 26 3d 9e f3 4c bc 20 63 c0 3d 00 03 36 bd
       0.040720105 -0.012509255 0.093939066 -0.044436455
000020 f1 53 8e bc dd 32 95 3c 1b 21 28 be 8e 63 6a bc
       -0.01737401 0.01821273 -0.16418879 -0.014305962
000030 c4 be 8b bd aa 5d 38 bd 69 5e 28 bd 0f a5 89 bd
       -0.06823495 -0.0450112 -0.04110566 -0.067209356
000040 60 c4 e5 bc 68 c3 18 be 31 17 9e 3d 7b 66 ce 3d
       -0.02804774 -0.14918292 0.07719267 0.1007814
000050 27 9e 8b 3d f0 ca 10 3e 10 78 06 3e 89 d6 6b 3d
       0.068172745 0.14139915 0.13131738 0.057577644
000060 ad 0a 98 3a 52 e2 78 3d 1d a1 d5 3c 49 d8 d3 3d
       0.0011599861 0.06076271 0.026077801 0.103439875
000070 a4 a9 2f 3d bc eb 85 bd 0a 22 b1 3d 74 45 de 3c
       0.04288639 -0.065391034 0.086490706 0.027132727
000080 34 18 ca 3d 00 e4 47 3c 80 78 5a bd 70 b0 5a be
       0.09867898 0.0122003555 -0.053337574 -0.21356368
000090 72 f5 91 bd ec 5c 76 bc 75 3e 0a bd dc 65 bf 3d
       -0.07126893 -0.015036803 -0.03375097 0.093456
0000a0 40 b6 ed 3d 3f cc b7 3c 8c 27 e8 bc d3 89 39 3d
       0.11607027 0.02243626 -0.02833917 0.045297455
0000b0 6e b8 11 be 00 bd aa 3d d0 36 fb bc c1 71 27 3d
       -0.1423051 0.0833683 -0.030665785 0.04087997
0000c0 5e 85 26 3c 42 f4 26 3d d3 b6 ff bd d7 d3 cc 3c
       0.010163633 0.040760286 -0.12486043 0.025003357
0000d0 59 4a 98 3c fe 81 ba bd 1c 41 aa 3b 8a f2 4e bd
       0.01859014 -0.09106825 0.00519575 -0.050524272
0000e0 cd b7 be 3c e1 49 53 3d ad 45 46 bc ff bf bc 3b
       0.023281002 0.05158413 -0.012101573 0.0057601924
0000f0 58 8e b1 bd 63 38 67 3d f9 6d 9d bd f3 03 f2 bc
       -0.08669728 0.05645026 -0.07686991 -0.029542899
000100 9b 44 3c 3a c8 50 d6 bd 37 68 75 bd 31 ec 0c bd
       0.0007181854 -0.104646266 -0.05991384 -0.034404937
000110 1d 95 68 bd 17 78 35 3d 72 b6 08 bd e9 9a e0 3c
       -0.05678283 0.04430398 -0.03337712 0.027417617
000120 cd c9 ac 3d 84 86 be 3d f5 3b 9c bd f3 53 26 3d
       0.08436928 0.093030006 -0.076286234 0.040607404
000130 59 80 8b bd ed 88 0d 3d 52 81 85 bd 7b 3b bd 3d
       -0.0681159 0.03455441 -0.065188065 0.092398606
000140 c1 b0 82 bc 32 eb 9a 3d b8 e5 55 be 40 7c ab 3d
       -0.015953423 0.07564391 -0.20888412 0.08373308
000150 0a 8b 5a bd 73 8b e1 bc db c6 7f bd d4 8d 69 bd
       -0.053355254 -0.027532315 -0.062445503 -0.057020023
000160 18 d7 53 bd 7b bc 43 3d 49 bc b2 3d 52 53 b7 3d
       -0.0517188 0.04778717 0.08727319 0.08951439
000170 84 ae 08 3e b5 5c 4e bd 84 2d c2 bd 30 82 ae bb
       0.13347822 -0.05038138 -0.09481338 -0.005325578
000180 0e 53 ae 3d 94 33 0c 3d c3 de 87 bd c3 8c 06 bd
       0.08511935 0.034228876 -0.06634285 -0.032849085
000190 95 27 82 bd ad 9e a7 ba 6e 7a 47 3d 26 92 92 bd
       -0.06355206 -0.0012788378 0.048700742 -0.07156782
0001a0 cd ad f7 bc c2 22 e0 3d a9 2e ac 3d f1 16 d5 3d
       -0.030234242 0.109441295 0.08407337 0.10404766
0001b0 a4 1d eb bc 91 b0 c0 3c c9 a3 1e 3e c0 f9 27 3b
       -0.028700657 0.023521693 0.15492167 0.002563104
0001c0 0a 36 12 3d 0d d3 ba bd 01 38 c0 3b c8 05 9a 3d
       0.035696067 -0.09122286 0.005866051 0.07520634
0001d0 2c 7f 09 3d a2 cf 1b 3d 16 a9 6a 3d 54 2e 7d bd
       0.033568546 0.03803981 0.05729016 -0.06181176
0001e0 90 ff 7d bd 3f 4b 85 3d aa e2 c1 bb e7 7d 8a 3d
       -0.0620113 0.06508493 -0.005916913 0.06762295
0001f0 77 59 e7 3c 4d de 83 bd 00 fa a9 3d eb 43 13 bd
       0.028240902 -0.06438885 0.08299637 -0.035953443
000200 be d7 b0 3d 81 6a 98 bb 1f 4b 6a 3d b9 02 a6 3c
       0.086348996 -0.004651368 0.057200547 0.02026497
000210 2b c9 a0 3d 10 f3 a4 3d 0b 15 8e bd 33 19 00 be
       0.0785087 0.08054173 -0.069376074 -0.12509613
000220 4d d5 57 3d bf e4 d7 3d c7 c9 f6 bd e1 f9 d2 bb
       0.052693654 0.10541677 -0.12050205 -0.0064384793
000230 5a 20 78 bd 8d 02 3d bc 85 6e 32 3d 1c 28 89 3d
       -0.060577728 -0.011536253 0.04356243 0.066971034
000240 ee 93 88 3d cf 6e d1 bd 99 63 a1 3d 9e 81 87 3d
       0.0666884 -0.10226213 0.07880325 0.066165194
000250 65 17 4c bd fb 67 78 bc 9b df 1d 3d db 0f e9 3d
       -0.049827 -0.01516151 0.038543325 0.11379977
000260 88 a3 f2 3d e1 e7 09 be c5 8d 3e bd c3 cd b0 3b
       0.11847597 -0.13467361 -0.04652192 0.0053956225
000270 88 b0 2c 3d 3d 63 5d bd 42 14 75 3c 5e 6c 8f bd
       0.04216054 -0.05404972 0.014958443 -0.07003091
000280 e3 85 ed bb de e0 a3 3d 30 64 a4 3c 93 0e 13 be
       -0.0072486266 0.080018744 0.020067304 -0.14361028
000290 04 42 76 bd 09 61 9f 3d f4 3f 0c bd f9 12 9d 3d
       -0.06012155 0.0778218 -0.034240678 0.07669634
0002a0 8f 5d 43 bc d0 36 0f 3d 3a 65 92 bd 20 8b 2b bd
       -0.011924162 0.034964383 -0.07148214 -0.041880727
0002b0 95 95 15 bd ea 71 5f 3d 3c 14 76 bd 29 a3 06 3d
       -0.036519606 0.054551996 -0.06007789 0.032870445
0002c0 9e 1f 4d bc 5f a1 dd bc 3c a9 c9 bd 2f d4 0d 3d
       -0.012519745 -0.027054487 -0.09846732 0.034626182
0002d0 2d 87 f8 3c e6 1e 96 bc 01 48 cf 3c ae 23 76 be
       0.030337894 -0.01832528 0.025302889 -0.24037048
0002e0 7a 83 38 bd 0c 1c cc 3c d2 c0 3e bd 4c 8e a1 3d
       -0.04504726 0.024915718 -0.046570607 0.07888469
0002f0 65 79 c2 bd 04 b1 80 bd 29 ca 16 bb 75 16 34 3c
       -0.094958104 -0.06283763 -0.002300868 0.010991682
000300 e1 3f 9b bd 72 54 9c 3c dc 2e fe 3c a9 cd 8f 3d
       -0.07580543 0.019083235 0.031028204 0.070216484
000310 af 8e a8 3d 5f 85 e8 bc 6b eb a3 bd 3d 13 ad bd
       0.0823034 -0.028383909 -0.08003887 -0.08450935
000320 da 7f 77 bd 4d bd 7f 3d e7 82 80 bd 3e f9 97 bc
       -0.060424663 0.06243639 -0.06274968 -0.018551465
000330 7d e4 12 3d f2 62 61 3d a1 b9 66 3d 25 3f 2d 3c
       0.035862435 0.055026002 0.056329373 0.010574137
000340 28 64 0f bd bc 31 2d bd f7 40 75 bd 40 23 b0 3d
       -0.035007626 -0.04228376 -0.05987641 0.086004734
000350 1a 1d 9b bd d9 a7 2b 3d 04 c8 2c 3d db 69 3e bd
       -0.0757391 0.04190812 0.042182937 -0.04648767
000360 03 b7 ab 3d ee c4 95 3d 92 5b c3 3d a6 51 74 bd
       0.08384516 0.07312952 0.0953895 -0.05964818
000370 68 a1 0d ba e3 67 b1 bd 99 99 aa 3b 06 ae ac bd
       -0.00054027746 -0.08662393 0.0052062985 -0.0843163
000380 0d 83 44 3b b8 c7 8d bd e6 b6 8c bd 88 a9 a4 3d
       0.002998534 -0.06922859 -0.068708226 0.08040148
000390 b9 5a 60 bc e7 78 4d bd 5c 1d 88 3c 30 a1 41 bc
       -0.013693505 -0.05016413 0.016615562 -0.011818215
0003a0 6e fe d3 bd 0b e9 76 3d 90 d7 3c bc 71 86 8e 3d
       -0.10351263 0.06028084 -0.0115260035 0.069592364
0003b0 32 72 37 bd d1 4e 14 bd 38 5d 33 bd be fa ef 3d
       -0.04478664 -0.036207978 -0.043790072 0.11717747
0003c0 f2 c5 c3 3c ae 42 07 3d 74 d1 53 bd 7c 4f da 3b
       0.023898099 0.033022575 -0.051713422 0.0066623073
0003d0 90 1d 58 bd 2c a3 4f bd ec 5d 69 bd 81 a1 84 3d
       -0.052762568 -0.050692722 -0.056974337 0.06476117
0003e0 ed 4d dd 3c 20 88 62 3d 36 48 01 3d db eb 4c bd
       0.027014697 0.0553056 0.031563006 -0.050029617
0003f0 11 6f 28 bd b4 f7 ed 3d 64 28 07 bd f9 7c 96 3d
       -0.041121546 0.11619511 -0.032997504 0.073480554

bias f4 [128]
000000 db 32 00 3e 7b 0f 93 3d 8e da 28 3e 39 a8 01 3d
       0.125194 0.07180687 0.16489622 0.03165457
000010 02 92 5d bd ba 9f d5 3c ba 63 c1 bd 7d 8d 9f 3d
       -0.054094322 0.02607714 -0.094428495 0.077906586
000020 12 ec 09 3e 25 f7 8d 3d 8f 31 9a 3d 3d 32 9e 3c
       0.1346896 0.06931905 0.07528984 0.019311065
000030 17 ac 09 3d 71 b0 e9 bb 71 f2 8d 3d bf fc 13 bd
       0.033611383 -0.007131629 0.06931008 -0.03612971
000040 87 96 37 3d c4 f8 13 3e 62 14 64 3d 39 85 0b bc
       0.04482129 0.14450365 0.0556835 -0.0085156495
000050 c2 da 96 bd 4e b2 51 bd d0 29 5d bc 92 84 95 3d
       -0.073659435 -0.051195435 -0.013498738 0.073006764
000060 3e 30 a6 bc 19 5e 04 3e 11 63 ee 3d 67 9e 34 3d
       -0.020286676 0.1292652 0.11639989 0.044096377
000070 47 52 94 3c 10 53 6a 3d a7 12 73 3d 00 54 d4 3c
       0.01810564 0.05720812 0.05934396 0.02591896
000080 85 38 fd 3d 4e 68 85 bd 10 ee 68 bd 52 77 fb 3c
       0.12364296 -0.06514035 -0.05686766 0.030696545
000090 20 2f 3c bd 2f 49 6e bc 25 d7 08 be 0a c5 8b 3d
       -0.04594338 -0.0145438155 -0.13363321 0.068246916
0000a0 a4 29 ff bb 05 39 f4 ba 61 49 23 3c e9 ba c3 3d
       -0.0077869464 -0.0018632716 0.009966225 0.09557135
0000b0 e1 a9 9a 3d 9a 95 8e 3d 07 9a c7 bd b0 0d a2 3c
       0.07551933 0.06962128 -0.09746175 0.019781917
0000c0 d2 3c 94 bd e7 c6 93 3d 4e 56 88 3d 21 38 a0 bd
       -0.07238163 0.07215672 0.06657086 -0.07823206
0000d0 19 6d f0 bd 26 b6 8a 3c 21 01 c4 bd 81 9e 63 3d
       -0.11739559 0.016932558 -0.09570528 0.055571083
0000e0 75 45 ac 3d 47 60 63 bc 09 52 88 3d 19 b8 1f 3e
       0.084116854 -0.013877935 0.06656272 0.15597571
0000f0 11 09 4e 3b ba 53 06 be 97 90 92 3d 6e 6d 1f 3d
       0.003143851 -0.13117877 0.071564846 0.03892272
000100 32 5d 09 3e db f0 ae bd 81 7c 86 bc ff a1 b0 bd
       0.13414457 -0.08542033 -0.01641679 -0.08624648
000110 3f 00 4a bd 8e 81 36 3d aa 6e b5 bb 61 6a 04 3d
       -0.04931664 0.044557147 -0.005536874 0.032328013
000120 78 1b 67 3d b9 cc 36 3c 6d 52 d1 3d f8 6c 1b bd
       0.05642268 0.011157208 0.102207996 -0.037945718
000130 b2 d3 30 3d 1b 16 89 3d dd 7c 26 3e 27 2e 96 3b
       0.04317064 0.066936694 0.16258569 0.0045831385
000140 2b 0b 81 3d 8f 6b b3 bd df a1 8b 3d c7 2e df 3d
       0.06300958 -0.087607495 0.06817984 0.10897594
000150 d7 c6 f1 3c 15 a8 4d bd 8e 9a 82 bc 6a b3 94 3d
       0.02951376 -0.050209124 -0.015942838 0.07260783
000160 bf 7c a7 bd 63 75 fb 3c 07 76 6d 3c 3f 5f a2 bd
       -0.0817809 0.030695623 0.014493472 -0.07928323
000170 f8 df 7d 3d 85 35 61 bd 42 32 c7 bd ce e8 8b 3d
       0.06198117 -0.05498268 -0.09726383 0.06831513
000180 99 fa 28 bd 2d 68 92 3d b6 b4 f3 bd 27 01 db bc
       -0.041254614 0.07148776 -0.11899702 -0.026733948
000190 28 01 92 bd c2 77 a5 bd 09 76 c4 3d ef 69 84 3d
       -0.07129127 -0.080794826 0.09592826 0.06465518
0001a0 5e 3d 56 bc 66 38 8c bd 38 98 aa bd 14 7b 92 38
       -0.0130761545 -0.06846695 -0.08329815 6.9847476e-05
0001b0 b9 cd 3b 3e f6 72 32 3d fb cd 84 bd ce 64 95 3d
       0.18340196 0.043566667 -0.064846 0.072946176
0001c0 d7 43 be bc 11 e9 2c bd 0c e1 a8 3d dc e3 bc 3b
       -0.023225708 -0.042214457 0.08246049 0.0057644676
0001d0 cb c0 4b 3c d6 c7 98 3d d4 97 88 3d b4 4f 22 3c
       0.012436102 0.07459991 0.06669584 0.009906698
0001e0 29 e8 01 3d a5 d1 30 3e 8e ce fa bb bc cd 50 3c
       0.031715546 0.17267473 -0.007654018 0.012744363
0001f0 92 f1 32 bd f3 8a 9c 3b 89 fb 3c bd 93 6c e0 bd
       -0.04368741 0.004777306 -0.04613832 -0.10958209
