IO_DynaPlex/DeepControlledLearning/PolicyWeights/lost_salespoisson_p39_l2_N5000/cl_gen.pth (torch, 283142 bytes, 10 tensors)

weight f4 [256, 2]
000000 9d 4a 0e 3f 2b f0 bb 3d fb fb f9 3e dd 5c 7f be
       0.555826 0.09176668 0.48825058 -0.24937768
000010 0d 7d 22 3f 64 da 75 be 02 23 08 3f 10 44 0d be
       0.6347206 -0.2400909 0.5317842 -0.13795495
000020 e7 52 b2 be b0 14 11 3f c5 19 aa 3e f0 76 85 3e
       -0.34828874 0.5667219 0.33222786 0.26067305
000030 44 40 d1 3d 42 fa f2 bd 8c 46 05 3e 6f 3d 7c be
       0.10217336 -0.11864139 0.13015193 -0.2463281
000040 6e 1b a8 3e 79 e3 c2 be d1 20 07 3e 0c 3e 32 bf
       0.32833427 -0.38064173 0.13196112 -0.69625926
000050 39 00 19 3e cf 01 8d 3e 29 a5 89 be 2c 69 b8 3e
       0.14941491 0.27540442 -0.2688382 0.3601774
000060 6d a7 c5 3e f9 3d ed 3e 0c 9c 87 be 06 5f c7 be
       0.38604298 0.46336344 -0.26486242 -0.38939685
000070 2b bd 78 be 6c 9f ef 3e 3f e4 19 3e 5d dd 0d bf
       -0.24290912 0.46801317 0.15028475 -0.554159
000080 ae cd 10 bd f1 d8 cd 3e 90 c9 e9 bd af 96 34 bf
       -0.0353524 0.40204576 -0.11415398 -0.70542425
000090 88 3f 19 3e 79 70 88 be 7a 17 83 be d9 0d fe be
       0.14965641 -0.2664831 -0.2560385 -0.4961994
0000a0 0a 6a b5 3e 0d 29 1c 3d dd 9c 02 3f 78 34 0a be
       0.35432464 0.038125087 0.51020604 -0.13496578
0000b0 52 48 78 3e c5 94 1c 3f 3b 3b 13 bf 6d 08 23 3f
       0.24246338 0.61164504 -0.57512254 0.6368473
0000c0 77 36 07 3e 06 6c 47 bd 43 58 04 3f a5 ab 30 be
       0.1320437 -0.048687004 0.51697177 -0.17252977
0000d0 06 4e 26 be cc ac d3 3e 20 d4 5e 3e 3a ec 45 be
       -0.16240701 0.4134277 0.21760607 -0.19328395
0000e0 fb 33 06 3f 1a dc 26 bf 82 47 e4 3e 51 cd 72 bd
       0.52423066 -0.651796 0.44585806 -0.059277836
0000f0 1b bc aa 3c d2 6f 79 3e fa 4f 12 be c6 b1 18 bf
       0.020841649 0.24359062 -0.14288321 -0.5964626
000100 6a 89 32 be 92 1f 34 bf b6 7d 0f bd e4 d9 ac 3d
       -0.17435232 -0.7036067 -0.035031997 0.08439997
000110 1b 7b eb 3e af d4 9b be 8e ed 8f be a5 ce fc be
       0.4599236 -0.30435702 -0.28110927 -0.49376407
000120 c5 05 30 be f6 7e 6d be d7 25 95 3d 8f ac 8e be
       -0.17189701 -0.23192963 0.07282608 -0.27866027
000130 eb e3 17 bd ab 0a 09 3e 5d 62 05 3f aa bf 3d bf
       -0.037082594 0.13382976 0.52103215 -0.7412058
000140 01 75 ab 3e 9f c7 1c 3f 83 08 34 bc 98 19 66 be
       0.33487704 0.612421 -0.0109883575 -0.224707
000150 f8 02 bf be 67 9d da 3e 49 3f 30 be 8c ed 21 3f
       -0.37306952 0.42698213 -0.17211641 0.6325309
000160 d0 f2 59 be a7 de 86 bd f6 2d 23 bf 5e 17 cc bd
       -0.21284032 -0.06585436 -0.63742006 -0.099653944
000170 22 1d 1c 3e 73 52 28 bf d8 21 25 bf 46 a3 14 3f
       0.15245488 -0.6575081 -0.64504766 0.58061635
000180 43 c2 33 3d 64 65 01 3e 01 ff 0c 3f f2 8c 3f be
       0.043886434 0.12636334 0.55076605 -0.1870611
000190 0a 70 c7 3e cf 63 a3 3d 76 bd e4 3e a3 0b cd 3d
       0.38952667 0.07978021 0.44675797 0.10011985
0001a0 d0 66 c8 be 5d e8 ed 3e 8a 89 05 bf 2a a0 01 3f
       -0.3914094 0.46466342 -0.5216299 0.50635016
0001b0 99 a7 1a bf a1 ee ce 3e d7 bb 4c 3e 35 03 e7 3e
       -0.60411984 0.40416434 0.1999353 0.45119634
0001c0 eb 5b a3 be 9d 1c 1c bf 66 e7 1f 3f ce 16 9f be
       -0.31906065 -0.6098116 0.6246246 -0.31072086
0001d0 f7 83 32 bd 6c f6 7a 3d 54 93 36 bf fa 2a a7 3e
       -0.043582883 0.061270162 -0.71318555 0.32649976
0001e0 39 8e f3 3d 04 82 70 3e 08 4e 7a 3e e6 ef 97 be
       0.11892361 0.23487097 0.24443829 -0.29675215
0001f0 47 6b 01 bf 22 24 ac 3d 56 82 0e bf 37 ba 2c 3e
       -0.5055432 0.08405329 -0.55667627 0.1686791
000200 29 96 13 3e 4b 52 da 3d 8a d3 20 3e 9b 1d 04 3f
       0.1441275 0.106602274 0.15705696 0.51607674
000210 4a bc 99 3d ce 35 96 3e de e6 bc be 73 17 2e 3f
       0.075066164 0.29337925 -0.36894888 0.6800453
000220 53 92 b1 3e bf ed 79 be 54 9f 0e 3e f4 6d fb be
       0.3468195 -0.24407099 0.13927966 -0.49107325
000230 ae 7f c1 be af 63 02 3c dd 58 01 bf 83 fd ae 3e
       -0.37792724 0.007958337 -0.5052622 0.3417779
000240 a2 f9 9b be 4b ca 24 bf 63 43 03 3e 1b e7 2a 3f
       -0.30463892 -0.64371175 0.12818675 0.6675889
000250 15 a9 e1 3d 5b e5 0e bf d2 00 30 bf f0 99 a2 be
       0.11018578 -0.5581872 -0.6875125 -0.3175807
000260 9f 72 24 bf 71 f9 b8 3e ea a7 1c bf 5d 48 29 bf
       -0.642374 0.3612781 -0.61193717 -0.6612604
000270 19 74 28 be f0 b1 23 bf bf f1 55 bd a9 b4 b1 3d
       -0.16450538 -0.63943386 -0.0522325 0.08677036
000280 13 a6 58 be 7b 0e 14 bf 82 a6 9f be da e7 c2 be
       -0.21157102 -0.57834595 -0.31181723 -0.38067514
000290 5c 1e 0f bf 33 27 1d 3f ff 9b 7b 3e 13 98 fa bd
       -0.559057 0.6138794 0.24571227 -0.12236037
0002a0 5c e3 2e bf 4c 0c b9 be f0 57 1a bf 8a 0c ee bd
       -0.6831567 -0.36142194 -0.6029043 -0.116234854
0002b0 9f 08 06 3f 7f 77 93 3e d3 69 41 3e d0 9e e2 bd
       0.52356905 0.28802106 0.18888025 -0.11065447
0002c0 dc 56 f5 bd 78 35 1d bf 89 c3 06 3f 57 ad 9b 3e
       -0.11979458 -0.6140971 0.5264211 0.30405685
0002d0 66 01 57 3c 79 71 95 bd bb 3d 97 be e2 b3 43 be
       0.013122892 -0.07297034 -0.29539284 -0.19111589
0002e0 b3 9f c1 bd 5c 96 80 be a8 fa 10 3f 80 d3 25 bf
       -0.09454288 -0.25114715 0.5663247 -0.6477585
0002f0 16 01 22 3f 31 d0 e8 be 51 75 0c 3e 81 af 18 bf
       0.63282907 -0.45471337 0.13716628 -0.596428
000300 eb d2 14 bf 00 4d 80 be c4 0d 57 be 46 53 26 bf
       -0.58134335 -0.25058746 -0.21001345 -0.64970815
000310 02 db 88 3e 70 7e c5 be 37 ac e3 be 35 1f 2b bd
       0.2672959 -0.38573027 -0.44467327 -0.04177781
000320 fb 32 03 3f 51 03 dd bb b3 06 05 bf 34 29 33 bf
       0.51249665 -0.00674478 -0.5196335 -0.69984746
000330 ac 70 0b be 43 2c 6b be 7b 69 c8 3d 3f 0f e8 3e
       -0.136172 -0.22966103 0.09785744 0.45324132
000340 01 97 8b 3e 48 97 08 3f 13 a8 1e 3f d0 cf 2c bf
       0.27263644 0.53355837 0.6197521 -0.67504597
000350 40 c6 cd 3e 90 a1 fc be 9a dc f5 be 64 39 ef be
       0.40190315 -0.49342012 -0.48019868 -0.46723473
000360 36 60 38 3e e6 53 b2 3e 83 19 61 be 2a 13 fb be
       0.18005452 0.34829634 -0.21982388 -0.4903806
000370 83 65 d0 3e 25 ae 4e be bd 5e f8 3e ba 55 f1 bc
       0.40702447 -0.20183618 0.4850978 -0.029459823
000380 d6 97 db 3d 39 aa d7 be ee 66 8e 3e 6a f1 51 be
       0.1072232 -0.42122057 0.27812904 -0.20502248
000390 c3 22 33 bf 4b b2 03 bf 1d e7 46 be 6b 28 9d be
       -0.6997492 -0.5144393 -0.194241 -0.306949
0003a0 ea f5 86 3e ff d2 68 be 7a bb b5 bc bc 35 ce 3a
       0.26359493 -0.22736739 -0.022184122 0.0015732567
0003b0 ca a0 d1 3e 1c b1 76 be 29 d3 a3 3e ce f4 fd be
       0.40942985 -0.24091 0.3199704 -0.49600834
0003c0 84 4b f6 3e e7 6a 02 bf ea fe dd be ec 34 09 3f
       0.4810449 -0.5094437 -0.43358546 0.5359638
0003d0 91 e8 32 bf 54 7d 8a be 35 7e 04 be 8c 46 80 3e
       -0.6988612 -0.27048743 -0.12938769 0.25053823
0003e0 a0 bb 40 bb 1c 78 7e 3e b5 1d 81 bc d6 09 2b bf
       -0.0029408708 0.24850506 -0.015761236 -0.66811883
0003f0 2c 0e 05 3f 72 96 e2 be 01 6e 33 bf aa 83 8f be
       0.5197475 -0.44255406 -0.7008973 -0.2803014

bias f4 [256]
000000 34 02 40 3f a0 a5 00 3f f7 bb 75 bf 4a db 2a bf
       0.7500336 0.50252724 -0.95989937 -0.6674086
000010 8a dc 94 be 9a ab db bd 65 40 b4 be d0 3f b9 3e
       -0.29074508 -0.1072609 -0.3520538 0.36181498
000020 b1 a5 2c bf 1b 96 0c bf 21 ae 89 3e b6 65 dd 3e
       -0.67440325 -0.5491654 0.26890662 0.43241662
000030 b7 00 4b bf c5 66 42 3e e6 11 b6 3c d1 c3 60 bf
       -0.79297966 0.18984516 0.022225332 -0.8779879
000040 a8 6a 94 be 4c 53 82 be da a2 96 3e 5c de 29 3c
       -0.28987622 -0.25454175 0.2942112 0.010367956
000050 6f 88 03 3f f0 33 45 3f 96 00 59 bf 25 19 71 3f
       0.51380056 0.77032375 -0.8476652 0.9417899
000060 2c fa b9 3e 88 d9 f3 be 64 0f 46 be 6f e4 46 bf
       0.36323678 -0.476269 -0.19341809 -0.7769231
000070 43 e2 65 3f db 1f b2 be fe 16 21 bf af b0 f5 be
       0.89798373 -0.3478993 -0.6292571 -0.4798636
000080 2a cf 2b bf cf d2 50 3f ef 90 21 bf 1c ba bc 3e
       -0.6711298 0.8157167 -0.63111776 0.3686074
000090 62 fa 2c be b9 48 be 3e 2f f2 f2 3e 2f 2d 02 bf
       -0.16892388 0.37164858 0.47450396 -0.50850195
0000a0 fe ea cc be 84 ef 1f be 64 06 2e 3f 58 58 24 bf
       -0.40023035 -0.15618712 0.679785 -0.641973
0000b0 c5 58 e6 3e 2f 7f da 3e 3f 71 33 bf 66 13 10 bf
       0.449896 0.42675158 -0.70094675 -0.562796
0000c0 98 0f 6e 3f f0 2d 79 3f 19 10 1c bf 11 36 a6 3e
       0.92992544 0.9733572 -0.60962063 0.32463124
0000d0 65 0b 0c be cf 64 20 bf 3e 6d d0 be 7a 88 3d bf
       -0.13676222 -0.6265382 -0.40708345 -0.7403637
0000e0 c5 8a f8 be 99 34 8a bf ff b1 52 3f f9 bf fe be
       -0.48543373 -1.0797302 0.8230285 -0.4975584
0000f0 f3 3c 4e 3f 35 80 da be 93 fc b0 3c c7 ad 9d be
       0.8056175 -0.4267594 0.021604812 -0.30796644
000100 1e 88 2b 3f f0 b0 f8 be 47 43 84 be 90 ae 49 bf
       0.67004573 -0.48572493 -0.2583258 -0.78781986
000110 d1 5f 82 3e 3e 16 7b 3f 7b dd 63 3c bb 85 f0 be
       0.25463727 0.98080814 0.0139077855 -0.46977028
000120 b4 2d 62 3e a3 cb 37 bf 60 0d 31 3f 5f 49 01 bd
       0.22087747 -0.717951 0.69161034 -0.031564113
000130 e9 28 03 3e 5b 1d c4 3e 4d 87 31 3f 94 93 71 3f
       0.12808575 0.38303646 0.6934708 0.9436581
000140 d8 4b 23 3e e3 c4 a6 3e 0f d6 0f bc 2d 3b 82 bf
       0.15946901 0.32572088 -0.008779063 -1.0174309
000150 89 10 0f 3f 50 40 2f bf 0c ea f9 be ae fa d5 3e
       0.55884606 -0.6845751 -0.48811376 0.41792816
000160 fb d0 b1 be 1a ec 3f bf 45 3f 27 3f 7e 38 18 bf
       -0.34729752 -0.7496964 0.65330917 -0.594612
000170 4c 06 07 3d 95 1a 07 3f d4 42 1f bf 60 ce b3 3e
       0.03296499 0.52774936 -0.62211347 0.3511839
000180 19 a3 1d 3f cf 67 ad be e0 79 48 bf 1f 97 12 bf
       0.6157699 -0.33868262 -0.78310966 -0.5726184
000190 ef 89 10 bf 5f ac 2c bf 1f 70 f8 be 33 e4 73 3f
       -0.5646047 -0.6745052 -0.48523042 0.9527008
0001a0 62 2a 2e bf 7b a2 26 bf 88 e8 28 bf 4e 7f 1f 3f
       -0.6803342 -0.65091676 -0.65979815 0.62303627
0001b0 1b af 4c be cc a4 d5 3e b0 28 83 bf 8d 06 97 3e
       -0.19988672 0.41727293 -1.0246792 0.29497185
0001c0 ac 85 14 bf 24 1c 40 bf eb 1b c2 be 6b 9e b4 bb
       -0.5801647 -0.7504294 -0.37911925 -0.005512049
0001d0 97 db fa 3e 85 d3 cb 3e 41 05 44 bf 5e 1e 47 3e
       0.4899566 0.39809814 -0.76570517 0.19445178
0001e0 df 8a 6a 3f 49 3f 52 be e9 4b 4d 3e 79 f5 2a 3f
       0.9161815 -0.20531954 0.20048489 0.6678081
0001f0 d0 a7 37 3f cc a4 14 3e 87 cc 6f 3f 44 1c eb bd
       0.71740437 0.1451599 0.9367146 -0.114800006
000200 e5 be e2 be 96 0a 97 be 39 b0 80 bf a4 0d 03 3f
       -0.44286266 -0.29500264 -1.0053779 0.5119269
000210 0c 52 7a 3f 55 23 03 bf 90 e2 b9 3e b2 cc 59 bd
       0.97781444 -0.5122579 0.36305666 -0.05317373
000220 f7 45 5c 3f 06 6f 25 bf 14 47 46 bf c5 ec 0f 3f
       0.8604426 -0.64622533 -0.77452207 0.56220657
000230 ca a3 78 3f ca d2 da be f9 a8 7b bf 70 81 7e bf
       0.9712492 -0.42738944 -0.98304707 -0.99416256
000240 3c 92 6c bf d6 96 a8 be 43 3c 74 be 0d f2 22 3f
       -0.92410636 -0.3292758 -0.23851113 0.6365059
000250 a9 0a d8 3e b4 04 e4 be 55 15 0f bf e5 7c f8 be
       0.42195633 -0.44534838 -0.55891925 -0.48532787
000260 8b 4a 88 3f 7a fd c3 3e 66 a5 cb 3e af 1d a8 bd
       1.0647749 0.38279325 0.39774626 -0.08208787
000270 83 f3 30 bf 2c d7 ab 3e 98 a0 f0 be 7e 93 27 bf
       -0.6912157 0.335626 -0.46997523 -0.6545943
000280 ff 99 5c be 8a 00 72 be 7e ff af 3e 1e 76 ab 3e
       -0.2154312 -0.23633018 0.34374613 0.33488554
000290 e3 e2 6b 3f 1a f3 53 3f d0 53 31 3f f7 a5 cd be
       0.92143077 0.8279282 0.6926851 -0.40165684
0002a0 6c 53 7c bf a7 26 31 bf a4 5b ce 3e 9f 96 e2 bd
       -0.9856479 -0.69199604 0.4030429 -0.11063885
0002b0 ff 38 14 3f 20 dc 58 bf 2b 93 0b 3f f5 9c 4a bf
       0.5789947 -0.84710884 0.54521435 -0.7914575
0002c0 3d a5 90 3d 39 2d 53 be 32 c9 54 3f cf 5f 1f 3f
       0.07062767 -0.2062272 0.831195 0.6225557
0002d0 dd 58 20 bf 99 b3 4b bf 31 71 42 bf f5 36 d8 3e
       -0.62635595 -0.7957092 -0.75953966 0.4222943
0002e0 2b 0c 18 bf 86 94 d9 bd 78 e1 9f 3e 19 f4 de be
       -0.59393567 -0.10624032 0.31226707 -0.43545607
0002f0 d2 95 c2 bd 6b f7 08 3f 87 6b fe 3e 52 c4 03 3f
       -0.09501232 0.5350253 0.49691412 0.51471436
000300 30 9c f9 be b7 6d fe 3e 80 4a a8 be 52 42 0f bf
       -0.48751974 0.4969308 -0.3286934 -0.5596057
000310 f3 72 35 be bc cc 90 be 44 56 4d bf 88 17 9f be
       -0.17719631 -0.282812 -0.80209756 -0.3107264
000320 09 43 0a bf 47 23 28 3f 02 4f 2f bf 64 ce a7 bd
       -0.5400854 0.6567883 -0.6847993 -0.08193663
000330 55 05 48 be 7b 15 5e 3f 6c 2b 32 bf 1b 86 a7 3e
       -0.19533284 0.86751527 -0.69597507 0.32719502
000340 19 80 4c bf 69 e7 c3 3e 85 0a c4 3e a7 20 84 3f
       -0.7988296 0.3826249 0.38289276 1.0322465
000350 3a f0 2e bf 8d 00 59 3f 9f d4 f0 be 8c c3 6a 3f
       -0.68335307 0.84766465 -0.47037217 0.9170463
000360 c1 89 86 bf f8 04 bb 3e 14 0e da be 5e 90 1a 3e
       -1.0510789 0.36527228 -0.42588866 0.15094134
000370 cc 99 28 3e 4a 00 ad 3d 1a 72 5c 3d 12 4a 5f bf
       0.16464919 0.08447321 0.053819753 -0.872224
000380 2d 91 d9 3e 57 82 1c bf a1 94 86 bd 2b f9 42 bf
       0.42493573 -0.6113638 -0.065713175 -0.7616145
000390 23 8b 55 be df 10 54 3f 9b 7b 44 3f e3 02 ce 3e
       -0.20853858 0.82838243 0.76751107 0.40236577
0003a0 6e 8d 8b 3e ad 4f a4 be 23 c5 e1 be e4 9b 7f 3f
       0.2725634 -0.32092038 -0.44095716 0.99847245
0003b0 51 64 2b bf ca fa 9a bd 0d 3a 52 3e a5 47 de be
       -0.66949946 -0.075673655 0.20529957 -0.43414035
0003c0 fa dd ee 3e cf 83 cc be 18 55 ca be b7 51 53 3f
       0.4665373 -0.39944312 -0.39518046 0.8254656
0003d0 9e 11 71 3f 8b 33 ec 3e 67 62 2c 3f 9f 9f 21 3f
       0.94167507 0.46133074 0.6733765 0.6313419
0003e0 c0 58 8a be 1d 97 91 be 8a 9c bf be 63 b3 d4 be
       -0.27020836 -0.28435603 -0.37424117 -0.4154311
0003f0 ea 01 61 bf 05 a4 2a 3f 55 3a 62 3f 51 be 75 be
       -0.87893546 0.66656524 0.8837026 -0.23998381

weight f4 [128, 256]
000000 f8 36 64 bd 02 40 cc bc a4 d2 1b 3d 1f 69 42 bd
       -0.055716485 -0.024932865 0.03804268 -0.047463533
000010 8b 53 50 3d 40 a5 1d bd 9d 52 6d bd d0 f1 2f 3d
       0.050860923 -0.038487673 -0.057940114 0.04295522
000020 5e 2c 10 3d 66 ef 0f bd 39 0d 2a 3d 69 8b 7c bd
       0.03519856 -0.035140418 0.041516516 -0.06165639
000030 f0 9b 0d 3d 3c ef 7a 3d 29 2a 56 3d 08 64 da 3c
       0.03457254 0.061263308 0.0522863 0.026659027
000040 77 64 87 bd 2a 48 20 bd 1c 79 c7 3c 90 cf e0 bb
       -0.06610959 -0.03913132 0.024349742 -0.006860681
000050 fb a7 12 bd b5 f0 4c bd a6 35 64 bd 24 0d c1 3c
       -0.03580473 -0.050034244 -0.055715226 0.023565836
000060 98 25 3d bc 06 94 d8 3c d9 3c 25 3d f8 3c 4f bc
       -0.011544608 0.02643777 0.040341232 -0.012648813
000070 e8 25 27 bd 4b 9b 0b bd 18 f4 4c bd 38 72 6d bc
       -0.040807635 -0.034083646 -0.050037473 -0.014492564
000080 c2 3d 2e 3d b3 c9 40 bd 48 ff ff 3c 38 89 92 3c
       0.042539366 -0.047067355 0.031249657 0.017887697
000090 70 50 01 3d 14 57 bf bc 9b 42 12 bb 3a 65 03 bd
       0.03157085 -0.023356952 -0.0022317532 -0.03207896
0000a0 e5 22 84 bd 58 60 cb 3c 44 27 44 bc 9b 30 6b bd
       -0.06451968 0.024826214 -0.011972252 -0.0574194
0000b0 5c 7c 5f bd c0 58 2e 3b 50 81 16 3d e6 cc d0 3c
       -0.054561958 0.0026603192 0.036744416 0.025488328
0000c0 16 32 36 bd 64 83 8e bc 02 8c 79 bd b6 79 73 3c
       -0.04448136 -0.017396636 -0.060924537 0.014860561
0000d0 02 14 fa 3b ed 05 7c bc 9d 71 89 bd 49 fe e9 bc
       0.0076317796 -0.015382272 -0.06711123 -0.028563635
0000e0 4a 99 5b 3d 88 51 1a bc 82 e1 1e 3d c7 bb 11 bd
       0.053612985 -0.009418853 0.03878928 -0.03557947
0000f0 c6 40 a5 bc 70 4d 07 3c 28 f9 03 bd 5c 10 3e 3d
       -0.020172488 0.008258209 -0.032220036 0.04640232
000100 dd 0e 98 bc 49 c5 59 bd b6 c3 fc 3c 0c c9 3c 3d
       -0.018561775 -0.05316666 0.030855041 0.04609017
000110 a6 60 f7 bb 00 85 16 bd 30 3e 7d bd 4c 2b cb 3c
       -0.007549363 -0.036747932 -0.061826885 0.024800919
000120 12 42 5f 3d cd 68 ce 3c a8 14 c2 bc c0 42 1e bd
       0.05450637 0.025196457 -0.02369149 -0.038637877
000130 9a b1 ee ba e8 08 9d 3c 6a 2b 03 bd 8a 18 27 bd
       -0.0018210888 0.019169286 -0.032023825 -0.040794887
000140 dc 7e 0f 3d 18 3f 3d bd 7a 0a 12 3c 3e b7 21 bd
       0.035033092 -0.04620275 0.008913631 -0.039481394
000150 b4 cc 2e bd 88 0e 32 bc c5 80 f2 3b 3c eb 5a bd
       -0.04267569 -0.010867722 0.0074006044 -0.053446993
000160 0c 34 3e 3d 56 34 97 3c 28 58 28 3c a0 ac 2d 3b
       0.046436355 0.018457573 0.010274924 0.0026500598
000170 60 41 98 3c d2 c0 69 3d d0 db c0 3b bc 08 14 3d
       0.01858586 0.057068653 0.0058855787 0.036141142
000180 1e d0 51 3d a4 0c 5d bd 3c 0e 61 3d a8 22 7c 3d
       0.051223867 -0.053967133 0.054945216 0.06155649
000190 83 56 0b bc e0 40 a6 bc c0 9d 15 bd 03 c7 9e bc
       -0.008504513 -0.020294607 -0.036527395 -0.019382006
0001a0 0a 10 21 3d 00 08 98 ba 80 5e 14 bc 78 4f cc bc
       0.039321937 -0.0011599064 -0.009055734 -0.024940237
0001b0 9a 9b 4e 3d 8c 31 a0 3c 80 a3 51 ba 60 93 33 3d
       0.050441362 0.019554876 -0.00079970807 0.04384172
0001c0 80 60 1f bc 6c ab 2b 3d 50 10 9c 3c 3c 29 5f bd
       -0.009727597 0.041911528 0.019050747 -0.054482684
0001d0 98 da 75 3d 15 0d 3e bd 04 4f 4e bd 5c 77 62 bd
       0.06002292 -0.046399195 -0.050368324 -0.05528961
0001e0 58 20 78 3d fd a5 b5 3c 44 cf e1 3c 88 aa 1f 3d
       0.06057772 0.022173876 0.027564652 0.03898099
0001f0 5f 35 a3 3c 72 a8 1d bd 8a 36 06 3d c0 d1 e6 3a
       0.01992291 -0.03849072 0.032766856 0.0017610118
000200 73 e3 5a bd d0 d3 85 3b ac fc c9 3c 9e 2b 2e 3d
       -0.05343957 0.004084088 0.024656616 0.042522065
000210 c6 cc 30 3d 9b f4 82 bb 8c 42 43 3d 3e 83 30 bd
       0.043164037 -0.0039964444 0.047670886 -0.043093912
000220 93 51 ec 3b 8f 6e 52 3d a0 aa 74 3c fb 51 1d 3d
       0.007211873 0.05137497 0.014933258 0.03840826
000230 05 b2 00 3d 20 dc 3e bb 89 95 af 3c df ae 18 3c
       0.031419773 -0.0029122904 0.021433609 0.009319036
000240 ba f6 41 3d 60 a7 0f bc e7 bb 3f bd f0 4d 7b 3d
       0.047354437 -0.008767933 -0.046810057 0.061353624
000250 70 52 74 3d e4 4e 1e bd c4 dc 6a bd 0e d7 84 bd
       0.05964893 -0.038649455 -0.057339445 -0.06486331
000260 c9 a4 6b bd e9 3c d3 bc c4 1f 19 3d 5d ab 32 bd
       -0.0575302 -0.02578588 0.03738381 -0.043620456
000270 c4 7d bd bc dc 2d 70 bd c8 a5 71 3b 00 af 2d 3d
       -0.023131259 -0.058637485 0.0036872495 0.04240322
000280 7c 2b 72 bd 0a 60 62 bd fc 78 e3 3b 28 08 73 bd
       -0.0591235 -0.05526737 0.0069419127 -0.05933395
000290 c0 bd 7b bb 81 1e 24 bd 55 ba 99 bc b8 98 2c bd
       -0.003841266 -0.040068153 -0.018765608 -0.04213783
0002a0 58 95 2c bc f8 28 3b bc a1 03 d7 bc 08 cb 7b 3c
       -0.010533653 -0.011423342 -0.026246848 0.015368231
0002b0 5a 0f 4f bd 87 a8 e2 bb 32 37 69 3c 28 57 62 bc
       -0.05055175 -0.0069170627 0.014234351 -0.013814725
0002c0 98 1a 1e 3c 10 71 22 bc 25 b3 b6 3c 9a 7b 92 bc
       0.009649895 -0.0099146515 0.02230222 -0.017881203
0002d0 3b 91 84 bc c3 af 01 bc e2 14 34 bd 18 e5 0a 3c
       -0.016182533 -0.00791544 -0.043965228 0.008477472
0002e0 ec 54 a4 3c 60 61 cd 3b ae e9 37 3d 4b 88 8b 3c
       0.020060025 0.0062677115 0.04490059 0.017032763
0002f0 f0 28 90 3c a0 a7 9d 3c a0 91 17 bc 82 65 29 3d
       0.017597646 0.019244969 -0.009251028 0.04135657
000300 40 7e db ba 80 72 fb bb 8c 37 0c 3d a0 54 f2 3b
       -0.0016746 -0.0076735616 0.03423266 0.007395342
000310 46 81 5b 3d d0 3a 73 bd 56 ec 0f 3d f2 39 34 3d
       0.05359008 -0.05938226 0.035137497 0.044000573
000320 70 92 4c 3c 73 4c 20 3c d8 45 bb bc 7a a2 69 bd
       0.012486085 0.009783852 -0.022860453 -0.057039715
000330 13 c8 5a bd f4 14 17 3d 4a 09 6a bd 96 43 50 bc
       -0.053413462 0.036885217 -0.057137765 -0.012711426
000340 88 ef ba bc b8 ad 74 bd 30 ee 9b bb ec c1 0d 3d
       -0.022819296 -0.059735984 -0.004758619 0.034608766
000350 a0 bc 39 3c 67 10 58 3d ce c6 2b 3c ce 8f 2f bd
       0.011336476 0.052750017 0.01048441 -0.042861752
000360 f8 b7 28 3d 75 dd c4 bb 40 70 94 3b 52 37 1c 3d
       0.04119107 -0.006007845 0.004529983 0.038138695
000370 52 f1 2c bd 18 3a 42 3d 84 70 7d 3d 9e 03 83 3c
       -0.04222233 0.047418684 0.06187488 0.015992936
000380 ae 75 30 bd 6e 8f d3 bc 84 32 af 3c be c7 12 3d
       -0.043080978 -0.025825229 0.021386392 0.03583502
000390 12 f9 3c bd f3 75 39 3d 93 72 dd ba 70 ad dd bc
       -0.04613597 0.0452785 -0.0016895108 -0.02706024
0003a0 8a 8c 2a bd 04 91 cd 3c 94 0a 5f 3d e8 8f 56 bd
       -0.041637935 0.025093563 0.054453447 -0.052383333
0003b0 ce d3 71 bd 80 d6 42 bc 00 67 16 bb 78 e2 27 bd
       -0.059039883 -0.011891961 -0.0022949576 -0.04098746
0003c0 34 81 20 3c c0 1d 35 bb f4 93 f6 3c 25 db c1 bb
       0.009796429 -0.002763614 0.030099846 -0.0059160166
0003d0 29 91 ac b9 e1 c0 05 3d 92 5c 0c 3d 87 80 9b bc
       -0.0003291455 0.032654647 0.03426797 -0.018982185
0003e0 c2 9a 76 3d 78 f0 11 bc 6c 3d 97 bc fe 33 61 bd
       0.060206182 -0.00890743 -0.018461905 -0.054981224
0003f0 30 4d 29 3d 50 7f 91 bb 9b 58 5c bd c0 d3 5d bd
       0.041333377 -0.0044402257 -0.05379544 -0.05415702

bias f4 [128]
000000 37 a2 15 3d 17 77 ac bc 27 ce 27 bd 38 6b d3 3c
       0.036531653 -0.02105288 -0.040968087 0.025807962
000010 47 fa 11 3d e4 2d a3 3c ea 63 25 bd ab c9 4d bb
       0.035639074 0.019919343 -0.04037849 -0.003140072
000020 2f 55 b2 3e 9a 90 7f bd e5 2e 9a 3e 1e 7e 93 bc
       0.34830615 -0.062393762 0.30113903 -0.018004473
000030 13 6c b2 3e 46 b2 0b 3d 53 79 32 bd cf f5 3f 3e
       0.3484808 0.03410556 -0.043572735 0.18746112
000040 9f cd 4a be d8 fc 91 3e 34 16 82 3c 45 33 82 3d
       -0.19805 0.28513217 0.015879728 0.06357435
000050 07 9d 01 3d 08 bd 50 bc b0 37 a5 be c3 21 c6 3d
       0.031643894 -0.012740381 -0.3226905 0.09674408
000060 cf d3 0a bd 10 07 cf 3b 50 4d 70 3d 4e 2e 83 3e
       -0.033893403 0.0063179806 0.05866748 0.25621265
000070 d0 99 36 bd 66 c9 0f 3d c9 33 44 3e c8 20 54 bc
       -0.04458028 0.035104178 0.1916038 -0.012947269
000080 c8 7c a1 be e3 01 85 3b 5c 8c 02 bd d0 d1 89 bd
       -0.31540513 0.004059063 -0.03187214 -0.06729472
000090 74 4c 71 bd 5b 6c b7 bc 4d 22 63 bc 80 72 b7 be
       -0.058910802 -0.022390535 -0.013863158 -0.35829544
0000a0 80 6b 28 bd f2 68 22 bc a6 c3 21 bd a4 f3 f9 3c
       -0.041118145 -0.009912716 -0.039493226 0.030511685
0000b0 50 f5 58 bd 60 ef 56 3c d5 67 24 3d 20 4e 7d bb
       -0.052968323 0.013118595 0.040138084 -0.0038651302
0000c0 cb 28 c2 3d b1 d6 a6 bd 0e 33 e1 3d 39 87 12 3e
       0.09480437 -0.08146418 0.10996066 0.14309396
0000d0 ce 93 86 be fe 7d 14 bd d4 25 00 bc cd d3 66 3d
       -0.2628464 -0.036252968 -0.007821519 0.056354333
0000e0 97 77 18 3d dd 46 83 bd 37 80 ac 3c 0f 01 a2 bc
       0.037223425 -0.064100005 0.021057231 -0.019775895
0000f0 38 03 9b 3e 47 a3 2e 3b bf 2f 37 bd b0 50 bc bc
       0.30275893 0.0026647614 -0.04472327 -0.022987694
000100 80 66 4d ba 81 88 3e be 94 d9 a9 3e d1 1a a6 bd
       -0.0007835403 -0.1860676 0.3317381 -0.081105836
000110 8b b4 c8 3e 1b 27 ae bd 51 5d 88 bd 8f 4c 4b 3e
       0.39200243 -0.085035525 -0.06658424 0.19853424
000120 41 70 c1 3e 10 1f 9b 3c 3f 09 7b 3e fd 37 85 3e
       0.37780955 0.01893571 0.24515246 0.26019278
000130 66 f6 d3 3b 75 fb 99 bc 1f 25 2a bd 8b 31 9f bd
       0.006468582 -0.018796662 -0.041539308 -0.077731214
000140 6e e8 30 3e c5 6d 5b 3c 70 8c 25 3c 90 ed a4 3e
       0.17276165 0.01339287 0.010104284 0.32212496
000150 81 ce d8 bb f9 56 98 3e 45 b5 63 bd 0b 73 0a bd
       -0.006616414 0.29753855 -0.055592794 -0.03380112
000160 d1 72 29 bd a1 b4 cb 3b 99 f7 7e 3e 12 4f 08 3d
       -0.041369263 0.006216601 0.24899139 0.033278532
000170 ab dd 7d 3c 60 67 4e 3b e7 c4 23 be 5d ad 41 be
       0.015494744 0.0031494722 -0.15993081 -0.18913789
000180 d0 86 d5 3b 38 a1 51 be 3e 2f 90 3c b4 96 5e 3d
       0.006516315 -0.20471656 0.017600652 0.05434294
000190 48 ba 54 bd 14 cc 0d bd 57 de f2 3d c1 7b 6d 3e
       -0.051935464 -0.034618452 0.11858814 0.2319174
0001a0 90 36 b5 bc 73 7b 05 3d c1 b3 44 bc 8a 85 17 3d
       -0.022120744 0.032588433 -0.012005747 0.036992587
0001b0 0f 18 25 3d 0d 83 0f 3e ac 9f 52 3d 65 a0 93 be
       0.040306147 0.14014836 0.051421806 -0.2883331
0001c0 bc 36 81 3e c1 bd 9b 3e 6f 69 22 3d 88 a6 1a 3d
       0.25237072 0.30418208 0.03965133 0.037756473
0001d0 16 77 85 bd dd 79 c7 3c ce cf 30 3c 7a d0 03 be
       -0.065168545 0.024350101 0.010791732 -0.12872496
0001e0 23 96 a3 bd 62 d6 3c bc 24 fa b7 3c 80 7b f6 ba
       -0.07987621 -0.011525722 0.022458144 -0.0018805116
0001f0 02 23 cd 3d 2c 82 c2 bd 37 06 29 3d 5c 7a ff bc
       0.10016443 -0.094974846 0.041265693 -0.031186275

weight f4 [128, 128]
000000 86 19 0f 3c 2b 1e 1f bd a9 d9 49 bd 31 ea e6 3c
       0.008734113 -0.03884713 -0.049279843 0.028187843
000010 00 ec b0 3c fb 49 0b bc 70 36 3d bd 5c 6c 51 3d
       0.021596909 -0.008501525 -0.046194494 0.05112873
000020 44 c2 5c 3c de 52 9b 3c 1b f5 68 3d e9 5b a7 3c
       0.013474051 0.018960413 0.056874376 0.020429568
000030 af 16 5b bd 48 88 07 bd af b7 04 bd a6 e7 8a bd
       -0.05348843 -0.033088952 -0.032401737 -0.06782465
000040 8d 59 c1 bd 30 23 b3 bc 09 6a 1d bd 06 81 07 bc
       -0.094409086 -0.021867365 -0.0384312 -0.008270508
000050 5f f6 4a bd e5 f2 5c 3d f2 c6 05 bd d9 cd a4 bd
       -0.049551364 0.05394258 -0.032660432 -0.08047075
000060 f7 9f 02 3c 1e 1d 08 bc fe 90 a9 3d c4 cf 50 3d
       0.007972709 -0.008307723 0.08279608 0.05097939
000070 95 8e ab 3d 3e 4a 4f bd d6 e3 e4 bd d7 c7 a4 3d
       0.08376805 -0.050607912 -0.11176269 0.08045929
000080 ea 78 d9 bc 64 79 4e bd 66 b0 b1 bc 9b f9 7e 3d
       -0.026546914 -0.050408736 -0.021690559 0.06224976
000090 65 eb 49 3d 32 2c a8 bb f9 07 cb bd 13 4e 01 be
       0.049296755 -0.0051322216 -0.0991363 -0.12627439
0000a0 cf ed 9b 3d 2a 4c 98 bd 33 04 ac bd 92 a1 cf 3c
       0.07613718 -0.07436402 -0.083992384 0.025345597
0000b0 34 8b 7e 3d 39 49 88 bd 1d 9b b3 3d e1 62 a2 bd
       0.062144473 -0.06654591 0.0876982 -0.07929016
0000c0 4a d5 82 3c 27 66 48 bd 05 e9 25 bd b4 0f 8e bd
       0.015970845 -0.048925545 -0.040505428 -0.06936589
0000d0 7d 3d 87 3d 56 a8 bd 3c 55 c1 c1 bb 41 a9 74 3d
       0.06603525 0.023151558 -0.0059129396 0.059731726
0000e0 af 27 b1 3c ed 21 51 3d b0 99 2c ba 3b c6 03 bd
       0.021625368 0.051057745 -0.00065841805 -0.03217147
0000f0 ed de 60 bc c9 f2 8b bd dd c3 37 bd a8 8a 85 bd
       -0.013725025 -0.06833417 -0.044864524 -0.06520587
000100 4d 64 97 3c aa 1b 75 bd a1 d8 e3 bc d3 ea f6 bd
       0.018480444 -0.059840836 -0.027813258 -0.12056508
000110 63 96 b5 3b 87 0b 60 3d 38 4c b8 bc 39 47 aa bd
       0.005541609 0.054698493 -0.022497281 -0.08314366
000120 7d 12 ca bd 5a 9f 7d bd 32 ad ab bc 01 2e ae bd
       -0.098668076 -0.061919548 -0.02095661 -0.08504868
000130 de ca a5 bc 43 0f 6d 3b 4e 4d 5d 3d e4 8c b3 3d
       -0.020238336 0.0036172427 0.0540288 0.08767107
000140 f9 d2 86 bc 94 82 a7 3d c3 d1 23 3d 81 c1 3c bd
       -0.016458021 0.08179203 0.039994966 -0.046082977
000150 8a 7e 3d bd a3 7c a1 bd f8 96 83 3d 39 1d 6c 3d
       -0.046263255 -0.07885101 0.064252794 0.057645056
000160 12 6c b0 bd 74 c1 90 bd 36 81 e8 bd 4a 2f 8e bd
       -0.08614363 -0.07068148 -0.1135277 -0.069426134
000170 9d 33 ed bc 46 28 e1 3c e9 b3 70 3c bc 2f ab bd
       -0.028955275 0.027485024 0.014691331 -0.08358714
000180 7f f7 7f 3d 64 09 d1 bd 71 05 8e bd 88 cf cf ba
       0.06249189 -0.10206869 -0.069346316 -0.0015854696
000190 8a 4d a2 bd 98 7c 05 bd d4 64 8d 3c fb e2 49 3c
       -0.07924946 -0.032589525 0.017259993 0.012322183
0001a0 47 5e a6 3c f6 7d 42 3d 2f 11 a8 bd 3b 55 3f bd
       0.020308627 0.047483407 -0.082064025 -0.04671214
0001b0 48 40 3a bd d2 03 80 bd 38 59 e5 bc 4b 90 cb bd
       -0.04547146 -0.06250729 -0.027996644 -0.09939631
0001c0 2b f6 3b 3c b4 3d c0 3c ec bf 16 bd 4e a9 6e bd
       0.011472265 0.023466922 -0.036804125 -0.05826693
0001d0 b5 79 b7 bc 26 18 59 bd 5a 65 80 bc 51 03 ba 3c
       -0.022396902 -0.053001545 -0.015673328 0.02270666
0001e0 8e 6f 51 bc 6c 23 f0 3b 75 39 b0 3d 1c 31 72 bd
       -0.012782944 0.0073284414 0.08604709 -0.059128866
0001f0 7b d7 82 bd 35 42 e0 bd cd 33 d2 bc 5e df 6e bd
       -0.06388756 -0.10950128 -0.025659466 -0.05831849
000200 6f 60 14 3d 45 de 60 3b d9 15 95 3d 19 72 31 3d
       0.03622478 0.003431217 0.07279558 0.043321703
000210 ee f7 87 3c 56 f0 89 3d c8 c3 f3 3b ea e3 92 bd
       0.016597714 0.067352936 0.0074391104 -0.071723774
000220 b1 39 72 bc ef 27 0a 3c 47 62 e8 3c b5 31 86 3d
       -0.0147842625 0.0084323725 0.028367175 0.065524496
000230 b4 a1 63 bd ab 94 10 bd 97 88 34 bb 66 d7 9d bd
       -0.055574134 -0.03529803 -0.0027547234 -0.077070996
000240 58 5d 27 bd 32 3f 88 bd d6 d8 9b bd 8f 91 10 3d
       -0.040860504 -0.066526785 -0.076097175 0.035295065
000250 fa 37 66 bd c2 c6 a9 3b 4a 4c 8d 3c b2 38 e7 3a
       -0.056205727 0.0051811645 0.017248292 0.0017640798
000260 eb 71 16 bd 55 f3 6c bb 05 a4 2c 3d 7a c1 17 3d
       -0.036729734 -0.003615578 0.04214861 0.037049748
000270 47 44 ec 3c d0 08 0c bd 2a 0c c7 bc e9 d9 44 3b
       0.02884115 -0.03418809 -0.024297792 0.003003711
000280 63 b9 3a bd 50 5f 9d bd 62 10 8b 3d e7 10 4d 3d
       -0.045586955 -0.07684195 0.06790234 0.050064947
000290 8f 49 6e 3d 0d 72 95 3d 5b 62 a3 bd 57 5b e7 3c
       0.05817562 0.07297144 -0.07977744 0.028241796
0002a0 28 a2 7f 3d 02 04 68 3c b2 f0 9c 3d 52 2f 22 3d
       0.062410504 0.014161112 0.076630965 0.03959591
0002b0 86 ee f7 3b 23 bc bd bb a3 eb 53 bc 70 72 9d 3d
       0.007566276 -0.00579025 -0.012934598 0.07687843
0002c0 8d ea b7 bd 7b 62 8c 3c 1e 20 5e 3c 9a 02 27 bd
       -0.08980284 0.017136803 0.013557462 -0.040773965
0002d0 06 13 84 3d d6 fb 03 bd ee ad 50 3d 54 1b 57 3d
       0.06448941 -0.03222259 0.050947122 0.052516297
0002e0 19 2d 80 ba 2f 81 13 bc 0f a1 8c 3d 23 87 39 3d
       -0.0009779065 -0.009002968 0.06866657 0.045294892
0002f0 57 5b a4 bd d1 93 2f 3d da 98 0b bd 6a 32 2f bd
       -0.08025234 0.042865578 -0.034081317 -0.042772688
000300 37 dd 2c bb d9 57 9a 3c 5c f0 72 3d 28 65 03 bc
       -0.0026376972 0.018840717 0.059311256 -0.008019723
000310 10 7b bf 3b a6 4d c2 3c f2 d8 64 3d 4f 45 9b bd
       0.0058435276 0.023718666 0.055870958 -0.07581579
000320 58 3e 7f bd a6 c4 a6 3d 86 48 0e bd bf b6 36 3d
       -0.062315315 0.081429765 -0.034737132 0.044607874
000330 a9 a8 41 bd 4e 44 90 3d 34 6e a7 bd 4f da b7 3c
       -0.047279987 0.07044278 -0.081753165 0.022442965
000340 da 83 d2 bd 08 39 40 bd e2 90 dc bc 93 e3 a8 bd
       -0.10279055 -0.04692939 -0.026924554 -0.08246531
000350 81 db 8f 3d ae f0 2f bd 35 03 91 bd ad dd 9a bd
       0.07024289 -0.04295414 -0.0708069 -0.075618125
000360 c9 58 79 bc 4a 9d d6 bc db df 5e 3d 8e a7 36 39
       -0.015218922 -0.026198048 0.054412704 0.00017419292
000370 f6 df d0 bb 72 b4 61 bd 97 ed 2c 3d 80 57 9b bd
       -0.0063743545 -0.055103727 0.04221877 -0.07585049
000380 ff 40 31 bd 36 be b7 ba 87 5b aa bd 55 e5 bc 3c
       -0.043274876 -0.0014018479 -0.08318239 0.023058573
000390 02 9a 54 bb 15 48 91 bd a3 3e 8e 3d 9d 9f e8 3c
       -0.0032440429 -0.07093827 0.06945541 0.028396422
0003a0 c9 6b 62 bd 8b 01 8b 3c 0d a7 a3 bd 97 6a a0 3d
       -0.055278573 0.01696851 -0.07990847 0.078328304
0003b0 a6 3c c3 bc 95 bf ed bd 16 b8 0c 3b 10 4b c4 3c
       -0.02383263 -0.11608807 0.0021472028 0.023961574
0003c0 c9 e0 6c bc 76 1f 0c 3d 26 61 8d bd d2 40 ee 3c
       -0.01445789 0.03420969 -0.06903295 0.029083643
0003d0 15 2e 07 bc 5c de 9f bd 2c 6f 9d 3d ef 59 6c bd
       -0.008250733 -0.078060836 0.0768722 -0.057702955
0003e0 57 5c 88 3d 30 33 c7 bb 86 27 7c 3d 28 fe a5 3c
       0.066582374 -0.0060791 0.06156113 0.020262793
0003f0 16 db 39 bd fe 05 03 bd fc 11 3e 3b 82 da 69 3d
       -0.045374952 -0.031988136 0.0029002419 0.05709315

bias f4 [128]
000000 dc 6c 88 bc f5 e8 36 3d c5 05 cd 3c e8 89 64 3e
       -0.01665347 0.04465576 0.025027165 0.22318232
000010 90 73 04 be 6f 53 16 be 26 cf b2 bd d8 bf 6b 3c
       -0.12934709 -0.14680265 -0.08730917 0.014389001
000020 bc 0c 8e 3e 48 de 62 3d f3 7d 62 3d df 2d 50 3e
       0.2774409 0.055387765 0.055295896 0.20329998
000030 ab 4c 8b 3e a6 a9 61 3d 04 6c 81 3e 45 70 d4 3d
       0.2720693 0.05509343 0.25277722 0.10372976
000040 a2 c8 2a 3e 45 f9 57 3d 8b 88 48 ba d0 c9 32 3c
       0.16678098 0.052727956 -0.0007649741 0.010912374
000050 ca f9 aa 3e 7f 29 a3 bd 92 19 07 bd a9 38 e7 39
       0.333937 -0.07966899 -0.03298337 0.00044101969
000060 e9 d5 d5 bc c4 da 42 3e e8 8d 28 3e 85 1d 8c bd
       -0.026102977 0.19028765 0.16460383 -0.06841568
000070 39 54 d2 bb b1 a8 c5 3d 3d 85 b8 bd 5e 45 33 bd
       -0.0064187315 0.09651316 -0.09009788 -0.043767326
000080 f5 f5 a6 3d 5c ff fe bc e2 5f 18 3c b5 e5 8f bd
       0.08152381 -0.031127624 0.009300204 -0.07026235
000090 bc d7 66 bb dd 4a 8a 3d 08 18 31 bd 29 d5 fc bc
       -0.0035223803 0.0675256 -0.04323581 -0.030863361
0000a0 09 59 00 3d 42 0e 2e bd f8 09 8b bd 80 0f c9 3a
       0.03133491 -0.042494066 -0.06789011 0.0015339702
0000b0 36 50 dd bc cd ec 4e 3c d6 94 8c 3a e5 ac 8d 3d
       -0.027015787 0.0126297 0.0010725509 0.06917743
0000c0 b5 cd 8a 3e 41 55 81 bd 6d e9 18 3c 17 a5 8b 3d
       0.27110067 -0.06315089 0.009332997 0.06818598
0000d0 fc c5 d1 bd 79 e3 70 3d d5 f2 8e 3d 7d 2c 73 bd
       -0.10242841 0.058810685 0.0697991 -0.0593686
0000e0 7c 81 5c 3d b2 ee a4 3d 44 03 2c 3d e3 a0 47 bd
       0.053834423 0.0805334 0.0419953 -0.048737418
0000f0 a1 1e 21 be f4 89 22 3e c7 56 2a 3c cc df 29 3d
       -0.1573434 0.15872937 0.010396666 0.041473195
000100 49 99 33 3e bf 89 44 bc df df 3a bd 60 32 47 bd
       0.17538942 -0.011995732 -0.045623656 -0.048632026
000110 d1 e4 16 3c 65 a7 8a bc 06 b0 76 bd da a5 4c 3d
       0.0092098275 -0.016925523 -0.060226463 0.049962856
000120 9b ad 1e bd d2 e8 07 3d 1c 8d f2 3b b6 bf 5f bd
       -0.03873978 0.03318102 0.0074020755 -0.05462619
000130 01 fd ba bd ca 5a a9 3d ab c9 94 3e f2 ec 4b be
       -0.09130288 0.0826927 0.2906011 -0.19914606
000140 ab 4d bc bd dc 4b a1 3c 27 a0 a3 3e cc 0f 86 bd
       -0.091945015 0.019689493 0.31958124 -0.06545982
000150 65 bc c5 3c 79 c6 97 3e 4d d6 0f 3d 9e f1 9d bd
       0.024137685 0.2964361 0.035116483 -0.077121004
000160 bb 0d da bd 4b a3 c5 3e 30 81 c9 3d 13 b1 0a 3d
       -0.1064715 0.38601145 0.09839094 0.033860277
000170 b5 58 7e 3b 3b ff b4 3d 47 cd 5e 3d f1 3c 20 3e
       0.0038810198 0.08837744 0.054394986 0.15648247
000180 7f 39 3f bd 37 f4 00 bd 2b a1 a0 3e 8e 8e e6 3d
       -0.046685692 -0.0314829 0.3137296 0.11257659
000190 a3 40 1a 3d 35 3a 8c bd 7f e8 ab bc 73 b5 8f 3b
       0.0376593 -0.068470396 -0.020984886 0.004385644
0001a0 e1 a9 25 3d 47 78 af bd 91 fa b6 bd 8d 35 87 3c
       0.040445212 -0.08567863 -0.089345105 0.016505027
0001b0 bc d6 4c bc dc 03 57 bd f6 19 56 bd 45 35 90 3e
       -0.012502369 -0.052493915 -0.052270852 0.2816564
0001c0 f7 92 b8 bc 40 99 53 bc 09 4e 2b 3e 46 5e a1 bd
       -0.022531016 -0.012914956 0.16728987 -0.07879309
0001d0 27 e1 82 bd f6 9f ad bc 91 4d d0 3e 05 e8 b0 3d
       -0.06390601 -0.02119444 0.40684178 0.08638004
0001e0 a5 d2 84 bd 5c af 3f 3d ef 8e b3 bd 1b bc 30 bd
       -0.0648549 0.046798095 -0.08767497 -0.04314814
0001f0 c9 32 9a bd ae 0a ab bc 61 d3 06 bd e6 f9 33 3e
       -0.07529218 -0.020879116 -0.03291643 0.17575797

weight f4 [128, 128]
000000 67 3a 32 3d 65 3a e9 3b 38 20 84 bd 3c c5 17 bd
       0.043512728 0.007117557 -0.06451458 -0.03705333
000010 0d b3 af bd e2 09 e9 bc 88 1a 1a 3d a5 df 3e 3d
       -0.08579073 -0.028447095 0.03762296 0.046600003
000020 da e0 10 3e 8e a0 07 bd 45 97 2c bd 93 8a d4 3c
       0.14148274 -0.0331121 -0.04213645 0.025944984
000030 c2 51 61 3d af 61 b7 3d c4 c3 ae 3d 91 43 94 3d
       0.05500961 0.089541785 0.08533433 0.0723945
000040 ab 72 e7 3d cd 5a 6c bd 72 86 86 bd d3 ff 60 bc
       0.11301168 -0.057703782 -0.06568612 -0.013732868
000050 fd 6d cf 3c 69 68 e8 3c ee 8e 2c 3d 1d 09 6e bd
       0.025321001 0.0283701 0.042128496 -0.05811416
000060 f0 9e 88 3d 92 d0 6f 3d cc 85 ad 3d dd 18 2b bd
       0.0667094 0.058548518 0.08472785 -0.04177176
000070 5d 46 65 bc 69 be a9 3b 7f 00 24 3d f0 a5 40 bd
       -0.013993827 0.0051801694 0.040039536 -0.04703325
000080 fd 25 b4 3d b1 e1 96 3b c4 af 9f bc 68 9f 0a bd
       0.08796308 0.004604541 -0.019492991 -0.033843428
000090 13 90 0a bc 52 31 1a 3d ea 6b a4 bc b0 59 09 bd
       -0.0084572015 0.03764469 -0.020070989 -0.0335328
0000a0 e4 7f be bd d0 68 3d bd 30 3e a2 bd 65 42 76 3c
       -0.09301737 -0.046242535 -0.079220176 0.015030478
0000b0 e2 d5 35 bc 2e 44 96 3d f0 ba 87 bd a5 79 4f 3d
       -0.011098357 0.07337223 -0.066274524 0.05065312
0000c0 5f 90 5b 3d e1 90 8a bc 13 f0 a0 3c ea 41 1c bd
       0.05360448 -0.016914787 0.019645726 -0.038148798
0000d0 9f a3 20 bd c5 05 31 bd 7e 40 92 3d 11 40 d9 bc
       -0.03921854 -0.043218393 0.07141207 -0.026519807
0000e0 0e b6 4a 3b b7 bb b2 bc 11 9c 11 bd a1 c9 7a bd
       0.0030931267 -0.021818025 -0.035549227 -0.061227445
0000f0 63 71 85 3b f8 b4 b7 3d 5b be a9 bd 7b eb 5f bd
       0.0040723546 0.08970064 -0.082882605 -0.05466793
000100 ee 68 4f 3d 87 ad 3c 3b 7f 27 d9 3c dd ab 78 bd
       0.050637178 0.0028789954 0.026508091 -0.060710777
000110 b9 1f 30 3d 7b 3b d9 ba a0 e4 82 bc 67 4e 78 bd
       0.042999003 -0.0016573513 -0.015978158 -0.060621645
000120 4f ce d1 3c 0b b5 2d bd aa 0b a8 bc b4 1a 37 bd
       0.02561107 -0.042408984 -0.020513374 -0.0447032
000130 00 a3 86 bd 5d 5c 99 3d f2 d0 1f 3e 5a e5 99 bd
       -0.065740585 0.0748832 0.1560705 -0.075144485
000140 ae d9 0d bd 4b ea 88 bd f2 b3 80 3c cb 0d aa 3d
       -0.034631424 -0.06685313 0.015710805 0.08303412
000150 ae b8 4a 3d 47 47 28 3e 2d 5c 2c 3d 33 b6 3f 3d
       0.04949253 0.1643344 0.042080093 0.046804618
000160 a9 02 39 3d 8c fb cc 3d ec e3 e9 3d 43 b2 64 3d
       0.045168553 0.10008916 0.11420426 0.055834066
000170 ef 91 ad 3c 5d 61 67 bb c9 b5 f3 3b df 0e 82 3d
       0.02118775 -0.0035305836 0.007437442 0.06350493
000180 80 b0 9e bd 8b 51 a7 bc 61 62 1d 3e c4 11 36 3d
       -0.077485085 -0.020424625 0.1536956 0.044450536
000190 f7 90 08 bc c9 7e 05 3e 19 f8 70 3d 22 b5 e6 bb
       -0.008335344 0.13036646 0.058830354 -0.0070406357
0001a0 2a 5f 2d 3c 65 31 93 3c c0 0c 3c bd b2 2c 80 bc
       0.010581771 0.01796789 -0.045910597 -0.015646312
0001b0 1f 1a 93 3b 58 e2 49 bd 15 9c 6c bd b2 73 b5 3d
       0.004489198 -0.049288124 -0.05776604 0.08859958
0001c0 b9 a9 a5 bd cd 56 c7 3c 15 5c 95 3d 55 06 8f 3d
       -0.08089013 0.024333382 0.07292954 0.069836296
0001d0 7e c3 6c bd 6e b2 72 3b 99 c8 1f 3e a8 e2 ac ba
       -0.057803623 0.0037032622 0.15603866 -0.0013190107
0001e0 1f 63 a4 bd ee 27 4d 3d 0c a3 2b bd e2 62 b1 3c
       -0.08026718 0.050086908 -0.04190354 0.021653596
0001f0 37 a8 49 bc b4 9e 76 3d 28 ca fa 3c 4a 57 08 3e
       -0.012308172 0.060209945 0.030613974 0.13314548
000200 9d 55 9b bd f7 6c 8b bd 02 c8 a7 bc 1d 38 05 bb
       -0.07584689 -0.06807893 -0.020481113 -0.0020327636
000210 d4 ab 06 3b 62 13 d4 bd 52 b8 ea bc b0 61 29 3c
       0.0020549195 -0.103552595 -0.028652344 0.010338232
000220 65 2e 5f bc f1 ad 97 3d ac 8b ae bd b8 35 e4 bd
       -0.013621901 0.074062236 -0.08522734 -0.111430585
000230 bb 85 bd bd 35 2e d6 bc dd 62 94 bc b6 08 b6 bd
       -0.09254023 -0.02614508 -0.018113548 -0.0888838
000240 8e e6 21 bd 9b 5d 96 3d f6 85 ac bd 53 84 75 3d
       -0.039526515 0.073420726 -0.084239885 0.059940647
000250 b6 01 a7 bc 84 bd 2a bc 96 b2 df bd 29 db ce bc
       -0.020386558 -0.010421161 -0.109227344 -0.025250988
000260 aa 3d 04 bd b1 58 56 3d fa 75 78 3c 75 bc b0 3d
       -0.03228537 0.052330676 0.015164847 0.08629695
000270 62 3c 96 3d 67 ba ba bc 89 e7 98 3d b7 04 96 3c
       0.07335736 -0.022793962 0.07466037 0.018312795
000280 6d ac 88 3d 28 f0 30 bc c2 8e b3 3c 7b aa a8 bc
       0.066735126 -0.010799445 0.021918658 -0.020589104
000290 71 e3 1a bd f2 1a 03 3d b4 83 e2 3a f6 3b 00 3d
       -0.03781456 0.03200812 0.0017281682 0.031307183
0002a0 70 66 8e bc 26 2d 82 3b 21 a7 03 3d f3 c3 99 bc
       -0.01738283 0.0039726673 0.03214181 -0.018770194
0002b0 16 ef 7b bd 10 e5 45 bc a4 42 12 3d ea 45 55 3d
       -0.061507307 -0.012078539 0.035708085 0.05206863
0002c0 8a cb d1 bd d6 c1 43 bc 09 e0 a1 3c 40 41 3e 3c
       -0.102439 -0.01194807 0.019760149 0.0116122365
0002d0 3f df db 3c 33 69 f5 3b 8c 96 74 bd 13 22 82 bd
       0.02683985 0.0074893474 -0.059713885 -0.063541554
0002e0 4d 11 84 3d ab eb 97 3d 0d b5 ac bb a8 33 71 3c
       0.06448612 0.07417997 -0.0052706064 0.0147217885
0002f0 af 3e 0e 3d 08 ec 89 bc 65 14 9a 3d c0 9f 05 3d
       0.03472775 -0.016836181 0.07523421 0.032623053
000300 70 d8 cd bb 27 8c 69 bd f1 fb fe bb e2 6a b9 3c
       -0.006281905 -0.057018425 -0.0077814986 0.022633974
000310 fd a1 ba 3c 14 52 84 3d 2b a5 ed bb 8c 56 ed bc
       0.02278232 0.06460968 -0.0072523556 -0.028971933
000320 84 83 8e 3d 06 15 af 3b 3a 6c 8a 3c 0a c6 f7 bc
       0.06958678 0.0053430824 0.01689731 -0.0302458
000330 dd cd 60 bd d5 7e 9e bd bc 3c 52 3d 09 a3 e5 3b
       -0.054883827 -0.07739035 0.051327452 0.0070079607
000340 c0 a0 60 3a b4 72 14 bc 26 a0 db bd 56 5c 17 3d
       0.00085688755 -0.0090605505 -0.10723905 0.036953293
000350 91 23 e1 ba 6c 89 2c 3c 58 24 b4 3c 36 8f 90 3d
       -0.0017176737 0.010530811 0.021989986 0.07058565
000360 b3 ea a6 3c aa 82 d9 bd 1b 2a 1e bd 2c 3e 80 bb
       0.020375585 -0.10620625 -0.038614374 -0.0039136615
000370 a8 da 3c 3d 16 b5 4e bd eb 0b 59 3b a8 d6 54 bc
       0.046106964 -0.050465666 0.0033118676 -0.012990631
000380 8f 0f 04 3d 89 b7 77 bd 92 e2 d9 bd 9a 06 bc bd
       0.0322414 -0.060477767 -0.10638918 -0.09180947
000390 fc 1f 01 be d3 4a a9 bd ed a6 0e 3d c1 b6 8e bd
       -0.12609857 -0.08266225 0.03482716 -0.06968451
0003a0 69 74 1d 3d 64 01 1c b8 36 8e 1f bd 0a 47 e4 bc
       0.038441096 -3.7194593e-05 -0.038953982 -0.027865905
0003b0 fe 65 5c bb f7 c0 fa bc 9b 99 85 bb ab b2 ad bd
       -0.0033630128 -0.030609591 -0.004077149 -0.08481344
0003c0 85 ec 04 bd 09 56 4e 3d 7f 9a 64 3d ea bf 20 bd
       -0.032452125 0.05037502 0.0558114 -0.039245524
0003d0 e4 ad 3c 3d d9 33 07 bd ed f3 00 bb c6 d6 bb 3c
       0.046064273 -0.03300843 -0.001967664 0.02292956
0003e0 a8 3a 92 bd ea 2e f8 bc 1e d7 cc 3a 66 f6 a5 3c
       -0.07140094 -0.030295808 0.0015628075 0.020259093
0003f0 76 47 f4 bb d7 30 62 bc 1d 5b a1 bd c6 57 91 3d
       -0.007454808 -0.01380559 -0.078787066 0.070968196

bias f4 [128]
000000 a3 d1 bb 3d 67 eb b6 3b ab 2a 77 bd 20 46 a5 3e
       0.091708444 0.0055822614 -0.060343426 0.32280064
000010 79 70 11 bd c5 eb ef 3c 0c ff d4 bd 7f dc 7d 3d
       -0.035507653 0.029287228 -0.10400209 0.06197786
000020 86 0f 63 bd 19 45 39 3e c8 12 72 bd 9c f6 c5 bd
       -0.055434726 0.18092765 -0.059099942 -0.09666178
000030 de ae 8e 3d 2d fc 61 3d 96 5a fc bc 8e 32 05 3e
       0.06966947 0.055172134 -0.030804913 0.13007566
000040 16 72 af bd b0 cf 94 bd 35 95 16 bd e6 38 c5 3e
       -0.08566682 -0.07266176 -0.03676339 0.38519973
000050 a1 9e 13 bd b4 5b ae 3d 45 14 cd bd 12 ea 18 3d
       -0.036039952 0.08513585 -0.10013632 0.0373326
000060 eb 7a 03 bd 23 a9 85 bc d6 63 0f 3d 6c df a6 3c
       -0.032099646 -0.016316002 0.03500732 0.020370208
000070 2a fb 40 3e fa a3 c7 bc a9 8a 6a bd 92 3a 04 bc
       0.18845811 -0.024370182 -0.057261143 -0.008070605
000080 16 6c 8d bd 9c 50 11 bd f0 25 29 bd 41 1c 15 bd
       -0.069053814 -0.035477266 -0.041295946 -0.0364039
000090 c0 90 96 3d ef 48 9e bd 79 cb c7 3c b7 c8 b2 bd
       0.073518276 -0.07728755 0.024389016 -0.087296896
0000a0 4b 57 5a 3c 1f 4d 2e 3d 49 49 66 bd 2c 31 73 bc
       0.013326476 0.042554017 -0.056222234 -0.014843266
0000b0 1f 30 ed bb d5 50 de 3d c8 4f 66 3c 45 df 02 3e
       -0.0072384025 0.10855261 0.014057107 0.12780483
0000c0 10 14 4f bd 94 0c 77 bd 27 d9 d4 bb 5a 54 11 3d
       -0.050556242 -0.06031473 -0.006495613 0.035480835
0000d0 cf e3 bf bd ae ab 7e 3c f0 df 1c 3e d4 79 f3 3d
       -0.09369623 0.015543861 0.153198 0.11888471
0000e0 4a 47 15 bc 62 5c 10 bd d1 8a c2 bc ca 2d 72 bd
       -0.009111235 -0.035244353 -0.023747833 -0.0591257
0000f0 ef b7 49 3e 2b 64 dd 3c b3 f4 c4 3c 76 be 76 bc
       0.19699071 0.027025303 0.024042463 -0.015060058
000100 06 ca 93 bd 96 1c ef 3d d8 3c 4d 3e 8c c1 2d bd
       -0.07216267 0.11675374 0.20042741 -0.04242091
000110 7f 33 ab 3c df a5 82 bd 78 ac 7e 3d 37 70 5a 3e
       0.020898579 -0.06379294 0.062176198 0.21331869
000120 0f 16 2b 3e b0 ba 79 3d 96 67 05 bc 07 52 6a bd
       0.16707633 0.060969055 -0.008142373 -0.057207134
000130 31 a7 51 3d 75 8f 5a bd a0 34 bb bd 10 88 ba 3c
       0.051184837 -0.053359468 -0.09140897 0.022769958
000140 2c 25 8f bd 32 47 a6 bb 14 97 c5 bc 5e d3 9a bd
       -0.06989512 -0.005074405 -0.024119891 -0.07559846
000150 9a 82 92 3d f8 fb 7a bc 23 d9 46 bb 09 f2 f9 3d
       0.071538165 -0.015318863 -0.0030341826 0.12204368
000160 6f 2d 05 bd 31 d1 a4 bd 9b 6f b6 3b db f7 9d 3c
       -0.032514032 -0.080477126 0.0055675036 0.019283226
000170 9f c9 9b 3c 6d 2d 96 3d ba 24 41 bd 66 ac 09 bd
       0.019017039 0.07332883 -0.047154166 -0.033611678
000180 12 d0 53 bd d3 65 67 bd a8 d9 e5 3d 6e 12 ab 3d
       -0.051712103 -0.05649359 0.11223155 0.083531246
000190 26 6e 3d bd d1 22 8d 3c 74 7f dc bd 69 e4 2a 3e
       -0.046247624 0.017228516 -0.10766497 0.16688694
0001a0 e9 91 93 bd 15 f6 33 3d 00 d6 b3 bc 09 09 b1 bd
       -0.072055645 0.043935854 -0.02195263 -0.086443014
0001b0 2a 18 dc 3c 2d 1b b7 3b 13 a9 53 3d df 65 b8 bd
       0.026866991 0.0055879564 0.051674914 -0.09003805
0001c0 15 a9 63 3d bf 72 63 3d dc 08 77 3e 0a 52 02 bd
       0.05558117 0.055529352 0.24124473 -0.03181652
0001d0 e7 a2 0b 3d a6 7e 3f 3d 19 33 41 3d e5 db 40 bd
       0.034090903 0.04675164 0.04716787 -0.047084708
0001e0 7d ac 52 3d 61 9f 23 3e 0a 04 12 be 4a a0 5f 3d
       0.05143403 0.15978767 -0.14259353 0.054596223
0001f0 b1 1d 47 3c 72 56 b4 3b 16 53 0d 3d b9 33 34 bd
       0.012153075 0.005503469 0.034503065 -0.04399464
