DeepControlledLearning/PolicyWeights/lost_salespoisson_p9_l10_N5000/_gen.pth (torch, 290172 bytes, 10 tensors)

weight f4 [256, 10]
00000000: 3cbc ea3d 1bad 863d c62f f9bd 0859 8bbe
00000010: ee9e 37be 10c9 283e 67b3 3a3e 89ab 85bd
00000020: 9614 6e3e e36b c23d 4946 0abe ac60 953e
00000030: ab74 b33d f5cd 223c 2bb1 583e 2841 353e
00000040: ab3e 983e 12ed 63be d7ab b1be b487 8ebe
00000050: a008 c73d e86e 90be 2a3a b6bd 9cb4 05be
00000060: fdc1 57be f06e bfbd e04d a23e 3208 5c3b
00000070: 1f3b 80bc 0470 d23e 561f 14be 4797 f2bd
00000080: c421 94be 62d9 ba3d d540 6fbe f98b c83d
00000090: c54e 8cbe a496 a0be 5146 963e 2980 51be
000000a0: 0f59 90bc 05b4 27be 4df5 5cbe 14d2 0abe
000000b0: 146c a83d 8b3a f6bd 2186 833e 7073 a23e
000000c0: 92b4 9ebe bfa2 be3e d628 813d 0cfd 973d
000000d0: a35d 0ebe 1d84 a0bd c7f4 72bd 39fc df3d
000000e0: be7f ae3e cb0a 323e 3938 f03c fa26 ddbe
000000f0: b5a6 413d c1ad 3cbe 2ae0 6dbd 8bfd 023e
00000100: c399 31bd 3a30 cd3b 7457 4c3e 92d1 493e
00000110: 5b14 813d 8d2f 59be 6613 d63d fd56 6cbe
00000120: 0a08 da3d c74c 62be 422c 20be 2a4c f73d
00000130: 0f3b 75be 61f1 29be e459 453d 3176 5dbe
00000140: c909 95be 1488 2bbe ce1e 193e 8af4 4a3c
00000150: 2a82 ee3d 2e65 08be f756 96be 3770 1b3e
00000160: 09ab 8bbe e8e4 fe3d 0eef 3d3e 8e18 63be
00000170: 2974 043d 260b 37be 717b adbe f81f 22be
00000180: 1d83 603e 8072 4d3e e448 1a3d 0c04 b03e
00000190: 5885 833d 2bb4 e03c f943 6a3e 0d03 63be
000001a0: 7a3e ce3c de4b 89be cb5a c7bd d1c7 9d3e
000001b0: 344e 1a3d b859 90be 1033 5dbe d2ea 3b3e
000001c0: ec0c 79be 5dca aa3d f979 4f3d f0ee 83be
000001d0: 0f0f ebbc 5cca fd3d a3d9 a3bc 3bca 75be
000001e0: a69a 863d 01c4 23be da1e 953e 684a 59be
000001f0: f58d b43e 74b1 603e f414 273e 98c7 86be
00000200: 0f68 c4bd b626 b1be 97ba 49be ee25 ef3d
00000210: c4cd 8abe 1405 0a39 29aa b23e 5965 c13e
00000220: 8e5d 8a3e 9f10 fdbd 1d5d 003d 220e b4be
00000230: 9d8f 77be ad99 c6bd 3e0d 87be ca74 553c
00000240: 7186 0d3e 70f3 093e d7e0 3ebe 8dd9 ccbd
00000250: f070 2a3e f847 2f3d d70c b8bd 12fa 793d
00000260: ee57 a73e 55e8 9fbe d051 883e b88b c2bc
00000270: db57 4cbd 3db5 65bc d119 433e 6114 b1be
00000280: 559e ed3d 2eba 06be c2cc 4cbc 2d00 d93d
00000290: f45a 093e cb02 8abe 084e 003c ae9c 9b3d
000002a0: 2546 653e 1dc1 c4be d9af 57be 66e6 9fbd
000002b0: 24a2 93be 432f 2f3e 1b25 bcbd f19e 7ebe
000002c0: 9a7b babd 75ba 943b 8f2a ccbd cd03 273e
000002d0: 6dd3 863e e10b a93d 3c2b fabd 6e12 d9bd
000002e0: f9e1 a1be 2c13 4cbe 92a8 aebe 1eb9 19bd
000002f0: 76d7 9bbe bdfa b3bd 4b51 71be 7ee5 eebd
00000300: 23af 243e 0def 31be 7dbc 953e 59d8 acbd
00000310: 817f b5bd 8ced 3b3e 4b14 c4bd bba4 ac3e
00000320: 6eb7 3abb af2f ebb9 0ce2 7ebe 1502 5bbe
00000330: 0103 4d3e ccfc 843e 9cfb 603e 87c7 00bd
00000340: 202e a9bc aefe 4dbe f213 5dbe b17b 59bd
00000350: 714e 1a3e 7ec0 c63d 02e4 313e 4b0f 3abe
00000360: c1d1 88be 7490 90bc a798 b3bd a36b 85be
00000370: 6495 013e dc80 87be 8d40 293e be7c acbe
00000380: 7f84 a13d dd02 78bc 3dd4 bf3d 43cd ed3d
00000390: 5afa 81be bd8c 2b3e a016 26bc 5995 b4bd
000003a0: 4f7c ea3d e074 b939 4dcd 363e 1b35 38be
000003b0: 3dc8 183d a8ec 03bd 6cda 1d3e e837 083d
000003c0: 10b9 4a3e f478 a9bb 6b65 e33d 8a37 ab3d
000003d0: a3e9 e3bd e99f 873d 901c 22be da06 0abe
000003e0: 1b24 c4be 8f48 11be 5762 5d3b 90b8 8dbe
000003f0: 2a0e 903b aed4 8dbd 0d95 71be fc1b 22be
0.11461684 0.06575986 -0.12167315 -0.27216363 -0.1793172 0.1648295 0.18232499 -0.06526858
0.2325004 0.09493234 -0.13503374 0.29175317 0.08762487 0.009936799 0.21161334 0.17700636
0.29735312 -0.22258404 -0.34701416 -0.27837908 0.09718442 -0.28209615 -0.08897813 -0.13057178
-0.21070094 -0.093473315 0.3170004 0.003357422 -0.015653191 0.41101086 -0.14465079 -0.1184526
-0.2893201 0.09123494 -0.23364575 0.09792323 -0.27403846 -0.3136493 0.29350522 -0.20459045
-0.017620591 -0.16377266 -0.2157795 -0.13556701 0.08223739 -0.12022885 0.2568827 0.31728697
-0.3099714 0.3723354 0.06306617 0.07421312 -0.13902907 -0.078376986 -0.05931547 0.109367795
0.34081835 0.1738693 0.029323684 -0.431938 0.047278125 -0.18425657 -0.058075108 0.12792031
-0.04335953 0.0062618526 0.19955236 0.19708851 0.063027106 -0.21209545 0.10452919 -0.23080058
0.106460646 -0.220996 -0.15641883 0.12075074 -0.2394831 -0.16595985 0.04818143 -0.21627118
-0.29109028 -0.16751128 0.14953157 0.012387404 0.116459206 -0.13319847 -0.29363224 0.15179525
-0.27278927 0.12446004 0.18548223 -0.22177336 0.03233734 -0.17875347 -0.3388324 -0.15832508
0.21925016 0.2006321 0.03766717 0.34378088 0.06421918 0.02742966 0.22877492 -0.22169133
0.025176276 -0.26815695 -0.09734114 0.3081651 0.037672237 -0.2819345 -0.2160151 0.18351296
-0.24321336 0.08339379 0.05065343 -0.25768232 -0.028693704 0.123921126 -0.020001238 -0.24002926
0.065724656 -0.15992738 0.291251 -0.2121979 0.35264555 0.21942693 0.16316587 -0.26324153
-0.0959016 -0.34599847 -0.19700085 0.116771564 -0.27110112 0.00013162597 0.34895447 0.37772635
0.27024502 -0.12356686 0.0313388 -0.35167032 -0.24175878 -0.0969728 -0.2637729 0.013028333
0.13820817 0.1347177 -0.18640457 -0.10002432 0.16644645 0.042793244 -0.08986824 0.0610295
0.32684273 -0.31231943 0.26624918 -0.023748264 -0.049888473 -0.014020261 0.19052817 -0.3458586
0.11602465 -0.1315696 -0.01249999 0.10595737 0.13413602 -0.26955256 0.007831104 0.07598244
0.2239004 -0.38428584 -0.21063174 -0.07807617 -0.2883464 0.17107873 -0.09186765 -0.24865319
-0.091056064 0.004538829 -0.09969055 0.16310044 0.2633318 0.08254219 -0.122152776 -0.10599218
-0.31617716 -0.19929188 -0.34112984 -0.037530057 -0.3043782 -0.08788059 -0.23566167 -0.11664866
0.16082434 -0.17376347 0.29245368 -0.084397025 -0.0886221 0.18352336 -0.09574183 0.3371943
-0.002849068 -0.0004485822 -0.24890918 -0.21387513 0.20020677 0.2597412 0.21970981 -0.031440284
-0.020651877 -0.20116684 -0.2158964 -0.053096477 0.15068986 0.09704684 0.17372134 -0.18169896
-0.2672253 -0.017647006 -0.087693505 -0.26058683 0.12654644 -0.264655 0.1652853 -0.3368892
0.078866 -0.015137401 0.09366653 0.11611416 -0.25386316 0.16752906 -0.01013723 -0.08817548
0.11449491 0.00035373028 0.17851754 -0.17989008 0.037300337 -0.032208115 0.15415353 0.03325644
0.19797158 -0.0051718894 0.11103328 0.083602026 -0.11128547 0.06622297 -0.15831208 -0.13479176
-0.38308796 -0.14187835 0.003378054 -0.27679873 0.0043962197 -0.06925331 -0.23592015 -0.15830988

bias f4 [256]
00000000: e52e 1dbf 6bad b1bd b8db fdbd d52e a13e
00000010: 80e0 e83e 098c 603e e219 f8be 4bb9 9e3e
00000020: d805 503e 029e 03bf 1271 153f 96c3 073e
00000030: edc1 4a3e e614 143e 5e41 bfbd 894e d13e
00000040: 60cb a0bd e4b1 933d 4f95 32be 3cd9 413e
00000050: e3c7 153f 3bee 913e 6d87 94be 6192 ffbe
00000060: 7fdf 5cbe 3939 7f3e 37dd 113a f08b 7e3e
00000070: c0e8 1bbe ed43 fbbd 56d1 023f d0e7 74be
00000080: 12c1 9dbe f976 c13e a4be c3be eca2 d3be
00000090: affd 90be fbe1 33be 68c6 d7be 0f48 ebbe
000000a0: 9798 dbbe f1c9 33be a22c c23e d7fb 14be
000000b0: 951f 96be afb9 c9bc 4c13 323e 446e f33d
000000c0: 9b71 56be 7140 803e a57e ba3d afc2 853e
000000d0: bbdc f8be 0dc7 54be fce8 033d 407b 283f
000000e0: 811c 89bd 5774 90be c52d a83d 403d 22bf
000000f0: e918 53be 79ad 9b3b f689 76be e4f3 ea3e
00000100: b27b c3bd 21fc 1d3f eb2d 023e 2cef 753e
00000110: 869e 8dbe 2442 04be 18a4 683e a13f f23d
00000120: 6df3 273f e54a 3bbf cda7 653e a6ce dd3e
00000130: 1165 30bd 875d f4bd d66d be3e 1a9e 39be
00000140: afd4 9cbe d4be ddbd e271 54bd e866 153f
00000150: 9204 90be 647f e53e ab49 82bd ca25 5cbc
00000160: 70cc b43d 0fa1 783d 0abe 203d fed8 c23e
00000170: 1cef 0cbe 0ffa 8a3d a73a 1bbe ab33 30be
00000180: 8973 fcbd ffbe e7bd 3938 8c3e f55b fa3e
00000190: 8e21 28be 22b6 a93e b5d8 58be 902b c9be
000001a0: b681 7b3e 954f 23be 66b3 1bbf 6438 3b3e
000001b0: 0b3e 053e f8ce eebc bdbe fabd bd9f a4be
000001c0: 5b47 2bbf 8749 2ebf e163 a73d 389e 2abe
000001d0: 2bc2 433e c96e a13e 2934 3dbe 31c1 6fbe
000001e0: 51f7 d7be 30d0 e7be 53e6 18bf ee11 043e
000001f0: fdb3 b83e 8ac1 0bbf 508a 283d 773c f83e
00000200: 399b 7a3e 0810 17bf fcd9 b8bd 6c97 e2bd
00000210: 1d44 03bf 7104 3f3e 6a46 2b3e cac9 74bd
00000220: cbf9 5a3e dbbf d8be 93f1 02be f5e1 9a3e
00000230: 81d6 8d3d 60ef 74be e48c 1fbf 50a0 0bbf
00000240: 583c 453e 0667 283e 77e6 27bf 585f c5be
00000250: 47b7 1f3f 8e09 08bf 3a10 113e 3057 bf3d
00000260: b17c b73e 9040 0a3f 0c67 c63e 52ca ed3c
00000270: e5cc 063e 6298 5d3e 953c de3e 87b5 9cbe
00000280: 5334 4bbf ec8b 29bf 9d8d 91be 081a e2bb
00000290: 0a11 20be 6224 87be 6478 3fbe e156 90bc
000002a0: 6526 48be f268 1dbe c592 f4be b504 223e
000002b0: df50 783e 6cdb c73e 3d03 f13d 3d11 173f
000002c0: 1989 f83d e388 6c3e 437b 8d3e b8d9 27bf
000002d0: 4c6e 283e cb07 a0be 5313 4a3e 9b65 a2be
000002e0: d565 193f 5bb3 ad3d e86f 263c 5ce9 84be
000002f0: ebdc 8cbe 7b17 aebd 239a 0dbd 9722 0b3f
00000300: 5e51 89be 4b4e 7d3e ed3e 3fbe 1e94 e5bc
00000310: 708a 33bd 1485 dc3d 1b6b 32bf b99d 373e
00000320: b60d ea3d cd06 5b3d dbc0 a2be 65e7 03be
00000330: c6ad debd b8cc 44be 1c97 503e fa6a 033f
00000340: 10d4 d5bd aa1f 173e 1e6a 27bc 68f7 89be
00000350: 469a 54be ebdd da3c 7b06 423e 6339 c4be
00000360: ee64 cdbe 25b0 43bf 31ce 993e 907a 833e
00000370: 836a a7be 3f1c 023f af65 c73d 5079 23bf
00000380: b82e 103e b6f6 abbb 8901 b33d 25b8 7dbe
00000390: 40c5 ebbd 2c30 24be 336a 98be 1b08 813d
000003a0: 6da6 d9bd 9712 2ebe 9b0e aabe 85d6 82be
000003b0: 25d2 2a3f 822d edbd 7cbd ec3e 4b1d e7be
000003c0: 7c65 e4be fe12 99be c139 2ebd 64b0 a7bb
000003d0: eba5 603d ca77 193e 85d0 ebbe 4ca0 003f
000003e0: 2b3d 813b 1dbe 5bbe f173 f0bd 24fc 353f
000003f0: f6c0 12bf 3bf5 dd3e 5f65 8cbe 07b6 27be
-0.6139968 -0.08675655 -0.12395424 0.31481043 0.4548378 0.21928419 -0.48457247 0.31000742
0.20314729 -0.51412976 0.58375657 0.13258204 0.1980054 0.14461097 -0.0933864 0.4088023
-0.07851291 0.07211664 -0.17439769 0.18930525 0.5850813 0.28502068 -0.29009572 -0.49916366
-0.21569632 0.24924172 0.00055642746 0.2485807 -0.15225506 -0.12268815 0.5110067 -0.23916554
-0.30811363 0.3778608 -0.38231385 -0.41335237 -0.28318545 -0.17566673 -0.4214356 -0.45953414
-0.42889854 -0.17557503 0.37924677 -0.14549194 -0.2932097 -0.024624674 0.17390174 0.11886266
-0.20941775 0.25049165 0.09106187 0.26125094 -0.48605904 -0.20779057 0.032204613 0.65813065
-0.0669489 -0.2821376 0.08211855 -0.6337471 -0.20614971 0.004750904 -0.24076065 0.458892
-0.095450774 0.61712843 0.12712829 0.24017018 -0.27660006 -0.12915856 0.22718847 0.118285425
0.65605813 -0.73161155 0.22427292 0.43321723 -0.043065134 -0.119319014 0.37193173 -0.18126717
-0.30631015 -0.10827413 -0.05186642 0.5836015 -0.28128487 0.44823754 -0.06361707 -0.013436744
0.08828056 0.060700472 0.039243735 0.38056177 -0.13763088 0.06785976 -0.15159093 -0.1720721
-0.12326724 -0.113157265 0.27386644 0.48898283 -0.1641905 0.3314677 -0.21176417 -0.39291048
0.245612 -0.15948327 -0.60820615 0.1828323 0.13011949 -0.029151425 -0.12243412 -0.3215312
-0.66905755 -0.68080944 0.08173347 -0.16661918 0.19117038 0.31529835 -0.18476929 -0.2341354
-0.42180875 -0.45276022 -0.59726447 0.12897465 0.3607482 -0.5459219 0.04114753 0.4848363
0.24473275 -0.59008837 -0.09025952 -0.11064038 -0.5127581 0.18654038 0.1672608 -0.059762754
0.21384351 -0.42333874 -0.12787466 0.30250517 0.06925679 -0.2391944 -0.6232436 -0.5454149
0.192613 0.1644555 -0.65586036 -0.38549304 0.62389034 -0.5313958 0.14166346 0.093428016
0.3583732 0.54004765 0.38750494 0.029027138 0.13164099 0.2164016 0.43405595 -0.30607244
-0.79376715 -0.6622913 -0.28428355 -0.006900076 -0.156315 -0.26394945 -0.18698269 -0.017619552
-0.19545896 -0.15372065 -0.47768226 0.15822108 0.242496 0.39034593 0.11768196 0.5901068
0.12135524 0.23099093 0.27633104 -0.6556659 0.16448325 -0.31255946 0.19733934 -0.31718144
0.5992101 0.08481475 0.0101585165 -0.2595929 -0.27512297 -0.08500572 -0.034570824 0.54349655
-0.2681989 0.24736898 -0.18676348 -0.02802473 -0.043833196 0.1076757 -0.6969468 0.1793126
0.114283964 0.053473283 -0.31787762 -0.12881239 -0.108729884 -0.19218719 0.20370144 0.5133511
-0.10440838 0.14758173 -0.010218171 -0.26946568 -0.20761976 0.026717147 0.18947785 -0.38325033
-0.40116066 -0.7644065 0.30040124 0.25679445 -0.3269845 0.5082435 0.097361915 -0.63856983
0.14080322 -0.005247916 0.08740527 -0.24777277 -0.11512232 -0.16034001 -0.29768524 0.06300374
-0.10627446 -0.16999279 -0.33214268 -0.2555429 0.66726905 -0.115809456 0.46238315 -0.45139536
-0.44608676 -0.29897302 -0.042535547 -0.005117463 0.05484573 0.14987102 -0.46057525 0.50244594
0.0039440594 -0.21459241 -0.11740864 0.7108786 -0.57325685 0.43351158 -0.2742109 -0.16378032

weight f4 [128, 256]
00000000: 5c0a 7e3c d28c b3be e4c9 253c c836 8e3c
00000010: 0da7 efbe 4966 a23d db57 c53d cedf 423d
00000020: 0424 d6bc 1edb c93d c18a ecbc c023 c63a
00000030: 5fc9 653d d5e2 13be 242c 44bd 3ee6 99be
00000040: c923 7c3d 6060 1ebd 14f3 273e 3e4a 88be
00000050: 42d7 f2bd 4eb5 25bd 053f a03c 4439 0e3e
00000060: d5ba 953d 64d2 d3bc e35e 3e3d ea32 99bc
00000070: 9d6c bfbc 212c d33c b43c 4abe 2a3e 09bd
00000080: b072 5d3c 857a 81bc 50b5 913d f459 7fbe
00000090: 43a0 2c3d fd11 053e 502d d43d 3222 90be
000000a0: 03ac 0cbc 7004 6bbc 1778 d5bd b4ff 53bd
000000b0: d048 91bb c1e9 25be 62e8 1bbd d129 4ebc
000000c0: ec31 cabc 0394 a53e 28ed 963c a8e0 033d
000000d0: 3956 123e b860 f7bc 55f8 4cbd 821a c2bd
000000e0: d394 1c3d abc9 9aba 228a 3c3d b9ba 113e
000000f0: 2254 d0bb 6805 b93d ea3b 6f3d 046d 66be
00000100: 26b7 2d3d a938 e2bd 8115 02bf a8ea cd3d
00000110: aa46 203d b979 2fbd ae72 9cbd 2751 a0bc
00000120: 8347 9dbe 6344 cc3d 2292 43bd 899d d3bd
00000130: 840d 9e3c 27b9 a63c 902c e4bd e0a9 03bd
00000140: a62b febd bd20 ca3b adeb 243d 8557 07be
00000150: 40e0 5e3c 6e05 2bbc c680 2b3d c04b 9c3d
00000160: f96c f0be e685 783d 6c18 79bc 32ed e7bd
00000170: 0f8d 58bc ac72 623c 7825 4ebd d664 043e
00000180: 92af 2abd 0002 d0b9 a56a 4f3d ec13 aabe
00000190: 781d 6ebd 7184 77bd 057c 7abe 40fd debc
000001a0: 04a8 cdbc 03db 1dbd 097e de3d bcf0 2ebd
000001b0: 82e3 403d 00f8 8f39 8432 34bd 91af 8ebb
000001c0: de21 3d3e 7df2 043e e267 0ebe 451b ec3a
000001d0: 83ed e23c fd4f 913c 00f4 7e39 88c6 4c3c
000001e0: a5a0 aa3c 2b86 c03d 2f58 e03d b42c 1cbd
000001f0: b199 463d 3b54 403e 204c 2bbb 200f b93c
00000200: fadd 1c3d 85b2 f33d 0132 c9be 94b7 80be
00000210: 9508 643c b58f d43c 1c9b cf3c dc80 7ebd
00000220: 2889 563d 7909 123c 5896 163c 6017 543b
00000230: a692 5c3d 10b3 9f3c c6b6 bb3d 6f61 423e
00000240: 9c89 69bd 0678 0a3d b8ca a53d a35c c83d
00000250: fda9 eebe 8989 1f3e 8415 223d 26c9 0ebd
00000260: 2583 55bd ee00 99be 6a7f 02bd b024 043d
00000270: 6906 adbc 364d 87be 57ef 57bd fec8 cf3c
00000280: 2c10 053e 43f8 d73d 4ac8 1e3d 8c81 253d
00000290: a373 cebc 85e1 a0bc ce4d 593e d788 b7bd
000002a0: b677 8d3d 6607 4dbe 3983 a83d ba76 c4bc
000002b0: 09e7 a5bd 23a1 cfbb 74c8 2bbd d1cb f0bd
000002c0: c9e3 bdbe 4fbf 0b3d 7cda 03bd 138d 083e
000002d0: d848 203d 2bd9 2fbe 620e 1e3d 26af fd3c
000002e0: d26f 62be 944c 0a3c 145d 103c b567 293e
000002f0: 6f90 123d a874 663d 3009 dfbb 9454 44bc
00000300: 8009 7abd cf47 3fbc 6cc2 4e3d 2c6d 52bd
00000310: 2e36 083d 270d fd3d 0ee3 0f3e ede2 323e
00000320: e8db d93c 1d13 6b3c 2707 103d 5c67 ac3d
00000330: 4d20 a13a 21d5 cf3d 7d8b 6c3c 682b 643e
00000340: 4f97 42bb 87da b7be 7014 7fbd 3b77 0a3e
00000350: 1429 b03c e8b0 36bd 5491 ad3c 28f0 eabb
00000360: c550 5d3d d8fb c03d 8dbf 09bd c029 ba3a
00000370: 5ef0 85be 898e 90bd 1ca7 6a3d 2086 dc3d
00000380: c040 21bc 94be cc3c 18e9 2ebd 58ed 63bc
00000390: 4d4f c03c 9d3b e63d d82a 3cbd f0c8 7abd
000003a0: 9d0b 7b3d 4cbb 5fbd f3fe 86be 4b0d b4bd
000003b0: d187 bdbe 0b87 99bd ee38 21bb 4c6f 053d
000003c0: a6b0 bf3d a21d 2d3d 808d 1a3a eaf1 a63c
000003d0: 4bf7 ab3d 7ae9 23be 5901 c83c e6c2 cdbc
000003e0: ecc8 533c 43df 8c3c 39af 97be b8e9 acbe
000003f0: 2d31 6f3d ca3f abbd 0267 6d3d 0250 8e3d
0.0155054 -0.35068375 0.010118935 0.017360106 -0.46807137 0.079296656 0.09635898 0.047576718
-0.02614022 0.098562464 -0.028874757 0.0015116856 0.056100246 -0.14441998 -0.04789366 -0.30058473
0.061557565 -0.03866613 0.1640132 -0.26619142 -0.118574634 -0.04045611 0.0195613 0.13889033
0.07311026 -0.025857158 0.04647721 -0.018701036 -0.02336722 0.025777878 -0.19749719 -0.03350655
0.013516113 -0.015805492 0.07114661 -0.24936658 0.042145025 0.12995143 0.10360205 -0.2815109
-0.008585933 -0.01434432 -0.10423296 -0.05175753 -0.0044337288 -0.16202451 -0.038063414 -0.012583212
-0.024682008 0.32339486 0.018423632 0.03219667 0.14290704 -0.030197486 -0.050041515 -0.09477712
0.038227867 -0.0011809369 0.04603017 0.14231385 -0.0063576857 0.09034234 0.058406748 -0.22502524
0.042410992 -0.11045963 -0.5081406 0.10054523 0.03912989 -0.042840693 -0.07639061 -0.019569946
-0.30718622 0.09973981 -0.047746785 -0.10332782 0.019293554 0.02035196 -0.11141312 -0.032144427
-0.12410669 0.0061684535 0.04026382 -0.1321698 0.01360327 -0.010438306 0.041870855 0.07631636
-0.4695814 0.06067457 -0.015203577 -0.11324538 -0.013217225 0.013821285 -0.0503287 0.12929091
-0.041671343 -0.00039674342 0.050638814 -0.33218324 -0.058133572 -0.06042904 -0.24461372 -0.027220368
-0.02510453 -0.038538944 0.10863883 -0.04271005 0.04709197 0.0002745986 -0.043993488 -0.0043544252
0.1846995 0.12983127 -0.13906816 0.0018013498 0.027701145 0.017738337 0.00024314225 0.012498505
0.020828554 0.094005905 0.1095432 -0.03812857 0.048486415 0.18782131 -0.0026137903 0.02259022
0.03829763 0.11899284 -0.39295962 -0.2514006 0.013918062 0.025947431 0.025342517 -0.06213461
0.052376896 0.008913391 0.009191118 0.0032362565 0.053850792 0.019494563 0.09165721 0.1898248
-0.057016 0.03380587 0.08095306 0.09783294 -0.46614066 0.15579809 0.0395713 -0.0348598
-0.052127022 -0.29883522 -0.031859793 0.03226155 -0.02112122 -0.26426095 -0.052718487 0.025364395
0.1299445 0.10545399 0.03876523 0.04040675 -0.025201624 -0.019638786 0.21221086 -0.08961647
0.06907599 -0.20022354 0.08228154 -0.023982394 -0.08100707 -0.0063363477 -0.041939214 -0.11757625
-0.3708785 0.034117993 -0.032190785 0.13335066 0.03913197 -0.17172687 0.038587935 0.030967306
-0.22112969 0.008441109 0.008811254 0.16543467 0.035782274 0.056263596 -0.006806515 -0.011983056
-0.061044216 -0.011674835 0.050478384 -0.051373646 0.033254795 0.12356024 0.14051458 0.17469378
0.026594117 0.014347819 0.03516307 0.08418152 0.0012292952 0.10148073 0.0144375535 0.22282183
-0.0029692238 -0.3590891 -0.06227535 0.13522045 0.021503963 -0.044602305 0.021187462 -0.007169742
0.054032106 0.094230354 -0.033629943 0.0014203116 -0.26159948 -0.070584364 0.057288274 0.1076777
-0.009842098 0.024993218 -0.042702764 -0.013911568 0.023475314 0.11241839 -0.045939296 -0.061226785
0.061290372 -0.05462198 -0.26366386 -0.08791598 -0.37017682 -0.074964605 -0.0024600583 0.032576844
0.09359865 0.04226459 0.0005895719 0.020379025 0.08396777 -0.16007033 0.024414705 -0.025117349
0.0129263215 0.017196303 -0.29625872 -0.33772063 0.058396507 -0.08361776 0.057959564 0.06948854

bias f4 [128]
00000000: 3974 9ebe 6332 9b3e 1fd6 873c c83f bc3c
00000010: 40c5 2d3e c504 f8bc c2d3 56bd ff19 23bd
00000020: c98f 5e3e da5d 2ebc e066 a8bd 0f07 b6bc
00000030: 850d a2bd 02d0 07bd 9243 9fbd 37a1 783e
00000040: 7ae8 9cbe db3a 8bbc 6289 52be 74f2 77bd
00000050: 8709 523e adc9 91bd a619 4c3e d79f d2be
00000060: 00fd 9c3c 5071 a1bd a93a 753e 6f76 83bd
00000070: 307e c7bd 2213 82bc 6595 72bb ace1 87bd
00000080: 3a3f 753e 0dc4 613e 661d 63bd fa9f 0e3c
00000090: cb6b 52bd ead0 8dbe 56bf 57bd 942b 5dbd
000000a0: 5165 8e3e a288 72bd ed94 133d 96b1 83be
000000b0: 6280 bbbe 9687 51bc 547b 83bd 761e d83e
000000c0: f0e5 283d a54a 80bc 7bfd 373c 5249 003d
000000d0: 61ce bd3c 321a 993c bc8a 633e 7529 94be
000000e0: e79e 473c a704 9ebd 8df2 2dbd 72d9 89bd
000000f0: 000f 5fbd c654 c43c 4443 a23e 5379 15bc
00000100: 91cd 58be df32 67bc 73f2 2c3d 1b36 c1bc
00000110: 5826 8f3e 5043 1cbd ded8 ab3a f932 c9bc
00000120: 8560 57bd 2efb 6abd f031 41bd 6ee0 81bd
00000130: 2671 6ebe d080 f93c c349 0a3d e1b7 e53c
00000140: 5b3d 89be 53d7 e6bd 81b9 c4bc df53 36bc
00000150: 5a60 933c dbbf 9cbe 5b14 dabc 9818 a2bd
00000160: a6c4 a7bd d10e c03b 0d17 a2bd 8c24 79bd
00000170: 99a8 2a3e 7c77 ec3b 9e24 acbd 7b9a be3c
00000180: 1715 4bbd edb5 d93c 1a24 02bd 049c 05bc
00000190: a593 2bbd ebf4 23bc 78dc 93be ecd6 abbd
000001a0: 0c16 23bd 930d 6ebe b989 1cbd d3da 513e
000001b0: 4310 c23e a039 4b3e f07e ac3c e2cf 01be
000001c0: 7aea 1ebd 187f 3c3d d875 bf3e a280 253d
000001d0: 7977 04be b8b0 713c c997 c13c dc54 0c3c
000001e0: b522 893c 21d3 32be c894 5c3d b15b 393c
000001f0: 2283 063d 98b4 743a 6a8b 323e 4eb6 84bd
-0.30948046 0.3031188 0.016581593 0.022979632 0.16969776 -0.030275712 -0.05244804 -0.039819714
0.21734537 -0.010642493 -0.08222747 -0.022220163 -0.07912735 -0.033157356 -0.0777656 0.24280249
-0.30646116 -0.016995838 -0.2056022 -0.060533956 0.20511447 -0.07118545 0.19931659 -0.41137573
0.019163609 -0.07882941 0.23948158 -0.06419074 -0.09740865 -0.015878264 -0.0037015316 -0.0663484
0.239499 0.22047444 -0.05544796 0.008705134 -0.05137233 -0.2769845 -0.052672707 -0.053996637
0.27811673 -0.059212334 0.0360307 -0.25721425 -0.36621386 -0.012788674 -0.06420007 0.4221074
0.04123491 -0.015660593 0.011229868 0.031319924 0.023169698 0.018689249 0.22220892 -0.2893788
0.012183881 -0.07715731 -0.042467643 -0.067309275 -0.054457664 0.023966204 0.31691945 -0.009123164
-0.21172167 -0.01411125 0.042223405 -0.02358537 0.2795894 -0.03815013 0.0013110896 -0.024560438
-0.052582283 -0.05736845 -0.047166765 -0.06341635 -0.2328535 0.03045693 0.03376175 0.028041782
-0.26804623 -0.112715386 -0.024014236 -0.011128395 0.01799028 -0.30615124 -0.026621034 -0.07914847
-0.081918046 0.0058611413 -0.07914553 -0.06082587 0.16665877 0.007216392 -0.08405422 0.023267021
-0.04958066 0.026576007 -0.03177271 -0.008154873 -0.04188885 -0.010007123 -0.28879142 -0.083906025
-0.039815947 -0.23247366 -0.03821728 0.20493631 0.37903032 0.19846201 0.021056622 -0.12676957
-0.038797833 0.046019644 0.37394595 0.040405877 -0.129362 0.014751606 0.023631947 0.008565154
0.016740182 -0.17463352 0.053852826 0.011313365 0.0328399 0.0009334772 0.17435995 -0.06480084

weight f4 [128, 128]
00000000: 9ca9 43bd 45ea a13c ec96 cebc 178a 923d
00000010: 5fde 433d 4574 9c3c 30b8 c8bb 3b0f e7bb
00000020: 2a8d f0bd 1844 c9bd 9d11 c3bd 55c9 cbbd
00000030: fd54 c7bc f56b 753d 2daa 67bd 7dcc bf3d
00000040: 33d5 dfbd ba1f 183d 083e 6a3d b0f8 e43d
00000050: 8275 30bc 409a 9fbd a586 d83d e98e e0bd
00000060: 798b c2bc 9fa3 9abd fe39 76bc f4a0 373d
00000070: 0d8b a33d bdf6 753d 8b6f f9bc cd04 54bb
00000080: c0b6 cdbb 41ab 0c3d 1246 a0bd 4866 b6bd
00000090: 299c fd3a 2603 713d 2e10 5abc 7998 f0bb
000000a0: 0238 343d 02ff 83bd 029c 4b3d 915b 8abb
000000b0: 2903 0abc 7861 40bc 0c5a 79bd e932 033e
000000c0: c7fb 71bd 83bd 09bd 4e07 aebc e513 f13b
000000d0: 546b afbc 7aed 583d f451 923d 6d5f 993d
000000e0: 26eb b93d e6fb 503d b64b 14bd 8078 103d
000000f0: 2967 613d c8ce c13c 5670 ec3d 3c3b 683c
00000100: 262b 063d 9a1e 053e ba23 24bb 90dc 7d3c
00000110: 74bb 14bd 2d6c b93b dcd0 7bbd 3eb4 aabd
00000120: 6da6 04bd 695b a43d cc4d 84bc aca0 d83c
00000130: ddbf b83c b257 0f3c cc85 8abc dc2f ba38
00000140: fc4c d1bd bf8a 383d 2fff cabc af85 463d
00000150: 78cc a53c dc50 513d 0710 d53d 9667 14bc
00000160: c8aa 263c 3442 be3c 0e49 513d af98 7c3c
00000170: f706 05bc 0816 cc3d aaa1 783c 59d9 b63c
00000180: 7ede 813d 0cb6 a73d 3b5b 88bd 280d e8bc
00000190: c686 273d 9b39 ea3c ec2b c5bd a66a c63c
000001a0: cbeb a43d d804 493b 71d1 0e3d 1ed6 5d3d
000001b0: 31bf a83d 6bee 233c ff11 143d dfd5 4ebd
000001c0: d242 913d aa65 50bd 6b1c 8f3d baab ec3c
000001d0: 71a6 97bd 2c1e d13d b78e dc3d d61d 10bd
000001e0: 25b3 4d3d 09f2 05bc 2bb8 283d 80c7 39bd
000001f0: 34ca 923c ecab 3f3c 3ba6 a8bd 83cb 603c
00000200: 159f 053e 2efc 3abd cf06 da3c 3585 143d
00000210: 17f6 c3bd ab81 c53b c08d c6bb e8a8 9a3d
00000220: 52f3 d53d 9a70 b23d 1226 07bd ce1d 143c
00000230: a765 4f3d 5a72 903d 27c2 383c 70f5 513e
00000240: d069 17bd 0229 3d3c 67f0 3bbe 2fbd 853d
00000250: d1e1 9dbc 5e78 9b3d e329 a3bc 4993 74bd
00000260: e640 38bd f6e4 61bd e8c0 913e 3a33 a03d
00000270: 0bc4 8b3d b48d 71bc 0e66 afbd d701 4f3d
00000280: ff7d babd 0554 d63c f400 8b3d 4041 a73d
00000290: 27e7 813d 3b6a eabd b6d6 963d 1a8c 62bc
000002a0: af41 9f3c 8717 a0bc 5d6f 8cbd 6cb3 143e
000002b0: 5eec dabb d4e4 6b3d 4078 803c 4aa9 8b3d
000002c0: 755f 753d d33f 44bd c7ca ab3d ddfc 0d3d
000002d0: 49a0 e9bc f534 603c 4ca3 9c3c 58a6 9ebd
000002e0: 4c00 1a3d 77d3 a83d 07dc 963c 8d44 32bd
000002f0: 7aa2 7dbd cd16 59bd 296b 373c a7a2 65bd
00000300: dbcf 17bd cf93 113d 8e04 853d 5540 ab3c
00000310: eca1 33be c84e a3bd 059b ad3d 7909 8cbc
00000320: 0e22 8abc 27fa 55bd a8c9 a13d 4af4 8abc
00000330: 4e29 86bc e15a 37bd 2ec6 96bd 815d 95bd
00000340: 9989 27be 24cb c1bd 9e46 23bd a56d 2dbc
00000350: 8e03 98bd 033d 623e b8dd 42bc d5f4 983c
00000360: fcd6 bf3c 687a d9bc 7252 8f3c 5bd4 6c3d
00000370: f634 e23d a60c 703d 5077 cc3b 9d64 253d
00000380: d6d4 4dbd 9aa7 9ebc 5971 abbd 529b 29bd
00000390: 2e8a 20bd 0ea2 883d 045f 44be 506e db3d
000003a0: ee6a 413d f9eb 13be 8f51 c63c 4b5c 68be
000003b0: a454 b43d 3308 70be 6c1f 24bd 02c9 843c
000003c0: dbe9 933c c313 cfbd 4899 ac3b a901 6f3d
000003d0: 4304 80be c7a9 203c 7357 8d3d 7b6e b4bd
000003e0: 9a68 c33c b011 8dbe d22d 00be 35b3 433d
000003f0: 1f52 7fbb 21a5 12bd 7c04 fa3b 9173 83bb
-0.047769174 0.019765029 -0.02521845 0.07155245 0.04781949 0.01909841 -0.0061254725 -0.007051376
-0.11745675 -0.09827441 -0.09524844 -0.099505104 -0.024332518 0.05991741 -0.056558777 0.09365175
-0.109293364 0.03713963 0.057188064 0.11180246 -0.010770204 -0.07793093 0.105725564 -0.10964758
-0.023748146 -0.075507395 -0.015028475 0.04483123 0.07985506 0.06004976 -0.030448696 -0.0032351494
-0.006277889 0.034343008 -0.07825865 -0.08906227 0.0019348908 0.058840893 -0.013309522 -0.007342395
0.043998726 -0.06445123 0.049709328 -0.0042223413 -0.008423605 -0.011741988 -0.06087689 0.1281239
-0.059078004 -0.033627998 -0.021243718 0.007357108 -0.021413483 0.05296085 0.071445376 0.07488904
0.09078054 0.05102148 -0.036205016 0.035271168 0.05503002 0.023658171 0.11544864 0.014174279
0.032755993 0.12999955 -0.0025045709 0.015494481 -0.03631158 0.0056586475 -0.06147848 -0.0833516
-0.03238528 0.080252476 -0.016150378 0.026443802 0.022552425 0.008748936 -0.016909502 8.878086e-05
-0.10219762 0.045054194 -0.024779884 0.048467334 0.0202391 0.051102504 0.104034476 -0.0090579
0.010172553 0.023224927 0.05109506 0.015417262 -0.008119336 0.099651396 0.0151752625 0.022320436
0.06341265 0.081890196 -0.06658026 -0.028326586 0.040900014 0.028591922 -0.09627518 0.024220776
0.080527864 0.0030673053 0.034867708 0.054159276 0.08239592 0.010005574 0.036149975 -0.050496932
0.07092823 -0.050878204 0.06987842 0.02889048 -0.07404793 0.10210833 0.10769408 -0.035184704
0.050219674 -0.008175381 0.04119126 -0.045356274 0.017918684 0.011698704 -0.08234831 0.013720396
0.13048966 -0.045650654 0.026614575 0.03625985 -0.09568422 0.0060274205 -0.0060593784 0.075517476
0.104468 0.08712883 -0.03299529 0.009040309 0.050634053 0.07053061 0.011276758 0.20503783
-0.036966145 0.011545422 -0.18353425 0.065302245 -0.019272717 0.075913176 -0.019917434 -0.059710775
-0.044983767 -0.055149995 0.28467488 0.07822271 0.068245016 -0.014743257 -0.08564387 0.050538864
-0.09106063 0.02616311 0.06787291 0.08166742 0.06342917 -0.11446043 0.073651716 -0.013827348
0.0194405 -0.019542469 -0.06857178 0.14521569 -0.006681009 0.057591274 0.01568234 0.06819399
0.059905488 -0.04791243 0.08388286 0.034664977 -0.028518813 0.013684501 0.019120835 -0.07746571
0.03759794 0.08243459 0.018415464 -0.043522406 -0.061922528 -0.05300026 0.011194983 -0.05606332
-0.03706346 0.035541352 0.06495009 0.0209047 -0.17542237 -0.07974011 0.08476833 -0.01709436
-0.016861942 -0.052240517 0.07899791 -0.01696219 -0.016377117 -0.044764403 -0.073620185 -0.07293225
-0.16361083 -0.09462574 -0.039862268 -0.010585223 -0.07422553 0.22093587 -0.011893682 0.018671433
0.023417942 -0.026547626 0.017495368 0.057819705 0.11045258 0.058605812 0.006239809 0.040379155
-0.050251804 -0.019367028 -0.08371229 -0.04140789 -0.03919428 0.066715345 -0.1917687 0.107144
0.047221117 -0.14445485 0.024208812 -0.22691457 0.088052064 -0.23440628 -0.04006903 0.01620913
0.018055847 -0.10111191 0.005267296 0.058351193 -0.2500325 0.009806103 0.06901445 -0.08810135
0.023853589 -0.27552557 -0.12517479 0.047778327 -0.003895886 -0.03580201 0.007629929 -0.0040115793

bias f4 [128]
00000000: 9d70 b73e 3bf2 343c 60f9 023d 5c44 193d
00000010: 866b 613e 0597 a73e e1b5 b83d 1659 00be
00000020: fd65 37bd e2f5 0cbe ca8e 04bd 9354 b83c
00000030: 37d0 b2bc 6281 b53e 1328 be3d b520 c03d
00000040: 23a9 02be 581c 863d 6d6b 403c a969 73be
00000050: 2e07 bd39 a1ce f43c 6c99 abbc 253a b7be
00000060: 9c5a 95be b16e 913e 95b5 603e 972d 82bd
00000070: d7e6 90be e82e 293e b060 f73e cd9e e3bc
00000080: 73d7 3dbe e702 873e 5eab cebd 8f55 1e3d
00000090: 697c 0b3d 9977 abbc a541 48bd 3312 57be
000000a0: 7146 17bd f97d 8dbe 7b2d 883e b459 38bb
000000b0: d67c aebd 6d48 29bd e13e f8bc 7f14 bbbd
000000c0: 7222 b93e 6e87 a5bd 4d84 d5bd d953 be3d
000000d0: 8e01 ae3d c2cb e8bd 2cf4 813e a9a8 bfbe
000000e0: d882 f2bd 3171 69bd 5f88 c3bd facb 13be
000000f0: 2713 8bbe 0e6a aebe 80fa 383e 458d c7bd
00000100: 4707 fb39 fa48 b6be 7bf8 f53c f60d 4fbc
00000110: 7ce6 893e 5af8 df3e 1573 c5bd d5a3 2e3e
00000120: 3369 08be 1bd3 d93d c73a ac3c 3765 2ebe
00000130: a86d c3bc b3ce 18be 09a8 e5bc 6314 c4bd
00000140: 08bb 71bd 6e46 da3e aadd 293d 89ab 6f3e
00000150: 21d7 98be a081 51be 439f 64bd 1716 82bd
00000160: 2e7d 9c3e 7a97 a8be 3549 febc c3e4 843e
00000170: ef48 143e fd40 9e3e 5ca4 adbc ed9c 223e
00000180: d5e6 c7be 3a41 b2bd 63c9 ccbd 3bbb aebd
00000190: 7685 9a3e ca57 9fbe 280c 6bbc 70bb 16bd
000001a0: d41c 4dbd f8c0 873e afd1 fbbc d67f 863e
000001b0: 8b8b c13e d9d3 ab3e 9bb8 083e e1c4 e1bd
000001c0: 06bd 64be 0497 543e 93eb bd3e efe1 633e
000001d0: 0aee f2bd 846a c1bd a116 cc3d 176c 963e
000001e0: 9be6 43be 4268 73bc b028 b7bd 32a1 723d
000001f0: 0d1c a43e 07fb 56bd 083d 40be 7740 8b3e
0.35828105 0.01104408 0.031976104 0.03741871 0.22013673 0.32732406 0.09019066 -0.12533984
-0.044774998 -0.13765672 -0.032362737 0.022501266 -0.0218278 0.35450274 0.09284987 0.09381238
-0.12759833 0.06548375 0.011744362 -0.23770775 0.00036054238 0.029883685 -0.02094718 -0.35786548
-0.29170692 0.28404763 0.21944268 -0.06356352 -0.28301117 0.165218 0.48315954 -0.027785683
-0.18539219 0.26369402 -0.100912794 0.038655814 0.034054194 -0.020931052 -0.04889073 -0.21003036
-0.036932413 -0.27635172 0.265972 -0.002812964 -0.08519904 -0.041328836 -0.03030342 -0.09134769
0.36159092 -0.08082472 -0.10425625 0.092933364 0.0849639 -0.11366989 0.253816 -0.37433365
-0.11841363 -0.056992713 -0.09547495 -0.1443328 -0.2716305 -0.34065288 0.18064308 -0.09743742
0.00047879873 -0.35602552 0.030025711 -0.012637606 0.26933658 0.43744165 -0.09641091 0.17054684
-0.1332138 0.10635968 0.021024121 -0.17030798 -0.023856 -0.149226 -0.028034227 -0.09574201
-0.059016258 0.4263186 0.04147116 0.23405279 -0.2985163 -0.20459604 -0.055815946 -0.063518696
0.30564255 -0.32928067 -0.031040767 0.2595578 0.14480947 0.30908957 -0.021196537 0.15880175
-0.39043298 -0.08703847 -0.09999349 -0.08531805 0.30179948 -0.31121665 -0.01434616 -0.036799848
-0.05007632 0.2651441 -0.030739633 0.26269406 0.37801775 0.33560064 0.13351671 -0.1102388
-0.22337732 0.20760733 0.3709379 0.22254156 -0.118618086 -0.09444144 0.099652536 0.2937934
-0.19130938 -0.0148564 -0.089433074 0.05923576 0.3205265 -0.052485492 -0.18773282 0.2719762

weight f4 [128, 128]
00000000: 4436 3d3d ebca b5bd a404 2aba a36c 09bd
00000010: dddd 0cbc 2a4d babd 9795 b5bd 04d7 37bd
00000020: 2927 9b3d 1e85 61bd ee00 583d 01f5 66bd
00000030: a1ef a23b a196 36bd b068 323e 3560 223d
00000040: d13b 523d a517 b8bd 6af6 e5bc b08f 633e
00000050: b32e 1dbc 0415 80be 8a0c 80bc 92cd ca3c
00000060: 2d39 c63c 6ea2 6abd 4c37 00be 9884 333d
00000070: cb1e cb3d 07ea d5bc 3f11 14bc 44ba 8b3c
00000080: 38e7 0c3d db60 e8bc a63f 0d3d de9b 64bd
00000090: 0f38 b2bb 80f4 c2bc 4853 1fbd 265c 8dbd
000000a0: be28 ba3d 49eb 463c e31b ba3a 4edb d0bc
000000b0: 75c0 e2bd f370 863d 77a0 00bd b537 8bbe
000000c0: 7be1 003d 62bf 39bd 254b c23c 6606 ccbd
000000d0: 36e1 2ebe 5b97 bb3d 80f0 b7bd 7e55 323e
000000e0: 3133 603d f466 7a3d eaef 28bd f625 963e
000000f0: 3019 16bd d5c9 7c3d e4f8 0f3d 62f1 003d
00000100: c3c4 49bd 0808 33bc 4d0f 78bc 6b85 3bbd
00000110: bb7b c8bc 49fc e9bd 232e 7e3e 3c7b 11be
00000120: a53c 9fbd 681e 3bbd 4a02 0dbd 2a6d d93c
00000130: 9b2e 3e3d 2d9d c0bd b426 4ebc 5e8b e23d
00000140: 9d55 0b3d 77b0 1fbd a491 b2bd 80e8 11be
00000150: 9822 0b3e cc3d 92bd baf0 2ebd a5a0 9abd
00000160: d8e3 973d d8f3 763d b80e 90bd cf3f 00be
00000170: f58e 123c e475 633d 9f9d 073f 03ab 993d
00000180: a4e4 25bc c3fa debd 80da 29bc 965a dcbc
00000190: d244 abbb ce57 113e 4538 383c 1242 753d
000001a0: cca1 243b c1ca d73c fd2b 4abd f3cb 59bd
000001b0: c815 aa3d ce4d 8ebd 534b 1ebc 3f8b 733d
000001c0: a2fd 6bbe 51f2 103d a1d3 45bd a3b8 393d
000001d0: e54b 3a3d c17b 0b3d 97f1 b23d 13f9 eb3c
000001e0: 7e65 8e3d 08bb d2bc 4018 66bd fb70 3d3c
000001f0: d5e1 71bd f8ba 4e3c c799 83be 4e35 a93d
00000200: 1ec9 25bd c629 91bd 2320 0a3d df8e 80bc
00000210: f4ff 81bd 80eb ddbc 8775 a9bc 68d5 95bd
00000220: 983b 22bd b308 94bb 325f 90bd dae9 99bd
00000230: 5588 30bd 4034 803d 5e70 74bd 48d2 6f3c
00000240: 7e3c 8bbd 20ec aa3b 8432 f4bb 1d0f 633d
00000250: cb87 23bc 7191 6c3d 5bcf 76bd 697e 9fbd
00000260: b6d1 28bd 4cc4 183d d8d3 b9bd c1fb 83bc
00000270: d213 5cbd 992a 9b3d 3cab d63c 4b2a 26bd
00000280: f929 b7bd 5a79 09bd e9d8 6f3b 7be6 a33d
00000290: 8329 363d 598f 49bc 4497 f23c 7ad3 aebd
000002a0: 20b1 a0bd fc5f 343d 9a44 4ebd b224 953d
000002b0: 3557 113d 797b a1bc fbd9 e0bc f708 873c
000002c0: 8c50 aabb 94be 7dbd 3edb 863d 0b26 b73c
000002d0: 2991 463d 6e50 943d 19dc 7ebd 3fe2 cfbc
000002e0: 8e9d bdbd 3ac3 23bd 5cf4 febc 3feb 10bd
000002f0: 4b7c 383d 8bee 393c 7c49 9ebc b493 2b3b
00000300: b584 1d3d b940 98bd 201b df3c 65b0 9fbc
00000310: ac9b 2c3b 33be 5137 0f5a 82bd 6455 09bd
00000320: c03a 9bbd db68 87bd bbfd 9e3c 9768 b2bd
00000330: 241a 8c3c 6945 b9bd e1d3 b6bd 4db8 0dbd
00000340: 3497 a33d ae19 503c b922 a9bd d556 a3bd
00000350: 1207 873d 1ec1 4b3d cee7 8dbd 167b a13d
00000360: c7ea a6bd dbb6 733c 0c07 ec3c 0ab3 65bd
00000370: f102 343d fd58 f83c 9c71 97bc 751d 613b
00000380: db8e 0bbd 8bee c9bc 4734 89bd eaf7 8d3d
00000390: 8863 133d 070e 26bd 0c30 8bbc 53b9 ad3d
000003a0: eb9c 293d b477 5dbd 4154 a03a 587d 563d
000003b0: dc92 a4bd c271 c03c a97d 7abd 1bc4 37bb
000003c0: 8cbf 9abc 9dd9 fb3c 6c8e 0cbb efb1 b1bc
000003d0: bbb9 b03c 57a8 0e3d f3e4 42bb 388b 1dbd
000003e0: cbe5 7d3d b491 8e3d c8a0 a6bd f29f 923d
000003f0: 383d 9bbd 1813 43bc 77be 923c a95c 63bd
0.04619433 -0.08876594 -0.0006485677 -0.03355087 -0.008597818 -0.09096749 -0.088664226 -0.04488279
0.075758286 -0.05505859 0.05273526 -0.056385998 0.0049724136 -0.044577245 0.17422748 0.03964253
0.051326577 -0.08988885 -0.028071601 0.22222781 -0.0095936535 -0.25016034 -0.01563098 0.024756227
0.024197185 -0.05728381 -0.12521094 0.043827623 0.09917983 -0.02611257 -0.009037315 0.017056592
0.034400195 -0.028366497 0.034484528 -0.05581271 -0.0054388116 -0.023798227 -0.038897783 -0.069023415
0.09089802 0.012141057 0.0014198985 -0.025495198 -0.110718645 0.06564512 -0.03140303 -0.2719094
0.031465035 -0.045348532 0.023717472 -0.09962158 -0.17078099 0.09159728 -0.089814186 0.17415425
0.05473632 0.06113334 -0.041244425 0.29325837 -0.036645114 0.06171592 0.03514947 0.0314802
-0.049259912 -0.010927208 -0.015140367 -0.045781534 -0.024473062 -0.11425073 0.24822287 -0.14207166
-0.07775239 -0.045683295 -0.03442601 0.026541311 0.046431165 -0.09404979 -0.01258247 0.110617384
0.034017194 -0.03898665 -0.08719185 -0.14248848 0.13587415 -0.07140693 -0.042710043 -0.07550172
0.074165046 0.06029114 -0.070340574 -0.12524341 0.008945216 0.05553235 0.52974886 0.07503321
-0.010125313 -0.10887673 -0.010367036 -0.026898663 -0.00522671 0.14193651 0.011243884 0.059877463
0.0025120853 0.026341798 -0.049358357 -0.053173017 0.08304936 -0.06948434 -0.009661513 0.059458967
-0.23045972 0.03538734 -0.04829753 0.0453421 0.045482535 0.034053568 0.08737486 0.028805291
0.06952952 -0.02572395 -0.05617547 0.011562581 -0.05905326 0.012617819 -0.2570326 0.0826212
-0.040475003 -0.07088046 0.033722054 -0.015693126 -0.06347647 -0.027089834 -0.020685924 -0.07316095
-0.039607614 -0.0045176386 -0.07049407 -0.07515307 -0.043098766 0.06259966 -0.059677474 0.014637537
-0.06798647 0.0052161366 -0.007452311 0.055434335 -0.009981106 0.05775589 -0.060256343 -0.07787783
-0.04121562 0.03729658 -0.09073609 -0.016111257 -0.05372984 0.07576484 0.026204698 -0.040567677
-0.089435525 -0.033562995 0.0036597794 0.08002945 0.044473182 -0.012302243 0.029613145 -0.0853643
-0.07846284 0.04403685 -0.050358392 0.0728239 0.035483558 -0.019712197 -0.027447691 0.016483767
-0.00519759 -0.061949328 0.06584786 0.022357007 0.04847828 0.07241903 -0.06222162 -0.025376437
-0.09258567 -0.039981104 -0.031122379 -0.0353806 0.04504041 0.011348377 -0.01932215 0.0026180567
0.038456637 -0.0743422 0.027234614 -0.019493291 0.0026337905 1.2501655e-05 -0.063648336 -0.0335287
-0.07579565 -0.066117965 0.019408097 -0.08711355 0.017102309 -0.09046442 -0.089271314 -0.03459959
0.07987824 0.012701435 -0.08258576 -0.07975546 0.065931454 0.049744718 -0.06928979 0.07884805
-0.08150249 0.014875139 0.028811954 -0.056078948 0.043948118 0.03031587 -0.01848679 0.0034349833
-0.034071784 -0.024649879 -0.06699424 0.069320515 0.035983592 -0.04054072 -0.016990684 0.084826134
0.041409414 -0.054069236 0.0012232141 0.05236563 -0.08035824 0.023491744 -0.061154995 -0.0028040472
-0.018890165 0.030743415 -0.0021447195 -0.02169129 0.021572938 0.03482851 -0.0029738515 -0.038462847
0.061986726 0.069613844 -0.08136135 0.071594134 -0.07580036 -0.011906408 0.017913086 -0.05550829

bias f4 [128]
00000000: 6a88 02be 1df1 afbd 792a 023e 03cd a23e
00000010: 6561 d6bc 27d6 a9bd fd6e 53bc ab45 33bd
00000020: 4ff0 453d f753 43bb af25 aebb 5bd2 66bd
00000030: c874 cebd f71a b9bc 2163 82bd 4a3b f3bc
00000040: 82c7 0c3d f4d9 87be bbad 523c a2a7 dfbc
00000050: 107c 6ebd f574 19bc ae89 b5bd e6ce e83b
00000060: c57a 22bd 5cfe e23d 3bc3 a03e 5f97 5bbd
00000070: ff03 7fbe 7681 bcbd 4617 0abd 2f4b dabd
00000080: 3039 82bd 8d48 c1bc 2cbe a3be 37fb abbd
00000090: 9c25 d13b f238 723d d9a6 893e 78f4 afb9
000000a0: 202d babc 3a98 0fbe d3a0 c43e 4a7e db3c
000000b0: d7f5 57bd cb09 1ebd 356b e63d e46b 13be
000000c0: c068 663e 33f3 a33e b73a 54be 5c6e dfbd
000000d0: f2f6 7b3d b3f8 b33e 9d1d 6d3d bfc9 93bd
000000e0: 463a 33be bc30 9fbd 71f0 edbc 7eba 3e3e
000000f0: 9781 98bd 0074 a73e 86c2 9abc 9e38 e6bd
00000100: 25c2 9ebc 769b 72bd 2cc3 163d 01f1 e1bd
00000110: 3d32 073d 664e 0bbe 74ed 143d 9915 5b3b
00000120: 50cd 903e 3f54 af3e 2476 13bd 83b8 a5bd
00000130: ab27 603e 8778 b43c 384b 013b 9f2d 5f3e
00000140: 50ba a939 e85b 89bd 9713 9ebd 7877 f83e
00000150: 0bd0 7e3e 0d4d 443e c4e3 f03d b1ac cd3e
00000160: 6650 5cbd 6c8a d6bd 8cf5 fb3d 9ce2 a93b
00000170: c416 5ebe 6687 6c3d 86f2 813d fb2c c7bc
00000180: aa0e dbbd 8cd5 b7bd e4b1 49be 2da2 553c
00000190: fc4f a5bd 1fbe 143d 1372 4f3e 0dc5 fb3c
000001a0: d8c7 703d 25f6 d93c a10e 5b3e 6209 bcbc
000001b0: 0839 28be 40a5 5dbd c9fc 19be c934 a13d
000001c0: 4d89 a0bd 2d57 333d dae9 eaba a86c debd
000001d0: 5038 323e 78ce c13e fd45 993e 1211 3bbc
000001e0: 52cb ffbd 72e6 583d fe2e 5cbd 8ed6 d2bd
000001f0: b885 193d 5ced 87be b61f b63e 373a 23bd
-0.1274735 -0.085909106 0.12711515 0.31797037 -0.026169488 -0.082927994 -0.01290488 -0.043767612
0.04832488 -0.0029804686 -0.005314551 -0.056352954 -0.10080868 -0.022595866 -0.063665636 -0.029691357
0.034369953 -0.26533473 0.012858803 -0.027301613 -0.058223784 -0.009366264 -0.08864151 0.0071047423
-0.039667863 0.110836715 0.3139895 -0.053611156 -0.24903868 -0.0920438 -0.0337136 -0.106588714
-0.06358564 -0.023594165 -0.31981027 -0.08397525 0.006382657 0.05913634 0.26885107 -0.00033560744
-0.022726595 -0.14022914 0.3840395 0.026793618 -0.052724686 -0.038583558 0.11250917 -0.14396626
0.22500896 0.32021484 -0.20725523 -0.10909721 0.061514802 0.3515068 0.05788957 -0.072162144
-0.17502698 -0.07772967 -0.029045315 0.18625829 -0.07446592 0.32705688 -0.018891584 -0.112412676
-0.019379685 -0.05923029 0.036807224 -0.11032296 0.033006895 -0.13604125 0.036359265 0.0033429621
0.2828164 0.34243962 -0.03600134 -0.080918334 0.21890132 0.022030128 0.0019728672 0.21794747
0.00032373006 -0.06706983 -0.0771858 0.48528647 0.2488405 0.19170018 0.11762193 0.40170816
-0.05378761 -0.104756206 0.12302694 0.0051844846 -0.21688372 0.057746314 0.06345086 -0.02431344
-0.10696156 -0.08976278 -0.19696766 0.013039154 -0.080718964 0.036314126 0.2025836 0.03073361
0.058784336 0.026606629 0.21392299 -0.022953693 -0.16428006 -0.054112673 -0.15037836 0.07871396
-0.07838688 0.04378431 -0.0017922476 -0.10860568 0.17404294 0.37852836 0.2993621 -0.011417644
-0.12489952 0.052954145 -0.053755753 -0.10294829 0.03748104 -0.26548278 0.3557107 -0.03985044

weight f4 [9, 128]
00000000: bbd3 1ebe 8483 a0bd 5c12 613d 0fcf a1bf
00000010: 5b9e 263d e957 803d 0818 013d 2a45 ee3c
00000020: 3967 0e3a 1e3d eabc 004a 9cbd e597 e2bd
00000030: bb72 a7bc 9178 0c3d def7 553d 003b 783d
00000040: 7f8e cbbc 3009 a7be 3e17 923d 9359 52bd
00000050: 6fea 323d 69d1 7abd e5a8 bcbc fc44 8bbd
00000060: 5dac 83bd 5698 97bd 4a5b e3bc b15b 93bd
00000070: 46bc 23bf 179f a8be d7ff b3bd 5f40 0dbd
00000080: 87b0 fabc 2101 723c 851b 4bbe a347 14bd
00000090: 0140 ffbc aac3 a23d 5f7d 5fbe a6ee 25be
000000a0: 7236 c5bd 50f7 9abd 92b1 17be 8d29 acbe
000000b0: dda6 2c3d 4873 80bd 5891 01bd 2ec7 2abe
000000c0: 5c31 2ebe 65d4 99bd 2a46 a4bf 0429 853d
000000d0: a5ea a9bd b5eb f0bd c5f2 ef3c 0da6 75bd
000000e0: 4a34 37bf 8cbd af3c 9437 a23d bdae 84bd
000000f0: 7cc6 263d 6118 1bbe f089 81bd 5753 4e3d
00000100: 9050 213d 2d5e d73c 5d46 4fbd 7df4 b23d
00000110: 3609 2d3d b7e4 e5bd e954 23bd 1959 3c3d
00000120: ffca 56bc f8a3 d5bc e3c0 853d 3428 31bd
00000130: bf65 edbc d9b1 5dbd 8e3f 7fbd 606c 863b
00000140: 9eea 27bd 125a 70bd ccaa 8bbd c338 ffbd
00000150: 01f4 2fbe fa11 97bd b5c7 20be 00dd 23bd
00000160: 1217 973d 2958 483c 3889 92bd cac6 ba3c
00000170: 47de cdbe aa12 afbd b4cd 25bd 6197 31be
00000180: e776 f4bb fe48 abbd 7a15 d6bd 2ae5 c1bc
00000190: 83c8 e9bb 061f 8bbb aa18 73be e5bb a2bd
000001a0: 68ee a7bd ac50 bfbb b0cc 523d 753b 46bd
000001b0: 74fa 2dbe e77c 883d ed30 56bd 418c 683b
000001c0: 6759 e0bd af68 bcbd e817 653d b83d 47bc
000001d0: 4445 c1bd 572d 56bd 889c edbd cd95 38bd
000001e0: bc71 44bd b871 d23b d337 9dbd 337b 85bd
000001f0: 8698 803d e4f9 56bf bfbf b0bd aa04 973d
00000200: 7e50 50bd bb44 a03d 55f9 90be 8185 74bf
00000210: ef82 893d 6678 5dbe 72c4 e5bd 4649 443d
00000220: 1cd6 0fbe ebbb 3b3d 537f 343d 37a8 e93d
00000230: 54b1 47be a025 d1bc e10b 09ba f8dc 7bbc
00000240: b9e4 bebd a589 303e 111a 433d aa60 f6bd
00000250: 0aa0 eabc 04e3 233d 6df4 633d ad31 b13c
00000260: 2ee7 fb3c ac3a bebd c7e0 dcbd 92f2 923d
00000270: 4ae8 333d d61f f7be 76b3 4e3d 428c aebd
00000280: 203c 62be d223 8bbd c119 d63d 04cd 253b
00000290: da53 09bd 2955 bcbd de7c 64bf 8faa efbd
000002a0: cc06 05bc 9e52 ea3d 842b e5be c268 6c3b
000002b0: b2f8 133d 8098 d63d cc4c ecbe bbdf 023e
000002c0: 46d7 3abe 9236 e2bd 0218 c4bc 80b2 5c3d
000002d0: 46cd 813d 353f ccbe 92d5 c1bb ae41 053b
000002e0: 4d2a c73d 39b7 d33c 3c51 fc3b 97f4 0cbe
000002f0: c8bb a0bd 4834 efbe 7b36 a43d d77c 80bd
00000300: 1ebd 223d e616 82bc 6e99 56bd 6b02 81bd
00000310: 7a13 a4bd 5f76 b4be 700a 993d e9cf 873d
00000320: ae50 90be cf7e 67be 5f3b 8e3b 1339 09bc
00000330: 851d d3be d5a6 93bd 6b80 5bbe ed54 7fbe
00000340: 5cc6 60bd a256 d4bd cd57 9d3b c02d 18bf
00000350: 03a2 6dbe 67c8 87be 1b5e 0dbe bda7 cbbe
00000360: 25a9 1fb9 6717 8dbd 5b3e bfbe 6f42 2d3e
00000370: af0b b33a 654b 11bd f8b0 173c f749 14be
00000380: 34bf 43be e260 08bd 5fe1 35bb 1b5c 6ebe
00000390: c5d8 13bf 8e79 2bbe e375 fabd 3918 0dbc
000003a0: 2794 a23b 57dc 85bc 433b 363d 9bdb 73bd
000003b0: 860d 303c 7188 9b3d 8771 163d 0c80 99be
000003c0: d69a 063a 8869 843d d160 65bd 5c03 6fbd
000003d0: 2064 fabd 0d22 39bf 1585 12bf ebdb f83c
000003e0: f61c 433e a79b 00bd cf6a 2fbd 98c1 373d
000003f0: cb5f b8bc 92f5 153e a3d0 d7be c994 08bd
-0.15510456 -0.078375846 0.05494915 -1.2641314 0.040678363 0.062667675 0.03151706 0.029085714
0.00054322515 -0.028593596 -0.07631302 -0.11064128 -0.02044045 0.03429467 0.052238338 0.06060314
-0.02484822 -0.32624197 0.07133339 -0.051354956 0.043680605 -0.061234865 -0.023029754 -0.06800267
-0.0642936 -0.07402103 -0.027753491 -0.07195223 -0.6395916 -0.32933876 -0.08789032 -0.034485217
-0.030601753 0.014770777 -0.19834717 -0.03620113 -0.03115845 0.07947476 -0.21825169 -0.16204318
-0.09629525 -0.07566702 -0.14813831 -0.3362545 0.04215132 -0.06271988 -0.03163275 -0.16677544
-0.17011017 -0.07511214 -1.2833912 0.06501964 -0.08296708 -0.117637075 0.029290566 -0.05997281
-0.7156416 0.021452688 0.07920757 -0.06478641 0.040716633 -0.15146019 -0.063251376 0.050372448
0.03938347 0.026290024 -0.050604213 0.08738039 0.042245112 -0.112252645 -0.0398759 0.045983408
-0.0131099215 -0.026079163 0.06530931 -0.04325123 -0.02897918 -0.054124687 -0.06231647 0.004102275
-0.040995233 -0.058679648 -0.06819686 -0.12461998 -0.17182924 -0.07376476 -0.15701182 -0.040005684
0.07377447 0.01222805 -0.07155079 0.022799868 -0.40208647 -0.08548482 -0.040479377 -0.17342903
-0.0074604633 -0.083635315 -0.10453315 -0.023668844 -0.0071344986 -0.0042456416 -0.23739877 -0.07945994
-0.08199769 -0.0058384743 0.051464736 -0.048396546 -0.16990072 0.06664448 -0.052292753 0.0035483988
-0.10954552 -0.09199654 0.055931002 -0.012160711 -0.094370395 -0.052289333 -0.116021216 -0.045064736
-0.047960028 0.0064222477 -0.07676663 -0.06517639 0.062790915 -0.8397505 -0.08630323 0.073739365
-0.050858013 0.07825609 -0.28315225 -0.9551621 0.06714427 -0.2162796 -0.112191096 0.04792144
-0.1404652 0.04583351 0.04406674 0.114090376 -0.19501239 -0.025530636 -0.00052279053 -0.015372507
-0.09320969 0.17240007 0.04763228 -0.12030156 -0.028640766 0.04001142 0.055653024 0.021630133
0.030749884 -0.092885345 -0.107850604 0.07175173 0.0439227 -0.48266476 0.050464116 -0.08522846
-0.22093248 -0.067939416 0.10454131 0.00252992 -0.033527233 -0.091959305 -0.8925303 -0.11702453
-0.008119296 0.11441539 -0.44759762 0.0036073183 0.036125846 0.10478306 -0.4615234 0.12780659
-0.18246183 -0.11045565 -0.023937229 0.05388117 0.06337981 -0.39891973 -0.005915352 0.0020333338
0.09724865 0.025844203 0.0077001136 -0.13765179 -0.078483164 -0.46719575 0.08018204 -0.06273811
0.039731137 -0.01588006 -0.052392416 -0.06299289 -0.08011527 -0.3524656 0.07472694 0.066314526
-0.28186554 -0.22606967 0.0043405737 -0.008375424 -0.4123346 -0.07209555 -0.21435706 -0.2493474
-0.05487667 -0.103680864 0.0048017264 -0.5944481 -0.23206334 -0.26520082 -0.1380543 -0.39776412
-0.00015226433 -0.06889229 -0.3735226 0.16919874 0.0013660098 -0.035472292 0.009258501 -0.1448134
-0.19115907 -0.03329552 -0.002775274 -0.23277323 -0.5775264 -0.16745588 -0.12229516 -0.008611732
0.004961509 -0.016340418 0.04449011 -0.059535604 0.010745412 0.075943835 0.03672936 -0.29980505
0.00051347667 0.06465441 -0.056000534 -0.058352813 -0.122261286 -0.7231758 -0.5723432 0.030378303
0.19054016 -0.03139844 -0.04282647 0.04486236 -0.022506615 0.14644459 -0.42151365 -0.033345018

bias f4 [9]
00000000: 5b03 cebc 848f 82bd 7540 9abd ad25 24be
00000010: 1df4 7cbc efdf ab3d bd61 8a3e 1c58 e8bd
00000020: b461 f0bd
-0.025148084 -0.0637503 -0.075318255 -0.16029997 -0.0154390605 0.08392321 0.27027693 -0.113449305
-0.117373854
