DeepControlledLearning/PolicyWeights/lost_salesgeometric_p19_l4_N5000/_gen.pth (torch, 288188 bytes, 10 tensors)

weight f4 [256, 4]
000000 2c ae 14 be 69 50 25 be 25 0b 7b 3e ae b5 87 be
       -0.14519566 -0.16143955 0.2451597 -0.26505798
000010 df 69 b8 bd 47 7f 6f 3e 96 0c d2 be ea 36 b8 3e
       -0.09004568 0.23388396 -0.41025227 0.35979396
000020 86 b2 dc 3c 1c 11 6c 3d ce 41 b3 3e a7 51 88 3c
       0.026940595 0.057633504 0.35011142 0.016640497
000030 70 a4 70 bd 90 a0 5a be 60 1a d9 3c 4c f0 5b be
       -0.05875057 -0.21350312 0.026501834 -0.21478385
000040 30 01 98 3e 8c b1 44 be 01 31 14 bd 5f d6 4f 3e
       0.29688406 -0.19208354 -0.036179546 0.2029662
000050 fd 08 3e 3c 24 76 45 be 55 fb 6e 3d 74 0b 60 3e
       0.011598823 -0.19283348 0.058345158 0.21879369
000060 11 fa 9a 3c 47 ca 67 3e 54 af 2e bd 68 81 51 3d
       0.01891807 0.22635756 -0.042647675 0.051148802
000070 20 0b 98 3e 29 5c 9d be 04 8e 67 be a6 5d 89 3e
       0.29695988 -0.30734375 -0.22612768 0.2682926
000080 03 4a 55 3e 42 e4 b3 3e b8 a2 f0 3e 93 d5 89 3e
       0.20829014 0.35135084 0.46999145 0.26920757
000090 2e f9 f1 3d 0b d5 24 3e 86 70 35 be 7a e8 d6 be
       0.118151054 0.16096894 -0.17718706 -0.4197424
0000a0 f2 ec a5 3e d5 2a 99 bd b8 e0 f1 3e 67 f4 68 be
       0.32407337 -0.07478873 0.4724176 -0.22749482
0000b0 9f 2d a3 bc fc 4e 9b 3e d1 93 de be b0 06 f6 3e
       -0.019919215 0.30333698 -0.4347215 0.48051977
0000c0 f0 d2 b1 be 3c fd 10 be 0e 39 80 3e bd 30 57 bd
       -0.34731245 -0.14159101 0.2504353 -0.052536715
0000d0 80 15 9a be e6 4a 8a be 76 1f c0 be 50 45 b0 3d
       -0.30094528 -0.27010268 -0.37524003 0.0860697
0000e0 36 80 5c be c2 fb c1 3e 29 42 e1 bd 0c 46 f9 3e
       -0.21533284 0.37887388 -0.10998947 0.48686254
0000f0 d9 66 fd 3b 6f 26 ba 3e 47 63 5a 3c 1c aa 7a be
       0.0077332077 0.36357448 0.013329334 -0.24478954
000100 c4 bf d3 be 50 58 04 be 94 0f 3d be bc 54 06 be
       -0.41357243 -0.12924314 -0.18462974 -0.13118261
000110 d1 06 16 bd 59 96 0e 3d ac 3b 52 3d 36 45 f6 3e
       -0.036627594 0.03481135 0.05132644 0.4809968
000120 b7 8c da 3d 92 07 4f 3e 2d 03 6b be 11 13 a3 be
       0.106713705 0.20217732 -0.2295043 -0.31850484
000130 e0 cc 5a be f0 d0 e6 be d2 ee df be 24 9d 43 be
       -0.21367216 -0.45081282 -0.43736893 -0.19102913
000140 3a 8a f7 3c e6 04 e4 3d bb cb 9e 3e 0d e1 29 3e
       0.030217279 0.11133747 0.3101481 0.16589756
000150 24 dc 1d 3d 50 69 94 3d 44 fd 57 3e 71 c9 01 bf
       0.03854002 0.07246649 0.21092707 -0.50698
000160 b3 ea 3d 3c cb 9e ec 3e 5c 53 a5 3e 63 35 48 be
       0.011591601 0.462149 0.3229016 -0.19551615
000170 ad 87 35 3e cc 55 3f be 06 50 bd be 04 6a b1 3e
       0.17727537 -0.18685073 -0.36975116 0.34651196
000180 f3 1f ac be 28 e0 d2 3e 97 ce d6 be d0 5a 48 be
       -0.33618125 0.41186643 -0.4195449 -0.19565892
000190 d0 d8 dd be 8e 34 ca be 90 ec 18 bd 3e 17 8e be
       -0.43329477 -0.3949322 -0.03733498 -0.27752107
0001a0 ca 33 87 3e b4 86 93 3e 81 29 ba 3e 10 79 0e be
       0.264067 0.28813708 0.3635979 -0.13913369
0001b0 df e4 d4 3d e2 a2 c4 3e e7 10 e8 3e 2b dc 08 bf
       0.10395216 0.3840552 0.45325395 -0.5346095
0001c0 fa fb 09 3e 72 7f 3c 3e 6c 66 91 be 64 cd 83 be
       0.13475028 0.18407992 -0.28398454 -0.25742638
0001d0 bd d9 db be a6 ea b0 be e5 be df 3e 68 30 a4 3e
       -0.4293956 -0.34554023 0.43700328 0.3206818
0001e0 7b 95 84 3d 3f ed 8b 3e 55 3f 93 3e 8b c7 25 3d
       0.06473824 0.27329442 0.28759256 0.040473502
0001f0 8c f4 9e 3e 5c 83 b9 3e a6 6f a6 be dd 58 ec be
       0.3104595 0.36233032 -0.32507056 -0.46161547
000200 65 57 d2 bd cf c7 c1 3e 7a 71 06 3c 11 2b a6 3d
       -0.102705754 0.37847754 0.008205766 0.08113683
000210 39 e5 c6 3d b4 5c 12 3b eb 4f a8 3d d1 82 8e 3c
       0.097116895 0.0022333087 0.08218368 0.017396362
000220 d7 a1 bc 3e 95 01 fb be e5 b3 bc 3e 2e b4 2e 3e
       0.36842224 -0.49024644 0.36856 0.1706092
000230 bf fd 02 bf bd 37 64 3e cb be da 3e b0 ad 1e bf
       -0.51168436 0.22286887 0.42723688 -0.61983776
000240 7b 4b 90 3e d4 eb aa 3e cc 23 a4 bd 08 65 c6 be
       0.28182587 0.33383048 -0.0801464 -0.38748956
000250 8f 0a 66 3e 62 6f ad be a8 1f c4 3e 7a 7d f9 be
       0.22464965 -0.3387404 0.38305402 -0.48728544
000260 22 9a 8b be 51 2a b3 3c 1e 03 f9 3e ff f1 c9 3e
       -0.27266032 0.021870764 0.4863519 0.3944244
000270 fc 20 21 3e de a0 a3 3e 31 25 8d be 3e 46 9e be
       0.15735239 0.3195867 -0.27567437 -0.30912966
000280 8c 33 8b 3e a7 3a 03 bf ba 88 a3 be d2 c9 0f bd
       0.27187765 -0.5126137 -0.31940252 -0.03510458
000290 8b 75 a8 bc 14 a7 f0 bc 01 29 d6 3e 4c d1 b7 3e
       -0.020563861 -0.029376544 0.41828158 0.35901868
0002a0 b6 cb e5 be fa 86 c0 3e d8 b0 56 be 16 60 d5 be
       -0.44881982 0.3760298 -0.20965898 -0.4167487
0002b0 95 3a 3f be d6 3a f5 bd e4 cd da 3e a2 2a 86 3e
       -0.18674691 -0.11974113 0.42735207 0.262044
0002c0 74 17 b9 be 13 4d 7c be 06 be 77 3e 2e e6 9e be
       -0.36150706 -0.24638776 0.24193582 -0.31034988
0002d0 c2 af ee 3d 54 6a f7 be 2a 03 54 3e 0f fe a4 be
       0.11654617 -0.4832331 0.20704332 -0.3222508
0002e0 b5 a7 cd bc e3 f9 05 3f fe 80 7a be 83 c4 7f 3d
       -0.025104383 0.5233442 -0.24463269 0.062443268
0002f0 4b 65 ee 3d 69 33 83 be 1d a8 5d 3e 80 5e fa 3d
       0.11640414 -0.2562516 0.21646161 0.12225056
000300 0a c1 f6 be ec 3a 47 be a0 38 2c bd b0 ab 25 3d
       -0.48194152 -0.1945607 -0.04204619 0.040446937
000310 32 f9 28 3d 79 cf 03 be f7 a2 d7 3d ad 5a af 3e
       0.041253276 -0.12872113 0.1052913 0.34248868
000320 8f 03 07 3e 75 4a 38 be cc f9 49 3e df 73 55 bd
       0.13184951 -0.17997153 0.19724196 -0.052112456
000330 40 2d 5e 3c eb 14 f2 be 34 df 12 bc db c1 e8 3e
       0.013560593 -0.47281584 -0.008964349 0.454604
000340 b6 c8 ef 3e 08 af 4c be d4 19 40 be d3 ea d3 be
       0.46832818 -0.19988644 -0.18759853 -0.41390094
000350 bd 79 8b 3e 32 e7 e1 be f4 c5 9f 3d 9b e2 a2 3e
       0.27241316 -0.441217 0.078014284 0.3181351
000360 ec 81 e2 be b6 97 c0 3e 7a a4 45 3c 48 0c 2a 3d
       -0.44239748 0.37615746 0.01206314 0.04151562
000370 98 59 e3 bd f0 ca b2 bd 14 9c d3 be 88 51 30 be
       -0.11101073 -0.087301135 -0.41330016 -0.17218602
000380 66 b3 37 3e e5 f1 00 3d 76 1c 7d bd a0 74 b7 be
       0.17939529 0.03148069 -0.06179472 -0.35831165
000390 1f e7 53 3e 5f 9b 4d 3e 4b 68 17 be 7e 77 f7 bd
       0.20693634 0.200788 -0.14785878 -0.12083338
0003a0 bd 63 93 3e 20 9c 97 3e 21 3c cd 3e e9 02 87 be
       0.28787032 0.296113 0.40084937 -0.26369408
0003b0 27 c7 fe 3d 61 ff 82 be 33 da 71 3d b8 70 90 be
       0.12440329 -0.25585464 0.05904598 -0.28210998
0003c0 54 80 dd 3c 75 a4 83 be 47 39 cb 3e f3 ff 06 bf
       0.02703873 -0.25711408 0.39692137 -0.527343
0003d0 56 d8 14 3e c1 7c 6f be 31 fc f4 bc 38 83 06 3d
       0.1453565 -0.23387434 -0.02990541 0.032839984
0003e0 d2 53 ba be fa bc f3 3e 1f 5e 3c 3e f2 3e b6 bd
       -0.36392075 0.47605115 0.1839528 -0.088987246
0003f0 b4 22 ba be 76 11 25 3e 8c 6f 60 3e b8 48 2f 3e
       -0.363546 0.16119942 0.21917552 0.17117584

bias f4 [256]
000000 76 9d 53 3e 32 4b 13 bf 36 aa a2 3d d6 30 97 3e
       0.20665535 -0.57536614 0.079426214 0.29529446
000010 79 af 08 3f 53 32 52 3f 10 ff 0c bf 1f 7a c4 be
       0.5339275 0.8210804 -0.55076694 -0.3837442
000020 da d8 be be cd cb bb be 8c 47 d3 be c5 02 0f bf
       -0.3727482 -0.36678925 -0.41265523 -0.558636
000030 53 da a0 bc 40 3f 42 3d 28 cf 0f 3f 28 b3 da 3e
       -0.019635355 0.0474236 0.5617547 0.4271481
000040 10 c2 ec 3e 95 9a 2d bf 4c e1 cf be c0 18 58 3e
       0.46241808 -0.67814 -0.40601575 0.21103191
000050 21 34 dc be d1 7f eb 3d a6 f5 2d 3f 75 69 3a 3f
       -0.4300852 0.114989884 0.67952955 0.72817165
000060 ab 4f 12 3e 2c 35 c0 3e 17 58 90 bd 14 e6 23 bf
       0.14288203 0.37540567 -0.07048052 -0.64022946
000070 86 36 ea be 39 c8 4c be 1e 6b 67 be d4 b3 cd 3e
       -0.45744723 -0.19998254 -0.22599456 0.4017626
000080 b7 1e 52 3f 31 62 37 bf 6c ad f2 be 36 3c b4 3c
       0.8207812 -0.71634203 -0.47397935 0.022001367
000090 12 8a 7d 3e ad 97 a4 be e3 ff 09 bf db 42 8f be
       0.24759701 -0.3214697 -0.5390608 -0.27980694
0000a0 5c 39 bf 3e 69 a2 d0 3e b0 5d a9 be f7 4e 44 3f
       0.3734845 0.4074891 -0.3307929 0.7668299
0000b0 18 73 8b bc fe 85 c2 3e 23 64 2e bf 90 ec 9e be
       -0.017022654 0.37992853 -0.68121547 -0.31039858
0000c0 60 1b 42 3e 64 b9 31 bf 6f 7d 68 3e dc 0f bd 3e
       0.18955755 -0.6942351 0.22704099 0.36926162
0000d0 9e 9f 47 bf 93 e4 d6 bd 09 9e 61 be bc 14 43 3e
       -0.7797793 -0.10492816 -0.22032942 0.19050878
0000e0 44 7d ad 3e ae e8 4a 3d cf bc 31 bf 7a 50 c6 be
       0.33884633 0.049538307 -0.69428724 -0.38733274
0000f0 81 37 e0 3d b8 32 5f 3f 86 0f e2 3e eb 37 6f bb
       0.109480865 0.87186766 0.44152468 -0.0036501836
000100 ac 39 4b 3f 19 be 23 bf 14 27 04 3f 10 d8 ce 3e
       0.79384875 -0.6396194 0.5162213 0.40399218
000110 d4 28 2b be 9e 7e 4c 3f 7a 1d 12 3f d1 22 40 3f
       -0.16714793 0.798807 0.5707623 0.75053126
000120 be 51 28 bf ae 1e e7 3e 39 bf 38 bf e3 e9 08 bf
       -0.6574973 0.45140594 -0.7216678 -0.5348188
000130 f6 cb 8b be e3 f1 d3 be 8b c0 5e bf ff a1 01 3f
       -0.27304047 -0.41395482 -0.8701255 0.5063781
000140 85 ea e1 be 80 54 58 3c 68 c4 45 3f 3d bc 1d bf
       -0.44124237 0.01320374 0.7725282 -0.61615354
000150 f1 70 b4 be 2d 76 3c 3f f4 f0 f6 3d 43 dd 3b 3f
       -0.35242417 0.7361782 0.12057677 0.73384494
000160 ab 11 9d bc 29 b4 a8 3e ec ce 30 3f 9c f9 99 be
       -0.019173464 0.3294995 0.6906574 -0.3007325
000170 a0 6b b1 be 08 7e 3b 3f 37 d1 56 3f 36 63 62 bd
       -0.34652424 0.73239183 0.83912987 -0.055270396
000180 72 2a ee be 31 d4 23 3d a2 07 77 be 20 5f e6 3e
       -0.46516758 0.039997283 -0.24124005 0.4499445
000190 53 4b 0f bf 47 0a 4a bf bf 90 60 3e c0 c5 25 3f
       -0.5597431 -0.7892193 0.21930216 0.6475487
0001a0 e4 db 35 3f 43 23 1b bf 32 8a 3e 3f 7e 70 39 3f
       0.7103865 -0.6060068 0.7442962 0.72437274
0001b0 4f f9 7d 3e aa db f2 3e 54 4b ef 3e d8 35 98 3e
       0.24802135 0.47433215 0.46737158 0.2972858
0001c0 8d f9 f7 bd f5 ea aa be aa a3 3b 3f 96 79 45 3e
       -0.12108145 -0.33382383 0.73296607 0.19284663
0001d0 7d 2c b7 be 99 57 d0 be 81 8e cc 3e f8 7a 05 bf
       -0.3577613 -0.40691832 0.39952472 -0.5214076
0001e0 f0 bb 2c bd 3f ea 4b bf 84 46 0f bf 11 6c 4d bf
       -0.04217142 -0.79654306 -0.55966973 -0.8024302
0001f0 3c ad de 3d 69 a7 45 be 03 c9 bf 3d c6 dd 04 3e
       0.108728856 -0.19302143 0.09364512 0.12975225
000200 30 19 6d be ae 67 ce be 4c 54 e5 be 8c 72 92 3e
       -0.2315414 -0.40313476 -0.44790876 0.28603017
000210 cb f5 28 bf 76 2d 40 bf c6 7d 28 bf e7 dc 8b be
       -0.6600005 -0.7506937 -0.65816915 -0.27316973
000220 25 1e b1 be ce c9 c3 3e 3e 3f 41 3f 14 46 f8 3e
       -0.3459331 0.38239902 0.75487125 0.48490965
000230 0b 94 a6 be 71 ad 33 be e1 02 07 bf ca 19 ba 3e
       -0.32534823 -0.17546631 -0.5273877 0.363478
000240 70 8f 9c be 26 99 24 3f c9 83 56 3e 51 6d 89 be
       -0.30578184 0.64296186 0.2094871 -0.26841214
000250 7b 71 98 3e be bf be be 81 cb b0 3b 3a 01 fd be
       0.2977408 -0.37255663 0.0053953533 -0.49414998
000260 a1 96 14 3e ac 9c 92 3d 4b be eb be 9f 81 44 3f
       0.14510585 0.07158789 -0.4604362 0.76760286
000270 9a ef f0 bc 8e f9 42 be 5a 5b 2b 3f 6a 26 80 be
       -0.029411126 -0.1904051 0.66936266 -0.25029308
000280 ec 00 26 bf d0 48 1a 3f cb 34 a3 3e 4c ee 31 3d
       -0.64845157 0.60267353 0.31876215 0.04344015
000290 68 a4 26 be 2a 9b 94 be a8 4b 2e bf a0 e9 22 3d
       -0.16273654 -0.2902463 -0.6808419 0.039773583
0002a0 5d 2d 57 3f 49 9c cb bc 55 f1 30 bf 41 a3 1b bf
       0.84053594 -0.024854796 -0.69118243 -0.6079598
0002b0 32 3b 28 3f ab 14 3b 3f c1 9b 02 bf 83 0f de be
       0.65715325 0.7307841 -0.5101891 -0.4337121
0002c0 44 11 f4 3d a8 84 26 be 32 0f 15 bf be e6 da be
       0.11917356 -0.16261542 -0.5822631 -0.42754167
0002d0 59 7b 01 3f 1e 97 cb be 64 92 0f be ce 14 1c 3d
       0.5057884 -0.3976373 -0.14020687 0.03810578
0002e0 e5 6c e6 be 2c 86 27 bf 2e 45 45 3e 15 a0 2c bc
       -0.45004955 -0.65439105 0.19264671 -0.010536213
0002f0 36 57 d1 3e 74 78 12 bf 90 36 ea be 8c 9e 80 3e
       0.4088685 -0.57215047 -0.45744753 0.25120962
000300 18 d9 1f 3e 22 9a 8e be 6c d0 d4 3e 25 3c 2d be
       0.15610158 -0.2785197 0.41565263 -0.16917475
000310 06 76 3e bf e5 84 56 be 5c fd d8 3e fb 6a f8 3e
       -0.7439884 -0.20949133 0.42380798 0.4851912
000320 1f cc 6f bd ab 46 40 bf 6b da 86 be a9 09 c0 3c
       -0.058544274 -0.7510783 -0.26338515 0.023442106
000330 d2 00 8d 3e b3 00 c9 3d ad 3d 2f bf 11 d1 4b 3f
       0.27539688 0.098145865 -0.68453485 0.79615885
000340 d8 e8 e0 be c1 52 f5 be 97 5f 67 bf 5e 4a 78 3e
       -0.43927646 -0.479147 -0.90380234 0.24247119
000350 3e f2 dc 3e f9 4e 1f bf 68 3b 77 3e 5c 6b 3b bf
       0.43153566 -0.6222988 0.24143755 -0.7321069
000360 42 12 c0 3e 74 15 e0 3e 42 87 ad be 07 36 f6 be
       0.3751393 0.43766367 -0.33892256 -0.48088095
000370 4a 4b e6 3e a6 b0 b7 3e 9d 5d 0a bf b6 1f bf be
       0.44979316 0.3587696 -0.5404909 -0.3732888
000380 f2 82 d4 be 65 d9 21 3f ff 8b 1b bf ae 31 af be
       -0.41506153 0.6322234 -0.6076049 -0.3421759
000390 1f f3 81 bc 17 6e 1e bf cc 14 11 3e 7a a8 87 be
       -0.015863 -0.61886734 0.1416809 -0.26495725
0003a0 3c 8e fb 3e 27 95 b2 be cd 87 b3 be f8 f8 4d 3f
       0.49131954 -0.3487942 -0.35064545 0.8045802
0003b0 82 d4 35 3f f3 2d dc 3e 1e f2 c9 3e 00 c2 dc 3e
       0.71027386 0.43003806 0.39442533 0.4311676
0003c0 98 51 4c 3e 1e fd 1e 3f 37 a6 20 3f f3 7b 52 bf
       0.19953 0.62104976 0.62753624 -0.8222038
0003d0 dd a9 ad 3e 83 ae 8f be 71 b7 04 bf 10 69 4e be
       0.33918658 -0.2806283 -0.5184241 -0.20157266
0003e0 0c ab 1f bf 18 7d 26 bf bb 2c 53 be f8 c0 35 bf
       -0.6237037 -0.6503463 -0.20622532 -0.7099757
0003f0 c9 a6 f0 be 34 99 58 be 59 0b 8d be 3c 3f 2d 3f
       -0.47002247 -0.21152192 -0.2754772 0.67674613

weight f4 [128, 256]
000000 5e 99 55 3d 60 c4 37 3c 14 b9 e3 3c f4 db 9f 3c
       0.052148215 0.011216253 0.027798213 0.019514062
000010 c4 1d f4 bc 24 bf f8 3c 5c f5 68 3d 00 81 22 bd
       -0.02979935 0.03036458 0.056874618 -0.039673805
000020 80 30 62 bb 50 ba d2 bc dc f8 90 3c b0 71 c8 bc
       -0.0034513772 -0.025723606 0.01769679 -0.024468273
000030 d0 d1 d0 bc d6 8a 53 bd 5c 06 f8 3c a0 28 17 3b
       -0.025490671 -0.051646076 0.03027647 0.0023064986
000040 70 b2 e4 bb 40 12 c4 ba 94 18 bc 3c 24 db 03 3d
       -0.006979279 -0.0014959052 0.022960939 0.03219141
000050 50 1c bd bb 10 f4 33 bc 40 b5 79 bd 5c b8 18 bd
       -0.0057711974 -0.010983482 -0.06096387 -0.037285194
000060 c0 ac 65 3b bc c3 17 3d 2c d4 8d bc 68 de 97 3c
       0.0035045594 0.0370519 -0.017313085 0.018538669
000070 54 81 ef 3c a0 fd 25 bc e4 3e cc 3c a4 89 ef 3c
       0.029236473 -0.01013127 0.024932332 0.029240437
000080 50 33 9b bc 44 16 e0 bc c0 17 cc ba 86 56 79 bd
       -0.018945366 -0.027354367 -0.0015571043 -0.06087353
000090 fc 8a de bc 90 6d 77 3d c2 50 09 3d d0 23 7c 3c
       -0.027165882 0.06040722 0.033524282 0.015389398
0000a0 60 c7 c3 bb 7e f5 38 3d 58 32 08 bc 0c c7 85 bc
       -0.005974695 0.045155995 -0.008312784 -0.016330265
0000b0 40 05 35 3b 88 91 4d bd ea 3a 43 3d 6c 70 94 3c
       0.0027621537 -0.050187618 0.047663607 0.018120013
0000c0 f8 8b 4c bc e8 43 6e bd 44 14 85 bc 62 04 74 3d
       -0.012484543 -0.05817023 -0.016245015 0.059574492
0000d0 a6 16 65 bd 96 46 44 bd 1c 02 c5 bc 00 75 66 3c
       -0.055929802 -0.04791888 -0.024048857 0.014065981
0000e0 c2 ea 2e bd 98 39 99 bc 20 05 4b bc ec b4 75 3d
       -0.04270435 -0.01870422 -0.012391359 0.059986994
0000f0 c0 f7 84 3a 16 ec 50 bd 68 13 19 bd 84 da 9c 3c
       0.0010144636 -0.0510064 -0.037372023 0.019147165
000100 90 d2 5d bd 28 18 97 3c a4 cb 2e bd 88 dd 52 3c
       -0.054155886 0.018444136 -0.042674676 0.0128702
000110 68 2d 04 bd 90 9c 00 bc 90 fd 1d 3d 72 79 3d bd
       -0.032269865 -0.007849827 0.038571894 -0.046258397
000120 36 43 29 3d 58 4e 08 3d 48 8f 9b 3c 1c 9b d8 bc
       0.041323863 0.03327784 0.01898922 -0.02644115
000130 fc 79 8e 3c e0 8e 47 3c 90 8c 38 bc a2 db 49 bd
       0.017392151 0.01218006 -0.011263981 -0.049281724
000140 38 03 54 bc d6 1b 33 bd b8 e3 44 3c 30 32 ac bc
       -0.012940221 -0.04372772 0.012017183 -0.021020025
000150 14 d0 02 bd 64 8d 32 3d 84 05 cd 3c 0c 98 7c 3d
       -0.03193672 0.04359187 0.025027044 0.06166844
000160 b0 f6 6b 3d 8e ab 3e 3d 18 3b ec bc 30 8e 71 bd
       0.057608306 0.046550326 -0.028836772 -0.05897349
000170 38 4e 62 bd 4c 6f a5 bc 44 ef 78 3d 00 9d e1 39
       -0.055250376 -0.020194672 0.060775056 0.00043032318
000180 e0 89 d2 bc 7a 99 7d 3d c0 dc aa ba 00 2c 99 bb
       -0.02570051 0.061913945 -0.0013035759 -0.0046744347
000190 c0 f6 55 3c b4 70 48 3d e8 de b3 3c 48 75 b6 bc
       0.013059318 0.048935607 0.021956876 -0.022272721
0001a0 3e 87 57 3d 38 01 36 bc 00 ce 3e b9 68 82 57 bc
       0.05261921 -0.011108689 -0.00018196553 -0.01315365
0001b0 f8 82 1f 3d 00 8e 25 ba c4 83 07 3d e0 fc 0c 3b
       0.03894326 -0.000631541 0.033084646 0.002151303
0001c0 a0 23 4a 3c a8 98 28 3d 00 3d 3d ba 78 03 00 bc
       0.012337595 0.04116121 -0.00072188675 -0.007813327
0001d0 e0 6e 30 3b e8 b5 5e bc c0 55 5b 3c 98 c6 d8 3c
       0.0026921555 -0.0135931745 0.013387144 0.026461884
0001e0 c8 2c 80 bc 08 fa 33 3c b8 19 61 bd e2 9c 53 3d
       -0.015646353 0.010984905 -0.054956168 0.051663287
0001f0 de b8 7e 3d 8e e3 51 3d 24 be bc 3c c0 f9 22 bc
       0.06218802 0.051242404 0.023039885 -0.00994724
000200 6e 6a 59 bd c2 75 34 bd e0 46 3f bb dc b1 4b 3d
       -0.053080015 -0.044057615 -0.0029186532 0.049730167
000210 d4 8a f8 3c f0 22 3d 3c 8e 45 35 bd ec 72 a2 bc
       0.030339636 0.011543974 -0.044255786 -0.01983019
000220 92 10 08 3d 98 18 00 3d e0 ef 34 bc 74 b5 91 bc
       0.033218928 0.031273454 -0.011043519 -0.017786719
000230 e4 4d 04 bd ca 06 3b bd 24 70 d7 3c 54 4f f6 bc
       -0.032300845 -0.04566077 0.02629859 -0.030067123
000240 d8 72 01 3d 10 8e 1b bc 96 9e 5f bd f8 bd 7a bd
       0.031603664 -0.00949432 -0.0545946 -0.061216325
000250 c2 44 0a bd 40 b0 bc 3a 9e 17 2a 3d 64 5e 7b 3d
       -0.03375698 0.0014395788 0.04152643 0.061369315
000260 28 f2 1b bd 02 88 78 bd 28 df eb bc f8 32 06 3d
       -0.038072735 -0.060676582 -0.028792933 0.03276345
000270 40 6d 6c 3c fe 8f 34 3d ba 9a 71 bd 10 b0 3e 3d
       0.014430344 0.044082634 -0.05898545 0.046554625
000280 b6 c9 73 3d a0 b4 03 bc 98 97 88 bc 9e 52 18 3d
       0.05951854 -0.00803867 -0.016673848 0.037188165
000290 18 6e e0 3c 00 e0 44 3b 26 f1 11 bd 70 cf 0e bc
       0.027396247 0.003004074 -0.035630368 -0.008716449
0002a0 2e 18 1c 3d 0c f9 de bc 6c d6 c1 bc e0 3e 1c 3c
       0.038108997 -0.027218364 -0.023661815 0.009536475
0002b0 12 f4 6d bd 40 0f b9 3a e4 3c fe bc f6 1e 01 3d
       -0.05809409 0.0014118925 -0.031034894 0.031523667
0002c0 30 43 55 bd 12 cd 65 3d 38 13 6a bd ae 23 55 3d
       -0.052066028 0.056103773 -0.057147235 0.05203598
0002d0 1a b0 5b 3d 20 c4 6b 3d c8 b7 cc bc 32 e4 7b bd
       0.05363474 0.057560086 -0.024989977 -0.06149692
0002e0 cc 8f 1d bd a2 bd 66 3d ac b4 c3 bc 60 55 d4 bb
       -0.038467214 0.05633319 -0.023889862 -0.006479904
0002f0 26 82 26 bd 08 2b 30 bd ba 1e 78 3d 00 b1 e7 3a
       -0.040651463 -0.043009788 0.060576178 0.0017676651
000300 88 ca ae 3c a0 4e 03 3b 2c 31 67 bd b2 21 6d 3d
       0.021336809 0.0020035878 -0.05644338 0.057893462
000310 ec 43 ff 3c 20 15 25 bc 80 d1 28 3d b0 7d bd bb
       0.031160317 -0.010075837 0.04121542 -0.0057828054
000320 72 8b 40 3d e4 9f f1 bc a0 33 12 3d 58 0b 68 3d
       0.047007985 -0.029495187 0.035693765 0.056651443
000330 78 22 11 bc 5e 72 13 bd fe e1 09 bd ce 5e 1b bd
       -0.008858316 -0.03599774 -0.03366279 -0.03793221
000340 e0 df 39 3d 18 64 53 3d 68 b0 28 bd 7c be 19 bd
       0.04537952 0.05160913 -0.04118386 -0.037535176
000350 9c 19 7e 3d 88 e2 07 3d c8 ba 54 bd cc 55 60 3d
       0.06203614 0.03317502 -0.05193594 0.054769322
000360 2a 37 13 bd 22 56 74 bd ce 53 02 bd b0 da f0 3c
       -0.03594128 -0.059652455 -0.031818204 0.029401153
000370 d0 5a b5 3b 18 5e 13 bd fe 0a 0b 3d 50 1c 18 3c
       0.0055345073 -0.035978407 0.03394603 0.009284094
000380 46 54 1b 3d e6 02 7c bd fc ca 35 bd 40 95 f5 3a
       0.037922166 -0.0615262 -0.044383034 0.0018736497
000390 d0 06 e2 bc 64 7c d3 bc 0e 65 0e 3d 10 cd 9c bb
       -0.02759114 -0.02581615 0.034764342 -0.0047851875
0003a0 c8 e5 b8 3c 0c 17 39 3d 4e 3d 3c bd 48 51 59 3c
       0.022570506 0.045187995 -0.045956902 0.013264008
0003b0 24 ef 8c 3c b0 27 df 3c f0 3e 1a bd 40 c0 a9 3b
       0.017203875 0.027240604 -0.037657678 0.0051803887
0003c0 40 7e 25 bb 46 04 26 bd 68 33 5f bd de 24 1f bd
       -0.0025252253 -0.04053142 -0.054492384 -0.03885352
0003d0 00 67 64 bd b0 c1 87 bb e8 6c 79 bd 8e 11 51 3d
       -0.05576229 -0.0041429624 -0.060894877 0.051042132
0003e0 a8 f4 33 bd 20 da 63 bc 4c 11 1d bd 8a a3 56 bd
       -0.043934494 -0.0139069855 -0.038346574 -0.052402057
0003f0 d8 2d 8d 3c 80 60 ba 3a bc f7 dd 3c 34 d5 97 bc
       0.017233774 0.0014219433 0.027095668 -0.01853428

bias f4 [128]
000000 00 99 a5 ba 60 d8 87 3e 33 2d c5 ba b4 c0 da bb
       -0.0012634099 0.2653227 -0.0015043378 -0.006675804
000010 ad e7 e2 bc a1 a4 a8 3c 18 0a a1 be 94 c2 53 3d
       -0.027698362 0.020586314 -0.31453013 0.051699236
000020 0c 7d b0 bb ea 8f 95 3e b0 67 90 bb 3f ea 5c 3e
       -0.0053860005 0.2921136 -0.0044068918 0.21573733
000030 19 66 ba 3c 93 b8 69 be de 4c 02 bd cc c6 c1 be
       0.022753762 -0.22824316 -0.031811588 -0.37846982
000040 a2 2c eb bd cc dc aa bd 35 47 90 3e fe 13 f1 bc
       -0.114831224 -0.08342895 0.28179327 -0.029428478
000050 4b 1c 36 3d 7d 02 30 bd c1 47 78 be 78 3d b1 be
       0.044460576 -0.042971123 -0.24246122 -0.3461721
000060 34 74 90 3d a0 ab 05 be 69 a1 42 bd b4 f7 ab 3c
       0.07053414 -0.13053751 -0.047517214 0.020992137
000070 ac 55 c9 3c 4c a0 0c bc a9 01 0e bc ee 5f 8e 3e
       0.024576984 -0.00858314 -0.008667388 0.27807564
000080 40 d8 f9 3b da 4c 6c bd 2f 77 a9 be 4a dd 06 3d
       0.007624656 -0.05769048 -0.33098742 0.03292588
000090 21 20 1b 3d 82 9e 8a bd cb ff 80 3c 21 48 74 bc
       0.037872437 -0.06768514 0.015746972 -0.014909775
0000a0 d4 04 d3 be cb d4 04 3d b8 df 1c 3d a6 6a 28 bd
       -0.4121462 0.032429498 0.038299292 -0.041117333
0000b0 72 40 b5 3c a2 6e 61 3d bb cc 8a bd 17 33 fa bc
       0.022125456 0.05503715 -0.067773305 -0.03054194
0000c0 f7 80 6a bc 92 6f b9 bd 79 71 86 bd 6b 43 b5 bd
       -0.014312974 -0.090544835 -0.06564612 -0.088507496
0000d0 f1 25 f1 3c 8e a2 2f be 2f 29 c6 bc 26 11 eb bd
       0.029437037 -0.17151853 -0.02418956 -0.1147788
0000e0 cc 2a da bc e2 d3 63 bd c4 a4 a6 be 76 b6 2f bd
       -0.026631735 -0.05562199 -0.3254758 -0.042898618
0000f0 8c 64 2b 3d 89 53 f2 3c f8 13 62 bd 2d 2c 19 bd
       0.041843936 0.029580848 -0.055194825 -0.037395645
000100 ed e0 ab be 9e 13 99 bc 38 d1 ac be b4 8c 9d 3e
       -0.33570042 -0.018686112 -0.3375337 0.3077141
000110 e9 a0 be be b5 04 41 bd 47 df 93 3c 15 5a 6c bd
       -0.3723214 -0.04712363 0.018050803 -0.057703096
000120 c9 18 f6 bc 65 a4 1e bd 3c 32 d8 bc 08 b2 33 3d
       -0.030041115 -0.038730998 -0.026391141 0.043870956
000130 ce 1e 97 bd 3a f6 eb 3c 7d 72 b5 3e 67 10 c6 be
       -0.073789224 0.028803933 0.3543891 -0.3868439
000140 20 5e 1c 3d e7 07 41 bc f0 e8 41 bd ef e1 e2 3e
       0.038175702 -0.011781669 -0.047341287 0.44313
000150 a5 60 66 bd ca 86 89 3c 39 ad 94 be fc 1f 96 bd
       -0.05624451 0.016787905 -0.29038408 -0.07330319
000160 f1 05 4b be f2 ce 03 3d e4 1d cd be 66 f4 a9 be
       -0.19826485 0.03217978 -0.40061867 -0.33194274
000170 15 ec 3e bc 9f cd 09 3d 6b 37 71 be 76 fd 52 3e
       -0.011652966 0.03364336 -0.23556297 0.206045
000180 7e 0b a1 bc a7 8c 9f be a9 96 0f be 07 c9 e7 be
       -0.0196588 -0.31161997 -0.14022316 -0.4527056
000190 da fb 8d bc e7 6d 7e bd 48 18 47 bd ef 19 ab be
       -0.017332006 -0.06211653 -0.04860714 -0.33418223
0001a0 c0 ee d6 bc 1a a4 45 bd 06 59 a5 bc 5f 55 d1 be
       -0.026236892 -0.048252203 -0.020184051 -0.40885445
0001b0 a1 09 8d 3e b2 91 0d bd bb 37 25 bc 1d 02 50 3d
       0.2754641 -0.034562774 -0.010084088 0.050783265
0001c0 b2 70 65 bd 06 79 16 3d 57 be 97 bc 87 47 88 be
       -0.056015678 0.03673651 -0.018523378 -0.2661707
0001d0 04 29 e0 bc 0d 39 cc bc 10 3a 42 3d 8e 51 a3 ba
       -0.027363308 -0.024929548 0.047418654 -0.0012460218
0001e0 82 b3 ae be 15 73 7e 3e 43 bb 6a 3e 68 f7 3f 3b
       -0.3412133 0.24848588 0.22922997 0.0029291753
0001f0 66 df 88 3c ec e1 80 3b 14 b8 90 3c e7 2b c7 3c
       0.016708087 0.003933182 0.0176659 0.024312926

weight f4 [128, 128]
000000 ac d7 9b 3c b9 f3 e9 bc a1 ff f6 3c f3 3a 79 bc
       0.019023739 -0.028558599 0.03015119 -0.0152118085
000010 c9 43 9c bd f2 9e 8b 3d d5 d2 2c bc ac 42 a6 bd
       -0.076301165 0.06817426 -0.010548313 -0.081181854
000020 3b db 1f bd da 5f 47 bc 68 6c 9f bd 8e fd af bd
       -0.039027434 -0.012168849 -0.07784349 -0.085932836
000030 20 4a 5b bd f9 9b a6 ba c6 95 50 3d 4b 4f 68 bd
       -0.053537488 -0.0012711278 0.050924085 -0.056716245
000040 a1 a6 4b bc c1 fc 84 bd 25 66 d0 bc f2 34 a5 3d
       -0.012429864 -0.064935215 -0.025439331 0.08066739
000050 92 c0 a1 bc 9f 00 a8 bd 37 6c 91 3d 66 65 8e 3d
       -0.019745145 -0.082032435 0.071007185 0.06952934
000060 51 46 96 3d ab c7 8b bd 1d 48 6c 3d 03 7f 0b 3c
       0.073376305 -0.06825193 0.05768596 0.008514169
000070 b5 46 7b bd a0 0b a3 3d 19 c4 81 3c 06 72 19 bd
       -0.06134673 0.07961202 0.015840577 -0.037462257
000080 58 41 82 3d a7 11 7d 3d 6e 7b 29 3d f9 c0 05 3d
       0.063601196 0.061784413 0.041377477 0.032654736
000090 e5 f5 5d 3d c2 22 a5 bd 87 88 89 bb 52 96 e4 bc
       0.05418958 -0.0806327 -0.0041971835 -0.02790371
0000a0 28 13 ac bd 3b 30 0a 3d 7c a3 44 3d 9a a3 a7 3d
       -0.08402091 0.033737402 0.048007473 0.081855014
0000b0 88 8f 89 bd 79 f9 ad bd 67 3e 4c bd 64 8a af bd
       -0.067168295 -0.08494849 -0.0498642 -0.08571318
0000c0 07 46 22 bd 6d e7 45 bd ce c5 82 bd d4 aa fd bb
       -0.039617565 -0.048316408 -0.063853845 -0.0077413116
0000d0 f7 12 8e bd 45 eb 9b 3d e7 d6 9a 3c 25 3e 92 bd
       -0.06937211 0.076132335 0.018901302 -0.071407594
0000e0 63 79 91 3d 83 2e 2d bd eb 2e a3 bd 80 fc 9a bd
       0.07103231 -0.042280685 -0.07967933 -0.07567692
0000f0 41 be 5b bd 59 1a 9d bd ee 98 57 3d 43 75 1b 3d
       -0.053648237 -0.07671041 0.05263608 0.037953626
000100 52 06 81 bd ac b8 4b 3d ac 24 4c 3c e8 8d b2 bd
       -0.06300034 0.049736664 0.012459915 -0.08718473
000110 ef d7 8b bd 4b 32 8e bd 96 82 7e 3b 07 aa 8f bd
       -0.068282954 -0.06943186 0.003883516 -0.07014852
000120 4a 55 32 3d 23 f0 2d 3d e1 44 56 3c 56 3e 1c bc
       0.04353837 0.04246534 0.013077945 -0.009536346
000130 ee 02 93 bd 94 d8 34 bd e0 97 78 bd 1b 83 8a 3b
       -0.07178293 -0.044151857 -0.060691714 0.004227055
000140 2d f7 87 3d 34 73 44 bb 80 75 2f 3d 60 43 8f bc
       0.06638942 -0.0029975893 0.042836666 -0.017488182
000150 66 dc 1b bc 30 df 38 3b a7 77 fd bc 60 e1 a3 bc
       -0.009512996 0.0028209202 -0.030940844 -0.020004928
000160 29 57 05 3d 05 f6 9a 3d 60 70 37 3d f4 77 09 bd
       0.032553826 0.07566456 0.044784904 -0.03356166
000170 b4 e4 ad 3c 44 f3 87 bc fb 9d 9d bd bb 3b 8f 3d
       0.021227218 -0.01659549 -0.07696148 0.069938146
000180 f8 13 30 bd 02 cc a9 3d 8c 76 16 bd 9d 6d 8d bd
       -0.042987794 0.082908645 -0.03673415 -0.06905673
000190 02 10 f2 b9 a0 82 98 3d 8a 8c 98 bd 6d f3 25 bd
       -0.00046169764 0.0744679 -0.07448681 -0.040515352
0001a0 be 57 80 bd 07 74 a8 3d ab 18 59 bd 0d f1 47 bd
       -0.062667355 0.082252555 -0.05300204 -0.04881387
0001b0 ef d7 82 bc 82 44 ac 3d ee 1e 4f 3c ad 67 99 bd
       -0.015972106 0.08411504 0.012641652 -0.07490478
0001c0 f8 fc a3 3d 38 de d0 bc 49 7e 63 bc f7 31 1f bc
       0.08007234 -0.025496587 -0.013885089 -0.009716502
0001d0 10 a2 82 3d 5c 0b ac 3c 12 35 fe bc ee 02 50 3d
       0.06378567 0.02100151 -0.031031165 0.050784044
0001e0 70 e0 14 bc 88 bf 8c bd 1a 14 a5 3d ca 3e 1e 3d
       -0.009086713 -0.06872469 0.08060475 0.0386341
0001f0 90 50 66 3d b2 95 98 3d 7e dd 24 3d 01 91 1f bd
       0.056229174 0.07450427 0.040250294 -0.038956646
000200 f7 1b e9 bc 4c d5 65 bd 7a a1 aa 3c da f7 dd 3c
       -0.028455717 -0.05611162 0.020828951 0.027095724
000210 d5 31 5c 3d d5 70 0e bd db aa 3d bd 52 42 de 3c
       0.05375846 -0.034775574 -0.04630552 0.027131233
000220 af 8c ac bd 40 00 96 bc 01 63 40 3d 9d 02 31 3b
       -0.08425271 -0.018310666 0.046969417 0.0027009614
000230 ab 06 e4 3c a2 c3 85 3c 66 57 84 bd af 78 94 bd
       0.02783521 0.016328637 -0.064619824 -0.07249581
000240 6a 4d ba 3c d2 74 38 bd ce 99 92 bd 2b c7 5b 3d
       0.022741992 -0.045033284 -0.07158242 0.05365674
000250 b4 d4 6c 3c 50 6f f2 3c 25 d7 0c 3d 4a 1a ef 3c
       0.014455009 0.029594094 0.034384865 0.02918734
000260 24 45 2f bd 8a 6f 2d bd f8 f6 1e bc f1 5e 4a bd
       -0.042790547 -0.0423427 -0.009702437 -0.04940695
000270 f7 14 94 bd dc a7 87 3c 4b 3d e4 3c f5 2c 91 bd
       -0.07230561 0.016559534 0.027861258 -0.07088653
000280 98 89 83 bc 53 bc 19 bb 17 0c 4a 3d 27 de 09 3d
       -0.01605682 -0.0023458197 0.049327936 0.033659127
000290 73 60 a2 3d ac 7b 81 3d b5 91 b4 3d b9 b6 83 bd
       0.079285525 0.06322417 0.08816854 -0.06431336
0002a0 6c 81 9f bd f3 e0 8e bd 53 04 b2 ba a7 bc a2 bd
       -0.07788357 -0.069764994 -0.0013581611 -0.07946139
0002b0 c6 2c 86 bc e6 df b3 3d f8 ce c8 3b 52 47 43 3d
       -0.016378772 0.087829396 0.006128188 0.04767544
0002c0 d2 d3 40 bd f3 bf 00 bd d6 08 85 3d ec 09 5c 3d
       -0.047077008 -0.031433057 0.06495826 0.0537204
0002d0 fe 99 25 3d 9e 31 7b bc 45 b9 83 3d c2 f9 37 bd
       0.04043006 -0.015331654 0.06431822 -0.044915922
0002e0 eb 59 4d 3d 3d 2a e1 bc 9d da c5 bd 0e 19 94 bd
       0.05013458 -0.027485961 -0.09660838 -0.07231341
0002f0 87 eb b2 bd 21 ed 9a bd 07 d3 a0 3c c4 75 8c 3d
       -0.087363295 -0.0756476 0.019631876 0.068583995
000300 f0 f8 2a bd e3 20 d5 bc cf 67 31 bd f3 2e 0f bd
       -0.04174131 -0.026016658 -0.04331189 -0.034956884
000310 1d eb 5d 3d b3 41 41 3d 20 01 7d 3d dc 54 8d bd
       0.0541793 0.047181796 0.06176865 -0.06900951
000320 13 fb ac bd 83 5d 98 3b 3b e9 e0 ba 2e 2c d1 3c
       -0.08446326 0.0046498193 -0.0017159352 0.025533762
000330 46 21 77 3d 27 cb 3f 3d 92 f8 f8 bc 82 25 0d 3b
       0.060334466 0.0468246 -0.030391965 0.002153725
000340 f9 0a 7c bd a7 c0 ea 3b ff 88 06 bd a6 39 4d bd
       -0.0615339 0.007164079 -0.032845493 -0.050103806
000350 47 33 21 bd 88 99 ca bc f0 90 e3 3b ab 94 b1 bc
       -0.039355543 -0.024731413 0.006944768 -0.021677336
000360 26 5d 37 3d d4 13 a4 3d 17 c9 18 bd ec eb 56 bd
       0.044766568 0.080115944 -0.03730115 -0.052471086
000370 e6 6a 98 bd 64 22 af bc 0d 31 cc 3b f7 2e 22 3d
       -0.07442264 -0.021378703 0.0062314332 0.03959557
000380 84 26 0f 3a 6b 7e 13 3d e5 34 71 bd 4f 2d 37 bd
       0.00054607564 0.036009233 -0.058888335 -0.044720944
000390 a6 0d 47 3d 1b 3a 37 bc 31 44 7a bd 74 b3 32 bd
       0.048597 -0.011183287 -0.06110019 -0.04362817
0003a0 65 76 d7 bc d3 9a 0d bd 42 d4 83 bd 5b 77 d1 bd
       -0.026301572 -0.03457148 -0.06436969 -0.102278434
0003b0 2d 38 90 bd fa 34 0b bd 79 d5 58 3c aa 07 7b bd
       -0.07041965 -0.03398607 0.01323449 -0.061286606
0003c0 28 3c 1c bd 3d 77 92 bd 5d 2c a0 3d 1a 35 83 3d
       -0.038143307 -0.07151649 0.078209616 0.06406613
0003d0 39 1d 9a 3d 4c 53 3f bd 8a 91 16 bd 20 1d 54 bd
       0.07525105 -0.046710297 -0.03675989 -0.05178559
0003e0 63 9a c6 bc 50 b7 3b bd 5b c9 62 3d 35 a1 88 bc
       -0.02424354 -0.045829117 0.05536781 -0.016678432
0003f0 e0 59 92 3c b7 f7 89 bd 6d 15 1d bc 49 3e a6 3c
       0.017865121 -0.06736701 -0.009587628 0.020293372

bias f4 [128]
000000 57 03 96 3d 87 af 6f bc 38 88 81 be 4b 1c 48 bb
       0.07324856 -0.014629251 -0.2529924 -0.0030534442
000010 87 3e b3 3e fa f3 b3 bc 1b f4 cf 3e fa ea 1e 3e
       0.35008642 -0.021966923 0.40615925 0.15519324
000020 16 68 4c 3e 4d d3 bb bd eb 1a 18 be f4 43 d4 3b
       0.1996158 -0.09171162 -0.14854018 0.006477827
000030 35 28 c1 3c 9d ac e7 3e 4e 23 24 3e 71 57 cd bc
       0.023578743 0.4524888 0.16029093 -0.02506611
000040 43 88 84 3d f0 00 48 3e 6a 5d 36 3e 1a 18 51 3c
       0.06471302 0.19531608 0.17809072 0.012762094
000050 b5 6f 91 be 9f 6c 81 bd 72 c6 b5 3c fe 07 49 3d
       -0.28405538 -0.06319546 0.022189353 0.049079888
000060 4b 66 b7 bc 5a 17 38 3e 66 c8 7a be e4 89 48 bd
       -0.022387644 0.17977658 -0.24490508 -0.048959628
000070 ba 2b c0 bd f9 27 ae be 12 25 45 3e 12 a5 7c 3d
       -0.0938334 -0.34014872 0.19252422 0.06168086
000080 e0 69 d1 bc b2 af 11 3e e0 a2 f9 3d e0 b8 1b 3e
       -0.02556318 0.14227179 0.12189269 0.15207243
000090 97 9a f9 bd 0c 07 cf bd 05 fe 3e 3d 97 ec 9d 3e
       -0.12187689 -0.10108766 0.04662897 0.30844566
0000a0 1f d1 a1 be b8 9c 9d bd a8 4c 05 bd 2f 17 1f be
       -0.3160486 -0.07695907 -0.03254381 -0.15536188
0000b0 c9 34 21 bc f2 c2 01 3d c4 2e f0 3d 6f 72 91 be
       -0.009839245 0.031680055 0.1172767 -0.28407618
0000c0 de 7c 11 3c b7 34 41 3d f6 3f 95 3e 52 0f 1c 3e
       0.008879868 0.047169413 0.2915036 0.15240219
0000d0 f7 0c 4b 3d 04 3c 2b 3d 7e 75 50 bd 8e 49 22 3c
       0.04957291 0.041805282 -0.0508933 0.009905232
0000e0 95 2c 02 3e d7 ff 18 bd 38 99 4a 3e 99 8c a8 be
       0.12712319 -0.037353363 0.19785011 -0.32919767
0000f0 22 f2 47 be f0 ca 54 be af 35 84 3d fb 09 44 3d
       -0.1952596 -0.2078054 0.06455552 0.04786108
000100 42 25 67 3e e0 53 80 3e cd 95 95 bd 0e 1e fd 3c
       0.22572806 0.25063992 -0.07303963 0.03089812
000110 c4 0a aa 3e da d8 67 bc 8b 6a 5d bd 1e 49 8b be
       0.3321134 -0.014150823 -0.054056685 -0.2720422
000120 23 2e 22 be d4 b8 e8 3c 5e 15 99 3e 27 d8 9c bd
       -0.15837912 0.028408445 0.29899114 -0.07658415
000130 2b f0 31 bd 11 d3 d2 bc 30 d3 fb bb f1 b4 9a 3d
       -0.043441933 -0.02573541 -0.0076850876 0.07554043
000140 cf cd 75 3e e4 84 85 3b be f2 b3 3e 07 59 85 3d
       0.24004291 0.0040746797 0.35146135 0.06511121
000150 39 df cd 3e d5 4c c3 bd 34 dc c5 bd 35 05 8d be
       0.40209368 -0.09536139 -0.09661141 -0.27543035
000160 c6 fa 58 3d 7e 73 05 3e f0 d9 4f be 65 46 c2 bd
       0.05297353 0.13032338 -0.2029798 -0.09486083
000170 d1 66 09 3e d1 5e cd 3d a5 4d 8a be c6 41 44 3d
       0.13418128 0.100278504 -0.27012363 0.04791429
000180 de eb 56 3c bc c9 9f be b7 07 28 bd 3f 2c d3 bd
       0.013117759 -0.312086 -0.041022982 -0.10311174
000190 26 50 38 bd ae 39 ba 3e 9d 1d a7 be 3f 3a cb 3d
       -0.04499831 0.3637213 -0.3263978 0.09923219
0001a0 48 32 1e bd 52 fd 4f 3d d2 8a 9c be 4d cb 38 bc
       -0.03862217 0.050778694 -0.30574661 -0.011278939
0001b0 87 73 9e 3d 96 1a a7 bb bf c4 62 3e 22 58 80 be
       0.07736879 -0.005099605 0.22145365 -0.2506724
0001c0 63 07 ac 3d 8f b2 83 3e b0 90 5c 3d d0 58 b8 bd
       0.083998464 0.25722167 0.053848922 -0.09001315
0001d0 0b eb 7b be 6f 62 04 be 30 0e eb bc 8b b7 83 3c
       -0.2460138 -0.12928174 -0.028693289 0.016078731
0001e0 b6 c6 26 bd 36 7e 50 be 6d 61 b2 3d 92 df 98 3e
       -0.04071685 -0.20360646 0.08709989 0.2985807
0001f0 0b cc 1c bd e5 d7 cf bb 70 25 65 bd 04 12 a2 3d
       -0.038280528 -0.0063428753 -0.055943906 0.079135925

weight f4 [128, 128]
000000 d7 a2 16 bd 7a f3 09 bd 65 97 37 bd 25 14 45 bd
       -0.03677639 -0.033679463 -0.044822115 -0.048114914
000010 5b 33 43 3d 4a 95 91 3d 39 24 84 3d ab 30 81 bd
       0.0476564 0.07108553 0.064522214 -0.06308111
000020 ac 9e 4e 3d 60 84 6a 3d d3 94 df bb 97 77 1a bd
       0.05044429 0.05725515 -0.006823161 -0.037711706
000030 06 16 09 bd ff 30 74 bd b4 41 90 3d 26 34 a0 3c
       -0.03346827 -0.05961704 0.07043782 0.019556116
000040 cf 98 fd bc 6d e0 95 3c df a4 86 3d a6 cb d8 bb
       -0.030956654 0.018295491 0.065744154 -0.0066160737
000050 12 47 da b9 38 28 0c bd 45 4c 87 3d fd 04 94 3d
       -0.00041633152 -0.034218043 0.06606344 0.07227514
000060 7f aa a8 bc f0 50 f2 bc 35 8a 0a bd f7 2d 6c bd
       -0.020589111 -0.02957961 -0.03382321 -0.057661023
000070 2f 1b c3 3c d2 21 a5 bd 9e cb 67 3d ce b3 78 3d
       0.023816673 -0.08063091 0.05659067 0.06071835
000080 c9 6e 61 3d 54 6f 21 3d 93 00 38 3d 2a 46 cd 3c
       0.055037294 0.03941281 0.044922423 0.02505787
000090 06 47 8a bd 39 d6 c7 3c 27 96 ef 3c 2d cc af bd
       -0.06751828 0.024394142 0.029246403 -0.08583865
0000a0 2c 67 08 3d f1 d8 97 3d 11 f6 19 3c 87 28 92 3b
       0.033301517 0.07414425 0.009397046 0.0044603976
0000b0 e5 0e a5 bb ac 7b 68 3d f2 11 59 3d 07 a2 ae 3c
       -0.005037176 0.056758568 0.05299563 0.021317495
0000c0 f8 1c b6 bc 99 97 5b bc d2 60 b3 bc 61 2e 1e bd
       -0.02223061 -0.013402843 -0.021896753 -0.03861845
0000d0 1b 71 a0 3d 96 66 89 bd 8b bd 1b bd e9 b1 51 bd
       0.07834073 -0.0670902 -0.03802256 -0.05119506
0000e0 72 bd 38 bd d2 f5 25 3d 30 1b 48 bd 23 3f 2c bd
       -0.045102544 0.040517636 -0.048854053 -0.0420524
0000f0 e3 d0 8d 3d ac 88 2a bd 09 30 52 3b fe 43 03 bd
       0.069246076 -0.041634247 0.0032072088 -0.032047264
000100 47 6d af 3c 49 d6 f0 bc b5 a4 b9 bd ae 7a 21 bd
       0.021414412 -0.029399054 -0.090646185 -0.039423637
000110 3f 20 87 3d 82 bb b0 3d 3b c0 63 3c a8 5d be bd
       0.06597947 0.08629514 0.013900812 -0.09295207
000120 b7 ce 83 3d cd 29 a7 3c a4 fa 6f 3c 89 f0 47 bd
       0.06435912 0.020405674 0.01464716 -0.048813377
000130 c3 1c ae bd 40 a0 79 bd 87 20 20 3c 30 27 8d bc
       -0.085015796 -0.060943842 0.00977338 -0.0172306
000140 65 7a 87 bd 36 bf 28 bd fa 30 63 3c 59 6e 04 bd
       -0.06615142 -0.041197978 0.013866657 -0.0323318
000150 40 10 99 bd 92 e7 84 bc 11 d8 a2 bd e4 81 7d 3c
       -0.074738026 -0.016223703 -0.07951368 0.015472863
000160 95 36 35 bd 03 ce 1a bc 63 a1 cb bc 25 fc 4b 3d
       -0.044241507 -0.009448531 -0.024857229 0.04980101
000170 ba 38 b2 3c ca cc 88 bd 7b 64 0b bc 77 8f 8d 3c
       0.021755565 -0.066796854 -0.008507843 0.017280323
000180 28 2e dc 3c 99 6a a3 3d a4 fb 0b bb 5c 95 a4 3c
       0.026877478 0.07979316 -0.0021359706 0.020090751
000190 a4 c6 0d bd 48 5d 29 bd e3 18 93 bd 2e 79 e7 3b
       -0.034613267 -0.041348726 -0.07182481 0.0070640063
0001a0 01 bf 7b 3d cf bd 90 ba b5 98 41 bd d7 f6 8b bd
       0.061461452 -0.0011042895 -0.047264773 -0.0683419
0001b0 d2 9d a9 bd 1f b8 9e bb b9 b5 9c bd 5c 62 1b bd
       -0.08282055 -0.0048437263 -0.07651848 -0.0379356
0001c0 b2 48 91 bd 9f 0e 13 bd 36 4d bd 3b 45 c8 86 3d
       -0.07093944 -0.035902616 0.0057770265 0.06581167
0001d0 48 56 7e bd 63 33 65 bd 1c df 21 bd 40 00 e3 3c
       -0.062094003 -0.05595721 -0.039519414 0.02771008
0001e0 ea b9 6a 3d df 88 48 bd c0 66 8b 3c c8 7e 90 bd
       0.057306208 -0.048958655 0.017016768 -0.070554316
0001f0 3a d6 b3 3d 6a 7f 45 3c 84 fa 93 bd 48 a5 00 3d
       0.08781095 0.012054304 -0.072255164 0.031407624
000200 ac 76 50 3c 30 14 2e 3d 01 3d a6 be d0 56 ac bd
       0.012723606 0.04249972 -0.32468417 -0.08414996
000210 83 08 bd 3d e7 9c 5f bd 1e c9 32 3e a0 f8 31 3d
       0.09230139 -0.054592993 0.17459533 0.043449998
000220 a1 e9 5d 3d 95 63 a4 3d 68 26 32 be f0 a1 9c 3c
       0.054177884 0.08026806 -0.17397463 0.019120187
000230 68 08 56 bd a6 0c 10 3e c1 92 0a 3e d8 29 6d 3d
       -0.05225411 0.14067325 0.13532545 0.057901233
000240 97 ca 97 3c 97 85 8b 3d 98 a0 db 3d c6 cb 64 3b
       0.01852922 0.068125896 0.1072399 0.0034911497
000250 76 fb 8c be 33 a7 ae bc 2f 7b 41 3d 41 01 f5 3c
       -0.275356 -0.021319961 0.047236618 0.029907824
000260 e9 a1 52 bc f3 ae 65 3c e0 07 99 be 4b d6 dc 3c
       -0.012855985 0.014018762 -0.2988882 0.026957652
000270 8f ac fc bc 46 3f e3 be 0c 0a 76 3e c6 fd 1a 3d
       -0.030844001 -0.4438421 0.2402727 0.037839673
000280 14 fe 4d bb d5 3d 6c 3e 93 b6 5c 3e 17 f1 37 3e
       -0.003143196 0.23070462 0.21554022 0.17963062
000290 c4 5c d2 be d3 5b 70 bd 2c 19 6b bc 98 19 0e 3e
       -0.410864 -0.05868132 -0.014349263 0.1387695
0002a0 78 2a 22 be e2 3a 5c 3d 51 86 bd bd db 67 bd be
       -0.15836513 0.053767093 -0.092541344 -0.36993298
0002b0 fc 8d 3e 3c 93 4b d2 3a 8b e9 38 3d d9 6c 52 be
       0.011630531 0.0016044251 0.0451446 -0.20549335
0002c0 d3 10 df 3e c3 3f aa 3d 86 2e 7a 3e 97 be 33 3d
       0.43567523 0.08312943 0.2443181 0.043882933
0002d0 de 8a 35 3d ce b3 95 3d 7a c6 0b bd 2f e2 9e bd
       0.044321887 0.07309686 -0.03412483 -0.07757985
0002e0 63 a8 60 3e 26 0d 93 39 33 19 05 3e 77 eb ae be
       0.21939234 0.0002804782 0.12997894 -0.3416402
0002f0 2d 99 97 be 27 4f 92 be b0 53 6f bd 2e b3 b6 bc
       -0.2960905 -0.28576013 -0.05842942 -0.022302236
000300 37 0d 9f 3e 62 5b 3c 3e 09 12 83 3d 5e e4 a9 3d
       0.3106477 0.18394235 0.06399924 0.08295511
000310 9b 2a 39 3d f2 20 8b 3c b0 96 57 3d ee bb 5e be
       0.045206647 0.016983483 0.05263394 -0.21751377
000320 b2 bd 75 be 92 a9 9c 3d a1 20 64 3e 44 80 a9 3d
       -0.23998144 0.076495305 0.22278072 0.08276418
000330 e2 7e a4 3c db ed b1 3d 66 d3 fd 3b 47 4c 0c 3e
       0.020080034 0.086879455 0.007746148 0.13700972
000340 de e9 bf bc 23 e5 ca 3d 7d f2 db 3d 14 d2 fe 3e
       -0.023426946 0.099069856 0.1073961 0.49769652
000350 02 b8 50 3e 07 17 1b bd e1 60 b1 3d 3d c0 54 be
       0.20382693 -0.037863757 0.08661056 -0.20776458
000360 b9 27 57 3d 9a e0 0d 3e 98 66 9c be ad 32 27 bd
       0.052528117 0.1385521 -0.30547023 -0.040819813
000370 73 e8 40 3e 75 26 d9 3d 3f 4a da be 18 21 89 3d
       0.18838672 0.10603038 -0.4263477 0.06695765
000380 a0 13 58 bd 64 b3 8d be 73 52 92 3d 73 2e ce 3c
       -0.05275309 -0.27675927 0.07144632 0.025168633
000390 ac b0 12 3d ea 7b 42 3e 83 e3 5e be b3 2b c6 3d
       0.03581302 0.18992582 -0.21766476 0.09676304
0003a0 a3 b2 eb bc 11 32 8f bd 9b a7 6e be 4a 58 cc bb
       -0.028771704 -0.06991971 -0.23306124 -0.006236111
0003b0 22 fb 6c bd 3b 05 9f bd 1e ba 3e 3e 63 91 88 be
       -0.057856686 -0.077646695 0.18625686 -0.2667342
0003c0 b8 60 07 ba 20 90 69 3e 10 93 a3 bc af e6 28 bd
       -0.00051642535 0.22808886 -0.019967586 -0.041235622
0003d0 80 af 86 be 46 f7 38 bd bf 11 02 3c 9e ef f9 bc
       -0.2630577 -0.045157693 0.007938801 -0.030509766
0003e0 11 22 30 bd 7c 0e 90 be b6 e2 16 3f 15 ab 20 3e
       -0.04300124 -0.2813605 0.58939683 0.15690263
0003f0 71 b3 f6 3c 0f 38 16 bd 2c a6 a4 3c 2c d5 91 3d
       0.030114861 -0.036674555 0.020098768 0.071207374

bias f4 [128]
000000 73 2d 44 bd 83 d4 e9 3d 34 86 d3 bd 52 44 62 be
       -0.047894906 0.114174865 -0.103283316 -0.22096375
000010 2d 4a 40 3e 76 bc 90 3c fb b3 1c 3e 1a c1 2f 3e
       0.18778296 0.01766799 0.15303032 0.17163506
000020 b7 59 4f 3d d5 ef 97 bd d4 13 4c bd 23 e1 a9 3d
       0.050622668 -0.07418791 -0.049823597 0.082948945
000030 e7 6f 85 bb 4e 46 e1 3d 7e 4e ed bd ab ad 4f bc
       -0.0040721777 0.10999738 -0.11587237 -0.012675683
000040 87 26 a9 bc 1d 3e 8f bc fb 09 19 be 8a bf 1e bd
       -0.020648254 -0.017485673 -0.14945213 -0.038756885
000050 ab 05 02 3e 5e 7e 85 bc 83 b8 af 3b bc c9 8f bd
       0.12697475 -0.016295608 0.0053625717 -0.070209
000060 73 75 dd 3e e3 67 06 3d 82 18 78 3e 24 0d b2 bd
       0.4325367 0.032813918 0.24228099 -0.086939126
000070 44 4e 6a be 45 5e aa 3c f8 4d a3 3d be 62 c3 bd
       -0.22881418 0.020796904 0.07973856 -0.09540318
000080 ff 7f 00 bc 6f 1e 0d 3d 65 72 8d bc 2e 3f 27 be
       -0.007843017 0.03445285 -0.017266462 -0.16332695
000090 3d c6 14 bd 11 67 61 3d 66 56 6b 3d d5 07 a5 3c
       -0.036321867 0.055029932 0.057455443 0.020145336
0000a0 79 d9 aa bd ac de 07 be d2 97 7a bd 49 7e 07 3d
       -0.08342261 -0.13268536 -0.061179943 0.03307942
0000b0 83 cb 13 bc 99 a7 e0 bd 3b 88 25 3d 48 2c 3f bc
       -0.009020689 -0.10969467 0.040413123 -0.011668272
0000c0 d4 c1 4d be 44 1c 2b bd 3f d3 99 3d f3 60 10 be
       -0.20093471 -0.041775003 0.07510995 -0.14099483
0000d0 fe 13 d7 bd 46 a6 6e bd 25 65 43 bc 78 fd 99 3d
       -0.1050186 -0.05826404 -0.01192597 0.075190485
0000e0 7c 0f 4b bd a7 c4 53 3e 8a a4 22 3e 82 3c a2 bd
       -0.049575314 0.20680486 0.15883079 -0.07921697
0000f0 5f ec 3b be 06 0a 04 be 81 dd 05 be 60 64 75 3e
       -0.18351887 -0.12894449 -0.13072778 0.23964071
000100 ec 3f 90 3e 81 2c 9d 3d b6 e6 47 3d 64 72 64 bc
       0.2817377 0.07674504 0.048804007 -0.0139432885
000110 77 00 b6 3a 54 92 c7 3c 05 12 f6 3d 79 95 75 3d
       0.0013885637 0.024361767 0.12015156 0.059957
000120 28 47 81 bd a4 89 f6 bc f1 13 61 be 81 32 4a bd
       -0.063124 -0.030094929 -0.21980263 -0.04936457
000130 7e e8 a6 3d 7a df ae 3c bb ec 73 be c1 fb 7e bd
       0.08149813 0.021346796 -0.23820774 -0.06225181
000140 12 8a 7c bd e7 18 42 bc 42 04 48 bd 37 ec 88 3d
       -0.06165511 -0.0118467575 -0.048832186 0.066856794
000150 17 09 7b 3e 57 46 fd bb 59 14 25 3c 82 3a 0c 3c
       0.24515186 -0.0077293324 0.010075652 0.008558871
000160 88 b2 93 bd 41 8c 74 bd e0 1d 26 3d cc 9f 03 bd
       -0.072117865 -0.05970407 0.040555835 -0.032134816
000170 a1 47 2e 3c 01 f2 f2 bc 41 c2 7f 3b 22 71 86 3d
       0.010637195 -0.029656412 0.0039025696 0.06564547
000180 d3 1e 4b be ee ae 49 bd 51 77 d5 bd 1d da 6f bd
       -0.19835977 -0.04923909 -0.104231484 -0.05855762
000190 ef fd ac bd 3f 8a 0b be af 73 29 bd 2b ef 64 3b
       -0.084468715 -0.13626955 -0.04137009 0.0034932594
0001a0 db 81 94 3d 1f 46 9f 3e 2f d8 77 3e 91 d1 54 bd
       0.072513305 0.31108186 0.24203561 -0.05195767
0001b0 81 b3 06 3e 94 6b 5d 3e 6a ca 49 3d 48 0a 91 bd
       0.13154413 0.21623069 0.049265303 -0.07082039
0001c0 ac f1 ab bd 99 90 c0 bd ba e8 85 3d 9a 6a 03 3e
       -0.083957046 -0.0940258 0.0653853 0.12833634
0001d0 a8 e7 37 bd 1a 81 b6 bd 43 9b 08 be 6f f7 4b 3d
       -0.04489866 -0.08911343 -0.13340478 0.049796518
0001e0 55 34 03 3d 45 41 b5 bd 74 01 0b 3e ee 0c 1d 3e
       0.03203233 -0.0885034 0.13574773 0.15336964
0001f0 21 f0 9f bd e2 fa 70 3d c7 c2 2d 3d a2 63 da 3c
       -0.07809473 0.05883301 0.042422082 0.026658837
