IO_DynaPlex/DeepControlledLearning/PolicyWeights/lost_salespoisson_p4_l2_N5000_DCL0/l_gen.pth (torch, 281569 bytes, 10 tensors)

weight f4 [256, 2]
000000 9c 38 22 3e 5b b3 17 be dc d8 10 3f dd d4 97 be
       0.15841907 -0.14814512 0.565809 -0.2965459
000010 71 e3 d2 3e e9 ec 88 be 3a 54 be 3e ec 58 b6 be
       0.4118915 -0.26743248 0.37173635 -0.35614717
000020 7b 86 d7 be 7b 75 b9 be 28 f0 8a be 15 f3 c7 be
       -0.42094788 -0.36222443 -0.2713635 -0.39052644
000030 f7 2a a3 be b7 8b ea 3e e6 83 a0 3e a5 35 c4 be
       -0.31868717 0.4580972 0.3135063 -0.38322178
000040 51 12 11 3f 9e 3f 30 bf 74 58 5f be ba 2c e5 be
       0.56668574 -0.6884707 -0.21811086 -0.44760686
000050 79 38 5f 3d 9f 58 58 3e 3b 63 cd 3e 35 2f e4 be
       0.054497216 0.21127556 0.4011477 -0.44567266
000060 47 0b ca bb c9 cf ec 3e 48 05 0f 3f e8 6b c8 be
       -0.006165895 0.46252277 0.55867434 -0.39144826
000070 d3 f5 2d 3e f9 f8 9e 3e b0 09 64 be 93 f3 17 3f
       0.16988306 0.31049326 -0.2226932 0.5935604
000080 81 08 a1 bb 90 fb 3d 3d 72 66 0e 3e 49 91 38 3e
       -0.004914344 0.046382487 0.13906267 0.18024172
000090 d6 28 9c be cd 54 28 3f f9 3d 35 3e ae 07 4d 3e
       -0.30499905 0.65754396 0.17699422 0.20022461
0000a0 78 cd cc bd b7 ed ed 3e f3 6e ae 3e fe a6 12 bf
       -0.100001276 0.46470425 0.34069023 -0.5728606
0000b0 59 19 c3 3e 70 02 5b 3e ba f7 1b 3e 11 3e 66 3e
       0.38105276 0.21387649 0.15231219 0.22484614
0000c0 54 ad d7 3e f0 55 0f bf f2 91 19 be 98 60 2d 3f
       0.42124426 -0.55990505 -0.1499708 0.67725515
0000d0 ff 42 1b 3f cf 7b 14 3f de 29 d1 be 4a ec 10 3f
       0.606491 0.58001417 -0.40852255 0.5661055
0000e0 ea c8 5c bd fe 4b 2f 3e f7 90 10 3f f6 57 22 3f
       -0.053902544 0.17118832 0.564712 0.6341547
0000f0 bf 8a ec be 56 4f a3 be 2c 24 0a 3f 46 2c e6 be
       -0.46199605 -0.31896466 0.53961444 -0.44955653
000100 50 49 9c 3e 8d 9e 20 bf a9 0c 2e bf 78 db 4e be
       0.30524683 -0.6274193 -0.6798807 -0.20200908
000110 75 f5 9b be 85 b0 7f bc dc ef 39 bc a2 8f 22 3f
       -0.30460706 -0.01560605 -0.011348691 0.63500416
000120 54 5c 07 bc 02 fd 07 3e 6f f6 e2 bc f5 08 44 3d
       -0.008261759 0.13280109 -0.0277054 0.047860105
000130 2b b1 8a be b8 4d 10 3f 8d 00 0f be 58 b9 10 be
       -0.27088293 0.5636859 -0.13965054 -0.14133203
000140 5b 18 40 3e 63 73 2f bf 1d 14 2c 3f 36 0b 17 bf
       0.18759291 -0.6853544 0.6721819 -0.5900148
000150 df a3 e1 be 6e ce 39 be 9a 01 59 3d d2 b7 01 3e
       -0.44070336 -0.18145153 0.052980043 0.12667778
000160 08 04 cc be 66 d2 b7 be 7d 74 f9 3e 78 83 12 bf
       -0.39846826 -0.3590271 0.48721686 -0.57231855
000170 76 cd 28 bf 2c 04 05 3f b3 f1 d1 be b4 ef 86 3e
       -0.6593851 0.5195949 -0.41004714 0.26354754
000180 a3 8d b8 3e f7 98 43 be 79 d7 1f bf 2e 9f 21 bf
       0.3604556 -0.1910132 -0.6243816 -0.63133514
000190 a7 2e be be 24 1a e7 3e 9e 62 ca be b2 f9 af 3d
       -0.37144968 0.4513713 -0.39528364 0.085925475
0001a0 33 24 2d bf 66 94 e4 be c0 0b eb be ff 2d 27 3e
       -0.6763336 -0.4464447 -0.45907402 0.1632614
0001b0 be d1 f9 be 4a 7a 0e be f6 1c ff 3e c2 ed 1f 3d
       -0.48792833 -0.13913837 0.49826783 0.039045103
0001c0 f7 f1 9d 3e cd 3d ec 3e c2 71 ac be 93 24 15 bf
       0.30848667 0.461409 -0.3368054 -0.5825893
0001d0 59 32 b9 3e aa 49 9f be 0a cf 39 bf 61 5c ae 3e
       0.36171225 -0.3111089 -0.7258154 0.34054855
0001e0 7d 59 93 3e 04 b3 47 be dd fe ba bd 6d b9 a7 3e
       0.28779212 -0.19501883 -0.091306426 0.32758656
0001f0 f4 00 2f bf f6 e9 09 bf 0e 98 49 be 41 d7 13 bf
       -0.6836083 -0.5387262 -0.1968691 -0.57750326
000200 2f 5d 03 3f 2b 6b 33 bf ee d0 0a bf 95 1d af 3e
       0.5131406 -0.700854 -0.5422505 0.34202257
000210 42 4b 05 3f 76 b7 1b 3f de f2 6d 3d 23 6c 80 3d
       0.5206796 0.60826814 0.058092944 0.062706254
000220 2f 83 26 bf 3e e3 a8 3d 1a 18 32 bf cd 46 bd be
       -0.6504392 0.08246468 -0.69568026 -0.3696808
000230 8d 5d 98 be 57 8f eb 3e c2 d2 2d bd 69 57 c3 be
       -0.29758874 0.46007797 -0.042437322 -0.38152626
000240 b3 78 81 3e bf 30 b9 3c 18 d2 12 bf 1e 23 0e bf
       0.252874 0.022606252 -0.5735183 -0.55522335
000250 2a 7c 8d 3e bd 4a 02 bf 84 95 a3 be 7d d9 24 3e
       0.27633792 -0.5089529 -0.3195001 0.1609859
000260 7a f3 1d 3f 2e 55 f3 be b7 cc ab 3e 37 4d c8 be
       0.6169964 -0.47525924 0.33554623 -0.3912141
000270 1c 91 99 bd c3 6a f4 3e 41 c1 10 bf ff 66 9c 3e
       -0.074983805 0.47737703 -0.5654488 0.3054733
000280 4c 48 0d bf 04 ab b4 be fc 50 39 bd ca d5 b7 3e
       -0.5518844 -0.35286725 -0.04524325 0.35905296
000290 7e e8 04 3f c1 54 e9 be dc 48 98 3e a2 c8 a5 bd
       0.51917255 -0.45572475 0.29743087 -0.08094908
0002a0 e4 3e 67 be 69 c3 03 3e 5b 26 f6 3e 60 d1 98 be
       -0.22582585 0.12867512 0.48076138 -0.2984724
0002b0 b7 dc 05 bf 17 76 07 bf 58 42 d5 3d f7 e0 17 be
       -0.5228991 -0.52914566 0.10413045 -0.14831911
0002c0 93 a9 87 be ab 4d 12 3f 22 87 e6 3e 00 64 61 be
       -0.26496562 0.5714976 0.45024973 -0.22010803
0002d0 9e cb 9d bd 30 1a 53 3e 9a 91 34 be 98 ac 8c be
       -0.077048525 0.20615458 -0.17633668 -0.2747543
0002e0 cd 92 cc be f8 c8 05 bf 54 e5 20 3e df 1f b7 3d
       -0.3995575 -0.5225978 0.15712482 0.08941626
0002f0 b5 82 10 bf 7d b8 73 3e e1 9e e9 3e 61 2e e5 be
       -0.56449443 0.23800845 0.45629027 -0.44761947
000300 5d dd 34 3e 15 2b 91 be 27 22 0e be 20 92 cc 3e
       0.17662568 -0.2835318 -0.13880216 0.39955235
000310 ec ef 8c be c2 fb bd 3e 92 72 0e 3f a8 ac 94 3e
       -0.27526796 0.37106138 0.5564357 0.29037976
000320 63 d9 51 3d 00 eb 7f 3e 30 7d 30 bf 7f 30 0d bf
       0.051232707 0.24991989 -0.6894102 -0.55152124
000330 66 11 81 bd c1 7f d8 3e de bd 13 3f 64 5c 02 bf
       -0.063021466 0.42284968 0.5771159 -0.50922227
000340 8e 34 60 3e 75 df 0f 3f a1 23 5d 3e e2 07 8c 3e
       0.21895048 0.56200343 0.21595623 0.27349764
000350 29 71 f9 be 0a 36 86 3d 04 5a 84 be 2e 1a 04 3f
       -0.48719147 0.06553276 -0.25849926 0.5160245
000360 b7 bc 81 3e 99 34 a0 3e aa 2f 8c 3e a4 fc 6d 3e
       0.2533929 0.3129013 0.27380115 0.23240906
000370 a6 c7 0b bd 87 a9 c9 3d db 11 e8 bd ba 8a 06 3f
       -0.034125946 0.09846788 -0.11331531 0.5255543
000380 5e 73 89 be 7a 5c 10 bf 94 9b ed 3e 05 94 e2 3d
       -0.2684583 -0.5639111 0.4640776 0.11063389
000390 34 9a 1f bd 6a 0b cb 3e 7c 0a 0e 3f af e0 63 3e
       -0.03896542 0.39657146 0.5548475 0.22253679
0003a0 79 10 22 bd c9 4e 23 3f bf 8f 5c 3d 84 46 46 3e
       -0.03956649 0.6379209 0.053848024 0.19362837
0003b0 57 f0 f3 3d fb 53 08 3f 0b df 16 bf ec 8c 31 bf
       0.119110756 0.53253144 -0.58934087 -0.69355655
0003c0 81 ab 04 3f 51 a2 09 be c3 f1 f0 bd 9f 72 6b be
       0.51824194 -0.13440825 -0.117648624 -0.22992943
0003d0 ab 46 1c bf eb 34 d0 3e 98 91 93 be 5a 33 01 3f
       -0.6104533 0.40665373 -0.28822017 0.5046898
0003e0 a7 c8 f8 3e 7a de ce 3d 8b b9 a3 be 1c 70 1c bf
       0.48590586 0.10101028 -0.31977496 -0.61108565
0003f0 a7 21 34 bf 70 87 a9 3e 16 69 90 3e e9 ac be be
       -0.7036385 0.33111143 0.28205174 -0.37241295

bias f4 [256]
000000 86 46 70 be d4 f4 4a bf 55 9b 44 bf db e3 58 3f
       -0.23464403 -0.7927983 -0.7679952 0.8472268
000010 ab e8 2f 3e 4b f4 85 bd 65 e0 f4 be 0b 54 fa 3e
       0.171786 -0.06540736 -0.4782745 0.48892245
000020 cd d5 90 be 4d a7 0d bf 61 4a 0c bf d5 5b b7 3e
       -0.28288117 -0.55333406 -0.54800993 0.3581225
000030 b1 79 cd be d9 1d f7 3e a9 a3 21 3f 77 bc 5e 3f
       -0.40131906 0.4826496 0.6314035 0.87006325
000040 0d da 2b 3d 6c 55 e1 be 26 2f 33 be 07 e1 0d 3e
       0.041955996 -0.44010484 -0.17498454 0.13855372
000050 75 0e 5f 3f 06 e1 19 3f 0a 05 18 bf 4d ef 86 be
       0.87131435 0.60108984 -0.5938269 -0.26354447
000060 30 1a 1a be 9b 0f 31 bf 8c 23 3f bf bc 0d 01 bf
       -0.15049052 -0.6916444 -0.74663615 -0.5041158
000070 8d 2e 50 3f 0a d0 51 be 2e ec 4d be 03 e7 0c be
       0.8132103 -0.20489517 -0.20109627 -0.13759999
000080 30 d8 c5 3e a3 ed 8c be 13 63 cc 3a ab 9c 4d 3f
       0.386415 -0.27525052 0.0015593491 0.8031718
000090 af 79 8b bd 8d ac ba be 12 86 2f 3f b3 80 5a be
       -0.06810319 -0.3645977 0.6856395 -0.21338157
0000a0 f3 a1 35 3f 8f 2c fd be f1 20 71 3e 12 97 09 bf
       0.7095024 -0.49448058 0.23547722 -0.5374614
0000b0 94 56 a6 3e 48 85 2a 3c 88 cf fd be 08 f1 48 3f
       0.3248793 0.010407753 -0.49572396 0.78492785
0000c0 ee 4f 4a 3f 61 22 d1 3e 0b 1b 90 be f5 c9 49 3e
       0.79028213 0.40846542 -0.28145632 0.19705947
0000d0 1a 99 cc be 85 67 2d 3f 86 ed cc 3e b7 f2 0b bf
       -0.39960557 0.67736083 0.40024966 -0.5466723
0000e0 fb cc 17 bf 81 9e 04 bf 7a 62 9f be 47 db 9e be
       -0.5929715 -0.5180436 -0.3112982 -0.3102667
0000f0 a1 a0 42 bf 5f 1f c6 3e e2 cb 19 be 0e be d3 be
       -0.7602635 0.3869581 -0.15019181 -0.41355938
000100 7a dd 0a 3c 36 68 b9 be 5f 79 9e bc c3 72 9c 3e
       0.008475656 -0.3621232 -0.019344984 0.30556306
000110 99 cf 82 3d 87 19 ef 3e 42 36 19 bf 66 f9 af be
       0.06387252 0.46699163 -0.59848416 -0.34369963
000120 8f 32 1b 3f 5e 86 75 3c fb 08 4f 3f e5 45 c2 be
       0.6062402 0.014985649 0.8087308 -0.3794395
000130 bc 3b ca 3e da be 3a be f3 c7 41 bf b4 ed 63 be
       0.394987 -0.18236867 -0.75695723 -0.22258645
000140 b6 23 1a bf 00 2b 0a 3f 41 98 c7 be 50 a1 56 bf
       -0.6021074 0.5397186 -0.38983348 -0.83839893
000150 1f 1f bc be 5f 37 26 3f 25 81 d5 3d 22 24 25 3f
       -0.36742494 0.6492824 0.10425023 0.6450826
000160 93 4f ac 3e b5 b3 fa be d3 ee 01 3f d1 b3 f4 be
       0.3365446 -0.4896523 0.5075504 -0.4779344
000170 26 75 26 3f 5d 8c 04 3f 76 fc 7d be d7 68 7a 3e
       0.65022504 0.5177668 -0.24803337 0.24454056
000180 ca e2 6c 3f 76 3f f2 be 7a 33 a1 3e 1f 75 1b bf
       0.9253355 -0.47314042 0.31484586 -0.6072559
000190 14 e4 43 bf 1e d4 c4 3d 2d e2 2e bf 69 b6 d0 be
       -0.76519895 0.09610771 -0.68313867 -0.40764168
0001a0 91 75 22 bf 9c b1 44 3f 45 94 c1 3b 2e 21 68 3f
       -0.6346064 0.7683351 0.0059075677 0.9067563
0001b0 4d 77 4d bf 93 06 6d be 57 52 e2 3e 32 24 75 be
       -0.80260164 -0.23147039 0.44203445 -0.23939589
0001c0 f9 9d bd be 85 d2 2f bf 2e 33 5c 3d 62 95 3c bf
       -0.37034586 -0.686806 0.053759746 -0.7366544
0001d0 7f a5 d5 be 23 1f e2 3e fd 1a 11 be 50 30 09 bf
       -0.41727826 0.4416438 -0.14170451 -0.53589344
0001e0 a5 39 30 3f f7 d8 99 3d 4e c7 13 3f 6b 32 65 bd
       0.6883796 0.07512086 0.5772599 -0.055956285
0001f0 02 2b 2e bf 6e 69 2c bd 47 ae f5 3e 36 8d 3d 3f
       -0.68034375 -0.042092733 0.47984526 0.74043596
000200 e0 a4 b8 3e 23 5b 81 be f8 f3 be bd f8 af 48 be
       0.3606329 -0.25264844 -0.09323877 -0.19598377
000210 8c 2f 06 bf 57 4d 1c be 4f 16 65 bf 37 e8 51 bf
       -0.524163 -0.15263878 -0.89487165 -0.81994957
000220 ff 04 d4 3c 5b dc 9a be 1d 5f af 3e 4d 2f 74 be
       0.025881289 -0.30246243 0.34252253 -0.23846169
000230 ba 4c f3 be 68 e0 24 bf 19 39 60 3e ed f3 7d be
       -0.47519475 -0.64404917 0.21896781 -0.24800082
000240 33 14 01 bf 66 67 18 3f 0d 5c 12 3f df 17 e0 3e
       -0.50421447 0.59532773 0.5717171 0.43768212
000250 96 4f de 3e 9e 98 e6 bd 88 f0 0d 3e e7 48 18 3f
       0.43420094 -0.11259578 0.13861287 0.5948624
000260 01 93 86 3e ee 19 28 3f 4f db ed be f3 52 ee bc
       0.2628403 0.65664566 -0.46456382 -0.029092288
000270 1d 7f 09 3f fc a6 9c be 1c 09 8e 3c b9 de 36 3f
       0.53709584 -0.3059615 0.017338328 0.714336
000280 da 87 30 3e d8 20 83 be 22 44 c1 3e 74 27 0f 3f
       0.17239323 -0.25610995 0.37747294 0.55919576
000290 97 1f 37 3f e0 40 4e bf 08 9e 26 3f 27 d1 ca be
       0.7153258 -0.8056774 0.65084887 -0.39612696
0002a0 e2 18 6c bf b1 11 21 3f 5c ba 1d bf b0 ea 2b 3f
       -0.9222547 0.6291762 -0.61612487 0.6715498
0002b0 3b d0 35 bf db f4 d8 3e fe c0 18 bf e1 1e 6e be
       -0.7102086 0.4237431 -0.5966948 -0.23253967
0002c0 97 56 45 bf b7 63 69 be 94 0a 0a bf 92 13 36 3f
       -0.7708525 -0.22791944 -0.5392239 0.7112361
0002d0 93 00 1d bc 13 19 3a 3f 62 32 fd 3e bf f5 de 3d
       -0.009582656 0.7269451 0.49452502 0.10886716
0002e0 d4 c6 0d bf 4d dd 90 3e c1 7b 38 bd bd 13 bc be
       -0.5538151 0.2829384 -0.045039896 -0.3673381
0002f0 70 67 c1 3d 13 7a a4 3e 01 ed 0f 3f fd 08 f4 3e
       0.09443557 0.32124385 0.56221014 0.47663108
000300 25 f1 84 be a2 0c d1 3d 72 05 89 3e 6c 13 82 be
       -0.2596523 0.10207488 0.26761967 -0.25405443
000310 01 9e ff be 08 c2 d9 3e ac ee 36 3f c7 cf ec 3e
       -0.49925235 0.42530847 0.71457934 0.46252272
000320 f2 51 e6 be 2c 23 0b bf cb 85 e6 3e 12 1d ae 3e
       -0.44984394 -0.54350543 0.4502395 0.34006554
000330 45 8a 37 bf 5d a8 00 3f 59 63 74 3f 77 e0 51 3f
       -0.7169536 0.502569 0.9546409 0.8198313
000340 2c 23 97 3e 74 79 ea be 78 30 c5 bb 63 af a5 be
       0.29519022 -0.45795786 -0.006017741 -0.32360372
000350 fc 6e 85 be da 96 c9 3e 5e d4 a8 3d 84 9e 24 3f
       -0.26061237 0.39372903 0.08243631 0.64304376
000360 e3 ed a0 3e 53 53 51 3d 45 e0 0d 3f ab f2 bc 3e
       0.31431493 0.051104855 0.55420333 0.3690389
000370 ed 4b 0f 3e f7 4e bf 3e c6 7e f5 3d 60 cf 5a be
       0.13993807 0.37364933 0.11987071 -0.2136817
000380 6a ba 29 3f eb c9 16 3f 10 d8 40 3f 46 a6 91 bd
       0.6630007 0.5890185 0.75329685 -0.07111792
000390 51 81 0a 3f bf 80 4d bf 73 c6 30 bf 8b 3d b7 3d
       0.5410357 -0.80274576 -0.6905281 0.08947285
0003a0 e5 5d 6b bd 2c 3d 3b 3f 5a bf 14 3f a0 7f b4 be
       -0.05746259 0.73140216 0.5810448 -0.3525362
0003b0 dc 77 cc 3e ec 4e 4a be 7d ea 4f 3e 32 6d e9 3e
       0.39935195 -0.19756669 0.20304294 0.45591122
0003c0 15 88 c9 3e 40 00 9b be 79 16 9a be a2 d9 83 3e
       0.39361635 -0.30273628 -0.3009527 0.25751978
0003d0 ed 0a 2c bf 4b ca 4f 3f 11 d4 50 3e b4 bb d5 3e
       -0.6720417 0.8116805 0.20393397 0.4174477
0003e0 4f 2a 17 3c 29 4d 28 bf e0 0f 19 bf 3e 92 20 bf
       0.009226396 -0.6574274 -0.5978985 -0.6272315
0003f0 71 d5 42 bf 1b c0 48 bf 7a 38 2f bf ba 19 07 be
       -0.76106936 -0.7841813 -0.6844555 -0.13193408

weight f4 [128, 256]
000000 0e 9e d6 bc 1c 61 00 bc bd 02 a9 bc 18 94 71 3c
       -0.026198413 -0.007835653 -0.020631189 0.014744781
000010 f8 64 9f 3c 80 41 66 3c 41 23 96 bc 3b 64 bd bb
       0.019457325 0.014053702 -0.018327357 -0.0057797707
000020 e9 83 e1 3c 34 c8 de 3c d6 4d e6 bc 85 12 ce b9
       0.02752872 0.027195074 -0.028113287 -0.0003930518
000030 38 64 ba bc a3 e9 c7 3a 82 77 5d 3d 98 4f 19 3c
       -0.022752866 0.0015252124 0.05406905 0.009357356
000040 d2 39 3c bd df fd 14 bd cd 84 f5 3c 35 79 60 3c
       -0.04595358 -0.036374923 0.02997055 0.013700773
000050 16 12 99 3c ef a3 b3 3a df fc a1 bd 64 f3 dc bc
       0.018685382 0.0013705472 -0.079095595 -0.026971526
000060 66 7a cf 3c d3 b3 a7 3c a7 5b 71 bd 50 49 7d bc
       0.025326919 0.020471489 -0.058925297 -0.015459374
000070 33 04 78 3d 14 b2 60 3d 6e 19 47 3d a2 1f cb 3c
       0.06055088 0.05485733 0.048608236 0.024795357
000080 ca 5f 5b 3b be e1 61 bd cc 6f e8 3c 92 02 ad 3d
       0.0033473843 -0.055146925 0.028373621 0.08447756
000090 ff e5 a7 3b 64 44 8c bc ba f7 83 3c 18 07 65 3d
       0.005123853 -0.017122455 0.016109336 0.05591497
0000a0 d3 4a fd bb ce 7c 25 3c 30 76 9a bc 89 86 10 be
       -0.007729867 0.010100557 -0.018855184 -0.14113821
0000b0 04 0e b3 bc e4 06 49 3d 86 b5 5f bd 44 9c 8b 3d
       -0.02185727 0.049078837 -0.054616474 0.06816915
0000c0 ec 2c 96 3c 96 09 6f 3d 97 1a 1d bd f0 76 8f bd
       0.018331967 0.05835875 -0.038355436 -0.070051074
0000d0 f2 8f 17 bd dd 61 7a 3d 68 e2 ba bc fa 02 fe bc
       -0.03700251 0.061128486 -0.022813037 -0.031007279
0000e0 fa 6c 7d bd 64 57 0a 3d a6 87 91 bd 88 35 00 bd
       -0.061871506 0.03377475 -0.07105951 -0.03130105
0000f0 12 95 24 be a3 87 cb bb 0e fe 0f 3d 50 3d 8a 3c
       -0.16072491 -0.0062112375 0.035154395 0.01687494
000100 cb 73 2e 3d 28 48 bb bc 64 87 00 bd fc 24 d3 3b
       0.042590898 -0.022861555 -0.03137912 0.006443618
000110 1e 05 8d 3d 38 67 6c bc 0e cd 0a bd 70 23 48 bc
       0.06885742 -0.014428906 -0.03388696 -0.01221548
000120 e9 bb 18 3d 84 9b 6a bd 7b 7d 9d 3d 71 d0 cd bd
       0.03728858 -0.057277218 0.07689949 -0.10049523
000130 30 20 e8 3c 38 9f 0f bd 23 4e e4 bd 30 c2 38 bd
       0.02833566 -0.035063952 -0.11147716 -0.045107067
000140 b6 8f 0d 3d c0 84 eb bc 9b 13 cd bc 62 24 02 be
       0.03456088 -0.028749824 -0.025033763 -0.12709191
000150 9d db 2d bd 34 81 8a 3d 80 48 91 bc 66 5b 1d 3e
       -0.042445768 0.06762925 -0.017734766 0.15366897
000160 b8 43 98 bc 12 3d 96 bd 9c bd d7 3d 5c d2 f9 3c
       -0.018586978 -0.07335867 0.10534212 0.030495815
000170 30 c2 6a 3d 57 2f 66 3d 0f b1 4b bd e7 de 38 3d
       0.057314098 0.05619749 -0.049729403 0.04513445
000180 3d fc 77 3d 11 64 e8 bd 56 c9 63 3d f6 f7 eb 3a
       0.060543288 -0.11347211 0.05561193 0.0018002975
000190 3a 77 51 be f8 05 6a bd 6e 2e d0 bd 2d a3 33 bd
       -0.20455638 -0.0571346 -0.10165106 -0.04385679
0001a0 9a 77 87 bb a4 5d 85 3d aa cf 30 3c 1b c9 8c 3d
       -0.0041341307 0.06512001 0.0107916985 0.06874295
0001b0 33 6f 64 bc 7a 8d 35 3d d8 f9 22 3e 54 c2 43 bb
       -0.013942528 0.044324376 0.1591562 -0.0029870467
0001c0 80 c4 72 bb 2a 66 b5 3c 2c 39 08 3d 30 39 17 bd
       -0.0037043393 0.022143442 0.03325765 -0.036919773
0001d0 cc 65 74 bd 72 85 1b bc af 6c 85 bd c0 93 81 ba
       -0.059667394 -0.009492265 -0.065148704 -0.0009885952
0001e0 d4 f8 1e bd 4e fc 06 bd 08 8f a3 3d 1f a7 10 bd
       -0.03881152 -0.03295546 0.079862654 -0.03531563
0001f0 3f 3b 5d bd 82 82 6e 3d d0 90 ae 3d c2 a9 c2 3d
       -0.05401158 0.05822993 0.085237145 0.09505035
000200 1f 8f 02 bc 0f 32 49 bd 00 77 b1 3c c4 f7 f9 3c
       -0.007968693 -0.049120005 0.021663189 0.030513652
000210 9a f5 54 bd 69 65 ea 3c 18 c7 63 be ad 93 8b bd
       -0.051992036 0.02861281 -0.22243917 -0.06815276
000220 a0 09 6f 3c 4c bc 98 bd 0a 6c 88 3d d7 b9 c4 bc
       0.014589697 -0.0745779 0.06661232 -0.024014397
000230 c1 bf cd bc 13 03 0c bd 21 bb 33 bc 9e 00 51 3d
       -0.02511585 -0.03418262 -0.010969908 0.05102598
000240 72 64 8d bc 56 89 a1 3d 42 b3 ff bc d4 f6 96 3b
       -0.01725981 0.07887523 -0.031213406 0.004607061
000250 59 65 3d bb 73 6d e4 3c 0b 1a f2 3c b6 13 ed bc
       -0.002889952 0.02788422 0.029553434 -0.028940063
000260 34 38 10 3c e2 34 66 3e a6 3d e6 bb 10 42 3e 3c
       0.008802462 0.2248111 -0.007026392 0.01161243
000270 42 f7 4f 3d e0 6f 0c 3b 10 7d 5a 3d b4 f2 8a 3c
       0.050772913 0.0021428987 0.053341925 0.016961433
000280 44 38 11 bd d8 03 8b bc 7c 19 89 3d fc 53 82 bc
       -0.03545405 -0.016969606 0.06694314 -0.015909187
000290 71 2d ce 3e a2 94 d9 bb 5a 31 a3 3d 60 b2 22 bc
       0.40269044 -0.006640033 0.079683974 -0.009930223
0002a0 c6 00 a9 bc f2 be bc 3d ae 72 3a 3d 04 45 9c 3d
       -0.020630252 0.092161074 0.045519523 0.07630351
0002b0 88 c3 92 3c 0b 5c 1a 3d 86 e0 4b bd 6b ca 66 bb
       0.017915502 0.037685435 -0.04977467 -0.0035215865
0002c0 6b af 62 bd c8 84 7f bd be f3 29 bd 16 7f 42 3d
       -0.055343073 -0.06238249 -0.041492216 0.04748448
0002d0 6b 6e 79 3d 13 8a f6 bc 3b 72 9d 3d b8 48 e5 bc
       0.06089632 -0.030095136 0.07687803 -0.027988777
0002e0 2d ec e5 bc db 24 3a 3d 44 84 cd bc 68 ad 16 bc
       -0.028066719 0.045445304 -0.025087483 -0.009196617
0002f0 10 e9 98 3b be d1 7f 3d 24 6f 87 3d 71 72 20 3d
       0.004666455 0.062455885 0.06612995 0.03917164
000300 6f 88 0f bd 4d 15 8c 3c 48 89 ac bc 09 25 9e ba
       -0.035042223 0.0171 -0.021061555 -0.0012065481
000310 10 cc 5a bc 34 ca 71 3d e1 39 81 3d 5b ae 8d bd
       -0.013354316 0.059030727 0.06309868 -0.06918021
000320 ac 5a 99 3c 6f 0b f8 3c fa c4 41 3d e2 20 06 bd
       0.018719994 0.03027889 0.047306992 -0.032746203
000330 43 4e 41 be a0 93 3e bd 7a 32 54 3e 23 da 4f 3d
       -0.1887751 -0.046527505 0.2072238 0.05074514
000340 05 45 c0 3d af 3e d2 bd 5f 58 68 3d ce e3 42 bd
       0.093881644 -0.10265862 0.056724902 -0.047580533
000350 31 a7 71 3c 00 87 5f 3c f6 7c 66 bc 00 f9 80 3d
       0.014749334 0.013643026 -0.014067879 0.06297493
000360 a0 b8 04 3c 90 5b 63 bd 18 f1 4b bc 8a e0 7d 3d
       0.008100659 -0.055507243 -0.012447618 0.061981715
000370 04 14 ea bc 60 13 56 3b 59 c5 66 3b 84 00 6d bd
       -0.028573997 0.0032665357 0.0035212843 -0.05786182
000380 cb 23 8f 3d bb de 60 3d 55 18 96 bc 24 a3 50 bc
       0.06989249 0.054899912 -0.01832215 -0.012734208
000390 21 2c 8e 3d 95 ba 88 bc d9 e6 16 be bb d6 10 bd
       0.06942011 -0.016690532 -0.14736499 -0.035361033
0003a0 08 2e 33 bd 60 33 aa 3b 4f e3 ce 3c b6 7e e4 bc
       -0.04374507 0.0051941127 0.025254874 -0.027892452
0003b0 19 d9 df 3c 04 2c 14 3d ee 63 05 3d 83 cb de 3c
       0.0273252 0.03617479 0.032566004 0.027196651
0003c0 97 ca d2 3d 77 3a ac 3c ec 55 87 bd 20 e1 59 bc
       0.10292547 0.021023972 -0.06608185 -0.013298303
0003d0 41 6f 2f 3b 27 13 a2 3c 4d 82 6e 3c bf d8 6c 3d
       0.0026769193 0.019784523 0.014557433 0.057823893
0003e0 64 97 ec 3c ae 99 12 3b 31 5a 39 be 8d 4a c0 bd
       0.028880782 0.0022369432 -0.18100812 -0.093892194
0003f0 86 20 ba bd 8a 57 9d bd 90 5e 6f 3c f7 36 30 bd
       -0.090882346 -0.076827124 0.014609948 -0.04302117

bias f4 [128]
000000 cc 39 5d 3e 8f 23 22 3a b0 31 34 bd 7a 03 f2 bc
       0.21604079 0.0006185108 -0.0439927 -0.029542673
000010 86 08 e0 3d f9 4e 47 3e e8 61 0f 3d b0 ec 99 bb
       0.10939126 0.1946372 0.03500548 -0.004697405
000020 0d c0 83 bd 72 47 6d bd 31 ce 36 bd 44 4e 31 3d
       -0.06433115 -0.057929464 -0.044630233 0.04328753
000030 e6 64 8d bd e1 db 26 3e 74 46 30 3d 00 d6 75 3c
       -0.069040105 0.16294815 0.04303594 0.015004635
000040 1c 85 55 bd 8a c4 41 bd f8 5f 08 bc 2e 73 1d 3d
       -0.052128896 -0.047306575 -0.008323662 0.038439922
000050 26 cf 2c 3e 58 b9 b4 bd aa 95 c2 bc ee a0 78 bd
       0.16875896 -0.08824414 -0.023753006 -0.06070035
000060 f5 17 3e 3d ae ab 5f 3c 16 5c 93 bb 33 a4 55 3e
       0.046409566 0.0136517715 -0.0044970615 0.20863418
000070 4f 07 54 3d df df 4e 3e ff ca 6b bd da 99 4b bd
       0.051764783 0.20202588 -0.05756664 -0.04970727
000080 ba 8c 6e 3d d6 3c 7b bd 25 6b 24 3d 5d 1e 23 3e
       0.058239676 -0.061337315 0.040141243 0.15929551
000090 20 85 3e bc d2 f0 bf 3b e7 bd 39 3d 50 f1 04 bd
       -0.011628419 0.0058575654 0.04534712 -0.032456696
0000a0 70 0b 55 3e ee f5 ac 3c 11 13 a4 ba 45 d2 c0 bc
       0.20805144 0.021113362 -0.0012517889 -0.023537764
0000b0 e2 2d c8 3c 8f 51 1d 3d d0 ab 07 3e 74 d6 96 bc
       0.024435941 0.03840786 0.13249135 -0.018412806
0000c0 16 06 9f 3d 43 16 19 3c 68 d9 7a bc ea 06 5f 3e
       0.07764833 0.0093436865 -0.015310623 0.21779981
0000d0 a6 5b cf 3c f4 e2 5b 3e a1 b0 b2 bc 1b d5 13 3c
       0.025312256 0.21473294 -0.021812739 0.009022976
0000e0 23 50 88 bb 06 1c 68 3d b4 23 10 3d 0f a9 00 bd
       -0.0041599437 0.05666735 0.0351903 -0.031411227
0000f0 2e 14 10 3e 59 70 27 3d 28 68 38 3c 41 0d 81 bc
       0.14070198 0.040878627 0.011255302 -0.01575339
000100 9a d6 32 bd af 00 6f 3e dd 91 85 bd 73 b8 87 3d
       -0.04366169 0.23340105 -0.06521962 0.06626978
000110 6c 77 4e 3e a1 50 b3 3d dc e1 6f bd e6 e0 3a 3a
       0.20162743 0.08755613 -0.058565006 0.00071288494
000120 69 04 a5 bc 3a 36 9c bc d8 0c 05 bd 80 2e 54 bb
       -0.020143704 -0.019068826 -0.032482952 -0.003237635
000130 20 be 56 bd 64 64 67 3e 26 f3 37 3e b4 a3 22 bd
       -0.05242741 0.2259689 0.17963848 -0.0397069
000140 22 f2 6f bd 6f 2e a2 3d a6 ec 41 bd 72 be 13 3d
       -0.058580525 0.07919013 -0.047344826 0.036070295
000150 f5 84 37 bd 96 83 65 bd b9 d8 5e 3d 98 71 de bc
       -0.044804532 -0.056033693 0.0544059 -0.027153775
000160 fc 9f 40 bd c0 44 ed bc a4 91 11 bd f8 66 50 3d
       -0.047027573 -0.028963447 -0.035539284 0.05087945
000170 c8 f9 57 3c d8 bf 43 3d 5b 2d 92 3d 80 eb 89 bc
       0.013182111 0.04779038 0.07137557 -0.016835928
000180 68 6e 3e bc 7f 8a a9 3b d1 bd 1b bc 59 5a 3d 3d
       -0.011623003 0.0051739807 -0.009505705 0.04622874
000190 96 45 6e 3e 95 aa 82 bd 5b 9a 62 bd e6 9d ed 3c
       0.23268732 -0.06380192 -0.055322986 0.029005956
0001a0 a2 74 86 bd 35 bc 6c 3e 08 fa 66 bd 29 5f bd 3c
       -0.06565215 0.2311867 -0.056390792 0.023116665
0001b0 37 74 30 3e 30 3f 0b bd 51 68 5f 3e 1a ee ce 3c
       0.17231832 -0.033995807 0.21817137 0.02526002
0001c0 6b 5d 5c 3e 08 da c2 bc 6e 37 5d 3c a8 0d 2d 3c
       0.21520011 -0.023785606 0.013501985 0.010562338
0001d0 78 9f 85 3d d4 77 c1 bc fc 5d b3 bc c8 f0 a8 bc
       0.06524557 -0.023616709 -0.021895401 -0.020622626
0001e0 b4 24 01 bd 80 78 c7 bb 2e d3 27 3a 63 8e 94 3d
       -0.031529143 -0.0060873628 0.00064020127 0.072537206
0001f0 b8 2c 01 3c b1 5d 4d 3e 76 65 e5 bc 74 1a ee bc
       0.007884197 0.20055272 -0.028002482 -0.029065348

weight f4 [128, 128]
000000 8c d6 bd bb e6 25 24 3d eb 44 9c 3d 8f 10 64 bd
       -0.0057933982 0.040075205 0.076303326 -0.055679854
000010 12 07 58 3c b0 77 33 bd d2 25 5d 3d b5 ef 35 bc
       0.013185279 -0.043815315 0.053991146 -0.011104514
000020 e5 5a 9d 3d 76 0e 55 3c 1a 29 e3 3c 1c 73 cd bd
       0.076833524 0.013003936 0.02772956 -0.10031721
000030 2f 76 87 3d 8a 9b 1f 3b c2 db 98 3d 30 7a a7 3d
       0.066143386 0.0024354183 0.074637905 0.08177602
000040 b7 d0 94 bd 76 75 67 bd 60 94 0c bd 8c ba 2e bd
       -0.07266372 -0.056508504 -0.03432119 -0.042658374
000050 19 62 0e bb d3 f8 76 bd 6c ea 32 bd b9 49 10 bd
       -0.0021725951 -0.06029589 -0.043680593 -0.035226557
000060 c1 8f 61 bd 3c b2 7f bd d7 dd 16 bd de 93 a5 bd
       -0.055068735 -0.062425837 -0.036832657 -0.08084844
000070 64 4a 28 bd 82 2b 82 bc 2a 9c 02 bd 36 f8 6d bd
       -0.04108657 -0.015889887 -0.03188721 -0.05809804
000080 45 a1 34 bd 91 4d de bc eb ec 82 3d 80 e7 3d bd
       -0.04409911 -0.027136596 0.06392845 -0.046363354
000090 20 b1 66 bd 98 38 98 3d f2 3d 29 3d 45 82 cd bc
       -0.056321263 0.074326694 0.04131884 -0.025086531
0000a0 88 c0 59 bd aa 2d 37 3d 0a 7b 9d 3d 04 52 92 3d
       -0.053162128 0.044721283 0.076894835 0.071445495
0000b0 58 65 ac 3d 93 cb cf bc e5 2f 1a bc be 2f bb bb
       0.08417767 -0.025365626 -0.009410833 -0.0057124784
0000c0 cb 2d 8c bd 26 00 0c 3c 5c ac 06 bc 56 2d a6 bd
       -0.06844672 0.008544957 -0.008219805 -0.08114116
0000d0 67 f8 7b 3a f7 51 bd 3b 25 d9 a8 bd 7a 02 54 bd
       0.0009611905 0.0057775932 -0.08244542 -0.051760174
0000e0 06 4f f3 3c 79 43 ae 3d e6 e6 d2 bc 42 0d 39 bd
       0.029700767 0.08508963 -0.025744867 -0.04517866
0000f0 60 90 09 3c f6 ef 52 3d a3 b4 5e 3d b9 e5 35 bd
       0.008396238 0.051498376 0.054371487 -0.044408534
000100 f5 88 8e bd 4b 34 a9 bd 09 d0 91 bc e0 a7 30 bd
       -0.06959716 -0.08261927 -0.017799394 -0.043128848
000110 42 84 d2 bd c9 1a 1a 3d 8d 5f 71 3d 06 cd ab 3c
       -0.102791324 0.0376232 0.058929015 0.020971786
000120 2e 5d 87 3b 2c a5 3e 3c 1b 84 5d 3d 00 5a db 3b
       0.004130981 0.01163606 0.054081064 0.0066940784
000130 5b 37 a7 bd b5 a6 9c 3c 7a 80 4d bd 81 77 8a 3c
       -0.08164855 0.01912246 -0.050171353 0.016902687
000140 80 b2 31 3d 3d f9 96 bd 00 d5 a6 bd 8e 34 c4 3c
       0.04338312 -0.07371757 -0.08146095 0.023950841
000150 e0 c9 92 bd ba 33 7b 3d 78 72 93 3d 7c 27 94 3d
       -0.07167411 0.061328627 0.071995676 0.072340935
000160 b3 59 ab 3c d6 8e d2 bb 7a 44 87 3c aa e6 cb 3c
       0.020916795 -0.006425719 0.016512144 0.024890263
000170 d2 13 61 3d 4c 97 87 bd 5d b5 a8 bd 5e 7a a1 bc
       0.054950543 -0.066206545 -0.08237717 -0.01971167
000180 26 24 b5 3b 01 06 c7 bc 78 c3 20 3c ef aa 22 3b
       0.005527991 -0.024294855 0.009812228 0.0024821123
000190 5d ba 1a 3d 57 97 1e bd 9e e4 b5 3c fe c7 7c bd
       0.037775386 -0.038718548 0.02220374 -0.061714165
0001a0 b1 68 4f bd 03 6f 93 3d 3c 0c 15 3c 08 7e f6 bc
       -0.05063695 0.07198908 0.009097155 -0.030089393
0001b0 76 ee 7b bd 33 58 af 3b 7b ec 49 3d 99 01 cd bc
       -0.06150671 0.0053510903 0.04929779 -0.025025176
0001c0 49 42 00 bd 5f 22 4c bd 88 55 04 3c 51 e2 7b 3d
       -0.031313214 -0.049837466 0.008077033 0.06149513
0001d0 9e 98 10 bd b6 3a 39 3d c5 9f 68 3d ba 1e 81 3d
       -0.035301797 0.045222007 0.056792993 0.06304689
0001e0 65 16 46 bd 8e 92 68 3d 20 54 35 bd ff 26 8d bd
       -0.0483612 0.05678039 -0.04426968 -0.068922035
0001f0 11 89 d3 3c 32 2f d3 bd 2e 7a af 3d f5 a1 3c 3d
       0.025822194 -0.10311736 0.08568226 0.04605289
000200 cc 76 9e bd 96 1a 86 bd ab 55 1a bd b6 33 8a bc
       -0.077375025 -0.065480396 -0.037679356 -0.01687036
000210 89 b8 8f 3d 8c aa 92 3b 9f 7d a4 bc 7e b7 96 3d
       0.07017619 0.004475897 -0.020079432 0.07359217
000220 d5 d6 65 bd 3f 21 f2 3c 76 d1 3c 3d 1d 8d 68 bb
       -0.056113083 0.029556869 0.046098195 -0.00354845
000230 68 11 8f bd 07 00 e2 bc a4 3a 01 3d fe 65 af 3d
       -0.06985742 -0.027587904 0.031550065 0.08564375
000240 e6 df 48 bc 67 71 d2 3b d1 89 a9 bc 69 45 0a bd
       -0.012260413 0.00642221 -0.020695599 -0.0337576
000250 f8 ca a3 bb 82 22 a0 bc 26 d2 95 3b fe 3b 42 3d
       -0.004998561 -0.019547705 0.004572171 0.047420494
000260 29 61 93 bd e5 95 6d bc 83 f5 9b 3d 41 23 90 3d
       -0.07196266 -0.01450107 0.07615187 0.07037974
000270 b0 49 85 3d c4 47 b3 bc 94 52 80 3d ea 1d 93 3d
       0.065081954 -0.021884806 0.062657505 0.0718344
000280 9d c1 07 3d 6e 67 bf bc 76 33 ca bc 6a 9a 41 3d
       0.03314363 -0.023364749 -0.024682742 0.0472664
000290 a7 05 33 3d 5a c5 39 bc 15 90 aa 3d 6f 99 95 bb
       0.043706562 -0.011338556 0.08328263 -0.00456541
0002a0 a1 d1 fe 3c 52 9f 21 bd b1 05 58 3d 8b 25 ec 3c
       0.031105818 -0.03945858 0.052739803 0.028826496
0002b0 d1 f8 09 bd 32 84 ef bc ac 5c bb bd db 2d 19 bd
       -0.033684555 -0.02923784 -0.09148535 -0.037397247
0002c0 f5 20 45 bc ca 1e 84 bd 77 0d 98 3d 09 0b d4 3c
       -0.012031783 -0.06451185 0.07424443 0.025884168
0002d0 a9 7d 96 3d 4b d9 9a bd 73 66 ab bb 4e a5 9c bd
       0.073481865 -0.075609766 -0.0052307188 -0.07648717
0002e0 c3 a1 7f 3d fa 9c 0b bd 72 0e f8 3c 78 68 27 bd
       0.062410127 -0.03408525 0.030280326 -0.040871114
0002f0 fd 0a 4c bd 2d 04 45 3d e5 04 a3 3d fc e0 b0 bd
       -0.049815167 0.048099685 0.07959918 -0.08636662
000300 3c 7e 19 bd ba 0c 90 3d 47 ec 23 3c 97 b3 8d 3b
       -0.037473902 0.070336774 0.010005063 0.0043243873
000310 44 8d 52 bd 30 51 85 bd ec bb 81 bb 91 18 af 3d
       -0.051404253 -0.06509626 -0.0039591696 0.085496075
000320 41 92 a0 bd 2f a1 b2 bd 39 f4 65 3d ad fb 4c bc
       -0.07840396 -0.087221496 0.056141112 -0.012511176
000330 b7 7d a2 3a 01 07 94 bc 82 03 17 bd 9c 98 2d 3c
       0.0012397085 -0.018069746 -0.03686858 0.010595467
000340 c7 de 32 3d 8a ec 0a 3d c0 32 2e 3d 55 e1 96 3d
       0.04366949 0.033916987 0.042528868 0.073671974
000350 f3 c0 2d 3d 47 35 b1 3d da 7e 72 bd 1a 3e e6 3c
       0.04242034 0.0865274 -0.059203006 0.028105784
000360 a7 0b 1a bd ee 79 f4 3c 28 d1 83 bd 9c ad cb bb
       -0.03760877 0.029843297 -0.06436378 -0.006215764
000370 1b 86 68 bc e4 d8 92 3c 87 1f d2 3b e9 31 19 3b
       -0.0141921295 0.017925687 0.0064124498 0.0023375696
000380 12 2f 52 bc bd b7 b4 bd b4 cf dd bc d6 8b 37 3d
       -0.012828605 -0.08824108 -0.02707658 0.044811092
000390 15 08 c6 bc 3f 77 d6 3c 15 49 bc 3c 79 c0 8d 3d
       -0.024173776 0.026179908 0.022984067 0.06921477
0003a0 be cf 1d 3c c5 7b b1 bd ac 96 d4 3c 04 bf 81 bd
       0.009632049 -0.08666185 0.025950752 -0.063352615
0003b0 3b 98 ad bd 34 d7 44 3c d2 3a 15 3d 3c f7 81 3b
       -0.08476301 0.012014199 0.03643305 0.00396624
0003c0 e7 63 92 bd f0 f3 42 3d f9 f6 63 bd 50 58 20 bb
       -0.07147961 0.04759592 -0.055655453 -0.00244667
0003d0 14 04 d4 bb 7b d5 17 3c 5a 0e 70 bd 56 3d 32 3c
       -0.0064702127 0.009267206 -0.058607437 0.010878881
0003e0 0c c3 94 bc ef 30 a1 3d 9e c6 24 3d 78 52 a1 bd
       -0.018159412 0.078706615 0.04022848 -0.07877058
0003f0 d3 e2 55 3d c5 5c 86 3d bc 2b 98 3d ed fa 9d bd
       0.05221827 0.06560663 0.07430217 -0.07713876

bias f4 [128]
000000 2e 06 ad bd 3c 7e 03 3d cd f0 29 3d 47 0c a4 3d
       -0.08448444 0.03210281 0.04148941 0.08010154
000010 19 7d 2b 3d 07 31 fa 3b 11 a3 b1 bd 8f 58 2b 3e
       0.04186735 0.007635239 -0.086736806 0.16733001
000020 62 6a 87 bc 62 e6 10 bc 3e eb 02 3e d5 2d 9e 3d
       -0.01653022 -0.00884399 0.1278505 0.077235855
000030 1e 79 5e bd 9d 82 07 bd 49 fb 99 bd 94 b1 76 bd
       -0.054314725 -0.033083547 -0.07518632 -0.060227945
000040 2c d7 44 3d db 32 3b bd 7a 4d 41 bd 94 55 6d 3d
       0.048056766 -0.045702796 -0.047193028 0.05794294
000050 cc 0d 9d 3c 15 a1 66 bd da dd 00 be 6e 51 a5 bd
       0.019171618 -0.056305964 -0.1258463 -0.08072172
000060 e1 80 01 3c 7e 1f 0a be 9a f2 95 3d ef c0 5d 3d
       0.007904262 -0.13488576 0.07321663 0.054139074
000070 12 cd c1 3c 61 b8 71 b9 89 93 95 3d 60 8b 93 3d
       0.023657355 -0.00023052238 0.07303531 0.07204318
000080 38 a9 aa 3d 7c b5 48 3d 02 eb f3 bc 70 62 b7 bd
       0.08333057 0.049001202 -0.029775146 -0.08954322
000090 02 87 91 3d 38 df 81 bd 6e ed 1f 3d 16 74 38 3e
       0.07105829 -0.06341404 0.03904479 0.18013033
0000a0 9c 1a fa bd 7a f2 e3 38 35 d7 85 bd 6f a0 7c 3d
       -0.122121066 0.00010869368 -0.06535188 0.06167644
0000b0 d4 16 b2 bc e2 da 63 3d 0e fc 02 be d6 cd 1c bc
       -0.0217394 0.055628665 -0.12791464 -0.0095705595
0000c0 2a b8 c9 3d b4 d7 0d 3e 1d 30 19 bc 2c 03 95 bd
       0.0984958 0.13851815 -0.00934985 -0.072759956
0000d0 c4 6a 15 3e bc 69 cd ba c4 5c 1d 3d b7 4d 1c 3d
       0.14591509 -0.001567177 0.038418546 0.038160052
0000e0 f1 30 6b 3d 02 86 d5 bd 3e f4 a0 3d 2b 7c 9c 3d
       0.05741972 -0.104259506 0.078590855 0.07640871
0000f0 c8 9f a8 3d 56 9a b3 3c 03 c1 91 3c ed 6a b1 3d
       0.08233601 0.021924179 0.01779223 0.086629726
000100 25 eb b0 3c dc 6d 70 bd 3f ea 33 3e ce 0d 62 bd
       0.0215965 -0.05869852 0.17569827 -0.055188946
000110 34 24 4d 3d 99 87 5d bd fa e6 4c bd a4 ed ce 3d
       0.050083354 -0.054084394 -0.050024964 0.1010392
000120 6e 35 21 3e 84 79 ab 3c 24 de 3f 3d 41 69 cd bb
       0.15743038 0.020931967 0.04684271 -0.0062686508
000130 c9 32 16 3e 21 1d 26 bd 42 fd ab bd a8 77 ce 3d
       0.1466781 -0.040555123 -0.083979145 0.10081416
000140 22 9d 62 3e 0d c1 e2 3c fa 73 0e bd fc fb d5 3c
       0.22130254 0.027679944 -0.034778573 0.026121132
000150 f3 9e 86 bd 3b b9 86 3d 76 67 13 3e b7 1f c2 bd
       -0.06573286 0.06578299 0.14394936 -0.094787054
000160 50 13 fe 3d ea 70 0d 3e 3a cc 87 bd 08 3e 6f bd
       0.12406027 0.13812605 -0.0663075 -0.058408767
000170 cb 92 cc bd 66 b2 7e 3c 72 02 15 bd c5 81 0f 3d
       -0.09988936 0.015545463 -0.036379285 0.035035867
000180 d0 0b ef bd 6a e1 84 bd 1b 77 78 3d 66 2a 08 3e
       -0.11672175 -0.06488307 0.060660463 0.13297424
000190 eb 4e fb 3d e2 69 b3 3c 5e dd 93 3d fe c4 04 3e
       0.12270912 0.021901075 0.07219957 0.12965772
0001a0 93 8b 86 3c 74 46 b7 bd ef 60 0f 3d ad b2 a1 3d
       0.016423976 -0.08948985 0.035004552 0.07895408
0001b0 d9 fa b0 bd 53 3d 29 bd f6 d1 5f 3d b6 4e 9d 3c
       -0.086415954 -0.04131825 0.054643594 0.019202571
0001c0 9c 2b 76 bd f0 f0 ed bc 06 82 6f bb 98 f8 b2 3c
       -0.060100183 -0.029045552 -0.0036546006 0.021847054
0001d0 95 5c fa bb f4 40 7a 3c 17 61 11 3e 3b cc 94 3c
       -0.007640431 0.015274275 0.14197193 0.01816379
0001e0 d8 04 4f bd 37 96 07 bc c7 10 f6 3d d8 a6 03 3e
       -0.05054173 -0.00827556 0.12014919 0.12856615
0001f0 13 7b d4 bd 83 c2 31 3e 43 b0 d8 bc d1 a4 25 bd
       -0.10375037 0.17359357 -0.026451236 -0.040440384

weight f4 [128, 128]
000000 20 06 3f bd cb d9 2c 3d 7f 01 b5 3d f6 87 c5 bc
       -0.0466367 0.04219989 0.08838176 -0.024112683
000010 70 74 14 bd 06 a3 09 3d 0a 74 9a bb 08 df a7 3d
       -0.036243856 0.033602737 -0.00471354 0.08196837
000020 37 65 2c 3d 05 95 40 bd 8c 71 ad ba e1 55 e0 3d
       0.042088713 -0.047017116 -0.0013232692 0.1095388
000030 4c 7b 0e bd ec 7d ae bd bd a4 89 bc 2f 50 6e 3d
       -0.034785554 -0.085201114 -0.016802186 0.058181938
000040 61 c2 b4 3d a0 b0 4f 3d 18 04 9d 3d f5 71 48 bd
       0.08826137 0.050705552 0.076667964 -0.048936803
000050 47 51 d0 bc 85 32 92 b9 57 12 d8 bc ec 2a 81 bd
       -0.025429381 -0.0002788493 -0.026375933 -0.06307015
000060 70 f6 b1 bd 86 46 7d bd 27 35 90 3d b1 17 47 3d
       -0.08689582 -0.061834835 0.07041388 0.04860658
000070 b6 00 8f bd 97 03 72 3b fa 30 48 3d 1d ef 48 bc
       -0.069825575 0.003692841 0.048874833 -0.01226404
000080 dc 9b e4 3d 11 5b 46 3b 81 5b 84 bd ab 3b aa bd
       0.1116254 0.0030266682 -0.064627655 -0.08312162
000090 26 f4 e3 3d 7d 38 9d 3d 10 3f 86 3d f0 49 9e 3d
       0.11130552 0.0767679 0.06554997 0.07728946
0000a0 47 f5 94 bd d2 0c f9 bc b1 2a 26 bb 75 06 a7 bd
       -0.072733454 -0.030401621 -0.0025355036 -0.081555285
0000b0 77 c7 8e 3d 04 53 a1 bd c7 0c 7a bd 71 d7 73 bd
       0.06971639 -0.07877162 -0.06104734 -0.059531633
0000c0 d3 9e 09 3e 1c 89 2e 3d 1c b5 21 bd 69 9b 0a 3c
       0.13439493 0.042611226 -0.03947936 0.008459904
0000d0 d3 56 84 bc 91 40 94 bd df 66 5c 3c d5 3c c6 bc
       -0.016154682 -0.072388776 0.013452261 -0.024198929
0000e0 31 b9 c6 3d 76 10 6e bd 2c 44 04 3a 4d 74 6b 3d
       0.09703291 -0.058121167 0.0005045559 0.05748396
0000f0 a1 cc 4c bd 1d 45 bd 3d cc 4d 91 bd db 61 13 3d
       -0.049999837 0.09241698 -0.07094917 0.035981994
000100 a6 d6 5e bd 7f 70 88 3d ba 53 12 3e ea f3 2a bd
       -0.054403923 0.06662082 0.14289752 -0.04173652
000110 ab 60 d0 3d d2 3f f0 bd 88 87 f8 3c 53 1b 29 3d
       0.10174688 -0.11730923 0.030338064 0.041285824
000120 78 f1 f4 3d 4f fa ab 3d 14 18 c1 bc 33 72 b3 3c
       0.11960119 0.08397352 -0.023571052 0.02190504
000130 d8 0a 06 bd 65 a4 37 3d 38 23 69 3d 00 33 61 3d
       -0.032725185 0.044834513 0.056918353 0.054980278
000140 c6 9e ea 3d c1 a1 8c bd f1 ac 8c 3d bc e6 c2 bd
       0.11456065 -0.068667896 0.068689235 -0.09516665
000150 45 e2 ce 3d b6 66 de 3c 55 89 5c 3d cc 39 92 bd
       0.10101751 0.027148586 0.053841908 -0.0713993
000160 41 8b 97 bc 81 b5 2e 3c 3c f5 6b 3d 6c 9a ac 3d
       -0.018499019 0.010663391 0.05760692 0.08427891
000170 1c f6 ed 3b 15 a9 3e 3d 4c 3b 50 3d 83 c0 33 bc
       0.0072620045 0.046547968 0.0508378 -0.010971191
000180 b9 21 4a bd 73 0d 33 3d bf 6a 83 3d 9c 4a 86 3d
       -0.049348567 0.043713998 0.064168446 0.06557199
000190 4a 21 42 3d 1f c3 a3 3d d7 1c 1e 3d 2e 5f 94 3d
       0.04739503 0.07996201 0.038601723 0.072447166
0001a0 3c dc 91 3d 47 2f 9d bd 34 fd 8b 3b cd cf c6 3d
       0.071220845 -0.07675033 0.0042721275 0.097076036
0001b0 1f 26 86 3d e8 90 01 bd 24 2c bd 3d 3b 3c 92 3d
       0.0655024 -0.031632334 0.09236935 0.07140394
0001c0 48 b2 37 bd 96 93 b1 bd d0 29 67 bb 37 f2 d5 3b
       -0.044847757 -0.08670728 -0.0035272725 0.0065291184
0001d0 a1 d9 6a 3d b4 0e 82 3d dc 09 d4 3d 19 ed 88 bc
       0.057336453 0.06350461 0.10353443 -0.01671462
0001e0 dd a3 0a bc a0 38 3c bd ec 45 0e 3e 3b ae 04 3e
       -0.00846192 -0.04595244 0.1389386 0.12957089
0001f0 f3 79 7f 3d cc 34 bf 3d 42 98 89 bd 69 e4 e5 bc
       0.06237216 0.09336242 -0.06718494 -0.028063016
000200 e4 75 02 3b eb 01 8f 3c 06 6b 9a 3c 9c 1e 3f 3d
       0.0019906694 0.01745697 0.01884986 0.04666005
000210 aa 89 a1 3c ed 27 bc bd 6b 04 20 bd 28 bf d9 3c
       0.019718964 -0.09187303 -0.039066713 0.026580408
000220 66 a8 ef bc e1 30 1f bd a1 b1 8b bd 98 a7 85 bd
       -0.029255103 -0.038864974 -0.068209894 -0.065261066
000230 ac 64 99 3d d6 9d 64 3d 6c 33 89 3c 74 36 b2 3d
       0.07489905 0.055814587 0.016748153 0.08701792
000240 58 b4 84 bd 80 fa 5c 3d fc 52 0a 3d ca 5d 02 bc
       -0.0647971 0.053949833 0.033770546 -0.007956931
000250 36 6f a7 3d 3a 93 e0 bb 0e d1 79 3d 2e 5f 4d bd
       0.08175509 -0.0068534883 0.060990386 -0.0501396
000260 79 ba fd ba 98 d1 2f ba 33 b6 83 3d 08 b7 88 bd
       -0.0019357941 -0.0006706952 0.06431236 -0.066755354
000270 33 a6 05 3c 81 c6 49 bb d2 d1 16 3d 8b f2 41 bd
       0.008157301 -0.0030788484 0.036821194 -0.047350448
000280 cf 8b 37 bb 47 0f 8d 3d 08 81 67 bb ce bc 7d bd
       -0.0028006916 0.068876795 -0.0035324711 -0.061947636
000290 30 24 3b 3d c5 1e ac bd c9 bd 53 3d 37 2d a1 bc
       0.045688808 -0.08404306 0.051694665 -0.01967488
0002a0 d6 98 2a 3d e0 a3 f1 3c f0 b7 c0 3c 34 54 75 bd
       0.041649662 0.029497087 0.023525208 -0.059894755
0002b0 04 14 f5 bc 14 05 91 3d 54 0e a1 bd 9b 25 59 bd
       -0.02991677 0.07081047 -0.07864061 -0.05301438
0002c0 e1 3d 20 3d 28 e7 9a 3d 1d e9 c7 bd 0b 0c c6 bc
       0.039121512 0.07563621 -0.0976126 -0.024175664
0002d0 4d f9 c7 bd be 93 f3 ba 27 49 14 bb e3 17 4a bc
       -0.09764347 -0.0018583459 -0.002262661 -0.012334797
0002e0 5c 44 b2 bd d6 09 18 3d 93 b1 d6 3c 6f 5c 90 bd
       -0.08704445 0.037118755 0.02620772 -0.0704888
0002f0 6a f9 c9 3b 60 94 14 3c 01 81 30 bc 03 b0 7a bd
       0.0061637657 0.0090685785 -0.010772944 -0.061203014
000300 21 34 a1 3d a8 a6 71 bc 9f de 40 bd 1e 1e 84 3d
       0.07871271 -0.014749207 -0.047087308 0.06451057
000310 39 13 7d bd cc 70 8d bd d3 b5 57 3d 25 06 ff 3c
       -0.06178591 -0.0690628 0.052663635 0.03113086
000320 3b 1d c3 bd f0 fd 49 3d 53 af 96 bc 42 f4 09 bd
       -0.0952706 0.04931444 -0.018394148 -0.033680208
000330 9f 17 47 bd 9d 2e 70 bd eb 47 8b bd 85 5c 9f bd
       -0.04860651 -0.058638204 -0.06800827 -0.077813186
000340 04 ec 99 3b ae 0d 65 3d a5 5e 13 3d d8 ce 92 3d
       0.0046973247 0.05592125 0.035978932 0.071683586
000350 20 f5 9a bd 26 c4 2a bd 1d a0 a1 3b 02 af 1e bb
       -0.07566285 -0.041690968 0.004932417 -0.00242132
000360 1a 93 4b 3d a1 3e b1 3c 58 af 4d 3d 29 69 97 bd
       0.049700834 0.02163631 0.05021605 -0.073931046
000370 22 0d 97 bd 6f 4d 4d 3d 4c 4e d1 bc 1a 95 7b bd
       -0.07375552 0.050122675 -0.02555003 -0.06142149
000380 c4 95 95 3d fd e5 b8 3c 82 9e 85 3d 37 af ad 3b
       0.07303956 0.022570604 0.065243736 0.0053004283
000390 7c 24 d7 bc 88 d2 2e 3d 82 90 dc bc 4e d1 9f 3d
       -0.026262514 0.042681247 -0.026924375 0.078035936
0003a0 60 8e 34 bd 1c 6d a2 bd 7d ff 24 bc 12 6e c9 bd
       -0.044081092 -0.07930967 -0.010070679 -0.09835447
0003b0 b0 ab de bc 5d 64 c2 bc a8 32 76 bd 3e c4 85 3d
       -0.027181476 -0.023729498 -0.060106903 0.06531571
0003c0 c4 51 8e 3c 40 ed 2e 3d 79 da f9 bb 1b 18 76 bd
       0.017372973 0.042706728 -0.007624921 -0.060081583
0003d0 38 c2 93 bd 03 7e 90 3d 77 49 9f 3d cb 33 e6 bc
       -0.07214779 0.07055285 0.07777684 -0.028100869
0003e0 57 99 7f 3d c3 d6 39 bd a6 b7 95 3d dc 9d 10 bd
       0.062402096 -0.04537083 0.07310419 -0.035306796
0003f0 31 82 77 bd 1e 7a 48 bd 64 c7 7c bd 41 15 a0 bd
       -0.060426895 -0.048944585 -0.06171359 -0.07816554

bias f4 [128]
000000 8b e9 30 3e 95 a2 9a 3d a2 54 09 bd 64 b9 98 3d
       0.1727659 0.07550541 -0.033527978 0.074572355
000010 5f de 1d 3d 52 eb d9 bc 50 89 89 3c 06 95 8a bc
       0.038542148 -0.026601467 0.016789109 -0.016916763
000020 7e 57 90 bd 04 b4 9e bd 9f a6 4e bc 73 ec f4 3d
       -0.07047938 -0.07749179 -0.012612968 0.119591616
000030 1a f4 58 3d 76 e8 38 bd 2c 03 6c 3d 87 1e 30 bc
       0.05296717 -0.045143567 0.057620212 -0.010749466
000040 2b 75 4d bd 53 25 5a 3d 14 29 10 bd 7d b8 d1 3d
       -0.05016057 0.05325825 -0.035195425 0.102402665
000050 e4 0d 92 bc 50 38 1e 3d c4 ca 49 bd a5 3f 1a bd
       -0.01782889 0.038627923 -0.049265638 -0.037658352
000060 3c 09 42 bd 98 37 a2 bd 1b 8f a7 bd 9d a3 1f 3d
       -0.047372088 -0.0792076 -0.08181592 0.038974393
000070 47 ab 35 3d 9d 38 9a 3c 44 62 20 3c 37 12 ba 3d
       0.044352796 0.018825823 0.009789053 0.090855055
000080 94 12 8e bd dd c1 8d 3c ae c7 e5 3d 69 ae 69 bd
       -0.06937137 0.017304355 0.112197265 -0.057051096
000090 ab 9f c2 3d d1 e3 e7 bc 66 c1 b7 3c b3 9e bb 3d
       0.095031105 -0.028306874 0.022431087 0.09161129
0000a0 11 5b ae bd 88 c8 73 bd 54 27 06 3e d8 ba 75 3d
       -0.08513463 -0.059517413 0.1310094 0.05999264
0000b0 67 d5 68 bd fa 3c 10 3e a4 9c 9d 3d 59 82 31 3e
       -0.05684414 0.1408576 0.076958925 0.1733488
0000c0 ff ab 41 3e a1 a4 59 bc 9a 2e c8 3c f6 b5 02 3c
       0.18913268 -0.0132838795 0.024436284 0.007977953
0000d0 94 54 b3 3b 84 69 3a 3d c2 0c 1b 3d 5d 24 2c 3d
       0.005472729 0.045510784 0.037853964 0.042026866
0000e0 a1 03 09 bd 6a b9 38 3d 89 c2 58 3d 80 8d 0d bd
       -0.033450726 0.0450987 0.0529199 -0.034558773
0000f0 07 68 5d 3d 1c 09 62 bd 4f 63 f4 3c 2e b6 3a 3e
       0.054054286 -0.05518447 0.02983251 0.18233559
000100 97 b3 20 3d 36 c6 25 3d 64 e9 f4 3d 85 51 ff bc
       0.03923377 0.04047223 0.11958578 -0.031166801
000110 26 0e 1b 3e d6 60 ab bd 9e d8 59 bd e1 0c af bd
       0.15142116 -0.08368079 -0.053185098 -0.08547378
000120 73 bc a9 bd a0 79 44 3d 83 e1 1a 3e 25 e2 43 3d
       -0.08287897 0.047967553 0.15125088 0.04782309
000130 6c 49 3a 3e 16 7a 64 3d 8c 51 68 bc 2e fa 1d 3d
       0.1819207 0.055780493 -0.014179599 0.038568668
000140 69 af 9e 3c 54 fe 69 3c 0c cc ad bd 0e d9 6a bd
       0.019370751 0.014281828 -0.084861845 -0.057335906
000150 58 c1 36 bd 66 4f b3 bd 8c ba 37 bc 63 f6 ae bd
       -0.04461798 -0.087553784 -0.01121391 -0.08543088
000160 d1 33 5f 3d 46 58 3f 3d ff 81 31 3c 88 24 c6 ba
       0.054492775 0.046715043 0.010834216 -0.0015117088
000170 e4 be 89 bd 3d 08 43 bb a9 5b a9 bd 58 f8 05 bd
       -0.067258626 -0.002975955 -0.08269436 -0.032707542
000180 d8 c0 d4 3d 3b d3 88 bd d1 54 f5 3d b3 95 ab bc
       0.103883445 -0.06680914 0.11979068 -0.020945406
000190 f6 5b bf 3d 41 e7 5d bc f4 a3 89 bd 39 77 0a 3d
       0.09343712 -0.013543905 -0.06720725 0.033805106
0001a0 6d a5 86 bd 38 7f 11 bd 45 bb 7d 3c 1c b8 b8 3c
       -0.06574521 -0.035521716 0.015486543 0.022548728
0001b0 a4 44 3e bc 7a 44 aa bd 30 7f 82 3b f0 35 23 3c
       -0.011613045 -0.08313842 0.003982447 0.00996159
0001c0 55 5e 0f bd 2f 35 23 3d c0 84 35 3d 1f 5d ef 3c
       -0.03500207 0.03984564 0.044316053 0.029219208
0001d0 8d af ca 3d a5 85 fc bb 34 c3 c2 bd 02 26 86 3b
       0.09896765 -0.0077063614 -0.09509888 0.0040938864
0001e0 9b 15 59 3d ec ef 31 bc 7d ef 95 bd d7 2e 24 3d
       0.05299912 -0.0108604245 -0.073210694 0.040083732
0001f0 bd 70 6f bd b2 71 46 3d 94 d4 6f 3d 6d 2e 0c bd
       -0.058457125 0.048448272 0.05855234 -0.034223963
