DeepControlledLearning/PolicyWeights/perishable_systems_m4_l2_cvr2.000000_f1.000000/cl_gen.pth (torch, 294982 bytes, 10 tensors)

weight f4 [256, 5]
00000000: 7287 193c 4fa9 c1be 2f30 213e 9d6a c33d
00000010: 68a9 a13e 6b37 243c c594 9fbc cd8a ebbd
00000020: 9207 b4be 5ba0 d73e c49a ac3e 8003 7d3d
00000030: 8f07 b9be 2d87 f6bd 17b3 af3e 875b 85bc
00000040: 8c06 fb3e 3453 18be 7ebd 7cbe f489 bebd
00000050: c708 83be 9b4e d53e 7c3b d6bd d78c b8be
00000060: bcf9 c33c f257 143e 3915 c13e 34d4 153d
00000070: cc45 9abe ad29 9fbe 154f 40be d393 cd3e
00000080: f3db 7a3e 94cb d03e 9a22 773e 59b9 183e
00000090: c79c ebbd 08f6 ba3d 2856 8ebd fd16 d7be
000000a0: 7f0e d7be bde1 88be 7c13 07be 0c24 a0bc
000000b0: 38b6 f13d 250e 943c a9d3 19be 5b3d 2fbe
000000c0: 855c d43d 1911 8ebc 5a24 cfbc ad3a d9bc
000000d0: 3c31 dcbd 71d6 8abd 6173 01be 4a34 44bd
000000e0: 48ce 7d3e ddd7 8ebe 9467 a43d e58f 173e
000000f0: 9750 343e b23a 533e bd72 1ebe dddf b6be
00000100: 524d dd3e 8791 a43e 8f2f 3c3e 0a07 cf3d
00000110: f91f 5f3c b668 a9be 3513 a23d 27af 193e
00000120: 8cfa 22be 1fc9 aabd 3cc9 b03d e921 363e
00000130: df77 043d d250 b8bd 2119 663b be62 f13d
00000140: a28a 82be 91db 9e3e 46cf 883d 742c b33e
00000150: 886b 8dbe 61ca 39be 716d bebd 9ba4 c33e
00000160: 48e7 debe eddd 91be f47b e6be b1a8 9dbd
00000170: db59 b1bd 34c1 123c 1224 1d3e d984 203e
00000180: 6711 45be 6b81 933e e19e d03e 5668 e2be
00000190: f9e3 a23e 7c18 873e 09d0 a53d 1dc0 0a3e
000001a0: 97c3 05bc 5ec9 96be cc56 84bd ad96 ff3d
000001b0: 9000 093c 6d64 903e 27e6 773e 3866 cb3e
000001c0: 538f 7f3e 2bef ea3d 0d94 1b3e 62a7 1f3d
000001d0: 373c 903e 3997 95be 6fe0 73be 4c7a 0f3e
000001e0: 3c05 aabe e863 1abe f9e7 a63c 933a 5d3e
000001f0: 40d1 86be df05 1dbe ee12 4bbd e3cb c33d
00000200: 92ef a4bd d884 803e 4136 063e 432e 7a3e
00000210: 6743 6dbe 2fa2 cebe ee76 b7bd 707d 313e
00000220: 9786 1abd f5fe a5bc 6e2d 8b3e a61f d03c
00000230: 5d1c b63e 7071 913e 8b7a 99be 5fb4 c8be
00000240: ddef a83e 5c80 66be 2cfe 21be c80d 27be
00000250: 1d89 ac3b f04a 383e 6290 e5bd 0f26 da3e
00000260: fc3b 013e 6bf3 31be a62d 12be 9fb4 bb3e
00000270: 94de 6abe e6d6 083e 95b0 913e c1d3 e83d
00000280: a6b6 0a3d af16 06be f86a a03e a852 c43e
00000290: 1618 aebe 32a3 853e 80a4 74be 670a ce3e
000002a0: 147d a4be 5679 543e 321b 103e e222 a33e
000002b0: 5aa5 843e b696 cabe 39e6 b8be b794 8abe
000002c0: cbd5 e93e 6ce2 a4be 517e d93e bc63 34be
000002d0: a01d 16be 666b fe3d c1f5 a03e 7558 cbbe
000002e0: 1d76 a03e 9bd5 c93c d041 313e 885f aa3d
000002f0: 9a10 f13d 22f6 b6be d410 e1be bb1b e03d
00000300: dd2a 023e c290 203e b1cc 49be ac53 c0bd
00000310: 616b b0be dbd9 afbe 21a7 9ebd 8030 80be
00000320: c3f2 61be 49a6 5e3e 37f3 dc3d 7eec 563e
00000330: f8fa 4f3d 14fb e4be ec29 8ebd f0bc 14be
00000340: fe4b cb3d e165 adbe a38e 01be f5fa a13d
00000350: f29d ed3d bcf4 323e 7f0c 843d 0b94 80bd
00000360: 3170 543c 54cb f73d c594 a43d a6ee 263d
00000370: 0c62 d53e 00bf c7be 8bd8 bc3e acf2 c53e
00000380: 0006 75be 802a b0bd 3d8b 033d 102e 90be
00000390: df9e a3be 2b80 10bc e795 7b3e 5ea5 c03d
000003a0: d987 35bd 579d c9bd 2598 adbe 8cf9 c7bd
000003b0: 5926 86be c052 c03c 2767 a7be 6692 60be
000003c0: 1860 fbbd 66d8 a13e 0192 fd3d 815d bc39
000003d0: 679c 99be b070 d1be 8b91 a93e 48d8 a63e
000003e0: bad3 e33e 957a 6b3e 0b8d 08be 556a b83d
000003f0: c3e3 0bbf 8061 903e 2a86 c2bd 1a8e dc3e
0.009370672 -0.37824485 0.15741037 0.09541819 0.3157456 0.010022978 -0.019480119 -0.115010835
-0.35162026 0.4211453 0.33711827 0.061770916 -0.3613858 -0.120375015 0.34316322 -0.016278995
0.49028432 -0.1487549 -0.2468166 -0.09303656 -0.25592634 0.41661534 -0.104605645 -0.36044952
0.023922794 0.14486673 0.37711504 0.036579326 -0.30131376 -0.31086484 -0.18780167 0.40151843
0.24497966 0.40780318 0.24134293 0.14914455 -0.11504512 0.09128958 -0.06950027 -0.42009726
-0.42003247 -0.26734725 -0.13191026 -0.019548438 0.118023336 0.01807315 -0.15022148 -0.17113249
0.10369209 -0.017342137 -0.025285888 -0.026517237 -0.10751578 -0.06779183 -0.1264167 -0.04790143
0.24785721 -0.27899066 0.080275685 0.14800985 0.17608868 0.20627859 -0.15473457 -0.3571767
0.43223053 0.3214228 0.18377517 0.101087645 0.013618463 -0.330877 0.0791382 0.15008222
-0.15915889 -0.08339142 0.086321324 0.17786373 0.03234088 -0.0899979 0.0035110193 0.11786412
-0.25496393 0.3102689 0.06680159 0.34994853 -0.27621102 -0.18143608 -0.09298218 0.38211522
-0.4353583 -0.28489628 -0.45016444 -0.07698191 -0.08659717 0.008957196 0.15345791 0.15675677
-0.1924492 0.28809676 0.40746215 -0.44220227 0.31814554 0.26385868 0.0809632 0.13549848
-0.008164308 -0.29450506 -0.06461868 0.12479911 0.0083619505 0.2820162 0.2420889 0.39726424
0.24957018 0.11471399 0.15193196 0.038977988 0.2817094 -0.29216936 -0.23816083 0.14011496
-0.3320712 -0.15077174 0.020374285 0.21604376 -0.2633152 -0.15334271 -0.0495786 0.09560373
-0.08053507 0.25101352 0.13106634 0.2443171 -0.23170243 -0.4035811 -0.08958231 0.17333007
-0.03772601 -0.020263175 0.27183098 0.025405716 0.35568514 0.28406858 -0.29976305 -0.39200112
0.329955 -0.22509903 -0.15819615 -0.16313851 0.0052653686 0.17997336 -0.112091795 0.4260716
0.12620538 -0.17378013 -0.14275226 0.3666124 -0.2293647 0.13363227 0.28455034 0.11368514
0.033865593 -0.1309459 0.3133161 0.38344312 -0.3400275 0.2610107 -0.23890877 0.4024231
-0.32126677 0.20749411 0.14072874 0.3186255 0.25907403 -0.39568108 -0.36113146 -0.27066585
0.45670924 -0.32203996 0.42479184 -0.1761617 -0.14659739 0.124228284 0.31437495 -0.39715925
0.31340113 0.024637988 0.17310262 0.083190024 0.117707446 -0.3573466 -0.4395815 0.10942789
0.12711664 0.1568022 -0.1970699 -0.09390959 -0.34456924 -0.34345898 -0.07746721 -0.25037003
-0.22065262 0.2174312 0.10788577 0.20988652 0.05077645 -0.44722807 -0.0694159 -0.14525199
0.09926604 -0.3386679 -0.12652068 0.079091944 0.11602391 0.17476171 0.06447696 -0.06278237
0.012966202 0.12099329 0.08036188 0.040754937 0.41676366 -0.3901291 0.3688396 0.38661706
-0.2392807 -0.08601856 0.03211521 -0.28160143 -0.31957147 -0.00881962 0.24568902 0.09406541
-0.044319008 -0.09844463 -0.3390514 -0.09764394 -0.26201132 0.023476958 -0.32695886 -0.21930847
-0.12274188 0.3161041 0.12381364 0.0003592782 -0.30002138 -0.40906286 0.33118853 0.32586884
0.44497472 0.2299598 -0.13335054 0.09004656 -0.5464441 0.28199387 -0.09498246 0.43077165

bias f4 [256]
00000000: 633f 1bbe 41c8 97be b437 963e 15c6 c2be
00000010: 627c 8a3e 0ed5 88bd c270 b4be 79e4 bf3e
00000020: 9d1f 04be d3b9 573e 89a8 e13d c870 c53e
00000030: 4378 97be ae40 e03e 32e5 1e3f 6e91 a2bd
00000040: f2b4 b8be 3a96 3d3e cee7 c63e 7cd7 c3be
00000050: 96ed d03e b68e 0abe 0594 0ebf 8965 5cbd
00000060: 778c e13e d6bb 993e 48da 9e3e 4b23 1bbf
00000070: 5aef a3be 87a9 2e3f 122e 0d3f 05eb bcbe
00000080: 9a18 0d3f c6d4 32be a1bd b4be b814 efbe
00000090: 7862 053f ec2d 6a3d 9d75 92be c61b 51be
000000a0: 4fe0 f53e e22a fcbd 49ef 96be 8f86 e63e
000000b0: f08f 0bbf a36f 7dbe a6b8 b0bd 065e 00be
000000c0: a9f0 6cbe 10cf 29bf d662 f9be 64ce 9b3e
000000d0: 1ee7 1a3f 2777 753e 0589 01bf dca7 863e
000000e0: 63b7 1f3c d3b8 6f3d 968d 823e 2d05 9b3e
000000f0: 930b af3e 15c8 0bbf 7489 9c3e be0a be3e
00000100: 5d26 c93d e6ee fbbd a543 5c3d 7616 98be
00000110: 1813 52be 0999 a2be 92de b9be 7de9 893e
00000120: a764 243d a441 81bc 4c8d 05bd f425 343e
00000130: 0350 7bbe 40ac e6be 0bc0 0bbf af4c a9be
00000140: c34c afbe 8575 293f 4702 d8be 4db4 ae3e
00000150: 9df3 00bd 9d4f 23be e227 54be 599f 6bbe
00000160: 91cc cfbe c0f5 dabe b375 84bd d04c bb3e
00000170: 412f c5be c428 04bf f4a0 fd3e 299d bc3e
00000180: 8b45 65be 9819 df3e 197a 153e 207b 17be
00000190: fb46 b4be 2d0e b0bd ea17 f0be 5139 efbe
000001a0: 0ed3 a9be f372 753e 2092 a6bd 9704 fbbe
000001b0: a273 253f 4a81 e8be 53cd 82be 3699 abbe
000001c0: bb2c 1c3f 573f b23e 3531 043f faf6 b93d
000001d0: ad1c c73e c02c 11bd 48c6 323a 5b94 373e
000001e0: 152e 0a3d adbb bbbe f653 cebc e79d 9b3e
000001f0: b7c5 be3e 9ae5 1a3e ad1d 9d3e 9cb6 b93e
00000200: 1f53 25bd 59a6 48be 78db 0cbf 1cf9 0cbf
00000210: 6852 1ebf 8402 81be 68c1 193e 13e8 863e
00000220: e079 0a3f cfb4 1c3f 5844 b9be 6925 d2be
00000230: 144f a7be 38d7 c7be d5b9 fcbd 1267 d63e
00000240: 2209 91be 8d76 383e 1695 2f3f d714 ddbd
00000250: fd87 fc3e b9de fc3e ad0a c13e 6dce b33e
00000260: 3f47 d9bd 38f5 42be 80a9 89be c434 c1bd
00000270: 0995 aa3e 7ec4 373f 728b b83c 95c6 a13e
00000280: c789 9c3e ee86 b9bd e816 393e df60 1d3e
00000290: f4ce a9be a88d 4fbe 02cf 833e 54f8 693c
000002a0: c973 d4be 450e aebd ee71 293b 39a3 babe
000002b0: d122 bbbd 31cc 15bf ed5f 9c3e 5a1b 4fbe
000002c0: 5600 de3d b8e9 b93e 9850 30be fcd2 d53e
000002d0: cb75 ea3e 47d7 a63e 1978 693e 5b8f b83e
000002e0: 4934 debe 5a81 093f 9b15 2bbe 440b d9be
000002f0: 9e67 bcbe 9293 913d d8f9 0cbf 5c6d 613e
00000300: fa59 953e c26f 9ebd 9cd9 07bf 481a b23e
00000310: 18c5 4a3d 2f28 54be e509 b43e 5653 033f
00000320: 0acf 143f 7d15 51be 4593 2abe 3b32 0c3c
00000330: ee4d c9bd c48a f5bd 43c8 dbbd 5a16 e5be
00000340: 30ea 163f b6da cb3e 371e afbe a5da b9bd
00000350: 4e5e f73e 32aa d63e 49a5 f33c 63ad babd
00000360: 0218 b43e 22de e0bc 8992 f2be 7e60 a03e
00000370: 5ce1 cbbd f431 f8bd b55d fd3e 5793 c5be
00000380: 5a0d aebe 694e 4ebe 2ceb 28be 908d dc3e
00000390: 3028 9dbe 5e3c 88be 4fcb 903e 79b5 773e
000003a0: d876 ed3e 23f0 f33e 7f6b d4be 51b4 1a3e
000003b0: 15f5 323e 1d08 963e 9ca4 3bbe f363 f4bb
000003c0: 4329 d1be a064 84be 6362 ac3e ec03 a8be
000003d0: 28a0 1e3d 728a f73e 3500 dc3e 67ef 10be
000003e0: 6506 2dbe 207a 13bf a4d3 bd3d 42f6 cb3e
000003f0: 2067 4d3c 00c7 063f 9844 ddbd a6f2 cc3e
-0.15160899 -0.2964497 0.29339373 -0.3804175 0.27048022 -0.06681262 -0.35242277 0.37478998
-0.12902685 0.2106698 0.11018474 0.38562608 -0.2958394 0.43799347 0.62068474 -0.07937895
-0.3607555 0.18514338 0.38848728 -0.3825034 0.40806264 -0.13531002 -0.5569461 -0.05380777
0.4405248 0.3002612 0.3102591 -0.6060073 -0.32018548 0.6822743 0.5514842 -0.36898056
0.55115664 -0.17463979 -0.35300925 -0.46695495 0.52103376 0.0571727 -0.28605357 -0.20420751
0.48022696 -0.12312867 -0.29479435 0.45024535 -0.54516506 -0.24749617 -0.08628969 -0.12535867
-0.2313868 -0.6633158 -0.48708218 0.304309 0.60508907 0.23971234 -0.505997 0.26299942
0.009748313 0.05852587 0.25498646 0.30277386 0.34188518 -0.54602176 0.30573618 0.3711757
0.0982177 -0.12301426 0.05377545 -0.29704636 -0.20515096 -0.31757382 -0.3630262 0.2693595
0.040135052 -0.01577837 -0.032605454 0.17592603 -0.24542241 -0.4505329 -0.5458991 -0.33066317
-0.34238252 0.66194946 -0.42189237 0.34121934 -0.031482328 -0.15948339 -0.20718339 -0.23010005
-0.4058576 -0.42765617 -0.06467762 0.3658204 -0.38512614 -0.51624703 0.4953686 0.36838654
-0.2238981 0.43574214 0.14597358 -0.14793062 -0.35210404 -0.08596454 -0.46893245 -0.46723416
-0.33168834 0.23969631 -0.0813334 -0.4902694 0.64629567 -0.4541114 -0.25547275 -0.33515328
0.61005753 0.3481395 0.51637584 0.0908031 0.38889065 -0.035443068 0.00068197073 0.17927687
0.033735353 -0.36666623 -0.02518652 0.30393907 0.3726022 0.15126649 0.30686703 0.36272132
-0.040362474 -0.19594707 -0.5502238 -0.5506761 -0.6184449 -0.25197232 0.15015185 0.26348934
0.54092216 0.6121339 -0.36184955 -0.41044167 -0.3267752 -0.39031386 -0.12340132 0.4187551
-0.2832728 0.18013974 0.6858686 -0.107949905 0.493225 0.49388674 0.37703457 0.35118428
-0.10609292 -0.19038856 -0.2688713 -0.09433892 0.3331683 0.717842 0.02252743 0.3159682
0.30573866 -0.09058939 0.18075144 0.15368985 -0.33165705 -0.20268881 0.25743872 0.014280397
-0.41494587 -0.084988154 0.002585526 -0.36452654 -0.091375 -0.58514696 0.30541936 -0.20225278
0.10839908 0.36311126 -0.17218244 0.4176253 0.45792994 0.3258612 0.2279972 0.36046872
-0.43399265 0.53713 -0.1670746 -0.42391407 -0.36797804 0.07108225 -0.5506873 0.22014374
0.2917021 -0.0773616 -0.5306642 0.34785676 0.04950437 -0.20718454 0.351638 0.51299036
0.58128417 -0.20418353 -0.16657741 0.008556898 -0.09829317 -0.11989358 -0.10731556 -0.44743615
0.5895109 0.398153 -0.3420274 -0.09074906 0.48314136 0.41926724 0.0297419 -0.09115102
0.35174567 -0.027449671 -0.47377422 0.31323618 -0.09955093 -0.12118903 0.49485555 -0.38588974
-0.3399456 -0.20147099 -0.16495961 0.43076754 -0.30694723 -0.26608557 0.28280112 0.2419032
0.46379733 0.47644147 -0.41488263 0.15107848 0.17476304 0.29303065 -0.18324512 -0.007458204
-0.40851793 -0.2585802 0.33668813 -0.32815492 0.038726956 0.48347813 0.42968908 -0.14153825
-0.1689697 -0.5760822 0.09268883 0.39836317 0.012536794 0.526474 -0.10804099 0.40028876

weight f4 [128, 256]
00000000: 4504 cd3c c2fc 29bc 6009 0ebd 0f2a 14be
00000010: 82c8 2f3c 2967 35bd 5a4e 91bb b4fc ddbc
00000020: 72e1 bebc f8e8 b2bb 38f7 a33c bcfd 243d
00000030: c90e 89bd 6596 ddbc a51c a8bd b123 5c3d
00000040: 3066 d23d 281b 18be f064 d1bc 59a7 15bc
00000050: d953 88bc fdfd 643d e2e6 833d f92d 88bd
00000060: 0433 f6bd 1c19 8abc 7a3f b4bd be0e 993d
00000070: 5b5e a2bd 70f4 b7bd b0d0 3ebd 1e3f a83d
00000080: bd1c 3c3d f1e2 253d 2355 34bd 6122 733d
00000090: 1788 8cbd 38a3 ddbc 19d8 b13d 8875 80bc
000000a0: d163 f33c 3fe1 a93c 63b8 a13d ca26 513d
000000b0: dd70 c63d 0cba da3c 21a7 27be 94b8 42bd
000000c0: 050c f1bc 3d7c 573d 218f ab3d a3b5 06be
000000d0: 9157 5dbd fee5 423d ee31 3b3d 16eb 0dbd
000000e0: 11b0 5e3d 0f64 b9ba aa7c 89bd cf35 40bd
000000f0: 3d01 cdbc fef1 4d3d 164e cfbd 5864 8abd
00000100: 2e05 09bd bb2c 1b3d a33f 4fbc c30b 963d
00000110: af18 03be 570c 293d bf14 323d f303 2dbd
00000120: 6421 903c d5b6 50bc 7562 3dbd 77e8 12be
00000130: 4823 e0bd ea89 d13c fc4f 963d 4352 a53d
00000140: 2943 89bc bf7b 7cbd 4596 cc3a 9019 48ba
00000150: 801d 3e3d 8966 86bc 92aa 8d3d fce9 473d
00000160: 19bf c43d 4086 103c a37a f2bd f729 5abe
00000170: d307 693c 816c a33d 71f7 95bd 501d 87bc
00000180: fc35 c6bc 96b8 223d 2b8c 8fbc 99fd 283d
00000190: d56c a43d ff9a 83bd bd23 fa3c f427 9e3d
000001a0: 3add 863d 6ff7 e4bd f75b 363d b5d6 063e
000001b0: 80da a1bd 46e2 9b3d 84a6 c3bd a471 5fbd
000001c0: 32f5 d8bd 346b d83c 12b5 04be c109 2cbc
000001d0: 7f3d 75bd 94d7 2cbe 0234 99bd 1250 5bbc
000001e0: 7a06 bebc 4dd0 573d 23e7 053d 1972 75bd
000001f0: 8fbf 773c cd9b 04be ab54 93bb 0319 513d
00000200: 5b42 113c 7e72 16be 7c34 69bb f860 8dbb
00000210: 20e2 243e 7676 73bd 97ae 8fbd dfe4 653d
00000220: f823 a6bd eb0c 5bbd ebda 6c3d 36a4 8ebd
00000230: b310 e5bd be44 313d ebd6 a13c 5c04 88bd
00000240: f90a d1bd 6fe2 53bd 6b95 b8bd 6213 15bd
00000250: 6f34 12be 6ae9 10bc e159 83bd 479a d1bc
00000260: 5557 633d eeab a9bb cb0b e13c e5c0 01bd
00000270: 1c63 b03d b01e b3bc 431b 703b 986f 12bd
00000280: 2a53 a5bd 21d0 0cbe 09ca 903c e322 00be
00000290: d7cb 61bd 5738 82bd 938f 86bd 9e81 5ebd
000002a0: 9472 913d b8cc d1bd 0050 2fbd d82a 653d
000002b0: 9606 dcbd 7dc3 61bc c262 3fbc a1b4 0e3c
000002c0: d675 c5bd 7881 1a3e d2a7 5dbd e651 0c3c
000002d0: a8c4 3bbd 561f 26bd b427 713c 5cb0 163d
000002e0: cdb9 f0bd c86f febd 50f9 8f3c f980 0b3d
000002f0: e47a b7bd a75c 10bd 0058 a13c af07 323d
00000300: d655 19bd 4919 0abe 4f5e b53b 59a1 adbc
00000310: 04cc 583d 03b9 80be fc73 e1bc 55cd 52bd
00000320: 9bf9 88bd 94cd c9bc 1cab 3c3d ecc5 413d
00000330: f53a 8d3d fffb 783d cb35 8f3d b7b2 963d
00000340: 57a8 95bd 38e2 b43b 6162 0d3e 4cff a53c
00000350: 5125 fabd 8033 b2bd 3379 48bd d6d6 913c
00000360: a3fc 8d3d a6b8 d1bd ce3e e33c 28c4 f7bd
00000370: d3b9 823d f0fa 803d c209 93bd 38c4 8ebc
00000380: f6ed a23d a8e8 07bd 6908 39bd 0fd2 84bd
00000390: 4f3c ddbb 3f18 b53d ead2 54bc fb90 9f3d
000003a0: 1aca 7cbd 7598 acbd 69f1 80bc 0bfb 5e3c
000003b0: 8093 22be 6312 8e3d 55fa 1a3d 4223 79be
000003c0: a014 673c 8dcd 333d 267c 4bbc 0203 b03d
000003d0: b5b7 aabc 1529 9dbd 8bbc 8ebd f80d 40bc
000003e0: e436 b7bc 480e 533d adc2 3ebd ca51 f0bc
000003f0: 8f3d 093e c429 0cbe a55c 09bd ab8d 0bbe
0.02502645 -0.010375204 -0.03467691 -0.14469169 0.010728957 -0.044287834 -0.004434389 -0.027098037
-0.02330086 -0.005459901 0.020015344 0.040281042 -0.06692273 -0.027049253 -0.082085885 0.053744975
0.10273397 -0.1485411 -0.025560826 -0.009134137 -0.016641544 0.055906285 0.06440522 -0.066493936
-0.12021449 -0.016857676 -0.0880117 0.07473515 -0.07928153 -0.0898217 -0.04658574 0.08215164
0.045925844 0.04049963 -0.044026505 0.05935896 -0.068618946 -0.027055368 0.086837955 -0.015681043
0.029710682 0.020737289 0.07896497 0.051062383 0.09689496 0.026700042 -0.16372348 -0.04753931
-0.029424677 0.052608717 0.08376909 -0.13155226 -0.054038588 0.04758262 0.045701914 -0.034648024
0.05436713 -0.00141442 -0.06713231 -0.046926316 -0.025025005 0.05027961 -0.101223156 -0.0675742
-0.033452205 0.037884455 -0.0126494495 0.07326462 -0.12802385 0.041271534 0.043476816 -0.042240094
0.017594047 -0.012738903 -0.046236474 -0.14346491 -0.10944229 0.025578458 0.073394746 0.08072331
-0.016755657 -0.06164145 0.0015608749 -0.00076332036 0.046414852 -0.016406314 0.06917299 0.04880713
0.096067615 0.00882107 -0.11839797 -0.21305071 0.014223057 0.0797968 -0.07322586 -0.01649347
-0.024195664 0.039726816 -0.017522892 0.041257475 0.080285706 -0.064260475 0.03053462 0.07722464
0.06585164 -0.11180007 0.0445213 0.13167842 -0.07903004 0.076115176 -0.09553245 -0.054551736
-0.10593642 0.026418306 -0.12959698 -0.010500372 -0.0598731 -0.16879112 -0.07480623 -0.0133857895
-0.023196448 0.052688885 0.032691132 -0.059923265 0.015121355 -0.12950058 -0.004496177 0.051049244
0.008865918 -0.14692113 -0.0035584262 -0.004314538 0.16101885 -0.059439145 -0.07015722 0.05612647
-0.08112329 -0.053479116 0.057825964 -0.069649145 -0.11184826 0.04327845 0.019755801 -0.066414565
-0.10207171 -0.051729616 -0.09012874 -0.036395438 -0.14277814 -0.008844713 -0.064136274 -0.02558626
0.05550321 -0.0051779663 0.027471444 -0.0316781 0.086126536 -0.021865219 0.0036637343 -0.035750955
-0.08072503 -0.1375127 0.017674463 -0.12513308 -0.055126037 -0.06358402 -0.06570353 -0.05432283
0.07101932 -0.10244125 -0.042800903 0.055949062 -0.10743444 -0.013779518 -0.011681261 0.0087100575
-0.09641616 0.15088451 -0.054115124 0.008564448 -0.045841843 -0.040557228 0.014718939 0.036789283
-0.11754189 -0.12423664 0.017574936 0.034058545 -0.089589864 -0.03524461 0.019695282 0.04346436
-0.037435375 -0.13486208 0.005534924 -0.0211951 0.05292894 -0.25141153 -0.027521126 -0.05146535
-0.066882335 -0.02463416 0.04606162 0.047307894 0.06896011 0.060787197 0.06992682 0.07358306
-0.07307499 0.0055201314 0.1380706 0.020263337 -0.12214149 -0.08701229 -0.04894371 0.017802637
0.06932952 -0.10240297 0.027739909 -0.12097961 0.063830994 0.062978625 -0.071795955 -0.017427549
0.07955544 -0.033180863 -0.045174036 -0.06485378 -0.006751574 0.08842515 -0.012989739 0.07791325
-0.061716177 -0.08427516 -0.015740113 0.013609658 -0.1587658 0.06937101 0.03783639 -0.24329856
0.0141040385 0.0438972 -0.012419736 0.08594324 -0.020839551 -0.076738514 -0.069695555 -0.01172208
-0.022365041 0.05152729 -0.046572376 -0.029335875 0.13402389 -0.13687807 -0.03353562 -0.13628261

bias f4 [128]
00000000: 46c9 3abe 0573 2ebe 2b72 053e fdeb 2c3e
00000010: 383f 463d d477 853d 9902 cd3c 79d5 45bd
00000020: 9104 19be dd71 453e e187 803e aa69 20be
00000030: af7b 51be a4ea f23c 2940 d4bc 3608 2dbd
00000040: c6cd ccbd c2c7 5a3e 2e51 3b3c 1591 09be
00000050: 1918 3dbe 43c8 6b3d effb 2abe e213 88bd
00000060: 4d19 2ebc 8606 473e bba3 db3c 4a83 543d
00000070: bf12 7abe ee75 87be 3425 1f3d f8eb 57be
00000080: e992 073e ac35 30be 943f c53c d232 eb3d
00000090: add1 4bbe 01f9 8abd 3aaa 483d e314 15be
000000a0: 7343 7abe 00df 00ba 8c49 2d3d 6d6e 1dbe
000000b0: 06a8 2abd d192 fabd 82ab 55bd 0ad7 9c3e
000000c0: 308c 303b 32fd 4e3e 200d 6f3e f12d 7ebd
000000d0: 042b 41be c876 e43c 64ec 23be 640d 10bb
000000e0: dc2e 82bc ea9a 153e bb76 573e 372f 29bb
000000f0: 81c8 a0bc 5d44 bfbc f543 d7bd 4b20 253e
00000100: 61b0 0bbe b330 87bd 4ac0 57bd ae99 61bd
00000110: e057 e7bb 0820 adb9 62bf 7c3e 7d04 40be
00000120: 7c7f ea3c a92f 35bd e94c 89bd 4174 23bd
00000130: b1da f63b ac9e 34be dfd4 34be 9c8c 743c
00000140: 4682 edbc dd40 0abe d258 4ebe 5994 493e
00000150: ace7 2bbe 730d 25be 2b0f 333d bfc0 623d
00000160: cc79 403d 24ce c7bc 2491 2bbd 3e4c 1bbe
00000170: 2170 30bb 5c74 6fbd 922f 3c3e 8809 763c
00000180: cac3 24bd 75d0 843d 84af e13c 6df1 41be
00000190: 612f 4abe be8b 4e3c c418 3ebd 0c79 483e
000001a0: 2e56 0cbe cb53 b6bc 2f85 b9bd b2a5 92bc
000001b0: 9182 57bd e03d 55bb ab8b 743b 9524 2abe
000001c0: b8ee 5c3e b8b6 4f3d 7f15 8fbc 6749 393e
000001d0: bb6d b3bd 1106 963e 7013 20be 542b 3fbd
000001e0: 1da2 fcbd 2298 a03c 7b7c 883c 0efe 41be
000001f0: 0fba 973e 8f98 e5bd 412a 14be dc08 14bc
-0.18240842 -0.17036064 0.13031833 0.16886897 0.048400134 0.06516996 0.025025653 -0.048299287
-0.14943148 0.19281717 0.25103667 -0.15665308 -0.20457338 0.029652901 -0.0259095 -0.04224416
-0.10000186 0.21365264 0.011432929 -0.1343425 -0.18466224 0.05756403 -0.16697668 -0.06644417
-0.010626149 0.19436082 0.026811471 0.05188302 -0.24421214 -0.2645716 0.03885384 -0.21086109
0.13239636 -0.17207974 0.024078168 0.114843026 -0.19904204 -0.06785775 0.048990466 -0.14558749
-0.24439792 -0.0004916042 0.042306468 -0.15374155 -0.041664146 -0.12235034 -0.052165516 0.30632812
0.0026939027 0.20213774 0.2334485 -0.062055532 -0.18864065 0.02788867 -0.16008145 -0.0021980638
-0.015891485 0.14609876 0.21041386 -0.0025815496 -0.019626858 -0.023348028 -0.10511009 0.161256
-0.13641502 -0.066010855 -0.052673616 -0.0550782 -0.007060036 -0.00033020996 0.24682382 -0.18751712
0.028625242 -0.044234905 -0.067041226 -0.03990579 0.0075333943 -0.17638654 -0.17659329 0.014926102
-0.028992783 -0.13501306 -0.2015107 0.19685496 -0.16787595 -0.16118412 0.043715637 0.0553596
0.046991155 -0.024390288 -0.041886464 -0.15165803 -0.0026922303 -0.05846058 0.18377522 0.015016921
-0.04022578 0.064850725 0.027549513 -0.18939753 -0.19744636 0.012606559 -0.046410337 0.19577426
-0.1370475 -0.022256752 -0.09058606 -0.017901275 -0.052614752 -0.00325381 0.0037314694 -0.16615517
0.21575439 0.050711364 -0.017466305 0.18094407 -0.08761164 0.29301503 -0.15632415 -0.04667218
-0.12335608 0.019603793 0.01666092 -0.1894457 0.2963414 -0.11210739 -0.14469244 -0.009035315

weight f4 [128, 128]
00000000: 1906 0d3d 07fd c33d 3eb1 623d d53a b03d
00000010: 04c3 1ebc 7e57 3b3d 732c 9d3c cf58 ebbc
00000020: dd82 be3d cdda 343d 9329 9f3d 1d50 dc3d
00000030: ae5a 343e 5094 923d 9139 033d 8b74 5d3d
00000040: a3d4 213e 7282 fbbc 115e 503d 87d9 dc3d
00000050: 0de4 e23d 7b1e e1bd 4e4d fa3c e907 43bd
00000060: 75f4 0c3d 7366 bdbc 9b8b b33d d509 30bd
00000070: a9b5 a13d 56fa 383e ced4 6f3d 31d5 313d
00000080: 9b97 1d3b 024f e9bc 5394 263d b981 1cbc
00000090: 234f d73d 4615 c13c d4d3 82bd 34cf 323c
000000a0: 9c98 edb8 6d97 80bd 5a32 17bd 93b6 1d3d
000000b0: 5ea8 533d aaef 553d cb48 6c3e 606e e23c
000000c0: a940 0d3b c0a3 4bbd d012 dc3d 4b66 8f3b
000000d0: 2933 213d 196a 89bc c272 15bc 351d 6f3d
000000e0: b4c0 22bd f5b4 2dbc 1e02 943b 6374 5fbd
000000f0: 8dab c8bc 20cc bf3d fb07 2cbd db3e d0bd
00000100: c957 f33d fe37 b63c 09dc 83bd b697 003c
00000110: 19ec babc 1c68 7f3d 83e5 9bbd b599 213e
00000120: 7109 a7bd 0f54 153d 3fe5 6e3c 2e59 8f3d
00000130: dc92 90bd 8e31 463c 0db4 053e d0fb 6abd
00000140: 3f64 6b3b 2910 543d 24aa 683e b374 3e3c
00000150: 841d 02bd 45bf 013e 2213 69bd ba23 38bd
00000160: 390f 883d 0464 adbd 32b1 05bd 54ea d6bc
00000170: a374 6abd 7988 19be 9798 673c 9a29 84bd
00000180: 4330 703c 68f1 ac3d 3b34 73bc 87d6 1a3e
00000190: 8506 f43d 1db1 873c 3844 863d ea45 8fbc
000001a0: c1ec 133d f64d c33d 1932 423d 8fb5 1a3d
000001b0: dcaa f4bc b38e 9dbd e884 52bd 57d1 6e3d
000001c0: 6060 37bd 4551 393d 69db 123d 8092 7dbd
000001d0: 2b00 093e 240a f6bc 74f1 fb3d 5836 cdbc
000001e0: 657f a83d f57d cbbb 61d2 94bd 4e44 d2bc
000001f0: a059 84bd c786 e13d a18b 003d 4a9a b4bc
00000200: bd1d e0ba 9c5a 65bd 7945 cbbd aeb6 903d
00000210: 12cb 5abd aeb9 143d dbe8 0c3d d130 99bd
00000220: 4d13 8dbd 5fe7 bc3c bf0f ec3c 60a3 6b3d
00000230: d92d a63b cbf7 8f3d f428 a8bd 5028 d1bc
00000240: 4a31 2abc 2fb4 8ebd d1d5 cd3c 4dd8 7b3d
00000250: a3c4 e93c 52d2 79bd 9ee3 243d edb2 b13c
00000260: 3f0a 3abd a52c 45bc 3766 7b3d 2151 673d
00000270: 218f 9a3b b689 a9bd 4c68 aabd 705f 003d
00000280: d402 92bd 9240 a2bd 8353 923c d205 3c3d
00000290: 06bf 5dbd 38b8 573d 7242 83bd 849b 4dbc
000002a0: 6b9f d5bd d824 aa3d c92e 12bd 7c58 c43c
000002b0: 43f9 5e3d 9e95 643d 90ce bfbc 30d9 d3bc
000002c0: be40 c5bd 7fde 333b 09be 58bd bf11 ac3d
000002d0: 905c 053d 1799 a53d 1468 bebc cf69 a53d
000002e0: ef4a 6fbc 9032 9abd 3bff fb3c 730c 95bd
000002f0: cb6f f0ba 50c9 83bd 93bf bcbd 9141 8fbd
00000300: 7412 263c f89d ba3c cc8a b03d 58f0 8cbc
00000310: 48e9 afbd b1d2 acbd d6d4 8dbd 3aad 9abd
00000320: d01b 603d 52f4 41bd b27e 9bbd 32a6 0c3d
00000330: 5e66 7f3b 514f b53c 0b7c aabd d42d 233d
00000340: db66 9b3d 1d6a 093d 3671 5d3d 59cd 91bc
00000350: 0aab 1abd 95e7 1bbc 46b5 013c 0b0b ab3c
00000360: 189e d8bc 0273 433c 7ca5 b5bd fa4b a53d
00000370: 898c 56bd 5784 39bb cfd2 94bd 8385 a23d
00000380: f41f 64bd 211c 613c 3ccc 12bd e017 49bd
00000390: 388f 80bd 895a 56bd 3640 8d3d 21b6 a43c
000003a0: b38f 85bd 1bfd 853d 9d15 9e3d 8dc0 9abc
000003b0: 5966 023d 51e1 2dbd d1fe 5ebd 361e cbbd
000003c0: fa18 a4bd 61c2 80bd 4d4d 2f3d 97b2 273d
000003d0: c42b 1e3d 3bea 643d 7606 6d3d 8003 bf3b
000003e0: f57b 163d 74ae 923d 4399 88bc e61a d53b
000003f0: 2643 e8bb 28c9 5e3d db64 8c3d df7f 0fbd
0.034429643 0.095697455 0.055344813 0.08604971 -0.00969005 0.045737736 0.019186234 -0.02872887
0.09302304 0.044153977 0.077716015 0.10757468 0.17612717 0.071571946 0.03203732 0.054066222
0.1580377 -0.03070185 0.05087096 0.107836775 0.110786535 -0.10992142 0.03055444 -0.047614966
0.03441282 -0.02312014 0.08766862 -0.042978127 0.07895977 0.18064246 0.058552556 0.043416206
0.0024046663 -0.028480057 0.040668797 -0.009552413 0.10513141 0.023569714 -0.06388059 0.010913659
-0.00011329466 -0.06278882 -0.036913253 0.038504194 0.05167424 0.052230515 0.23074643 0.027640522
0.0021553433 -0.04971671 0.10745776 0.004376208 0.03935543 -0.016774224 -0.009121599 0.058377463
-0.039734557 -0.010602226 0.004516854 -0.054554354 -0.024495864 0.09365106 -0.0419998 -0.10168239
0.11881978 0.022243496 -0.06438453 0.007848671 -0.022817658 0.062355146 -0.07612135 0.15781291
-0.08156098 0.036457118 0.014581024 0.069994316 -0.07059261 0.012096776 0.13056965 -0.057369053
0.0035917906 0.051773224 0.22721153 0.011624503 -0.03176643 0.1267062 -0.056903012 -0.044955947
0.066435285 -0.08466342 -0.03263969 -0.026234783 -0.05724014 -0.14993466 0.014135501 -0.06453247
0.014659944 0.08444482 -0.014843996 0.15120898 0.11915306 0.016563946 0.065559804 -0.017489392
0.036114458 0.09536354 0.047411058 0.037770804 -0.029866628 -0.07693233 -0.05139628 0.05830511
-0.044769645 0.04524352 0.035853777 -0.06190729 0.1337897 -0.030034132 0.12301913 -0.025050327
0.082274236 -0.0062100836 -0.07266689 -0.025667336 -0.06462407 0.11012035 0.03138316 -0.022046227
-0.0017098706 -0.055994615 -0.0992536 0.070660934 -0.05341632 0.03630989 0.034401756 -0.07480014
-0.06888447 0.023059545 0.028816102 0.057528853 0.0050713834 0.07029685 -0.08210936 -0.025531918
-0.010387728 -0.06967961 0.02512637 0.061485577 0.028536147 -0.060991593 0.040256135 0.021691764
-0.045419928 -0.01203457 0.061376777 0.056473855 0.0047167693 -0.082782194 -0.08320674 0.031341016
-0.07129446 -0.07922472 0.017862087 0.04590399 -0.054137252 0.05266592 -0.06409158 -0.012549285
-0.10430797 0.08307809 -0.03568915 0.023967974 0.054436933 0.05580675 -0.023413926 -0.025860399
-0.09631489 0.002744585 -0.052915607 0.08401822 0.032558978 0.0808584 -0.023242988 0.08076822
-0.014605268 -0.07529175 0.030761352 -0.07277765 -0.0018343864 -0.06434882 -0.092162274 -0.06994928
0.0101362355 0.022780403 0.086202234 -0.017204449 -0.08589417 -0.08438624 -0.06925361 -0.075525716
0.054714024 -0.047352143 -0.075925246 0.034338184 0.0038970928 0.022132548 -0.083244406 0.039838627
0.075879775 0.033548463 0.054063044 -0.017798113 -0.03776077 -0.009515663 0.007916754 0.02087929
-0.026442572 0.0119292755 -0.08869454 0.08071132 -0.05238012 -0.002830764 -0.07266771 0.079356216
-0.055694535 0.013739617 -0.035839304 -0.049095035 -0.06277317 -0.052332435 0.06897013 0.020106377
-0.06521549 0.06542417 0.07718966 -0.018890643 0.031835888 -0.042451207 -0.05444223 -0.09917872
-0.080125764 -0.06287075 0.04279833 0.0409418 0.038615957 0.055887442 0.05786749 0.0058292747
0.03673931 0.071621805 -0.016674643 0.0065034507 -0.007088083 0.054391056 0.06855174 -0.035034057

bias f4 [128]
00000000: ac40 37bd 8ea2 78bd f205 41be 63d7 febb
00000010: 25ea 103e 94c1 363e 49d5 31bd 924b 9ebd
00000020: f643 a33c 84ed 36be f0e6 e0bd 7d7d cdbd
00000030: f6dc 743e fc70 12be 995e 083e cdcb aabd
00000040: 1a95 1e3e c36c 5cbe d762 6f3d 1026 edbd
00000050: d8ee 21bd 7803 423d 4369 153e 1714 ccbd
00000060: 7fb3 68be ffc4 843c 696f 12be 6e38 e13d
00000070: c42a e8bd b357 be3b f6e5 42be 31a7 88bb
00000080: 3227 983d a105 babd d153 0fbe 9636 5f3e
00000090: 40f1 f53c c20e 743e fcdd 5bbd 28e6 01bd
000000a0: fa58 4abe 30da 06be c5e3 973d 87ec 763d
000000b0: dd40 813e d553 0a3d 017c f03c 553e 22bc
000000c0: 28f5 60bd 7bb3 363c a83b 22be b2fa b2bd
000000d0: aaf2 7f3e 1249 573b 4bee 15bd cc37 90bd
000000e0: 4224 173e dd67 96bd 11a7 5c3e 2b75 263e
000000f0: cd51 d1bd 3b30 23bd 8cdb d73d 67bd e0bc
00000100: 2b39 9fbd 315f 8b3b 6df9 3b3e 24e8 de3d
00000110: 499e 373e beb0 303e 4d9d 573b 1a8d b8bc
00000120: 3cbe 83bd 6ede 313d 1ec5 a23e f78e 35be
00000130: 2ef7 973e 14c7 2a3d 6481 d5bd c2e2 003e
00000140: 7412 9d3d 5c62 6f3d df46 42bd 38b5 333c
00000150: 6097 573c 28fb 0e3e 42da 963d d8aa 5bbd
00000160: 14a1 9f3d b9f0 c63b 5fa6 2cbe 6352 323d
00000170: f89e a03d cad8 d7bc 98a9 2f3d 85d6 373d
00000180: f879 4cbd 2099 493b 4bf8 b2bd ff4c a73d
00000190: befa 97bd 00db 3d3d 8fda 7d3d 3ab2 443e
000001a0: 76f8 1e3e dda9 d0bd f85c 1abe 9579 ab3e
000001b0: b440 9d3d e289 8cbd 017a 573d 00c8 b13b
000001c0: bc78 073e a9d6 ddbc 4085 cf3d ebfd e2bc
000001d0: 8236 23be a969 223e ce1a cc3d 9556 243d
000001e0: 69d6 fe3d 1ef7 473e ab8c afbd 0407 383e
000001f0: a8e9 eebc a6b1 3ebc 46f6 3ebd 2335 30bd
-0.04473941 -0.0607019 -0.18849924 -0.007777141 0.14151819 0.17847282 -0.043416295 -0.07729258
0.019929867 -0.17864043 -0.10981548 -0.100337006 0.23912415 -0.14300913 0.13317336 -0.08339653
0.15486565 -0.21525864 0.05844387 -0.115795255 -0.03953442 0.04736659 0.14590935 -0.09964769
-0.22724722 0.016207216 -0.14300312 0.10997091 -0.11336282 0.0058087944 -0.19033036 -0.0041703214
0.07429351 -0.09083105 -0.13996817 0.21798167 0.030022264 0.23833755 -0.053678498 -0.031713635
-0.19760504 -0.1316917 0.074164905 0.060284164 0.252448 0.033771355 0.029356005 -0.009902556
-0.0549213 0.01115119 -0.1584307 -0.087392226 0.24994913 0.003284995 -0.036604207 -0.070418924
0.14759925 -0.07344029 0.21548106 0.16255634 -0.102206804 -0.039840918 0.10539922 -0.027434064
-0.07774576 0.004253291 0.18356867 0.10884121 0.17931475 0.17254922 0.0032900155 -0.02252822
-0.06432769 0.043425016 0.31791013 -0.17730318 0.2968077 0.041693762 -0.1042507 0.12586501
0.07669535 0.058443412 -0.04743087 0.010968499 0.013158649 0.13962996 0.07365848 -0.053629726
0.07794395 0.006071177 -0.1686034 0.0435356 0.07842821 -0.02634849 0.042886347 0.044882316
-0.049921006 0.0030761436 -0.087387644 0.08168983 -0.07420872 0.046351433 0.06197601 0.19208613
0.15524468 -0.10188649 -0.15074527 0.33491197 0.07678357 -0.068622366 0.052606586 0.005425453
0.1322965 -0.027079897 0.10132837 -0.027708968 -0.15938762 0.15860619 0.0996605 0.040121634
0.12443239 0.19527861 -0.08571752 0.17971426 -0.02916415 -0.011639034 -0.046621583 -0.043019425

weight f4 [128, 128]
00000000: 5ebf 913d 6a56 93bb e7b0 3d3c 247d 3abd
00000010: c59c ff3c e7cc 3e3c 4702 49bd 3323 9c3d
00000020: 0e74 8bbc b97b acbd 5019 54bd bddf a4bd
00000030: 395b 89bd bbb7 abbd 80be 97bd 3f72 4dbb
00000040: 806c 8b3d cbd0 563c 2e3e 4abd d3de 3dbd
00000050: 6e4d 283d b186 9cbd 9233 91bd 99a4 b9bd
00000060: 4f5b 1abd c9eb c43c 35e8 b8bb 7a70 9b3d
00000070: c0d5 86bc c36a 9ebd c17a a4bd ec4a 563d
00000080: 4cb9 bbbc 532a b33c a950 87bd 70e2 8cbd
00000090: f28a 903d cb59 22bd 815a a73d ee36 a4bd
000000a0: 6b14 763c 8707 0cbd 6780 cfbc 37e8 f4bb
000000b0: 8633 c3bd 109a 41bd d8b2 203d e7ce 8b3d
000000c0: 8cc6 00bd 943b 9fbd 68a9 20bd 8cdd 523d
000000d0: a827 193a 76e6 37ba e24e aabd f16c 973d
000000e0: b05b 27bc ab7e 593d f7f9 32bd ba0f 8d3b
000000f0: c82a 1db9 4d35 30bc a70b 1a3c 7c3a 303d
00000100: 4f03 7abd a583 633d d20c 67bc 5e8f 28bb
00000110: 7bd8 9c3d 8b75 99bd d922 9dbd 8c50 02bd
00000120: e311 683c 1f4f 333d 17c0 91bd cf7a 893d
00000130: 442f 5b3d 1ae7 99bd d68a 173d dcc8 49bc
00000140: b62d 7bbd 1e45 66bd 8aff db3c 3f59 1abd
00000150: 5612 273d 45a1 07bd 0caf 22bd 68c2 253c
00000160: 2018 8cbc 827b 053c 3167 443d 1d10 09bd
00000170: 0dd2 ff3c c400 b23b 87f5 66bd e03c e4bc
00000180: ba79 0c3d 7eba 473d ed84 1fbd cc82 88bd
00000190: a7b6 7f3d d4d3 bdbd ebea 8e3d c0b1 01bc
000001a0: 41c9 62bc c0a3 43bc a899 bebc 6111 afbc
000001b0: 0800 05bd e001 933d aecd ca3c ceb7 c33c
000001c0: 8dea 173d ad34 8bbd 225c 18bd 406c 9b3d
000001d0: 7d4b b4bd 6dfd 043d d2af 8d3d 71ae 69bd
000001e0: cde8 873d dee1 8e3d e419 c33c aef1 2abd
000001f0: be4d 7ebd 05e3 84bc f4a9 a1bc 82f3 53bd
00000200: 6d35 0a3e cdf1 21bd 2dd1 643d 926b 36bd
00000210: 4251 37bd a49b 9dbd ae52 71bd 8a8d 1c3a
00000220: b13c 45bd 4237 df3d c11e fc3d f318 ba3c
00000230: d2b3 353c c9ad d33d 152a 25bd ee90 a7bd
00000240: 88d9 6dbd a815 743d de59 ee3d 3f07 173e
00000250: 3f6f 99bd cf1a 423d 0b71 a0be a8fe 0d3d
00000260: 14a8 9c3d e9b9 a7bc 7cc2 cd3d c491 8a3d
00000270: f93d ec3d 49db b23d 6639 293e 4c7f 47bc
00000280: b654 ccbc 8c7a b33d 2767 763d a619 a83d
00000290: b4ff 74bd f69e bfbd 25b2 9abc d632 92bd
000002a0: afa1 ec3d 1728 c63c 895c e4bd ac7f babd
000002b0: 32dc bebb 0f7a 10bb 12ee 713d 524b 483b
000002c0: 81e7 aabd 0cbe 15bd 76bf 193e 4237 0ebd
000002d0: cb14 403d 00d8 46bd 0b77 d9bc 6747 14bd
000002e0: 1d3e 853c d4b1 2abc 5f9b aebb a5a1 8dbd
000002f0: 42aa 5e3d 4695 2fbd e1ea d1bd a411 bdbb
00000300: 0aa4 053e 2f79 443d 27b4 82ba 0720 6dbd
00000310: 723d dc3d d3cd 803d 656b 9cbd 86e4 583c
00000320: a7ef 38bd 6d6c 91bd 1191 55bd eee6 033e
00000330: c9e2 8cbd f6ac 16bd bc60 2d3e 6992 18be
00000340: 867c 83bd 929d d6bd bb14 0a3d df62 9b3d
00000350: 7a58 37bd d94f 103e a8f2 b43d 48b7 213c
00000360: 2f83 cc3c 085b b93d 9507 843c a37f 723c
00000370: 4c26 88bd e90d 0b3d fe87 0a3d 194e 103c
00000380: c9a3 df3b 6b73 743c bf8d 82bd 5260 97bd
00000390: 5620 3a3d a132 84bd fb69 093d 90bc 5ebc
000003a0: 9508 a1bc 3d09 e43c 8f9d cebb 343b 9dbd
000003b0: e763 b73d 3ea3 0a3e 8a20 e5bb b8bd fdba
000003c0: bd7e 363d 6f66 833d 6bc2 cebc 4f7e 973d
000003d0: 9705 f73d 6c85 3c3c c6f9 3d3c 7b72 fe3d
000003e0: 4b82 69bc dd95 c13d eca6 e7ba fc36 6b3d
000003f0: 81f4 e7bb 9fc7 b1bd dad9 1b3e a67e 4c3d
0.071165785 -0.0044963853 0.011577821 -0.0455295 0.031202683 0.011645532 -0.049074437 0.07623901
-0.017023113 -0.08422036 -0.051781952 -0.08050487 -0.067068525 -0.08384653 -0.07409382 -0.0031348614
0.06807804 0.013111304 -0.049375705 -0.04635508 0.041089468 -0.07642878 -0.070899144 -0.09064598
-0.037684735 0.024038212 -0.0056429156 0.075898126 -0.016459346 -0.07735207 -0.08031226 0.052317545
-0.022915505 0.021870768 -0.066071816 -0.06879127 0.07057752 -0.039636414 0.08171559 -0.080182895
0.015019516 -0.034186866 -0.025329782 -0.007473971 -0.09531312 -0.047266066 0.03923306 0.06826573
-0.03143935 -0.077750355 -0.03922406 0.051480815 0.0005842396 -0.00070152374 -0.08315827 0.07393826
-0.010214731 0.053099316 -0.043695416 0.0043048533 -0.00014988624 -0.010754895 0.009402192 0.043024525
-0.06103831 0.055545468 -0.014102178 -0.002572022 0.07658478 -0.07493123 -0.07672662 -0.031815097
0.014164421 0.043776628 -0.07116716 0.06712877 0.053511873 -0.07514782 0.03699764 -0.012315955
-0.06132289 -0.05621826 0.026855249 -0.037682768 0.04078897 -0.033112783 -0.03971772 0.010117151
-0.017101347 0.008147122 0.047949973 -0.033462632 0.03122809 0.00543222 -0.056386497 -0.027861059
0.034295775 0.048761837 -0.038945127 -0.066655725 0.06243005 -0.09268919 0.06978401 -0.007915914
-0.013841928 -0.0119408965 -0.023266628 -0.021370592 -0.032470733 0.07178092 0.024756279 0.023891356
0.03708892 -0.067971565 -0.03719724 0.075890064 -0.08803461 0.03246825 0.06918301 -0.057051126
0.066362 0.069766745 0.023816057 -0.04173439 -0.06208586 -0.016221533 -0.01973436 -0.0517459
0.13496943 -0.03953724 0.055863548 -0.04453618 -0.044755228 -0.07695702 -0.05891674 0.00059720187
-0.048153583 0.108992115 0.12310553 0.022716975 0.011090236 0.10335881 -0.040323336 -0.0818194
-0.058068782 0.059590966 0.116382346 0.14748858 -0.07491922 0.047388848 -0.31336245 0.034666687
0.07649246 -0.020474391 0.100468606 0.06766084 0.11535258 0.087332316 0.16525802 -0.012176346
-0.024942737 0.08763608 0.060156967 0.08208017 -0.05981417 -0.09356491 -0.018883774 -0.071386024
0.11554276 0.024189038 -0.11150462 -0.09106383 -0.005824589 -0.002204541 0.059064932 0.0030562473
-0.08344937 -0.036558196 0.15014443 -0.034720667 0.04689483 -0.048545837 -0.026546022 -0.036200907
0.01626497 -0.010418374 -0.0053285803 -0.06915597 0.05436159 -0.042866968 -0.10249878 -0.005769925
0.13050857 0.047967132 -0.0009971902 -0.05789187 0.10753907 0.06289258 -0.076376714 0.013238078
-0.045150425 -0.07100759 -0.0521403 0.12881061 -0.06879193 -0.036786042 0.16931432 -0.14899601
-0.06420235 -0.10479273 0.033711176 0.075872175 -0.044762112 0.1409296 0.088353455 0.009870358
0.024964897 0.09050566 0.016116897 0.014800939 -0.066479295 0.033948813 0.0338211 0.008807682
0.0068249446 0.014920096 -0.06374692 -0.073914185 0.045440994 -0.06454969 0.033548336 -0.0135947615
-0.019657413 0.027836436 -0.0063054035 -0.07677308 0.08954602 0.13538834 -0.0069924043 -0.0019358909
0.04455446 0.06416022 -0.02523919 0.07397138 0.12061613 0.01150642 0.011595195 0.12424179
-0.014252256 0.09452412 -0.0017673648 0.057425484 -0.0070787077 -0.08680653 0.15219823 0.04992547

bias f4 [128]
00000000: 05f3 79bd 4c7c c6bd 9f67 0a3e 0411 0bbe
00000010: ef69 dabc fdbb 7a3d 3e64 48bb db06 aebd
00000020: 2c4e 713d 271b 13bd a061 45bd e0e2 553c
00000030: c1da 3b3c 3403 ba3c 8ae7 d73c 33a1 a2bd
00000040: d95d 173e 7cd8 533e 20f8 de3c c1dc 07bd
00000050: 98d6 b73c 2015 4bbd ff29 c2bd 06cd 6ebd
00000060: 8c29 e4bd 5117 5ebd 0a38 813e ddc9 323d
00000070: 0ff7 0bbe 530e 9a3c 7ccb d4bd 7f03 853d
00000080: 383c 913d da19 1bbd 6bd4 2abd 17c4 a73d
00000090: 5d21 a9bd 9586 2abe 8eed c3bd 6ef5 343e
000000a0: 795f 753d 6a4f 1f3d 95a3 493d 51e3 eebc
000000b0: 70bb dbbd 298f cebd d9a4 cdbd 143b 533d
000000c0: 8549 4e3e 5587 b23d 0a6a 35be bf76 a9bd
000000d0: e277 0f3d f8ce d7bc 4fc0 ae3d 38da 3d3d
000000e0: 050b 403e ecdd c63d bb25 87bc 6752 e1bb
000000f0: bd8f 803d 6371 c53d de1c 0ebd 44fd d83d
00000100: 133c e83d 5ee4 86bc fed5 a6bd a6fc bb3d
00000110: b34a f8bd 5e15 52bd 5dc6 8fbd 35ca e83c
00000120: 678b 14bc 0c7d 9dbd d8b2 c63c ca44 043d
00000130: 4bee 283d d187 ddbd b1f2 a4bd 9207 dfbc
00000140: cd05 56bd 5675 e93c 5fd9 0d3d 77c6 b63c
00000150: 3b20 6dbd 7c3f 533d 6bec 1d3e ede3 533e
00000160: 7b2f af3c f59e 01be 3c8b 7cbd 0922 633d
00000170: f462 c1bd 8a8b 8e3d 93dc 71bd fa30 0b3d
00000180: 6c1d 1a3c 2d42 a4bd 3232 343e 9573 8d3c
00000190: f17e 36bd 66c7 9dbd 1d00 77bd ab21 a8bd
000001a0: 5bcb 61bb add7 013d a873 94bd b176 853c
000001b0: d904 083d 184b bf3d 9297 ccbd 1cb4 92bd
000001c0: 4e54 a4bd e5ec 8b3e 3700 eebd deae 0b3d
000001d0: 48e6 ee3c 3598 b63d ebe2 3d39 084a 813d
000001e0: c0a2 663e c3a0 843e 4d04 443d 50b2 183e
000001f0: f64a f53c a0f4 7a3d b5e4 c9bd 2654 88bd
-0.061022777 -0.096916765 0.13516091 -0.1358071 -0.026661841 0.061214436 -0.0030577327 -0.08497401
0.05891244 -0.035914566 -0.048188806 0.0130545795 0.011465729 0.022706605 0.026355524 -0.079409026
0.14781894 0.20688051 0.027217925 -0.03316951 0.022441193 -0.049580693 -0.09480666 -0.058300994
-0.11140737 -0.054221455 0.25238067 0.043649543 -0.13668464 0.018805658 -0.10390374 0.064948075
0.07091564 -0.03786645 -0.041706484 0.08191698 -0.08258317 -0.16652901 -0.09566794 0.17671749
0.059905503 0.038894095 0.04922827 -0.029161127 -0.1072911 -0.100858994 -0.10041208 0.051570013
0.20145233 0.08717219 -0.17716232 -0.08274602 0.03502644 -0.026343808 0.08532774 0.046350688
0.18754204 0.09710297 -0.016497483 -0.006876278 0.06277416 0.096407674 -0.0346955 0.105951816
0.11339583 -0.016466316 -0.081462845 0.09179048 -0.12123623 -0.05128991 -0.07020257 0.028416732
-0.009066439 -0.076898664 0.024255201 0.032292165 0.04124288 -0.108169205 -0.08054102 -0.02722529
-0.052251626 0.028498333 0.03463113 0.022311432 -0.057892065 0.051574215 0.15422218 0.20692416
0.021384945 -0.12658294 -0.06165622 0.05545238 -0.09442702 0.06960209 -0.059048247 0.033982255
0.009406429 -0.080204345 0.17597273 0.017267028 -0.044554655 -0.07704048 -0.060302842 -0.08209547
-0.0034453485 0.031699825 -0.07248622 0.016291948 0.033207748 0.09340495 -0.09989847 -0.071632594
-0.08023892 0.27329174 -0.11621135 0.034102313 0.029162541 0.0891575 0.00018108978 0.063129485
0.22523022 0.259039 0.047855664 0.14911771 0.02994297 0.06126845 -0.098580755 -0.06656675

weight f4 [28, 128]
00000000: 064c 9abd 77bb 3bbb 33d9 30bd 1965 23be
00000010: a005 c43c 858a 533d e274 74bd 5a1f 023d
00000020: 3881 c3bd dd39 3dbd 9f41 433d 744a 5d3b
00000030: b1c2 8f3d fd09 073d 6195 c5bc 9156 1b3c
00000040: 5107 10be adda a93c 4e7f 983d 008b 63bb
00000050: 58a8 e4bc cecb 19bd e8f7 513d d8ca d2bc
00000060: 1972 86bd 51d7 17bd cbbd 003b dec3 fabd
00000070: 9727 cd3c 978e 5b3d e551 043d dd15 8cbd
00000080: 6d2c afbb 6297 65b9 0536 79bd 3c5a 1bbe
00000090: 6644 ddbc eb81 26be 96ef d9be 19b0 b7bd
000000a0: 356e 133d 281e 813d e62a babd ee27 2f3d
000000b0: 987f 433d 9f80 4f3d 1a14 42bd 6d0d bbbb
000000c0: 4e5c 19be 055e b8bd 81a3 1f3c dae7 e6bd
000000d0: 2008 9a3d 25f7 a6bd c4cd 3b3d 1a4e a4bd
000000e0: c56b e4bd ecb4 50bd 8fd6 ec3c adbd 923d
000000f0: 2e3c a13c cd2d 15be 4326 1dbe f5a0 b6bd
00000100: 5c2a e83c 6e9f c5bd 6682 be3c 2fa3 2b3d
00000110: 0024 163d 9d46 0e3d 55d0 c9bd 34d5 73bc
00000120: 81f5 5639 77e2 f5bc 2834 073c 287c 02bb
00000130: 5ab4 0ebd d5c6 623d b32e 81bd 9539 a0bd
00000140: 9316 12bd 361d c7bc 4514 0ebe effa bebd
00000150: 3fdd 10bd 60a1 8fbd 6673 1abe 2034 3bbe
00000160: d0c7 35bd c922 06bd cb9c 86bd f6a8 66bc
00000170: 85a5 6bbd 8df9 76bc 67fe f9bc a2f7 9c3d
00000180: b944 bdba b557 0d3d fbc9 c6bd bd52 f3bc
00000190: e32b 0ebd 4777 d4bd 4fa3 a23d a5af 343d
000001a0: f133 123b 52da 1abd 634c 82bd 47ad 69bd
000001b0: f7f0 85bd 6f24 b4bd f200 1fbd 4de8 66bc
000001c0: 0e4a 8dbc e8df e3bd 30e9 d7bd 4af6 a0bd
000001d0: ba9e a0bd ae48 253d 368b 23bd 17e0 fdbc
000001e0: 691d cfbc 8f61 61be f0db 75bb e7fe abbd
000001f0: c91d 9abd 3ccc 163d 8e11 afbd e255 b4bd
00000200: b804 123d 09a3 003e 360d 51bd e560 e23d
00000210: 9d23 00be 14a6 863c c827 23be 19bb 6b3d
00000220: 28fd 2e3d c2a0 c0bd cfe0 043c b1c8 063d
00000230: 9d46 8dbd 6137 643c 479b afb9 7d3d 9ebd
00000240: 1b82 98be bcaa 05bf a88b afbd 088a 0abb
00000250: c536 193d a63f 34bd 0da9 353d 269f 463d
00000260: c51d 413d c76e debc 9310 d2be e9a3 823d
00000270: d8d0 e93c bcc6 073e 9fa4 b0bd fc81 26bc
00000280: b2b6 543b 5745 633d 8395 a2bd 607c 03be
00000290: 67d4 4dbd 1ae8 0b3e 547c 1e3e 7c17 a9be
000002a0: 9d46 96bd 15fe 013d 3820 a83d d663 aa3c
000002b0: 7207 bebd 5ccc 723d 1996 423d 6a60 663c
000002c0: 5cea 11be 9350 433d 1636 3a3e 1eb6 fc3c
000002d0: deda de3c 8737 83be f533 0e3d fd35 003d
000002e0: 2763 8abe 2094 8cbd 07e0 c53c fbe1 10be
000002f0: ac71 233d 5fc8 23bf faf3 1cbe 12f6 1dbe
00000300: 4514 46bd 1e39 d7bd 6a0f 0dbd 44a7 283d
00000310: c9de 783d cc20 9e3d 4431 3a3e 7e79 b8bd
00000320: 2a7d a23b e44f 453d bad8 99bd 7664 4dbe
00000330: 7673 68bc c01a 7ebd 4c2f 88bd 8deb dcbc
00000340: e240 c6bd 1fea 173d e1a9 27bf 2682 9cbe
00000350: 2383 4f3c 50fc 4ebe 5e5f 04be af65 b2be
00000360: e9e4 493b 6e4c 8a3d c8b3 073d 4cfa 73bd
00000370: 3c6d d93d 050a 1ebe 18cc 783c 20e6 a6bd
00000380: b7c9 6b3d c51e dfbc 16c9 74be 18f4 cf3d
00000390: 0e0f bf3d b71b bbbc 8e25 5f3d dd45 043d
000003a0: 90cb 0fbe b3a7 a9bd bfe3 c7bd 66ca 99bd
000003b0: fae2 843d f965 a13d 6825 b83c 1a5a 203c
000003c0: d834 e53c e171 b2be 444b 7b3e dd81 e23c
000003d0: 0e30 91bd b11e d4bd 730a 8f3d 2a77 863d
000003e0: 899f 16bf 796b adbf 421b 6bbc 6d5a b8bd
000003f0: e8ba 2d3d 2ad8 40bd 7305 733d 40bc 123e
-0.075340316 -0.0028645673 -0.043175887 -0.15956534 0.023928463 0.051645774 -0.05968178 0.03176818
-0.09546131 -0.04619776 0.047670003 0.0033766301 0.07019556 0.03296851 -0.024119081 0.009481088
-0.14065291 0.020734156 0.074461564 -0.0034720302 -0.027912304 -0.03754788 0.051261812 -0.025731489
-0.06564731 -0.037070576 0.0019644375 -0.1224439 0.025043292 0.05360278 0.032304663 -0.068401076
-0.005345872 -0.00021895536 -0.060842533 -0.1517114 -0.027010154 -0.16260497 -0.42565602 -0.08969135
0.035993773 0.0630458 -0.090902135 0.04276269 0.047729105 0.050659772 -0.04738245 -0.0057083876
-0.14976618 -0.09002308 0.009743572 -0.11274691 0.07521081 -0.08152608 0.04585053 -0.08022709
-0.11153368 -0.05095379 0.028910903 0.07165084 0.019682016 -0.14568253 -0.15346627 -0.08917419
0.028340511 -0.096495494 0.023255538 0.04190367 0.036655426 0.03473531 -0.09854189 -0.014882375
0.00020500088 -0.030015213 0.008252181 -0.0019910429 -0.034839965 0.055365402 -0.06307735 -0.07823483
-0.03566606 -0.024305921 -0.1387492 -0.093252055 -0.035367247 -0.07013202 -0.15083084 -0.18281603
-0.04438001 -0.032748017 -0.06572875 -0.014078369 -0.0575309 -0.015074146 -0.030516816 0.0766442
-0.0014440037 0.034507472 -0.097064935 -0.029702539 -0.034709822 -0.10374313 0.07941305 0.04411282
0.0022308792 -0.037805863 -0.06362226 -0.057050016 -0.06540101 -0.08796012 -0.03881926 -0.014093471
-0.017247226 -0.11126691 -0.10542524 -0.07859476 -0.07842775 0.040352516 -0.039927684 -0.030990643
-0.025282579 -0.22009872 -0.0037515126 -0.08398228 -0.07525212 0.036815867 -0.0854827 -0.08805443
0.03564903 0.12562193 -0.05103799 0.110536374 -0.12513585 0.016436614 -0.15933144 0.057551477
0.042721897 -0.09405662 0.008110239 0.032906238 -0.06898234 0.013929219 -0.00033494292 -0.07726572
-0.29786763 -0.52213645 -0.08571559 -0.0021139402 0.037405748 -0.044006012 0.044350673 0.04849162
0.04714753 -0.027152432 -0.4102827 0.0637892 0.028541967 0.13259405 -0.08625149 -0.010162827
0.0032457528 0.05548605 -0.07938673 -0.12840414 -0.05025139 0.13662758 0.15477115 -0.3302573
-0.07337687 0.031736452 0.0820927 0.020799559 -0.09278764 0.059276924 0.047506426 0.014061073
-0.14249557 0.047684263 0.18184695 0.030848559 0.027203973 -0.25628302 0.03471752 0.031301487
-0.27028772 -0.0686419 0.024154676 -0.14148705 0.039903328 -0.6397762 -0.15327445 -0.154259
-0.048359174 -0.10508941 -0.034438528 0.041175142 0.06075934 0.07721099 0.18182856 -0.09007548
0.0049587684 0.048171893 -0.075120404 -0.20057854 -0.014187684 -0.06203723 -0.06649646 -0.026967788
-0.09680344 0.03708851 -0.6549359 -0.30568045 0.012665543 -0.20213437 -0.12927005 -0.34843203
0.0030806607 0.06752859 0.033130437 -0.059564874 0.10616538 -0.1543351 0.0151853785 -0.081493616
0.057565417 -0.027236352 -0.23904833 0.10153979 0.09329043 -0.022840364 0.054479174 0.03229319
-0.14042497 -0.08283939 -0.09760236 -0.075093076 0.06488605 0.07880778 0.022478774 0.009787107
0.0279793 -0.34852508 0.2454043 0.027649814 -0.07089244 -0.103574164 0.06984415 0.065656975
-0.5883718 -1.3548423 -0.0143497605 -0.09001622 0.042414576 -0.04708115 0.05933137 0.14329624

bias f4 [28]
00000000: cc30 dcbd 6e92 46be 237f e3bd 707c ecbc
00000010: a82b 0e3c 21b3 603c 6fe5 013e ed2d 993d
00000020: 8ee9 02bc 8816 a43d f8bf 0dbd b95d 3ebc
00000030: effc 873b 7249 663c 8303 49bb d556 d23c
00000040: d9b9 78bd 3b2c 8fbd 937d 76bd 2f5c f0bd
00000050: 4a5a e1bd 646f fcbd 6ecd 96bc 6a52 5bbc
00000060: 24ed db3c c416 4dbc ed5b 06bd 03f8 763d
-0.10751495 -0.19391796 -0.11108234 -0.02886793 0.008677401 0.013714583 0.12685178 0.07479463
-0.007990254 0.0801211 -0.034606904 -0.011619025 0.004150025 0.014055597 -0.003067226 0.02567617
-0.060724113 -0.06990858 -0.06017835 -0.117363326 -0.110035494 -0.123259336 -0.018408503 -0.013386348
0.026846476 -0.012517635 -0.03280251 0.060295116
