IO_DynaPlex/DeepControlledLearning/PolicyWeights/lost_salespoisson_p9_l4_N20000/cl_gen.pth (torch, 284166 bytes, 10 tensors)

weight f4 [256, 4]
0.24100299 -0.046010584 0.2256761 -0.3210271 0.2598557 -0.3403523 0.30166924 -0.24042822
-0.41138163 0.2055322 0.26334676 0.16625686 0.19612177 0.05628097 0.09468746 -0.17392452
0.10503151 -0.3654252 0.16571502 -0.4854106 0.036081627 0.15173872 -0.26506162 0.20582542
0.20177154 0.28574833 -0.282452 -0.3524296 -0.11176035 0.39624038 0.14617214 -0.352606
0.1404354 0.47031528 -0.11452577 -0.50977767 0.09690968 -0.25598088 -0.14460415 -0.44291472
0.25737488 0.07547205 0.37353575 -0.07443251 0.15365617 0.42607436 -0.49697036 0.3949204
0.013516531 -0.12682693 0.34243762 -0.20339249 -0.07476418 0.3260741 0.16549778 -0.22313347
0.23042957 -0.5634438 0.2622385 -0.16420045 -0.06040609 0.09237534 -0.10103369 -0.42176276
-0.12328571 -0.4975251 0.009985626 0.10286558 0.37936264 -0.16731088 -0.14390944 -0.31733093
-0.12154955 -0.16399902 0.08721799 -0.15280664 -0.072549686 0.12426371 0.509166 -0.4690553
0.24757423 0.46504682 -0.059904024 -0.1977686 -0.35097402 0.2137375 -0.2221756 0.43688452
-0.15050083 -0.04656607 -0.45072407 -0.07046598 0.15743332 -0.46035662 -0.42322016 0.44449356
-0.016546207 0.054426383 0.3377399 -0.16587569 0.20899117 -0.020245127 0.3556588 0.15360913
-0.22513378 0.35360074 -0.35466683 0.3972905 -0.47251746 0.20613731 0.22644855 0.3168467
-0.07130317 -0.33225214 0.5783383 -0.10151358 -0.03390574 0.08079553 -0.40627295 0.36783108
0.045469563 0.16886583 0.23597053 -0.22355188 -0.35747302 0.059434652 -0.39362955 0.11927414
0.069224074 0.04159861 0.060773302 0.3021623 0.09048592 0.2685215 -0.29032087 0.43964964
0.28892025 -0.095579736 0.09218519 -0.43157527 -0.26723492 0.0056273937 -0.3983553 0.1967631
-0.21207775 -0.46551523 0.21127474 0.5602074 -0.005302422 -0.4027821 -0.62655205 -0.3283322
-0.42635268 0.2612505 -0.43270493 -0.46758175 -0.116322875 -0.45214802 -0.05813682 0.083345175
-0.1496033 -0.40895236 -0.22048807 -0.26917797 -0.41213986 0.41693234 0.15182872 -0.16289558
-0.48306477 -0.2555639 -0.42631775 -0.082190454 0.346758 0.17118655 0.1276001 -0.07009007
-0.032828607 -0.4351234 0.43043402 0.24606991 0.07050187 0.05004587 -0.18196103 -0.008543781
-0.13607289 -0.22684282 0.3664115 -0.509736 0.42561102 -0.37716582 0.03828086 -0.47386056
-0.41107184 -0.17719209 -0.14850193 -0.45941305 0.24915367 -0.22157264 -0.30010712 0.034307413
0.46675923 0.11507221 -0.3362935 -0.49559402 -0.10111378 -0.16021037 0.077837475 0.36269575
0.09239424 0.23149352 0.3375322 -0.659782 0.29004884 -0.3788488 -0.33466735 -0.33249635
0.16032207 0.29014257 -0.18964326 -0.38186797 0.18681708 -0.27096415 0.3301266 -0.07365603
0.07073696 -0.43047377 0.18243468 -0.13987559 -0.4947974 -0.3637635 -0.13734913 -0.21704572
0.17006029 -0.16746332 -0.05936934 -0.03877709 0.2445299 -0.24081098 0.2785374 -0.3509332
0.37423915 -0.28086558 -0.32414728 0.38887987 -0.49416947 -0.1912635 -0.15697372 0.14051437
0.07037252 0.25408238 0.06383825 -0.49446753 0.40089464 -0.21761048 -0.48004222 -0.18273099
00000000: 7dc9 763e 9875 3cbd a317 673e aa5d a4be
00000010: ce0b 853e a842 aebe 6474 9a3e d132 76be
00000020: 9da0 d2be 0877 523e 63d5 863e 3d3f 2a3e
00000030: 25d4 483e e086 663d 80eb c13d 4519 32be
00000040: c31a d73d 0319 bbbe 33b1 293e bd87 f8be
00000050: 54ca 133d 6561 1b3e 28b6 87be e6c3 523e
00000060: 339d 4e3e 9b4d 923e 8c9d 90be a771 b4be
00000070: 9ce2 e4bd 05e0 ca3e 26ae 153e c688 b4be
00000080: 4cce 0f3e 2acd f03e 7d8c eabd ca80 02bf
00000090: 9578 c63d ed0f 83be 1c13 14be b8c5 e2be
000000a0: a4c6 833e 1791 9a3d 1440 bf3e 1270 98bd
000000b0: 0b58 1d3e 6b26 da3e e672 febe 0233 ca3e
000000c0: 7174 5d3c ebde 01be fc53 af3e 1f46 50be
000000d0: f61d 99bd 2ff3 a63e 4078 293e 1a7d 64be
000000e0: bbf5 6b3e da3d 10bf 2044 863e 2a24 28be
000000f0: 606c 77bd 482f bd3d c0ea cebd 4af1 d7be
00000100: 387d fcbd 9cbb febe c09a 233c 30ab d23d
00000110: d23b c23e 8b53 2bbe ff5c 13be 3379 a2be
00000120: f8ee f8bd 5cef 27be 589f b23d 5879 1cbe
00000130: ee94 94bd f97d fe3d b458 023f 0428 f0be
00000140: 1984 7d3e 9e1a ee3e ec5d 75bd da83 4abe
00000150: deb2 b3be 01de 5a3e 0082 63be 54af df3e
00000160: e41c 1abe 10bc 3ebd 4ec5 e6be 7850 90bd
00000170: 3336 213e ddb3 ebbe 50b0 d8be a994 e33e
00000180: e98b 87bc 33ee 5e3d 3fec ac3e 51db 29be
00000190: c801 563e 1cd9 a5bc e918 b63e b64b 1d3e
000001a0: 7889 66be 280b b53e e496 b5be a969 cb3e
000001b0: cfed f1be a915 533e 21e2 673e bb39 a23e
000001c0: 6507 92bd f41c aabe fb0d 143f 5ae6 cfbd
000001d0: bfe0 0abd 2078 a53d 0203 d0be 5b54 bc3e
000001e0: 4b3e 3a3d 2aeb 2c3e 42a2 713e c9ea 64be
000001f0: b406 b7be c071 733d d089 c9be 0046 f43d
00000200: 5ac5 8d3d 4e63 2a3d 6ded 783d 04b5 9a3e
00000210: af50 b93d a67b 893e f0a4 94be c219 e13e
00000220: 5bed 933e 4fbf c3bd 97cb bc3d 6ff7 dcbe
00000230: 04d3 88be 0066 b83b 3af5 cbbe 447c 493e
00000240: e92a 59be 0358 eebe 6858 583e c169 0f3f
00000250: f1bf adbb 7539 cebe b765 20bf 281b a8be
00000260: e64a dabe a0c2 853e 808b ddbe e066 efbe
00000270: b03a eebd f27f e7be e020 6ebd e0b0 aa3d
00000280: 9c31 19be 3462 d1be a0c7 61be b2d1 89be
00000290: ff03 d3be 2878 d53e fd78 1b3e 19ce 26be
000002a0: 4454 f7be 46d9 82be 5246 dabe 7853 a8bd
000002b0: 448a b13e 874b 2f3e 9aa9 023e 628b 8fbd
000002c0: 4a77 06bd 7fc8 debe d961 dc3e c0f9 7b3e
000002d0: 4963 903d e6fc 4c3d fe53 3abe 37fb 0bbc
000002e0: b156 0bbe 7c49 68be 4a9a bb3e 0f7e 02bf
000002f0: b0e9 d93e e11b c1be 64cc 1c3d da9d f2be
00000300: 0278 d2be d871 35be e410 18be 3038 ebbe
00000310: 2422 7f3e f0e3 62be a4a7 99be ee85 0c3d
00000320: 11fb ee3e fbaa eb3d a92e acbe 80be fdbe
00000330: be14 cfbd 300e 24be 4169 9f3d 42b3 b93e
00000340: 3139 bd3d a30c 6d3e 05d1 ac3e 79e7 28bf
00000350: 4881 943e 78f8 c1be 8559 abbe f63c aabe
00000360: 782b 243e 918d 943e d831 42be 3384 c3be
00000370: fa4c 3f3e d0bb 8abe 5b06 a93e f9d8 96bd
00000380: 8ade 903d 0f67 dcbe 28d0 3a3e 8c3b 0fbe
00000390: 1656 fdbe 363f babe 40a5 0cbe 3c41 5ebe
000003a0: 4924 2e3e 817b 2bbe 442d 73bd bad4 1ebd
000003b0: 0c66 7a3e 2797 76be 749c 8e3e 84ad b3be
000003c0: 469c bf3e 9dcd 8fbe a2f6 a5be 431b c73e
000003d0: c803 fdbe 94da 43be b8bd 20be 00e3 0f3e
000003e0: 781f 903d 1617 823e a1bd 823d d92a fdbe
000003f0: 1042 cd3e 48d5 5ebe 18c8 f5be d51d 3bbe

bias f4 [256]
-0.5582907 -0.41395682 -0.14060418 -0.57104653 -0.005287611 -0.34770462 -0.36076045 0.38807148
0.7032297 0.15318441 -0.88283706 -0.8932135 0.44999173 -0.49678937 0.30865246 0.20435476
-0.06769413 -0.39216498 -0.21085715 -0.20566621 -0.5872802 -0.63873166 0.08610356 0.43813878
0.48051375 -0.3436227 0.461098 -0.20813501 0.5991585 0.08260272 -0.6652963 0.3185525
0.5416068 -0.54868287 -0.4291248 -0.07798296 -0.35368484 0.27893633 0.0032022595 -0.40066087
0.31820416 0.62113225 0.41815645 0.6557487 0.6314729 0.7036287 -0.3814679 0.4682424
-0.31337875 0.56991017 -0.63144827 0.5794433 0.23824288 0.76826954 0.14797166 -0.49477944
-0.23801942 0.30356228 0.6837347 0.51668984 -0.7845625 -0.15596783 0.32114738 0.22434902
0.53788954 -0.25304252 -0.62312126 0.38690716 -0.12664814 -0.3911855 0.48815277 -0.9407278
0.080788046 0.28770027 0.43841934 -0.41484317 -0.03617719 -0.2625557 -0.15761124 -0.29671288
-0.63310474 0.2493045 -0.39233297 -0.46058092 0.56775737 -0.24096502 0.54313433 -0.73770833
0.46156532 0.27855915 -0.49013075 -0.6975138 -0.108879566 -0.0831248 -0.25206393 0.10332447
0.09905201 -0.45142692 0.28629625 0.8957486 -0.41447946 -0.72324806 -0.52856123 0.31690034
-0.37624145 -0.77607185 -0.78520757 -0.68867123 0.3475331 0.34134132 0.06767255 0.31101513
-0.29135495 0.37194988 0.5353493 0.8423791 -0.019678935 -0.5204114 -0.3884253 0.5303085
0.5539078 0.13099267 -0.14958425 -0.45386916 -0.3059348 -0.6363386 0.7874883 -0.3483249
-0.54730517 -0.06500168 -0.17338596 -0.11203575 0.2640279 0.4516093 -0.10217984 -0.44416913
-0.0022599155 -0.09459709 -0.07477319 -0.1311879 -0.17784956 0.2614768 -0.41258085 0.32605842
-0.49429604 -0.78386194 0.7633922 -0.64022154 0.42419234 0.742687 0.15878874 -0.77070194
-0.4522428 -0.30262154 -0.045261204 0.23334107 0.2904181 -0.39342853 -0.6063589 0.22117773
-0.28182983 0.5087758 -0.78484213 0.11728778 0.57623345 -0.30675778 -0.69305044 0.3368914
0.76317036 -0.6415197 0.28107405 -0.45657852 -0.31360403 0.19216269 -0.32099324 0.75003636
-0.12137872 0.06317371 0.39378002 -0.1955794 0.27771312 0.12443665 -0.39072287 -0.28800675
-0.012024129 -0.51242 -0.37831974 -0.0967554 -0.51322645 -0.2195888 -0.45043468 -0.23200686
0.07212043 0.37765673 -0.6268386 -0.4858235 0.41343513 0.17923123 -0.13795303 0.35976905
0.396464 -0.7720813 0.44244856 -0.124623805 0.045049727 -0.2547172 -0.8345321 -0.4573588
0.5639856 1.019606 0.70224774 0.40580034 0.19299307 -0.3802026 -0.09577154 0.46742398
-0.6633613 -0.21616435 -0.8102692 0.25354284 0.6282225 -0.4853006 -0.4345755 0.8191976
0.43510816 -0.6673886 0.6984662 -0.4301911 -0.33989578 -0.44348988 -0.14521378 0.41811907
-0.2537105 -0.24617869 0.24460298 0.4004659 -0.23267587 -0.04830569 0.11756069 -0.12461002
0.8323476 -0.14650953 0.034743227 0.4236736 0.6274568 0.8275506 -0.836487 -0.51064587
0.36828187 -0.0007252825 -0.3168983 0.4168086 -0.5532517 0.5880579 -0.26732594 0.71958506
00000000: 24ec 0ebf 26f2 d3be 8bfa 0fbe 1b30 12bf
00000010: b243 adbb 5706 b2be 98b5 b8be 4eb1 c63e
00000020: dd06 343f 60dc 1c3e 9c01 62bf a4a9 64bf
00000030: 5165 e63e 2d5b febe b207 9e3e 6042 513e
00000040: 38a3 8abd d9c9 c8be f0ea 57be 2a9a 52be
00000050: ff57 16bf eb83 23bf 1057 b03d ba53 e03e
00000060: e605 f63e 51ef afbe 0915 ec3e 5821 55be
00000070: 7462 193f 9d2b a93d dc50 2abf 5019 a33e
00000080: bea6 0a3f 7b76 0cbf 3fb6 dbbe 88b5 9fbd
00000090: 2e16 b5be bed0 8e3e 00dd 513b 6c23 cdbe
000000a0: a8eb a23e 8602 1f3f 9a18 d63e 26df 273f
000000b0: 35a8 213f 0321 343f c34f c3be 78bd ef3e
000000c0: 2e73 a0be a2e5 113f 98a6 21bf 6556 143f
000000d0: f1f5 733e 50ad 443f e285 173e bb53 fdbe
000000e0: 5dbb 73be 846c 9b3e 3d09 2f3f c945 043f
000000f0: 17d9 48bf 08b6 1fbe 6e6d a43e c0bb 653e
00000100: 21b3 093f ca8e 81be e084 1fbf b218 c63e
00000110: 0db0 01be 7749 c8be 29ef f93e 89d3 70bf
00000120: 3474 a53d 734d 933e 8078 e03e 5366 d4be
00000130: 882e 14bd b36d 86be d764 21be c0ea 97be
00000140: 2713 22bf ae49 7f3e dedf c8be 43d1 ebbe
00000150: 8c58 113f 89bf 76be da0a 0b3f 74da 3cbf
00000160: 4a52 ec3e 4e9f 8e3e 6bf2 fabe 4490 32bf
00000170: 40fc debd 563d aabd 860e 81be c89b d33d
00000180: c8db ca3d 6e21 e7be 6c95 923e c84f 653f
00000190: a736 d4be c926 39bf ca4f 07bf c340 a23e
000001a0: b8a2 c0be a5ac 46bf 5d03 49bf c24c 30bf
000001b0: dcef b13e 4ac4 ae3e e897 8a3d 603d 9f3e
000001c0: 7a2c 95be 3770 be3e a70c 093f 28a6 573f
000001d0: b835 a1bc ae39 05bf aedf c6be 4cc2 073f
000001e0: e7cc 0d3f f122 063e 9d2c 19be 8a61 e8be
000001f0: 7ca3 9cbe 16e7 22bf d598 493f a457 b2be
00000200: 311c 0cbf 9a1f 85bd 178c 31be 0073 e5bd
00000210: aa2e 873e 5639 e73e aa43 d1bd 236a e3be
00000220: 171b 14bb 1ebc c1bd b022 99bd 1f56 06be
00000230: 321e 36be 4ae0 853e cc3d d3be 21f1 a63e
00000240: 5f14 fdbe 2dab 48bf ac6d 433f 8fe5 23bf
00000250: bd2f d93e bc20 3e3f 8499 223e b94c 45bf
00000260: 5e8c e7be 36f1 9abe d063 39bd f6f0 6e3e
00000270: aeb1 943e 776f c9be 563a 1bbf 6a7c 623e
00000280: 004c 90be 213f 023f 6aeb 48bf 9334 f03d
00000290: 0984 133f 5b0f 9dbe c16b 31bf 087d ac3e
000002a0: 225f 433f a33a 24bf f0e8 8f3e a9c4 e9be
000002b0: b590 a0be 4cc6 443e 3a59 a4be 6202 403f
000002c0: 6895 f8bd 3861 813d 899d c93e f745 48be
000002d0: 6a30 8e3e a4d8 fe3d d40c c8be 9f75 93be
000002e0: da00 45bc f52d 03bf 20b3 c1be b227 c6bd
000002f0: cf62 03bf e3db 60be 609f e6be 3593 6dbe
00000300: e0b3 933d 395c c13e 7f78 20bf dcbd f8be
00000310: c5ad d33e 6488 373e 8f43 0dbe a633 b83e
00000320: 54fd ca3e 1fa7 45bf 9e88 e23e c43a ffbd
00000330: 1086 383d 4b6a 82be e5a3 55bf ef2a eabe
00000340: 5c61 103f 7382 823f 82c6 333f 10c5 cf3e
00000350: fa9f 453e eaa9 c2be df23 c4bd 3252 ef3e
00000360: 0cd2 29bf 305a 5dbe cd6d 4fbf 5ed0 813e
00000370: 31d3 203f 5279 f8be ae80 debe efb6 513f
00000380: 7fc6 de3e fbd9 2abf aece 323f 0242 dcbe
00000390: d206 aebe 1b11 e3be ecb2 14be b413 d63e
000003a0: 58e6 81be 4416 7cbe 3479 7a3e de09 cd3e
000003b0: 9542 6ebe 30dc 45bd a9c3 f03d 8a33 ffbd
000003c0: bb14 553f 9806 16be ea4e 0e3d bfeb d83e
000003d0: 02a1 203f 5bda 533f 0324 56bf b0b9 02bf
000003e0: 718f bc3e e220 3eba 7e40 a2be f067 d53e
000003f0: e7a1 0dbf f68a 163f f2de 88be ba36 383f

weight f4 [128, 256]
-0.054341592 -0.0021973564 -0.0067259865 -0.080968924 -0.015957784 0.029527958 0.0073390887 -0.043741986
0.05896625 -0.052554194 -0.074520096 -0.031167883 0.0016212376 -0.13868801 0.017381249 -0.020588718
-0.054679193 -0.06899987 -0.04351075 -0.037399393 0.0055296198 -0.05351774 0.027128682 0.14182104
0.03972653 0.03349027 0.050304018 -0.0917994 -0.01173596 0.036704566 -0.12057871 0.016393207
0.07601346 0.007950123 -0.031448547 -0.028839506 -0.1223543 -0.0879502 -0.024222642 0.043528065
0.03888368 0.058406867 -0.05302807 0.032195628 0.10041288 0.27996013 0.0036227065 0.01660202
-0.056803666 0.15043575 -0.07696461 0.10880894 0.054500878 0.06718209 0.008626615 -0.03437985
0.018655429 0.037693515 0.1196857 0.0654074 -0.088580936 0.049671747 0.054514322 0.0007826466
0.20030744 -0.006882813 -0.00782484 0.04273996 0.0115605295 -0.002163628 0.034496397 -0.047343746
-0.07133677 -0.025253637 0.20592238 8.510251e-07 0.0050426596 -0.038695768 -0.018291442 -0.3296405
0.03302952 0.004070509 -0.12136266 0.021443462 0.035648357 -0.14660066 0.09243289 -0.019500108
-0.038089298 0.028958311 0.03829243 -0.19309004 -0.059786268 0.06053284 -0.009285241 -0.010210149
-0.04241655 0.0054543577 0.050733015 0.09007252 0.033455774 -0.05785331 -0.039374344 0.017501522
-0.043287247 -0.06552962 -0.11554478 -0.09957124 0.057141006 0.013120368 0.049605943 -0.024669193
-0.018178238 -0.060933854 0.031092599 0.13872522 -0.007449688 -0.21893886 -0.0059585795 0.0064458055
0.16728276 -0.02071625 -0.013635576 0.05543705 -0.08056315 -0.009553131 0.1659076 -0.100905195
0.028311072 -0.07193015 0.020570114 -0.0065246224 -0.043948144 0.069391154 -0.0564244 -0.07196512
-0.054045968 -0.15437339 0.03738063 0.0045507015 0.006282552 0.028823331 0.03158413 -0.01728437
-0.09136983 -0.12307597 0.1534903 -0.020403763 0.05227489 0.13127717 -0.044093058 -0.17922519
0.0024889514 0.029487036 -0.021573834 0.100769475 -0.037851334 -0.11137905 0.01277799 0.07312705
0.043805122 -0.0043184585 -0.12055618 0.019301863 0.29276702 0.044232115 -0.029248541 -0.02750691
0.117282666 -0.07042068 -0.037417993 -0.08396356 -0.0026192288 -0.032992266 0.12868482 0.013911642
-0.025783263 0.039118573 -0.039441496 -0.017518004 -0.014832877 0.04884688 -0.0066372454 -0.12227239
-0.036346152 -0.09440297 0.03239848 0.046366643 -0.14431375 0.014184757 0.006173633 -0.14427224
0.037066095 0.0136102075 -0.18018994 -0.0045582857 0.16074087 -0.002456583 -0.053113297 0.017186068
-0.0067735394 -0.21547179 -0.020023115 0.027769245 0.0118341 -0.0961596 -0.11048267 -0.090507254
-0.022821069 0.36563915 0.066860914 0.23038726 0.03479693 0.041951373 0.009293973 -0.003878542
-0.076384924 -0.02687107 -0.0996299 0.07631298 0.20009793 0.02373137 -0.05778414 0.041954163
0.036250662 0.012978916 0.034895837 -0.020687023 -0.026555857 -0.09678178 0.0040525347 0.024976498
-0.011274144 0.029015355 -0.01091186 0.21564044 -0.048726168 -0.03126152 -0.029857429 -0.020110974
0.11760798 0.033855364 0.05877837 0.07753306 0.1747929 0.096161924 -0.080475934 -0.05331503
0.034213305 -0.088331826 -0.13791192 -0.050961375 -0.05470164 0.051343836 -0.008445142 0.15051635
00000000: 4a95 5ebd 8601 10bb aa65 dcbb 09d3 a5bd
00000010: e6b9 82bc 9ee4 f13c bd7c f03b cc2a 33bd
00000020: 9886 713d 1143 57bd fe9d 98bd ca53 ffbc
00000030: b57f d43a 3b04 0ebe 1f63 8e3c aca9 a8bc
00000040: 4af7 5fbd ce4f 8dbd 5438 32bd 1b30 19bd
00000050: d031 b53b 6b35 5bbd f83c de3c 8939 113e
00000060: 49b8 223d 182d 093d 960b 4e3d 5301 bcbd
00000070: 2f48 40bc 8757 163d f9f1 f6bd 0c4b 863c
00000080: f2ac 9b3d 3c41 023c 31d0 00bd d440 ecbc
00000090: e494 fabd 3c1f b4bd 906e c6bc 7c4a 323d
000000a0: 7e44 1f3d 0a3c 6f3d f633 59bd 90df 033d
000000b0: 45a5 cd3d ef56 8f3e ee6a 6d3b f600 883c
000000c0: f6aa 68bd d40b 1a3e 9f9f 9dbd 39d7 de3d
000000d0: 503c 5f3d c396 893d a556 0d3c e3d1 0cbd
000000e0: 45d3 983c 8464 1a3d c71d f53d 51f4 853d
000000f0: ec69 b5bd 9a74 4b3d 694a 5f3d 862a 4d3a
00000100: 651d 4d3e 3889 e1bb c233 00bc 1910 2f3d
00000110: 6068 3d3c a8cb 0dbb 184c 0d3d 84eb 41bd
00000120: 0319 92bd b7e0 cebc 51dd 523e 0072 6435
00000130: e53c a53b 747f 1ebd efd7 95bc a4c6 a8be
00000140: f649 073d e861 853b fc8c f8bd 33aa af3c
00000150: 0304 123d 7c1e 16be 744d bd3d b1be 9fbc
00000160: 8603 1cbd fb39 ed3c 86d8 1c3d 65b9 45be
00000170: 72e2 74bd 49f1 773d 2021 18bc 7848 27bc
00000180: fabc 2dbd 78ba b23b 6ccd 4f3d f177 b83d
00000190: ec08 093d 98f7 6cbd fe46 21bd 5a5f 8f3c
000001a0: f84d 31bd 6534 86bd bea2 ecbd 02ec cbbd
000001b0: b00c 6a3d d0f6 563c 9a2f 4b3d 0c17 cabc
000001c0: 87ea 94bc c795 79bd e8b5 fe3c fc0d 0e3e
000001d0: 831c f4bb 8231 60be 3040 c3bb 5637 d33b
000001e0: 2c4c 2b3e 20b5 a9bc c067 5fbc f611 633d
000001f0: 4bfe a4bd bc84 1cbc afe3 293e 62a7 cebd
00000200: 9fec e73c 1d50 93bd a882 a83c 80cc d5bb
00000210: f802 34bd f31c 8e3d 461d 67bd 7362 93bd
00000220: 4e5f 5dbd 0f14 1ebe 6e1c 193d 0d1e 953b
00000230: dedd cd3b e81e ec3c 5c5e 013d f397 8dbc
00000240: 1b20 bbbd 410f fcbd 902c 1d3e cb25 a7bc
00000250: 321e 563d 866d 063e ec9a 34bd cf86 37be
00000260: ad1d 233b cc8e f13c 9cbb b0bc 3a60 ce3d
00000270: 000a 1bbd b31a e4bd c65a 513c a3c3 953d
00000280: 006d 333d db81 8dbb 29e6 f6bd f11e 9e3c
00000290: 8fe5 953e bc2c 353d a39a efbc 2c56 e1bc
000002a0: e531 f03d b838 90bd 9c43 19bd 16f5 abbd
000002b0: 5ea7 2bbb e622 07bd f4c5 033e a8ed 633c
000002c0: 6c37 d3bc cc3a 203d 688d 21bd eb81 8fbc
000002d0: 9805 73bc ab13 483d 407d d9bb f269 fabd
000002e0: b4df 14bd 5856 c1bd 45b4 043d f3ea 3d3d
000002f0: fcc6 13be 2f67 683c 304c ca3b 1abc 13be
00000300: 9ed2 173d 59fd 5e3c b683 38be ac5d 95bb
00000310: 4199 243e a0fe 20bb 548d 59bd ccc9 8c3c
00000320: 91f4 ddbb a3a4 5cbe 8407 a4bc 547c e33c
00000330: d0e3 413c 53ef c4bd bd44 e2bd de5b b9bd
00000340: 40f3 babc 0e35 bb3e 60ee 883d a3ea 6b3e
00000350: 3a87 0e3d 34d5 2b3d c045 183c 232f 7ebb
00000360: b36f 9cbd b820 dcbc c30a ccbd fb49 9c3d
00000370: 79e6 4c3e 4a68 c23c 10af 6cbd 21d8 2b3d
00000380: 937b 143d 85a5 543c f0ee 0e3d d577 a9bc
00000390: ab8b d9bc 8735 c6bd 20cb 843b 839b cc3c
000003a0: 30b7 38bc 9cb1 ed3c a8c7 32bc d9d0 5c3e
000003b0: 1795 47bd 140c 00bd 9197 f4bc c5bf a4bc
000003c0: 74dc f03d ecab 0a3d 97c1 703d a7c9 9e3d
000003d0: e9fc 323e 8bf0 c43d 91d0 a4bd dc60 5abd
000003e0: 4023 0c3d 51e7 b4bd c838 0dbe e0bc 50bd
000003f0: d40e 60bd ea4d 523d 7e5d 0abc f520 1a3e

bias f4 [128]
0.32873338 0.00931719 -0.27481985 0.24398066 -0.009703768 -0.04209019 -0.056915313 0.016105652
-0.019522589 0.030403025 -0.18985076 -0.024106745 -0.24639426 -0.033316158 0.22357698 0.020039352
-0.12294794 -0.012542893 -0.0813127 0.015673734 -0.0379036 0.04853136 0.18481576 0.025955744
0.017531995 -0.046265177 -0.032686036 -0.05087683 0.01952092 -0.059327718 -0.25788483 0.068997264
-0.042962603 -0.25367716 -0.03538527 -0.0023190381 0.045484927 -0.022090912 0.004730732 0.36962754
-0.0124161495 -0.015715718 -0.046652805 0.0324602 -0.057728935 -0.07451992 0.010227716 -0.3149403
-0.008615746 -0.31264806 0.42501494 0.023662752 0.065279275 -0.0993426 0.118647315 -0.022409802
-0.3967172 -0.32827565 0.12463671 -0.030345496 -0.15251057 0.38414228 -0.0046923757 0.0017757564
0.0295046 -0.062034626 -0.08012743 0.016669475 -0.37847528 -0.037434503 0.04251203 -0.2951911
0.3305565 -0.30751088 -0.15040402 0.037818808 0.4419957 0.41826373 0.02149347 -0.02636596
-0.0471783 -0.055478837 -0.08550944 -0.35478404 -0.021981692 -0.0142900245 -0.026360521 0.35942164
-0.20889473 0.022308946 -0.07466639 -0.03156713 -0.10160405 -0.032595165 -0.01587369 -0.27868977
0.36737117 0.2575162 0.00673828 -0.010492064 -0.047345668 0.21058014 0.057493456 -0.29955825
-0.09519873 0.03465066 -0.023244249 -0.13165283 -0.03416374 0.090682685 0.33435258 0.32118115
0.13092698 0.028553605 -0.068300836 0.29154912 0.038547333 -0.044393077 0.013423154 -0.012074445
0.06174118 0.33046073 0.05778493 -0.29201502 0.18537812 -0.036727227 0.04373991 -0.24477008
00000000: be4f a83e 21a7 183c 30b5 8cbe 11d6 793e
00000010: 8efc 1ebc c366 2cbd 0820 69bd 00f0 833c
00000020: d6ed 9fbc c40f f93c 3d68 42be 827b c5bc
00000030: c74e 7cbe 8676 08bd 5df1 643e 9129 a43c
00000040: 21cc fbbd b580 4dbc 4687 a6bd 3466 803c
00000050: ce40 1bbd d2c8 463d 5840 3d3e 24a1 d43c
00000060: 429f 8f3c 8e80 3dbd cbe1 05bd 3964 50bd
00000070: 56ea 9f3c 9f01 73bd 7b09 84be 704e 8d3d
00000080: 8ef9 2fbd f9e1 81be 25f0 10bd 01fb 17bb
00000090: 674e 3a3d 00f8 b4bc 4204 9b3b d23f bd3e
000000a0: 1b6d 4bbc 40be 80bc 0317 3fbd fdf4 043d
000000b0: 2d75 6cbd e69d 98bd 2692 273c db3f a1be
000000c0: 0f29 0dbc 6813 a0be 8f9b d93e 63d8 c13c
000000d0: 24b1 853d 2274 cbbd 5dfd f23d c394 b7bc
000000e0: 841e cbbe bf13 a8be 8841 ff3d 1e97 f8bc
000000f0: bb2b 1cbe 4cae c43e 80c2 99bb 7fc0 e83a
00000100: a2b3 f13c 0518 7ebd da19 a4bd 6c8e 883c
00000110: 83c7 c1be ec54 19bd 1821 2e3d 4a23 97be
00000120: b43e a93e 1172 9dbe 8303 1abe e5e7 1a3d
00000130: 434d e23e aa26 d63e 1313 b03c 6dfd d7bc
00000140: 083e 41bd c73d 63bd 931f afbd 41a6 b5be
00000150: f312 b4bc b520 6abc 05f2 d7bc 1d06 b83e
00000160: 80e8 55be 40c1 b63c b1ea 98bd 894c 01bd
00000170: c915 d0bd 8282 05bd 8a09 82bc 6db0 8ebe
00000180: 1318 bc3e 2ad9 833e cacc dc3b e8e6 2bbc
00000190: 88ed 41bd 52a2 573e 427e 6b3d b35f 99be
000001a0: 8df7 c2bd daed 0d3d b96a bebc 00d0 06be
000001b0: 47ef 0bbd d8b7 b93d 4330 ab3e db71 a43e
000001c0: b911 063e 40e9 e93c 4fe1 8bbd ed45 953e
000001d0: cfe3 1d3d 84d5 35bd caec 5b3c e5d3 45bc
000001e0: 52e4 7c3d 2632 a93e e4af 6c3d fe82 95be
000001f0: c3d3 3d3e 4a6f 16bd 9f28 333d 02a5 7abe

weight f4 [128, 128]
-0.054273214 -0.060088594 0.062444627 0.10429948 -0.027206896 0.071741216 -0.020455455 0.07145235
0.02194233 0.067447595 -0.11694066 0.02395061 0.031910155 0.035350427 0.11933521 0.052038934
0.08487757 -0.05625428 -0.039471246 -0.06311325 0.054229304 -0.033254568 0.15002845 -0.018446758
-0.0032324104 -0.101485945 0.087208286 -0.050710697 0.07960643 0.012992251 -0.08470884 -0.044566568
-0.04627887 0.031061318 0.051072992 0.005275383 0.09867386 0.06126393 0.071914725 -0.0024072363
0.045083854 -0.011717487 0.03766867 7.721457e-06 0.071123734 -0.085924126 0.026971592 -0.042123068
0.03319365 -0.061571226 -0.062141404 -0.029746676 0.07070342 0.03495955 -0.030077118 -0.027250879
-0.09565787 0.03982644 0.01971952 0.0005780352 0.0009836666 -0.017339526 -0.016953222 -0.01812919
-0.00808067 0.07667897 -0.075219825 0.04476074 0.05422261 0.07611417 0.06112373 -0.054922298
0.02128731 0.024832867 -0.0409317 -0.008494286 -0.0040860837 -0.08460835 0.011271327 -0.054705005
0.06939989 -0.02704479 -0.004442184 0.0065973275 0.068660945 -0.071064755 -0.080131866 -0.08238442
-0.030321611 -0.050186533 0.0017799878 -0.07054264 0.03434373 0.07289968 0.05539438 0.05277495
0.015277421 -0.03937371 -0.018434495 -0.0019827986 -0.06651727 -0.03768288 -0.03614801 -0.010726271
-0.110080846 -0.07386076 -0.11011763 0.14556482 -0.0126137715 -0.011646728 -0.055420276 0.007730209
0.096864745 0.055677798 -0.03456959 -0.055098604 0.058980092 -0.027269442 0.006891147 0.012089107
0.020528454 -0.02946298 -0.024772758 0.04017942 -0.032883514 0.058907468 0.011690261 -0.045500208
0.15373568 -0.0039321063 -0.08625666 0.07323195 -0.019389348 -0.078573994 0.019208422 0.047283042
-0.011645568 0.031681877 -0.032425255 0.054575086 -0.047848284 0.07378936 -0.07751214 -0.035704855
0.034112424 0.047055606 -0.0752226 -0.065953694 -0.013008054 -0.039264183 -0.10631688 -0.0264545
-0.048684202 -0.038223572 0.020403255 0.024231382 -0.011030518 -0.05511006 0.09338674 -0.09821755
0.063978165 -0.30394322 0.040060073 -0.04272002 0.04648537 0.034061197 -0.056876376 0.15161422
-0.031874504 -0.06253459 0.06390132 0.07641066 0.053087324 0.060447756 -0.06783988 -0.13079888
0.04486636 -0.04866356 0.12149087 0.035311792 0.039824832 0.015148522 -0.033696935 -0.060958147
0.036438864 -0.04792644 0.03500052 0.05057844 -0.22220473 0.0033562316 0.031911697 -0.024172353
-0.16429017 0.0050080027 -0.031801492 -0.022468042 -0.009691546 -0.024808593 -0.05247418 -0.079309195
0.05721247 0.044538565 0.00074877497 -0.09788866 0.009937634 0.037380457 -0.031206578 -0.12125472
0.04542921 0.06568121 -0.039027527 0.04083575 0.070563816 -0.09069145 -0.041151013 0.05457087
0.08005075 0.010445357 -0.07134369 0.057773605 0.028165618 0.026885943 0.002088722 0.03389995
-0.073050156 0.08533452 -0.06225591 -0.08243087 0.0059671635 0.078933686 -0.08635838 0.04798375
-0.059781402 0.045723513 -0.058868386 0.023904258 0.05404054 0.03001219 0.035194416 0.09336723
0.070976235 -0.05306974 0.07354316 -0.05078452 -0.011767767 -0.0892655 0.06942465 0.011477036
0.0617237 0.1228323 -0.05874138 -0.06325019 0.073265105 0.026357107 -0.108489975 -0.027172102
00000000: 974d 5ebd 751f 76bd f0c5 7f3d f79a d53d
00000010: ffe0 debc 0fed 923d 3392 a7bc 9c55 923d
00000020: 67c0 b33c f721 8a3d 967e efbd 1234 c43c
00000030: 39b4 023d 9ccb 103d 0566 f43d c726 553d
00000040: 4bd4 ad3d e36a 66bd 9aac 21bd 8541 81bd
00000050: 8c1f 5e3d f135 08bd 0fa1 193e a81d 97bc
00000060: d9d6 53bb ddd7 cfbd 429a b23d 05b6 4fbd
00000070: b208 a33d 73dd 543c d47b adbd 6f8b 36bd
00000080: ea8e 3dbd 4e74 fe3c ea31 513d 1fdd ac3b
00000090: 8515 ca3d e3ef 7a3d 0748 933d b9c2 1dbb
000000a0: d9a9 383d b4fa 3fbc 774a 1a3d 688b 0137
000000b0: 52a9 913d fdf8 afbd 87f3 dc3c 3d89 2cbd
000000c0: 11f6 073d 1c32 7cbd fc87 7ebd 4daf f3bc
000000d0: f4cc 903d bf31 0f3d 4a64 f6bc 3c3d dfbc
000000e0: 46e8 c3bd 0d21 233d d58a a13c 4987 173a
000000f0: 60ee 803a 9f0b 8ebc 7ce1 8abc ab83 94bc
00000100: c964 04bc dd09 9d3d da0c 9abd 0a57 373d
00000110: 8718 5e3d bfe1 9b3d e05c 7a3d 34f6 60bd
00000120: ba62 ae3c 4c6e cb3c 00a8 27bd 9e2b 0bbc
00000130: 8ee4 85bb 2547 adbd 5fab 383c 5b12 60bd
00000140: 8821 8e3d 098d ddbc be8f 91bb 652e d83b
00000150: 1c9e 8c3d 668a 91bd 2d1c a4bd 2ab9 a8bd
00000160: 0765 f8bc 6590 4dbd 7b4e e93a a978 90bd
00000170: 03ac 0c3d 6d4c 953d 38e5 623d 8c2a 583d
00000180: 264e 7a3c 5446 21bd f003 97bc d7f1 01bb
00000190: 353a 88bd 5d59 1abd f00f 14bd 3ebd 2fbc
000001a0: 1172 e1bd 4f44 97bd 5a85 e1bd f20e 153e
000001b0: fea9 4ebc ebd1 3ebc 5f00 63bd b14d fd3b
000001c0: 0661 c63d 670e 643d d898 0dbd 13af 61bd
000001d0: 1c95 713d 2a64 dfbc 21cf e13b 6411 463c
000001e0: 4a2b a83c 595c f1bc 3df0 cabc 2d93 243d
000001f0: ddb0 06bd f548 713d 8288 3f3c 6d5e 3abd
00000200: e36c 1d3e e6d8 80bb 55a7 b0bd a2fa 953d
00000210: 69d6 9ebc 67eb a0bd fb5a 9d3c ddab 413d
00000220: 0dcd 3ebc dbc4 013d 58d0 04bd 208a 5f3d
00000230: 90fc 43bd e01e 973d afbe 9ebd 413f 12bd
00000240: 78b9 0b3d 61bd 403d 4e0e 9abd bb12 87bd
00000250: bc1f 55bc 7bd3 20bd aabc d9bd 1cb7 d8bc
00000260: 1669 47bd 5290 1cbd ba24 a73c e480 c63c
00000270: 59b9 34bc 16bb 61bd 8c41 bf3d 4826 c9bd
00000280: fc06 833d 729e 9bbe 0816 243d 30fb 2ebd
00000290: 7167 3e3d c183 0b3d 34f7 68bd c240 1b3e
000002a0: d78e 02bd 2312 80bd b2de 823d 317d 9c3d
000002b0: 1872 593d 1198 773d a3ef 8abd 24f0 05be
000002c0: cac5 373d 7153 47bd 35d0 f83d 19a3 103d
000002d0: 5d1f 233d 8231 783c cc05 0abd 40af 79bd
000002e0: eb40 153d 844e 44bd b55c 0f3d 572b 4f3d
000002f0: a389 63be 39f4 5b3b d7b5 023d 1905 c6bc
00000300: af3b 28be 2c1a a43b 4842 02bd e60e b8bc
00000310: 4ac9 1ebc 643b cbbc 2aef 56bd dc6c a2bd
00000320: 9f57 6a3d 126e 363d 7049 443a da79 c8bd
00000330: 75d1 223c 401c 193d f0a4 ffbc 6554 f8bd
00000340: fb13 3a3d df83 863d 54db 1fbd 6343 273d
00000350: c383 903d 70bc b9bd f78d 28bd b485 5f3d
00000360: a6f1 a33d 0123 2b3c a41c 92bd 04a4 6c3d
00000370: 95bb e63c e93f dc3c f1e2 083b adda 0a3d
00000380: 529b 95bd ddc3 ae3d 0e00 7fbd 84d1 a8bd
00000390: 3288 c33b fca7 a13d aadc b0bd 9c8a 443d
000003a0: 58dd 74bd 9448 3b3d fa1f 71bd ddd2 c33c
000003b0: 9d59 5d3d 20dc f53c 0528 103d 5137 bf3d
000003c0: fd5b 913d a85f 59bd cc9d 963d 6e03 50bd
000003d0: 98cd 40bc d5d0 b6bd 832e 8e3d 2e0a 3c3c
000003e0: fed1 7c3d 808f fb3d cd9a 70bd 5189 81bd
000003f0: 040c 963d dcea d73c fe2f debd 0798 debc

bias f4 [128]
0.017351171 0.24333873 0.017140169 0.05098939 -0.19675505 0.021906659 -0.11391683 -0.10215264
0.024098719 0.040584546 -0.02636223 0.017857935 -0.22554693 0.22817396 -0.028336292 0.48548672
-0.08432988 0.14248586 0.26052594 -0.27422452 -0.1748676 -0.08797661 -0.11629712 -0.21888089
-0.07761397 -0.016524535 0.033155978 0.46587342 -0.06377758 0.013607966 0.32632393 0.34423113
0.0020183288 -0.04012874 -0.061549895 -0.06661095 -0.13516347 -0.109949976 0.008222476 -0.19296695
0.03999879 0.030292746 0.167038 0.042724025 -0.16001156 0.008678517 0.035089035 -0.19922315
-0.08188893 -0.08256209 -0.0760916 -0.10560645 -0.02292259 0.028782712 -0.1792404 -0.048850507
-0.110234745 -0.095672704 -0.15386893 0.04786554 -0.0799021 -0.013373288 0.12713435 -0.114667036
0.060602963 -0.16351736 -0.08889242 -0.08560212 -0.16646308 0.19695404 0.4047831 0.01946363
0.10702722 -0.30865812 -0.13989739 0.05302003 -0.058638725 -0.055622324 -0.33026093 -0.014474607
0.3490777 0.25848892 -0.13890122 -0.2827629 0.06965941 0.052709296 0.4154962 -0.080469094
-0.18964678 0.36222982 0.5098102 0.06747114 0.036438335 0.1541891 -0.05093132 -0.08207051
0.4530381 0.3488477 -0.032294013 -0.21666202 -0.08636044 -0.09009458 0.2896838 -0.3371253
-0.030085796 -0.08128197 -0.17819086 0.047742642 -0.06830493 0.48637104 0.15431936 -0.054373186
0.38016605 0.3205188 -0.22778851 -0.06743732 -0.0070195007 -0.052036356 0.17989653 0.5124305
0.031569097 0.12142667 -0.0540006 -0.030694773 -0.36751008 0.32958516 -0.011347787 -0.19440368
00000000: 0b24 8e3c ca2d 793e 8a69 8c3c 40da 503d
00000010: 287a 49be 9875 b33c 3a4d e9bd 6735 d1bd
00000020: ad6a c53c fb3b 263d 9af5 d7bc ce4a 923c
00000030: c6f5 66be 6fa6 693e 8321 e8bc b791 f83e
00000040: 25b5 acbd d0e7 113e a863 853e 2867 8cbe
00000050: 7e10 33be 152d b4bd 2f2d eebd 5022 60be
00000060: 13f4 9ebd 765e 87bc 90ce 073d f686 ee3e
00000070: d29d 82bd f2f3 5e3c ee13 a73e 103f b03e
00000080: f045 043b 095e 24bd be1b 7cbd 526b 88bd
00000090: 4b68 0abe 742d e1bd 90b7 063c 2199 45be
000000a0: c5d5 233d 7e28 f83c 020c 2b3e 63ff 2e3d
000000b0: 12da 23be 5730 0e3c 85b9 0f3d 2701 4cbe
000000c0: 62b5 a7bd 5016 a9bd ead5 9bbd 3248 d8bd
000000d0: 28c8 bbbc b9c9 eb3c cc8a 37be 7817 48bd
000000e0: c1c2 e1bd 0df0 c3bd d18f 1dbe a80e 443d
000000f0: b6a3 a3bd a31b 5bbc 822f 023e 8dd6 eabd
00000100: d03a 783d 1871 27be 3b0d b6bd 2a50 afbd
00000110: 4c75 2abe 52ae 493e bb3f cf3e 3172 9f3c
00000120: 1631 db3d 7008 9ebe 4341 0fbe 882b 593d
00000130: 292f 70bd 3cd4 63bd f617 a9be e726 6dbc
00000140: 50ba b23e a958 843e 1f3c 0ebe 4dc6 90be
00000150: 98a9 8e3d b4e5 573d ebbb d43e fbcc a4bd
00000160: c432 42be 3076 b93e ec82 023f 4f2e 8a3d
00000170: 5d40 153d bfe3 1d3e 5c9d 50bd 9514 a8bd
00000180: 9cf4 e73e 2a9c b23e ba46 04bd a6dc 5dbe
00000190: bedd b0bd 8283 b8bd 6f51 943e b09b acbe
000001a0: 7d76 f6bc 2977 a6bd aa77 36be ca8d 433d
000001b0: 75e3 8bbd a005 f93e e505 1e3e 6bb6 5ebd
000001c0: 20a5 c23e 0a1b a43e 6441 69be 941c 8abd
000001d0: d703 e6bb 1324 55bd cc36 383e a52e 033f
000001e0: 994e 013d 8cae f83d bc2f 5dbd 9b73 fbbc
000001f0: 482a bcbe 63bf a83e 12ec 39bc c211 47be

weight f4 [128, 128]
0.0132109355 0.0049147885 -0.029169358 -0.08927619 0.046798684 -0.02243971 0.019137926 0.027656393
0.06415788 -0.08819283 -0.006728343 -0.107833154 0.06870258 0.037082423 0.021833437 -0.11332975
0.008102478 0.045005813 0.0035164736 -0.08488824 -0.0008864719 0.053585775 -0.05528164 -0.011430662
-0.06424323 -0.0050428174 0.009141894 -0.088643804 -0.024936678 -0.09950567 0.0051518786 0.014615583
0.018573698 -0.024574034 -0.028543556 -0.054944318 0.014548738 -0.0424292 -0.070304304 0.058894407
-0.03335644 0.023329735 0.020342624 0.023944424 0.068573914 -0.068722434 -0.07132823 -0.06863351
-0.00829659 0.047731377 0.0001328258 0.074260406 0.056331318 -0.04071174 -0.08757327 -0.06051687
-0.017436069 -0.032551665 -0.08024173 0.06927729 0.015636891 -0.08336674 0.030578328 -0.08369164
-0.08529425 -0.056525033 -0.04966612 -0.012286167 -0.028478177 0.013581432 0.013273086 0.04387316
-0.0051233126 0.078199185 -0.10361904 -0.003140055 -0.039592005 0.065722235 0.036126174 -0.03007342
-0.07559384 -0.030061632 0.009114247 -0.0069644107 -0.10961783 -0.058109663 -0.088137046 0.048947718
0.023430644 -0.012868489 -0.07273041 -0.047676325 0.07406046 0.015846966 -0.078738086 -0.057908252
-0.063394666 -0.03688522 -0.06904959 -0.06610242 -0.05509812 -0.061425835 -0.04710044 -0.06351522
0.019845454 0.027047498 0.073821895 0.06280718 0.07134686 0.043676276 0.031391814 -0.07755189
-0.024643714 -0.03916433 0.049158987 -0.07471382 0.0034361798 -0.061066452 0.04935887 0.02664976
-0.03254746 -0.00042964926 0.07774382 -0.08432257 -0.05636264 0.010118524 -0.066732265 0.0051290006
-0.010200844 0.016941046 -0.013641017 0.08037989 0.060739234 0.08593046 0.029567147 -0.0037779342
0.061142255 -0.025892055 -0.0809262 -0.07282966 -0.014646562 0.046011407 -0.04814112 0.017547434
-0.06101438 -0.03400179 -0.11267748 -0.0050620474 -0.039261427 0.030070111 0.038919613 0.002947353
-0.00392973 0.050556388 0.02015971 -0.016398678 0.022849744 0.009483281 -0.09449411 0.032482583
-0.05665989 0.007816502 0.005124846 0.039920818 0.028376166 -0.030506015 0.020693922 -0.08821785
-0.071482025 0.038158696 -0.055483542 0.07129423 0.06952881 0.06605405 -0.006809055 -0.059902363
-0.046516564 -0.077838145 0.07645463 0.008853198 0.046245523 0.061651923 0.048829734 0.013293876
0.06616657 -0.03866168 -0.07592977 0.0035535386 -0.085591175 -0.077486716 0.034882672 -0.014089343
-0.011437051 -0.032880884 0.03565328 -0.03129895 0.0481256 -0.092139535 0.029910646 -0.011979325
-0.014858739 -0.09644903 -0.023508884 -0.07744965 0.0042208466 0.06886885 -0.0036504855 -0.053135153
-0.038739193 0.02992932 0.03987372 0.04271994 -0.074581206 -0.058732517 -0.03632105 -0.047460333
0.012192922 0.01179208 0.019279068 -0.10367196 0.041365612 0.007849201 -0.06053402 0.044323113
-0.027712367 0.06783152 -0.047820713 0.045071393 0.051601335 -0.0033488516 -0.041495148 0.018923458
-0.03235251 -0.026240628 -0.025561726 -0.012870399 -0.038435258 -0.083384775 0.049796794 -0.06397434
0.008111168 -0.10183014 0.00074916997 -0.05119368 0.08142172 0.01050117 -0.025626661 -0.080029264
0.033759966 0.067679346 0.011685402 -0.0875883 -0.07054848 -0.041162226 -0.112175204 -0.030949654
00000000: ae72 583c 3c0c a13b 94f4 eebc 6fd6 b6bd
00000010: faaf 3f3d 7cd3 b7bc 24c7 9c3c a98f e23c
00000020: 3565 833d 719e b4bd 6f79 dcbb a1d7 dcbd
00000030: f0b3 8c3d bde3 173d 09dc b23c 6e19 e8bd
00000040: 42c0 043c 0458 383d a374 663b e3d9 adbd
00000050: 1f62 68ba c27c 5b3d 006f 62bd ac47 3bbc
00000060: f491 83bd 383e a5bb e2c7 153c e28a b5bd
00000070: 0148 ccbc a1c9 cbbd 17d1 a83b 3376 6f3c
00000080: de27 983c 7c4f c9bc 2dd4 e9bc 4b0d 61bd
00000090: d45d 6e3c 3eca 2dbd b4fb 8fbd 433b 713d
000000a0: c3a0 08bd 001e bf3c 93a5 a63c 1927 c43c
000000b0: 7b70 8c3d 59be 8cbd 8914 92bd ba8f 8cbd
000000c0: 6cee 07bc fa81 433d 2747 0b39 d715 983d
000000d0: abbb 663d 5ac1 26bd 9d59 b3bd 8ae0 77bd
000000e0: 16d6 8ebc e554 05bd c755 a4bd 40e1 8d3d
000000f0: f018 803c 2ebc aabd 677f fa3c 8666 abbd
00000100: c0ae aebd cb86 67bd b46e 4bbd eb4b 49bc
00000110: 114b e9bc a884 5e3c 5c77 593c 58b4 333d
00000120: 76e1 a7bb e526 a03d 3836 d4bd 62c9 4dbb
00000130: 3a2b 22bd 6199 863d 0af9 133d 885c f6bc
00000140: f1d0 9abd d043 f6bc ec53 153c b635 e4bb
00000150: 507f e0bd 6604 6ebd 3281 b4bd 677d 483d
00000160: 9ff1 bf3c 5bd6 52bc aef3 94bd 4048 43bd
00000170: 03ad 973d 7fd1 813c 6f41 a1bd 3431 6dbd
00000180: 10d5 81bd f514 17bd df69 8dbd b560 87bd
00000190: 91ae 61bd a899 7bbd 64ec 40bd 4514 82bd
000001a0: ef92 a23c b792 dd3c ef2f 973d 0da1 803d
000001b0: 4d1e 923d e5e5 323d b494 003d 86d3 9ebd
000001c0: 9de1 c9bc c76a 20bd ef5a 493d 8f03 99bd
000001d0: 8831 613b d120 7abd 872c 4a3d 9950 da3c
000001e0: 7c50 05bd 8c42 e1b9 2738 9f3d 50b1 acbd
000001f0: 83dc 66bd 2ac8 253c edaa 88bd 2d11 a83b
00000200: 7121 27bc f3c7 8a3c 927e 5fbc 369e a43d
00000210: b4c9 783d 4ffc af3d cd36 f23c 3897 77bb
00000220: 4d70 7a3d 931b d4bc a3bc a5bd b727 95bd
00000230: 22f8 6fbc 7576 3c3d 9f2f 45bd a3bf 8f3c
00000240: 37ea 79bd 7645 0bbd 73c3 e6bd 88df a5bb
00000250: 97d0 20bd 9855 f63c 2c6a 1f3d 6128 413b
00000260: f7c4 80bb 3714 4f3d fa25 a53c 8556 86bc
00000270: 632f bb3c c35f 1b3c 2186 c1bd 750c 053d
00000280: 3314 68bd c910 003c 53ee a73b 0384 233d
00000290: 2275 e83c c0e7 f9bc 4d86 a93c 8fab b4bd
000002a0: 2b65 92bd 4b4c 1c3d b642 63bd b602 923d
000002b0: 1f65 8e3d 5947 873d 7e1e dfbb 2e5c 75bd
000002c0: 2788 3ebd 9b69 9fbd 3f94 9c3d 010d 113c
000002d0: f26b 3d3d ba86 7c3d b001 483d 8fce 593c
000002e0: 5782 873d b65b 1ebd 1181 9bbd 7ce2 683b
000002f0: 6d4a afbd 5bb1 9ebd 22e1 0e3d fdd6 66bc
00000300: 7862 3bbc 1bae 06bd 2c09 123d 5433 00bd
00000310: 591f 453d a7b3 bcbd 2c07 f53c ee44 44bc
00000320: 1272 73bc 1287 c5bd b495 c0bc ec9d 9ebd
00000330: 074f 8a3b 1d0b 8d3d fc3c 6fbb 3fa4 59bd
00000340: fdac 1ebd 552e f53c a052 233d 1bfb 2e3d
00000350: 08be 98bd 8291 70bd 62c5 14bd c465 42bd
00000360: d2c4 473c 9133 413c 23ef 9d3c f751 d4bd
00000370: fd6e 293d ef99 003c 85f2 77bd 278c 353d
00000380: 0c05 e3bc 41eb 8a3d a7df 43bd c89c 383d
00000390: ec5b 533d 6878 5bbb d1f6 29bd 5e05 9b3c
000003a0: 1184 04bd 96f6 d6bc d366 d1bc 5ede 52bc
000003b0: 4a6e 1dbd a3c5 aabd b9f7 4b3d fb04 83bd
000003c0: b4e4 043c 528c d0bd f263 443a 77b0 51bd
000003d0: 6ec0 a63d 190d 2c3c 01ef d1bc 62e6 a3bd
000003e0: e447 0a3d 789b 8a3d 2174 3f3c 7f61 b3bd
000003f0: b97b 90bd b999 28bd 1dbc e5bd 218a fdbc

bias f4 [128]
-0.08493574 -0.04599764 -0.048533484 -0.079391554 -0.010649048 0.037476603 -0.11682898 0.08369507
-0.0015804819 -0.056113962 -0.12250607 0.13620232 0.31853697 0.00587964 0.2946042 -0.036156967
0.0029377998 -0.117322505 0.3099288 -0.12163507 -0.06690538 -0.030231895 -0.015524563 0.025509609
0.04519418 0.020159591 0.020307915 0.006183497 -0.077165164 0.023342952 0.20080763 -0.14622931
-0.00782683 0.028779717 -0.024527702 0.37157097 0.016458375 -0.010458819 -0.048510745 0.06972349
-0.0007084369 0.01735323 -0.08909145 -0.075814605 -0.060205426 0.001892756 0.063275285 -0.027784815
-0.015005638 0.029779976 0.049887307 -0.0811972 -0.14856184 0.1650115 -0.21893986 -0.012023478
-0.09444374 -0.11945921 -0.1040242 -0.0201412 -0.023198018 0.035395235 0.3141089 0.03076938
-0.09336207 -0.17412113 0.016811699 -0.026899762 -0.046397693 -0.047761735 -0.10873641 -0.15221019
-0.022212535 0.08167271 -0.02601422 -0.0013323594 0.26617298 0.084515505 -0.07442099 0.061081603
-0.011324049 -0.14579225 0.31566226 0.1970348 0.04229236 0.2934579 0.13085066 0.0044477126
0.1257247 -0.029074876 0.20762137 0.028956488 -0.09482723 0.052443508 -0.09833502 0.28964692
0.35224414 0.06756171 -0.14826024 0.26720247 -0.062574446 0.02410577 -0.07435453 -0.1024721
-0.03510879 -0.13110581 0.20752612 -0.12765928 0.051136605 -0.07555076 0.032200575 -0.023305533
0.03956481 0.015833728 -0.07255078 0.16261098 0.011713991 0.018390967 0.33782086 -0.017681455
0.04589436 0.05067422 0.05463025 0.2189915 -0.08426272 0.38921535 0.34941894 0.119702086
00000000: caf2 adbd 0568 3cbd 0ccb 46bd 0a98 a2bd
00000010: 5879 2ebc 1181 193d 0844 efbd 5268 ab3d
00000020: 2c28 cfba c1d7 65bd 76e4 fabd 9f78 0b3e
00000030: 4717 a33e ffa9 c03b 5dd6 963e 5419 14bd
00000040: 1a88 403b c846 f0bd fdae 9e3e cf1b f9bd
00000050: b005 89bd e1a8 f7bc bd5a 7ebc 87f9 d03c
00000060: 881d 393d ba25 a53c c95c a63c ef9e ca3b
00000070: c508 9ebd b839 bf3c 84a0 4d3e 23bd 15be
00000080: 1b3c 00bc 71c3 eb3c 52ee c8bc 8d3e be3e
00000090: b7d3 863c 775b 2bbc 34b3 46bd 30cb 8e3d
000000a0: 65b6 39ba 5c28 8e3c 9475 b6bd b044 9bbd
000000b0: f799 76bd 5a16 f83a 7996 813d fb9c e3bc
000000c0: 35da 75bc 23f5 f33c a256 4c3d b84a a6bd
000000d0: 9820 18be c6f8 283e c531 60be 1ffe 44bc
000000e0: b86b c1bd 08a7 f4bd a40a d5bd 28ff a4bc
000000f0: c509 bebc 98fa 103d e2d2 a03e 1110 fc3c
00000100: 9d34 bfbd cf4c 32be b0b8 893c e45c dcbc
00000110: 820b 3ebd cfa1 43bd 32b1 debd fddc 1bbe
00000120: 10f7 b5bc 0644 a73d c61b d5bc 90a2 aeba
00000130: d347 883e 7716 ad3d 086a 98bd b430 7a3d
00000140: 8188 39bc 904a 15be 7c9e a13e 7ec3 493e
00000150: c13a 2d3d 1d40 963e b7fd 053e 1ebe 913b
00000160: fabd 003e 6f2e eebc b29a 543e 2836 ed3c
00000170: c734 c2bd 01cf 563d df63 c9bd 9a4c 943e
00000180: 5859 b43e cb5d 8a3d 88d1 17be c3ce 883e
00000190: 0827 80bd 7779 c53c 3047 98bd e4dc d1bd
000001a0: 3cce 0fbd 9a40 06be ba81 543e 1db9 02be
000001b0: 9e74 513d 5bba 9abd c0e4 033d 3feb bebc
000001c0: b60e 223d bcb5 813c 8195 94bd 7e83 263e
000001d0: 0aec 3f3c a7a8 963c dbf6 ac3e b3d8 90bc
000001e0: b9fb 3b3d c58f 4f3d f8c3 5f3d 4f3f 603e
000001f0: ef91 acbd 3c47 c73e 0ae7 b23e 5e26 f53d

weight f4 [9, 128]
0.044411182 0.002980944 0.004430999 -0.07236053 0.04828596 -0.08579035 -0.0628776 0.10539583
-0.14508733 -0.005568855 0.061750162 -0.1371453 -0.68647677 -0.073375426 -0.19857569 0.042481646
-0.24409159 -0.082978666 -0.029999746 -0.024316272 0.022582568 -0.01641922 0.29393604 -0.05061321
0.12841144 -0.07115206 -0.048945256 0.061132427 0.009942154 -0.086199835 0.048675347 0.067076385
-0.0071006347 0.007536746 -0.028840555 -0.09715436 -0.012728618 0.06803982 -0.08920391 -0.045645654
-0.019745966 -0.09420661 0.11175411 -0.029050447 -0.11404579 -0.5365436 -0.12733409 -0.03380209
0.13065769 0.014505988 0.0062677613 -0.09808231 0.18183765 -0.041966423 0.06523171 -0.04309889
-0.007812719 -0.24283992 0.007677917 -0.082873896 -0.0015408532 0.05236629 -0.09366189 0.062328752
-0.04117473 0.12088974 -0.03241633 -0.078730896 -0.03541199 -0.1339423 -0.0152506735 0.06625731
-0.1437918 -0.045304537 -0.011334023 0.06563026 -1.0086904 -0.36827466 -0.1794883 -0.09327402
-0.0048237187 -0.3180364 -0.5181164 -0.06436916 -0.0007463744 -0.8674865 -0.33555496 -0.053695742
-0.29993978 0.05575575 -0.15714425 0.06177662 0.30921522 -0.10924979 0.046179693 -0.20394136
-0.00422885 -0.0344753 0.18777347 -0.6753481 0.00080404803 0.05954535 -0.072113246 -0.021644514
0.06664401 0.094824016 -0.17334823 0.09581138 -0.19285397 0.26244432 0.037675135 -0.044790696
0.057401635 -0.00846274 0.013288026 0.04615243 0.0054161656 -0.08587907 -0.40373096 -0.17567797
-0.00840563 0.066656925 -0.0019633672 -0.5277427 0.052293334 -0.50758505 -0.2457667 -0.86251587
-0.012166477 0.07353422 -0.019500218 -0.015292271 0.038892988 0.010865427 -0.023823932 0.03705359
-0.10164548 -0.024236007 -0.1010756 -0.29505277 -0.37922657 -0.076390035 -0.037543096 0.1002193
-0.21325912 -0.046563312 -0.17675166 -0.05102053 -0.03233017 0.06314692 0.13216953 -0.064250685
0.07529327 -0.07738158 -0.057907544 -0.037914492 -0.05444364 0.02670281 -0.013878659 0.01218998
-0.09565583 -0.09791906 -0.0836821 -0.17315319 0.055393666 -0.11153351 0.017722813 0.013888369
-0.063232705 0.04529689 -0.04793607 0.02996827 -0.042674635 -0.22269206 -0.07723319 0.035840403
-0.3697859 -0.03898001 -0.08404704 0.008092816 -0.0016647307 0.0060053687 0.16699724 0.036183767
0.11541121 -0.2992579 0.11131107 0.008785045 -0.05801016 -0.097607866 -0.019922573 -0.0017781224
-0.02299066 0.036265064 -0.017993845 -0.030481277 0.011341295 -0.05520397 0.0048016342 0.061019763
-0.07499507 -0.05477636 0.07507566 0.066122465 -0.41125047 -0.42531976 -0.022006432 -0.047733646
0.009928386 -0.13173696 -0.33991632 0.0052736844 -0.04503409 -0.52147853 -0.117312655 0.014936875
-0.12815131 -0.0004678827 -0.12060281 -0.00075544434 0.24471478 -0.0060851765 -0.039629295 -0.23499645
-0.18220977 -0.0011895649 0.2210425 -0.5485168 -0.05207392 -0.05557242 -0.108386956 -0.017179653
-0.012483476 -0.035190992 -0.16786323 0.123463064 0.05974489 0.16911012 0.07855652 -0.07365017
-0.04642114 -0.04501171 -0.032175932 0.03295333 -0.060034834 -0.07247988 -0.74725264 -0.045579564
-0.046056744 -0.08949762 0.061599758 -0.40490726 -0.15886429 -0.5948294 -0.27065077 -0.41750968
00000000: 80e8 353d f15b 433b ea31 913b c231 94bd
00000010: 80c7 453d dab2 afbd f9c5 80bd c5d9 d73d
00000020: c691 14be f17a b6bb bded 7c3d d16f 0cbe
00000030: f1bc 2fbf db45 96bd 6d57 4bbe 3c01 2e3d
00000040: 25f3 79be b8f0 a9bd 07c2 f5bc eb32 c7bc
00000050: 14ff b83c 9a81 86bc c97e 963e cc4f 4fbd
00000060: 4a7e 033e 2cb8 91bd d27a 48bd ff65 7a3d
00000070: 6be4 223c 8a89 b0bd cd5f 473d 585f 893d
00000080: 71ac e8bb cff6 f63b 0743 ecbc ddf8 c6bd
00000090: b28b 50bc 7658 8b3d 8ab0 b6bd f0f6 3abd
000000a0: 4bc2 a1bc 65ef c0bd 57df e43d 34fb edbc
000000b0: d790 e9bd ec5a 09bf de63 02be 0f74 0abd
000000c0: 21cb 053e 86aa 6d3c cb61 cd3b 61df c8bd
000000d0: a633 3a3e fce4 2bbd 3498 853d 7688 30bd
000000e0: eb00 00bc 07ab 78be 0997 fb3b cab9 a9bd
000000f0: 74f6 c9ba 097e 563d ced1 bfbd 6f4c 7f3d
00000100: d5a6 28bd 0a95 f73d fcc6 04bd aa3d a1bd
00000110: 2a0c 11bd 2c28 09be f6dd 79bc eab1 873d
00000120: 283e 13be 4091 39bd 57b2 39bc 2869 863d
00000130: c41c 81bf 7f8e bcbe c8cb 37be 7306 bfbd
00000140: 4910 9ebb abd5 a2be 47a3 04bf fad3 83bd
00000150: 57a8 43ba 9813 5ebf dccd abbe 11f0 5bbd
00000160: b591 99be 2460 643d 6cea 20be 7b09 7d3d
00000170: 7551 9e3e 5bbe dfbd eb26 3d3d 01d6 50be
00000180: 2a92 8abb f935 0dbd b047 403e 9de3 2cbf
00000190: c0c6 523a d3e5 733d 1cb0 93bd d64f b1bc
000001a0: a87c 883d 1833 c23d 3382 31be c238 c43d
000001b0: 837b 45be 1a5f 863e 3e51 1a3d 7376 37bd
000001c0: fa1d 6b3d 4ea7 0abc 05b6 593c 550a 3d3d
000001d0: 177a b13b 5ee1 afbd d3b5 cebe ede4 33be
000001e0: c4b7 09bc 6d83 883d d6ab 00bb 251a 07bf
000001f0: 8931 563d 18f1 01bf 44aa 7bbe d7cd 5cbf
00000200: e755 47bc 1c99 963d ecbe 9fbc 6f8c 7abc
00000210: 414e 1f3d e704 323c 682a c3bc 81c5 173d
00000220: 812b d0bd 978a c6bc b900 cfbd 2811 97be
00000230: fc29 c2be 6172 9cbd cac6 19bd c73f cd3d
00000240: 9960 5abe 2cb9 3ebd 63fe 34be e7fa 50bd
00000250: a46c 04bd 2c53 813d 7357 073e dd95 83bd
00000260: 5c33 9a3d 3c7a 9ebd 7630 6dbd 3a4c 1bbd
00000270: 4b00 5fbd dabf da3c 5163 63bc 7bb8 473c
00000280: 34e7 c3bd ca89 c8bd 8561 abbd 124f 31be
00000290: 78e4 623d ae6b e4bd 6f2f 913c 0b8c 633c
000002a0: 2680 81bd 3b89 393d 9d58 44bd 0480 f53c
000002b0: 99cb 2ebd 6309 64be 6f2c 9ebd 63cd 123d
000002c0: 9454 bdbe 81a9 1fbd db20 acbd bb97 043c
000002d0: 1833 daba afc8 c43b 5301 2b3e 6e35 143d
000002e0: b65c ec3d 5538 99be 0ff7 e33d 26ef 0f3c
000002f0: 109c 6dbd a2e6 c7bd aa34 a3bc e30f e9ba
00000300: e956 bcbc ad8a 143d d467 93bc dfb3 f9bc
00000310: d7d0 393c 8f1d 62bd 0757 9d3b dcef 793d
00000320: 0497 99bd 2d5d 60bd 45c1 993d 376b 873d
00000330: 6c8f d2be 83c3 d9be d546 b4bc 5b84 43bd
00000340: abaa 223c 0ee6 06be 8309 aebe dfce ac3b
00000350: aa75 38bd 9e7f 05bf 9e41 f0bd cbb9 743c
00000360: 193a 03be 274e f5b9 9bfe f6bd 0309 46ba
00000370: 8396 7a3e 2966 c7bb 5452 22bd e9a2 70be
00000380: 3395 3abe 2deb 9bba f758 623e 996b 0cbf
00000390: 764b 55bd e89f 63bd fbf9 ddbd 58bc 8cbc
000003a0: 7e87 4cbc 6e24 10bd 57e4 2bbe 34da fc3d
000003b0: 0fb7 743d 342b 2d3e 3ee2 a03d e6d5 96bd
000003c0: 1824 3ebd 335e 38bd e9ca 03bd 12fa 063d
000003d0: 16e7 75bd 5570 94bd f34b 3fbf a3b1 3abd
000003e0: ffa5 3cbd 874a b7bd 0750 7c3d 0150 cfbe
000003f0: 52ad 22be bd46 18bf bd92 8abe d4c3 d5be

bias f4 [9]
-0.24571232 -0.22795978 -0.17246644 -0.1837485 -0.11389357 0.14897555 0.10884694 -0.16139415
-0.12475033
00000000: 039c 7bbe 4a6e 69be 0b9b 30be 9128 3cbe
00000010: 0841 e9bd 0c8d 183e 25eb de3d 8244 25be
00000020: 1a7d ffbd
