IO_DynaPlex/DeepControlledLearning/PolicyWeights/random_leadtimes_l_exponential_d10_h1_b1/_gen.pth (torch, 280956 bytes, 10 tensors)

weight f4 [256, 2]
0	0x3eaddf0c	0.33959234
1	0xbf1e44fb	-0.61824006
2	0xbe851832	-0.25995022
3	0xbeb10654	-0.3457514
4	0xbea6c3ea	-0.32571346
5	0xbe2f1d4f	-0.17101024
6	0xbf1a4d2a	-0.60273993
7	0xbdc6a84d	-0.097000696
8	0x3f2c655f	0.6734218
9	0xbe8163ef	-0.25271556
10	0x3ea83f17	0.32860634
11	0xbdd481da	-0.1037633
12	0x3e0f5662	0.13997796
13	0xbdfdc2b7	-0.123906545
14	0xbf2e82b5	-0.68168193
15	0xbdf76b47	-0.120810084
16	0xbe95cc17	-0.2925727
17	0xbf0f50a0	-0.559824
18	0x3e5c7263	0.2152801
19	0x3ed6c3fa	0.41946393
20	0xbecdb0a4	-0.4017383
21	0xbf27df25	-0.65574867
22	0x3ef8e696	0.48613423
23	0xbf2df62e	-0.67953765
24	0x3e43b838	0.19113243
25	0x3e2fb3b0	0.17158389
26	0x3f0803fb	0.53131074
27	0xbdf471bc	-0.119357556
28	0xbf2ca83c	-0.67444205
29	0xbee0e050	-0.43921137
30	0x3e3b7678	0.18306911
31	0x3d99a0cb	0.07501372
32	0x3eae70b7	0.3407037
33	0x3f2cb273	0.6745979
34	0x3e684d58	0.22685754
35	0x3daed7ab	0.08537229
36	0x3ef474e9	0.47745445
37	0x3df57197	0.11984556
38	0xbe23fc57	-0.16014229
39	0x3ee02539	0.437784
40	0xbdfbcbc4	-0.122947246
41	0xbe09bb6a	-0.13450399
42	0xbeb22e30	-0.34800863
43	0x3eeaea16	0.45881718
44	0x3f2c2380	0.6724167
45	0x3f217a38	0.63077116
46	0xbdc4676d	-0.095900394
47	0x3e59387c	0.21212953
48	0xbe371495	-0.17878945
49	0x3d9a17f7	0.07524102
50	0xbf23cf32	-0.6398803
51	0xbf1d3fe3	-0.6142561
52	0x3e33970c	0.17538089
53	0x3e4944e4	0.19655186
54	0x3f36f1a5	0.7146247
55	0x3f063463	0.52423686
56	0xbe26aca1	-0.1627679
57	0xbd6406a1	-0.055670384
58	0xbe5b8cfe	-0.21440503
59	0x3ec05aaa	0.3756917
60	0x3e93021c	0.28712547
61	0x3eae4d15	0.34043184
62	0x3cd52aef	0.026021449
63	0x3e0038ee	0.12521717
64	0x3d727fb2	0.05920381
65	0x3dddabd5	0.1082379
66	0x3e8fd3a5	0.2809116
67	0xbf048147	-0.5175976
68	0xbe8f143c	-0.27945125
69	0x3d1d1893	0.038353514
70	0xbd3ed1ab	-0.046586674
71	0x3d8d0336	0.06885378
72	0xbf12707a	-0.57202876
73	0x3f097639	0.5369602
74	0x3f262abc	0.6490896
75	0xbeb052e0	-0.3443823
76	0x3f43507f	0.762947
77	0x3dc1d895	0.09465138
78	0xbf1d7e93	-0.6152126
79	0xbf23869c	-0.6387727
80	0xbb77d011	-0.0037813226
81	0x3d18db73	0.037318658
82	0xbe3b8da8	-0.18315756
83	0x3ef98d27	0.48740503
84	0xbec4d360	-0.38442516
85	0x3eb2d9fc	0.34931934
86	0xbf0e0294	-0.55472684
87	0xbf29e3a7	-0.66362995
88	0xbe6e7f44	-0.23290735
89	0xbdec7281	-0.115452774
90	0x3e6f42a2	0.23365262
91	0xbd929cac	-0.07158789
92	0x3ecd6071	0.4011264
93	0xbf11584d	-0.5677536
94	0x3e993ba1	0.29928306
95	0x3daceb23	0.08443286
96	0xbd88e27d	-0.06683824
97	0xbf010981	-0.50405127
98	0xbf0fee77	-0.56223243
99	0xbf193951	-0.5985308
100	0xbe79008c	-0.24316615
101	0xbf3404a1	-0.70319563
102	0xbe704310	-0.23463082
103	0x3da57759	0.080794044
104	0xbe3a93ef	-0.18220495
105	0x3e0579ae	0.13034698
106	0x3e6a18f2	0.22861078
107	0x3eb2ec25	0.3494579
108	0xbe65041a	-0.22364846
109	0xbf2abed5	-0.66697437
110	0x3e0fba7d	0.14035983
111	0x3db46eef	0.088102214
112	0x3d824823	0.06361415
113	0x3ee2d928	0.44306302
114	0xbce7bfb6	-0.028289657
115	0x3e233d22	0.15941289
116	0xbd9e9e53	-0.07745042
117	0x3ed375fc	0.41300952
118	0xbf0737a8	-0.528193
119	0x3e772f9b	0.24139254
120	0xbe77c555	-0.2419637
121	0xbf21184c	-0.629277
122	0xbf347539	-0.7049137
123	0xbf2a9d4d	-0.6664627
124	0xbe19c7af	-0.1501758
125	0xbe31b07d	-0.17352481
126	0x3f2a53cc	0.66534114
127	0xbf2fc1ad	-0.686549
128	0xbd945a0f	-0.0724374
129	0x3e2b2b2f	0.16715692
130	0x3bfda7bc	0.0077409428
131	0xbe441c3a	-0.19151393
132	0xbe8f4535	-0.27982488
133	0xbf1c9c53	-0.6117603
134	0xbf270114	-0.6523602
135	0xbf04104d	-0.51587373
136	0x3f2750be	0.6535758
137	0x3dcc433a	0.0997376
138	0xbf23b4aa	-0.63947546
139	0x3c5cf41a	0.013485933
140	0x3e91f209	0.2850497
141	0x3ea45db3	0.32102737
142	0xbf01b8b5	-0.50672466
143	0x3e4d7a47	0.20066176
144	0x3ec53511	0.3851705
145	0x3dfae26e	0.12250219
146	0x3e7a5a7e	0.24448583
147	0xbe9d6fb9	-0.307493
148	0x3ed9d2ec	0.42543733
149	0x3e9059ae	0.2819342
150	0xbd7dc16a	-0.061952032
151	0x3f21caef	0.6320028
152	0xbf22dc63	-0.63617533
153	0x3dbe1311	0.092809804
154	0xbeafc457	-0.34329483
155	0xbd58147a	-0.052753903
156	0x3eede07d	0.46460333
157	0xbf33d341	-0.7024422
158	0x3f28392f	0.65712255
159	0xbf2095ec	-0.6272876
160	0xbe9d6fc8	-0.30749345
161	0xbdf4b614	-0.11948791
162	0x3e4bcc87	0.1990224
163	0x3f0b8aae	0.54508483
164	0x3f394361	0.7236844
165	0x3ea48e4b	0.3213981
166	0x3e2f4f90	0.17120194
167	0xbd95cc95	-0.073144116
168	0x3c9f0d29	0.019415455
169	0x3dbbf319	0.091772266
170	0x3dc34eb9	0.095364995
171	0xbecdddc0	-0.40208244
172	0xbc7f0676	-0.015565505
173	0xbebf1817	-0.37323067
174	0xbe2e7a67	-0.1703888
175	0x3eb3f69a	0.3514908
176	0x3ef1c696	0.47221822
177	0x3f185b48	0.59514284
178	0x3eb046e5	0.34429088
179	0x3e9faa79	0.31184748
180	0x3f200fa7	0.62523884
181	0x3eb6e17d	0.3571891
182	0x3efc0b28	0.49227262
183	0xbedf7566	-0.43644255
184	0x3eda7ad0	0.42671824
185	0x3e6ec337	0.23316656
186	0x3efe5610	0.49675035
187	0x3ed985ad	0.424848
188	0x3f3f7d50	0.74800587
189	0x3ba978c1	0.0051718657
190	0xbc85fa37	-0.016354663
191	0xbe564c92	-0.20927647
192	0xbe4165e8	-0.1888653
193	0x3eae3618	0.34025645
194	0x3d6aa3bf	0.057285067
195	0xbef253a0	-0.47329426
196	0x3e83adc8	0.25718522
197	0xbf34606b	-0.7045962
198	0xbe969104	-0.29407513
199	0x3e5b4169	0.2141167
200	0x3ec3f07f	0.3826942
201	0x3ea6cf2d	0.32579938
202	0x3f160643	0.58603305
203	0x3dbd5579	0.09244818
204	0xbe5d8919	-0.2163433
205	0x3eb3da54	0.3512751
206	0xbea184ec	-0.31546724
207	0x3e8786b5	0.2646996
208	0xbed160e2	-0.40894228
209	0x3e67011a	0.22559014
210	0x3e43dd89	0.19127478
211	0x3da97a0e	0.08275233
212	0xbf02b394	-0.51055264
213	0x3f068b2d	0.52556115
214	0xbe320bd1	-0.1738732
215	0xbe9e2f0e	-0.30895275
216	0x3d02443f	0.031803366
217	0x3eb7816b	0.35840926
218	0x3f3ff201	0.74978644
219	0x3f0c6b81	0.5485154
220	0xba97f169	-0.0011592332
221	0x3c1d7394	0.0096100755
222	0xbd650fd7	-0.05592331
223	0x3d490513	0.049077105
224	0xbebf6dcc	-0.37388456
225	0x3f1a54e0	0.6028576
226	0xbf21a05e	-0.63135326
227	0x3e213acb	0.15745084
228	0xbe92e41d	-0.28689662
229	0x3e9e48e7	0.30914995
230	0xbf0f8a3d	-0.5607031
231	0xbf2c9a4c	-0.6742294
232	0xbf24060b	-0.6407172
233	0xbf04e181	-0.5190659
234	0xbda6dc04	-0.081474334
235	0x3f124bc1	0.5714684
236	0xbecca31a	-0.39968187
237	0x3edf27dd	0.435851
238	0xbf0103e1	-0.50396544
239	0x3e5c40e8	0.21509135
240	0xbef05407	-0.46939108
241	0xbdbb167e	-0.091351494
242	0xbebb37dd	-0.36566058
243	0xbf2836ad	-0.6570843
244	0xbee49d06	-0.4465105
245	0x3f110c2a	0.56659186
246	0x3e7a9d52	0.24474075
247	0xbf26659d	-0.649988
248	0x3e1181d5	0.14209683
249	0xbf2a52a1	-0.6653233
250	0x3f3527f1	0.7076407
251	0x3ed40246	0.41407984
252	0xbf054793	-0.5206234
253	0x3ec0137e	0.3751487
254	0xbec69c06	-0.3879091
255	0x3af53b45	0.001870968

bias f4 [256]
0	0xbf0e1c75	-0.5551217
1	0xbeb3908c	-0.35071218
2	0xbf25a16d	-0.6469944
3	0x3f468f59	0.7756248
4	0xbf0b25fb	-0.5435483
5	0x3f2c08e7	0.67201084
6	0xbdaa8823	-0.08326747
7	0xbe84bfab	-0.2592748
8	0xbdc8f993	-0.098132275
9	0xbf2bfe4e	-0.67184913
10	0x3f066119	0.5249191
11	0xbee40a4b	-0.44539103
12	0x3ec7ddb0	0.39036322
13	0x3f1f0d8e	0.6213006
14	0x3dd89f06	0.10577206
15	0xbf3524d8	-0.70759344
16	0x3e1aa829	0.1510321
17	0xbf581bad	-0.8441723
18	0xbf190414	-0.5977185
19	0x3dec474f	0.115370385
20	0xbe45d642	-0.19320014
21	0x3ea68e89	0.3253062
22	0x3ecfb4a6	0.4056751
23	0xbf54a046	-0.8305706
24	0x3f58794e	0.84560096
25	0x3ead678b	0.3386806
26	0xbecf599e	-0.4049806
27	0xbd41b490	-0.04729134
28	0x3d67fa28	0.056635052
29	0x3eeb2c05	0.45932022
30	0xbf2031bb	-0.6257588
31	0xbe29d86f	-0.16586469
32	0xbf667b0f	-0.9003152
33	0xbf1b4832	-0.60657036
34	0xbbfc62e3	-0.007702218
35	0x3e696b8a	0.22794929
36	0x3f31387e	0.69226825
37	0xbf1fa972	-0.6236793
38	0xbebe0458	-0.3711269
39	0x3f2e4cb7	0.6808581
40	0xbf2ae8d5	-0.66761523
41	0xbe50ab4d	-0.20377846
42	0x3f7346c0	0.9502983
43	0xbf1dca6f	-0.61637014
44	0x3eaa7c66	0.33298033
45	0x3eddfded	0.43357792
46	0xbe1bd13f	-0.1521654
47	0xbf0cca5e	-0.5499629
48	0xbc7a1244	-0.015263144
49	0xbeabb342	-0.335352
50	0x3e914697	0.28374168
51	0xbeebf50e	-0.460854
52	0x3f2c68e1	0.6734753
53	0x3f1d0a12	0.6134349
54	0x3e2df437	0.16987692
55	0x3e677729	0.2260405
56	0x3ee90915	0.45514742
57	0xbea4a2a4	-0.32155335
58	0xbf1c4147	-0.61037105
59	0xbeb4c206	-0.35304278
60	0xbf34707f	-0.70484155
61	0x3e895644	0.26823628
62	0x3f294e96	0.6613554
63	0xbf23e4d2	-0.6402103
64	0xbf2b9ab0	-0.6703291
65	0x3e6b0aeb	0.22953384
66	0xbe01a436	-0.12660298
67	0xbd221ac5	-0.03957631
68	0x3f2b755f	0.6697597
69	0x3dd075e6	0.10178737
70	0x3d457ec7	0.048216607
71	0x3f2ce060	0.6752987
72	0x3f048e33	0.5177948
73	0xbebc47d5	-0.36773553
74	0x3e7e0d76	0.24809822
75	0x3f3d18f1	0.7386618
76	0x3e1ea25d	0.15491624
77	0xbec997a4	-0.39373505
78	0xbf2e7a80	-0.6815567
79	0x3f0d4e80	0.55197906
80	0x3ebacaed	0.36482945
81	0x3ee7358a	0.45158035
82	0xbce52b91	-0.027974876
83	0x3eca7dff	0.39549252
84	0xbf2d2958	-0.6764121
85	0xbf22af60	-0.6354885
86	0x3e667e18	0.22509038
87	0xbee6b020	-0.45056248
88	0x3ef73356	0.48281354
89	0x3f3661d4	0.71243024
90	0xbf182726	-0.59434736
91	0xbebb7474	-0.36612284
92	0xbf5c7f39	-0.86131626
93	0xbdcdce73	-0.10049143
94	0x3f1523a4	0.5825751
95	0x3dff6000	0.124694824
96	0xbf49faff	-0.78898615
97	0x3e548e41	0.2075739
98	0xbe32001b	-0.17382853
99	0xbe3d6852	-0.18496826
100	0x3ed5e94c	0.41779554
101	0x3f03caf9	0.51481587
102	0x3f024873	0.508918
103	0x3e9ee686	0.3103525
104	0x3ed1e3af	0.4099402
105	0xbef9e63b	-0.48808464
106	0x3e4771f7	0.19477068
107	0x3ed311b5	0.41224447
108	0x3f01f2d0	0.5076113
109	0x3f00ef0b	0.5036475
110	0x3f08b5a3	0.53402156
111	0xbf501885	-0.81287414
112	0x3ee97571	0.45597413
113	0x3f6079c7	0.8768582
114	0x3e93babe	0.2885341
115	0x3f229254	0.6350453
116	0xbf01fdea	-0.5077807
117	0xbea524ef	-0.3225474
118	0xbef0a6b2	-0.47002178
119	0xbea248b1	-0.31696084
120	0xbdf5b99b	-0.11998292
121	0xbf329c3b	-0.6976964
122	0xbe3661f6	-0.17810807
123	0xbf0e915e	-0.5569056
124	0x3ef6af76	0.4818074
125	0x3ef28031	0.47363427
126	0xbeb50677	-0.35356495
127	0x3f4f72fc	0.8103483
128	0x3e3748ac	0.17898816
129	0xbeb6543f	-0.3561115
130	0xbe060e7a	-0.1309146
131	0x3d50ad90	0.050946772
132	0xbeebd1af	-0.46058413
133	0xbea2be21	-0.31785682
134	0x3f00016c	0.5000217
135	0xbe6b8a1c	-0.23001903
136	0x3f10a1a1	0.56496626
137	0xbef5be8d	-0.4799694
138	0x3ec3617f	0.3816032
139	0x3e68e9eb	0.22745483
140	0x3f301002	0.68774426
141	0x3f291f1f	0.6606311
142	0x3eb5d3c1	0.35513118
143	0x3f130309	0.57426506
144	0x3f1d5083	0.61450976
145	0xbe5d9377	-0.21638285
146	0x3dab2466	0.08356552
147	0xbe06d3f3	-0.1316679
148	0x3ee78a86	0.45222872
149	0xbf06f2ac	-0.5271404
150	0xbea20dac	-0.31651056
151	0x3b84ff81	0.0040587788
152	0xbf2e2c93	-0.68036765
153	0x3f13c8a1	0.5772801
154	0x3e88cd21	0.26719
155	0x3f5b16b5	0.85581523
156	0xbe8e7c3c	-0.27829158
157	0x3d3d21e6	0.046174906
158	0xbe96df7f	-0.2946739
159	0xbd8437fa	-0.06455989
160	0x3ed4d9da	0.41572458
161	0x3f4d1a49	0.8011823
162	0xbf0d195f	-0.5511684
163	0x3dc650a8	0.09683353
164	0x3be45dec	0.006969204
165	0xbe4036f7	-0.18770967
166	0xbf66cc70	-0.90155697
167	0xbe5f76a4	-0.21822602
168	0xbea36c0c	-0.3191837
169	0xbe366923	-0.17813544
170	0x3ef6a77f	0.48174664
171	0x3f1c9b81	0.6117478
172	0x3f544e8c	0.82932353
173	0x3f06407c	0.52442145
174	0xbf63f29a	-0.89042056
175	0xbf49aa54	-0.78775525
176	0x3f09627d	0.53665906
177	0xbf61edd5	-0.8825353
178	0x3eecc39d	0.4624299
179	0x3cb1cb47	0.021703376
180	0xbf4f8929	-0.81068665
181	0x3e94afc3	0.29040346
182	0xbe798057	-0.24365364
183	0xbf3fffa3	-0.74999446
184	0x3dc459db	0.09587451
185	0x3f1191f7	0.5686335
186	0x3dedbece	0.11608659
187	0x3efaaf63	0.48961934
188	0xbf1b2a56	-0.60611475
189	0x3f3a312c	0.7273128
190	0xbccff06a	-0.025383193
191	0x3e827e17	0.25486824
192	0xbf38b3e9	-0.7214952
193	0x3e9d8625	0.30766407
194	0x3f288f39	0.6584354
195	0x3f09711e	0.5368823
196	0xbf3beb40	-0.7340584
197	0x3e0f1230	0.13971782
198	0x3d6853c2	0.056720503
199	0xbed5ed8f	-0.41782805
200	0x3e669748	0.22518647
201	0x3de2ff3b	0.110838376
202	0xbf6f2691	-0.9341822
203	0xbf1634aa	-0.5867411
204	0xbedbe32a	-0.4294675
205	0x3f6449a4	0.89174867
206	0xbe972982	-0.29523855
207	0x3e3a8489	0.1821462
208	0x3f245abb	0.64200944
209	0x3f2ba710	0.6705179
210	0xbf01eace	-0.5074891
211	0x3f171c71	0.59027773
212	0xbe71bfd4	-0.23608333
213	0xbf14aaa4	-0.58072877
214	0x3f0d093a	0.55092204
215	0x3ef31d63	0.47483358
216	0x3f2e52e0	0.6809521
217	0xbf1e4086	-0.61817205
218	0xbf29157c	-0.6604841
219	0x3e864659	0.26225546
220	0xbf5972a2	-0.8494054
221	0xbd1d0431	-0.038334075
222	0x3eece539	0.46268633
223	0xbe022dfe	-0.12712857
224	0xbf01a662	-0.50644505
225	0x3dd09339	0.101843305
226	0x3ee88790	0.45415926
227	0x3f08ca85	0.5343402
228	0x3f1fb3dc	0.6238382
229	0x3e562ad3	0.20914774
230	0x3f296557	0.6617026
231	0x3e5b0969	0.21390308
232	0xbf16e905	-0.5894931
233	0x3f55e0b4	0.83545995
234	0xbe3a2d51	-0.1818135
235	0x3be1332a	0.0068725543
236	0x3f4d6b24	0.8024161
237	0xbf306a39	-0.6891208
238	0xbdbc0e70	-0.09182441
239	0x3e7fbbfd	0.24974056
240	0x3f487e3b	0.7831761
241	0x3f4f51c2	0.8098413
242	0xbe42d00e	-0.19024679
243	0x3eeb84f4	0.45999873
244	0xbe53b131	-0.20673062
245	0xbf502621	-0.8130818
246	0x3f2ce810	0.675416
247	0x3e8dbc05	0.2768251
248	0xbefb8a0f	-0.49128768
249	0xbedde72b	-0.4334043
250	0x3cb61afe	0.022229668
251	0xbf1299a3	-0.5726568
252	0xbf139883	-0.5765459
253	0xbf45734a	-0.7712904
254	0xbebe134d	-0.371241
255	0x3e07b5ca	0.13252941

weight f4 [128, 256]
0	0x3d1c3cfe	0.038144104
1	0x3bd5d570	0.006525688
2	0x3d641b7a	0.055690266
3	0xbc4ffe11	-0.0126948515
4	0xbc30bc67	-0.010787106
5	0xbd847fae	-0.064696655
6	0xbd68cc7a	-0.05683563
7	0x3dba70e2	0.09103562
8	0xbcb5e2b0	-0.02220282
9	0x3c53ad17	0.012919686
10	0xbcbe62b8	-0.023240432
11	0xbd620124	-0.05517687
12	0x3cba255e	0.022722896
13	0xbd5be694	-0.053686693
14	0x3c6e1e20	0.01453355
15	0xbc05c382	-0.0081642885
16	0xbd44ce7b	-0.048048478
17	0xbd791343	-0.060809385
18	0x3c6778c5	0.014127915
19	0x3d4a046c	0.049320623
20	0x3aa72540	0.001275219
21	0x3c7a8440	0.01529032
22	0xbd1bf08a	-0.038071193
23	0x3cedc58b	0.02902486
24	0x3cd96e96	0.02654199
25	0xbd2c9a5a	-0.04213939
26	0x3d158afd	0.036509503
27	0x3ce3afa3	0.027793711
28	0xbccb3fe4	-0.024810739
29	0x3c902d94	0.017599858
30	0x3c288975	0.010286679
31	0xbb205657	-0.0024465525
32	0xbcec595f	-0.02885121
33	0x3a424680	0.0007411018
34	0xbc82cb68	-0.015966132
35	0x3c1e1cce	0.009650422
36	0x3bcbfcc4	0.0062252004
37	0xbc2b7e51	-0.010467128
38	0xbd90893e	-0.07057427
39	0x3ca5ff78	0.020263419
40	0x3ca9ee79	0.020743595
41	0x3ba6b558	0.005087536
42	0xbce801a0	-0.028321087
43	0x3d7bd908	0.061486274
44	0x3c167c18	0.00918486
45	0xbd144281	-0.036196236
46	0x3d36ff5c	0.044677123
47	0xbe089e23	-0.13341574
48	0xbc9dcfb8	-0.019264087
49	0x3ab09980	0.0013473481
50	0x3be64850	0.0070276633
51	0xbc440f02	-0.011966469
52	0xbb50bf52	-0.0031852317
53	0x3cd1462a	0.025546152
54	0x3d257ab8	0.040400237
55	0x3d370842	0.04468561
56	0x3cffc681	0.031222584
57	0xbd7095fe	-0.058736794
58	0x3c2845fb	0.010270591
59	0xbd359a44	-0.044336572
60	0x3d72fd0a	0.059323348
61	0x3c827668	0.015925601
62	0x3cc200c0	0.023681998
63	0x3d2476c2	0.04015232
64	0x3d2f718c	0.042832896
65	0xbd175304	-0.036944404
66	0x3d4c8b4c	0.04993753
67	0x3d6d45de	0.05792796
68	0xbc8445f3	-0.016146636
69	0x3d7ccce1	0.061718825
70	0xbd130dd8	-0.035901874
71	0x3d79b628	0.060964733
72	0xbd136502	-0.035985
73	0xbc1fa308	-0.0097434595
74	0xbd56042d	-0.052250076
75	0xbd205443	-0.03914286
76	0x3d267fc3	0.040649187
77	0x3da1226e	0.07867895
78	0x3d7bcb4a	0.06147317
79	0xbd3b9f59	-0.045806263
80	0xbd0f4f26	-0.03498759
81	0x3d33da97	0.043909635
82	0x3aa23530	0.001237547
83	0x3c2f496a	0.010698656
84	0xbd4161b8	-0.047212332
85	0x3d485676	0.04891058
86	0xbd1c192c	-0.038109943
87	0xbd32ca22	-0.0436498
88	0x3c92df40	0.01792872
89	0xbb99fab5	-0.004699076
90	0x3c5b0e51	0.0133701125
91	0xbd0a0649	-0.0336974
92	0xbb14a86d	-0.0022683397
93	0x3b82a3bb	0.0039868033
94	0x3c53ff27	0.012939251
95	0x3d3b075c	0.045661315
96	0x3c7f136d	0.015568596
97	0x3bb44100	0.0055009127
98	0xbcea3ba8	-0.0285929
99	0xbd047890	-0.03234154
100	0xbd4cf98e	-0.05004268
101	0xbbc87c97	-0.006118368
102	0x3d14217e	0.036164753
103	0x3c952433	0.018205738
104	0xbd06baf4	-0.032893136
105	0xbc9ca10c	-0.019119762
106	0x3d5e3939	0.05425379
107	0x3d62fe1e	0.055418126
108	0xbd3fa3f5	-0.04678722
109	0xbcbbf1bc	-0.022942416
110	0x3cf33d10	0.029692203
111	0xbd91e510	-0.07123768
112	0xbceed3d2	-0.029153738
113	0xbcdfdcb0	-0.027326912
114	0x3ca860ca	0.020553965
115	0xbd78090c	-0.060555503
116	0xbd59897e	-0.05310964
117	0xbd2b13a7	-0.04176679
118	0x3d2f3824	0.04277815
119	0xbd811585	-0.06302933
120	0x3a9163f0	0.0011092406
121	0xbd0512dc	-0.03248869
122	0x3d6ba48d	0.057529975
123	0xbc83800c	-0.016052268
124	0xbcc13778	-0.02358602
125	0x3d0a9fbd	0.033843745
126	0xbbd5add5	-0.0065209665
127	0x3c965f3c	0.018355958
128	0xbd142848	-0.036171228
129	0xbc5441f0	-0.012955174
130	0xbd5140e6	-0.051087283
131	0x3d3b4012	0.0457154
132	0x3cc3cc2f	0.023901073
133	0xbd673251	-0.05644447
134	0x3cba94ec	0.02277609
135	0xbd6b2ba2	-0.05741466
136	0xbcb619be	-0.022229072
137	0x3cad87cb	0.021182915
138	0x3d380346	0.044924997
139	0xbcf886e0	-0.03033775
140	0x3d1162be	0.03549456
141	0xbd354860	-0.044258475
142	0xbd1053a8	-0.03523603
143	0x3cc3b782	0.023891214
144	0xbc9a284a	-0.01881804
145	0x3d70796c	0.058709547
146	0x3c85db3a	0.016339887
147	0x3d0c4072	0.034241147
148	0xbd5cfe4c	-0.053953454
149	0xbd9025e4	-0.07038477
150	0xbd3ccd06	-0.046093963
151	0xbd5dc22a	-0.054140247
152	0x3c1c43a2	0.009537609
153	0x3d20945e	0.039203994
154	0xbd608dc3	-0.054822695
155	0x3d58df3d	0.05294727
156	0x3d0e8b12	0.034800597
157	0x3befad30	0.0073143467
158	0x3c9a4a8a	0.018834371
159	0x3c99d7ac	0.018779598
160	0xbd2699d2	-0.04067404
161	0xbc474685	-0.012162809
162	0xbc6972a8	-0.014248528
163	0x3d18f7b3	0.0373456
164	0xbd26669d	-0.040625203
165	0xbd3e9348	-0.046527177
166	0x3c7f196d	0.015570027
167	0xbd8f5cd0	-0.070001245
168	0x3c2fcfa0	0.010730654
169	0xbd87ca9a	-0.0663044
170	0x3cc6ffa4	0.02429182
171	0xbd844be2	-0.06459786
172	0xbd2cf3e2	-0.042224772
173	0xbd498228	-0.049196392
174	0xbd8831a3	-0.066500925
175	0x3c9051f1	0.017617198
176	0xbc77213a	-0.015083605
177	0x3c070a7f	0.008242249
178	0xbc266568	-0.010156013
179	0xbc850991	-0.016239913
180	0x3c00790b	0.007841359
181	0x3cddf3c3	0.027093774
182	0x3d0479e3	0.032342803
183	0xbd2e2ae3	-0.04252137
184	0xbb86e3bd	-0.004116504
185	0xbd6cc62c	-0.05780618
186	0x3d46dfa6	0.04855313
187	0x3cb47478	0.022028193
188	0xbcf73c3f	-0.030180095
189	0xbca97f92	-0.020690713
190	0xbc900a78	-0.017583117
191	0xbd811e79	-0.0630464
192	0xbd55d089	-0.052200828
193	0xbd749393	-0.05971105
194	0x3b3752dd	0.0027972974
195	0xbca5d2d8	-0.02024214
196	0xbc51e6f7	-0.012811414
197	0x39f17a00	0.00046058
198	0xbd0494a1	-0.032368306
199	0x3b4be20b	0.0031110074
200	0xbc491f50	-0.012275532
201	0x3c87915b	0.016548803
202	0xbcffcd97	-0.031225963
203	0x3b1664fd	0.0022948377
204	0x399f7b55	0.00030418733
205	0x3d7e9a4a	0.06215886
206	0xbd028aa3	-0.031870496
207	0xbd680160	-0.056641936
208	0xbd5a384a	-0.053276338
209	0xbc9d791d	-0.01922279
210	0x3be84ce0	0.0070892423
211	0xbcdc37ee	-0.026882138
212	0xbbf9e160	-0.0076257437
213	0xbd472de4	-0.04862775
214	0x3d1cbec7	0.038267877
215	0xbd5d1aaa	-0.053980507
216	0x3d281a22	0.041040547
217	0xbcde939c	-0.027169995
218	0x3d361977	0.04445788
219	0xbd8239c8	-0.06358677
220	0x3d00632b	0.031344574
221	0xbc85e8b4	-0.016346313
222	0xbd3e710e	-0.046494536
223	0xbd84f14b	-0.064913355
224	0x3b9f29e0	0.004857287
225	0x3d0ef040	0.03489709
226	0x3cc3d074	0.02390311
227	0x3ceea0a7	0.02912934
228	0xbc031b80	-0.008002162
229	0x3d0320b2	0.032013603
230	0x3d62f303	0.055407535
231	0x3dd2e10f	0.10296833
232	0xbd48d00e	-0.04902654
233	0x3cefc4fc	0.029268734
234	0x3c4354a0	0.011922032
235	0xbd383236	-0.04496976
236	0x3d5376da	0.051627018
237	0x3c5cf768	0.013486721
238	0x3c4c7fa8	0.0124816075
239	0x3d66912a	0.056290783
240	0xbb6ebd5b	-0.0036428783
241	0xbc35fb05	-0.011107211
242	0xbb8d57f1	-0.004313462
243	0xbc9626ec	-0.018329106
244	0x3c8e52ec	0.017373525
245	0xba27cff2	-0.00064015307
246	0xbd1a3c31	-0.03765506
247	0x3aa62c4e	0.0012677999
248	0xbd2b5fa8	-0.04183927
249	0xbd029860	-0.031883597
250	0xbc004c78	-0.007830732
251	0x3ce25eb8	0.027633056
252	0x3cb74774	0.022372939
253	0xbc406214	-0.011742134
254	0xbd2eb40b	-0.04265217
255	0x3c415160	0.0117991865

bias f4 [128]
0	0xbc0befdc	-0.008541074
1	0x3ce84360	0.02835244
2	0x3c9c3e24	0.0190726
3	0x3c4d3ce1	0.012526722
4	0x3ce1d19c	0.02756577
5	0xbcfe7f5c	-0.031066589
6	0x3e535495	0.20637734
7	0x3c2eb876	0.010664096
8	0xbe79c564	-0.24391705
9	0xbc0c7706	-0.008573299
10	0x3b964544	0.004585894
11	0x3c902814	0.017597236
12	0xbc5a8b44	-0.013338868
13	0xbca4769c	-0.020076089
14	0xbd53ac3c	-0.051677927
15	0xbe3fbc72	-0.1872423
16	0x3d27e11b	0.04098616
17	0x3d9d915f	0.07693743
18	0xbccd1d52	-0.025038395
19	0xbb924cd0	-0.004464723
20	0xbd0a9429	-0.033832703
21	0xbe7ae14a	-0.24500003
22	0xbe49af55	-0.1969579
23	0x3c41dfa0	0.0118331015
24	0xbe8371c9	-0.2567275
25	0x3d3cd042	0.046097048
26	0xbdf8ce0a	-0.12148674
27	0xbd3565dc	-0.044286594
28	0x3e5b9971	0.21445252
29	0x3d95d982	0.07316877
30	0xbd81cff4	-0.06338492
31	0x3cf098c8	0.029369727
32	0xbd3b966f	-0.04579776
33	0xbc76e4c0	-0.015069187
34	0xbd4424e6	-0.04788675
35	0xbcab9a89	-0.020947712
36	0x3d862007	0.065490775
37	0x3e1017c5	0.14071567
38	0xbcae8bf0	-0.021306962
39	0xbc256adf	-0.010096281
40	0xbc979140	-0.018501878
41	0x3d1a002c	0.03759782
42	0xbbfb54aa	-0.007670005
43	0xbe1dd3ee	-0.15412876
44	0xbd3a23b3	-0.0454442
45	0xbc28033a	-0.0102546755
46	0x3e2d19d0	0.16904378
47	0x3d486f00	0.048933983
48	0xbd3f3ac8	-0.046686918
49	0x3d2b6680	0.0418458
50	0x3cc480c4	0.023987181
51	0x3cf0633c	0.029344194
52	0xbd544bec	-0.051830217
53	0xbd276a8f	-0.040873107
54	0xbd5a71a8	-0.053331047
55	0xba2e2780	-0.0006643459
56	0x3cb088b9	0.02154957
57	0xbe08f7a6	-0.1337572
58	0x3d38dd7f	0.04513311
59	0xbcaa0efd	-0.0207591
60	0xbce5d1f7	-0.02805422
61	0x3cd7b971	0.026333543
62	0xbcdf5068	-0.02726002
63	0xbd1623de	-0.0366553
64	0xbbd66890	-0.0065432265
65	0xbcd85220	-0.026406348
66	0xbd642f2c	-0.05570905
67	0xbd64c0ec	-0.055848047
68	0x3d7f3e70	0.062315404
69	0xbd2c530e	-0.042071395
70	0xbdef020d	-0.11670313
71	0xbd3e03ad	-0.046390224
72	0x3d56ecc8	0.052471906
73	0xba64c000	-0.000872612
74	0x3d674fae	0.056472473
75	0x3d3fcb90	0.04682499
76	0x3c287d58	0.0102837905
77	0xbd5e2932	-0.054238506
78	0xbd82b177	-0.06381505
79	0xbd1d4128	-0.038392216
80	0xbd1b6509	-0.03793815
81	0x3e1e9c3f	0.1548929
82	0x3d33aace	0.043864064
83	0x3d4ef0f0	0.050522745
84	0x3b324581	0.0027202072
85	0xbd5b81a4	-0.05359043
86	0xbe098184	-0.13428313
87	0xbd4f9b56	-0.05068525
88	0x3c2bec7d	0.010493395
89	0x3d5ecc04	0.054393783
90	0x3da146e8	0.078748524
91	0x3d2d5de2	0.04232586
92	0x3c441ec8	0.011970229
93	0xbe57ad80	-0.21062279
94	0xbd52adce	-0.051435284
95	0xbbdff893	-0.0068350523
96	0xbd6e2c3c	-0.058147654
97	0xbd846491	-0.06464494
98	0x3cf15084	0.029457338
99	0x3e353a20	0.17697954
100	0xbd4caa35	-0.04996701
101	0xbd6bb8d9	-0.05754933
102	0xbe720a49	-0.23636736
103	0xbc1e468f	-0.009660377
104	0x3d37cec6	0.04487493
105	0xbd04d86e	-0.032432966
106	0xbd9f8054	-0.077881485
107	0xbe6b086a	-0.22952428
108	0xbe55ae74	-0.2086733
109	0x3b9d9a10	0.0048096254
110	0x3dd1fc7c	0.10253236
111	0xbd00916e	-0.031388693
112	0x3cfdcc03	0.03098107
113	0xbd2a1be2	-0.041530497
114	0x3d30f32c	0.043200657
115	0xbbd4f31f	-0.006498709
116	0x3c66d2a3	0.014088306
117	0xbd7bb963	-0.061456095
118	0xbe5b2f01	-0.2140465
119	0x3c87cac8	0.016576186
120	0xbe1e623c	-0.15467161
121	0xbe67ff98	-0.22656095
122	0x3e7aac52	0.24479797
123	0x3d74d00c	0.05976872
124	0xbca3d214	-0.019997634
125	0xbd24a9ee	-0.04020112
126	0x3e17f2fc	0.14838785
127	0x3b4ab7c3	0.0030932284

weight f4 [128, 128]
0	0xbd54cc3f	-0.051952597
1	0xbd10832a	-0.035281338
2	0x3cd7c208	0.026337638
3	0x3d3f2254	0.046663597
4	0x3d62b761	0.055350665
5	0x3bf435df	0.007452711
6	0xbd82649c	-0.06366846
7	0xbba7b87f	-0.005118429
8	0xbcea16f8	-0.028575405
9	0x3dab50ec	0.08365044
10	0xba69af5b	-0.00089143746
11	0x3d1f7b21	0.038935784
12	0xbd71e466	-0.05905571
13	0xbd12979d	-0.03578912
14	0x3b8751b1	0.0041296114
15	0xbd8d6986	-0.069048926
16	0xbd291171	-0.0412764
17	0x3d44865f	0.04797971
18	0xbdb2b8d3	-0.08726659
19	0xbc8f93b2	-0.017526481
20	0xbd0cdaa2	-0.034388192
21	0xbda6ee67	-0.081509404
22	0x3da381d1	0.07983745
23	0xbd9f2374	-0.07770434
24	0x3d39df78	0.045379132
25	0xbbb1cf8e	-0.005426354
26	0x3d43d102	0.047806747
27	0x3d852cfa	0.06502719
28	0xbd8654e4	-0.0655916
29	0xbdb184da	-0.086679175
30	0xbd850e6c	-0.064968914
31	0x3d3acb71	0.045604173
32	0xbc3dd143	-0.011585536
33	0x3d5c70c7	0.05381849
34	0xbdb267d0	-0.08711207
35	0xbca5b5e0	-0.020228326
36	0xbdae0654	-0.08497301
37	0x3d7d4f45	0.061843175
38	0xbdace52d	-0.08442149
39	0x3db20f94	0.086943775
40	0xbbd50238	-0.0065005086
41	0xbcd1facf	-0.02563229
42	0xbba69f11	-0.00508488
43	0xbd9f482f	-0.0777744
44	0x3d2718d2	0.040795155
45	0xbcb74da3	-0.022375887
46	0x3d83a4a3	0.06427886
47	0x3d0f9d17	0.035061922
48	0xbc9881cc	-0.01861658
49	0x3d1ef777	0.03881022
50	0xbd89fb49	-0.06737382
51	0x3d98622b	0.07440599
52	0x3cf6b086	0.03011347
53	0x3d04098a	0.03223566
54	0xbc8ad111	-0.016945394
55	0x3d8abc63	0.06774213
56	0xbcc15fed	-0.023605311
57	0xbd02bd4f	-0.03191882
58	0x3d8e247d	0.06940553
59	0x3ce4cdf6	0.027930241
60	0x3c8b8385	0.017030487
61	0x3d9f0afd	0.07765768
62	0x3d923352	0.07138695
63	0x3d2b0fbe	0.04176306
64	0x3c8ad5c6	0.016947638
65	0xbc1ace10	-0.009448543
66	0xbccecacf	-0.025243191
67	0xbcb93f55	-0.022613207
68	0x3ca992cf	0.020699887
69	0x3d5e8099	0.05432186
70	0xbd1741e8	-0.036928087
71	0xbd997aae	-0.074941024
72	0x3d6f3ad9	0.05840573
73	0x3d444b0d	0.047923137
74	0xbd475da7	-0.0486733
75	0x3d08e8c1	0.033425096
76	0x3da48747	0.080336146
77	0x3d692085	0.05691578
78	0x3d52fca6	0.051510476
79	0x3b86a090	0.004108496
80	0xbd3e0d36	-0.046399318
81	0xbd5023a8	-0.050815254
82	0x3cadffe2	0.021240178
83	0xbd905549	-0.07047517
84	0x37f9dfb5	2.9787285e-05
85	0x3d9bdb7d	0.076102234
86	0xbd8b9d26	-0.06817083
87	0x3ccd38ff	0.025051592
88	0xbd6d4292	-0.057924815
89	0x3d66e0e9	0.056366835
90	0xbc2ca627	-0.010537661
91	0xbd759050	-0.05995208
92	0x3ce22e3c	0.027609937
93	0x3cdb6616	0.026782077
94	0x3d346262	0.044039138
95	0xb8b21496	-8.491536e-05
96	0xbc2f109b	-0.010685111
97	0x3d0b6c5d	0.03403889
98	0xbd272f95	-0.040816862
99	0xbd730886	-0.0593343
100	0x3d0335af	0.03203362
101	0x3cd22b7d	0.025655502
102	0xbc6ffa03	-0.01464701
103	0xbc95e518	-0.018297717
104	0xbd4170c1	-0.04722667
105	0xbd98152d	-0.07425914
106	0x3d8447cf	0.06459009
107	0xbd296a43	-0.041361105
108	0x3d283e1b	0.041074853
109	0x3d2b34d5	0.04179843
110	0x3bace18c	0.0052759107
111	0xbbf1d83c	-0.0073805135
112	0xbccf5a21	-0.025311531
113	0x3ac51c8e	0.0015038417
114	0x3d856467	0.06513291
115	0xbd96bfe0	-0.07360816
116	0x3c5805b7	0.013184956
117	0x3d2f6507	0.042820957
118	0xbd0033d7	-0.03129944
119	0x3d72df01	0.059294704
120	0x3d30e5bc	0.04318784
121	0x3ce5d4cf	0.028055577
122	0x3d63a4a5	0.05557694
123	0x3c9889d1	0.018620403
124	0xbd3183c6	-0.04333856
125	0x3c89018e	0.016724374
126	0xbd84915d	-0.06473038
127	0x3d39a3b2	0.045322128
128	0x3bef226c	0.0072978046
129	0x3d2559a7	0.040368702
130	0x3d8a9a61	0.06767727
131	0xbd63ea02	-0.05564309
132	0xbcea662f	-0.028613178
133	0xbccbadd3	-0.02486316
134	0x3d4488a2	0.047981866
135	0x3d84ded4	0.064878136
136	0x3dc66f8b	0.09689244
137	0xbcc78359	-0.024354624
138	0xbb22c42b	-0.0024836164
139	0xbcfc5f27	-0.03080709
140	0xbd3df269	-0.04637376
141	0xbd5cbcdb	-0.053891044
142	0xbda3cbd4	-0.079978615
143	0x3dd43e96	0.103635
144	0xbd3f897c	-0.046761975
145	0xbc8f234e	-0.01747289
146	0xbcaf460c	-0.021395706
147	0x3cd02a3d	0.025410766
148	0x3d5abf31	0.05340499
149	0xbc72b161	-0.014812798
150	0x3d4d408f	0.050110396
151	0xbc49d105	-0.012317901
152	0xbcb7b22a	-0.022423822
153	0xbb9507f2	-0.0045480663
154	0x3da28402	0.07935335
155	0xbd8895e1	-0.06669212
156	0xbd6cde6a	-0.057829298
157	0x3c6eb8df	0.014570444
158	0xbd227f86	-0.039672397
159	0xbdb1bc53	-0.08678498
160	0xbbe75d78	-0.007060703
161	0x3d1b5096	0.03791865
162	0xbd8ac2f6	-0.06775467
163	0x3d734104	0.059388176
164	0x3bcec9f1	0.0063106944
165	0xbd4a2696	-0.049353205
166	0xbcc2f7e8	-0.023799852
167	0xbd2e0036	-0.04248067
168	0xbd1464cb	-0.036228936
169	0x3c46fc3d	0.012145099
170	0x3dac1b7b	0.08403679
171	0x3d9e7cc5	0.07738642
172	0xbd737074	-0.059433416
173	0xbd723991	-0.05913693
174	0xbd142d05	-0.036175746
175	0xbd064161	-0.032777194
176	0xbc854999	-0.016270446
177	0x3cf48b58	0.0298516
178	0x3bf3306c	0.007421544
179	0xbd8e16dd	-0.069379546
180	0xbd2228f1	-0.039589826
181	0x3db29591	0.08719934
182	0x3d9cf074	0.0766305
183	0x3d48d413	0.049030375
184	0x3d5bd7ca	0.05367259
185	0x3d9fb763	0.0779865
186	0x3dc0eda9	0.0942033
187	0x3ca19931	0.019726368
188	0x3d1f091d	0.03882705
189	0xbd863330	-0.06552732
190	0x3c30bdef	0.010787471
191	0x3db065d1	0.0861317
192	0x3d46ab3d	0.04850315
193	0x3d8cf19f	0.06882023
194	0x3d3bf3ec	0.04588692
195	0x3d83b68d	0.06431303
196	0x3c22720e	0.009914888
197	0x3d9f8e1f	0.07790779
198	0x3d4e6903	0.050393116
199	0xbd84ea92	-0.06490053
200	0x3ceb530b	0.028726121
201	0xbc64f8c4	-0.013975326
202	0x3d96a346	0.07355361
203	0x3d7f3b5c	0.06231247
204	0xbd183801	-0.037162784
205	0x3aa6241e	0.0012675559
206	0xbd3e9066	-0.046524428
207	0xbc87613f	-0.016525863
208	0x3c110a14	0.0088525005
209	0xbd0e8c64	-0.034801856
210	0xbd693255	-0.056932766
211	0x3d34b304	0.044116035
212	0x3d40c0b7	0.047058787
213	0x3d12e5d9	0.03586373
214	0xbc83a40a	-0.01606943
215	0x3d20ca77	0.039255586
216	0xbd47c42f	-0.04877108
217	0x3d9e5b12	0.07732214
218	0xbd9cead5	-0.07661978
219	0x3c212f3a	0.00983792
220	0x3d0e4890	0.03473717
221	0x3db366e4	0.08759859
222	0xbc33dca9	-0.010977902
223	0x3d964c14	0.073387295
224	0xbc5f6e44	-0.013637129
225	0xbd5019f5	-0.050806005
226	0x3cf978c2	0.03045309
227	0xbdd236ba	-0.102643445
228	0x3cca02e0	0.024659574
229	0xbc0ff41a	-0.008786226
230	0x3d8ce107	0.06878858
231	0xbd987a18	-0.074451625
232	0xbceb5678	-0.028727755
233	0xbc2ffc61	-0.010741324
234	0xbc261582	-0.010136964
235	0x3db2f9c5	0.08739046
236	0x3d383d90	0.044980586
237	0xbd9140fd	-0.07092474
238	0xbd229975	-0.03969713
239	0xbd4d4e98	-0.05012378
240	0x3d0e2f41	0.034713034
241	0x3cf4d6af	0.029887525
242	0x3d8e358a	0.069438055
243	0x3d41e3cb	0.04733638
244	0x3d92313f	0.07138299
245	0xbc9048fb	-0.017612925
246	0x3d16b2f8	0.03679177
247	0xbd848d30	-0.06472242
248	0xbd43baef	-0.047785696
249	0x3dae34c4	0.08506158
250	0xbc55c716	-0.013047954
251	0x3cb70392	0.02234057
252	0x3d8851d3	0.06656232
253	0x3d69fb8e	0.057124667
254	0xbdc2de41	-0.09515048
255	0x3dad87f8	0.084731996

bias f4 [128]
0	0x3d7342c0	0.05938983
1	0xbe693f66	-0.22778091
2	0x3d3f7502	0.046742447
3	0x3e168481	0.14698984
4	0xbd23e9eb	-0.040018003
5	0xbe002a03	-0.12516026
6	0x3e72c3ba	0.23707476
7	0x3dd32e09	0.10311515
8	0xbb1574b3	-0.0022805154
9	0x3db2c84f	0.08729612
10	0x3bd9fff6	0.0066528274
11	0x3c7b0a7a	0.015322322
12	0xbe48caa3	-0.1960855
13	0xbcaf263d	-0.021380538
14	0xbdb537d8	-0.08848542
15	0xbdada804	-0.08479312
16	0x3d30acbf	0.043133494
17	0xbdc74d7d	-0.097315766
18	0xbcf0e72e	-0.02940711
19	0x3d9c6019	0.07635517
20	0xbd81f1b7	-0.063449316
21	0x3d27dada	0.040980197
22	0xbe980b4f	-0.29696128
23	0x3e04dc3d	0.12974639
24	0xbdf30d52	-0.11867775
25	0xba8ce5ee	-0.0010749677
26	0xbcac808a	-0.021057386
27	0x3e3e2f98	0.18572843
28	0x3caf374b	0.02138867
29	0x3d1f882c	0.038948223
30	0x3d2cda7e	0.042200558
31	0xbcd9bd86	-0.02657963
32	0x3d90e3ab	0.07074674
33	0x3d7384a8	0.059452683
34	0x3e0b1af1	0.13584496
35	0xbc845dcb	-0.016158005
36	0xbd9ff55b	-0.0781047
37	0xbe3c522c	-0.18390721
38	0xbc210219	-0.00982716
39	0xbe0eeaed	-0.13956805
40	0xbc1e763e	-0.009671746
41	0xbcbfb8ed	-0.02340361
42	0xbda9ef29	-0.08297569
43	0xbdb48010	-0.088134885
44	0xbe5dadb5	-0.21648295
45	0x3ca3ce11	0.019995721
46	0x3dd29b64	0.10283545
47	0xbdc65069	-0.09683306
48	0xbc359d46	-0.01108486
49	0x3e4d2b75	0.20036109
50	0x3e150041	0.14550878
51	0x3d3bb8ad	0.045830417
52	0x3dfa82f7	0.12232011
53	0xbd7b8950	-0.06141025
54	0xbdfb557b	-0.122721635
55	0xba1eae94	-0.0006053236
56	0x3e364ea1	0.17803432
57	0xbe0b55da	-0.13606969
58	0xbdbcb339	-0.092138715
59	0x3c2b9262	0.010471912
60	0x3c9efd51	0.0194079
61	0xbe61276e	-0.21987697
62	0x3d5165f4	0.05112262
63	0x3d071635	0.032980163
64	0x3d777a3f	0.060419317
65	0x3e602410	0.21888757
66	0xbcf19ba0	-0.029493153
67	0xbe23192f	-0.15927576
68	0xbe17bf7c	-0.14819139
69	0xbe58d071	-0.21173264
70	0x3e83b31d	0.2572259
71	0xbba092aa	-0.004900296
72	0xbc9c1e92	-0.019057546
73	0xbdecd017	-0.115631275
74	0xbd13d6df	-0.03609359
75	0xbe4c7da7	-0.19969808
76	0x3d7489cd	0.05970173
77	0xbcdb42c1	-0.02676523
78	0x3dbf8110	0.093507886
79	0xbd46e6b3	-0.048559856
80	0x3cc9bcc6	0.024626147
81	0x3d4cc439	0.04999182
82	0xbe827290	-0.2547803
83	0xbd844257	-0.06457966
84	0x3e36869e	0.1782479
85	0x3cd79e4e	0.026320603
86	0xbd31672b	-0.04331128
87	0xbad3e967	-0.0016167582
88	0x3e8ea714	0.27861845
89	0x3d6a08e0	0.05713737
90	0xbe2e66de	-0.17031428
91	0xbd9467e3	-0.07246377
92	0x3eaf4b67	0.34237215
93	0xbd82aa18	-0.06380099
94	0xbe0e715c	-0.1391043
95	0xbdbfc101	-0.093629844
96	0x3cdba86f	0.026813714
97	0x3d304e7a	0.04304359
98	0x3df92159	0.12164564
99	0x3dd233ef	0.10263812
100	0xbda2beb9	-0.07946534
101	0x3cb2990d	0.021801496
102	0xbd9c4423	-0.076301835
103	0xbd9e93d4	-0.0774304
104	0xbe062bd1	-0.13102652
105	0xbd309b79	-0.04311702
106	0xbccd2f43	-0.02504695
107	0xbe0073e2	-0.12544206
108	0xbe2a440d	-0.16627522
109	0xbd745f98	-0.059661478
110	0x3d514703	0.051093113
111	0x3d774221	0.0603658
112	0xbe0fcc98	-0.1404289
113	0x3d3f4343	0.046695005
114	0xbd0e5554	-0.034749344
115	0x3d2d8cab	0.04237048
116	0x3d1a9d5b	0.037747722
117	0xbd4bd1a3	-0.049760472
118	0xbdfd4195	-0.123660244
119	0xbd959545	-0.073038615
120	0xbdbfc36e	-0.09363447
121	0xbe66731f	-0.22504853
122	0xbd629d7c	-0.05532597
123	0xbd9f813a	-0.0778832
124	0xbdbec62d	-0.09315143
125	0x3e2ef1d5	0.17084439
126	0xbd57fb0f	-0.052729663
127	0xbdd21f81	-0.10259915

weight f4 [128, 128]
0	0xbd73ba7e	-0.059504025
1	0xbda24480	-0.079232216
2	0xbc248ff3	-0.010044086
3	0x3c599284	0.013279561
4	0x3dadd42d	0.08487735
5	0x3cb7eaeb	0.022450885
6	0xbd957e31	-0.0729946
7	0xbd4986b7	-0.04920074
8	0x3d1526c5	0.036413927
9	0x3cd630c5	0.026146302
10	0xbc774d9c	-0.015094187
11	0xbd08d8a2	-0.033409722
12	0x3dab684b	0.08369502
13	0x3dbcbe6a	0.09216006
14	0xbd0e7079	-0.03477523
15	0xbd899861	-0.06718517
16	0xbc504bb8	-0.012713365
17	0x3da3b40a	0.07993324
18	0x3d8a958b	0.06766804
19	0x3b5cbad9	0.0033680706
20	0xbd9b8299	-0.07593269
21	0xbd1d8d97	-0.03846511
22	0x3d5b2c79	0.05350921
23	0xbd66e7e3	-0.05637349
24	0xbbb48327	-0.0055087986
25	0x3c894deb	0.016760787
26	0xbd5bc88c	-0.053658053
27	0xbd9d97b4	-0.07694951
28	0x3c853932	0.016262624
29	0xbd1c8667	-0.038214114
30	0x3d970fe2	0.07376076
31	0xbd33905d	-0.043838847
32	0x3d522ffe	0.0513153
33	0x3d933760	0.07188296
34	0x3dac0f48	0.08401352
35	0xbd9c9604	-0.07645801
36	0xbce19a7f	-0.02753949
37	0xbccce390	-0.025010854
38	0x3d066ff7	0.03282162
39	0x3d0b8b89	0.034068618
40	0xbd526b24	-0.05137171
41	0xbda11f3f	-0.07867288
42	0xbcd2cbea	-0.025732
43	0x3d83d1c0	0.06436491
44	0x3d4ae77e	0.049537174
45	0x3dc98ebb	0.09841677
46	0x3d5765d6	0.052587353
47	0xbd055a74	-0.032556966
48	0xbd9e9ecb	-0.07745131
49	0x3b1442d8	0.002262285
50	0x3d47d767	0.048789408
51	0xbd9ba66f	-0.07600104
52	0x3d62d585	0.05537941
53	0x3d3e37ad	0.046439815
54	0xbd9f8ff0	-0.07791126
55	0x3d7218bd	0.059105624
56	0xbcdeb782	-0.027187113
57	0xbd2810f7	-0.041031804
58	0x3cac7b7c	0.021054976
59	0x3d5effbd	0.05444311
60	0xbc83078c	-0.01599481
61	0x3dcebcff	0.10094642
62	0x3d863f0d	0.06554995
63	0xbd8c57fe	-0.06852721
64	0x3d9e3026	0.07724027
65	0x3cb33441	0.021875503
66	0x3d974cad	0.073876716
67	0x3d9ebfcf	0.07751428
68	0x3d0eda9e	0.03487646
69	0xbd399226	-0.045305394
70	0x3da9285a	0.082596496
71	0x3da09bc0	0.07842207
72	0xbd990219	-0.07471103
73	0xbc75889d	-0.014986184
74	0x3d7025ac	0.058629677
75	0xbd07a225	-0.033113617
76	0xbd80074b	-0.06251391
77	0x3daa4800	0.08314514
78	0xbc994b08	-0.018712536
79	0x3da4830e	0.08032809
80	0x3d9717f7	0.07377618
81	0xbd7f7b47	-0.062373426
82	0x3d097545	0.033559103
83	0xbd8d91ff	-0.06912612
84	0x3d695827	0.056968834
85	0xbd1d97ff	-0.038475033
86	0xbc28b47e	-0.010296939
87	0x3d5ed4bd	0.0544021
88	0x3db57d83	0.0886183
89	0x3c22c0f8	0.009933703
90	0x3d74e443	0.059788
91	0xbc5f6935	-0.013635923
92	0x3c28bb28	0.010298528
93	0x3c907842	0.017635468
94	0x3c179f95	0.009254356
95	0xbd581806	-0.052757286
96	0x3dcc28a3	0.09968688
97	0x3bcb5e60	0.0062063187
98	0x3d86506c	0.06558308
99	0xbd8ba39f	-0.068183176
100	0xbd9ed5ca	-0.07755621
101	0xbd32948f	-0.043598708
102	0x3d36026e	0.04443591
103	0x3d81f8e2	0.06346299
104	0x3d0a1ffe	0.033721916
105	0xbc45ce05	-0.012073045
106	0xbd3e7046	-0.04649379
107	0xbd9379e0	-0.0720098
108	0xbd910216	-0.07080476
109	0x3b96ec93	0.0046058386
110	0xbd5cb68f	-0.05388504
111	0x3d9ca5c4	0.07648805
112	0xbd130ce5	-0.03590097
113	0x3c80fe48	0.01574625
114	0xbc1555a4	-0.009114657
115	0xbd8eb144	-0.069674045
116	0x3cd45e31	0.02592382
117	0x3d70fddd	0.058835853
118	0xbc568951	-0.013094262
119	0xbd448018	-0.047973722
120	0x3daaf6ce	0.083478555
121	0xbd244422	-0.04010404
122	0xbd790eb8	-0.060805053
123	0x3b870933	0.0041209697
124	0x3d2aacc0	0.041668653
125	0x3d4cffe7	0.050048735
126	0xbda573c1	-0.08078719
127	0x3d197031	0.03746051
128	0xbcc520aa	-0.024063427
129	0x3db83080	0.08993626
130	0xbc86f1c7	-0.01647271
131	0xbd6b182c	-0.0573961
132	0xbd183ba2	-0.037166245
133	0xbc89d83c	-0.016826741
134	0xbd4a183c	-0.049339518
135	0x3d0e2ec7	0.03471258
136	0xbd6a777c	-0.057242855
137	0xbd38016e	-0.04492324
138	0xbd876f72	-0.066130534
139	0x3c953724	0.01821477
140	0x3ddce955	0.10786692
141	0x3d774219	0.06036577
142	0x3d870174	0.06592074
143	0x3afcc77e	0.0019285528
144	0xbd8dcae1	-0.06923462
145	0xbc52d6a6	-0.012868559
146	0x3d6f1509	0.05836967
147	0x3d2fa3a1	0.042880658
148	0x3d92dd1b	0.07171079
149	0x3d969120	0.07351899
150	0x3dbbc380	0.09168148
151	0x3db3ee26	0.087856576
152	0x3e001f19	0.12511863
153	0x3d54ada0	0.051923394
154	0xbd832011	-0.064026006
155	0xbc576254	-0.013146002
156	0xbcf1b406	-0.029504787
157	0x3cce0440	0.025148511
158	0xbba06fe3	-0.0048961504
159	0xba74afac	-0.00093340385
160	0xbd6f1e44	-0.058378473
161	0x3c5e7b61	0.0135792205
162	0xbd7426d5	-0.059607346
163	0xbc11d4df	-0.00890085
164	0x3d6f7283	0.058458816
165	0x3d977616	0.0739557
166	0x3d312990	0.043252528
167	0x3d1b92bb	0.03798173
168	0x3d5fa538	0.054600924
169	0x3d4b9fb8	0.049712867
170	0xbc87a0dd	-0.016556198
171	0x3dc19569	0.09452326
172	0x3dae02e5	0.08496646
173	0xbccd1c40	-0.025037885
174	0xbd394f62	-0.04524172
175	0xbd6e0a57	-0.05811533
176	0xbc78f0cd	-0.01519413
177	0xbc858e52	-0.016303215
178	0xbd6bb1bd	-0.05754255
179	0x3d275927	0.040856507
180	0x3d4e097b	0.05030201
181	0xbd3b8f9f	-0.045791265
182	0xbc958587	-0.018252147
183	0x3ba0fb55	0.0049127736
184	0x3cc286fd	0.023746008
185	0xbd99e12b	-0.075136505
186	0xbdaa424c	-0.083134264
187	0x3c47a77b	0.012185927
188	0xbcdf4569	-0.027254777
189	0x3d413ef2	0.04717917
190	0xbd8c6f35	-0.068571486
191	0x3df2ff38	0.11865085
192	0x3cb712cb	0.022347828
193	0xbd3f1ebd	-0.046660174
194	0xbc9ead6d	-0.019369805
195	0x3d243995	0.040093977
196	0x3c7ac751	0.01530631
197	0xbd62b509	-0.05534843
198	0xbd5250e7	-0.051346686
199	0xbd961421	-0.07328058
200	0x3ce31135	0.027718166
201	0x3d151204	0.036394134
202	0x3d0fb4d5	0.035084564
203	0x3dc3128c	0.09525022
204	0xbcf6564d	-0.030070448
205	0x3d9177dc	0.071029395
206	0xbd63080d	-0.0554276
207	0x3cf106e7	0.029422237
208	0xbbf9239a	-0.007603121
209	0xbce82990	-0.028340131
210	0x3d284000	0.04107666
211	0xbbbd6ad8	-0.005780559
212	0x3dadba16	0.08482759
213	0x3d7582f8	0.059939355
214	0xbbcb1568	-0.00619762
215	0xbca738f3	-0.020412898
216	0xbdc29f95	-0.09503094
217	0xbd873c50	-0.066033006
218	0xbd5fbd8a	-0.054624118
219	0x3d868a5e	0.0656936
220	0xbbfaa726	-0.00764932
221	0x3d840026	0.06445341
222	0x3d63c97f	0.055612084
223	0xbdac86d7	-0.08424156
224	0x3d612f34	0.054976657
225	0xbb4e4ab2	-0.0031477627
226	0x3d167ad7	0.036738243
227	0xbcbc1351	-0.02295843
228	0x3d671b59	0.056422565
229	0xbd66061f	-0.05615818
230	0x3d492021	0.049102906
231	0x3d82d1bd	0.06387661
232	0xbce0d1b0	-0.027443737
233	0xbc916796	-0.017749589
234	0x3cc28dbb	0.023749223
235	0xbbd6b33e	-0.006552129
236	0x3cf1b284	0.029504068
237	0x3bb381f1	0.0054781367
238	0x3cfbeb77	0.030751927
239	0xbd0bfb41	-0.03417516
240	0x3dacd10c	0.0843831
241	0x3dba7333	0.09104004
242	0x3d8bade7	0.068202786
243	0xbd2d7064	-0.042343512
244	0xbce4af39	-0.027915584
245	0x3db59653	0.08866563
246	0x3c45648a	0.012047896
247	0x3c833b5f	0.016019521
248	0xbcd8bff9	-0.026458727
249	0xbca00bee	-0.019536939
250	0xbd525636	-0.05135175
251	0x3db7f4ea	0.089822605
252	0xbd14db95	-0.036342222
253	0xbd00fed4	-0.031493023
254	0x3a6e4d66	0.0009090513
255	0x3ce9875a	0.028506923

bias f4 [128]
0	0x3d2773a2	0.04088176
1	0xbd8848ba	-0.066544965
2	0xbdb05cff	-0.086114876
3	0xbd9954e7	-0.07486897
4	0xbd5a78da	-0.05333791
5	0xbd1a92ef	-0.037737783
6	0xbcdfaaf1	-0.02730319
7	0xbe547e79	-0.2075137
8	0x3e4e0fac	0.20123166
9	0xbdf3c5a5	-0.11902932
10	0x3d7247ea	0.059150614
11	0x3e8cfe67	0.27537844
12	0xbe0cca33	-0.13749008
13	0x3de743d9	0.11292238
14	0xbdb7f41e	-0.089821085
15	0x3d85bac8	0.06529766
16	0x3cb9ef4a	0.02269711
17	0x3e31096c	0.1728875
18	0x3d0ea320	0.034823537
19	0xbd0cb551	-0.034352604
20	0xbd2388f7	-0.03992554
21	0xbe107845	-0.14108379
22	0xbd32c17d	-0.043641556
23	0x3e121ffa	0.1427001
24	0x3bf73a25	0.007544773
25	0xbd4f81ab	-0.05066077
26	0x3e0672e9	0.13129772
27	0x3cbf97a9	0.023387747
28	0x3ddf36f5	0.10899154
29	0xbdf4f1b2	-0.11960162
30	0x3ba86baa	0.0051397877
31	0xbe1ff5fc	-0.1562118
32	0xbe2519b3	-0.16123085
33	0xbda05f10	-0.07830632
34	0xbcb23b28	-0.021756724
35	0x3ba2a69e	0.00496371
36	0x3df7d02a	0.12100251
37	0xbdc29564	-0.0950115
38	0xbe61f761	-0.22067024
39	0xbd7ef3d0	-0.062244236
40	0xbdbdcf1b	-0.09268018
41	0xbd357bd3	-0.04430754
42	0xb9e89923	-0.00044364584
43	0xbe2dcbda	-0.16972294
44	0x3e1da9b6	0.15396771
45	0x3d875cc7	0.06609493
46	0x3d8d94c6	0.06913142
47	0xbbebf6b2	-0.007201039
48	0xbe2971bc	-0.16547292
49	0xbdaee19b	-0.085391246
50	0xbd90fd2e	-0.0707954
51	0xbddc6cd5	-0.107629456
52	0xbda97a9e	-0.082753405
53	0xbdda57d6	-0.106612846
54	0xbe26b759	-0.16280879
55	0xbdb73cd4	-0.08947149
56	0x3d090544	0.033452287
57	0xbd9238c5	-0.07139734
58	0xbb1135ce	-0.0022157314
59	0xbd5c2378	-0.053744763
60	0x3d591682	0.05299998
61	0xbcfe4b4c	-0.031041764
62	0x3a72ca80	0.0009261742
63	0x3df6caf2	0.120504275
64	0xbcdf5a80	-0.027264833
65	0xbaa0bcea	-0.0012263332
66	0xbe2a7f88	-0.16650212
67	0xbe009784	-0.12557799
68	0xbe002409	-0.12513746
69	0xbc329950	-0.01090081
70	0x3d4d9d46	0.050198816
71	0xbdfd8dd9	-0.12380571
72	0x3b4cfa2c	0.0031277044
73	0xbc811c09	-0.015760439
74	0xbe470a83	-0.19437604
75	0x3debbb27	0.11510306
76	0xbc5b8cf0	-0.013400301
77	0x3df519e1	0.11967827
78	0x3cec86a1	0.02887279
79	0xbdc1deb4	-0.094663054
80	0xbd98f052	-0.074677125
81	0xbd5c7a79	-0.053827737
82	0xbd897d1b	-0.06713315
83	0x3e251bec	0.16123933
84	0xbe290410	-0.16505456
85	0xbcff921a	-0.031197596
86	0xbdcfb23c	-0.101414174
87	0xbda96957	-0.08272045
88	0x3cab3f5a	0.020904232
89	0xbdc077fc	-0.09397885
90	0xbd04ea70	-0.03245014
91	0xbd3b2056	-0.045685135
92	0xbdabfdce	-0.08398019
93	0x3e285b18	0.16441
94	0xbe0d1f84	-0.13781554
95	0x3c33ff93	0.010986227
96	0xbc8835c7	-0.016627206
97	0x3d83d4c5	0.06437067
98	0xbd72c733	-0.059272002
99	0x3bb501c4	0.005523892
100	0xbc057624	-0.008145843
101	0xbd382469	-0.0449566
102	0xbdb6f1ed	-0.089328624
103	0x3c6c0458	0.0144053325
104	0xbdca41d6	-0.098758385
105	0xbd7e8628	-0.06213966
106	0xbdf32118	-0.118715465
107	0xbe46a89a	-0.19400254
108	0xbcc05096	-0.023475926
109	0xbe56fd7d	-0.20995136
110	0x3cefb835	0.029262641
111	0x3c1c74cd	0.009549332
112	0x3d6d5931	0.057946388
113	0xbd3a1874	-0.045433477
114	0xbd7c17d0	-0.061546147
115	0xbe4796d9	-0.19491138
116	0xbe0e679f	-0.13906716
117	0xbd8397b7	-0.06425422
118	0xbe31bb7b	-0.17356674
119	0xbdcba35c	-0.09943268
120	0xbda11729	-0.078657456
121	0x3d2a4cc4	0.041577116
122	0xbd956272	-0.072941676
123	0x3d1fafae	0.0389859
124	0x3e675cae	0.22593948
125	0x3d89da91	0.06731141
126	0xbd70caad	-0.058787037
127	0x3c747fb7	0.014923028
